data/model_weights/cv_fold_3_model4_1.pt (torch, 707477 bytes, 29 tensors)

ablang_branch.0.weight f4 [256, 480]
0	0xbc8f0b23	-0.017461365
1	0xbc542885	-0.012949114
2	0x3e054080	0.13012886
3	0xbd2b3a4e	-0.04180365
4	0xbd0ab2f3	-0.033862066
5	0x3e0bab0e	0.13639471
6	0xbc92ae68	-0.017905429
7	0x3ddd7bb6	0.108146116
8	0x3c40b2ec	0.011761408
9	0xbd54de60	-0.051969886
10	0x3cb19134	0.021675684
11	0x3d7a6489	0.061131034
12	0x3d097b91	0.033565108
13	0xbd57d2ed	-0.05269139
14	0xbd1b66ef	-0.037939962
15	0x3c8a1fc6	0.016860854
16	0x3ddd6155	0.1080958
17	0x3b2b7d1f	0.0026167107
18	0xbc503d6f	-0.012709959
19	0x3b78ffb7	0.0037994215
20	0x3d901595	0.070353664
21	0x3cd52b29	0.026021557
22	0x3b6f4421	0.0036509114
23	0xbd73e610	-0.059545577
24	0x3d4e2339	0.05032656
25	0x3cd2bb7b	0.025724163
26	0xbd2ae975	-0.04172655
27	0xbdfe96f6	-0.12431137
28	0x3e074e50	0.13213468
29	0xbddba404	-0.10724643
30	0x3e084dc5	0.13310917
31	0xbd7fa072	-0.062408872
32	0xbd9c86d5	-0.07642905
33	0xbd38a2dd	-0.045077194
34	0x3e0db657	0.13839088
35	0x3e1b073a	0.15139475
36	0xbb3d8b7a	-0.0028922246
37	0xbe3833a4	-0.1798845
38	0x3d8704c1	0.065927036
39	0xbd34be56	-0.04412683
40	0xbd3f8eca	-0.046767034
41	0xbd931b6a	-0.07182963
42	0xbd836b2a	-0.06416924
43	0x3d5024d9	0.05081639
44	0x3def61ce	0.11688577
45	0x3d1d58d8	0.038414806
46	0x3c00bf3a	0.007858092
47	0x3d8196b4	0.063275725
48	0xbc9b348f	-0.01894596
49	0x3ddd8225	0.10815839
50	0x3c51245f	0.012765019
51	0xbd16015c	-0.03662239
52	0x3d964335	0.073370375
53	0xbd448b4d	-0.04798441
54	0x3cbdf147	0.023186339
55	0xbd5e001b	-0.05419932
56	0x3d53b50e	0.05168634
57	0xbb67b0b9	-0.0035353138
58	0x3cbbb36a	0.0229127
59	0xbd9eca9f	-0.07753491
60	0x3d4a9b7c	0.049464688
61	0xbd410c18	-0.047130674
62	0x3daa61b8	0.083194196
63	0x3b698807	0.0035634057
64	0xbc78ff97	-0.015197656
65	0x3d8dc9b3	0.06923237
66	0xbcc37ce1	-0.023863258
67	0xbc43af0a	-0.011943588
68	0xbd86d401	-0.06583405
69	0xbda42a7d	-0.080159165
70	0x3c067b8a	0.008208165
71	0xbe18fb96	-0.14939722
72	0xbd903c9f	-0.070428126
73	0xbda9d50b	-0.08292588
74	0x3d41f9ca	0.047357358
75	0xbdf85fc7	-0.12127643
76	0x3e0dcaae	0.13846847
77	0xbde81160	-0.11331439
78	0x3d829582	0.063761726
79	0x3da906a4	0.0825322
80	0xbc57034f	-0.013123347
81	0x3c767a53	0.015043813
82	0xbdc15f44	-0.094419986
83	0xbcde2374	-0.027116515
84	0xbc91af0a	-0.01778366
85	0xbbb212b1	-0.005434357
86	0x3db9d909	0.09074599
87	0x3d84d0d4	0.06485143
88	0xbe086000	-0.13317871
89	0xbca02c08	-0.019552246
90	0x3dcdc8d5	0.10048071
91	0x3e0b0126	0.13574657
92	0x3c9a91b2	0.018868301
93	0xbe10d5c9	-0.14144053
94	0xbda6be28	-0.08141738
95	0xbd3e1713	-0.046408724
96	0xbd2c09d3	-0.042001557
97	0xbd355567	-0.0442709
98	0xbd66f7b4	-0.05638857
99	0xbcb0da87	-0.021588577
100	0xbccf3222	-0.02529246
101	0x3db8214e	0.08990727
102	0xbc42b507	-0.011883981
103	0xbc2f269c	-0.010690358
104	0x3d012771	0.031531755
105	0x3dd52191	0.10406793
106	0xbd71137d	-0.058856476
107	0xbe0826c1	-0.13296033
108	0xbd4b8ed9	-0.049696777
109	0xba401556	-0.0007327398
110	0xbd87b2c2	-0.06625892
111	0x3a9c2bba	0.0011914887
112	0x3d89a9b7	0.06721824
113	0x3d5ff3ad	0.054675747
114	0x3c980cbd	0.018560762
115	0xbdaa63d0	-0.08319819
116	0x3d5aed65	0.053449053
117	0x3d353a00	0.044244766
118	0xbda8e300	-0.08246422
119	0x3b99dedd	0.004695757
120	0x3d1f6877	0.038917985
121	0xbc931a8b	-0.017956993
122	0x3d36d599	0.044637296
123	0xbd96aad1	-0.073567994
124	0x3e20f90b	0.15720002
125	0x3dad8b46	0.0847383
126	0xbbe59baa	-0.007007082
127	0xbe106c9a	-0.14103928
128	0x3e0ea6da	0.13930836
129	0x3db26e38	0.08712429
130	0x3abacae2	0.0014251138
131	0xbc7fb512	-0.015607135
132	0xbd75ed9f	-0.060041066
133	0xbd7594a6	-0.059956215
134	0x3c6ce043	0.014457765
135	0xbd8291a1	-0.06375433
136	0xbd0f499e	-0.034982316
137	0x3d22db86	0.039760135
138	0x3d4d8390	0.050174296
139	0x3bab7ad7	0.0052331495
140	0xb9bfdd5e	-0.0003659529
141	0xbd744a66	-0.059641264
142	0xbd8c0111	-0.06836141
143	0xbc69537b	-0.014241095
144	0x3d0cc556	0.03436788
145	0x3d1ac2ff	0.03778362
146	0xbccf0d60	-0.025274932
147	0xbe13e61d	-0.1444325
148	0xbcc538e4	-0.02407498
149	0xbbaad119	-0.0052129147
150	0x3daf5e64	0.085629255
151	0xbe21dada	-0.15806141
152	0xbd760a14	-0.060068205
153	0xbdca1ebc	-0.09869143
154	0xbd7a4c5f	-0.06110799
155	0xbc29b675	-0.010358443
156	0xbcb87d14	-0.02252058
157	0xbd9c03de	-0.07617925
158	0xbcb4baf6	-0.022061806
159	0x3d0199a1	0.031640653
160	0x3cdf59c6	0.027264487
161	0xbcbdc229	-0.023163872
162	0xbc401771	-0.011724339
163	0x3ca1f93e	0.019772168
164	0x3a3b0e5a	0.00071356224
165	0x3db54246	0.08850531
166	0x3d2b44ce	0.041813664
167	0xbbd3b809	-0.0064611477
168	0x3bab7594	0.0052325223
169	0x3de14269	0.10998995
170	0xbbb395ae	-0.0054804897
171	0x3d118f54	0.03553708
172	0x3d732898	0.059364885
173	0xbcf8b577	-0.030359967
174	0x3d63a663	0.0555786
175	0x3c9bb35a	0.01900642
176	0x3d8f4c32	0.06996955
177	0x3c610f1a	0.013736511
178	0x3dc3386b	0.09532245
179	0x3cfaee98	0.030631348
180	0xbc83a3d4	-0.01606933
181	0xbabb4912	-0.0014288744
182	0x3d843f80	0.06457424
183	0xbc221fce	-0.009895278
184	0x3c162ecf	0.0091664335
185	0xbd84c475	-0.06482784
186	0xbb1bb112	-0.0023756665
187	0xbc1586b9	-0.009126359
188	0xbd9957ca	-0.074874476
189	0xbda68a56	-0.08131854
190	0x3b386582	0.0028136675
191	0x3d0d179c	0.034446344
192	0x3d52f429	0.05150238
193	0x3d9a9c99	0.075494
194	0x3c478ec6	0.012180036
195	0xbd95adb3	-0.07308521
196	0xbca87e2a	-0.020567972
197	0xbce45c33	-0.027875995
198	0x3d33875a	0.043830253
199	0x3da08e3e	0.078396305
200	0x3de36e0d	0.11104975
201	0x3d22c945	0.039742727
202	0xbd7926d4	-0.060828045
203	0xbb747864	-0.0037303204
204	0xbc927a10	-0.01788047
205	0x3d3eb2da	0.046557285
206	0x3da372a4	0.0798085
207	0xbd5964bd	-0.053074587
208	0xbc4db2a2	-0.012554796
209	0xbd485b4d	-0.048915196
210	0xbe040128	-0.12891066
211	0xbd00aa90	-0.03141266
212	0xbd61c33c	-0.05511783
213	0x3dadfe08	0.08495718
214	0xbdb8d6d2	-0.09025349
215	0xbc085e8e	-0.008323325
216	0xbe0cd490	-0.13752961
217	0xbce96ea5	-0.028495142
218	0xbcf9b069	-0.030479627
219	0x3db06c85	0.086144485
220	0xbc8f1dfa	-0.017470349
221	0xbe06bfb6	-0.1315907
222	0x3d4a5223	0.049394738
223	0xbd1a6387	-0.037692573
224	0x3cacd3a0	0.021097004
225	0xbbf41d94	-0.007449815
226	0xbd701c99	-0.058621023
227	0xbc512f1a	-0.012767578
228	0xbdabd59b	-0.083903514
229	0x3d3dd260	0.046343207
230	0x3da744f1	0.081674464
231	0xbd372b26	-0.044718884
232	0xbd219431	-0.039447967
233	0xbcc19886	-0.0236323
234	0xbd6e12db	-0.05812345
235	0x3c9d9516	0.019236129
236	0xbc2149df	-0.009844272
237	0xbd1afc8c	-0.037838504
238	0x3c55ca5b	0.013048734
239	0xbd9460a2	-0.07244994
240	0x3dc132b7	0.09433501
241	0x3d19e205	0.037569065
242	0xbd9f4b13	-0.07777991
243	0xbcbb9bfd	-0.02290153
244	0x3d492fd1	0.049117867
245	0x3d9b4c00	0.07582855
246	0x3dffa92b	0.12483438
247	0xbd446650	-0.047949135
248	0xbc83f45c	-0.01610773
249	0xbd1c6eeb	-0.038191717
250	0x3dad7086	0.08468728
251	0x3d999c24	0.075004846
252	0xbd3fcccb	-0.046826165
253	0xbd1c0279	-0.038088296
254	0xbd7be69a	-0.061499216
255	0x3c4c8c1a	0.012484575

ablang_branch.0.bias f4 [256]
0	0xbba6f8db	-0.005095584
1	0xbb2782a5	-0.0025560048
2	0x3aa23f81	0.0012378545
3	0x3beaed84	0.0071694274
4	0xb6e84370	-6.9219896e-06
5	0x3bfb5abd	0.007670729
6	0x3bd91f6b	0.0066260598
7	0x3babedeb	0.005246868
8	0x3a8e0023	0.0010833781
9	0x3bf24670	0.0073936507
10	0x3b9576b0	0.004561268
11	0x3c15d596	0.009145161
12	0x3b88f2bc	0.004179327
13	0x3b72e77f	0.0037064252
14	0x3baffa8e	0.0053704446
15	0x3b61b402	0.0034439568
16	0x3bb123b9	0.00540587
17	0x3b68bbd4	0.0035512345
18	0x3b9d7f92	0.0048064673
19	0xbb4133b1	-0.0029480273
20	0x3bb3cf38	0.005487349
21	0x39ab098f	0.00032622783
22	0x3ba2ca58	0.004967969
23	0x3b48726e	0.0030585784
24	0x3c078147	0.008270568
25	0x3abddace	0.0014484765
26	0x3bdb693a	0.0066958936
27	0x3bbf89ce	0.005845285
28	0x3abf8d18	0.0014614193
29	0x3c136d55	0.008998235
30	0xbb8448b3	-0.0040369867
31	0x3c07042e	0.008240743
32	0x3ad69d6f	0.0016373823
33	0x3bc36356	0.0059627695
34	0x3b558602	0.0032581096
35	0x3af6f4e4	0.0018841294
36	0x3aaf181d	0.0013358627
37	0xb9f28f78	-0.0004626473
38	0xba2a8e5c	-0.00065061986
39	0x3bfed45e	0.007776781
40	0x3bad3778	0.0052861534
41	0xbb0d2b47	-0.0021540688
42	0x3bf9d30c	0.0076240357
43	0x3c3510f0	0.0110514015
44	0x3bf566d3	0.0074890642
45	0x3c0ffe9d	0.008788732
46	0x3c2dc360	0.010605663
47	0x3ba7d8d0	0.0051222816
48	0xbad9e02b	-0.0016622593
49	0x3b97c803	0.0046319976
50	0x3ba243ce	0.0049519306
51	0x3b8cc204	0.0042955894
52	0x3c06653b	0.008202846
53	0x3b9999f2	0.004687541
54	0x3b4c535e	0.003117762
55	0x3a729389	0.0009253552
56	0x3ab0be6e	0.0013484487
57	0x3b43e313	0.0029889985
58	0x3bb035f8	0.0053775273
59	0x3c1ad4df	0.0094501665
60	0xbaf39c7c	-0.0018586065
61	0x3bd20492	0.006409236
62	0x3bd7d77e	0.006586968
63	0xbadc32af	-0.0016799773
64	0xba1c246b	-0.00059563544
65	0x3b423cf6	0.0029638386
66	0x3c353350	0.011059597
67	0x3be121ff	0.0068705077
68	0xba0c0c6a	-0.0005342426
69	0x3b24a9fd	0.0025125735
70	0x3c1f6718	0.009729169
71	0x3b6e14d9	0.0036328344
72	0x3c078eab	0.008273761
73	0x3bae5f92	0.0053214515
74	0x3bc2575c	0.005930824
75	0x3b6c12b4	0.003602189
76	0x3b2397bf	0.0024962274
77	0xba2c4591	-0.00065716455
78	0x3b747408	0.0037300605
79	0xbbaafa48	-0.005217824
80	0x3bb68479	0.005569991
81	0x3bd7561e	0.0065715453
82	0x3c1279a7	0.008940137
83	0x3b49735e	0.003073893
84	0x3b1f8371	0.002433982
85	0x3b2b170f	0.0026106273
86	0x3c11ee2f	0.008906885
87	0x3b339546	0.0027402206
88	0x3b315524	0.0027058804
89	0x3c1c8155	0.0095523195
90	0x3be71100	0.007051587
91	0x3b058d55	0.002037843
92	0xbb5e2798	-0.0033898111
93	0x3b46856e	0.0030291933
94	0xbb04ea18	-0.0020281132
95	0x3c8f9e13	0.01753143
96	0x3b2cc992	0.0026365262
97	0x3ac6275b	0.001511793
98	0x3c33036a	0.010926107
99	0x3bc0a823	0.0058794185
100	0x3c0bcd27	0.008532799
101	0x3bf71f3b	0.0075415648
102	0x3b581011	0.003296856
103	0x3c0e8731	0.008699224
104	0x3bac0609	0.005249743
105	0x3b8fc6b8	0.004387703
106	0x3c38e4f1	0.011285053
107	0xbb296b34	-0.0025851252
108	0x3c0fb186	0.008770352
109	0x3c016c76	0.007899394
110	0xbb34ba53	-0.0027576878
111	0x3b3da30f	0.0028936302
112	0x3bde99d0	0.006793238
113	0x3ac25304	0.0014825766
114	0xb9b308a8	-0.0003414799
115	0x3c1d83ca	0.0096139405
116	0x3be71a46	0.0070526926
117	0x3b816c7b	0.0039496995
118	0x3b33ea02	0.0027452712
119	0x3b802e99	0.003911805
120	0x3b2e312b	0.00265796
121	0x3c415aad	0.011801404
122	0xba817012	-0.0009875319
123	0x3c34d022	0.011035951
124	0x3b6cfdd3	0.0036162033
125	0x3b889154	0.004167715
126	0xbbb06b75	-0.0053839036
127	0xba721861	-0.00092352
128	0x3c282f1a	0.010265136
129	0x3ab0641e	0.0013457572
130	0x3b3307b3	0.0027317822
131	0x3b5f6d39	0.0034092201
132	0x3b991f1b	0.0046728975
133	0x3c24e459	0.010064208
134	0xbb93c78e	-0.0045098728
135	0x3ba39e44	0.004993232
136	0x39cdcdac	0.00039253884
137	0x3ba2a446	0.0049634306
138	0xba7c4456	-0.000962322
139	0xb924b0f2	-0.00015706176
140	0x3b0917a1	0.0020918625
141	0x3b0e7ab0	0.0021740608
142	0xbab8e87a	-0.0014107369
143	0x39e8626c	0.00044323818
144	0x3b94a2db	0.0045360154
145	0xbb3a440e	-0.0028421911
146	0x3ac3ad1c	0.001492891
147	0x3b58941c	0.0033047264
148	0x3a8888c8	0.001041674
149	0x3bfb7c13	0.007674703
150	0x3b0233b8	0.0019867253
151	0x3b815f2e	0.003948114
152	0x3a2a2f33	0.00064920186
153	0xbb5642a7	-0.0032693536
154	0x3b51cf36	0.0032014376
155	0x3b835980	0.004008472
156	0x3b954856	0.0045557423
157	0x3c2d1c81	0.010565878
158	0xbad5cde6	-0.0016311973
159	0x3bcbb1b8	0.006216254
160	0x3aedd56e	0.0018145272
161	0x3b9ccaea	0.0047849314
162	0x3c0077e3	0.007841083
163	0x3ba4eaf5	0.005032892
164	0x3bcf6eea	0.0063303607
165	0x3c50ae70	0.012736902
166	0x3b81b1ea	0.0039579766
167	0x3bcef229	0.006315489
168	0xbaef5591	-0.0018259754
169	0x3bcb57fc	0.006205557
170	0x3bae5f77	0.005321439
171	0x3b9a6d12	0.004712709
172	0xbb28ee16	-0.0025776676
173	0x38dcda1c	0.000105310435
174	0x3b26ae13	0.0025433346
175	0x3b91cc97	0.004449438
176	0x3c111857	0.008855901
177	0x3ba3c251	0.0049975296
178	0x3bd595c5	0.006518098
179	0x3beb33ed	0.007177821
180	0xba443443	-0.0007484594
181	0x3bde7cff	0.006789803
182	0x3ba8f8ae	0.005156598
183	0x3bcad392	0.006189772
184	0x3bad6f1a	0.0052927854
185	0x3c3e299e	0.011606602
186	0x3c23377f	0.009961962
187	0x3ad4b599	0.0016228437
188	0xbbd4722e	-0.006483338
189	0x3bc05af8	0.0058702193
190	0x3c328bca	0.010897586
191	0x3a1edefa	0.0006060448
192	0x3be3719d	0.006941034
193	0x3be8da72	0.007106119
194	0x3a25d9b0	0.00063266885
195	0x3be53aa2	0.006995515
196	0x3bb15cc4	0.00541267
197	0x3a474c01	0.0007602573
198	0x3c1c4e29	0.009540119
199	0x3c010992	0.007875817
200	0x3b86bb5c	0.0041116904
201	0x3c1b0b56	0.009463152
202	0x3bdace80	0.0066774487
203	0xb9a6a874	-0.00031787495
204	0x3c1c28bc	0.009531196
205	0xbac05a89	-0.0014675419
206	0x3bc0e4a0	0.005886629
207	0x3ae8dbb4	0.0017765672
208	0x3a3778ca	0.0006998895
209	0x3b149f20	0.0022677854
210	0x3bba080c	0.005677229
211	0x3c64823d	0.013947067
212	0x38c9303d	9.593412e-05
213	0x3bc4899d	0.00599785
214	0x3be21948	0.0068999864
215	0x3b9e6614	0.004833946
216	0x3c34cb62	0.011034818
217	0x3c387f4d	0.01126082
218	0x3bf16146	0.007366332
219	0xbb9050b4	-0.004404152
220	0x3c284d09	0.010272273
221	0x3a76e4c0	0.00094182417
222	0x3b1a80b1	0.0023575241
223	0x3c202e00	0.009776592
224	0x3ac56855	0.0015061001
225	0x3b7e345b	0.003878853
226	0x3c2ab01f	0.010417967
227	0xbb5a6f84	-0.0033330629
228	0x3c2f865e	0.010713188
229	0x3c25eacf	0.0101267835
230	0x3c012db0	0.007884428
231	0x3c04baf1	0.008101211
232	0xbaf32d12	-0.0018552861
233	0x3bb80257	0.0056155133
234	0xbb8f9132	-0.0043813223
235	0x3ade4898	0.001695889
236	0x3a9fcd34	0.0012191893
237	0xbb58d183	-0.0033083863
238	0x3c1cff66	0.009582376
239	0x3bdfeaa8	0.006833393
240	0x3bcfa7cc	0.0063371416
241	0x3b228c30	0.0024802797
242	0x3b551a91	0.0032517056
243	0x3a07ec1d	0.0005185025
244	0x3a9c608e	0.0011930631
245	0x3a532d7f	0.00080557907
246	0x3bfc12c9	0.007692669
247	0x3961ac36	0.00021521826
248	0x3c83e73a	0.016101468
249	0x3bb68c57	0.005570929
250	0x3b811c3c	0.0039401334
251	0x3c11ab01	0.008890868
252	0x3a9917ab	0.0011680027
253	0x3bc68b85	0.0060591125
254	0x3b9f0d99	0.004853916
255	0x3af901de	0.0018997749

ablang_branch.1.weight f4 [256]
0	0x3f7c8628	0.98642206
1	0x3f7d26bd	0.98887235
2	0x3f834b13	1.0257286
3	0x3f7ddd36	0.99165666
4	0x3f7aa7d4	0.97912335
5	0x3f827631	1.0192319
6	0x3f80abe9	1.0052463
7	0x3f80abe3	1.0052456
8	0x3f79f73e	0.97642887
9	0x3f7ca893	0.98694724
10	0x3f7fbb09	0.9989477
11	0x3f7d1dfd	0.98873883
12	0x3f837bf1	1.0272199
13	0x3f7d9f0e	0.99070823
14	0x3f7d4d61	0.98946196
15	0x3f8858df	1.0652121
16	0x3f7fbffd	0.99902326
17	0x3f805b7c	1.0027919
18	0x3f88d799	1.0690795
19	0x3f7ac1c6	0.97951925
20	0x3f7c6a17	0.9859938
21	0x3f7d64b5	0.9898179
22	0x3f7d1497	0.9885954
23	0x3f7d2919	0.98890835
24	0x3f8147bf	1.010002
25	0x3f7dddae	0.9916638
26	0x3f81ddc2	1.01458
27	0x3f7e3871	0.9930487
28	0x3f804dc4	1.0023732
29	0x3f809c99	1.004779
30	0x3f82565b	1.0182604
31	0x3f7fae86	0.99875677
32	0x3f7b9a28	0.982821
33	0x3f82b4bf	1.0211409
34	0x3f8a7c56	1.0819194
35	0x3f87bef8	1.0605154
36	0x3f7f4d10	0.99726963
37	0x3f80862e	1.0040948
38	0x3f7c7f9b	0.9863221
39	0x3f7efc97	0.9960417
40	0x3f82b7de	1.0212362
41	0x3f7d8756	0.9903463
42	0x3f80d281	1.0064241
43	0x3f81eae2	1.0149806
44	0x3f83c170	1.0293407
45	0x3f8524ee	1.0401895
46	0x3f7c01f0	0.98440456
47	0x3f7e83f7	0.9942011
48	0x3f83466c	1.0255866
49	0x3f80a433	1.005011
50	0x3f7bb6e0	0.9832592
51	0x3f7e3d85	0.9931262
52	0x3f7f4562	0.99715245
53	0x3f814a9e	1.0100896
54	0x3f85144c	1.0396819
55	0x3f827e62	1.0194819
56	0x3f812485	1.008927
57	0x3f7cc762	0.98741734
58	0x3f7ef902	0.99598706
59	0x3f7c72ee	0.9861287
60	0x3f84cc05	1.0374762
61	0x3f7a5cff	0.9779815
62	0x3f8120b6	1.0088108
63	0x3f7d06d9	0.98838574
64	0x3f7b18da	0.98084795
65	0x3f831d8f	1.0243396
66	0x3f81cc8b	1.0140547
67	0x3f80342c	1.0015922
68	0x3f7c9ab3	0.9867355
69	0x3f7cd96d	0.98769265
70	0x3f8492fd	1.0357357
71	0x3f7f90b4	0.99830174
72	0x3f7d8d13	0.9904339
73	0x3f82296f	1.0168895
74	0x3f8541e3	1.0410732
75	0x3f7cc84d	0.98743135
76	0x3f7e58b8	0.99354124
77	0x3f8336aa	1.0251057
78	0x3f829ae5	1.020352
79	0x3f7f2818	0.99670553
80	0x3f83bae5	1.0291411
81	0x3f7c2ebf	0.9850883
82	0x3f886a98	1.065753
83	0x3f7cd72a	0.98765814
84	0x3f7cb905	0.9871982
85	0x3f812408	1.0089121
86	0x3f827251	1.0191137
87	0x3f822381	1.0167085
88	0x3f813f4f	1.0097445
89	0x3f84dfad	1.038076
90	0x3f7b5e8b	0.98191136
91	0x3f7a4d0b	0.9777381
92	0x3f803665	1.00166
93	0x3f7a69f2	0.9781791
94	0x3f7f4c24	0.99725556
95	0x3f84804f	1.0351657
96	0x3f7ed24d	0.99539644
97	0x3f7caae8	0.9869828
98	0x3f7dba1c	0.99112105
99	0x3f7ed954	0.99550366
100	0x3f839802	1.0280764
101	0x3f821946	1.0163963
102	0x3f806656	1.003123
103	0x3f829ac5	1.0203482
104	0x3f7d9884	0.99060845
105	0x3f7d8384	0.990288
106	0x3f81049a	1.0079529
107	0x3f820fc2	1.0161059
108	0x3f83f750	1.0309849
109	0x3f7f5c09	0.9974981
110	0x3f826129	1.0185901
111	0x3f82d80a	1.022218
112	0x3f80e8d4	1.0071054
113	0x3f7e4f75	0.9933999
114	0x3f7c1649	0.98471504
115	0x3f7fd41c	0.9993303
116	0x3f7d874d	0.9903458
117	0x3f82302d	1.0170952
118	0x3f7d66d1	0.9898501
119	0x3f7c44ec	0.98542666
120	0x3f7ee140	0.99562454
121	0x3f813ab3	1.0096039
122	0x3f7ea157	0.99464935
123	0x3f7f6647	0.9976544
124	0x3f7e80f8	0.9941554
125	0x3f847007	1.0346688
126	0x3f7a0f7c	0.9767988
127	0x3f7941fe	0.9736632
128	0x3f7f80d1	0.99805933
129	0x3f877ab5	1.0584322
130	0x3f7f158b	0.99642247
131	0x3f7f6dca	0.997769
132	0x3f80127a	1.0005639
133	0x3f8090da	1.0044205
134	0x3f7ca825	0.9869407
135	0x3f806d0a	1.0033276
136	0x3f80971b	1.0046114
137	0x3f80bbbd	1.0057293
138	0x3f7c389c	0.9852388
139	0x3f7e5521	0.99348646
140	0x3f7f613d	0.9975775
141	0x3f81c440	1.0138016
142	0x3f7be009	0.98388726
143	0x3f7b3ccf	0.9813966
144	0x3f7cdba9	0.98772675
145	0x3f7c3f44	0.98534036
146	0x3f7eca90	0.99527836
147	0x3f8435a8	1.0328875
148	0x3f83b558	1.0289717
149	0x3f82d12e	1.0220087
150	0x3f7da598	0.990808
151	0x3f825405	1.0181891
152	0x3f787579	0.9705425
153	0x3f7b477f	0.9815597
154	0x3f808692	1.0041068
155	0x3f863ab8	1.048667
156	0x3f807f5b	1.0038866
157	0x3f83eb43	1.0306171
158	0x3f7d3bce	0.9891938
159	0x3f7f7117	0.99781936
160	0x3f8040f5	1.0019823
161	0x3f81f9cd	1.0154358
162	0x3f80eadd	1.0071675
163	0x3f81041e	1.0079381
164	0x3f793270	0.97342587
165	0x3f7b2ca1	0.98114973
166	0x3f80139b	1.0005983
167	0x3f7df81d	0.99206716
168	0x3f7d0597	0.98836654
169	0x3f7df970	0.99208736
170	0x3f814f8c	1.0102401
171	0x3f7fc4cc	0.99909663
172	0x3f7c137d	0.98467237
173	0x3f7ec873	0.9952461
174	0x3f80d713	1.0065635
175	0x3f81546a	1.0103886
176	0x3f80fa34	1.0076356
177	0x3f7e156c	0.9925144
178	0x3f869ad5	1.0516001
179	0x3f8566a6	1.0421951
180	0x3f7be48a	0.983956
181	0x3f7e17ea	0.9925524
182	0x3f7b947a	0.9827343
183	0x3f7d5e01	0.98971564
184	0x3f81cc94	1.0140557
185	0x3f808ff2	1.0043929
186	0x3f7d9c40	0.99066544
187	0x3f849393	1.0357536
188	0x3f7b6492	0.98200333
189	0x3f7e781c	0.9940202
190	0x3f835841	1.0261308
191	0x3f8098a0	1.0046577
192	0x3f7b5544	0.9817698
193	0x3f83df00	1.0302429
194	0x3f7df88a	0.99207366
195	0x3f824257	1.0176495
196	0x3f7c66d4	0.98594403
197	0x3f7fa8cb	0.9986693
198	0x3f7f104d	0.9963425
199	0x3f7a8d1d	0.9787157
200	0x3f808f62	1.0043757
201	0x3f8244c7	1.0177239
202	0x3f7cb563	0.98714274
203	0x3f7fd9cf	0.99941725
204	0x3f7f88ac	0.9981792
205	0x3f7e8569	0.9942232
206	0x3f7e589d	0.99353963
207	0x3f7d1d93	0.9887325
208	0x3f7d128e	0.9885644
209	0x3f7d131e	0.98857296
210	0x3f81b62b	1.0133718
211	0x3f803c5a	1.0018418
212	0x3f827fbc	1.0195231
213	0x3f876d47	1.0580224
214	0x3f7bea67	0.98404545
215	0x3f808f9f	1.004383
216	0x3f8457cb	1.0339292
217	0x3f832372	1.0245192
218	0x3f801ea8	1.0009356
219	0x3f7c0c18	0.98455954
220	0x3f7d60ef	0.98976034
221	0x3f78ed8f	0.97237486
222	0x3f81c6bb	1.0138773
223	0x3f80767e	1.0036161
224	0x3f7eac4d	0.9948166
225	0x3f7c7f0f	0.98631376
226	0x3f7ed35c	0.9954126
227	0x3f7bc51b	0.98347634
228	0x3f7f174f	0.9964494
229	0x3f7be1f0	0.9839163
230	0x3f847334	1.0347657
231	0x3f80e68f	1.0070361
232	0x3f7ec52b	0.99519604
233	0x3f80798c	1.0037093
234	0x3f7aa08a	0.97901213
235	0x3f80e1d1	1.0068914
236	0x3f82dc90	1.022356
237	0x3f7d1ab6	0.9886888
238	0x3f8085e1	1.0040857
239	0x3f80b65b	1.005565
240	0x3f833945	1.0251852
241	0x3f7b3e33	0.98141783
242	0x3f810eaa	1.00826
243	0x3f7af584	0.9803088
244	0x3f819e53	1.0126442
245	0x3f78574e	0.97008216
246	0x3f79d6fc	0.97593665
247	0x3f7b6860	0.9820614
248	0x3f7fd82e	0.9993924
249	0x3f7c2b68	0.9850373
250	0x3f822283	1.0166782
251	0x3f7dba15	0.99112064
252	0x3f7c5a79	0.9857555
253	0x3f80daf3	1.0066818
254	0x3f80b1e3	1.0054287
255	0x3f82ef94	1.0229363

ablang_branch.1.bias f4 [256]
0	0xbc534d56	-0.012896856
1	0xbbe664ff	-0.0070310826
2	0xbd351d6d	-0.044217516
3	0xbc1de094	-0.009636063
4	0xbc2027a5	-0.009775077
5	0x3b6264be	0.003454491
6	0xb9fe95ef	-0.00048558365
7	0x37ab07b8	2.0388383e-05
8	0xbc82948e	-0.015939977
9	0xbc3417a9	-0.010991969
10	0xbbffc253	-0.0078051477
11	0xbbb3e57c	-0.005490003
12	0xbc431a7a	-0.011908168
13	0xbc957a91	-0.01824692
14	0xbb7e562d	-0.003880869
15	0xbb87cedb	-0.004144532
16	0xbc29df1a	-0.010368133
17	0xbc005422	-0.007832559
18	0x3b8f1918	0.004367005
19	0xbc5aaa23	-0.013346228
20	0xbb20e7e4	-0.002455228
21	0xbbc5b896	-0.0060339672
22	0xbc8ccff9	-0.017189013
23	0xbb323755	-0.0027193625
24	0xbcdd62ac	-0.02702459
25	0xbc9acab9	-0.018895494
26	0xbc137215	-0.008999367
27	0xbc1d96e5	-0.009618496
28	0xbc15c1ec	-0.009140473
29	0xbc889c1b	-0.016676
30	0xbc19f165	-0.009395932
31	0xbc487e62	-0.012237163
32	0xbc06252e	-0.008187575
33	0xba5bc3fd	-0.00083833915
34	0x3b69a15a	0.0035649152
35	0xbb8cdf8f	-0.004299111
36	0xbc570fa8	-0.013126291
37	0xbbb82f54	-0.0056208763
38	0xbc5b4f10	-0.013385549
39	0xbd0cb2f7	-0.03435036
40	0xbb9304d9	-0.004486662
41	0xbcc79188	-0.024361387
42	0xbbaa58ba	-0.0051985653
43	0xbbad750d	-0.0052934946
44	0xbc6145b0	-0.013749525
45	0x3bea6560	0.007153198
46	0xbc074a67	-0.008257485
47	0xbbf12517	-0.007359158
48	0xbc8351ba	-0.016030181
49	0xbcad0e5b	-0.02112501
50	0xbc164f6d	-0.00917421
51	0xbc871c0c	-0.016492866
52	0xbc323ebe	-0.010879217
53	0xbb873b2b	-0.0041269264
54	0x3ab30b51	0.0013659989
55	0xbce3a373	-0.0277879
56	0xbcd8a4d8	-0.026445791
57	0xbc924328	-0.017854288
58	0xbbe47550	-0.0069719926
59	0xbb888e79	-0.0041673747
60	0xbc2d2f48	-0.010570355
61	0xbbcde115	-0.0062829354
62	0xbc247639	-0.010037952
63	0xbc565cd8	-0.013083659
64	0xbcd2d311	-0.02573541
65	0xbbf93988	-0.007605735
66	0x3b70c0e6	0.003673607
67	0xbc19e992	-0.009394066
68	0xbc2a0c3d	-0.010378894
69	0xbaf7cf80	-0.0018906444
70	0xbabd2023	-0.0014429133
71	0xbb7ba6b8	-0.0038398933
72	0x39c599fd	0.00037689498
73	0xbbd2b526	-0.006430286
74	0x3b16b1e5	0.0022994217
75	0xbc78227a	-0.015144939
76	0xbc321280	-0.010868669
77	0xbbffc4b6	-0.007805432
78	0xbc09ced9	-0.008411133
79	0xbc4b0493	-0.012391227
80	0xbb75f005	-0.0037527096
81	0xbc87f9ad	-0.016598547
82	0x3ad174ba	0.0015980222
83	0xba0a8ece	-0.0005285562
84	0xbb912136	-0.004429008
85	0xbba5ded0	-0.0050619617
86	0x3b876357	0.0041317153
87	0xbc592fa6	-0.013255989
88	0xbb77762d	-0.0037759647
89	0xbacec15d	-0.001577418
90	0xbbab9ef7	-0.005237456
91	0xbbf45272	-0.0074561173
92	0xbc442de4	-0.011973832
93	0xbb4afa70	-0.0030972026
94	0xbc0d0b14	-0.008608598
95	0xbb3c62fe	-0.0028745527
96	0xbc2078d0	-0.009794429
97	0xbc985399	-0.01859455
98	0xbbc26074	-0.0059319083
99	0xbc33a2d5	-0.010964115
100	0x3befb25a	0.0073149623
101	0xbc42f241	-0.011898578
102	0xbb237c74	-0.0024946006
103	0x3b6cd4e9	0.0036137647
104	0xb9faafa4	-0.00047814578
105	0xbb18c9ee	-0.002331372
106	0x3bd5b433	0.0065217256
107	0xbc1d042d	-0.009583515
108	0xbb11f55d	-0.0022271492
109	0xbb718890	-0.003685508
110	0xbc0d1bec	-0.008612614
111	0xbbb341ac	-0.005470475
112	0xbcba9d63	-0.022780126
113	0xbc14f0b5	-0.009090592
114	0xbc3bf776	-0.0114725735
115	0xbc0c5620	-0.008565456
116	0xbc1a3f8c	-0.009414565
117	0xbab33b32	-0.0013674258
118	0xbcc4cc20	-0.024023116
119	0xbc608552	-0.013703661
120	0xbc734f46	-0.014850443
121	0xbc8950e2	-0.0167622
122	0xbbdca4cb	-0.006733512
123	0xbc5f7b33	-0.013640213
124	0xbbd0b989	-0.0063697738
125	0xbbb8a795	-0.0056352117
126	0xbc9916ac	-0.018687569
127	0xbbab5d0e	-0.005229599
128	0xbbcc38de	-0.006232365
129	0xbc76326e	-0.015026672
130	0xbcab8107	-0.020935548
131	0xbbf19d96	-0.007373522
132	0xbb34d626	-0.0027593463
133	0x3bd11c93	0.00638158
134	0xbc8cd2fe	-0.017190453
135	0xbbba8672	-0.0056922967
136	0xbbc9d3fa	-0.006159303
137	0xbcbcf547	-0.023066176
138	0xbbe0505d	-0.0068455175
139	0xbc064b68	-0.008196689
140	0xbc3738b5	-0.011182954
141	0xbbebf8bc	-0.0072012823
142	0xbc060256	-0.008179268
143	0xbc84fd4f	-0.016234068
144	0xbbbb254a	-0.0057112323
145	0xbc1df15c	-0.009640064
146	0xbc94d702	-0.01816893
147	0xbb34b9fc	-0.0027576676
148	0xbc17657c	-0.009240504
149	0xb9750a6a	-0.000233689
150	0xbc648a5d	-0.013949004
151	0xbb0acafc	-0.0021178117
152	0xbcc2f575	-0.023798684
153	0xbc594ac5	-0.013262455
154	0xbb613d0f	-0.003436867
155	0xbc40247b	-0.011727448
156	0xbc1155a2	-0.008870514
157	0xba7d4a3d	-0.00096622464
158	0xbc5b967a	-0.013402576
159	0xb9aca940	-0.00032932498
160	0xbc0b2f65	-0.008495186
161	0xba4019e4	-0.0007328077
162	0xbd023a71	-0.031794015
163	0xbbf594b1	-0.007494532
164	0xbc5ab38e	-0.013348473
165	0xbc784311	-0.015152709
166	0xbb23f951	-0.002502043
167	0xbc116f49	-0.00887663
168	0xbc33db72	-0.010977613
169	0xbc5e72ce	-0.013577176
170	0xba2cbeb8	-0.00065896986
171	0xbc38dfec	-0.011283856
172	0xbc5b6f18	-0.013393186
173	0xbcc2221c	-0.023697905
174	0xbc07cfba	-0.008289272
175	0xbaa9f92d	-0.0012967937
176	0xbc726d76	-0.014796605
177	0xbc790f5b	-0.015201415
178	0xbb4a529d	-0.0030871995
179	0xbc43dba2	-0.01195422
180	0xbc7ce39b	-0.015435125
181	0xbc22cb19	-0.009936118
182	0xbc7635ae	-0.015027447
183	0xbbebd0de	-0.00719653
184	0xbc8b46df	-0.017001567
185	0x3b7b230f	0.0038320457
186	0xbbea9369	-0.007158686
187	0xbb97d939	-0.0046340493
188	0xbc917ca3	-0.017759627
189	0xbb2fab63	-0.0026805035
190	0x3aca7d9f	0.0015448815
191	0xbbc48144	-0.005996855
192	0xbc00fdf3	-0.007873046
193	0xbc10c253	-0.008835393
194	0xbb9e4866	-0.004830408
195	0xbc2135b3	-0.009839463
196	0xbc0de845	-0.008661334
197	0xbbabbb5d	-0.0052408413
198	0xbc0e9313	-0.008702057
199	0xbc554fca	-0.0130195115
200	0xbc129ccc	-0.008948516
201	0x3bdaba90	0.006675072
202	0xba562e8a	-0.0008170387
203	0xbc14b9f7	-0.009077541
204	0xbc05670b	-0.008142243
205	0xbc382368	-0.01123891
206	0xbbd5f60f	-0.0065295766
207	0xbbfb4da9	-0.00766917
208	0xbba379d2	-0.0049888873
209	0xbbd85e4c	-0.006603038
210	0xbc593bc8	-0.013258882
211	0xbbf8ad42	-0.0075890133
212	0xb955bf2f	-0.00020384484
213	0xbc97ad88	-0.018515363
214	0xbc496816	-0.012292882
215	0xbc7855a3	-0.015157136
216	0xbb948b72	-0.0045332247
217	0xbbf2f275	-0.007414157
218	0xba8657fb	-0.0010249609
219	0xbc8b2a34	-0.016987897
220	0x39e758f6	0.00044126034
221	0xbca471cb	-0.020073792
222	0xbc25a432	-0.010109948
223	0xbc88de4a	-0.016707558
224	0xbb43772f	-0.0029825678
225	0xbb26587f	-0.0025382338
226	0xbc54736c	-0.012966972
227	0xbc20f55a	-0.009824121
228	0xbc4ec7d1	-0.012620882
229	0xbbdb3938	-0.0066901706
230	0x3bac1d4c	0.005252516
231	0x3ab5f3f9	0.0013881914
232	0xbc114c91	-0.0088683525
233	0xbc76a342	-0.015053572
234	0xbc9d70e6	-0.019218873
235	0xbb9c029e	-0.004761054
236	0xbc5b92a4	-0.013401661
237	0xbc824a8a	-0.015904684
238	0xb7ec3f88	-2.8162976e-05
239	0xbb172033	-0.0023059964
240	0x3b164e98	0.002293503
241	0xbc97f1e6	-0.018547963
242	0xbc9f492d	-0.019444073
243	0xbc4e4a55	-0.012590964
244	0xbc0afcf2	-0.008483158
245	0xbc4d0850	-0.012514189
246	0xbb8faad1	-0.0043843766
247	0xbc22aed8	-0.009929381
248	0xbb3ed834	-0.0029120566
249	0xbb8c939f	-0.0042900587
250	0xbb619aba	-0.00344245
251	0xbbf12109	-0.0073586744
252	0xbbc071f4	-0.0058729593
253	0xbb93b8a7	-0.0045080963
254	0xbbdaeb6d	-0.006680897
255	0xbbc7b569	-0.006094624

ablang_branch.4.weight f4 [128, 256]
0	0x3d5c22c7	0.053744104
1	0xbd1e9a46	-0.038721345
2	0xbd24fac3	-0.040278208
3	0xbe5b2e1f	-0.21404313
4	0xbde48eef	-0.11160075
5	0xbdccc589	-0.09998614
6	0xbd865c29	-0.06560547
7	0xbbdd7706	-0.0067585735
8	0xbdb37844	-0.08763173
9	0xbe58b4b4	-0.21162683
10	0x3ddc2feb	0.10751327
11	0xbaa50c00	-0.0012592077
12	0x3bdde380	0.006771505
13	0x3d8ac79f	0.06776356
14	0x3dab05ec	0.08350739
15	0x3d3d4623	0.046209466
16	0x3c4912f4	0.012272585
17	0xbde97c60	-0.11400676
18	0xbdc50a42	-0.09621097
19	0xbd3f8a44	-0.04676272
20	0xbd644d66	-0.055737875
21	0xbdfaad58	-0.12240094
22	0x3d658bde	0.05604159
23	0x3d5bf0ad	0.053696323
24	0xbdebf445	-0.115212
25	0x3d8b08dc	0.06788799
26	0xbdb7e630	-0.08979452
27	0xbdbe8f52	-0.0930468
28	0x3c7cd105	0.0154306935
29	0x3c7eed0d	0.015559447
30	0x3d8f9d45	0.07012419
31	0x3cdc703f	0.026908992
32	0x3e019256	0.12653479
33	0xbe312f4c	-0.17303199
34	0xbd835ae1	-0.06413818
35	0x3d61d80b	0.055137675
36	0xbd397d43	-0.045285475
37	0x3c9554c7	0.018228902
38	0xbc1567dd	-0.009119001
39	0xbcdcf89f	-0.02697402
40	0xbdaa6334	-0.08319703
41	0x3da32b5f	0.07967257
42	0x3d133623	0.0359403
43	0xbd96b5a8	-0.07358867
44	0x3e322485	0.17396744
45	0x3d3817a9	0.04494444
46	0xbaa7434f	-0.0012761148
47	0x3e651cdb	0.22374289
48	0x3ca43924	0.020046778
49	0x3c3c4f9e	0.011493592
50	0x3d4dbd61	0.050229434
51	0xbe3249bb	-0.17410938
52	0xbc1110a4	-0.008854065
53	0x3cc54768	0.0240819
54	0xbdda2a19	-0.10652561
55	0x3e22a3e1	0.15882827
56	0x3d7b76f0	0.061392725
57	0x3ddd05dc	0.10792133
58	0x3d53dc58	0.051723808
59	0xbe351b78	-0.1768626
60	0xbd4da6a2	-0.05020774
61	0xbdec5060	-0.11538768
62	0x3d9915f9	0.07474894
63	0x3d14115d	0.03614937
64	0xbdd30e12	-0.10305418
65	0xbe2f9295	-0.1714576
66	0x3da2d2f8	0.07950395
67	0x3e134d40	0.14384937
68	0x3d4363ba	0.04770253
69	0x3d27e3f7	0.04098889
70	0xbd2a92f3	-0.041644048
71	0xbd012db6	-0.031537734
72	0xbdadd13c	-0.08487174
73	0x3d2b3861	0.041801814
74	0x3da84572	0.08216371
75	0xbd96064b	-0.07325419
76	0xbda1c581	-0.07898999
77	0xbdbd2556	-0.09235637
78	0xbe2b5403	-0.16731267
79	0xbcd9c392	-0.026582513
80	0xbe1bb811	-0.15206935
81	0x3d8aa792	0.06770243
82	0xbe494285	-0.19654281
83	0xbdaae95a	-0.083452895
84	0xbde6cd62	-0.112696424
85	0x3d37db38	0.044886798
86	0xbe207969	-0.15671314
87	0x3e019623	0.12654929
88	0xbce9c7a4	-0.028537579
89	0x3d70c2a5	0.058779377
90	0xbd8316e6	-0.06400852
91	0x3d5c301a	0.05375681
92	0xbd9502ae	-0.07275902
93	0xbc098f5f	-0.008395999
94	0x3d01c16a	0.031678595
95	0xb9d6995c	-0.00040931522
96	0xbdc3ad7a	-0.095545724
97	0xbd5809b9	-0.052743647
98	0xbd263557	-0.040578213
99	0x3d26c82d	0.040718246
100	0xbe4f683d	-0.20254607
101	0xbde253ba	-0.11051126
102	0x3dab87e0	0.083755255
103	0x3ca113f1	0.01966283
104	0xbd77c1e9	-0.06048766
105	0xbd79f63c	-0.061025843
106	0xbcb50a25	-0.022099564
107	0x3e5a8fef	0.21343969
108	0x3d6f4429	0.058414612
109	0x3b685b84	0.0035454938
110	0xbe222af7	-0.15836702
111	0x3cf5d1c0	0.030007243
112	0x3af8fd1c	0.0018996331
113	0xbd3e3ec6	-0.046446584
114	0x3c35112d	0.011051458
115	0x3c0fd203	0.008778098
116	0xbd515135	-0.051102836
117	0xbbe9f1dd	-0.007139428
118	0xbca7755d	-0.020441705
119	0xbcc4a9cf	-0.024006752
120	0x3d912eb8	0.07088989
121	0xbdcb7b0c	-0.09935579
122	0x3cae910f	0.021309404
123	0x3d0df650	0.03465873
124	0xbd07f75d	-0.03319489
125	0x3cd61dab	0.026137194
126	0x3dad6418	0.08466357
127	0xbc033b82	-0.008009793
128	0xbd171114	-0.03688152
129	0xbe26cf6a	-0.1629006
130	0x3c748ad1	0.014925675
131	0x3daa3aa8	0.08311969
132	0x3b02fa4e	0.001998562
133	0x3d5a9e95	0.05337389
134	0xbe15c85b	-0.14627211
135	0x3c79d6be	0.015248952
136	0x3d56907e	0.052383892
137	0x3dc7f72f	0.097639434
138	0x3b2c15d2	0.0026258123
139	0x3db0d867	0.086350255
140	0xbdfd6c6a	-0.12374194
141	0xbbca2003	-0.006168367
142	0x3d08eb93	0.033427786
143	0x3d8e26d6	0.06941001
144	0x3e0514ea	0.1299626
145	0x3c17e410	0.009270683
146	0x3d7cb59d	0.061696637
147	0x3d96c35a	0.07361479
148	0x3d9fa18f	0.07794487
149	0xbca9ced9	-0.020728515
150	0x3e7b671d	0.24551053
151	0xbce2c138	-0.027680025
152	0x3d8d305d	0.0689399
153	0xbc49c0bc	-0.012314018
154	0x3daaa863	0.083328985
155	0xbd1eaa4d	-0.03873663
156	0xbd8b0e97	-0.06789892
157	0x3e602af1	0.21891381
158	0x3dc55614	0.09635559
159	0xbd856751	-0.06513847
160	0xbd01f60d	-0.031728793
161	0xbd142273	-0.036165666
162	0x3c6d334f	0.014477565
163	0x3d080ac8	0.033213407
164	0xbde9c6ac	-0.11414847
165	0xbdaabf9e	-0.08337329
166	0xbdb8ae81	-0.09017659
167	0xba87b419	-0.0010353356
168	0x3d3f00ad	0.046631504
169	0xbd87584a	-0.06608637
170	0xbdf1f644	-0.118145496
171	0x3d8d297a	0.06892677
172	0xbd99b701	-0.07505608
173	0xbde6f4fa	-0.11277194
174	0x3c80bd88	0.015715376
175	0x3be83828	0.0070867725
176	0xbe0f22db	-0.1397814
177	0x3d9ce3d6	0.07660644
178	0xbdc7b40f	-0.0975114
179	0x3d7a649f	0.061131116
180	0xbd0c06ca	-0.034186162
181	0x3cf88f4e	0.03034177
182	0x3cb800d0	0.022461325
183	0x3e0a48e2	0.13504365
184	0x3e0058ca	0.1253387
185	0x3df31e82	0.11871053
186	0x3e6576e5	0.22408636
187	0xbce2bd1d	-0.027678067
188	0xbdc2ccbc	-0.09511706
189	0xbe2a0437	-0.1660317
190	0x3d8b0b75	0.06789295
191	0x3ba87006	0.0051403074
192	0xbdb632ce	-0.08896409
193	0x3d936907	0.07197767
194	0xbca53fa2	-0.020171944
195	0xbe3a50fa	-0.18194953
196	0xbda03137	-0.07821887
197	0x3e51620d	0.2044756
198	0xbd1c04ee	-0.03809064
199	0xbdeb4600	-0.11487961
200	0xbdfdfdf0	-0.1240195
201	0xbd9b7fbc	-0.07592723
202	0x3d326646	0.043554567
203	0x3d5f295e	0.05448281
204	0xbcc875ec	-0.024470292
205	0x3d32a22e	0.043611698
206	0xbdb7376f	-0.0894612
207	0x3e0c6e38	0.1371392
208	0xbd4fac21	-0.050701264
209	0x3c272561	0.010201783
210	0x3b17e2a2	0.0023175855
211	0xbd51e8b5	-0.051247317
212	0x3da71463	0.08158185
213	0xbbcf1fe3	-0.00632094
214	0x3d603aa0	0.05474341
215	0xbd9caf28	-0.07650596
216	0x3d9c8ee3	0.07644441
217	0xbd092b1b	-0.033488374
218	0x3dac2a6c	0.08406529
219	0xbaaf986d	-0.0013396867
220	0x3d35de1c	0.044401273
221	0xbde4b0c4	-0.11166528
222	0xbd234496	-0.03986033
223	0x3e4714a9	0.19441475
224	0x3d3f6437	0.04672643
225	0xbe0f2fad	-0.1398303
226	0x3d382f20	0.044966817
227	0xbd92b11d	-0.07162688
228	0xbdfea526	-0.12433843
229	0xbd5c79d6	-0.05382713
230	0x3d69bc9c	0.057064638
231	0xbd8c95f1	-0.068645366
232	0xbd6f266f	-0.058386263
233	0x3cd6ff20	0.0262447
234	0x3d99f04d	0.07516537
235	0xbc27b570	-0.010236129
236	0xbd9801fc	-0.074222535
237	0x3e29d0a9	0.16583504
238	0xbe19edfa	-0.15032187
239	0x3dcd021f	0.1001017
240	0xbd093581	-0.03349829
241	0xbdf33b8f	-0.11876594
242	0xbe46b019	-0.19403113
243	0x3b5b64c0	0.00334768
244	0xbce30f3f	-0.02771723
245	0xbd8b69f5	-0.06807319
246	0x3d8626ec	0.065503925
247	0x3d7abcdd	0.06121527
248	0xbe7b3340	-0.24531269
249	0x3dda516d	0.10660062
250	0x3d3ae8df	0.04563224
251	0x3e0e2ac4	0.13883501
252	0x3e082d05	0.13298424
253	0x3db1ba81	0.08678151
254	0xbd31913a	-0.04335139
255	0x3c8c6159	0.017136263

ablang_branch.4.bias f4 [128]
0	0xbb7e0fa7	-0.0038766654
1	0x3bebcf14	0.0071963165
2	0xbc86f444	-0.016473897
3	0x3c348fa6	0.011020577
4	0x3d8d5179	0.06900305
5	0xbbc6b919	-0.006064546
6	0x3c5880b4	0.013214279
7	0x3c4297d9	0.011877024
8	0x3cfd5002	0.03092194
9	0xbb4aecb0	-0.003096383
10	0xbc3b2b93	-0.011423963
11	0x3c4e9ea4	0.012611065
12	0xbc1676ec	-0.009183627
13	0xbc4819c9	-0.012213179
14	0xbcd38aa6	-0.025822949
15	0x3c219094	0.00986113
16	0x3a15562b	0.0005696739
17	0xbbd7ce4f	-0.006585873
18	0x3bb2b524	0.0054537226
19	0xbc705874	-0.014669526
20	0xbcc8acec	-0.024496518
21	0x3c931e5d	0.017958814
22	0xbcf0ec4f	-0.029409556
23	0x3b6088d7	0.003426125
24	0xbc6fbda2	-0.014632614
25	0x3c8480a2	0.016174618
26	0x3c53db54	0.01293071
27	0xbc432a52	-0.011911945
28	0x3c46f635	0.012143661
29	0xbcd2c8b7	-0.025730474
30	0x3d2100bb	0.039307337
31	0xbcc3ebac	-0.023916088
32	0x3ba589d8	0.0050518326
33	0x3c061dc4	0.008185808
34	0xbccedcd1	-0.025251778
35	0xbcdaea1d	-0.026722962
36	0x3b858f62	0.0040759305
37	0xbc7c8791	-0.015413181
38	0xbcc6f254	-0.024285473
39	0xbb06cc03	-0.0020568378
40	0xbc16ca24	-0.0092034675
41	0xbc26c0a1	-0.010177762
42	0x3d03ab17	0.032145586
43	0xbb8290f3	-0.0039845644
44	0x3b055b48	0.0020348597
45	0xbc77c77f	-0.015123247
46	0x3cb0e3a8	0.02159293
47	0x39495bba	0.00019203025
48	0xba86feb0	-0.0010299291
49	0xbc1b642c	-0.009484332
50	0xbc9c61cf	-0.019089608
51	0xbb46e92f	-0.003035139
52	0x3c5de6c2	0.0135437865
53	0x3bac0736	0.005249883
54	0xbb2f6e0b	-0.0026768472
55	0xbc13e6ce	-0.009027196
56	0xbc3163a4	-0.010826979
57	0xbccd20a9	-0.025039988
58	0xbcda235a	-0.026628185
59	0xbca59fb6	-0.020217758
60	0xbbea9aff	-0.0071595903
61	0x3b8efb38	0.0043634437
62	0xba603e01	-0.0008554161
63	0x3c8293f7	0.015939696
64	0x3c2c369a	0.010511065
65	0xbc9094e5	-0.017649123
66	0x3be152c6	0.0068763224
67	0x3c114508	0.008866556
68	0xbcafc2fc	-0.02145528
69	0xbcb2a95f	-0.021809278
70	0xbd0218dd	-0.031761993
71	0xbc44b6dd	-0.012006489
72	0xbc0cb11b	-0.008587147
73	0x3cb840d3	0.022491848
74	0xba427ed0	-0.0007419409
75	0xbc33e1ad	-0.010979098
76	0xbbf67f8e	-0.00752253
77	0xbc3ed3c7	-0.011647171
78	0x3ba5d732	0.0050610537
79	0xbc85eacc	-0.016347311
80	0x3cd32d9d	0.025778586
81	0xbc97ded4	-0.01853887
82	0x3cbffb06	0.023435127
83	0x3c033d78	0.008010261
84	0x3c677927	0.014128006
85	0xbc052205	-0.008125787
86	0x3bbf69f8	0.00584149
87	0xbcdd5286	-0.02701689
88	0xbcafec9b	-0.021475127
89	0xbd1475ec	-0.03624527
90	0xbd128b44	-0.035777345
91	0x3bbc33ec	0.0057434943
92	0x3b6e4149	0.003635483
93	0x3caed336	0.021340948
94	0x3c04cce3	0.008105489
95	0xbc8faf57	-0.017539663
96	0xbb382b78	-0.0028102081
97	0xbc70c4e1	-0.014695377
98	0xbc8815fd	-0.016612047
99	0xbc006022	-0.00783542
100	0x3c02e8ca	0.007990072
101	0xbcabed09	-0.02098705
102	0x3b9e77a2	0.0048360387
103	0xbc8a6eb3	-0.016898489
104	0xbbf944ce	-0.007607079
105	0x3c0989d5	0.008394678
106	0xbc95b3ce	-0.018274214
107	0xbbd95b42	-0.006633193
108	0x3c53c4ed	0.012925369
109	0xbbe931da	-0.0071165385
110	0xbc1401fe	-0.009033678
111	0xbc4da2f0	-0.012551054
112	0xbc1093c1	-0.00882429
113	0x3c4fc6a8	0.012681641
114	0xbcb8a9f3	-0.022541976
115	0xbc1d6baf	-0.009608193
116	0x3bf1bd32	0.00737729
117	0xbb9aade4	-0.0047204364
118	0xbc0dfa22	-0.008665593
119	0x3b8e5eed	0.004344812
120	0xbcf7a740	-0.030231118
121	0xbcef64b9	-0.029222833
122	0xbb96401e	-0.00458528
123	0x3a5922a1	0.0008283053
124	0x3d00e8c2	0.031471975
125	0x3c278909	0.010225543
126	0xbd37a57b	-0.04483555
127	0x3c0af5ca	0.008481452

ablang_branch.5.weight f4 [128]
0	0x3f7cf5ba	0.9881245
1	0x3f7e8c62	0.9943296
2	0x3f7b1e44	0.98093057
3	0x3f7f6f82	0.9977952
4	0x3f869d30	1.051672
5	0x3f7fe61d	0.999605
6	0x3f7cbfc5	0.9873012
7	0x3f8177f7	1.0114735
8	0x3f8232ce	1.0171754
9	0x3f7b4e0a	0.98165953
10	0x3f7b2e4b	0.9811751
11	0x3f80d75a	1.006572
12	0x3f7aae7a	0.9792248
13	0x3f7536ea	0.9578692
14	0x3f7af34b	0.98027486
15	0x3f80d6de	1.0065572
16	0x3f7c0c3d	0.98456174
17	0x3f7d64a7	0.9898171
18	0x3f80dd26	1.0067489
19	0x3f7bda1e	0.98379695
20	0x3f77be32	0.9677459
21	0x3f81458e	1.0099351
22	0x3f7b0a40	0.98062515
23	0x3f80a7a3	1.0051159
24	0x3f7b074f	0.9805803
25	0x3f7cc287	0.98734325
26	0x3f7f5eb4	0.9975388
27	0x3f7a18ba	0.9769398
28	0x3f811c23	1.0086712
29	0x3f7943a7	0.97368854
30	0x3f83e95e	1.0305593
31	0x3f7b53b7	0.98174614
32	0x3f7cb9b7	0.9872088
33	0x3f7fbe6e	0.9989995
34	0x3f7adc57	0.9799246
35	0x3f77e13b	0.9682805
36	0x3f7bbe80	0.98337555
37	0x3f7df1c8	0.99197054
38	0x3f76bff2	0.96386635
39	0x3f7f7d93	0.99800986
40	0x3f7bc6e7	0.98350376
41	0x3f7c8e92	0.98655045
42	0x3f827556	1.0192058
43	0x3f7fa2b7	0.9985766
44	0x3f7bb40f	0.9832162
45	0x3f77806d	0.9668034
46	0x3f82f5e2	1.0231287
47	0x3f7b3d9b	0.9814088
48	0x3f7d90cc	0.9904907
49	0x3f7c56ae	0.9856976
50	0x3f781939	0.96913487
51	0x3f78b3cf	0.97149366
52	0x3f8155b8	1.0104284
53	0x3f816efb	1.0111994
54	0x3f7efa1a	0.99600375
55	0x3f7bcc0a	0.98358214
56	0x3f7d8dfd	0.9904478
57	0x3f7cf3fd	0.98809797
58	0x3f7aae25	0.97921973
59	0x3f7f1093	0.99634665
60	0x3f7b0d28	0.9806695
61	0x3f7e220f	0.9927072
62	0x3f8075a3	1.00359
63	0x3f7dec9b	0.99189156
64	0x3f7cb0fa	0.98707545
65	0x3f80af0d	1.0053421
66	0x3f8057ff	1.0026854
67	0x3f7e52e0	0.9934521
68	0x3f79e4d1	0.9761477
69	0x3f7bc845	0.9835246
70	0x3f7ca879	0.9869457
71	0x3f7c3460	0.9851742
72	0x3f7bb7a8	0.9832711
73	0x3f81e77c	1.0148768
74	0x3f78d919	0.97206265
75	0x3f752a86	0.9576801
76	0x3f7f1a69	0.99649674
77	0x3f798c33	0.9747955
78	0x3f7cfc30	0.9882231
79	0x3f7b42a7	0.9814858
80	0x3f82b67c	1.021194
81	0x3f77eef9	0.9684902
82	0x3f8065fe	1.0031126
83	0x3f80054f	1.000162
84	0x3f80ded6	1.0068004
85	0x3f80316d	1.0015084
86	0x3f7b47b5	0.9815629
87	0x3f77d200	0.9680481
88	0x3f7f80ed	0.998061
89	0x3f7a9d6e	0.9789647
90	0x3f7ae824	0.9801047
91	0x3f80cb8a	1.0062115
92	0x3f7f9bc4	0.99847054
93	0x3f7ce9a8	0.9879403
94	0x3f8365b2	1.026541
95	0x3f753777	0.9578776
96	0x3f7ff0d5	0.99976856
97	0x3f7e364c	0.993016
98	0x3f7cf89e	0.9881686
99	0x3f7b960a	0.98275816
100	0x3f80884f	1.0041598
101	0x3f7cee23	0.9880087
102	0x3f7f3e61	0.9970456
103	0x3f825f3a	1.0185311
104	0x3f7646a1	0.9620152
105	0x3f8056ef	1.002653
106	0x3f7a4eef	0.97776693
107	0x3f7bc6a2	0.98349965
108	0x3f816b64	1.0110898
109	0x3f793740	0.9734993
110	0x3f7cb4cc	0.98713374
111	0x3f797c4f	0.97455305
112	0x3f7dfca5	0.9921363
113	0x3f8088b7	1.0041722
114	0x3f817a07	1.0115365
115	0x3f7d424f	0.98929304
116	0x3f7fb540	0.9988594
117	0x3f78b712	0.97154343
118	0x3f786f96	0.97045267
119	0x3f7c9cba	0.98676646
120	0x3f7a4a32	0.97769463
121	0x3f7868fb	0.9703519
122	0x3f7cfc8d	0.9882286
123	0x3f782d1e	0.96943843
124	0x3f830b17	1.0237759
125	0x3f817568	1.0113955
126	0x3f838ea4	1.0277905
127	0x3f7fd0cf	0.9992799

ablang_branch.5.bias f4 [128]
0	0xbbbcaa66	-0.0057576178
1	0x3baf7ce7	0.0053554657
2	0xbc6690ff	-0.014072656
3	0x3c0ce089	0.008598455
4	0x3d68d666	0.05684509
5	0xbb83a78e	-0.004017777
6	0x3c24a170	0.010048255
7	0x3c043ea8	0.008071579
8	0x3cdf6504	0.027269848
9	0xbb41948a	-0.0029538
10	0xbc2def5e	-0.010616152
11	0x3c3bf6d4	0.011472423
12	0xbbd93b18	-0.006629359
13	0xbc691040	-0.014225066
14	0xbcc212d5	-0.02369062
15	0x3bb1aa10	0.0054218844
16	0xbb49423e	-0.003070965
17	0xba942f32	-0.0011305569
18	0x3ae1af87	0.0017218449
19	0xbc838a8f	-0.01605728
20	0xbcce4147	-0.025177611
21	0x3c91f945	0.017819056
22	0xbcf24c42	-0.029577378
23	0x3a774118	0.0009432002
24	0xbc54d0c1	-0.012989224
25	0x3c4a5503	0.01234937
26	0x3c1e20f1	0.0096514085
27	0xbc4d40ae	-0.012527628
28	0x3bf455b4	0.0074565057
29	0xbcdac4f4	-0.026705243
30	0x3d0eb75d	0.034842838
31	0xbcb929c4	-0.022602923
32	0x3afbc740	0.0019209161
33	0x3c125f9f	0.008933931
34	0xbce35b42	-0.027753476
35	0xbcda47b3	-0.026645517
36	0x3b1169bd	0.002218827
37	0xbc361a74	-0.011114705
38	0xbccfd7df	-0.02537149
39	0xbb82608a	-0.0039787935
40	0xbc2f6b8a	-0.010706792
41	0xbbfbd8cc	-0.0076857563
42	0x3cd0709b	0.02544432
43	0xbae46142	-0.0017424005
44	0x3b670cfe	0.0035255547
45	0xbc20cf12	-0.009814994
46	0x3c8c6f32	0.017142866
47	0x3ab25807	0.0013606556
48	0xbb120a87	-0.0022284107
49	0xbc1f1c0c	-0.009711277
50	0xbca25289	-0.019814746
51	0xbba78e0c	-0.005113369
52	0x3c351ea1	0.011054666
53	0x3bc7d3fb	0.006098268
54	0xbb4082fd	-0.002937495
55	0xbc2847b8	-0.010271005
56	0xbc0e39cb	-0.008680771
57	0xbccb13ed	-0.024789775
58	0xbcb3f511	-0.021967443
59	0xbca9b191	-0.020714553
60	0xbc0af528	-0.008481301
61	0x39234dd2	0.00015573882
62	0xbac477ac	-0.0014989278
63	0x3c8a396a	0.01687308
64	0x3bee8d9b	0.0072800643
65	0xbc8c59f0	-0.01713273
66	0x3c13cf96	0.00902166
67	0x3bb7a59a	0.005604458
68	0xbc7fec6d	-0.015620333
69	0xbca07162	-0.019585315
70	0xbd09256a	-0.033482946
71	0xbc3096c4	-0.010778133
72	0xbc1c1d27	-0.009528435
73	0x3c9cd3c8	0.019143954
74	0xbb8d47d3	-0.0043115406
75	0xbc4e1ec5	-0.012580578
76	0xbb725f2a	-0.0036982992
77	0xbc321597	-0.010869405
78	0x3b9f29d4	0.004857281
79	0xbc94b969	-0.018154817
80	0x3ce7bf93	0.028289592
81	0xbc9ee63d	-0.019396896
82	0x3c967810	0.018367797
83	0x3b784124	0.0037880624
84	0x3c364f90	0.011127368
85	0xbc41ad88	-0.011821158
86	0x3b8cb9a4	0.004294591
87	0xbca28f7a	-0.019843806
88	0xbbdb921d	-0.0067007677
89	0xbd0f8d4e	-0.035046868
90	0xbd17b126	-0.037034176
91	0x3bc1ba41	0.005912096
92	0x3bb4cbce	0.0055174595
93	0x3c842f02	0.016135696
94	0x3bb43ebd	0.005500643
95	0xbc915384	-0.017740019
96	0xba80613c	-0.0009794603
97	0xbc570dac	-0.013125818
98	0xbc8b7e32	-0.017027948
99	0xbbf314e5	-0.0074182623
100	0x3b9e66a3	0.0048340126
101	0xbc99a111	-0.01875356
102	0x3bb0b840	0.005393058
103	0xbc88cc32	-0.01669893
104	0xbba15347	-0.0049232575
105	0x3b8dab70	0.0043234155
106	0xbc92fff8	-0.017944321
107	0xbbc22e0f	-0.005925901
108	0x3c3ab365	0.01139531
109	0xbc19da9e	-0.009390501
110	0xbc39b810	-0.011335388
111	0xbbeae6fb	-0.0071686483
112	0xbc45809d	-0.01205459
113	0x3c367467	0.011136151
114	0xbc5a0deb	-0.013308982
115	0xbc016aaa	-0.007898966
116	0x3c0bc496	0.008530756
117	0xbb504456	-0.0031779013
118	0xbbcfda59	-0.0063431677
119	0xba790eb0	-0.0009500785
120	0xbceb5962	-0.028729144
121	0xbcf0fc63	-0.029417222
122	0xbbaa1a82	-0.0051911483
123	0x3adf7f36	0.0017051462
124	0x3ce76359	0.028245615
125	0x3ba58b29	0.0050519896
126	0xbd1d402b	-0.038391273
127	0x3c07bc09	0.008284577
