data/model_weights/cv_fold_2_model3_3.pt (torch, 707477 bytes, 29 tensors)

ablang_branch.0.weight f4 [256, 480]
0	0xbd61d679	-0.055136178
1	0xbcff99f0	-0.031201333
2	0xbceebb61	-0.029142084
3	0xbd84e4a1	-0.0648892
4	0x3cc10eb4	0.023566581
5	0xbd76c7d1	-0.060249154
6	0xbd7e92da	-0.062151767
7	0xbdbc3144	-0.09189084
8	0x3cfe48d6	0.03104059
9	0x3dd63d93	0.10460963
10	0x3ccc93b5	0.024972776
11	0xbe1d0ea4	-0.15337616
12	0xbc3e6626	-0.011621034
13	0xbb7112f7	-0.0036784986
14	0xbd935db5	-0.071956076
15	0xbe006893	-0.12539892
16	0xbb7c647b	-0.003851204
17	0x3e463e91	0.19359805
18	0xbd8332c9	-0.06406171
19	0x3c6c62bf	0.01442784
20	0x3c8af3c4	0.01696194
21	0xbc85aaae	-0.016316738
22	0xbc8918f6	-0.016735535
23	0xbc81bd9b	-0.015837481
24	0xbd9cc389	-0.07654483
25	0x3d7c4dae	0.06159752
26	0xbd43d768	-0.04781285
27	0xbd9057a5	-0.07047967
28	0xbd98bec1	-0.074582584
29	0xbc073144	-0.008251492
30	0x3e25eead	0.16204329
31	0x3de6dcc6	0.11272578
32	0x3e1dd6aa	0.15413919
33	0x3d969a4a	0.07353647
34	0xbdd3d902	-0.10344125
35	0x3d483e6b	0.04888765
36	0x3d051b46	0.032496713
37	0xba1f467a	-0.00060758705
38	0x3d8fdd1d	0.07024596
39	0xbdcb5677	-0.09928601
40	0x3e04825f	0.12940358
41	0x3d8fd90d	0.07023821
42	0xbd28a65b	-0.041174274
43	0x3c5c8fe5	0.0134620415
44	0x3deef4f8	0.11667818
45	0xbd595742	-0.05306173
46	0x3dc6bfda	0.097045615
47	0x3ccab990	0.024746686
48	0x3da8dd76	0.08245365
49	0xbb3d0b4b	-0.0028845842
50	0x3d163d7d	0.036679734
51	0xbdf2d447	-0.11856895
52	0xbdd0d0f3	-0.10196104
53	0x3d80e47a	0.062935784
54	0x3d5eafcf	0.054366883
55	0x3d998a16	0.07497041
56	0xbbbdede5	-0.0057961815
57	0x3ccc42f7	0.024934275
58	0x3d228eee	0.03968709
59	0x3d3db6e8	0.04631701
60	0xbd286e16	-0.04112061
61	0xbdc801d3	-0.09765973
62	0x3d533954	0.051568344
63	0x3daac216	0.083378
64	0x3ce3a4ca	0.027788538
65	0xbd6aed42	-0.057355173
66	0xbd0606aa	-0.0327212
67	0x3c51c9c1	0.01280445
68	0x3bf7acd8	0.0075584464
69	0x3cbb28a9	0.022846537
70	0x3d1dc15f	0.03851449
71	0x3d648e85	0.05579998
72	0x3ca60e66	0.020270538
73	0x3d723ed0	0.059141934
74	0x3d95a447	0.07306724
75	0xbdb89fba	-0.090148404
76	0xbd6b165a	-0.057394363
77	0xbdde740e	-0.108619794
78	0x3c97b255	0.018517653
79	0x3bf80d8a	0.0075699734
80	0x3d605f6a	0.054778494
81	0xbca38282	-0.019959692
82	0xbcc96e8c	-0.024588846
83	0x3d2ddb86	0.042445682
84	0xbe2a49e2	-0.16629747
85	0x3d3231a5	0.043504376
86	0xbd1cab78	-0.038249463
87	0x3d66ad4d	0.056317616
88	0x3dd0b3dd	0.10190556
89	0x3d590860	0.052986503
90	0x3c1645d5	0.009171923
91	0xbd01b73e	-0.031668894
92	0xbd5461ed	-0.0518512
93	0x3d5c73f7	0.05382153
94	0xbb3d5f85	-0.0028896045
95	0x3db58d40	0.08864832
96	0xbcedbdd0	-0.029021174
97	0xbce6bcaf	-0.028166143
98	0xbda76d71	-0.08175171
99	0xbd3a68a0	-0.045509934
100	0x3d643e9d	0.055723775
101	0xbe082a3d	-0.13297363
102	0x3d578f60	0.052626967
103	0x3d1e1890	0.038597643
104	0x3d050b5e	0.032481544
105	0x3da36044	0.079773456
106	0x3da3e48a	0.08002575
107	0x3d371794	0.04470022
108	0x3d568380	0.052371502
109	0xbdfadb91	-0.1224891
110	0x3a50ed60	0.0007969942
111	0x3c37350a	0.011182079
112	0x3dda233c	0.10651252
113	0x3d8b6eb6	0.06808226
114	0x3da38bc9	0.07985646
115	0xbdcf4ca4	-0.1012204
116	0xbdea4716	-0.1143934
117	0xbd089c9b	-0.033352476
118	0x3dca864c	0.09888896
119	0xbca7678e	-0.02043512
120	0x3d196879	0.03745315
121	0xbd45fa09	-0.048334155
122	0x3c463dee	0.012099726
123	0xbe04ba67	-0.12961732
124	0xbd0afe77	-0.033934083
125	0x3d02687d	0.03183793
126	0x3bcc0583	0.006226243
127	0xbe06e3fa	-0.13172904
128	0x3d6750aa	0.05647341
129	0xbc46fb43	-0.012144866
130	0x3cc53b1a	0.024076033
131	0xbd7faa84	-0.062418476
132	0x3cec4705	0.028842459
133	0xbd1d81d6	-0.0384539
134	0x3cf14afe	0.029454704
135	0xbc840fbd	-0.016120786
136	0xbc3ae0e5	-0.011406158
137	0xbca25564	-0.019816108
138	0xbe2321c0	-0.15930843
139	0x3d106a29	0.035257492
140	0x3dd2c63b	0.10291716
141	0xbd05032c	-0.032473728
142	0x3d88778c	0.06663427
143	0xbe614805	-0.2200013
144	0xbd9d550a	-0.076822355
145	0xbc32bee6	-0.010909772
146	0xbba6b6c3	-0.005087705
147	0x3c886a30	0.016652197
148	0x3dfb2879	0.12263579
149	0xbd4249f9	-0.047433827
150	0xbceb33ee	-0.028711285
151	0xbd3738e4	-0.04473199
152	0x3d7738c4	0.06035687
153	0xbd60a79c	-0.054847345
154	0xbd3e4ce3	-0.046460044
155	0xbddf4037	-0.1090092
156	0x3d155b17	0.036463823
157	0xbd82ff90	-0.06396401
158	0xbd9c30d2	-0.07626499
159	0x3d8db6a9	0.06919605
160	0xbd97b511	-0.074075826
161	0xbda97a30	-0.082752585
162	0x3d036393	0.032077383
163	0xbc543277	-0.012951485
164	0x3d009567	0.03139248
165	0x3c8c27a7	0.017108751
166	0x3d979948	0.07402283
167	0xbc960582	-0.018313173
168	0xbca0c37a	-0.01962446
169	0x3d63a98c	0.055581614
170	0xbd9009f3	-0.07033148
171	0x3cbc51ea	0.022988278
172	0x3d08782a	0.033317722
173	0x3d191ec4	0.037382856
174	0xbd27a8d0	-0.040932477
175	0x3d288935	0.041146476
176	0x3d43b2a9	0.047777805
177	0xbc6c3c0b	-0.014418612
178	0xbd20a92a	-0.039223827
179	0x3cfadda1	0.030623259
180	0xbdc95e50	-0.09832442
181	0xbd898754	-0.06715265
182	0xbda378e8	-0.079820454
183	0x3c397294	0.011318821
184	0x3dc11bf9	0.094291635
185	0x3d961a37	0.07329219
186	0xbd4aeef7	-0.0495443
187	0xbcdff30c	-0.027337573
188	0x3d8cb0e2	0.06869675
189	0xbd483ba8	-0.048885018
190	0x3bfae7eb	0.0076570413
191	0xbd9ff0e9	-0.07809622
192	0xbd9c450a	-0.07630356
193	0xbdacf9cb	-0.08446082
194	0xbca47abf	-0.020078061
195	0x3e0a43f3	0.13502483
196	0x3e6f0437	0.23341452
197	0x3e014cb6	0.12626919
198	0xbbf1b7b0	-0.0073766336
199	0x3d217c23	0.039425027
200	0xbcf723ea	-0.030168492
201	0x3c26fdb2	0.010192322
202	0xbc220dc8	-0.009890981
203	0x3d1f95e9	0.038961325
204	0x3d4b07a5	0.049567837
205	0xbcaa3308	-0.020776287
206	0xbd1ab9a2	-0.03777469
207	0x3dadfec9	0.08495862
208	0x3d0ed127	0.034867432
209	0x3d27304a	0.040817536
210	0x3db85a33	0.09001579
211	0xbd91f272	-0.07126321
212	0xbd838a99	-0.0642292
213	0xbdbe26f6	-0.09284775
214	0x3d7b91d2	0.061418362
215	0xbd3cb363	-0.046069514
216	0x3d09e5a2	0.03366626
217	0xbc20b803	-0.009809497
218	0x3cba7bbb	0.022764077
219	0xbc5d5801	-0.013509751
220	0x3d5b9a65	0.05361404
221	0x3cb9eb63	0.022695249
222	0x3d620cd1	0.055188004
223	0xbd0d8015	-0.034545977
224	0xba9f6682	-0.0012161287
225	0xbd0116ee	-0.031516008
226	0x3c71ae0d	0.01475097
227	0xbde0b5ab	-0.109721504
228	0x3d51a01b	0.05117808
229	0x3d0cb4a4	0.03435196
230	0x3cb175d8	0.021662638
231	0xbdf4f8ae	-0.119614944
232	0x3dd942ee	0.10608469
233	0x3cae4544	0.021273263
234	0x3d5f135f	0.054461833
235	0x3c536bf8	0.01290416
236	0xbd253a85	-0.04033901
237	0xbde68c77	-0.1125726
238	0x3d7d260f	0.061803874
239	0x3e1880a8	0.14892828
240	0x3c2e1076	0.010624042
241	0xbe0514a8	-0.12996161
242	0xbd2a787a	-0.0416188
243	0xbd349191	-0.044084135
244	0xbd06c36c	-0.032901213
245	0xbcedcf35	-0.029029468
246	0xbd484267	-0.04889145
247	0x3d4184b0	0.04724568
248	0xbd623306	-0.05522444
249	0x3bee8add	0.0072797374
250	0x3d7b84b6	0.06140586
251	0xbd85372d	-0.065046646
252	0x3d095e8c	0.033537433
253	0x3c89d3f8	0.016824707
254	0x3d0d6bf0	0.034526765
255	0xbdc4b990	-0.09605706

ablang_branch.0.bias f4 [256]
0	0xbb770e69	-0.0037697798
1	0x3bbb606d	0.005718282
2	0xba88cc97	-0.0010436949
3	0x3b89762c	0.0041949954
4	0x3c8a95ed	0.016917193
5	0x3bd97d6a	0.006637265
6	0xba0f1a66	-0.0005458951
7	0x3b60eba9	0.0034320152
8	0x3bf98ae3	0.0076154335
9	0x3bfc9b6b	0.007708957
10	0x3bb49afb	0.005511639
11	0xbc22b3f4	-0.0099305995
12	0xbabe99e8	-0.0014541717
13	0x3b60782f	0.0034251323
14	0x3c812df7	0.015768988
15	0x3ba7e079	0.005123195
16	0x3bb5f9be	0.005553453
17	0x3bb19dc3	0.005420418
18	0x3b933832	0.004492783
19	0x3c895b01	0.016767027
20	0x3c8b6f7b	0.017020931
21	0x3b9c260b	0.0047652773
22	0x3bdd381e	0.0067510745
23	0x3cf94a06	0.030430805
24	0xb9859cde	-0.00025484612
25	0x3b6ba5d4	0.0035956996
26	0xbb1a7e47	-0.0023573802
27	0x3bf71483	0.007540287
28	0x3b756f72	0.003745046
29	0x3c986cea	0.018606622
30	0x3b7e910d	0.0038843781
31	0xba2f48e8	-0.0006686584
32	0x3aaf5453	0.0013376571
33	0x3b6b6b7b	0.0035922218
34	0x3caff136	0.021477323
35	0x3ca121ac	0.019669376
36	0x3b938a97	0.004502605
37	0x3c1affef	0.009460433
38	0x3c69efca	0.014278362
39	0x3a13b4e5	0.00056345604
40	0x3c6c7a1b	0.014433409
41	0xbb30e17a	-0.0026989863
42	0x3be24862	0.0069056014
43	0x3c802fe3	0.015647834
44	0x3adb504d	0.0016732306
45	0x3b0ba687	0.0021308975
46	0x3c92247a	0.017839659
47	0x3c343d02	0.0110008735
48	0x3c627362	0.013821455
49	0x36f20d10	7.2136827e-06
50	0x3c843a57	0.0161411
51	0x3a650cfa	0.00087375904
52	0x3b3730d7	0.0027952695
53	0xbb4161bf	-0.0029507724
54	0x3c00449d	0.007828859
55	0xba8c8012	-0.001071932
56	0x3beb332f	0.0071777324
57	0x3ba2546c	0.0049539115
58	0x3b980c49	0.0046401364
59	0x3b884f78	0.004159864
60	0x3c011aa6	0.007879889
61	0xb8d1f8ba	-0.000100122255
62	0xba52ed8e	-0.00080462627
63	0x3b85160d	0.0040614665
64	0x3c61c150	0.013778999
65	0x3c07a3b9	0.008278781
66	0x3c2becb9	0.010493451
67	0x3c0f5b0c	0.008749735
68	0x3ca439d5	0.020047108
69	0x3bcb4b59	0.0062040505
70	0xbb3838d0	-0.0028110035
71	0x3b435044	0.002980248
72	0x3b030bc5	0.001999603
73	0x3b937957	0.004500549
74	0x3b666950	0.0035157986
75	0x3c0e0ab2	0.008669542
76	0x3c437c69	0.011931517
77	0x3cc6520a	0.024209041
78	0xbc2c8162	-0.010528894
79	0x3c15abe2	0.009135218
80	0x3b827322	0.00398101
81	0x3cc70ce7	0.024298145
82	0x3c0d669b	0.00863042
83	0x3b20a17c	0.0024510315
84	0x3b12ea21	0.0022417384
85	0x3c3e040b	0.011597644
86	0x3bc9f54a	0.006163274
87	0x3bdd0fa3	0.006746249
88	0xbb8ac890	-0.0042353347
89	0x3be0c750	0.0068596974
90	0xba9893d2	-0.0011640734
91	0x3c63042c	0.013855975
92	0x3c5cadcc	0.013469171
93	0x3b4550ff	0.0030108092
94	0x3b8221e2	0.0039713243
95	0xbc055c2e	-0.008139653
96	0x3c58280b	0.013193141
97	0x3c3dff3e	0.011596499
98	0x3bb766b5	0.0055969604
99	0x3b40ad87	0.0029400305
100	0x3be068aa	0.0068484144
101	0x3a85b6d6	0.0010201584
102	0xbba2460a	-0.004952197
103	0x3bfb4cac	0.007669052
104	0x3bbdc58a	0.0057913708
105	0x3b8cf6d8	0.004301887
106	0x3b7aa77a	0.0038246796
107	0x3bdf6263	0.0068171485
108	0xbb36255c	-0.0027793264
109	0x3cd27df1	0.02569482
110	0x3cb753b9	0.02237879
111	0x3ca02a15	0.019551316
112	0x3c467b61	0.012114377
113	0x3b8d5ef2	0.004314297
114	0x3b9f596b	0.0048629544
115	0x3ac3cdc6	0.0014938645
116	0x3c66cfe8	0.014087655
117	0xbb156cc0	-0.0022800416
118	0x3b79f128	0.0038138125
119	0x3b21abd9	0.002466908
120	0x3c273c1e	0.010207204
121	0x3bc2fa91	0.00595028
122	0xb9cf3226	-0.0003951948
123	0xba10cd70	-0.00055237766
124	0x3c70bbdc	0.014693227
125	0x3c5b6167	0.013389922
126	0x3ccd766e	0.025080886
127	0x3b969956	0.004595916
128	0x3a4991fd	0.00076892955
129	0x3bfb1892	0.007662841
130	0x3c777515	0.015103598
131	0x3c82704a	0.015922684
132	0x3b1030af	0.0022001674
133	0x3c787316	0.015164157
134	0x3b10418d	0.0022011728
135	0x3b41079e	0.0029454003
136	0x3bde7fc9	0.0067901355
137	0x3bb19ef1	0.0054205586
138	0x3b0d780b	0.0021586444
139	0x3c594d55	0.013263066
140	0x3c1635b9	0.009168082
141	0x3c13f24e	0.009029938
142	0x3ba86df4	0.0051400606
143	0x3c1433a5	0.009045516
144	0x3b91ffc4	0.0044555385
145	0x3bd61d08	0.0065342225
146	0x3c293010	0.0103264
147	0x3ba6c0b5	0.0050888904
148	0x3c74a4df	0.014931886
149	0x3c64a945	0.013956373
150	0xb88c7dfe	-6.699188e-05
151	0x3ac65109	0.0015130352
152	0x3cb6f2d1	0.02233258
153	0x3c07e764	0.008294914
154	0xbb90ee62	-0.0044229487
155	0x3bede245	0.0072596394
156	0x3c69bfb2	0.014266895
157	0x3c1cdeda	0.009574616
158	0x3c3f2331	0.011666105
159	0xbb8953b1	-0.004190885
160	0x3bc3f3da	0.005979997
161	0x3c31440b	0.010819445
162	0xbbb7ccac	-0.0056091156
163	0x3ba3e022	0.005001084
164	0x3c12e0ba	0.008964712
165	0x3c88172c	0.016612612
166	0x3b787f4c	0.0037917672
167	0x3b98c6d9	0.0046623764
168	0x3ca280a7	0.019836737
169	0x3b2a61d3	0.002599825
170	0x3ae257bc	0.0017268579
171	0x3c4a4b61	0.012347073
172	0xba3830ce	-0.00070263154
173	0x3b8a09e2	0.004212604
174	0x3c03eadd	0.008051601
175	0x3c076ba7	0.008265412
176	0xbb04a1b3	-0.0020237982
177	0x3c32c8e6	0.010912156
178	0x3b528780	0.0032124221
179	0x3c75a89f	0.014993816
180	0xbaea7003	-0.0017886165
181	0x3b92320c	0.0044615325
182	0xbb9ebd51	-0.0048443456
183	0x3c6b54c3	0.0143634705
184	0x3c03c1d4	0.008041818
185	0x3c7b9254	0.015354712
186	0x39b72d59	0.00034938267
187	0x3b475355	0.003041466
188	0x3baa161b	0.0051906235
189	0x3c2ff611	0.010739819
190	0x3c42b137	0.011883072
191	0x3a3601c4	0.0006943012
192	0x3b40da18	0.002942687
193	0xbb118ff1	-0.002221104
194	0x3c21f905	0.009886031
195	0xbb092d3c	-0.0020931503
196	0x3bae8599	0.0053259847
197	0x3b73db38	0.0037209522
198	0x3cb9ae3c	0.02266609
199	0x3bf98782	0.0076150307
200	0x3c242715	0.0100190835
201	0xba8e2029	-0.0010843325
202	0x3ca67ada	0.020322252
203	0xbc06f009	-0.00823594
204	0xba39e0d9	-0.0007090695
205	0x3a725e9e	0.00092456664
206	0x3bf015db	0.007326824
207	0x3b82f7f2	0.0039968425
208	0x3c79d914	0.015249509
209	0x3b4490c6	0.0029993518
210	0x3c9657d1	0.018352421
211	0x3c2664ef	0.0101559
212	0x3bd4b2ab	0.0064910254
213	0x3c883cb9	0.016630517
214	0x3bd1365a	0.006384653
215	0xbc3804ed	-0.011231643
216	0x3bbf33b4	0.005835021
217	0x3b37bd6b	0.0028036486
218	0x3c8f421a	0.017487574
219	0x3bcf910d	0.00633443
220	0xba870cc8	-0.0010303492
221	0x3a2c83c3	0.00065809133
222	0x3c5bb0c7	0.013408846
223	0x3bfae2a5	0.0076564127
224	0x3c8f4449	0.017488616
225	0x3bd34393	0.0064472645
226	0xbabb3bc1	-0.0014284776
227	0x3c3926e1	0.011300773
228	0x3c0662ba	0.008202249
229	0x3c3f3bc2	0.011671962
230	0x3b922b51	0.00446073
231	0x3b6a283b	0.0035729546
232	0x3c93cf1a	0.01804309
233	0x3c2aaf6f	0.010417803
234	0x3bbb12e4	0.005709039
235	0x3a9d0f31	0.0011982677
236	0x3c62d76a	0.013845304
237	0x3bb9daf2	0.0056718523
238	0x3c01755e	0.007901518
239	0x3caf3584	0.021387823
240	0x3c5d91ca	0.013523528
241	0x3c416a87	0.011805183
242	0x3c146fc4	0.00905985
243	0x3b00c731	0.0019649977
244	0x3aba3c4d	0.0014208645
245	0x3cc44d85	0.023962745
246	0x3c89879c	0.016788296
247	0x3aaeeb2f	0.0013345237
248	0x3be27b47	0.0069116685
249	0x3c1c6054	0.009544451
250	0x3c283777	0.01026713
251	0x3c65698e	0.014002217
252	0x3af8e277	0.001898839
253	0x3c908414	0.017641105
254	0x3c4164e1	0.011803837
255	0x3c756df5	0.014979829

ablang_branch.1.weight f4 [256]
0	0x3f78cbfd	0.9718626
1	0x3f84d15a	1.0376389
2	0x3f78f025	0.9724143
3	0x3f847be0	1.0350304
4	0x3f8594e1	1.0436059
5	0x3f81f9ef	1.0154399
6	0x3f784762	0.9698392
7	0x3f893e12	1.0722067
8	0x3f7a54eb	0.97785825
9	0x3f7b28dd	0.9810923
10	0x3f898025	1.0742232
11	0x3f89f62e	1.0778253
12	0x3f755e58	0.9584708
13	0x3f822165	1.0166441
14	0x3f7c0b48	0.98454714
15	0x3f870f59	1.0551559
16	0x3f8692ed	1.0513588
17	0x3f8c3935	1.0954958
18	0x3f805f14	1.0029016
19	0x3f785d74	0.970176
20	0x3f7e325e	0.99295604
21	0x3f80cf5e	1.0063283
22	0x3f7f0ac5	0.9962581
23	0x3f7d3f6b	0.98924893
24	0x3f791d3c	0.97310233
25	0x3f8253a1	1.0181772
26	0x3f820816	1.0158718
27	0x3f8059a3	1.0027355
28	0x3f7d9d17	0.99067825
29	0x3f70401b	0.9384782
30	0x3f77d997	0.9681639
31	0x3f7166ff	0.94297785
32	0x3f84e2db	1.0381731
33	0x3f750ebc	0.9572561
34	0x3f8560ab	1.0420126
35	0x3f79dd12	0.9760295
36	0x3f7e8c9a	0.9943329
37	0x3f7e3ee9	0.99314743
38	0x3f816c4c	1.0111175
39	0x3f7e3e04	0.9931338
40	0x3f7dfba5	0.99212104
41	0x3f81be54	1.0136209
42	0x3f73de0d	0.952607
43	0x3f7de6ca	0.9918028
44	0x3f7137b7	0.9422564
45	0x3f7aa8b9	0.979137
46	0x3f87546b	1.0572637
47	0x3f8adacc	1.0848022
48	0x3f801d8f	1.000902
49	0x3f87b9e0	1.06036
50	0x3f820ee5	1.0160795
51	0x3f716bdf	0.94305223
52	0x3f841c8b	1.0321211
53	0x3f774890	0.96595097
54	0x3f801d81	1.0009004
55	0x3f796f22	0.974352
56	0x3f71db5b	0.94475335
57	0x3f81c7ce	1.01391
58	0x3f7bba8a	0.9833151
59	0x3f7887cb	0.97082204
60	0x3f748361	0.9551297
61	0x3f8430da	1.0327408
62	0x3f7e7223	0.9939291
63	0x3f814e71	1.0102063
64	0x3f7c7b16	0.98625314
65	0x3f8049e2	1.0022547
66	0x3f7f5027	0.9973168
67	0x3f7bebcd	0.9840668
68	0x3f7e42a0	0.9932041
69	0x3f845cd9	1.0340835
70	0x3f84e4b2	1.0382292
71	0x3f81ecc9	1.0150386
72	0x3f83fef4	1.031218
73	0x3f81cfd8	1.0141554
74	0x3f6fbd3f	0.9364814
75	0x3f7f7593	0.9978878
76	0x3f7fb9bc	0.99892783
77	0x3f8ccb6a	1.0999577
78	0x3f6e13f8	0.9299922
79	0x3f733849	0.9500776
80	0x3f810943	1.0080951
81	0x3f7dc0cf	0.9912233
82	0x3f85a409	1.0440685
83	0x3f7d7667	0.9900879
84	0x3f7fb200	0.9988098
85	0x3f87b63f	1.0602492
86	0x3f84e613	1.0382713
87	0x3f78ec2d	0.97235376
88	0x3f779d37	0.96724266
89	0x3f72cefe	0.94847095
90	0x3f7d2c09	0.9889532
91	0x3f7d09d2	0.9884311
92	0x3f87712e	1.0581415
93	0x3f7d9723	0.9905874
94	0x3f79a4bc	0.9751699
95	0x3f8c006c	1.0937629
96	0x3f827f87	1.0195168
97	0x3f7f72f7	0.997848
98	0x3f81724b	1.0113004
99	0x3f7c0c16	0.9845594
100	0x3f807d05	1.0038153
101	0x3f7631af	0.9616956
102	0x3f85ff5e	1.0468557
103	0x3f77d0c2	0.96802914
104	0x3f7de94b	0.991841
105	0x3f82d722	1.0221903
106	0x3f77052c	0.96492267
107	0x3f75b394	0.9597714
108	0x3f84f42f	1.0387019
109	0x3f807e9f	1.0038642
110	0x3f8a9152	1.0825598
111	0x3f75bb6b	0.959891
112	0x3f7e9da1	0.9945927
113	0x3f750fad	0.95727044
114	0x3f771760	0.9652004
115	0x3f7ab238	0.9792819
116	0x3f8c3f7e	1.0956876
117	0x3f71cfe8	0.94457865
118	0x3f832052	1.0244238
119	0x3f82749b	1.0191835
120	0x3f7596eb	0.9593341
121	0x3f7e6e6a	0.9938723
122	0x3f77931a	0.96708834
123	0x3f78d837	0.9720492
124	0x3f704c0f	0.93866056
125	0x3f7fde5a	0.99948657
126	0x3f883628	1.0641527
127	0x3f7bfb26	0.984301
128	0x3f7665da	0.96249163
129	0x3f7dbcbf	0.9911613
130	0x3f7da3a5	0.99077827
131	0x3f7c2402	0.98492444
132	0x3f8a2a0c	1.0794082
133	0x3f831cf5	1.0243212
134	0x3f7b0b65	0.9806426
135	0x3f8053e7	1.0025605
136	0x3f7d074e	0.9883927
137	0x3f7b1ab0	0.98087597
138	0x3f8b4e58	1.0883284
139	0x3f806efd	1.0033871
140	0x3f7dd270	0.9914923
141	0x3f801262	1.000561
142	0x3f752fe5	0.95776206
143	0x3f7dfff0	0.99218655
144	0x3f7ded5e	0.9919032
145	0x3f7a0c85	0.97675353
146	0x3f8317e9	1.0241672
147	0x3f81595b	1.0105394
148	0x3f830a6f	1.0237559
149	0x3f80fa82	1.0076449
150	0x3f828144	1.0195699
151	0x3f77b7bf	0.9676475
152	0x3f8d89f7	1.1057729
153	0x3f826af3	1.0188888
154	0x3f6ba625	0.9205039
155	0x3f800c06	1.0003669
156	0x3f7db151	0.9909869
157	0x3f7d372c	0.9891231
158	0x3f7e9595	0.99446994
159	0x3f8488aa	1.0354207
160	0x3f788d86	0.9709095
161	0x3f802429	1.0011035
162	0x3f84cab2	1.0374358
163	0x3f84899c	1.0354495
164	0x3f73faca	0.9530455
165	0x3f7ad3f7	0.9797968
166	0x3f7d7818	0.99011374
167	0x3f7cc898	0.9874358
168	0x3f80ab02	1.0052187
169	0x3f74e8e6	0.95667875
170	0x3f7aa1d2	0.9790317
171	0x3f85caba	1.0452492
172	0x3f801956	1.0007732
173	0x3f80bc64	1.0057492
174	0x3f839f79	1.0283042
175	0x3f8027a6	1.00121
176	0x3f767a7e	0.9628066
177	0x3f87d70e	1.0612504
178	0x3f7d5d6f	0.98970693
179	0x3f810438	1.0079412
180	0x3f7519ff	0.9574279
181	0x3f72c0b3	0.94825286
182	0x3f84923a	1.0357125
183	0x3f7fd351	0.9993182
184	0x3f7a214b	0.9770705
185	0x3f7c3ecf	0.9853334
186	0x3f83731b	1.0269502
187	0x3f843b5c	1.0330615
188	0x3f781b7a	0.96916926
189	0x3f6e0abc	0.9298513
190	0x3f802ae1	1.0013086
191	0x3f861407	1.0474862
192	0x3f7182a1	0.9433995
193	0x3f78986b	0.9710757
194	0x3f81f8bc	1.0154033
195	0x3f7d9fe6	0.9907211
196	0x3f780279	0.9687877
197	0x3f76b505	0.96369964
198	0x3f88d5be	1.0690229
199	0x3f863acc	1.0486693
200	0x3f7764d2	0.96638215
201	0x3f8de93a	1.10868
202	0x3f84faf8	1.038909
203	0x3f81f764	1.0153623
204	0x3f881f27	1.0634507
205	0x3f7c62b7	0.98588127
206	0x3f70952d	0.93977624
207	0x3f79a529	0.9751764
208	0x3f83f3c6	1.0308769
209	0x3f7634ee	0.96174514
210	0x3f83aa11	1.0286275
211	0x3f794628	0.97372675
212	0x3f82688c	1.0188155
213	0x3f7e5b8b	0.99358433
214	0x3f74e3e4	0.95660233
215	0x3f83e87d	1.0305325
216	0x3f7c5b9d	0.9857729
217	0x3f7dbf28	0.99119806
218	0x3f79f3b1	0.9763747
219	0x3f84e617	1.0382718
220	0x3f855582	1.041672
221	0x3f82d271	1.0220472
222	0x3f82ef81	1.0229341
223	0x3f7ef6b5	0.99595195
224	0x3f81b007	1.0131844
225	0x3f758711	0.9590922
226	0x3f734bc8	0.9503751
227	0x3f7c75c7	0.98617214
228	0x3f812f6b	1.0092596
229	0x3f8881b1	1.0664579
230	0x3f7cf230	0.9880705
231	0x3f8262a2	1.018635
232	0x3f79027e	0.9726943
233	0x3f7e343f	0.9929847
234	0x3f854d63	1.0414242
235	0x3f805595	1.0026118
236	0x3f80194f	1.0007724
237	0x3f7d50a9	0.989512
238	0x3f7c4893	0.9854824
239	0x3f8684ff	1.0509337
240	0x3f89a8ec	1.0754676
241	0x3f83294d	1.0246979
242	0x3f84eb0c	1.0384231
243	0x3f784b56	0.96989954
244	0x3f901752	1.1257117
245	0x3f7faca5	0.9987281
246	0x3f7c0897	0.9845061
247	0x3f781592	0.96907914
248	0x3f7fe958	0.9996543
249	0x3f808efe	1.0043638
250	0x3f7a126b	0.97684354
251	0x3f786700	0.97032166
252	0x3f85c56d	1.0450875
253	0x3f818e9e	1.0121648
254	0x3f83e775	1.030501
255	0x3f8a8535	1.0821902

ablang_branch.1.bias f4 [256]
0	0xbd0285b5	-0.031865794
1	0x3b1b5d6e	0.0023706811
2	0xbc7efb7b	-0.015562887
3	0xbb22694a	-0.0024781995
4	0xbb494727	-0.0030712576
5	0xbba46a84	-0.0050175805
6	0xbd45875e	-0.0482248
7	0xbbaa2460	-0.0051923245
8	0xbb34f222	-0.0027610143
9	0xbc079eb8	-0.008277588
10	0xbc14e666	-0.009088134
11	0xbd22b6c5	-0.039725084
12	0xbd11e09f	-0.035614606
13	0x3b9ebd8f	0.0048443745
14	0x3bb0783e	0.0053854277
15	0xbc9a3b73	-0.018827176
16	0xbc0ba6a7	-0.00852362
17	0xbbf09889	-0.0073424024
18	0xba865e38	-0.0010251468
19	0xbd589f5b	-0.05288635
20	0xbc1f5f69	-0.009727337
21	0x3b2fb5a3	0.0026811145
22	0xbc3e3625	-0.011609589
23	0xbc066045	-0.008201663
24	0xbcc5b6ac	-0.024134956
25	0xb81dbbf8	-3.7606776e-05
26	0xbd81fc9b	-0.06347009
27	0xbb307efa	-0.0026931153
28	0xbb905887	-0.0044050845
29	0xbcb542f1	-0.022126647
30	0xbcd56e1a	-0.026053477
31	0xbd346012	-0.044036932
32	0xbb4f7ec2	-0.0031661247
33	0xbcdcd5c7	-0.026957406
34	0xbc1bffbc	-0.009521421
35	0xbc4b178a	-0.012395749
36	0xbb8f3e7f	-0.004371464
37	0x3b8b5d4d	0.0042530657
38	0x3c0a0416	0.008423826
39	0xbb6847bd	-0.003544315
40	0xbc9f2c0a	-0.01943018
41	0xbc24edaa	-0.010066429
42	0xbc6c78df	-0.014433115
43	0xbd72baa9	-0.059260044
44	0xbcdcf6ee	-0.026973214
45	0xbb820286	-0.003967586
46	0xbc31dd86	-0.010856038
47	0xbc57db58	-0.013174854
48	0x3a166b0d	0.00057379977
49	0xbcbd2ed5	-0.02309362
50	0x3afeb83c	0.0019433568
51	0xbd05037e	-0.032474034
52	0xbd64f2dc	-0.05589567
53	0xbc68fcfb	-0.0142204715
54	0xbcccf490	-0.02501896
55	0xbbfa8098	-0.007644724
56	0xbcfbae6d	-0.030722821
57	0x3a87e0b2	0.0010366647
58	0x39a5e0a3	0.0003163862
59	0xbc73ce3d	-0.014880714
60	0xbc466e2c	-0.012111228
61	0xbd5e2755	-0.05423673
62	0xbb0c87d2	-0.002144326
63	0x3b91803f	0.004440337
64	0xbb927a93	-0.0044701784
65	0xbb4d1ea2	-0.0031298776
66	0xbaf95760	-0.0019023232
67	0x3b920e85	0.0044572973
68	0x3b8e2a88	0.004338566
69	0x3ba47763	0.005019115
70	0xbb28b117	-0.002574032
71	0xbc0415a5	-0.008061801
72	0x3a6afac8	0.0008963761
73	0xbc6e79a3	-0.014555368
74	0xbcb73b52	-0.022367153
75	0x3a756505	0.00093610614
76	0x3ae5a47c	0.0017520334
77	0x3acf6280	0.0015822202
78	0xbd8ff28e	-0.070286855
79	0xbc96fadd	-0.018430168
80	0xbbca6508	-0.0061765946
81	0x3c08ec1e	0.008357076
82	0x3c067a63	0.00820789
83	0xbc0ed0a2	-0.008716734
84	0xbb970127	-0.0046082917
85	0xbc8a51a5	-0.016884634
86	0x3a8b6913	0.0010636173
87	0xbc5229f6	-0.012827387
88	0xbd181841	-0.037132505
89	0xbd0f9480	-0.03505373
90	0xbd119f36	-0.035552226
91	0x39ce82fd	0.00039388976
92	0xbaeefe14	-0.001823368
93	0xbd31cca8	-0.043408066
94	0xbcd1888d	-0.025577808
95	0xbd84a7e2	-0.064773336
96	0xbb71209a	-0.0036793114
97	0x3bb157c7	0.005412075
98	0xbc91d5a8	-0.017802075
99	0xbc1fcf56	-0.009754023
100	0xbc187464	-0.009305093
101	0xbc249bf2	-0.010046946
102	0xbbf81b52	-0.007571616
103	0xbd51eaee	-0.051249437
104	0xbb885552	-0.0041605616
105	0x3b8674ba	0.0041032704
106	0xbc91ac77	-0.017782433
107	0xbccbd6a0	-0.024882615
108	0xbd678b60	-0.056529403
109	0xbd34b3b6	-0.0441167
110	0x3bf8d09c	0.0075932276
111	0xbb68cef2	-0.003552374
112	0xbc015949	-0.007894822
113	0xbc526375	-0.012841095
114	0xbca48806	-0.020084392
115	0xbb9d22d7	-0.004795413
116	0x3b89b735	0.004202748
117	0xbd52b280	-0.051439762
118	0x3bad169d	0.0052822367
119	0xbd70a989	-0.05875543
120	0xbbf92b47	-0.007604036
121	0xbaff24dd	-0.0019465942
122	0xbc9d2e7e	-0.019187208
123	0xbd5b0fd3	-0.053481888
124	0xbbe50f2d	-0.0069903345
125	0x3aa74bbf	0.0012763663
126	0x3c4aeb1e	0.012385158
127	0xbb128f15	-0.0022363116
128	0xbc7c7265	-0.015408133
129	0xbcac5a1c	-0.021039061
130	0x3bdf04b0	0.0068059787
131	0xbd1a15a2	-0.037618287
132	0xbd5b034f	-0.053469952
133	0x3aa80310	0.0012818296
134	0xbb9f435a	-0.004860324
135	0x3a9e545e	0.0012079587
136	0xbc3c42f6	-0.011490574
137	0xbad8aa88	-0.0016530314
138	0x3b86f0ed	0.004118076
139	0x3b746afa	0.0037295208
140	0x3a6b5208	0.0008976762
141	0xbd1ec64a	-0.038763322
142	0xbbefc529	-0.0073172045
143	0xbaa618a9	-0.0012672144
144	0xbbcf8c04	-0.00633383
145	0xbbee6342	-0.007275016
146	0x399ebc5c	0.00030276447
147	0xbcb54715	-0.022128621
148	0x3bb8639b	0.0056271083
149	0xbc46744b	-0.012112687
150	0xbb543d34	-0.0032385113
151	0xbd14d9b5	-0.036340434
152	0xbac40282	-0.0014954361
153	0x3bdbde58	0.006709855
154	0xbccc5081	-0.024940731
155	0x3a62d928	0.00086535746
156	0x3b9b8acf	0.004746772
157	0xbd401ab8	-0.04690048
158	0x3bde2b65	0.0067800754
159	0xbbff25c1	-0.007786483
160	0xbca633de	-0.020288404
161	0x3bd21bd4	0.006412009
162	0xbd812370	-0.06305587
163	0xbd1e5a1d	-0.038660157
164	0xbc9f2e04	-0.019431122
165	0x3b823542	0.003973634
166	0xbaaaf84a	-0.0013043967
167	0xbcc85766	-0.024455737
168	0xbb95ee74	-0.004575545
169	0xbd007b6c	-0.031367704
170	0xbc48ea0a	-0.0122628305
171	0x3b89da97	0.004206966
172	0xbced13fd	-0.028940195
173	0xbab8d764	-0.0014102277
174	0x3b8c5ae6	0.004283297
175	0xbb27b3cf	-0.0025589352
176	0xbd152962	-0.03641642
177	0xbcb66830	-0.022266477
178	0xbd353e18	-0.04424867
179	0xba810e10	-0.000984611
180	0xbd0bc731	-0.03412551
181	0xbc4d74da	-0.012540067
182	0xbd57f10f	-0.052720126
183	0x3be72de3	0.0070550307
184	0xbd47595f	-0.048669215
185	0xbb8210b5	-0.003969277
186	0xbadcaa23	-0.0016835373
187	0x3ac099d8	0.0014694287
188	0xbc83ad8c	-0.016073965
189	0xbc668bb2	-0.014071392
190	0xbb0b81b3	-0.0021287024
191	0x3b0134b9	0.0019715263
192	0xbd4aa555	-0.04947408
193	0xbc422019	-0.011848473
194	0x3a290d46	0.0006448816
195	0xbd1e5594	-0.038655832
196	0xbd4b6a42	-0.049661882
197	0xbcbe534e	-0.023233082
198	0x3c2dc04a	0.010604927
199	0xbdb203ca	-0.08692129
200	0xbc409156	-0.011753401
201	0xbbe2c82b	-0.0069208345
202	0xb8a1e82f	-7.720326e-05
203	0xbc9fb731	-0.019496532
204	0xb919849f	-0.00014640622
205	0xbbc02de4	-0.0058648456
206	0xbcf2a87c	-0.029621355
207	0xbccf2157	-0.025284452
208	0xbba841f5	-0.005134816
209	0xbc786ce2	-0.015162678
210	0x3ba599b1	0.005053722
211	0xbd344dfe	-0.04401969
212	0x3b989773	0.004656726
213	0x3bb1ffc2	0.0054321
214	0xbc23943f	-0.009984075
215	0xbd0ec793	-0.034858298
216	0xbc6c3844	-0.014417712
217	0xbc049b06	-0.008093601
218	0xbcaa9e61	-0.020827474
219	0x3c06d4b7	0.008229426
220	0xbda0eac4	-0.07857278
221	0xbd76f274	-0.060289815
222	0xbc9c4912	-0.019077811
223	0x3bcabd39	0.006187108
224	0x3b4d0d38	0.0031288397
225	0xbc53c9b3	-0.012926507
226	0xbcdfa9a3	-0.027302569
227	0x3a904dc1	0.0011009501
228	0xbbc755d9	-0.006083232
229	0x3b63d328	0.003476331
230	0xbb71b860	-0.0036883578
231	0x3b05ef8a	0.0020436966
232	0x3a233353	0.00062256044
233	0xbc375a1c	-0.011190917
234	0xbc39e1ea	-0.011345366
235	0xbafdea14	-0.0019372129
236	0x3bc718b0	0.006075941
237	0xbd07e18d	-0.033174086
238	0xbc34bcee	-0.0110313725
239	0x3bf4793c	0.0074607413
240	0xbbae8ee2	-0.0053270916
241	0xbc4d5d84	-0.012534503
242	0xbba0db10	-0.004908927
243	0xbce1d39a	-0.02756672
244	0xbade1d92	-0.0016946068
245	0xbc75af8f	-0.01499547
246	0xbd0629e1	-0.032754783
247	0xbd393f72	-0.04522652
248	0xbc8ae40b	-0.016954442
249	0x3a151fb6	0.0005688624
250	0xbbcabb22	-0.0061868588
251	0xbc165c26	-0.009177243
252	0x3b368841	0.002785221
253	0x3b38c4ad	0.00281934
254	0xbd6cae04	-0.05778314
255	0x3aa31baf	0.0012444163

ablang_branch.4.weight f4 [128, 256]
0	0xbd0b8d25	-0.034070153
1	0xbddb003e	-0.106934056
2	0x3c7e9d9e	0.015540509
3	0x3d25055b	0.04028831
4	0xbdc0d19f	-0.09414982
5	0x3ba5a490	0.005055018
6	0x3d3bc7b3	0.045844745
7	0xbbcd1138	-0.006258156
8	0xbc71e606	-0.0147643145
9	0xbd5ae5cc	-0.053441808
10	0x3bf81aee	0.0075715696
11	0x3db4cb7c	0.08827874
12	0x3bccb4cb	0.006247138
13	0xbe21debc	-0.15807623
14	0xbdd09129	-0.10183937
15	0xbd675392	-0.056476183
16	0x3e05dc76	0.1307238
17	0xbe08bbef	-0.13352941
18	0x3da3c9e2	0.079974905
19	0xbd837acf	-0.06419908
20	0xbda3f9a1	-0.08006597
21	0x3d45ff36	0.04833909
22	0xb9dcc67b	-0.0004210955
23	0x3d68fe06	0.05688288
24	0xbe01e9fb	-0.12686913
25	0x3dbbe6ad	0.09174857
26	0xbdccbeba	-0.09997316
27	0xbcac05d8	-0.02099888
28	0xbdc5176c	-0.09623608
29	0x3d899807	0.0671845
30	0x3d396a49	0.045267377
31	0x3d12bb63	0.035823237
32	0x3e028c95	0.1274894
33	0x3e206f75	0.15667517
34	0xbdb2e30e	-0.087347135
35	0xbe0a9bd2	-0.13536003
36	0x3acd21d6	0.0015650343
37	0xbd2a1d93	-0.04153211
38	0xbbfae785	-0.007656994
39	0xbd50bf7f	-0.050963875
40	0xbd06a0c2	-0.032868154
41	0x3e29c25a	0.16578045
42	0x3d09f34e	0.0336793
43	0xbdea8ece	-0.11453019
44	0x3bcd9e61	0.0062749838
45	0xbd618cd5	-0.05506595
46	0xbdcff642	-0.10154392
47	0xbd29f540	-0.041493654
48	0xbce37a45	-0.027768264
49	0xbe1c8f1d	-0.15288968
50	0x3c6f3e5f	0.014602273
51	0x3dc8ec4c	0.09810695
52	0xbdd99fe6	-0.10626201
53	0x3d01b85e	0.031669967
54	0x3dd95eb3	0.106137656
55	0x3df8c0d0	0.12146151
56	0xbd9ec8a7	-0.07753115
57	0xbe1860fd	-0.14880748
58	0x3981bfc6	0.0002474768
59	0xbd786d4d	-0.060651112
60	0x3c27df8f	0.010246172
61	0x3e0169eb	0.12638061
62	0x3dc70f48	0.097197115
63	0xbdb8976c	-0.090132564
64	0x3d2da84e	0.042396836
65	0x3c8cef52	0.01720396
66	0xbd917129	-0.07101662
67	0x3e024c0b	0.1272432
68	0xbdd9a68e	-0.10627471
69	0xbcf3b75d	-0.02975052
70	0x3dcae803	0.09907534
71	0xbc3baf73	-0.011455405
72	0x3d1208fc	0.0356531
73	0x3d2d7ba1	0.04235423
74	0xbdb5a62a	-0.08869584
75	0xbc9f69a2	-0.01945955
76	0x3e08f0e5	0.13373144
77	0xbcf7d745	-0.030254016
78	0x3e09f293	0.13471441
79	0xbdc27304	-0.09494594
80	0xbd3f1df4	-0.046659425
81	0xbda167e1	-0.078811415
82	0x3d591347	0.0529969
83	0xbd34f548	-0.04417923
84	0x3c0bad5e	0.008525221
85	0xbe2bec29	-0.16789307
86	0x3dd63fc2	0.104613796
87	0x3cc9160a	0.024546642
88	0xbdab2d6c	-0.08358273
89	0x3d1cbd7b	0.03826664
90	0x3abf0980	0.0014574975
91	0xbe14f786	-0.14547548
92	0x3a4c7176	0.00077988894
93	0x39303971	0.00016806067
94	0x3d08f9cb	0.033441346
95	0xbd4503fd	-0.048099507
96	0xbde047c7	-0.109511904
97	0x3ddf0f20	0.10891557
98	0x3d17c29c	0.03705083
99	0x3d3e3b89	0.046443496
100	0x3cb9becf	0.022673992
101	0x3d4d6b19	0.050150964
102	0x3e0cc430	0.13746715
103	0x3e38e86a	0.18057409
104	0x3d8ef2ec	0.069799274
105	0x3d93ffa4	0.07226494
106	0x3d844ed5	0.064603485
107	0xbe476ee8	-0.19475901
108	0xbdca282b	-0.09870943
109	0x3d73572a	0.059409298
110	0x3cd525d4	0.026019014
111	0xbc2dfef8	-0.010619871
112	0x3d2fd72b	0.04292981
113	0xbd2ee6a9	-0.042700443
114	0xbe074198	-0.13208616
115	0x3d700fbb	0.05860875
116	0xbe1aedea	-0.1512982
117	0xbe46902f	-0.19390939
118	0xbde75d21	-0.1129706
119	0xbe3e7f6c	-0.18603295
120	0x3e007293	0.12543707
121	0x3dce4f3f	0.10073709
122	0x3dae97f9	0.0852508
123	0x3d0c7c29	0.034298096
124	0x3cc8c1ca	0.024506468
125	0x3d01b98e	0.0316711
126	0xbd806cfd	-0.06270788
127	0xbd94fa25	-0.07274274
128	0x3e037b81	0.12840082
129	0xbdec1249	-0.11526925
130	0x3e03bdd3	0.12865381
131	0x3e0b3945	0.13596065
132	0xbb9dbcd4	-0.00481377
133	0x3d46f144	0.048569933
134	0x3d322caa	0.043499626
135	0x3dbe5454	0.09293428
136	0xbcaf9aaa	-0.021436054
137	0x3d709188	0.05873254
138	0x3dc01d70	0.09380615
139	0x3ca9a064	0.020706363
140	0x3d2a64cd	0.041600037
141	0x3dad4ed5	0.08462302
142	0x3d424057	0.04742464
143	0xbd14d4c5	-0.036335725
144	0x3d7c6cd7	0.061627235
145	0x3db71d6d	0.089411594
146	0xbcd4dcb2	-0.025984142
147	0x3d8e8a39	0.06959958
148	0xbd3be4e0	-0.04587257
149	0x3d758e30	0.059950054
150	0x3df4f499	0.11960716
151	0xbe10f259	-0.14154948
152	0xbdc03ef2	-0.09387006
153	0x3d01bfd3	0.03167708
154	0xbcc35a0e	-0.023846652
155	0x3c9de99a	0.019276429
156	0x3e692638	0.22768486
157	0x3df9a8c7	0.12190395
158	0x3da38f9f	0.07986378
159	0x3db434b4	0.08799115
160	0xbd4cb019	-0.049972627
161	0x3c93f5e1	0.01806158
162	0xbb89a072	-0.004200035
163	0x3e050281	0.12989236
164	0xbd215889	-0.039391074
165	0x3bd2cd4e	0.0064331656
166	0x3e09830c	0.13428897
167	0xbe16a9aa	-0.14713159
168	0xbdf0c3f4	-0.11756125
169	0xbd2e3c38	-0.042537898
170	0x3b43beaa	0.0029868283
171	0xbd0dc395	-0.03461035
172	0xbdb825bf	-0.089915745
173	0xbdeb38bd	-0.11485431
174	0x3de0b7ee	0.10972582
175	0xbdae7fba	-0.08520456
176	0x3d12d4de	0.035847537
177	0xbc3903c1	-0.011292399
178	0xbd35fbd4	-0.044429615
179	0xbdc77876	-0.09739773
180	0xbdbf716a	-0.09347804
181	0x3cab99f2	0.02094743
182	0xbc6eafc1	-0.01456827
183	0xbd316c32	-0.043316074
184	0xbd469502	-0.04848195
185	0xbc36fcdc	-0.011168685
186	0x3dbe9980	0.093066216
187	0xbd4587e2	-0.04822529
188	0xbcdede9f	-0.027205763
189	0x3de82cff	0.11336707
190	0xbcebff70	-0.028808326
191	0x3e2568bf	0.16153239
192	0xbe48376c	-0.19552392
193	0x3d9e4093	0.0772716
194	0x3c5ae4d6	0.013360223
195	0x3d5db98e	0.054132037
196	0xbe84b7b2	-0.25921398
197	0xbe073fd6	-0.13207945
198	0x3d548d96	0.05189284
199	0x3d9cd41a	0.07657643
200	0xbbbf1eb6	-0.0058325185
201	0xbe165a58	-0.14682901
202	0x3ce057d4	0.02738563
203	0x3d1adbc1	0.03780723
204	0x3d42da97	0.047571745
205	0x3e0a12d7	0.1348375
206	0xbd18b571	-0.03728241
207	0xbdde1cb0	-0.108453155
208	0x3e2d6d22	0.16936162
209	0x3d387fb2	0.045043655
210	0xbe0ad396	-0.13557276
211	0xbc71ce08	-0.014758594
212	0x3d2d1f67	0.042266276
213	0x3b8df599	0.004332256
214	0xbb1acbb2	-0.0023619947
215	0xbb445dd4	-0.0029963152
216	0xbd803d62	-0.06261708
217	0x3e37728c	0.1791479
218	0x3e42917f	0.19000815
219	0x3da57bf6	0.08080284
220	0xbe22e21f	-0.15906571
221	0xbdec0ae0	-0.11525512
222	0x3e088f7e	0.13335988
223	0xbd0f6c27	-0.03501525
224	0xbbaa57ae	-0.0051984405
225	0x3e1a5837	0.15072714
226	0xbda1653f	-0.07880639
227	0xbe2b0284	-0.16700178
228	0xbda26e01	-0.07931138
229	0xbda1cfe0	-0.07900977
230	0x3dd5e995	0.10444943
231	0x3d01513a	0.031571604
232	0x3d8eab7f	0.06966304
233	0x3d2878b2	0.04113073
234	0xbc299cff	-0.010352372
235	0x3ce1a861	0.02754611
236	0x3c7f3662	0.015576931
237	0xbdbf7185	-0.09347824
238	0xbdcb4749	-0.09925706
239	0xbe09e5f7	-0.13466631
240	0x3e3a108e	0.18170378
241	0x3de83e49	0.11340005
242	0xbd442a30	-0.047891796
243	0xbd61e4cf	-0.05514985
244	0xbddb9af8	-0.10722917
245	0xbddf05bc	-0.108897656
246	0x3d7a48ea	0.061104693
247	0xbbcf943b	-0.006334809
248	0xbba2d57d	-0.0049692974
249	0xbdec8a99	-0.11549873
250	0xbe3a135f	-0.18171452
251	0x3cf7bc06	0.030241024
252	0xbde1a2fa	-0.110174134
253	0xbcc4ca0e	-0.024022128
254	0xbcbafa4c	-0.022824429
255	0xbe1d6359	-0.1536993

ablang_branch.4.bias f4 [128]
0	0x3c4c37d0	0.012464479
1	0xbc7b054b	-0.015321086
2	0x3bfdaf29	0.007741828
3	0x3bb11a87	0.0054047736
4	0x3a985580	0.0011622161
5	0x3b70f419	0.0036766587
6	0xbd08a18f	-0.0333572
7	0xbd4e745f	-0.05040395
8	0x3d246c27	0.040142205
9	0xba941e22	-0.0011300484
10	0xbccb0edf	-0.024787365
11	0x3c017378	0.007901065
12	0x3c630dd7	0.01385828
13	0xbc070911	-0.008241908
14	0x3c87da0c	0.016583465
15	0x3d10966d	0.035299707
16	0x3bff2117	0.007785927
17	0x3bf33ca2	0.0074229995
18	0xbb4a9ba9	-0.0030915535
19	0x3bacb691	0.005270787
20	0x3bfffae5	0.0078118914
21	0xbced2afb	-0.028951159
22	0x3bc95fcb	0.0061454526
23	0xbca9858b	-0.020693561
24	0xbd18f413	-0.037342142
25	0xbb24f7cd	-0.0025172115
26	0x3b070d8a	0.0020607435
27	0x3bf3cc58	0.007440131
28	0xbd377873	-0.044792604
29	0xbd65aefa	-0.056075074
30	0xbb6fcc32	-0.0036590216
31	0xbbd405c8	-0.0064704157
32	0xbd69a33c	-0.057040438
33	0xbd0290d2	-0.031876393
34	0x3c6cdbd7	0.014456711
35	0xbc35e8bf	-0.011102854
36	0xbb6a0a3a	-0.0035711662
37	0xbd1f42a2	-0.038881905
38	0x3b40897c	0.0029378822
39	0x3c9378ef	0.018002002
40	0xbcd2764c	-0.025691174
41	0xbd06f56c	-0.032948896
42	0x3c5ae202	0.0133595485
43	0xbbc1fda7	-0.0059201303
44	0x3c951a2a	0.018200953
45	0xbca484a4	-0.02008278
46	0x3c270170	0.010193214
47	0x3d413f59	0.047179554
48	0x3c45ecee	0.012080414
49	0x3c9562ad	0.018235529
50	0x3c39362a	0.011304418
51	0x3cdb40d6	0.026764315
52	0x3c5ebab0	0.013594314
53	0x3ade332e	0.0016952509
54	0xbc7f1b63	-0.015570494
55	0xbcfbd35a	-0.030740429
56	0x3bad9b84	0.00529808
57	0xba85ca70	-0.0010207426
58	0x3d21341a	0.03935633
59	0x3c017266	0.00790081
60	0xbd81f88b	-0.06346234
61	0xbc3174bd	-0.010831055
62	0x3bd63f07	0.006538275
63	0xbb38f7de	-0.0028223912
64	0x3beafc2a	0.0071711736
65	0x3be77903	0.0070639863
66	0xbd36d529	-0.04463688
67	0xbcc1b29c	-0.023644738
68	0xbd86549d	-0.065591075
69	0xbc78680f	-0.015161528
70	0xbd2a7cc7	-0.041622903
71	0x3ba538aa	0.0050421553
72	0x3c4600fe	0.0120851975
73	0x3cbc22aa	0.022965748
74	0x3cce9399	0.025216864
75	0xbc5f75c0	-0.013638914
76	0xbd543c22	-0.05181516
77	0xbc12bc76	-0.008956065
78	0x398496a7	0.00025289247
79	0xbc8cb386	-0.017175447
80	0xbb507070	-0.00318053
81	0xbbd625ac	-0.0065352526
82	0xbadfd22b	-0.0017076185
83	0x3c9ecfff	0.01938629
84	0xbc085457	-0.008320889
85	0xbd08c327	-0.033389237
86	0x3c8f7ce6	0.01751561
87	0xbbbfca6c	-0.005852988
88	0xbd12d002	-0.035842903
89	0x3c849bf0	0.016187638
90	0x3d31f267	0.043444064
91	0xbb4f14b2	-0.0031598029
92	0xbbbd0227	-0.005768079
93	0x3c8b9da8	0.01704295
94	0x3c63ae66	0.01389656
95	0xbc5ad2e1	-0.0133559415
96	0xba108f22	-0.00055144925
97	0xbc1235a1	-0.008923919
98	0x3abef059	0.0014567479
99	0x3c97f8e7	0.018551303
100	0xbd25bda9	-0.040464077
101	0x3c48d17d	0.012256977
102	0x3c291f93	0.010322469
103	0x3c352556	0.011056265
104	0x3ac5ef21	0.0015101173
105	0xbce75d69	-0.028242784
106	0x3c1550f2	0.009113537
107	0x3b836430	0.004009746
108	0xbcd1bdd6	-0.025603216
109	0xba4a4d5e	-0.0007717217
110	0xbcb88d20	-0.022528231
111	0xbd43d36c	-0.04780905
112	0x3cf16206	0.029465687
113	0xbc0c4a21	-0.008562596
114	0xbc9ea9b1	-0.019368025
115	0x3bdd2a74	0.0067494456
116	0xbbac90c1	-0.0052662794
117	0x3c8dd2e2	0.01731247
118	0x3c090b69	0.008364537
119	0x3a250c5d	0.0006296093
120	0xbcd32c6d	-0.02577802
121	0x395bfe47	0.00020980193
122	0xbd0b00c7	-0.03393629
123	0x3cf01141	0.029305102
124	0x3c2d9384	0.0105942525
125	0x3c472eb5	0.012157132
126	0x3cc5cb77	0.024144871
127	0xbae96154	-0.0017805495

ablang_branch.5.weight f4 [128]
0	0x3f7f6a85	0.9977191
1	0x3f7213af	0.94561285
2	0x3f82d357	1.0220746
3	0x3f79b8b3	0.97547454
4	0x3f81e3bd	1.0147625
5	0x3f81044a	1.0079434
6	0x3f7c8f2d	0.9865597
7	0x3f83c6d8	1.0295057
8	0x3f7e5668	0.99350595
9	0x3f7e1e98	0.9926543
10	0x3f75b56f	0.9597997
11	0x3f8083ed	1.004026
12	0x3f7b129e	0.9807528
13	0x3f7cecb1	0.9879866
14	0x3f80ae44	1.0053182
15	0x3f8200c0	1.0156479
16	0x3f81633b	1.0108408
17	0x3f7a03e9	0.97662216
18	0x3f7bf55f	0.9842128
19	0x3f788ce9	0.9709001
20	0x3f72be2b	0.94821423
21	0x3f7c7aa4	0.98624635
22	0x3f7d53d3	0.9895603
23	0x3f817f59	1.0116988
24	0x3f704738	0.9385867
25	0x3f7f142a	0.9964014
26	0x3f7c5a9f	0.98575777
27	0x3f7ff2c9	0.99979836
28	0x3f7ac18e	0.9795159
29	0x3f8145ec	1.0099463
30	0x3f79d3d9	0.9758888
31	0x3f737f10	0.95115757
32	0x3f86ec18	1.05408
33	0x3f7ef8e5	0.9959853
34	0x3f856009	1.0419933
35	0x3f7c4999	0.985498
36	0x3f76771a	0.96275485
37	0x3f7259e6	0.94668424
38	0x3f80b2d0	1.0054569
39	0x3f7c7a91	0.9862452
40	0x3f790eb2	0.9728805
41	0x3f78cbe3	0.97186106
42	0x3f837dc3	1.0272754
43	0x3f7d44de	0.9893321
44	0x3f8107e8	1.0080538
45	0x3f769f54	0.96336865
46	0x3f8412f6	1.0318286
47	0x3f805415	1.002566
48	0x3f8074a6	1.0035598
49	0x3f845c02	1.0340579
50	0x3f7afced	0.98042184
51	0x3f82f645	1.0231405
52	0x3f7b310a	0.981217
53	0x3f767f0a	0.96287596
54	0x3f80e6a4	1.0070386
55	0x3f7fb6a7	0.9988808
56	0x3f7e97c7	0.99450344
57	0x3f7bd347	0.9836926
58	0x3f815389	1.0103618
59	0x3f80f1f2	1.0073836
60	0x3f80d2ee	1.0064371
61	0x3f7ffa68	0.99991465
62	0x3f8223fe	1.0167234
63	0x3f7c90ae	0.98658264
64	0x3f82b953	1.0212806
65	0x3f7e8a26	0.9942955
66	0x3f7473dd	0.95489293
67	0x3f7174f2	0.9431907
68	0x3f75baa9	0.95987946
69	0x3f772e7b	0.965553
70	0x3f7ca3a4	0.98687196
71	0x3f7d77a3	0.99010676
72	0x3f841094	1.0317559
73	0x3f813c76	1.0096576
74	0x3f7edd5c	0.9955652
75	0x3f73e839	0.9527622
76	0x3f7217b3	0.9456741
77	0x3f792017	0.9731459
78	0x3f81530d	1.010347
79	0x3f7e10a6	0.99244153
80	0x3f7cea84	0.9879534
81	0x3f7918bc	0.97303367
82	0x3f7b719c	0.9822023
83	0x3f77b9ab	0.9676768
84	0x3f7fad79	0.99874073
85	0x3f760654	0.96103406
86	0x3f809105	1.0044256
87	0x3f79dfb0	0.97606945
88	0x3f771bc4	0.9652674
89	0x3f841bc8	1.0320978
90	0x3f808124	1.003941
91	0x3f75b0df	0.9597301
92	0x3f7d0405	0.9883426
93	0x3f84287f	1.0324858
94	0x3f763bc8	0.9618497
95	0x3f7e793a	0.9940373
96	0x3f7b7a81	0.982338
97	0x3f76ba0d	0.9637764
98	0x3f7f840f	0.9981088
99	0x3f80d02a	1.0063527
100	0x3f81bfaf	1.0136622
101	0x3f7d0186	0.9883045
102	0x3f801515	1.0006434
103	0x3f7cd4fb	0.9876248
104	0x3f813fbe	1.0097578
105	0x3f7e59fd	0.9935606
106	0x3f75818d	0.95900804
107	0x3f7d0f6c	0.98851657
108	0x3f6e50c3	0.9309198
109	0x3f7ef9df	0.99600023
110	0x3f772000	0.96533203
111	0x3f804f7c	1.0024257
112	0x3f839950	1.0281162
113	0x3f79eb22	0.9762441
114	0x3f7a7def	0.9784841
115	0x3f80b079	1.0053855
116	0x3f7d3747	0.9891247
117	0x3f7e5b1d	0.9935778
118	0x3f8006c6	1.0002067
119	0x3f820f9b	1.0161012
120	0x3f77f0be	0.9685172
121	0x3f81109f	1.0083197
122	0x3f76a43c	0.9634435
123	0x3f82d3c4	1.0220876
124	0x3f7d2d81	0.9889756
125	0x3f832238	1.0244818
126	0x3f8317a5	1.0241591
127	0x3f810697	1.0080136

ablang_branch.5.bias f4 [128]
0	0x3c8bb854	0.017055668
1	0xbc900da6	-0.017584633
2	0xbb455415	-0.0030109931
3	0x3c3d7112	0.011562603
4	0xbc133131	-0.008983896
5	0x3b1f676e	0.0024323124
6	0xbd1920fc	-0.037384972
7	0xbce82634	-0.02833853
8	0x3d1af84a	0.037834443
9	0x39833144	0.00025022973
10	0xbcc2a9a9	-0.02376254
11	0xbb99a2cb	-0.004688596
12	0x3c539513	0.01291396
13	0xbc837fe5	-0.016052196
14	0x3bf5c36f	0.007500104
15	0x3ce24a1b	0.027623227
16	0x3c8163f8	0.01579474
17	0x3bb00c50	0.0053725615
18	0xbc0e714f	-0.008694007
19	0xbb9a02bd	-0.0047000335
20	0x3c6b1760	0.014348835
21	0xbca588f7	-0.020206911
22	0x3a136a93	0.0005623486
23	0xbcc8035d	-0.024415666
24	0xbd217848	-0.03942135
25	0xbb200b40	-0.0024420768
26	0x3bd0619b	0.0063592917
27	0x3be1312b	0.0068723164
28	0xbd3b1c97	-0.045681562
29	0xbd44f1cf	-0.04808217
30	0xbb7d4c9c	-0.00386504
31	0xbb77f99f	-0.0037837995
32	0xbd51a4e2	-0.051182635
33	0xbcd9a558	-0.0265681
34	0x3c10aaba	0.008829767
35	0xbc8688fd	-0.016422743
36	0xb9c1ffee	-0.0003700251
37	0xbd1b0ff3	-0.037857007
38	0xbc108a72	-0.00882207
39	0x3bd5b7e3	0.006522165
40	0xbd0007d2	-0.031257458
41	0xbcd3eff6	-0.025871258
42	0x3b71a325	0.0036870923
43	0xbc8a935e	-0.016915973
44	0x3c12cd9b	0.008960153
45	0xbce06bd6	-0.02739517
46	0x3c9aa014	0.01887516
47	0x3d26f184	0.04075767
48	0x3c4ecbda	0.012621844
49	0x3ca3f148	0.020012513
50	0x3c7305e3	0.0148329465
51	0x3d0024bb	0.03128503
52	0x3c9a2b2a	0.01881941
53	0x3c1b3b3b	0.009474571
54	0xbc99081c	-0.018680625
55	0xbd08f70a	-0.03343872
56	0x3c8c1662	0.017100517
57	0xbc145bd2	-0.009055095
58	0x3d18448a	0.03717474
59	0x3c6ac7c0	0.014329851
60	0xbd7007a3	-0.058601033
61	0xbcabbe2f	-0.02096471
62	0x3c3b35ef	0.011426433
63	0x39e429ef	0.00043518792
64	0xbbcca5aa	-0.0062453346
65	0x3c7d5c57	0.01546391
66	0xbd314ac4	-0.043284193
67	0xbca5d9a2	-0.020245377
68	0xbd846bd3	-0.06465878
69	0xbcca01e7	-0.02465911
70	0xbce42580	-0.027849913
71	0x3bef7c3f	0.0073085125
72	0x3cc75c85	0.024336109
73	0x3cb2fc86	0.021848928
74	0x3cd77d8b	0.02630498
75	0xbc0f4a17	-0.008745692
76	0xbd4ce79f	-0.05002558
77	0xbcb1f2c8	-0.021722212
78	0xbc35ce79	-0.01109659
79	0xbc8defd4	-0.017326273
80	0xba3f7291	-0.00073031435
81	0xbbf6567c	-0.007517634
82	0xbbbfa9f8	-0.0058491193
83	0x3c66b28e	0.014080657
84	0xbc5a0d9b	-0.013308908
85	0xbcd36c7d	-0.025808567
86	0x3cb8a87e	0.02254128
87	0xbbca4964	-0.0061732996
88	0xbd2eb17b	-0.042649727
89	0x3cd3be88	0.025847688
90	0x3cdebd5c	0.027189903
91	0xbc154942	-0.009111704
92	0xbbf6b90e	-0.0075293845
93	0x3c91cd7f	0.017798183
94	0x3c7b481f	0.015337019
95	0xbc9765ec	-0.018481217
96	0x3a9ce639	0.0011970467
97	0xbbf6c115	-0.0075303414
98	0xbac5d58b	-0.0015093548
99	0x3cb0fafd	0.021604056
100	0xbd1a6571	-0.0376944
101	0x3bb6e15f	0.0055810655
102	0x3ad71a20	0.0016410984
103	0x3c216c64	0.0098525025
104	0x3c2b12c9	0.01044149
105	0xbd01cc01	-0.031688694
106	0x3c6ac03c	0.014328059
107	0xbb6b2bf0	-0.0035884343
108	0xbcb5788e	-0.022152212
109	0x3b98ef6a	0.0046672123
110	0xbcf91965	-0.030407617
111	0xbd547263	-0.0518669
112	0x3d00ff28	0.031493336
113	0xbc932eed	-0.017966712
114	0xbcacbbcc	-0.021085642
115	0x3c29bd5c	0.010360088
116	0xbae0fd62	-0.0017165358
117	0x3be155a0	0.0068766624
118	0x3c7405c3	0.014893952
119	0x3bdc9ba0	0.006732419
120	0xbcbe78e8	-0.023251012
121	0xbc3e4218	-0.011612438
122	0xbcf107c6	-0.029422652
123	0x3c2d87eb	0.010591487
124	0x3ac14d79	0.001474782
125	0xbb85816f	-0.0040742676
126	0x3cdee03d	0.027206535
127	0xbb96fa40	-0.004607469
