data/model_weights/cv_fold_2_model5_1.pt (torch, 685157 bytes, 23 tensors)

ablang_branch.0.weight f4 [256, 480]
00000000: a767 c5bd 5a44 5d39 f9b8 433d db8c a03c
00000010: c93d 953d 558c ccbd 99ee c13d 0ee6 ac3b
00000020: 94c6 46bd bdce 933c a235 3a3d 90ad 2ebd
00000030: 4fcc 9ebc 9570 ffbc 2253 2cbd 9981 17bc
00000040: 0030 fe3d 7870 f93b 5bcc 56bd 81b0 cbbd
00000050: e4ff a23d 449f 243d d73f fdbc 3692 483d
00000060: d089 223e bd65 13bd 00e1 8bbd 4972 74bd
00000070: 70fb 94bd 63ed 06be e96b 15bd 9040 95bd
00000080: c94e b73d 34af bf3c d64e 95bd 9d06 fdbb
00000090: b3de ae3c 092a f13c f22a 4e3d 3214 333d
000000a0: 2b5d 873d e8d1 c7bb cdd0 a53c 3337 f53c
000000b0: 6c2b ef3d 2643 dc3d 1200 893c f7d0 cb3c
000000c0: 86f7 fbbc df2d 403d e0de fd3c dce1 59bd
000000d0: a242 3d3e be9f 693d 3f94 e9bc 89e4 913d
000000e0: 948f 953c 2394 21bd 56f4 dabc fec6 c4bd
000000f0: e47a e13c 1ea5 ef3d 151e a8bd 8c60 123d
00000100: be07 323d b1c8 c53d e3c7 6bbc ad42 ccbd
00000110: 7fcd 713d 4b86 3ebd ece4 66bd 5060 a6bb
00000120: cd3d a13d 5368 e4bb f036 e9bc f52d fdbc
00000130: 8312 c93c 094a 853d 59c7 753c f222 2fbc
00000140: 174e 963d 08a1 833c 1416 dfbb 20f9 563d
00000150: 4a82 f83c f99b 583d b5ab 153d 2ba9 bd3d
00000160: 856e 69bd e7ea 2fbe c9cd 5dbc f064 dbbd
00000170: 132e a73c 40dc 2bbd cf67 933d 0235 e03d
00000180: 04de 0d3e c7f5 cdbd f0ae 393d 4a0a 973d
00000190: b2ab 993c 166b 0dbd 6a9d c63c 96ca 023d
000001a0: 2742 45bd 28fc 8a3c 1b85 3abd cb19 043e
000001b0: 8a35 753d fc90 303d 3d55 71bd 6432 52bd
000001c0: a303 6a3d 80cb 7fbd d20a 80bd 0d35 80bc
000001d0: 0620 d63c bc6b 53be 3b5a babd a06a 29bd
000001e0: 9351 04bd 2eb3 5c3c 7f0c 09bb de3a 4cbd
000001f0: 4ecf a1bb a79a 303d 23a0 4fbb f65f c6bc
00000200: 0734 82bd b1a1 34bd 8f51 983b 63bc 223d
00000210: 06ce 6d3d fd90 b23d e536 d3bd cd83 2f3b
00000220: e12f 313e f41b b53d e72f 28bc 1139 e3bc
00000230: b651 85bb 2eb6 083e 4a83 7ebd 7ee1 6abd
00000240: 4f5e beba 3452 593c afeb 31bc 2dad f8bc
00000250: c6cc 993c 9288 ad3c 3e01 25be de72 8bbd
00000260: 7a08 48bd ba7b 5fbd 75fd 9e3c 7f86 cebd
00000270: 76e9 333d 23aa b8bd d135 a83d c1fb 91bd
00000280: 26a9 3c3d 3e39 cabd d8e4 fcbc 012f 52bc
00000290: efaa 7f3d 28d0 f5bc 4fb2 e83d d299 03be
000002a0: 28a8 353d 6876 d8bd a41b c0bd a179 d2bb
000002b0: c428 533d 196e 2dbd 2578 baba f089 313e
000002c0: 6878 673d 2d3e 233d 744a 943d 6565 c7bd
000002d0: c59c 0dbc 873b a93d 3dd6 f1bc 10b0 803d
000002e0: f556 63ba 37ff c1bd 5eba 19bd 3e4d 9d3b
000002f0: c9f0 5cbd 2e36 123e d50e c73c f736 043e
00000300: dbdb 913d 078a d03c 8ee5 353d 4593 ff3d
00000310: 548f fd3b f89f 43bd 2d0d bebd 9e4c b3bd
00000320: b525 b13d 946b 993d f4b4 d8bc 49eb 013e
00000330: 27bc 583d 5ba3 d33c 5f07 dcbc f0cc e8bb
00000340: 99ce 8d3d 894a d33c c675 5c3a e9fe b93d
00000350: 2bb6 86bd e33d 843c 486b 4f3b 061e d93b
00000360: 42a9 00bc 66d9 e83c 2504 903c aed0 c1bd
00000370: 9de1 43bc a292 cdbc 5f4a 09be 26ca d73d
00000380: 2128 bcbd af8a 74bb 6cc3 44bd 59a3 423d
00000390: 4933 3a3d 6a82 733c efda 64bd 9fc1 793d
000003a0: 3d13 a83c d374 33bc d2ec 8cbc c6f3 95bd
000003b0: 8167 513c 1926 c73c fd2c d0bd f74f b7bc
000003c0: e9e7 d73d 6af1 c9bd 0711 883c ec03 41bd
000003d0: c229 91bd df42 fe3d 07d0 bcbd 1418 afbc
000003e0: 48ef 843d 9ffa 17bd 7538 5ebd 7be4 b2bb
000003f0: 688a 3c3d 0bd1 a13d c1fa 11bd ca31 b63d
-0.09638911 0.00021101665 0.047783826 0.019598415 0.07287175 -0.09987704 0.09469337 0.005276448
-0.048529223 0.018042916 0.045461304 -0.04264599 -0.019384531 -0.031181613 -0.04207147 -0.009247207
0.12411499 0.0076122843 -0.052440982 -0.09945775 0.079589635 0.04019095 -0.03091423 0.048967563
0.15872884 -0.035985697 -0.06830025 -0.059679303 -0.072745204 -0.13176493 -0.036479864 -0.07287705
0.08950574 0.023398973 -0.072904274 -0.0077217356 0.021346426 0.02943899 0.050333925 0.04372043
0.06609567 -0.006098021 0.020241166 0.029933548 0.11678204 0.10754995 0.016723666 0.024879916
-0.030757677 0.046918746 0.030990064 -0.053193912 0.1848245 0.057037108 -0.028513072 0.07123668
0.01825694 -0.039447915 -0.026727837 -0.09608267 0.02752442 0.117014155 -0.08208863 0.035736606
0.043464415 0.096574195 -0.014390918 -0.09973655 0.059033867 -0.04651479 -0.05637066 -0.0050773993
0.07873116 -0.006970444 -0.028468579 -0.030905703 0.02454496 0.06508262 0.0150011415 -0.010689484
0.07339113 0.016067997 -0.006808052 0.052483678 0.030335564 0.052883122 0.036540706 0.09260782
-0.056990165 -0.17179452 -0.013537833 -0.10712612 0.020407712 -0.041958094 0.07197534 0.109476104
0.13854223 -0.10056644 0.04533285 0.07375009 0.018758629 -0.034525953 0.024244983 0.031931482
-0.04815879 0.01696594 -0.045537096 0.12900464 0.059865512 0.043107018 -0.05891918 -0.051317587
0.057132374 -0.062449932 -0.06252064 -0.015650297 0.026138317 -0.20646566 -0.09099241 -0.04136145
-0.032304358 0.013470454 -0.002091199 -0.049860828 -0.0049380427 0.043116238 -0.0031681142 -0.02421568
-0.0635758 -0.044099513 0.0046483944 0.03973044 0.058057807 0.087190606 -0.10313205 0.002678144
0.1730342 0.08843222 -0.010265327 -0.027737172 -0.0040685786 0.13350746 -0.062136926 -0.057343952
-0.0014523956 0.013264228 -0.010859414 -0.030356014 0.018774401 0.021183286 -0.16113755 -0.068090186
-0.04883621 -0.054561354 0.019407967 -0.10084247 0.043923818 -0.09016826 0.0821339 -0.07128096
0.04605975 -0.09874199 -0.03087084 -0.012828589 0.062418874 -0.030006483 0.11362135 -0.12851647
0.04434982 -0.10569459 -0.09380272 -0.0064231907 0.05155255 -0.042341325 -0.001422648 0.17337775
0.056511313 0.039854217 0.07240763 -0.09736136 -0.008643334 0.08263307 -0.029521102 0.06283581
-0.00086723204 -0.094725065 -0.03753125 0.0048004678 -0.053940568 0.1427848 0.024299065 0.12911592
0.07122012 0.025456442 0.044408374 0.12479261 0.0077380333 -0.04775998 -0.09279857 -0.08754848
0.0864977 0.07491222 -0.026453473 0.1268741 0.05291381 0.02583473 -0.026858984 -0.0071045086
0.06924171 0.025792377 0.00084098836 0.090818234 -0.065777145 0.016142791 0.0031649638 0.0066258935
-0.007852854 0.028423976 0.017580101 -0.094636306 -0.011955646 -0.025094334 -0.13407277 0.10536604
-0.091873415 -0.0037314107 -0.04803793 0.04751906 0.045459066 0.014862636 -0.055872854 0.060975667
0.020516986 -0.010953146 -0.017202768 -0.07321887 0.012781025 0.024310159 -0.10164831 -0.022376997
0.1054228 -0.09860499 0.016609682 -0.04712288 -0.07088043 0.124150984 -0.092193656 -0.021373786
0.06490952 -0.037104245 -0.05425306 -0.005459366 0.046030432 0.079012 -0.03563953 0.08896215

ablang_branch.0.bias f4 [256]
00000000: 9788 7839 074d c23b 71ea c43b d055 613b
00000010: 04ea 353c d876 6f3b e219 083b 1dba f63b
00000020: 3c46 833b 425e 04bb 278e 6c3b 3438 06bb
00000030: 6598 8e3b 718d c73b d105 a43b b63d fe3b
00000040: e649 343c 451c e63b f9ee 0b3c c693 623b
00000050: 82d5 193c 77ef 003c 54ab fe3a c69d 6a3b
00000060: 743d 963b ab10 e03b 7838 953b e8f4 c03b
00000070: 69a7 253b a2f7 713b 1f10 40bb 202e d23b
00000080: e17f 203b 0d4d 8b3b 8a82 153c fe37 453a
00000090: 9872 eb39 1ac9 203c e6c8 0f39 b73c 523a
000000a0: dbb0 35bb ae40 183c 6b74 0f3c c0f2 fd3b
000000b0: 365d 443b f024 ec39 e281 4b3b f1c4 043a
000000c0: b927 283c d41c 9dba 5000 4b3c 8380 3f3b
000000d0: b282 b7ba 89bd c53b 6479 273c 96bb e73b
000000e0: b0b3 043c e9a4 143c 48df 883b c812 9aba
000000f0: 1ae6 0b3c 32b8 8e3b d992 883b fd21 d9ba
00000100: 026c b13b 1633 aa3b 6ea3 6639 79f0 8fba
00000110: d5e9 303c 17ab ea3b ab72 bf3b 6087 a73b
00000120: edd5 383c b086 813a 16bd 063b d93e 6b3b
00000130: bf9b a43b 25f0 c03b 0a8a 2b3a 2138 e73b
00000140: 4ca1 0c3c bbfc 7c3b 1504 363c c92b f03a
00000150: de31 71bb cc13 6d3c 3a48 1ebb b47a 3c39
00000160: da8f be3b 4f71 4c3c b273 ad3b f6e5 223c
00000170: 1667 803c c14a ff3b 9f6f 2ebb 1ae5 143c
00000180: c141 ec3b 2864 ae3b d1da 373c e2c4 8e3b
00000190: 3720 083c f68a 363c fcd9 513b 37fe d93a
000001a0: 0517 10bb 47ef 79ba a9ca 553b 5bb0 013b
000001b0: 045c 1d3b 0b3f 08bb 5a42 d93b 6039 2a3c
000001c0: ff18 4a3c e057 8f3b f6dd ff3b aa38 213b
000001d0: 96e1 183b e209 c7ba 5aec 2dbb 2688 9c39
000001e0: 836d 383b df91 543c 586d d63b 341d d33a
000001f0: 0a9e 713a bd91 0d3b 57f2 aa3b 3f57 313c
00000200: 63dc 0e3c b6aa 053c 1062 d8b9 e086 1cb8
00000210: 71d0 983b eac1 1dbb fe39 a138 5056 bc3b
00000220: 771b daba 3cfd a93a 5dc8 2e3b d55e 133c
00000230: 0d2d b93b 766c 893b c622 753b 16b9 ac3a
00000240: d633 d03b 9c82 443c 972a 503c 8689 443c
00000250: 81f1 063a 3060 503c abca d83b 6110 2d37
00000260: 0021 0f3b 8345 0a3c a6c3 243b af2b 5fb9
00000270: f535 153b 0226 d73b c885 2f3c 891f 093c
00000280: 620e e03b 4c1c 4ebb 99cb 45bb a2aa 6f3b
00000290: c1e7 2d3c 3826 f63b d806 e2bb a6e2 d33b
000002a0: 32fd 883a ca16 1aba 8e44 7a3a 9be5 c03b
000002b0: 0273 233c d097 163a 27a6 ee3b f0b9 93bb
000002c0: 95a6 9dba 2e2a b93a 7849 073c d5b0 3e3b
000002d0: 3b97 5c3c 488f ad3b 1481 bcb8 fefa bf3b
000002e0: eddf 033c 98bf 96bb 8233 1f3c 7c3d 8d3c
000002f0: 03b8 873a 68a4 173c ebfa ae3b 7284 933b
00000300: 10f0 113c e65d 333a f0ec e23a 10ee ff3b
00000310: 890b 1f3c 74f0 363c 93a5 2839 d9df 003c
00000320: be2f 8e3b cb19 c93b eae0 d13a b006 033c
00000330: 1062 82ba 6782 153b 8dc0 9f3b 9dab 463c
00000340: 33d7 10b9 200f 2e37 89b9 0a3c 76ba 533b
00000350: 3397 19bb e2ec e9ba 96d0 183b f080 1b3c
00000360: 7742 353b 8f1e a63b ba7f 023b 9527 2d3c
00000370: 9745 643b 1518 713c ed20 a73b 6557 0b3c
00000380: 9316 293c c8e5 943b 1248 533c dc6f 913b
00000390: 7381 d03b 1746 22bc 1c8f 0f3b 25e3 883b
000003a0: a12e 523a 1083 493b 9163 6b3c 6b36 a03a
000003b0: 3c07 cbba 74df 473a 9681 3f3b 51aa 343c
000003c0: 699e 923b ae00 b03b a8ba ca3a 986a b23b
000003d0: 4bfa 533b f807 c33b 7f59 d83a 1c6d 973b
000003e0: 7546 f6bb 5e7e bfba 1f4c d6ba 587b 423c
000003f0: b6e0 4138 c2bb de39 1eb7 523b f90d 84bb
0.00023702007 0.0059295925 0.006009393 0.0034383424 0.011103157 0.0036539342 0.002076738 0.0075295107
0.0040061753 -0.0020197784 0.0036095472 -0.0020480277 0.004351663 0.006089859 0.005005576 0.0077588214
0.011003947 0.007022413 0.008540862 0.0034572943 0.009389283 0.007869593 0.0019429722 0.0035799607
0.0045849625 0.0068379245 0.0045538507 0.00588857 0.0025276786 0.0036921282 -0.0029306484 0.00641419
0.0024490284 0.0042511285 0.009125361 0.0007523297 0.00044908072 0.009813571 0.00013712383 0.00080199115
-0.0027723822 0.009292765 0.008755784 0.0077498853 0.0029962785 0.00045040948 0.0031052758 0.0005064747
0.010263377 -0.0011986741 0.012390211 0.0029220886 -0.0014000742 0.0060345572 0.010221813 0.0070719225
0.008099481 0.009072521 0.004177008 -0.0011754865 0.008538747 0.004355454 0.004167896 -0.0016565915
0.005414487 0.005194078 0.00021995392 -0.0010981701 0.010797937 0.007161509 0.005842527 0.0051125735
0.011281473 0.0009882059 0.0020559481 0.0035895614 0.005023449 0.0058880025 0.0006543702 0.0070562516
0.008583378 0.0038602788 0.011109372 0.0018323596 -0.0036803405 0.014470052 -0.0024151937 0.00017974788
0.0058154883 0.012478187 0.005293333 0.009942522 0.015674155 0.007790894 -0.0026616824 0.009087825
0.007209987 0.005321998 0.0112216035 0.0043569664 0.008308462 0.011141529 0.0032020798 0.0016631548
-0.0021986377 -0.00095342513 0.0032622016 0.0019788954 0.0024011144 -0.002078953 0.006630224 0.010389656
0.012335061 0.004374489 0.007808442 0.0024600425 0.002332782 -0.001518544 -0.0026538582 0.00029856077
0.0028141446 0.0129742315 0.0065437965 0.0016106726 0.000921697 0.002160176 0.0052168774 0.010824024
0.0087195365 0.008158376 -0.00041271793 -3.731891e-05 0.00466352 -0.002407188 7.68788e-05 0.005747594
-0.0016640265 0.0012969146 0.0026669719 0.008994778 0.0056511224 0.0041938378 0.003740476 0.0013177719
0.0063538356 0.01199403 0.012705467 0.011995679 0.0005147681 0.012718245 0.006615957 1.0315417e-05
0.0021839738 0.008439424 0.002514103 -0.0002128321 0.0022767757 0.00656581 0.010713048 0.008369335
0.006837652 -0.0031449972 -0.0030181168 0.003657021 0.0106143365 0.0075118802 -0.0068977885 0.0064662276
0.0010451435 -0.00058780296 0.00095469586 0.005886746 0.0099761505 0.0005744668 0.0072829905 -0.0045082495
-0.0012027795 0.001412695 0.008257262 0.00290971 0.0134637905 0.0052966215 -8.988581e-05 0.005858778
0.008048994 -0.0046004765 0.00971687 0.017241232 0.0010354522 0.009255506 0.0053399703 0.0045018727
0.008907333 0.00068423 0.0017313045 0.0078103617 0.00970734 0.011165727 0.0001608341 0.007865869
0.0043391874 0.006137108 0.0016012464 0.0079972 -0.0009947438 0.0022813322 0.0048752488 0.012125877
-0.00013813078 1.037473e-05 0.008467087 0.0032307184 -0.002343607 -0.0017847086 0.0023317686 0.00949119
0.0027658024 0.005069561 0.0019912557 0.010568519 0.0034831518 0.014715214 0.0051003606 0.008504723
0.0103203235 0.0045439936 0.012895601 0.0044383835 0.006363088 -0.009904406 0.0021905368 0.0041774684
0.00080178125 0.0030748285 0.014367 0.0012223249 -0.0015489827 0.00076245447 0.0029221526 0.011026935
0.0044744504 0.005371175 0.0015467005 0.005444836 0.003234523 0.0059518777 0.0016506164 0.004621161
-0.0075157234 -0.0014609804 -0.001634959 0.011870228 4.6224064e-05 0.0004248303 0.0032152603 -0.004029986

ablang_branch.1.weight f4 [256]
00000000: a77f 7e3f a904 793f efca 7d3f cd34 853f
00000010: b6a8 783f 2d78 843f 0d44 833f 7a5b 813f
00000020: d5ca 773f 31a9 7e3f 237c 7d3f 1807 7a3f
00000030: 8534 7e3f c720 773f 7282 823f 5daa 823f
00000040: dfa6 7a3f d936 813f 16f8 813f 656f 833f
00000050: 51c8 7b3f b6d1 803f 7603 813f 9055 803f
00000060: a28d 853f 9f63 803f 92c6 7c3f a7a8 7a3f
00000070: 9d3c 873f aeb5 813f 8369 803f 01a9 843f
00000080: 38b3 823f cc8a 7b3f 854d 753f 4204 7d3f
00000090: e7e7 793f 04f5 803f b3f5 7d3f fa67 7c3f
000000a0: d651 853f d6a8 7b3f dfd4 823f cc3b 803f
000000b0: 06b6 803f 5cc0 7d3f 264c 793f 2818 763f
000000c0: 6b75 7f3f ad0a 753f 0fa0 7b3f 404e 7a3f
000000d0: 2f75 813f 3737 7a3f 3b0a 813f 2b27 893f
000000e0: 94e2 803f a504 823f 76e1 823f 93c8 7f3f
000000f0: 82a2 803f a410 813f 1e50 853f 6448 7f3f
00000100: c9bc 803f 4dad 823f 8a4c 7e3f 64cc 7a3f
00000110: 872b 7b3f e4f8 823f fd8b 803f 3fb1 803f
00000120: b965 833f b1c4 813f 66d6 823f 2c46 7e3f
00000130: a38f 803f 12a5 7e3f 8190 813f 4214 7c3f
00000140: b293 803f 0001 803f a8f3 7c3f 5a06 7e3f
00000150: 7940 763f a672 7a3f 4f73 7e3f a71f 803f
00000160: 7423 813f b4a3 783f b65d 7f3f 2786 7c3f
00000170: 3263 7d3f 90ce 7f3f 1ca2 7e3f b052 823f
00000180: d588 843f 9563 713f c5a6 813f 3e5a 833f
00000190: f3b6 863f e2da 7e3f 80b9 793f b7d5 813f
000001a0: 6a0c 823f 3cf7 7f3f 4ee1 813f c139 7f3f
000001b0: 5ec8 7c3f 3b9c 853f e6be 7f3f 4c35 853f
000001c0: aec5 833f b75f 823f e4a3 793f 067c 7c3f
000001d0: aca3 7d3f 5bd9 773f f934 823f 8dd0 803f
000001e0: 8034 813f 6fa7 883f f1d7 7d3f 2b02 843f
000001f0: fe6c 7e3f 30b9 823f 5413 823f 3092 813f
00000200: 2f82 823f 7e6e 863f 1fd6 803f 2c71 803f
00000210: 5428 7c3f fd03 823f 8827 853f 4cd0 803f
00000220: 3487 823f fb53 833f ea17 8c3f 7ef6 813f
00000230: 4586 813f a238 7c3f c36c 823f 2525 813f
00000240: 9084 7a3f d9a2 7d3f 95b8 833f 46fb 803f
00000250: 74dc 813f 552c 803f 6451 803f eaaf 7b3f
00000260: 9f4c 823f 01e5 7d3f 504c 843f 0143 833f
00000270: d290 7f3f df7c 823f 531d 793f 0089 7f3f
00000280: 557f 7f3f 6a2e 803f b8bb 773f bb1c 813f
00000290: 17d5 813f 10af 843f 0b5c 7f3f 944f 7b3f
000002a0: c376 7d3f 7bf8 7e3f 6fff 7d3f 5456 823f
000002b0: 8055 7e3f 4638 7c3f 81da 803f 670a 763f
000002c0: b2db 843f 622b 803f eb10 7d3f 560a 823f
000002d0: 451b 7d3f 04fd 723f 3d48 7d3f b952 7d3f
000002e0: 785a 813f 9c7f 833f 7cf0 803f 6643 803f
000002f0: 3135 833f 49ec 813f 5e7c 793f 9c64 803f
00000300: 4f44 813f 7d91 8a3f 9f3c 783f 01f0 823f
00000310: a4f7 7f3f d347 793f dc0c 7f3f 26f2 7f3f
00000320: 2d3b 7f3f 020e 7d3f 3d23 853f 34c5 773f
00000330: d0a3 7c3f 45c8 813f b195 813f aff7 803f
00000340: 92d9 783f 8f66 803f 0510 7e3f 0b91 7e3f
00000350: a023 813f 7c0c 7b3f f12b 793f 17a3 7c3f
00000360: 1245 7c3f c2ba 7e3f 8bfc 7d3f 4b0b 803f
00000370: c81d 7b3f cce6 7d3f 1a4f 7a3f d1a6 7c3f
00000380: b0f2 7a3f d241 7a3f 03c3 793f 883c 7c3f
00000390: b1c1 833f 8fcc 793f e92a 7b3f 2de2 863f
000003a0: a7d7 753f f88c 7d3f 51fe 823f ea79 753f
000003b0: 1424 7e3f 17fd 793f dd2a 723f 07e9 803f
000003c0: 9b3a 833f 9544 803f 230d 7f3f 0631 7a3f
000003d0: e0e3 7a3f 9b16 743f 84e4 7a3f f1fd 853f
000003e0: bc74 803f 4f49 803f 9adc 7a3f f36e 7e3f
000003f0: 70b1 873f 5d05 7e3f b1c5 7f3f 5886 803f
0.9941353 0.97272736 0.9913778 1.0406739 0.9713243 1.0349175 1.0255142 1.0106041
0.9679387 0.99476916 0.9901754 0.97667074 0.9929889 0.9653439 1.0196059 1.0208241
0.97910875 1.0094863 1.0153835 1.026837 0.98352534 1.0063999 1.0079181 1.0026112
1.0433848 1.0030402 0.98740494 0.97913593 1.0565373 1.0133569 1.00322 1.0364076
1.0210943 0.9825866 0.9582141 0.9883462 0.9761948 1.0074773 0.9920303 0.98596156
1.0415599 0.983045 1.0221213 1.0018249 1.0055549 0.9912164 0.9738182 0.9613061
0.9978854 0.95719415 0.98291105 0.9777565 1.0113887 0.977405 1.0081247 1.0715078
1.0069146 1.0157667 1.0225055 0.99915427 1.0049593 1.0083203 1.0415075 0.99719834
1.0057613 1.0209137 0.9933554 0.97968125 0.9811329 1.0232205 1.0042721 1.0054091
1.0265418 1.013815 1.0221679 0.99325824 1.0043834 0.9947063 1.0122224 0.9846841
1.0045073 1.0000305 0.9880929 0.9922844 0.9619213 0.9783119 0.99394697 1.000966
1.0088944 0.9712479 0.99752367 0.986422 0.98979485 0.99924564 0.9946611 1.0181484
1.0354258 0.94292575 1.0129019 1.0261915 1.0524582 0.9955274 0.97548676 1.0143346
1.0160038 0.99986625 1.0146883 0.996975 0.98743236 1.0438303 0.9990066 1.040689
1.0294702 1.018546 0.975157 0.98626745 0.9907787 0.96816033 1.0172416 1.0063645
1.0094147 1.0676097 0.99157625 1.0313162 0.9938506 1.0212765 1.0162148 1.0122738
1.0195979 1.050247 1.0065345 1.0034537 0.98499036 1.0157467 1.0402689 1.0063567
1.0197511 1.0260004 1.0944798 1.0153348 1.0119101 0.98523915 1.0189441 1.0089461
0.97858524 0.9907661 1.0290705 1.0076683 1.0145402 1.0013529 1.0024838 0.983153
1.0179633 0.9917756 1.0335789 1.0254823 0.99830353 1.0194358 0.9731037 0.9981842
0.9980367 1.0014164 0.9677081 1.0086893 1.0143155 1.0365925 0.9974982 0.981683
0.9900934 0.995979 0.99217886 1.0182595 0.9934921 0.98523366 1.0066682 0.9610962
1.0379546 1.0013239 0.9885394 1.0159404 0.98869735 0.9491732 0.9893835 0.9895435
1.0105734 1.0273318 1.007339 1.0020568 1.0250608 1.0150234 0.97455394 1.0030704
1.0098971 1.082565 0.969675 1.0229493 0.99987245 0.9737522 0.99628997 0.99978864
0.9969967 0.988495 1.0401379 0.96785283 0.9868746 1.0139242 1.0123807 1.0075587
0.97206986 1.0031298 0.99243194 0.9944007 1.0088997 0.98065925 0.97332674 0.98686355
0.9854289 0.9950372 0.99213475 1.0003446 0.9809232 0.99180293 0.9777695 0.9869204
0.9802656 0.97756684 0.9756319 0.98529863 1.0293485 0.97577757 0.9811235 1.0537773
0.96032184 0.99043226 1.0233861 0.9588915 0.992738 0.9765181 0.94596654 1.0071114
1.025226 1.002093 0.9962942 0.97731054 0.9800396 0.95346993 0.9800494 1.0468122
1.0035625 1.0022372 0.9799286 0.99388045 1.0601025 0.99226934 0.9991103 1.0040998

ablang_branch.1.bias f4 [256]
00000000: b4a9 32bc fbf2 a5bc 6130 91bb 9fd9 01bc
00000010: 6f36 7cbc e037 bdbb 7f4c d3bb 6a6e 43bb
00000020: 8e6a 18bd 910f 31bc e994 d5bb c37e d2bc
00000030: 3bb2 7fbc cd54 9ebc 0ae1 55bd daf1 b63b
00000040: 3c25 f7bc 11df 56bb 690c 12bc a9db aabb
00000050: 08e3 71bc d0c5 8cbb e7bc d9bb c757 03bc
00000060: 2c64 a0bc 8b18 1cbd af69 febc 6ae5 40bc
00000070: 7a8f 8fbc 6872 c13a 0162 3abc d5f6 373a
00000080: b1aa 0dbb 0f8a 11bc f68d 61bc 68f5 c5bc
00000090: 5457 66bc 3e83 08bb 5942 04bc fef8 a6bb
000000a0: bc5b 85ba 8344 84bb fe5c a1bc cb94 5dbb
000000b0: b31e adbb e355 72bd 4220 45bc dc0f 1abd
000000c0: a1bd 17bd f021 36bd a97a ecbb 2c10 c5bc
000000d0: f554 51bc 55eb 93bc 0d40 16bc fe18 01bb
000000e0: b4a7 7ebb b0b6 783b 9c79 90bb 2987 50bc
000000f0: cec9 063b 7e74 57bc 89a8 893b b739 2cbc
00000100: 6a96 fabc e3ac f539 7142 2abc 9e15 93bc
00000110: 2e20 2ebc fbb3 1dbb 0dbc 57bc eef9 84bc
00000120: 3448 eeba 04af 8fbb af17 02bc 0eef 82bc
00000130: 1fab 2dbb da11 44bc c7c3 b7bb 3810 67bb
00000140: ca41 c6bb 4c41 c6bc 4e08 b6bc 21b1 82bc
00000150: e14a 17bd ebe6 1fbc 5d24 44bc 2486 0abc
00000160: c566 4d3b 1e1c 80bc ce70 d8bc d055 bebc
00000170: 1658 943a 232d d8bb d072 e1bc 2c22 49bd
00000180: 18e9 31bc 82fc d9bc df16 a33a d528 acbb
00000190: 2b32 8dbb 7f37 b1bc dc40 3ebc 2a69 84bc
000001a0: 916d 7dbc 5c77 03bc 9889 bdbc 655f a8bc
000001b0: cf39 d1bc 3ac6 16bc efa2 52ba 7269 f8bc
000001c0: e9ad 81bc 2f33 16bc 2510 d2bb 4c6b 81bc
000001d0: 48de 4abc 7b06 81bc b684 99bc 394e e0bb
000001e0: c643 cebb 29b6 313b c294 f7bc cad2 6cbc
000001f0: 0cb8 16bd 17f8 a1bc 9be5 27bd 1bc7 02bd
00000200: f60c 10bd f93a 7cbd 5022 25bc 88ce 2ebc
00000210: 827b bfbc 8f0f 2bbc a4f5 c2bb 6f9b 01bc
00000220: 3bc5 44bc 1bba acbb 9ec8 73bc 5c16 11bd
00000230: f618 bcbb d14c 3fbc dca1 6cbc 01ab 18bc
00000240: 5671 88bb 1e53 62bb 690f f0ba 64f0 acb8
00000250: 1dad b7bb c1e2 a13b 7ed5 0fbc e461 e6bc
00000260: a25c 43bb 8395 24bb 1fc7 6ebc 4bdb 80bb
00000270: 2342 bcbb bbf9 6cbc 20a4 09bd ce22 e0ba
00000280: 04c0 3bbb c3b7 50bc 8c04 03bd 2661 18bb
00000290: 629c 513b 8896 c1bc 4c7c 54bc 584d ecbc
000002a0: 56be efbb 7fe0 70bc fee7 67bc 206a faba
000002b0: 22a9 76bc d78d 31bc bc3c edbb 8aeb e1bc
000002c0: 6375 53bc 1005 f6bc 71af 04bd ceec 37bc
000002d0: d6f7 1fbb 0652 a8bc 8733 9cbc a8af 84bc
000002e0: 129b e2b9 55e8 cfbb b1fa 54bd 1d25 c7bc
000002f0: d42e 9abc 088b 21bd 3f37 03bc de22 c5bc
00000300: 850f babb 15ea 02bc e4aa cbbc 4d21 7e3b
00000310: fc6a 45bb 3f46 2bbc 6dbe 06bc 71a3 03bd
00000320: 1b83 a8bb c9e0 7cbc 5242 a0bb c286 c6bc
00000330: 53b3 aebc 97a1 b5bc b089 98ba 23de 8bbb
00000340: 2ae1 e0bc 15e2 8abb dba3 b5bb fb1a 3abc
00000350: 49a7 a4bc a06f 66bc 102c b9bc 9c4f 9ebb
00000360: 883e 35bc 0b29 7cbb 95f8 4fbd 4e3c d239
00000370: 37ce 1fbc 0c25 10bd c951 1dbc e4cc 39bc
00000380: b4df 82bc 64c5 c0bc 9715 43bc 05e7 64bc
00000390: 3af7 86bb 85d6 d4bc 1742 05bc fbf6 623b
000003a0: c947 3fbd 16d0 b5bb 66c3 c7b9 18ae 39bd
000003b0: 6d41 2bbd 56b7 7dbc a103 febc 2a83 7d3b
000003c0: 02fd 9bbb 7c1f 86bb 8c0b e5bc 9564 76bc
000003d0: 89c6 80bb 05f2 91bc 61a8 50bd 9ac2 c7bc
000003e0: 6f60 afbc c888 8ebc ed21 fdbc bc5a 7eba
000003f0: 39e9 85bc fec4 40bc d847 4bbc c28f 77bc
-0.010904718 -0.020257464 -0.004430816 -0.00792542 -0.015393837 -0.005774483 -0.006448328 -0.002982045
-0.037210993 -0.010806934 -0.0065179956 -0.02569521 -0.015606458 -0.019327546 -0.052216567 0.00558303
-0.030169122 -0.0032786767 -0.008914092 -0.005214174 -0.014763601 -0.004296042 -0.0066448334 -0.008016533
-0.019579016 -0.038109343 -0.031056253 -0.011773447 -0.01752447 0.0014758827 -0.011375905 0.0007017677
-0.0021616633 -0.008883013 -0.013766756 -0.02416487 -0.014058907 -0.002083018 -0.008072459 -0.0050956
-0.0010174434 -0.0040364875 -0.019697662 -0.0033810611 -0.0052832006 -0.05916394 -0.012031617 -0.03761278
-0.03704608 -0.04446596 -0.0072167707 -0.024055563 -0.012776603 -0.018056551 -0.009170544 -0.0019698734
-0.0038857283 0.0037950687 -0.004409028 -0.012727537 0.0020567062 -0.0131503325 0.004200999 -0.010511807
-0.030589301 0.00046858852 -0.010391817 -0.017954644 -0.010627789 -0.0024063576 -0.013167393 -0.016232457
-0.0018179477 -0.004384877 -0.007940217 -0.01598313 -0.0026499701 -0.011967147 -0.0056080553 -0.003525747
-0.006050323 -0.024201058 -0.022220757 -0.015953602 -0.036936644 -0.009759645 -0.01197156 -0.008454833
0.0031341773 -0.015638407 -0.026420977 -0.023234278 0.0011317756 -0.0065971776 -0.027520567 -0.049104854
-0.010858797 -0.026609663 0.0012442729 -0.005253891 -0.004308959 -0.021632908 -0.011612143 -0.016163427
-0.015468017 -0.008024063 -0.023136899 -0.0205533 -0.02554026 -0.009202534 -0.0008035143 -0.030323718
-0.015829997 -0.009167477 -0.006410616 -0.015798233 -0.012382098 -0.01575016 -0.01874004 -0.0068452624
-0.0062947003 0.0027116633 -0.0302223 -0.014454553 -0.036796615 -0.019771619 -0.040990453 -0.031928163
-0.03516861 -0.06157968 -0.0100789815 -0.010669358 -0.023374323 -0.010440721 -0.005949693 -0.007910593
-0.012009914 -0.005271209 -0.014879374 -0.035421714 -0.0057402803 -0.011676029 -0.014442887 -0.009318114
-0.0041639013 -0.0034534405 -0.001831514 -8.2463754e-05 -0.0056053535 0.0049403613 -0.008778928 -0.02812285
-0.0029809852 -0.002511353 -0.014573841 -0.0039323918 -0.005745189 -0.014463837 -0.033603787 -0.0017100216
-0.0028648386 -0.012739125 -0.031986758 -0.0023251264 0.003198408 -0.02363135 -0.012969088 -0.028845474
-0.007316391 -0.014701962 -0.014154432 -0.0019105114 -0.015054973 -0.01083704 -0.007239906 -0.027578134
-0.012906405 -0.03003171 -0.032393876 -0.011225892 -0.0024409196 -0.020546924 -0.019067539 -0.01619704
-0.00043221615 -0.006344835 -0.05199689 -0.02430969 -0.018821158 -0.03943923 -0.008008777 -0.024064478
-0.0056781196 -0.00799038 -0.02486176 0.0038777173 -0.0030123582 -0.01045376 -0.008224112 -0.03213829
-0.005142582 -0.015434452 -0.0048907185 -0.02423418 -0.021325743 -0.022171779 -0.0011637714 -0.004268424
-0.027451117 -0.004238377 -0.0055432147 -0.011358972 -0.020099299 -0.014064699 -0.022604018 -0.0048312675
-0.011062272 -0.0038476612 -0.050774176 0.00040099252 -0.009753755 -0.03519158 -0.009602019 -0.011340354
-0.01597581 -0.023531623 -0.011907003 -0.013971095 -0.004118827 -0.025981197 -0.008133433 0.0034632075
-0.04669932 -0.0055484874 -0.0003810182 -0.045332044 -0.04181044 -0.015485605 -0.03100759 0.0038682916
-0.0047603855 -0.0040931087 -0.027959608 -0.015038629 -0.0039299172 -0.0178156 -0.05094183 -0.024384785
-0.021408288 -0.017399207 -0.030899966 -0.00097028515 -0.01634656 -0.011765717 -0.012407266 -0.015109958

ablang_branch.4.weight f4 [128, 256]
00000000: 730c d9bc bf10 08be a6bc 933d 5e27 7f3d
00000010: 44f2 22bd f724 07be 6f54 143d 606f 9b3d
00000020: 53f5 8bbd a904 2fbd 27fe 1abd 3329 dabd
00000030: 29ce 37bd 65c1 923d fcf2 8a3b 61c8 06be
00000040: 5087 92bd f3f3 e6bc 52fb 8bbc 4662 663c
00000050: 4c9e 0dbd b459 8bbb 2a58 9ebc 1f55 9bbc
00000060: ac3f 25bd 5cc4 56bd 1510 94bd f733 f2bc
00000070: 9358 dfbc d9be 6abc 1a7c cabd 600f ff3c
00000080: d17f bdbd f1a1 9a3d a4e9 78bd 8771 c23b
00000090: 97c7 0d3c 6974 8d3d 7fc3 133e 32bf 34bb
000000a0: c178 eb3d 3c7c 25bb e4ad 2fbd 0e9f dabc
000000b0: 07ec 86bd fb44 d4bd 5a4b 32be 14b7 5f3d
000000c0: 5090 41bd a758 31bd 1444 853b 2927 ffbc
000000d0: 68cd 583d fe05 213e df6d 273e 682f 97bb
000000e0: a8c6 183d 9cb6 8a3c 0b7e 1ebd 565f 9abd
000000f0: 0cc3 123e 8e03 093e 6a6d c8bb 0f82 3ebd
00000100: c2b2 a33c 89f8 ff3d c7f3 d43d 963b 4bbd
00000110: 7663 443d 4fbd 15bb 0af7 af3d 65af 2d3c
00000120: 1fdc 67bd c458 dfbc f9a1 4fbd d23c 10bd
00000130: 5cae 033e e50c 543e f696 86bc 109d 1c3d
00000140: 407a 493e 346d 44be 041e ddbd ad05 dbba
00000150: 62b8 363e 509b b03c 2210 ed3a 744d 6aba
00000160: ea4f 60bd a5a7 1e3c 8ca8 21be feb9 913d
00000170: 8940 50bd e166 933b 921d d33b 7bbb 46bd
00000180: f9d3 5fbd c447 02bb 5826 90bc b9fb 0fbe
00000190: c675 5c3d e0f6 39be 1cdc cc3b 89c6 8ebd
000001a0: 0476 5a3d ccd0 d4bd 0aed 97bc 6a82 32be
000001b0: 192c 9dbc 2cf6 2bbb f2b0 c0bb ae8c c73c
000001c0: 9e76 8e3c 6d32 1e3e 518d 5b3e bfe5 a83d
000001d0: 3a89 64bd bfcf 36be 64f0 38bd c5dc e53d
000001e0: 68f5 073d 6506 cd3d eae9 fe3c fe7e 9e3d
000001f0: d4c3 953d f0c3 c7bd efd5 553e db65 d8bc
00000200: cca2 233c fb2e 8a3d b10a 253b 76a6 8f3d
00000210: d7e3 35bd 90eb 2abe da33 9d3d 564e 703c
00000220: a4cf 20bd ddda ae3c 3503 f8bb 8d52 83bd
00000230: a8b0 c23d 839d bb3d a4d2 c13d d2ac d8bd
00000240: 0abb 98bd a426 dd3d eee9 1a3e 3088 31be
00000250: dbf8 25bd 36ef 82bd c61a 8f3d 5389 12bd
00000260: d3d4 903c d68c 173e 7031 ef3d 920b 253c
00000270: 76b6 ddbd f32a 6fbc 1608 9a3c 37e8 423d
00000280: 5e92 15be 0471 4d3b 7903 19bd 1fc2 d4bd
00000290: 0864 eabd 1f04 bebd 3ac1 713d 5cc9 8d3d
000002a0: f316 b93c b850 bfbc 44ad f33d 5a8f e73d
000002b0: fe53 87bc 137d 0bbc 31a8 203b e529 7e3c
000002c0: d1b6 a8bc 833c 6f3d c55c babc 5a9d 01bd
000002d0: e961 8a3d 98b0 413e 8b36 d8bc ab5d c9bd
000002e0: 7740 d6bd 1e25 2cbd a932 883d 8477 a8bd
000002f0: eec4 91bd 6f94 acbc b877 34be a984 24be
00000300: 6d8e 443d adb1 6b3d 103f 0e3b fb18 5a3e
00000310: 0164 093e f4b5 223e 076d 323c 95ec b43d
00000320: a4a2 d9bd e243 d33b bb7a 673c 4021 8dbd
00000330: d3cd d93c 66e5 dabd 5449 20bc 819c 57bd
00000340: a798 f23d c1f8 f3bd 6747 82bc d3fc a13c
00000350: 218a aabc 52db a33d c939 80bd 4c22 e23b
00000360: b764 19bd 3cc5 d6bd 0f55 0cbe a3bb e7bd
00000370: b2b2 2dbd a171 6d3e 6ae9 76bd 0d4f febc
00000380: e5bb 313d 925f b6bd ed30 78bc 90dd 0b3e
00000390: e13e 413d 650a 633d cde4 1a3d 6c5f 3dbd
000003a0: 38f8 a4bc 8ab2 1abc 33ab 903c f8c2 84bd
000003b0: bbe8 67bd 896a 1c3d 6141 ad3c 3d5d 08be
000003c0: 4d2d 033b f095 02bd c2ff c43d b7a0 dc3c
000003d0: 6756 0b3e 2471 1c3d ff0b e7bb 1b30 c0bd
000003e0: 5778 23bd 945a 7e3d 5ec2 c7bd 4e7e b5bd
000003f0: 36b4 59bd 2fae 93bc fbcd d9bc 275a afbd
-0.026495194 -0.13287638 0.07213716 0.062293403 -0.039781824 -0.13197695 0.036213335 0.075896025
-0.06833901 -0.042729054 -0.037840035 -0.106523894 -0.044874344 0.07165793 0.004240392 -0.13162376
-0.07154715 -0.028192496 -0.017087612 0.014061516 -0.03457479 -0.004252637 -0.01932915 -0.018961487
-0.040343925 -0.052433357 -0.0722963 -0.029565794 -0.027263915 -0.014327728 -0.09886952 0.031135261
-0.09252895 0.07550419 -0.060769692 0.0059339437 0.008653543 0.06906969 0.14430045 -0.0027579782
0.11497641 -0.0025251051 -0.042890444 -0.026687171 -0.065879874 -0.103647195 -0.17411557 0.054617956
-0.047256768 -0.043297436 0.0040669534 -0.031146603 0.052930266 0.15724942 0.16350506 -0.0046138056
0.03729883 0.016932778 -0.038694423 -0.07537715 0.14332217 0.13380262 -0.006116559 -0.046510752
0.0199827 0.12498576 0.10398059 -0.049617372 0.047946416 -0.0022848432 0.08592041 0.010600899
-0.05660641 -0.027264006 -0.05069158 -0.035214253 0.12859482 0.20708044 -0.016429406 0.038235724
0.19675541 -0.19182283 -0.10796741 -0.0016710066 0.17843774 0.021558434 0.0018086473 -0.0008937933
-0.054763712 0.009683524 -0.15786952 0.07115553 -0.050842796 0.004498348 0.006442734 -0.04851864
-0.054645512 -0.0019879201 -0.017596409 -0.14060868 0.053823255 -0.18160582 0.006251825 -0.06971461
0.053335205 -0.10391387 -0.018545646 -0.17432562 -0.019186066 -0.002623926 -0.0058804685 0.024359073
0.017390545 0.15448923 0.21440627 0.082469456 -0.055794932 -0.17852686 -0.04515113 0.11223749
0.033193022 0.10010985 0.031117398 0.077390656 0.07312742 -0.09754169 0.2088239 -0.026415756
0.009987544 0.06747242 0.0025183375 0.07014172 -0.044406738 -0.16691422 0.076759055 0.014667114
-0.03926052 0.021344597 -0.0075687417 -0.0641223 0.09506351 0.09160902 0.09464005 -0.10579838
-0.0745755 0.10798386 0.151283 -0.17337108 -0.04052053 -0.06393282 0.069875285 -0.035775494
0.017679607 0.14799818 0.11679351 0.010073559 -0.10825817 -0.014597642 0.018802684 0.04758474
-0.14606616 0.003134788 -0.037356827 -0.10388588 -0.11444861 -0.0927813 0.059022166 0.06923172
0.02259395 -0.02335392 0.11898282 0.11306639 -0.016519543 -0.008513707 0.0024514312 0.015512918
-0.020594986 0.058407318 -0.022749314 -0.031644203 0.06756956 0.18915021 -0.026393196 -0.09832319
-0.104615144 -0.042027585 0.06650288 -0.08225921 -0.071176395 -0.021066872 -0.17623794 -0.16066231
0.04798739 0.05754249 0.0021705069 0.21298592 0.13417055 0.15889722 0.010890252 0.08834187
-0.10626724 0.0064473012 0.014128382 -0.068911076 0.026587402 -0.106882855 -0.009783108 -0.052639488
0.118455224 -0.119126804 -0.015903188 0.019773876 -0.020817818 0.080008164 -0.06261022 0.006901061
-0.037449565 -0.10486838 -0.13704322 -0.11315086 -0.042406745 0.23187877 -0.060281195 -0.031043554
0.04339208 -0.08904947 -0.015148384 0.13658738 0.047179107 0.055429835 0.037815858 -0.04623358
-0.020137891 -0.009441981 0.01765976 -0.064825 -0.056618433 0.038187537 0.02114934 -0.13316818
0.0020016015 -0.031881273 0.096190944 0.026932104 0.13607179 0.038193837 -0.0070509906 -0.093841754
-0.039909687 0.0620981 -0.097538695 -0.08861981 -0.05315038 -0.018027393 -0.026587477 -0.08562117

ablang_branch.4.bias f4 [128]
00000000: 9b79 9a3b 98c0 203c 6fe4 b13b d5db edbc
00000010: c9e9 0dbc 32f9 583c d086 b7ba 4892 ffbb
00000020: 6a66 113c fa81 a5bc 6395 dfbb f11c 413c
00000030: 2868 3fbc e86e 2a3b d817 5c3c 474e 04bd
00000040: 103d 09bc f3f4 773c ab8f b2bc 89e8 513c
00000050: 023d ff3b 674f a4bc 6290 68bc 781f 8f3c
00000060: d9cc 2ebc fc51 07bc 559a 633c d393 3c3b
00000070: 7bb8 e2bc 42ae c1ba c6e1 fd3b c9ee 843c
00000080: b521 ccbb 8f0d b93a 40a8 153c ae0f 39bc
00000090: b583 673a 6810 e4bc 8f0e 4d3b af7d 9fbc
000000a0: a2dc 98bc 8317 8f3b 0ea3 2cbb 5d0e a63c
000000b0: c116 683c 118d 5fbc ab0a 12bc e9fc d6bc
000000c0: f639 d1bb f40a 1dbc 455c 0abb d1c6 303c
000000d0: 70c3 67bb 0a42 8fb8 8f6d f0bc a106 a33b
000000e0: d66e 8bbb 599c 913c a96b f33b 73e9 9dbc
000000f0: a64d 0c3c 5555 053c 0e42 2bbc 8539 47bc
00000100: 98d7 0c3c 293e d0bc d927 583c 564d 9abc
00000110: 085e 0abc b732 3bbc a098 6f3b 4071 2dbc
00000120: 299d 46bb f690 23ba ca19 68bc ad73 443c
00000130: 6081 f73b 3571 fcbc f4b8 b8bb cdea 353c
00000140: dc3c ccbb 4c0e 573c 8bd6 e9bc eb1c 473b
00000150: d6bd a6bb 0788 06bd 3350 ebbb a458 4d3c
00000160: bf90 62bc 0d17 99bc 310d 0bbc bb07 ee3b
00000170: 4dfd 01bc 7ee5 183c 475c ee3b d643 d139
00000180: 4569 debc bfbd 2cbc a858 63bb 6945 efbc
00000190: 1adc f8bb 5dad 32bb 416b 6a3c ab9f 943c
000001a0: 510a 7c3b 74dc 8abc 6867 783c 6c71 c7bc
000001b0: ba05 993b a1bb 81bc 69de 03bd d04b 60bc
000001c0: 56f5 9dbc 84cf 83bb 5f80 ce3c 837b 25bc
000001d0: 9a9c eebb 2f82 18bd 5770 f8bc cdc8 1cbc
000001e0: 28bc fcbc 468e 54bb 58af c1bc 4404 cbbc
000001f0: 82e3 8f3b 2dfc 923c 565d 983b 9c66 c4bb
0.0047142035 0.009811543 0.0054288427 -0.029035488 -0.008661696 0.013243007 -0.0014001969 -0.0077994205
0.008874515 -0.02020358 -0.006823228 0.011786685 -0.011682548 0.0026006047 0.013433419 -0.032301214
-0.008376375 0.015134084 -0.021797022 0.012811788 0.007789255 -0.020057393 -0.01419458 0.01747106
-0.010668957 -0.008259293 0.013891776 0.0028774634 -0.027675858 -0.0014776664 0.0077478616 0.016227143
-0.006229604 0.0014118421 0.009134352 -0.011295242 0.00088315766 -0.027839854 0.0031289195 -0.01946911
-0.018659893 0.0043668165 -0.0026342305 0.02027052 0.014165581 -0.013644473 -0.008913676 -0.026243644
-0.0063850833 -0.009585131 -0.0021112126 0.010789589 -0.0035364293 -6.831072e-05 -0.029349117 0.0049751555
-0.004255156 0.017774748 0.0074286056 -0.019276356 0.008563435 0.0081380205 -0.01045276 -0.01215971
0.008596323 -0.025420265 0.013193094 -0.018835705 -0.00844527 -0.011425666 0.0036559477 -0.010586083
-0.0030306077 -0.00062395574 -0.014166305 0.01199047 0.0075532645 -0.0308157 -0.0056372825 0.011103344
-0.006232841 0.013125967 -0.028544685 0.0030382227 -0.005088548 -0.03284457 -0.0071811914 0.012533341
-0.0138284555 -0.01868775 -0.008487032 0.007264105 -0.007933927 0.009332059 0.007274184 0.00039914128
-0.027149806 -0.010543286 -0.0034690294 -0.029207902 -0.0075945975 -0.0027263977 0.014307798 0.018142542
0.0038458297 -0.016950823 0.015161373 -0.024346076 0.004669872 -0.015836539 -0.03219453 -0.01368995
-0.019282024 -0.0040225405 0.025207696 -0.010100248 -0.007281852 -0.037233528 -0.030327005 -0.009569359
-0.030851439 -0.0032433434 -0.02364318 -0.024782307 0.0043911347 0.017942512 0.0046497984 -0.0059936773

ablang_branch.5.weight f4 [128]
00000000: 68c5 7d3f b40c 823f 13d2 7b3f 1523 793f
00000010: 4860 7a3f 1ff4 813f 86f4 813f 19e0 7f3f
00000020: f893 7b3f 07ab 7a3f b76c 813f 8d61 7e3f
00000030: 9a0f 803f de00 7f3f 02dc 803f e17d 7c3f
00000040: 5a4d 803f 3cc1 813f d663 7f3f dce8 823f
00000050: b5c5 7f3f edad 833f a74d 803f b214 803f
00000060: 27fa 7a3f 79fc 7e3f cf70 813f bf92 783f
00000070: c0b0 7e3f 8b7f 803f 34fe 7d3f bcef 7d3f
00000080: 056e 793f fef3 843f 1ec3 823f 64c4 763f
00000090: 9afb 7d3f e339 803f 4317 813f 0566 7d3f
000000a0: 947c 743f 5bc9 803f 39da 7f3f 6920 843f
000000b0: cfab 823f 4503 823f 7f8e 7c3f 2f10 773f
000000c0: 30c6 803f 2e7a 7f3f eb5e 7e3f eb3f 803f
000000d0: 891a 793f 598e 793f b4b8 773f 3d64 7d3f
000000e0: 12ed 7a3f 8298 833f 9cce 803f a7ce 7c3f
000000f0: 93ae 803f 1aba 7a3f b315 7d3f 6902 7b3f
00000100: c812 7d3f 31c1 7f3f f38d 803f 975f 793f
00000110: da1b 7a3f 9641 803f 4e3a 743f 679c 7c3f
00000120: 26bb 7d3f 18fe 7b3f 6549 813f bba1 833f
00000130: 45f8 803f 3d9a 823f 5ea2 803f ab4c 7b3f
00000140: e5f9 823f 993b 823f 1278 7f3f af72 7b3f
00000150: 7904 7d3f b977 7a3f ab67 783f 1892 803f
00000160: 970b 743f eeb0 763f c0db 7f3f 6b85 7c3f
00000170: caa9 7e3f 1670 783f edef 7d3f 5312 7f3f
00000180: 65d2 7c3f 0799 7b3f 1091 7c3f f3ae 823f
00000190: e055 7e3f 7055 833f ae81 7c3f febd 813f
000001a0: b337 7e3f 0e5d 7d3f 7826 813f 19f9 753f
000001b0: 73ae 803f 40ec 743f 4226 7b3f 0cb9 833f
000001c0: b237 763f d3b1 7a3f 659e 833f 29e8 783f
000001d0: f8f1 753f df4d 703f 4fb8 7a3f f47e 793f
000001e0: 56d2 7c3f 8623 803f 3ed8 773f 49a8 773f
000001f0: 955e 7e3f 3832 853f bd92 7f3f f1d2 7c3f
0.99129343 1.0160127 0.9836742 0.97319156 0.97803164 1.0152625 1.0152748 0.9995132
0.9827266 0.97917217 1.0111302 0.993676 1.0004761 0.996107 1.0067141 0.98629576
1.0023606 1.0137095 0.9976171 1.0227313 0.9991105 1.0287453 1.0023698 1.0006316
0.9803795 0.9960399 1.0112551 0.97098917 0.9948845 1.0038923 0.9921601 0.9919393
0.974335 1.038696 1.0215795 0.9639342 0.9921204 1.0017666 1.0085224 0.98983794
0.9550259 1.0061449 0.99942356 1.0322391 1.0208682 1.0157248 0.9865493 0.9650907
1.0060482 0.99795806 0.99363583 1.0019506 0.97306114 0.9748283 0.9676621 0.98981076
0.9801799 1.0280917 1.0063052 0.98752826 1.0053276 0.9794022 0.98861235 0.9805055
0.9885678 0.9990416 1.004332 0.97411484 0.9769875 1.0020015 0.95401466 0.9867615
0.9911369 0.9843459 1.0100523 1.0283731 1.0075766 1.020332 1.004955 0.9816386
1.0232512 1.0174438 0.9979259 0.9822187 0.9883495 0.9783893 0.97033185 1.0044584
0.95330185 0.96363723 0.99944687 0.9864108 0.9947783 0.9704603 0.9919422 0.99637336
0.98758537 0.98280376 0.9865885 1.020964 0.99349785 1.0260448 0.98635375 1.0136106
0.9930374 0.98970115 1.0089865 0.9608322 1.0053238 0.9567299 0.9810525 1.0290847
0.96178734 0.9792759 1.0282713 0.9722925 0.9607234 0.9386882 0.9793748 0.9745934
0.9875845 1.0010841 0.96814334 0.9674116 0.9936307 1.040595 0.9983328 0.9875937

ablang_branch.5.bias f4 [128]
00000000: 0035 a73b ac5a 413c a51c 383b c21e f8bc
00000010: 5564 cebb 0e88 503c 1c4a 84ba 36d5 e8bb
00000020: c6ad 003c 4ee9 97bc 462a aabb d69e 0a3c
00000030: 2714 04bc 1e95 703b eea8 703c 438f 02bd
00000040: df40 96bb 0787 4a3c aed3 c4bc 81c1 5d3c
00000050: 3efc a23b 6012 acbc dc07 3dbc 0dd7 6c3c
00000060: 1e10 0abc 30de 02bc 6ec6 6b3c dbab 27bb
00000070: 314d e1bc 8034 a839 fd32 bd3b f76f 7d3c
00000080: 3373 9bbb 9143 53bb e777 f03b f721 e5bb
00000090: e2e4 ee3a 5912 ecbc c924 943b 9828 a8bc
000000a0: 0bd8 7bbc 350b eb3b 3eae 49bb f310 be3c
000000b0: 65e6 873c ab74 babb 518d 93bb 1b00 ccbc
000000c0: 5ee2 6dbb 6df8 28bc e17e 633a 1828 323c
000000d0: 63ec 95bb db9d 28b9 851a 03bd 434a 933a
000000e0: 4650 e4bb ced4 8f3c 0d32 773b ef44 97bc
000000f0: dca2 cd3b 9359 473b 0a84 66bc 6cba 69bc
00000100: 90e2 243c 2a99 f4bc 4766 193c 5454 cebc
00000110: 967f b43b 3569 42bc eedc 193c 1a73 0cbc
00000120: 0d2c c33b 3a09 273b f4b2 30bc 409c 603c
00000130: c22f da3b 3c46 07bd b92f b6ba 0b3a 233c
00000140: 861b 94ba fcb6 633c 7e8f d3bc 1a85 c03b
00000150: 97a2 42bc 8fee 08bd 1c77 16bc fa95 353c
00000160: 466b 5ebc e885 7cbc 93c2 69bb c53d e93b
00000170: c767 91bb cdce 6d3c f3c6 e93b ee3d 69bb
00000180: c7ca f7bc 01a5 23bc 62ba 2f3a 94d3 05bd
00000190: b8b2 27bc f3b0 aab9 08aa 793c 4a52 8a3c
000001a0: bd0e 8e3b 6638 a0bc b93a 553c 8c7e e6bc
000001b0: 8c35 6c3b 5a3a 2fbc e6f8 07bd 330b 1ebc
000001c0: f5b0 c7bc 465a 1dbb 1fc9 d03c 433c 4dbc
000001d0: 99d8 09bc 570f c8bc 42a2 00bd e06f e1bb
000001e0: 4a0c 29bd a10a ddba 2197 d1bc d08e c9bc
000001f0: e72b 113c f632 823c 88c5 83ba 1a53 c9bb
0.0051027536 0.011801403 0.0028093245 -0.030288104 -0.0062985816 0.01272775 -0.0010092887 -0.007105495
0.007853931 -0.018543866 -0.0051930277 0.008460721 -0.008061445 0.0036709975 0.0146887135 -0.031874906
-0.00458537 0.012361295 -0.024026718 0.013534904 0.0049739173 -0.021004856 -0.011537518 0.014455569
-0.008426694 -0.007987544 0.014390571 -0.0025584612 -0.027502628 0.00032082573 0.0057739005 0.015468589
-0.0047439574 -0.0032236318 0.007338512 -0.0069925743 0.0018226171 -0.028817343 0.0045209867 -0.02052717
-0.015371333 0.007172967 -0.0030774022 0.023201441 0.016589353 -0.0056901774 -0.00450293 -0.024902394
-0.0036298255 -0.010313136 0.0008678269 0.010873817 -0.0045752986 -0.00016080534 -0.032007713 0.0011237342
-0.006967577 0.017557528 0.0037719042 -0.018465487 0.006275518 0.003041838 -0.0140695665 -0.014265638
0.010063782 -0.02985819 0.009362764 -0.025186695 0.0055083735 -0.011865904 0.009391053 -0.008572364
0.005956179 0.0025487677 -0.010784853 0.013709128 0.006658525 -0.033025965 -0.001389972 0.009962569
-0.0011299707 0.013898607 -0.025825258 0.005875242 -0.011879585 -0.033430632 -0.009183671 0.0110831205
-0.013575381 -0.015412785 -0.0035668954 0.007117959 -0.00443742 0.014514637 0.0071343123 -0.0035589891
-0.030248059 -0.00998807 0.00067034934 -0.03267248 -0.010235481 -0.00032556764 0.0152382925 0.016884942
0.004335253 -0.019558143 0.013014489 -0.028136514 0.0036042659 -0.010695064 -0.033196352 -0.009646225
-0.024376372 -0.0024010106 0.025486527 -0.012526575 -0.008413457 -0.024421377 -0.03140474 -0.0068797916
-0.041271485 -0.001686413 -0.02558476 -0.024604231 0.008860565 0.01589344 -0.0010053376 -0.0061439397

ablang_branch.7.weight f4 [64, 128]
00000000: 9486 a7bc b626 66be 2fd2 45be c053 803e
00000010: e5d1 3cbe cf34 643d f03c 41bd fdf0 dcbc
00000020: 0c13 7ebe 4c6e b73d 2e9d 56bd a1e9 de3d
00000030: 3699 9abc 2fc3 e93d f5f5 f23c 889a 113e
00000040: c19d c3be ccf4 f73d 35c9 943e c000 893b
00000050: 7f10 6c3d a8e7 acbc 1211 4bbe 8c7e 2e3e
00000060: 30b5 b33c 6e53 abbd 26a1 e53d 14d7 d23d
00000070: 9e35 1b3e 9bca 573d ebe6 893e 26d1 0fbd
00000080: 86cd 373e 19a4 853d e18a 853a 12b2 ee3c
00000090: 73b1 04be e63b 3b3d 055c 093e 7255 573d
000000a0: 5879 7dbd abad 22be 7865 96be 636f 49bd
000000b0: 919c ca3d facf 84be 5d1f dcbd 4c06 84bd
000000c0: 8857 273e 207b 52bc 13ce 8cbd 623c 9ebe
000000d0: 0354 a0bd 320c ef3d 69da 38bd 334e 73bd
000000e0: 7231 99bc 5d5b 7fbe 0033 df3d 4aa5 683e
000000f0: 3c2f d9bc 88a3 513d 615d df3c c1b4 503d
00000100: 9589 ecbb 8e9d efbd 84b8 4d3e 100f 4e3d
00000110: 979e 00be 16ff 653e 4763 ff3d f798 153e
00000120: 7ff8 943d b7f6 eabc 990c 5dbe 0955 4c3c
00000130: 01df 283e cc3c 3cbe e292 cf3d 2126 33be
00000140: c792 cdbd 4730 83be 9725 953c 2676 64bd
00000150: 12ed e03c ec38 2e3e b506 fa3d 2926 ef3d
00000160: 4fb3 b43d bcb5 6e3a 75e0 7a3d 1d8c 093d
00000170: 9928 84bd c605 6d3d 875d 05be b6e9 85be
00000180: 2132 a43d 4599 26bd 64a9 2abe 4bb9 ca3d
00000190: 104c e43d 88bc ff3c 097a 02be c1ea 7b3e
000001a0: f5dd 1d3e 487b 2dbe eb01 aa3d 73cf 023e
000001b0: b2f8 a13c d662 7cbd 3c23 d53c 8c97 673d
000001c0: fc68 013e 1ec8 963d edc7 46bc 3c43 0ebe
000001d0: 83f6 0e3c c418 73be f666 8fbe 53a1 10be
000001e0: 41f5 db3d f226 8b3d e0e8 a5bd 6eb8 9ebd
000001f0: 1feb dabd 09d1 8bbd dde0 e73b 2d47 b7bd
00000200: 45b1 60be a4c6 623d e50f 00bd 95a4 8f3b
00000210: b6a5 a53c f2cc 013e 4ca3 a2bd d044 bc3d
00000220: 1543 85bd 312a cdba 8481 01bd 9fd8 57bd
00000230: eaf8 8bbd 0bb6 46be 0149 8bbe 4d55 d73c
00000240: 8ac3 7b3d c13a 3bbe 1e76 f23c ed4b 86bd
00000250: 5496 aabc deb2 213c ebbf 7f3d 800e a0bd
00000260: b877 ee3c b874 02be ee36 fbbc dd1a f1bc
00000270: 27d7 16be 7e56 0d3d ae08 c23d cfc1 b6bc
00000280: afcd 813c ffdd efbc 1696 87bd a427 433d
00000290: c0cd fc3c c860 b5bd 51e9 85bd 4417 383c
000002a0: fe2b c43d 8d09 d7bd 1afb 4bbe 50d4 83bd
000002b0: b63f 84be a9ec ad3d 3eb7 4b3e 06f6 9d3d
000002c0: 9cd3 d13c bd76 56bd 34b3 793e 54a1 843b
000002d0: d4a9 5e3e 2b62 973d b6f0 05be 1ac7 c33d
000002e0: 73e7 923d bed1 ac3d 19c7 243e 458d 8d3e
000002f0: 411e 2c3c a4a7 ac3e b084 35bd 6c1c 2dbc
00000300: 9793 c03d 52a3 c83c 5118 303c 973d 143e
00000310: 4263 da3d 84be dcba dfb2 23bd 3d0d a4bb
00000320: 711a 833d 5fc0 bebd 7903 4d3c 2af2 d83d
00000330: 7f55 17bd 0899 273d 819c 99be f46d 8bbd
00000340: baba 72bd 38d1 3f3d d75e a13c 4e51 0f3e
00000350: 3ebe a2bd 1f7a 123d 8d20 8abd 90f0 e83d
00000360: bc3e ec3c e7f2 eabd 6a96 57bd 2873 d9bd
00000370: 21e8 0abc 3c2e d6bd 5c50 a6bd 67db 2c3d
00000380: 3979 3cbd 3f00 d5bd 2e07 853d 3cf6 2f3d
00000390: 8697 02bc f9fe 133e fe73 5cbd 4fd6 25be
000003a0: abbc 043e 0a70 c43d 6bb7 16be 8e29 6b3e
000003b0: 9fb8 fb3d aa80 243d 7c81 973d 417b c63d
000003c0: 8c5e 663c b7f6 233e 71d9 b7bd 6732 42be
000003d0: 730d 4b3d 0ad2 6b3c 435e 84bd 3f54 a83c
000003e0: c709 183e a9dc b23c 82e3 c53c 6806 243d
000003f0: 396d b6bc 1212 c53d 260a 553d afb2 963e
-0.020449914 -0.22475705 -0.1931846 0.25063896 -0.18439443 0.055714425 -0.047177255 -0.02697038
-0.24811953 0.08956584 -0.052395992 0.10884405 -0.018871885 0.114141814 0.029658297 0.14219105
-0.38206294 0.12107238 0.2905976 0.0041809976 0.05763292 -0.021106556 -0.1983073 0.17040461
0.021936983 -0.08365522 0.11212377 0.10294929 0.15157172 0.052683454 0.2693399 -0.03511157
0.17949495 0.0652544 0.0010188484 0.029137645 -0.12958317 0.04571142 0.13414009 0.05257172
-0.0618833 -0.15886562 -0.2937429 -0.049178492 0.09893144 -0.25939924 -0.107481696 -0.064465135
0.16341984 -0.012846738 -0.06875243 -0.30905443 -0.07828524 0.11672248 -0.045130167 -0.05940075
-0.018700335 -0.24937196 0.10898399 0.22719303 -0.02651178 0.051181346 0.027266206 0.05095363
-0.0072185495 -0.11699973 0.20089918 0.050307333 -0.12560497 0.22460589 0.124701075 0.14609133
0.07273959 -0.028682096 -0.21586837 0.012471446 0.16491319 -0.18382567 0.101354375 -0.17495014
-0.10037761 -0.2562277 0.0182064 -0.055776738 0.027456794 0.17013901 0.122083105 0.116772
0.08823263 0.000910606 0.061249215 0.033580888 -0.06453056 0.057866834 -0.13023959 -0.2615487
0.08017374 -0.040673513 -0.1666618 0.09898623 0.1114732 0.031217828 -0.12741865 0.2460127
0.15416701 -0.1694156 0.08301147 0.12774448 0.019771907 -0.061617695 0.026017778 0.05654101
0.12637705 0.07362388 -0.012132627 -0.13892835 0.008725765 -0.23739916 -0.2800824 -0.1412404
0.10740138 0.067945376 -0.08101058 -0.07750021 -0.10689377 -0.0682698 0.0070763663 -0.089491226
-0.21942623 0.05536522 -0.03126516 0.0043836334 0.020220619 0.12675837 -0.07941303 0.091928124
-0.065069355 -0.0015652833 -0.031617656 -0.05269682 -0.06834586 -0.19405381 -0.27204135 0.026285792
0.061465777 -0.18284132 0.029597338 -0.065574504 -0.020823635 0.009869305 0.062438887 -0.07815266
0.02910982 -0.12739837 -0.030665841 -0.029431755 -0.14730512 0.034506314 0.09474312 -0.022309212
0.015845148 -0.02928066 -0.066204235 0.047645226 0.030859828 -0.0885635 -0.06538642 0.011236016
0.09578703 -0.104998685 -0.19920006 -0.0643698 -0.25829858 0.08492405 0.1989412 0.07712941
0.025613599 -0.05235933 0.24384767 0.004047552 0.21744472 0.07391771 -0.13080105 0.0955946
0.07173052 0.08438443 0.16091575 0.27646843 0.01050526 0.3372165 -0.044315994 -0.010565858
0.094031505 0.02449194 0.010747985 0.1447662 0.10663463 -0.0016841446 -0.039965507 -0.005006461
0.06401528 -0.093140356 0.012513035 0.10593064 -0.03694677 0.040917426 -0.30002216 -0.06808081
-0.059260108 0.046830386 0.019698543 0.13995859 -0.07946442 0.035760995 -0.0674449 0.11374009
0.028838508 -0.11472111 -0.05263368 -0.106176674 -0.008478195 -0.10458037 -0.08120796 0.042201426
-0.046014044 -0.104004376 0.0649551 0.042959437 -0.007970696 0.14452733 -0.053821556 -0.16195033
0.12962596 0.09591682 -0.14718406 0.2296507 0.12291073 0.040161766 0.07397744 0.096914776
0.014060628 0.16012083 -0.089770205 -0.1896454 0.049573373 0.014393339 -0.064632915 0.020547984
0.1484748 0.021833735 0.024156336 0.040045172 -0.022268878 0.09622587 0.05201163 0.294332

ablang_branch.7.bias f4 [64]
00000000: 3d14 503a 35d0 c5bc 5999 ba3c a74f 32bc
00000010: c360 f83b e6c3 4cbc 6e1e a3bc 7357 6dbc
00000020: 64a7 aebc 3f01 083b 3d39 bcbc ca1e 25bc
00000030: 1854 b1bb 83ef a0bc e23b b4bb eab5 14bc
00000040: 0ce2 813c 07d8 043d 614b 0fbc 7bcf bc3c
00000050: 7548 36bb 52c2 9d3b 012a 763b 76a9 023b
00000060: 8eda 813c 185e 11bc 7f84 a13c 2aa0 9bbc
00000070: 49da 9fbb b7a5 dfbc 6e09 143c cdb2 e13b
00000080: 8a91 d8bb 23cc 55bc aaac 82bc a7ec a53a
00000090: f83f 433c a359 c1bb 9599 de3b 8434 63bc
000000a0: 9fa7 053c a089 8bbc 06dc 2a3c 480f 0dbc
000000b0: a38a 663c 3747 473c 036a 9dbc 1738 003c
000000c0: 729e e9bc f0de 6d3c ae37 923c 3d24 adbc
000000d0: dcd6 d9bc a058 adbc d99c ebbc b9b5 c1bc
000000e0: 5d9b 4abc 5725 083c 8f47 3f3c fc31 28ba
000000f0: b292 25ba 2bb3 863a e07b cd3c 99ff 923c
0.0007937586 -0.024147132 0.0227782 -0.010883248 0.0075798943 -0.012497878 -0.019911971 -0.014486182
-0.021320052 0.0020752696 -0.022976512 -0.0100781415 -0.005411636 -0.019645458 -0.0055003027 -0.009076575
0.015854858 0.032432582 -0.008745999 0.023048153 -0.0027814184 0.0048144246 0.0037561657 0.0019937432
0.015851285 -0.008872531 0.0197165 -0.01899727 -0.0048783165 -0.027300699 0.009035451 0.00688777
-0.0066091465 -0.013049158 -0.015951473 0.0012659029 0.011917107 -0.005900578 0.0067932107 -0.013867501
0.00815764 -0.017033398 0.010428434 -0.0086096 0.0140711395 0.012162975 -0.01921559 0.007825873
-0.028517935 0.0145184845 0.017848816 -0.021135444 -0.02659171 -0.021160424 -0.028761314 -0.023646222
-0.012366143 0.008309684 0.011674776 -0.00064161397 -0.000631611 0.0010276785 0.025083482 0.017944144
