data/model_weights/cv_fold_0_model2_4.pt (torch, 686405 bytes, 27 tensors)

ablang_branch.0.weight f4 [256, 480]
0.120132506 0.0535219 0.023705356 0.0968648 0.032634947 -0.002064275 0.04728795 -0.08462313
-0.10559133 -0.10754554 -0.0807799 -0.07710059 -0.1156906 -0.01455463 -0.032068506 -0.045530085
0.0142045235 0.019500935 -0.08716402 0.14776196 -0.06792161 0.030366223 0.09347272 -0.098715425
-0.08359205 0.044422764 0.07974448 -0.05027102 -0.039067093 0.067889795 0.11785377 -0.0903564
-0.059566233 0.11495799 -0.028451914 0.12741573 0.010827148 -0.015381743 0.062508576 0.053682525
-0.036778387 0.059284475 0.03485077 -0.12742087 0.018002493 0.15054408 0.13632561 -0.06372154
0.1668585 0.006668155 0.038682144 -0.050659556 -0.053271245 0.089902475 -0.020120295 -0.097733974
0.078786574 -0.06482963 0.081825614 -0.026550373 -0.0049904287 0.025743704 0.089066185 0.13480297
0.014634472 0.026151031 0.06192873 -0.016846163 -0.02008724 0.03671746 -0.09899115 -0.1118015
-0.04128405 0.02115443 0.19265723 -0.009753926 0.033306915 0.024701072 0.10294981 0.025518779
-0.04270623 0.023999894 0.0057189143 -0.09225871 -0.016867535 -0.021447256 -0.118048 0.07333425
0.0064252783 -0.063460514 -0.007450439 -0.010894272 0.08131587 0.0663754 -0.034557246 0.023342784
-0.06749864 -0.083570234 0.04050094 -0.06752816 -0.034175567 -0.028729534 -0.0034060637 0.14520791
0.038395975 0.052923266 0.028386476 -0.032838266 -0.04417347 -0.09550764 0.07824922 -0.10230224
0.06111383 0.029797196 -0.03252592 0.011007778 -0.04751238 0.025801398 0.02990173 -0.059265386
-0.01707815 -0.012170391 -0.0649691 0.023208305 0.101931006 0.09012515 -0.0022179638 -0.041430406
-0.043446224 -0.0068189707 -0.0747822 -0.03134909 -0.056521192 -0.031628232 -0.041374285 0.013484524
0.09414036 -0.035506964 -0.016704295 0.009865743 0.0055334107 0.018211113 -0.08844306 -0.01213087
-0.045383744 0.049197447 0.012017831 -0.05140254 0.09790955 0.123393394 -0.07158027 -0.07723751
0.044934634 -0.097801164 -0.109338656 -0.013618466 0.106943205 -0.028153857 0.05959611 0.0035084698
-0.023235809 0.03360721 0.024949651 0.04578438 0.017147914 0.05329898 0.007919517 -0.029637024
-0.02367462 0.0039443984 -0.07361267 0.008053701 -0.016052272 -0.0154105015 -0.023431469 -0.025760105
-0.010373838 -0.011959648 0.059593994 0.09706893 0.055771645 -0.036259167 0.098457605 -0.039476536
-0.044254918 0.13067178 -0.09902242 -0.017521394 -0.02875475 0.09129752 -0.042741794 -0.035648566
-0.018882645 0.05175607 0.14654326 -0.104960784 -0.0027289013 0.034414805 -0.04452708 -0.028051388
-0.031622916 0.06378597 -0.07127308 -0.07970392 0.0032369134 -0.005957643 -0.06621868 0.009589664
0.0404891 -0.0020500582 -0.043535523 -0.0004057627 0.066014044 0.051222347 -0.03185311 -0.16951472
-0.043195974 0.011004471 -0.058249954 -0.081755534 0.027515411 0.09089442 -0.18191175 -0.017900039
-0.033254046 -0.0633055 -0.12148439 0.026796779 -0.0064708763 -0.01846503 -0.07266689 0.056188524
0.06686509 0.052761085 0.13186605 0.09080204 -0.101748206 -0.10740889 -0.045131683 -0.08735521
-0.084732555 0.015394991 0.1858646 -0.005828252 -0.0052947095 0.038507268 -0.045950457 0.018075373
0.021127068 -0.0957334 0.05206413 0.02489554 0.07124091 -0.08440855 0.049294483 -0.06957958
00000000: 0808 f63d c839 5b3d bc31 c23c 0d61 c63d
00000010: 39ac 053d ca48 07bb 02b1 413d e44e adbd
00000020: 4440 d8bd d640 dcbd ef6f a5bd eae6 9dbd
00000030: 31ef ecbd 8b76 6ebc 445a 03bd c17d 3abd
00000040: 17ba 683c 6dc0 9f3c 0d83 b2bd e94e 173e
00000050: 7c1a 8bbd 96c2 f83c a06e bf3d 502b cabd
00000060: 4f32 abbd a5f4 353d 1351 a33d fce8 4dbd
00000070: d104 20bd ce09 8b3d 515d f13d c70c b9bd
00000080: b9fb 73bd 186f eb3d fd13 e9bc 4579 023e
00000090: 5a64 313c b503 7cbc 7f04 803d 35e2 5b3d
000000a0: efa4 16bd 47d4 723d aebf 0e3d 9e7a 02be
000000b0: f779 933c 3a28 1a3e f198 0b3e 7080 82bd
000000c0: f4dc 2a3e 8a80 da3b 2b71 1e3d 6580 4fbd
000000d0: f332 5abd ca1e b83d 51d3 a4bc c028 c8bd
000000e0: db5a a13d 66c5 84bd 3094 a73d 2b80 d9bc
000000f0: c086 a3bb 76e4 d23c 5568 b63d ca09 0a3e
00000100: 6dc5 6f3c b03a d63c fba8 7d3d f700 8abc
00000110: ff8d a4bc 0c65 163d dfbb cabd 2ff8 e4bd
00000120: 7719 29bd 0e4c ad3c f047 453e eece 1fbc
00000130: d56c 083d e759 ca3c 5ad7 d23d c20c d13c
00000140: baec 2ebd 6d9b c43c bb65 bb3b 22f2 bcbd
00000150: c92d 8abc 28b2 afbc 26c3 f1bd 4430 963d
00000160: 248b d23b 96f7 81bd d022 f4bb e37d 32bc
00000170: ef88 a63d d3ef 873d e68b 0dbd 5e39 bf3c
00000180: ba3c 8abd df26 abbd 50e4 253d 344c 8abd
00000190: aefb 0bbd 335a ebbc 4438 5fbb 62b1 143e
000001a0: 1945 1d3d 11c6 583d c18a e83c 6b81 06bd
000001b0: 3eef 34bd 8299 c3bd 2141 a03d d683 d1bd
000001c0: 7f52 7a3d 4019 f43c e639 05bd f859 343c
000001d0: 579c 42bd 745d d33c 79f4 f43c 43c0 72bd
000001e0: 7ae7 8bbc 5266 47bc 850e 85bd 581f be3c
000001f0: 34c1 d03d 8993 b83d 425b 11bb eeb2 29bd
00000200: abf4 31bd ac71 dfbb 6927 99bd e767 00bd
00000210: c482 67bd 9b8c 01bd 1578 29bd 31ee 5c3c
00000220: a9cc c03d c06f 11bd 72d7 88bc eda3 213c
00000230: 9d51 b53b 792f 953c a321 b5bd 8ec0 46bc
00000240: 4ee4 39bd 4383 493d 70e6 443c 788b 52bd
00000250: cd84 c83d adb5 fc3d ad98 92bd b32e 9ebd
00000260: 610d 383d fa4b c8bd f2ec dfbd fd1f 5fbc
00000270: 0a05 db3d eba2 e6bc 0d1b 743d 5bee 653b
00000280: 0659 bebc b7a7 093d 3663 cc3c 6788 3b3d
00000290: c879 8c3c 0850 5a3d ddc0 013c 58c9 f2bc
000002a0: 47f1 c1bc 0340 813b 3dc2 96bd acf3 033c
000002b0: 0e80 83bc 547c 7cbc 5af3 bfbc db06 d3bc
000002c0: 08f7 29bc 66f2 43bc d518 743d 13cc c63d
000002d0: cf70 643d 7e84 14bd 24a4 c93d 26b2 21bd
000002e0: a544 35bd d3ce 053e 44cc cabd 0789 8fbc
000002f0: 158f ebbc 32fa ba3d 0512 2fbd 3b04 12bd
00000300: c7af 9abc 2cfe 533d 700f 163e aef5 d6bd
00000310: 5ed7 32bb 8af6 0c3d 0762 36bd 06cc e5bc
00000320: 0887 01bd 38a2 823d 9ff7 91bd cf3b a3bd
00000330: 6522 543b 5538 c3bb a99d 87bd f71d 1d3c
00000340: e6d7 253d 455a 06bb 4e52 32bd 8cbc d4b9
00000350: 5f32 873d 86ce 513d 6878 02bd 4495 2dbe
00000360: 43ee 30bd 194c 343c 8197 6ebd 726f a7bd
00000370: 0068 e13c db26 ba3d 1347 3abe 1aa3 92bc
00000380: 6535 08bd 50a6 81bd cfcc f8bd eb84 db3c
00000390: a509 d4bb f943 97bc 61d2 94bd f025 663d
000003a0: 90f0 883d 021c 583d e507 073e 6cf6 b93d
000003b0: 5d61 d0bd 31f9 dbbd 00dc 38bd 4ae7 b2bd
000003c0: 4388 adbd 463b 7c3c 4a53 3e3e ecfa bebb
000003d0: 3e7f adbb ccb9 1d3d 8c36 3cbd ce12 943c
000003e0: ac12 ad3c df0f c4bd 3241 553d bbf1 cb3c
000003f0: c1e6 913d 64de acbd 03e9 493d bd7f 8ebd

ablang_branch.0.bias f4 [256]
-0.0072929473 0.008261901 0.002995299 0.0009403067 0.0043240655 -0.0045617633 -0.0052976413 0.013114914
0.0007566209 0.0022501275 -0.0054495865 0.010311461 -0.008460741 0.002779147 0.0075857644 0.020146618
0.006432922 0.0101958215 -0.0068271505 0.0041169305 0.020072157 0.010944296 -0.0102642495 0.0018532226
0.005812218 -0.0013569405 0.011490832 0.007978153 0.0067577907 0.0086938245 0.007255296 0.008064974
-0.00011833379 0.010078568 0.010461941 0.0112284515 0.01869565 0.0102833 0.017973917 0.020866746
0.011765604 -0.0017869436 0.0040080133 0.004819864 0.014517566 0.009495983 0.0030177522 0.004483261
-0.0015057395 0.0015620907 0.007859205 0.006326199 0.0024727874 0.0129631255 -0.002647831 0.008329098
0.0040729837 -0.000343408 -0.002101195 -0.0060132314 0.012220232 7.1966526e-05 0.001082971 0.004341502
0.0075090234 0.005803348 0.012055675 0.008355895 0.0056773988 -0.0029312286 0.0031534918 0.001143581
0.014435705 0.0052186777 0.011119188 0.009175016 0.016105846 0.0022337213 0.011396619 0.01020406
0.004778932 -0.004624139 0.011591536 0.012176101 0.0017744708 0.0068827095 0.0059480364 0.0011357777
0.0060569104 0.026410712 0.01782966 0.0015326586 0.0040516825 0.00461777 0.004233586 0.0011351376
0.0020851307 0.00297591 0.0044355304 0.0049003824 0.0049647903 0.007248196 0.00038002845 0.0038115124
0.0020492428 0.01936804 0.0056226873 0.0010745926 0.011979203 0.0067497455 0.0023071798 -0.009654483
-0.003354239 0.013989124 0.009465476 0.016489027 0.013335691 0.006059464 0.014487552 -0.0016585417
0.013219828 -0.0020643848 0.018444505 0.010981436 0.014384755 -0.012372142 0.0039019655 -0.006731047
0.010267563 0.016372401 0.0051952912 0.0107653085 0.011559791 0.008011764 0.008053142 -0.004163846
0.007257254 0.009182627 0.012149619 0.023857074 0.010071418 0.005629948 -0.006812822 -0.006998783
-0.0042165373 0.017275307 0.016951181 0.008057013 0.0110495435 0.0031053734 0.007893773 0.013384554
0.007016547 0.0066859387 0.0053242417 0.010175975 0.008988217 0.01738101 -0.003694624 0.0013876316
6.723781e-05 0.007417075 -0.0046555144 0.016809901 0.004473265 0.013059195 0.014563376 0.01359771
-0.0017920875 0.0143787395 0.012271723 0.019602291 0.012643574 0.0069259787 -0.0073272395 0.009653934
-0.0026092269 0.015789257 0.012675167 0.007343514 0.011087058 -0.00080001605 0.016171644 0.0051246085
0.004086146 0.00861529 0.0024231563 -0.0025491237 0.0019851162 0.007544278 0.017877154 0.00068697165
0.006420706 0.013034893 -0.0034696395 0.004361097 0.0020232415 -0.002215592 0.010730413 0.010428104
0.007353939 0.02386517 0.009249341 0.0035397073 0.009015125 0.010135671 0.0032809696 -0.0030111475
0.0026185692 0.034094542 -0.006798196 0.014231196 -0.0068614674 0.024814999 0.0014103928 0.01167844
0.0038857749 0.010022937 -0.013720506 0.0016502036 0.0049850233 0.0023035754 0.009353346 -0.002650265
-0.00407038 0.004856609 0.0010270323 -0.005813575 0.013929377 0.014132658 -0.0072038844 -0.0016858552
-0.0011377379 0.0040753563 0.0051942957 0.0030296182 0.019224254 0.006172786 0.0010691489 -0.005030157
0.013192 0.00028471334 0.004159091 0.010680235 -0.0016760224 -5.387338e-06 0.009571524 0.01317805
-0.0008512185 0.008745344 -0.0047886604 0.005855539 0.008478239 0.01059987 0.0058322074 0.013431352
00000000: adf9 eebb ed5c 073c c74c 443b ea7e 763a
00000010: e4b0 8d3b d87a 95bb d697 adbb f0df 563c
00000020: f857 463a e076 133b 7292 b2bb 67f1 283c
00000030: eb9e 0abc 5922 363b 0192 f83b 850a a53c
00000040: 43cb d23b 600c 273c 4ab6 dfbb 51e7 863b
00000050: 5d6e a43c b44f 333c 622b 28bc d5e7 f23a
00000060: 6b74 be3b 5edb b1ba 0b44 3c3c cdb6 023c
00000070: 7570 dd3b 8b70 0e3c d6bd ed3b f422 043c
00000080: f829 f8b8 9420 253c 9068 2b3c 8af7 373c
00000090: 9f27 993c 497b 283c 093e 933c bdf0 aa3c
000000a0: 85c4 403c e137 eaba a755 833b f3ef 9d3b
000000b0: 16db 6d3c 0a95 1b3c 7bc5 453b 52e8 923b
000000c0: 3c5c c5ba 11bf cc3a e5c3 003c 014c cf3b
000000d0: 7d0e 223b 4a63 543c 3c87 2dbb c576 083c
000000e0: aa76 853b 710b b4b9 34b4 09bb a40a c5bb
000000f0: 5e37 483c bcec 9638 7af2 8d3a 2943 8e3b
00000100: 410e f63b 032a be3b 2a85 453c 2ae7 083c
00000110: 7909 ba3b db19 40bb d0aa 4e3b 36e4 953a
00000120: bc83 6c3c 7101 ab3b 412d 363c ce52 163c
00000130: 68f0 833c a063 123b e2b8 3a3c ee2e 273c
00000140: 9698 9c3b 1786 97bb 6dea 3d3c 457e 473c
00000150: 5c95 e83a 5a88 e13b bfe7 c23b 60de 943a
00000160: 0c79 c63b 475b d83c 820f 923c 7de3 c83a
00000170: fac3 843b aa50 973b e5b9 8a3b e6c8 943a
00000180: b0a6 083b 7c07 433b ed57 913b 6393 a03b
00000190: aeaf a23b 4682 ed3b 8e3e c739 91ca 793b
000001a0: 974c 063b b9a9 9e3c 853e b83b 58d9 8c3a
000001b0: 6b44 443c f82c dd3b 0e34 173b d62d 1ebc
000001c0: cbd2 5bbb a432 653c 1515 1b3c ff13 873c
000001d0: f17d 5a3c 788e c63b 335d 6d3c 6d63 d9ba
000001e0: fa97 583c a14a 07bb ee18 973c 7beb 333c
000001f0: 09ae 6b3c 86b4 4abc 1eb8 7f3b 1d90 dcbb
00000200: 4839 283c 6a1f 863c 433d aa3b fa60 303c
00000210: 4765 3d3c c643 033c 53f1 033c df70 88bb
00000220: 42ce ed3b bb72 163c 320f 473c e96f c33c
00000230: 9702 253c 6d7b b83b 183e dfbb 0c56 e5bb
00000240: e12a 8abb f284 8d3c 34dd 8a3c 9001 043c
00000250: 2509 353c 8583 4b3b e254 013c e34a 5b3c
00000260: 10eb e53b b815 db3b fa76 ae3b 22b9 263c
00000270: 5143 133c 9f62 8e3c 8121 72bb 31e1 b53a
00000280: 0602 8d38 ef0a f33b 498d 98bb ebb4 893c
00000290: 7794 923b 3cf6 553c 3a9b 6e3c eec8 5e3c
000002a0: 7ae4 eaba ce94 6b3c 560f 493c fc94 a03c
000002b0: fe26 4f3c 52f3 e23b 5719 f0bb 892b 1e3c
000002c0: 90ff 2abb 7958 813c 81ab 4f3c dca1 f03b
000002d0: 7ea6 353c 2bb8 51ba 657a 843c 55ec a73b
000002e0: 14e5 853b 2527 0d3c d1cd 1e3b 330f 27bb
000002f0: b918 023b fe35 f73b 1c73 923c e315 343a
00000300: c964 d23b 4e90 553c e462 63bb 88e7 8e3b
00000310: 5c98 043b 7733 11bb 9dce 2f3c a3da 2a3c
00000320: 50f9 f03b e480 c33c 8c8a 173c 6ffa 673b
00000330: 2db4 133c 1610 263c 8905 573b ac56 45bb
00000340: 4d9c 2b3b b8a6 0b3d 67c3 debb f629 693c
00000350: 29d6 e0bb d348 cb3c eedc b83a ed56 3f3c
00000360: 7ca8 7e3b 3f37 243c f9cb 60bc a54b d83a
00000370: 6859 a33b 95f7 163b c73e 193c 12b0 2dbb
00000380: d260 85bb 3024 9f3b 7c9d 863a cd7f bebb
00000390: 0b38 643c aa8c 673c 900e ecbb eaf7 dcba
000003a0: 2620 95ba 918a 853b e934 aa3b 8f8c 463b
000003b0: 2f7c 9d3c 1545 ca3b af22 8c3a 04d4 a4bb
000003c0: 4223 583c 9445 9539 fc48 883b 27fc 2e3c
000003d0: fbad dbba e2c4 b4b6 e2d1 1c3c bfe8 573c
000003e0: 4e24 5fba a248 0f3c 32ea 9cbb d2df bf3b
000003f0: 50e8 0a3c 14ab 2d3c 1a1c bf3b 2c0f 5c3c

ablang_branch.1.weight f4 [256]
0.9868528 0.98692375 1.003531 0.96783835 1.0187868 0.9669834 1.0285801 0.97817475
0.97973454 0.970754 0.9835331 0.9998131 0.9920737 1.0117222 1.0166152 1.0404092
1.089268 0.9992292 0.99532694 0.91925883 0.99824256 0.9828745 1.0026919 0.9962069
1.0517064 0.98909056 1.0094335 0.9143435 1.0481528 0.96606165 1.0079073 0.92849463
0.9635532 1.0121932 1.0040858 0.9992545 1.0361367 1.0009811 1.0408344 1.0011572
1.0533478 0.9701676 0.98525727 1.0448263 0.981797 0.9698468 0.99529946 1.0303599
1.0060608 0.9714016 1.0058075 0.98933834 0.9867363 1.0064282 1.0049446 0.94892764
0.98393047 0.9507042 1.0407463 1.0179363 1.0403624 0.98610187 1.0289407 1.0157163
1.017523 0.95570856 1.0706679 1.0195012 0.9443404 0.97248214 1.02273 0.9863783
0.99571 1.0148853 1.0190929 1.0422841 1.0270859 0.98227376 0.9527899 1.0870578
0.95172065 0.9796023 0.98375905 1.1072258 1.0152053 0.9931487 1.0060011 0.9822917
1.0145354 0.956105 0.958796 1.0049254 0.9727118 1.024384 1.0027921 0.99686736
1.0078944 0.988784 1.0265836 1.0228153 0.9623697 0.9715301 0.97474915 1.0195051
1.0039945 1.039255 1.0029439 0.975119 1.0471885 0.98808783 0.9986753 0.98934555
0.97363925 0.9566996 1.0681384 1.0023783 1.0390687 1.0679917 1.017921 1.0661991
1.0997299 0.988909 1.0378895 0.9641049 1.070242 1.0179361 0.9507274 0.99624735
1.0147276 0.9652275 1.0019987 0.981097 1.0634397 1.018686 0.9804142 0.9421813
1.0087721 1.005759 1.0077733 1.086005 0.9889505 1.002487 0.9808914 1.0469352
0.8942611 0.97632325 0.9799659 0.97273034 1.01266 0.9720896 0.96524495 0.99250513
0.9738993 1.0139652 0.9707419 1.0454572 0.9892146 0.970149 1.00153 0.96045184
0.98356724 1.016505 1.0159565 0.9862426 1.0668755 1.011958 0.99474895 0.94893205
0.99708366 1.0558463 1.0021645 1.002028 1.0029937 0.95891935 0.98481685 1.0141673
0.98799694 0.976446 0.98368466 1.0002444 0.95212287 1.0387979 0.9812949 0.97539455
0.9499809 0.96731454 1.0145663 0.99504083 0.9999397 0.9153461 0.9952265 1.0366222
0.9656853 1.0043641 1.090221 0.9784188 0.9687374 1.0149496 1.0027213 0.9851271
0.9728976 1.0006956 0.9954592 0.9455245 0.94466025 0.96246135 0.983713 0.9619383
1.0646595 1.1129766 0.9888917 1.0132626 0.972119 1.0019717 1.0075531 1.0366955
0.93366957 0.9588121 1.0574632 0.98896396 0.9614198 0.9528894 0.96707916 1.0300736
0.99100906 0.9792615 1.0043464 0.9671926 1.0516583 1.0536621 0.9683147 1.0093337
1.0099217 0.98732406 0.9811945 0.97076577 1.0384963 1.0744736 0.9715802 1.0359795
0.99307257 0.9794827 1.0087564 1.0011721 0.99585587 0.9319266 1.0028346 1.0234989
0.99027133 1.0027915 0.9826379 0.98687005 1.0009662 1.0092177 0.9778363 1.0400674
00000000: 63a2 7c3f 09a7 7c3f b473 803f 41c4 773f
00000010: 9b67 823f 398c 773f 83a8 833f a969 7a3f
00000020: e2cf 7a3f 5683 783f d3c8 7b3f c0f3 7f3f
00000030: 8bf8 7d3f 1d80 813f 7220 823f 212c 853f
00000040: 226d 8b3f 7ccd 7f3f bfcd 7e3f 8c54 6b3f
00000050: d38c 7f3f aa9d 7b3f 3558 803f 6a07 7f3f
00000060: 519e 863f 0a35 7d3f 1e35 813f 6a12 6a3f
00000070: df29 863f d14f 773f 1b03 813f d3b1 6d3f
00000080: 6cab 763f 8c8f 813f e285 803f 25cf 7f3f
00000090: 21a0 843f 2620 803f 103a 853f eb25 803f
000000a0: 1ad4 863f e75c 783f d239 7c3f debc 853f
000000b0: 0c57 7b3f e147 783f f2cb 7e3f d5e2 833f
000000c0: 9ac6 803f c6ad 783f 4dbe 803f 4745 7d3f
000000d0: c09a 7c3f a4d2 803f 06a2 803f ecec 723f
000000e0: dee2 7b3f 5a61 733f 2d37 853f bd4b 823f
000000f0: 982a 853f 2c71 7c3f 54b4 833f fe02 823f
00000100: 323e 823f 51a9 743f a50b 893f 047f 823f
00000110: 4bc0 713f 97f4 783f d1e8 823f 4a83 7c3f
00000120: dae6 7e3f c3e7 813f a371 823f 9169 853f
00000130: 8d77 833f 4b76 7b3f 0aea 733f b624 8b3f
00000140: f7a3 733f 37c7 7a3f a2d7 7b3f 93b9 8d3f
00000150: 3ff2 813f fe3e 7e3f a5c4 803f 7877 7b3f
00000160: 4cdc 813f 4cc3 743f a873 753f 65a1 803f
00000170: a403 793f 041f 833f 7e5b 803f b332 7f3f
00000180: af02 813f f320 7d3f 1767 833f 9deb 823f
00000190: dc5d 763f 32b6 783f 2989 793f 257f 823f
000001a0: e482 803f 4f06 853f 7760 803f 66a1 793f
000001b0: 460a 863f 53f3 7c3f 2fa9 7f3f c045 7d3f
000001c0: 6c40 793f 44ea 743f c2b8 883f ef4d 803f
000001d0: 3400 853f f4b3 883f 3c4b 823f 3679 883f
000001e0: f3c3 8c3f 2429 7d3f 90d9 843f 94cf 763f
000001f0: b1fd 883f bb4b 823f df62 733f 110a 7f3f
00000200: 98e2 813f 2619 773f 7e41 803f 2c29 7b3f
00000210: cb1e 883f 4e64 823f 6dfc 7a3f cb32 713f
00000220: 721f 813f b6bc 803f b7fe 803f 3602 8b3f
00000230: dc2b 7d3f 7e51 803f b31b 7b3f f901 863f
00000240: 4cee 643f 52f0 793f 0cdf 7a3f db04 793f
00000250: d89e 813f ddda 783f 4b1a 773f d114 7e3f
00000260: 7751 793f 9dc9 813f 8b82 783f 8bd1 853f
00000270: 2b3d 7d3f af5b 783f 2332 803f 2ce0 753f
00000280: 10cb 7b3f d61c 823f dd0a 823f 657a 7c3f
00000290: 608f 883f d787 813f dea7 7e3f 36ed 723f
000002a0: e040 7f3f f925 873f ed46 803f 7442 803f
000002b0: 1962 803f bd7b 753f f51c 7c3f 3cd0 813f
000002c0: 5eed 7c3f 5df8 793f c2d2 7b3f 0208 803f
000002d0: 53be 733f 54f7 843f 2436 7b3f 75b3 793f
000002e0: f331 733f eda1 773f 4fdd 813f ffba 7e3f
000002f0: 0cfc 7f3f 1f54 6a3f 2ac7 7e3f 09b0 843f
00000300: 2737 773f 018f 803f 5d8c 8b3f a879 7a3f
00000310: 2dff 773f dee9 813f 2c59 803f 4a31 7c3f
00000320: d10f 793f cb16 803f 6ad6 7e3f e50d 723f
00000330: 41d5 713f de63 763f 9dd4 7b3f 9741 763f
00000340: c346 883f 0476 8e3f 0228 7d3f 97b2 813f
00000350: cadc 783f 9c40 803f 80f7 803f 70b2 843f
00000360: f804 6f3f b674 753f f45a 873f be2c 7d3f
00000370: 9c1f 763f 8ff0 733f 8092 773f 74d9 833f
00000380: c5b2 7d3f e2b0 7a3f 6c8e 803f ef99 773f
00000390: bd9c 863f 66de 863f 79e3 773f d931 813f
000003a0: 1d45 813f 45c1 7c3f 902f 7b3f 1b84 783f
000003b0: 72ed 843f 5a88 893f 7bb9 783f fa9a 843f
000003c0: 013a 7e3f 61bf 7a3f ee1e 813f 6826 803f
000003d0: 69f0 7e3f be92 6e3f e25c 803f 0302 833f
000003e0: 6c82 7d3f 795b 803f 288e 7b3f 84a3 7c3f
000003f0: a91f 803f 0c2e 813f 7b53 7a3f ee20 853f

ablang_branch.1.bias f4 [256]
-0.009560423 0.0006586284 -0.0073394086 -0.0026885364 0.0023666436 -0.02128267 -0.0030522943 -0.040388867
-0.0058449735 -0.013089382 -0.009025009 -0.057486378 -0.006439605 -0.0038356562 0.008458598 0.006871919
0.0013882259 0.0065235784 -0.021159455 -0.025103366 0.0037618312 -0.011182342 -0.069912866 -0.006539572
-0.05738794 -0.0069852984 -0.0010003537 -0.030485693 -0.004791663 -0.0013949233 -0.0019376705 -0.019412545
-0.0048346203 -0.0456237 0.0074264095 -0.034008313 0.010442418 -0.051430777 0.007945551 0.009908522
0.002097387 -0.034491763 0.0038488794 0.0058556492 -0.015205575 -0.020481372 -0.01829517 -0.050385598
-0.06724476 -0.0040856698 0.010997135 -0.04721811 -0.042159144 -0.001992187 -0.014349869 -0.02979551
-0.00026885956 -0.010198782 -0.030238723 -0.012675075 -0.007853695 -0.0006371212 -0.01706401 -0.0004839035
0.0019937302 -0.016466359 0.010198909 0.003877614 -0.02294003 -0.024652733 -0.07977369 -0.0058240364
0.0075776894 -0.021236084 0.005232994 0.00090481824 -0.015206743 -0.012031568 -0.021363022 -0.059399974
-0.024488233 -0.05240268 -0.002680593 0.0038629046 0.0009413694 -0.012648611 0.0041828053 -0.015457518
0.0022602363 -0.016532961 0.008806865 -0.002968624 -0.0057341876 -0.005272429 -0.00051410106 -0.010237851
0.0010952484 -0.011360997 -0.0011577705 0.00044006793 0.0031937065 -0.016225323 -0.03371795 -0.0009708433
-0.021110298 0.0022814088 -0.036273457 -0.05454851 0.0027858557 0.00076601084 -0.042395204 -0.014514917
-0.003929282 -0.012773197 -0.001660074 0.0012958354 0.016716264 0.006396319 0.014968268 -0.052911658
-0.0056122346 -0.0074870046 0.006267101 -0.030226927 0.00095953175 -0.009366909 -0.01904037 -0.011128675
0.00582828 -0.018039674 -0.022240832 -0.011852868 -0.000316312 -0.009941777 -0.008020227 -0.034163475
-0.0043457556 -0.025334202 -0.04808112 -0.00057188654 -0.030457772 0.0011789193 -0.047356114 -0.011625232
-0.034382038 -0.029445047 0.00425224 -0.012525236 0.0029556362 -0.0035380144 -0.016991138 0.005258614
-0.03792886 -0.0036765288 -0.017680774 0.0058135865 -0.0030733047 0.007949844 -0.0018159043 -0.035062633
-0.0028464224 -0.06321717 0.0008037245 0.00012654993 -0.04481287 0.010608432 -0.00035471193 -0.027051214
-0.014012821 0.008510013 0.011285615 0.018094877 0.00040840218 -0.0242064 -0.04984404 0.0031742468
-0.047290068 -0.0013229507 -0.002511778 -0.01752647 -0.00860342 -0.012926902 0.0025270393 -0.024555046
-0.031105215 -0.022947973 -0.009836614 -0.0008637507 -0.0060329423 -0.03101766 0.00967547 -0.008101273
-0.0069580856 0.0031852508 -0.00041052717 -0.0022369786 -0.043607954 -0.0014279959 -0.0039145695 0.0045119026
-0.012963759 0.018595701 0.003875482 -0.01587771 -0.013855071 -0.0063329786 -0.02231378 -0.033639222
-0.07408072 -0.01296559 -0.009595477 -0.0037032918 -0.05172211 0.012299586 0.0048102634 -0.0035973997
-0.022938248 -0.018968333 -0.0063210363 -0.015670978 -0.008395006 -0.05336738 0.001421921 0.005864891
-0.0069810906 -0.036775984 -0.0025335434 -0.025808116 0.00666819 0.0104978345 -0.037616704 -0.0028538336
0.00054238265 -0.0105532715 -0.08053262 -0.016796142 0.011880233 -0.0057086344 -0.013789263 -0.0584512
-0.004459902 -0.0014043718 0.0038730407 -0.01128981 0.0006337391 -0.041077733 0.004193108 0.0077633276
-0.007704016 0.0054004276 -0.020928556 -0.0066470364 -0.041203253 -0.005159306 -0.008218414 0.0035643685
00000000: 52a3 1cbc cea7 2c3a 6c7f f0bb 2832 30bb
00000010: b119 1b3b fe58 aebc 0009 48bb cc6e 25bd
00000020: 3187 bfbb d974 56bc a2dd 13bc d676 6bbd
00000030: 5203 d3bb a25f 7bbb ee95 0a3c d62d e13b
00000040: 22f5 b53a bec3 d53b 9856 adbc 93a5 cdbc
00000050: 0e89 763b 2436 37bc 7a2e 8fbd e849 d6bb
00000060: 9e0f 6bbd eee4 e4bb 4d1e 83ba 22bd f9bc
00000070: 6203 9dbb dcd5 b6ba 6ff9 fdba 0f07 9fbc
00000080: bc6b 9ebb ebdf 3abd 3d59 f33b 4d4c 0bbd
00000090: ad16 2b3c 14a9 52bd 0e2e 023c 5a57 223c
000000a0: 5174 093b 3c47 0dbd 7b3d 7c3b bfe0 bf3b
000000b0: ce20 79bc 8dc8 a7bc c1df 95bc 2161 4ebd
000000c0: 9fb7 89bd 15e1 85bb 542d 343c c767 41bd
000000d0: 11af 2cbd 5a8f 02bb b71b 6bbc b715 f4bc
000000e0: b8f5 8cb9 cb18 27bc 33b7 f7bc 1eab 4fbc
000000f0: c9ac 00bc 7b04 27ba d3c9 8bbc 6eb4 fdb9
00000100: 3ea9 023b 75e4 86bc 5319 273c 911f 7e3b
00000110: bbec bbbc 87f4 c9bc 6360 a3bd 8fd7 bebb
00000120: 444e f83b 4cf7 adbc 8979 ab3b 5331 6d3a
00000130: b425 79bc 0e20 45bc 8101 afbc 634d 73bd
00000140: 8c9b c8bc 31a4 56bd e3ac 2fbb c928 7d3b
00000150: 3bc6 763a 1f3c 4fbc ea0f 893b 8841 7dbc
00000160: 7920 143b 2270 87bc ab4a 103c 3f8d 42bb
00000170: dae5 bbbb 57c4 acbb bdc4 06ba a9bc 27bc
00000180: 708e 8f3a 7a23 3abc 55c0 97ba ebb8 e639
00000190: 814d 513b f8ea 84bc d51b 0abd 3180 7eba
000001a0: 81ef acbc b083 153b 7a93 14bd 426e 5fbd
000001b0: e792 363b 1ece 483a 98a6 2dbd f9cf 6dbc
000001c0: 35c1 80bb ac46 51bc d796 d9ba 05d9 a93a
000001d0: 8cf0 883c 3698 d13b 773d 753c e5b9 58bd
000001e0: d6e6 b7bb 8c55 f5bb 415c cd3b 769e f7bc
000001f0: 1689 7b3a aa77 19bc 8dfa 9bbc 0c55 36bc
00000200: 28fb be3b f0c7 93bc 6832 b6bc 8832 42bc
00000210: aed6 a5b9 d6e2 22bc 4567 03bc 00ef 0bbd
00000220: d766 8ebb ac89 cfbc b5f0 44bd a8ea 15ba
00000230: 9482 f9bc f885 9a3a 7cf8 41bd c277 3ebc
00000240: 2ed4 0cbd bd36 f1bc 6056 8b3b a636 4dbc
00000250: 59b3 413b 08de 67bb 0031 8bbc 7450 ac3b
00000260: 4b5b 1bbd ebf1 70bb 45d7 90bc e67f be3b
00000270: 7f69 49bb 1040 023c a303 eeba d69d 0fbd
00000280: 0b8b 3abb 0178 81bd 0ab1 523a 7db2 0439
00000290: b38d 37bd fdce 2d3c a1f8 b9b9 829a ddbc
000002a0: 0896 65bc 956d 0b3c 4de7 383c b53b 943c
000002b0: d01e d639 804c c6bc 4429 4cbd 0607 503b
000002c0: 3bb3 41bd dc66 adba a49c 24bb ac93 8fbc
000002d0: 5cf5 0cbc 5bcb 53bc af9c 253b aa27 c9bc
000002e0: 5dd0 febc 63fd bbbc c029 21bc 546d 62ba
000002f0: fdaf c5bb bf18 febc dd85 1e3c 34bb 04bc
00000300: a700 e4bb a4bf 503b 063c d7b9 469a 12bb
00000310: 419e 32bd 972b bbba ca45 80bb 95d8 933b
00000320: f265 54bc 0356 983c ccfb 7d3b f911 82bc
00000330: 6100 63bc e084 cfbb 63cb b6bc 48c9 09bd
00000340: a2b7 97bd a06d 54bc 5936 1dbc edb2 72bb
00000350: 90da 53bd 3484 493c 6a9f 9d3b 5ac2 6bbb
00000360: fee8 bbbc 7a63 9bbc b220 cfbb 6c60 80bc
00000370: 358b 09bc c197 5abd c05f ba3a 462e c03b
00000380: a2c1 e4bb 6aa2 16bd ce09 26bb 8b6b d3bc
00000390: d580 da3b 1cff 2b3c f913 1abd 6207 3bbb
000003a0: af2e 0e3a a1e7 2cbc 49ee a4bd 1098 89bc
000003b0: 4fa5 423c 7f0f bbbb 5cec 61bc 876a 6fbd
000003c0: 5f24 92bb e612 b8ba d7d2 7d3b e5f8 38bc
000003d0: 8321 263a 2041 28bd 5766 893b 8363 fe3b
000003e0: f871 fcbb 12f6 b03b 5d72 abbc 62cf d9bb
000003f0: bec4 28bd 650f a9bb 87a6 06bc 2e98 693b

ablang_branch.4.weight f4 [128, 256]
0.1316177 0.16993858 0.059147127 0.098181136 0.15270828 -0.05295156 -0.15075158 0.04137497
0.005097026 0.0126040885 0.0943021 -0.031033525 0.036466595 0.068733074 0.114142135 -0.047685284
-0.11483652 -0.019152528 0.025994064 -0.09170773 0.041541293 0.005716103 0.01629969 -0.008121104
0.0684763 0.013889278 -0.05816831 -0.10284486 -0.002539993 -0.03378349 0.10980615 -0.04432637
-0.0030742502 0.07255083 0.18113881 0.060422096 0.03901171 -0.0058484194 -0.111016765 -0.08605311
-0.044649016 -0.10811086 -0.0391239 0.13462019 -0.14904508 0.03042836 -0.037891023 -0.07978068
-0.04825607 0.09604255 -0.023219422 -0.013829645 0.00016693161 0.12625286 -0.019349165 -0.07186246
0.18937252 -0.046528544 -0.021110686 -0.026522031 -0.07158703 -0.11570766 -0.079720706 -0.012630259
-0.1315229 0.120127276 0.0032649075 0.022900058 -0.033171933 -0.12707983 0.034003373 0.13362534
0.1279886 -0.13562667 -0.07031626 0.017908853 -0.015376611 -0.07515102 -0.07532381 0.073013075
-0.08925373 -0.034579314 -0.018521568 0.052614912 0.15315342 0.032537285 0.13773 0.018028205
0.086789824 -0.011500241 0.05368877 0.005286707 0.0533879 0.017212847 0.0045831148 0.056158956
0.050033987 -0.110960655 0.13955775 -0.020169122 0.04388118 0.04092624 -0.12018897 0.105158806
-0.018560614 -0.07428918 -0.15354463 0.0675396 -0.009059125 -0.059630554 -0.027494244 0.027565792
0.037497956 -0.16950177 0.04479968 -0.002505606 -0.06103145 -0.07705265 -0.19831328 0.08614825
0.08344509 -0.05713823 -0.09276975 0.09944292 0.016394455 0.1062568 -0.1316259 -0.028138053
-0.0016696993 -0.026561262 0.039362118 0.027373452 -0.01582645 -0.060512576 -0.19182909 0.0024254874
0.06544039 0.019814461 -0.038859796 0.048323404 0.03924939 -0.050775535 0.10560021 0.069868706
0.017190725 -0.04511246 -0.007917696 -0.026620885 -0.0249361 -0.05676673 0.048513584 -0.09594144
-0.07140616 -0.04443607 0.118744574 -0.050296903 -0.04479708 -0.19972762 -0.022534994 -0.032174103
0.14270642 0.049631793 0.09295611 -0.21118781 -0.037268642 0.0048138653 -0.052579287 0.0054462696
0.008137533 -0.13823006 -0.026423363 -0.03394376 -0.08626818 -0.0034773364 0.03499985 -0.014186018
0.077660635 0.07557765 0.08734433 -0.045650687 -0.19989713 0.038885597 0.02784685 0.10991254
-0.03671531 0.0163526 -0.11323812 -0.20681186 0.054127946 0.11923849 0.05747777 0.10990055
-0.063694134 0.041644983 -0.03194056 -0.058227066 -0.029926801 0.010532226 0.03335551 0.06698465
-0.024719905 -0.022376789 0.06791825 0.03220481 -0.18365848 -0.16930749 -0.030604258 -0.059816286
-0.20944075 -0.014237558 0.012524399 -0.15532441 -0.13156597 0.0017491084 0.06993732 0.0065830722
0.13711101 -0.081338376 -0.15364362 0.053942945 -0.007903813 0.08076882 -0.13175133 0.12853405
0.11851566 -0.049704876 0.022586666 -0.026998961 -0.066025905 -0.15716991 -0.16072176 0.020293083
0.18245406 0.12970276 -0.058014654 0.119941756 -0.100390516 0.12667145 -0.06905932 0.13802245
0.07822422 -0.048874743 0.28296894 0.09366562 0.009343597 -0.19675136 0.07940312 0.042525258
0.028613355 0.05521777 -0.11592159 0.0065545784 -0.07690913 0.069741674 -0.073170744 -0.102392666
00000000: cac6 063e 6104 2e3e 4244 723d 3113 c93d
00000010: 8f5f 1c3e bce3 58bd 9f5e 1abe cd78 293d
00000020: f404 a73b 6181 4e3c 7621 c13d 053a febc
00000030: ff5d 153d edc3 8c3d 5ac3 e93d a551 43bd
00000040: 692f ebbd c3e5 9cbc 81f1 d43c 43d1 bbbd
00000050: 3427 2a3d 264e bb3b ed86 853c 610e 05bc
00000060: 4d3d 8c3d db8f 633c e541 6ebd 53a0 d2bd
00000070: 0376 26bb 8f60 0abd 0ce2 e03d 918f 35bd
00000080: 5c79 49bb 8895 943d 747c 393e 297d 773d
00000090: beca 1f3d 19a4 bfbb c25c e3bd 9d3c b0bd
000000a0: e3e1 36bd 3a69 ddbd 6240 20bd e0d9 093e
000000b0: 469f 18be e544 f93c 9e33 1bbd 0e64 a3bd
000000c0: 28a8 45bd f5b1 c43d a836 bebc bc95 62bc
000000d0: 5d0a 2f39 6e48 013e 2482 9ebc a02c 93bd
000000e0: dfea 413e b794 3ebd 51f0 acbc bb44 d9bc
000000f0: 399c 92bd 23f8 ecbd 9c44 a3bd 25ef 4ebc
00000100: f0ad 06be 4a05 f63d 0ff8 553b e798 bb3c
00000110: 4bdf 07bd 3721 02be 1f47 0b3d 15d5 083e
00000120: 720f 033e b8e1 0abe f901 90bd 96b5 923c
00000130: 2eee 7bbc c7e8 99bd 5f43 9abd e187 953d
00000140: a9ca b6bd 0aa3 0dbd 8bba 97bc bc82 573d
00000150: 40d4 1c3e d145 053d 1809 0d3e e3af 933c
00000160: ddbe b13d 826b 3cbc c1e8 5b3d 1d3c ad3b
00000170: 45ad 5a3d f501 8d3c f42d 963b ef06 663d
00000180: 70f0 4c3d 573f e3bd 3ae8 0e3e b739 a5bc
00000190: c1bc 333d 46a2 273d a225 f6bd 805d d73d
000001a0: 6e0c 98bc ed24 98bd ce3a 1dbe 3452 8a3d
000001b0: b96c 14bc 2b3f 74bd 9c3b e1bc a8d1 e13c
000001c0: 7597 193d df91 2dbe df7f 373d 1835 24bb
000001d0: 1dfc 79bd c8cd 9dbd a312 4bbe 7e6e b03d
000001e0: 42e5 aa3d c709 6abd 11fe bdbd bba8 cb3d
000001f0: aa4d 863c 2a9d d93d f1c8 06be c681 e6bc
00000200: d0d9 daba 0197 d9bc 2c3a 213d 4a3e e03c
00000210: 79a6 81bc 09dc 77bd d86e 44be edf4 1e3b
00000220: 9c05 863d f051 a23c 732b 1fbd c3ee 453d
00000230: f8c3 203d 02fa 4fbd ec44 d83d 5317 8f3d
00000240: 90d3 8c3c d8c7 38bd 39b9 01bc 0b14 dabc
00000250: cb46 ccbc 3b84 68bd 2eb6 463d f27c c4bd
00000260: 653d 92bd 9902 36bd 5b30 f33d 2004 4ebd
00000270: 257d 37bd 6685 4cbe 4f9b b8bc fec8 03bd
00000280: a221 123e b54a 4b3d c65f be3d 9e41 58be
00000290: 01a7 18bd a1bd 9d3b 615d 57bd 9f76 b23b
000002a0: 4a53 053c 2e8c 0dbe cf75 d8bc 9d08 0bbd
000002b0: 5fad b0bd 06e4 63bb 015c 0f3d 796c 68bc
000002c0: 8a0c 9f3d 74c8 9a3d 96e1 b23d 37fc 3abd
000002d0: d5b1 4cbe 8146 1f3d 141f e43c d319 e13d
000002e0: cb62 16bd e3f5 853c 63e9 e7bd 7dc6 53be
000002f0: 44b5 5d3d 4f33 f43d cf6d 6b3d 8a13 e13d
00000300: 1272 82bd ee93 2a3d 1bd4 02bd 817f 6ebd
00000310: 0d29 f5bc 5c8f 2c3c ca9f 083d 402f 893d
00000320: 6681 cabc 874f b7bc b918 8b3d 31e9 033d
00000330: f810 3cbe f15e 2dbe c8b5 fabc ec01 75bd
00000340: a377 56be a544 69bc 2333 4d3c 5d0d 1fbe
00000350: 3bb9 06be 5742 e53a 4c3b 8f3d d0b6 d73b
00000360: d466 0c3e bc94 a6bd c154 1dbe 47f3 5c3d
00000370: ff7e 01bc 206a a53d d2e9 06be 6e9e 033e
00000380: 57b8 f23d 5797 4bbd ac07 b93c ed2c ddbc
00000390: 9738 87bd 26f1 20be 3f94 24be ae3d a63c
000003a0: 3dd5 3a3e cdd0 043e c6a0 6dbd 06a4 f53d
000003b0: 8b99 cdbd 29b6 013e f96e 8dbd c255 0d3e
000003c0: 0534 a03d e230 48bd 4ee1 903e c3d3 bf3d
000003d0: e315 193c 3079 49be 1a9e a23d f72e 2e3d
000003e0: 8e66 ea3c 072c 623d 4c68 edbd cac7 d63b
000003f0: 8982 9dbd b9d4 8e3d 8bda 95bd 3fb3 d1bd

ablang_branch.4.bias f4 [128]
0.02644107 -0.013626503 -0.013864348 -0.041953575 0.0048443014 -0.035956725 0.0057850764 -0.018407084
0.0027701857 -0.0010862008 -0.00014018464 -0.024835285 0.005413711 -0.0063231504 0.005776301 -0.003928009
-0.03952165 0.007494098 0.0080706 0.029721979 0.013315076 0.013523242 0.021865407 0.009314229
-0.018327877 -0.019830044 0.0044718743 0.009951905 0.017948717 0.015530682 0.0049160933 0.005816036
-0.049862023 0.002247826 0.008930007 0.014401642 -0.030279098 0.019075144 -0.04507768 0.027783044
0.004002755 -0.010479859 -0.0481046 -0.019789983 0.00026439893 -0.029808322 -0.010258204 -0.0072368565
-0.04364899 -0.0028132752 -0.023934014 0.02147967 -0.005773327 0.016597403 0.007999223 0.008444036
-0.01074013 0.035353813 0.017906567 0.0016339354 0.0030316692 -0.017664474 -0.03160583 0.017690182
0.011301052 0.052289452 0.023370756 -0.024928253 -0.0393779 -0.015863439 -0.024895918 -0.0115399705
-0.025666805 -0.024927476 0.010506258 -0.04878705 0.033192452 -0.021293335 -0.018344663 -0.020821184
-0.011949771 0.057107322 -0.012168345 0.013264455 0.02060378 0.019746725 -0.012190233 -0.03133627
-0.0028872015 0.008443352 -0.032784317 -0.01567505 0.027136914 0.011002951 -0.015514354 -0.04231033
-0.00048372036 -0.017123953 -0.00014304479 -0.0022647094 0.00895308 0.016156867 -0.019023217 -0.025759466
0.0049828854 0.012278164 0.0032102442 -0.034283906 -0.0037479757 0.018575782 -0.013915082 0.012203662
-0.049578257 -0.005798595 0.0020763963 0.028034618 -0.010019423 0.012674752 0.011113648 0.024384152
-0.017089253 -0.0014156357 -0.013155303 0.016285073 -0.032627612 0.022944989 -0.0209089 -0.002777001
00000000: f19a d83c b241 5fbc 4a27 63bc 83d7 2bbd
00000010: f2bc 9e3b 5c47 13bd bd90 bd3b 74ca 96bc
00000020: 018c 353b da5e 8eba 87fe 12b9 5e73 cbbc
00000030: 8065 b13b 6e32 cfbb 2047 bd3b 87b6 80bb
00000040: 74e1 21bd 0d91 f53b 8d3a 043c 827b f33c
00000050: 7a27 5a3c 9790 5d3c 151f b33c b59a 183c
00000060: 5824 96bc 9e72 a2bc cd88 923b 510d 233c
00000070: 3009 933c 6774 7e3c 2e17 a13b 7294 be3b
00000080: 1f3c 4cbd 4350 133b 2a4f 123c ddf4 6b3c
00000090: df0b f8bc 7a43 9c3c 60a3 38bd 4499 e33c
000000a0: 8b29 833b b7b3 2bbc 5409 45bd 9a1e a2bc
000000b0: 069f 8a39 9530 f4bc 0712 28bc 2723 edbb
000000c0: 49c9 32bd ed5e 38bb 4411 c4bc 22f6 af3c
000000d0: 2d2e bdbb 47f7 873c 2c0f 033c db58 0a3c
000000e0: 5ff7 2fbc 29cf 103d cbb0 923c c629 d63a
000000f0: f8ae 463b 16b5 90bc 1d75 01bd 00eb 903c
00000100: 0c28 393c 772d 563d 0774 bf3c 5636 ccbc
00000110: b94a 21bd 0bf4 81bc 86f2 cbbc 2512 3dbc
00000120: 3143 d2bc b534 ccbc 7122 2c3c eed4 47bd
00000130: cff4 073d 5c6f aebc 8c47 96bc 3091 aabc
00000140: f9c8 43bc 5ee9 693d bd5d 47bc 2853 593c
00000150: 42c9 a83c e2c3 a13c 8bb9 47bc 765a 00bd
00000160: 3437 3dbb fc55 0a3c d948 06bd f668 80bc
00000170: 3c4e de3c b945 343c eb2f 7ebc 994d 2dbd
00000180: d99b fdb9 8847 8cbc 4bfe 15b9 856b 14bb
00000190: f0af 123c 685b 843c 94d6 9bbc 8405 d3bc
000001a0: 7947 a33b 5a2a 493c f662 523b 486d 0cbd
000001b0: 99a0 75bb 3d2c 983c 16fc 63bc def1 473c
000001c0: 9212 4bbd 2402 bebb 2614 083b dba8 e53c
000001d0: 8228 24bc c3a9 4f3c 0516 363c 46c1 c73c
000001e0: c3fe 8bbc da8c b9ba 5789 57bc 4668 853c
000001f0: 88a4 05bd 21f7 bb3c 2449 abbc 58fe 35bb

ablang_branch.5.weight f4 [128]
1.0298095 0.9794067 0.95741755 0.9600568 0.9977224 0.9871609 1.0104012 0.97978127
0.9988605 0.9590995 0.9953082 0.95415956 0.9938735 0.9838473 1.011587 1.0024918
1.003282 0.9916277 0.9864045 1.0420451 1.0161703 1.0148289 0.992433 0.9528997
0.9564644 0.9629938 0.98725617 1.0014689 0.9859236 0.99907255 0.9855009 0.9801662
1.011437 0.99542665 1.0004897 1.0102994 0.9604546 1.0028133 0.96563035 1.0023953
0.97263163 1.0022936 1.0387061 0.9702913 1.0006088 1.0006185 0.96464413 0.95908225
1.006771 0.9794991 0.9786794 1.0301195 0.98194844 1.0131791 1.0019655 1.0039988
0.9970272 1.0328 1.0030721 0.9870534 0.9757684 0.9652254 0.9933918 1.0019102
1.0264422 1.0368394 1.0368164 0.97245276 1.0004292 0.9625732 0.95359486 0.9800957
0.98476267 0.9679255 1.011067 0.9621379 1.0276881 0.9876601 0.9945945 0.97890705
0.9850359 1.0439104 0.9725852 1.0186595 1.0068207 1.0103296 0.96853054 0.97605705
0.99547607 1.018325 0.98914075 0.94570917 1.0299805 1.0119213 0.9859272 0.9964599
0.97129273 0.9964116 0.99557555 1.0046785 1.009662 1.0079312 0.95289546 0.98161817
1.0089087 0.9922509 0.9978214 0.96697253 0.9897287 1.0229611 0.9790471 1.0075537
1.0145396 0.9812811 1.0025715 1.0437623 0.98934543 1.0149057 0.96024406 1.0309408
0.96709406 0.96361244 0.97658587 0.9962059 0.9784006 1.0044152 0.98704904 0.97777927
00000000: ccd0 833f 66ba 7a3f 5119 753f 48c6 753f
00000010: bc6a 7f3f 94b6 7c3f d454 813f f2d2 7a3f
00000020: 52b5 7f3f 8b87 753f 85cc 7e3f cd43 743f
00000030: 7e6e 7e3f 6bdd 7b3f af7b 813f a751 803f
00000040: 8b6b 803f 50db 7d3f 0185 7c3f bc61 853f
00000050: de11 823f eae5 813f 1710 7e3f 3cf1 733f
00000060: dada 743f c386 763f d2bc 7c3f 2230 803f
00000070: 7d65 7c3f 38c3 7f3f c949 7c3f 2cec 7a3f
00000080: c576 813f 48d4 7e3f 0c10 803f 7e51 813f
00000090: 5ae0 753f 305c 803f 8d33 773f 7d4e 803f
000000a0: 63fe 783f 284b 803f 52f4 843f 0365 783f
000000b0: f313 803f 4414 803f ebf2 763f 6a86 753f
000000c0: dfdd 803f 74c0 7a3f bc8a 7a3f f5da 833f
000000d0: f960 7b3f daaf 813f 6840 803f 0883 803f
000000e0: 2d3d 7f3f ca32 843f ab64 803f 88af 7c3f
000000f0: f5cb 793f 0319 773f ed4e 7e3f 983e 803f
00000100: 7562 833f 27b7 843f 66b6 843f aaf2 783f
00000110: 100e 803f 326b 763f cb1e 743f 8de7 7a3f
00000120: 6819 7c3f f7c9 773f a56a 813f ab4e 763f
00000130: 498b 833f 4bd7 7c3f bf9d 7e3f a799 7a3f
00000140: 502b 7c3f db9e 853f 58fb 783f 6f63 823f
00000150: 80df 803f 7b52 813f 9ef1 773f e0de 793f
00000160: 85d7 7e3f 7958 823f 5438 7d3f ff19 723f
00000170: 67d6 833f a386 813f ba65 7c3f ff17 7f3f
00000180: a4a6 783f d514 7f3f 0ade 7e3f 4e99 803f
00000190: 9b3c 813f e403 813f f5f0 733f 544b 7b3f
000001a0: ec23 813f 2804 7e3f 3971 7f3f 838b 773f
000001b0: dc5e 7d3f 64f0 823f d5a2 7a3f 85f7 803f
000001c0: 6fdc 813f 3d35 7b3f 4354 803f 019a 853f
000001d0: be45 7d3f 6ee8 813f 8ed2 753f def5 833f
000001e0: 7a93 773f 4eaf 763f 8801 7a3f 5a07 7f3f
000001f0: 7678 7a3f ad90 803f 3faf 7c3f be4f 7a3f

ablang_branch.5.bias f4 [128]
0.026786108 -0.017376876 -0.016297223 -0.044973902 0.001233262 -0.043520425 0.0104619395 -0.023462595
1.8323044e-05 -0.002021028 0.00091867696 -0.031155126 0.0030340105 -0.010004468 -0.00065934146 -0.003742153
-0.04137725 0.0078058857 0.0053880555 0.035622373 0.009806736 0.01567723 0.02102756 0.004867967
-0.018298008 -0.023546662 -0.0009852197 0.008025219 0.022586284 0.0137701575 0.004894121 0.0042485404
-0.046668194 0.0010180728 0.005595458 0.010892499 -0.03314815 0.023326626 -0.04562238 0.030347943
0.0050664297 -0.015351247 -0.03806666 -0.021539826 0.00050245534 -0.024545476 -0.013436353 0.001583043
-0.045530308 0.00010604116 -0.018904837 0.022393942 -0.005198288 0.014666187 0.010904092 0.012286137
-0.010260439 0.038117 0.014885694 -0.0016903528 0.0026457026 -0.023651613 -0.033116065 0.013127344
0.00690289 0.045723308 0.022762885 -0.023371458 -0.027175806 -0.0133618135 -0.02620419 -0.0056209085
-0.026241098 -0.028792609 0.0059163217 -0.05137324 0.03380644 -0.021351041 -0.017078508 -0.021069149
-0.017080255 0.060935877 -0.014511591 0.0064838044 0.016663047 0.019555848 -0.015417486 -0.0320625
-0.006496364 0.0073133674 -0.032302126 -0.016572325 0.020279404 0.0056944774 -0.015900245 -0.045655865
-0.0029096953 -0.023432057 -0.00081996305 -0.0021049418 0.009380485 0.012622871 -0.021416409 -0.02810387
0.0055755605 0.008874066 0.006534221 -0.033749018 -0.008573255 0.019679641 -0.011984768 0.015236961
-0.04613669 -0.0077964417 0.0024291917 0.029865164 -0.011597236 0.0065514673 0.011025576 0.021181475
-0.009827996 -0.0016119677 -0.0132477125 0.012560155 -0.035449546 0.026380556 -0.016793815 -0.0022347933
00000000: 8a6e db3c f359 8ebc c181 85bc 8e36 38bd
00000010: 68a5 a13a 7942 32bd 8e68 2b3c a134 c0bc
00000020: 70b4 9937 3973 04bb 5ed3 703a 0939 ffbc
00000030: 40d6 463b c8e9 23bc a8d7 2cba e93e 75bb
00000040: 317b 29bd 84c8 ff3b 498e b03b c4e8 113d
00000050: 6fac 203c 896d 803c fd41 ac3c 7883 9f3b
00000060: b4e5 95bc eee4 c0bc 7d22 81ba 357c 033c
00000070: df06 b93c 3a9c 613c dd5e a03b 5737 8b3b
00000080: 2627 3fbd db70 853a 1b5a b73b 7476 323c
00000090: 5bc6 07bd 7b17 bf3c 88de 3abd 409c f83c
000000a0: 4b04 a63b cc83 7bbc c9eb 1bbd 4a74 b0bc
000000b0: 35b7 033a 9813 c9bc 2624 5cbc 1c7e cf3a
000000c0: fd7d 3abd 6a62 de38 51de 9abc 8073 b73c
000000d0: 6656 aabb 724a 703c 14a7 323c cb4b 493c
000000e0: 661b 28bc 9220 1c3d 20e3 733c d48e ddba
000000f0: 8663 2d3b 07c1 c1bc b6a4 07bd 1214 573c
00000100: a331 e23b 5d48 3b3d 3b79 ba3c 8075 bfbc
00000110: cc9f debc 82eb 5abc 2baa d6bc 992f b8bb
00000120: 92f7 d6bc 7ade ebbc b4dd c13b bf6c 52bd
00000130: 9f78 0a3d 61e8 aebc 3ae8 8bbc 3599 acbc
00000140: e4eb 8bbc e697 793d 06c2 6dbc 1876 d43b
00000150: f180 883c 9633 a03c a099 7cbc f853 03bd
00000160: 73df d4bb f9a4 ef3b 3c4f 04bd afc2 87bc
00000170: fe20 a63c bd98 ba3b 3b41 82bc a501 3bbd
00000180: 96b0 3ebb 96f4 bfbc caf2 56ba 10f3 09bb
00000190: 9bb0 193c 29d0 4e3c 7771 afbc 163a e6bc
000001a0: 31b3 b63b 8864 113c 051d d63b 693c 0abd
000001b0: d676 0cbc 3337 a13c c35b 44bc 72a4 793c
000001c0: d3f9 3cbd 4b79 ffbb 1333 1f3b caa7 f43c
000001d0: 5502 3ebc b1ad d63b 9ea4 343c c684 ad3c
000001e0: 9a05 21bc a948 d3ba ef0c 59bc 1cc9 4d3c
000001f0: 8b33 11bd 091c d83c 2f93 89bc 9c75 12bb

ablang_branch.8.weight f4 [64, 128]
-0.071512364 0.14326993 -0.027248528 0.033166293 -0.14937358 -0.105872974 -0.059899595 0.08086761
-0.007679605 -0.087308936 -0.15115626 -0.017743733 0.018349016 0.031815007 -0.015346304 0.07198733
-0.026891313 0.064794175 -0.22900335 0.15465897 0.046172865 -0.014534937 -0.16166389 0.09652321
-0.0137169 -0.020007418 0.08804468 -0.05881818 -0.079991214 0.107713915 -0.2840199 0.0268836
0.033521097 -0.13125786 0.09626553 0.03044071 0.1177237 0.09069829 0.0184558 0.196995
-0.048361465 0.091206074 -0.14854476 0.15791775 0.1217756 0.062406138 -0.034630857 -0.10005787
-0.06623003 0.074610196 -0.043710742 0.11838223 0.15299183 0.102667406 0.015634736 0.0600791
0.39340934 -0.06900875 -0.30513367 0.10363636 0.13881151 -0.315385 0.15866297 -0.17163627
-0.042177387 -0.12092921 -0.26740274 0.011842606 0.116577156 0.11071142 -0.03930107 0.017598704
-0.026286941 0.036598194 -0.2211273 -0.13320433 0.02604637 0.17924468 0.054581027 0.042343006
0.067036115 -0.026003782 -0.2580849 0.021508206 -0.18544212 -0.092399985 -0.1893004 -0.01774982
-0.01963085 -0.16970097 -0.12163986 -0.1673027 -0.004579114 0.009068553 0.05284799 -0.0031570108
-0.104900174 0.037553154 -0.058132064 -0.1259413 0.20943238 -0.07840626 -0.050452113 0.025792953
-0.022472166 -0.10348765 -0.08615785 -0.07570029 0.14772998 0.12838398 0.058908902 0.08173763
-0.006497657 0.09239102 -0.059612256 0.16136618 -0.1586304 -0.0868133 0.10291081 -0.12487321
-0.016300712 -0.00071650365 0.041906506 0.03267944 0.13167584 -0.0638411 -0.004267338 -0.2273546
0.16644259 0.115402244 -0.082376815 0.032001883 -0.16303858 0.22005081 0.020659052 0.00015573404
0.005405007 0.033031438 0.15580425 -0.15091717 0.095648095 -0.054685254 0.10061166 0.19980413
0.0057650977 0.0559035 -0.004816279 0.044281606 -0.065005735 -0.026195193 0.04560586 0.21441674
-0.07579993 0.0016167541 0.18275602 -0.16358611 0.04118731 0.07370213 0.061200466 0.038541276
0.0941928 0.1655538 -0.029566294 0.035641424 -0.03881488 -0.05765992 -0.036341432 0.08749896
0.15347728 -0.16135712 0.0024153478 -0.07544134 0.06665018 0.036890175 0.02973998 -0.049446885
0.064809114 -0.002326634 0.042104304 -0.09277756 0.05719729 0.03680513 0.09223941 -0.016838903
-0.11795819 0.17488658 0.051758666 0.0670042 -0.16308999 0.10321993 0.026942635 0.18774554
0.06771243 -0.039949086 0.156328 -0.15017511 -0.09881162 -0.07080769 -0.051940884 0.15945064
-0.086743124 -0.12177634 -0.24965161 0.040463254 0.055820134 -0.0081359865 -0.19621453 -0.045214277
-0.011281944 0.03684219 0.048377912 -0.14071262 0.19278817 -0.015031549 -0.012443019 -0.005831005
-0.04388913 -0.092419 0.068931155 -0.21928997 0.19398248 -0.025430217 -0.24596255 -0.05993348
0.09538518 -0.11813899 0.15772429 0.15834719 0.20198828 -0.013090986 0.17804556 -0.102873325
0.030470587 0.15098888 0.23925582 0.06809617 -0.051961586 -0.09563762 -0.19928743 0.01857493
0.12577668 -0.2611384 0.07158209 0.03169224 -0.028905505 0.10617124 -0.14262386 0.070202604
-0.026573047 -0.06664733 0.14466853 0.13483159 -0.03668454 -0.02478571 -0.1287093 -0.044750832
00000000: 1375 92bd 5ab5 123e 4e38 dfbc 61d9 073d
00000010: 63f5 18be eed3 d8bd 4759 75bd eb9d a53d
00000020: 32a5 fbbb 07cf b2bd b5c8 1abe 4e5b 91bc
00000030: ad50 963c 7450 023d 106f 7bbc 186e 933d
00000040: 2c4b dcbc cfb2 843d db7f 6abe ec5e 1e3e
00000050: c21f 3d3d f223 6ebc 388b 25be f6ad c53d
00000060: d9bc 60bc 99e6 a3bc c550 b43d 55eb 70bd
00000070: 6fd2 a3bd 1d99 dc3d 0e6b 91be ff3a dc3c
00000080: 6b4d 093d 7668 06be dd26 c53d cc5e f93c
00000090: 2019 f13d 06c0 b93d 9e30 973c 0fb9 493e
000000a0: ac16 46bd 40ca ba3d 1e1c 18be 31b5 213e
000000b0: 7c65 f93d 949d 7f3d 16d9 0dbd 24eb ccbd
000000c0: 9ca3 87bd 3bcd 983d 090a 33bd 6272 f23d
000000d0: e4a9 1c3e 4a43 d23d 6b14 803c 8115 763d
000000e0: f36c c93e 7654 8dbd 7b3a 9cbe 4d3f d43d
000000f0: 9b24 0e3e 257a a1be 8c78 223e 6bc1 2fbe
00000100: 32c2 2cbd bca9 f7bd 03e9 88be 7d07 423c
00000110: 01c0 ee3d abbc e23d 29fa 20bd 282b 903c
00000120: b657 d7bc fde7 153d 326f 62be b766 08be
00000130: 325f d53c eb8b 373e 5b90 5f3d dc6f 2d3d
00000140: 3b4a 893d e205 d5bc b423 84be fa31 b03c
00000150: 8ae4 3dbe 343c bdbd f7d7 41be 1268 91bc
00000160: e0d0 a0bc 17c6 2dbe 521e f9bd 6651 2bbe
00000170: 640c 96bb 4594 143c 2277 583d dae5 4ebb
00000180: e7d5 d6bd 56d1 193d e31b 6ebd c2f6 00be
00000190: 7175 563e 7693 a0bd e0a6 4ebd be4b d33c
000001a0: 8c17 b8bc 55f1 d3bd 8773 b0bd c108 9bbd
000001b0: 8746 173e 1777 033e 764a 713d 0f66 a73d
000001c0: 4cea d4bb 8137 bd3d fb2b 74bd 2d3d 253e
000001d0: 0270 22be 2ccb b1bd e7c2 d23d 87bd ffbd
000001e0: 1289 85bc bfd3 3bba 28a6 2b3d e0da 053d
000001f0: 08d6 063e 1fbf 82bd 07d5 8bbb a5cf 68be
00000200: ed6f 2a3e 0358 ec3d 2db5 a8bd 6814 033d
00000210: 96f3 26be 0055 613e 2c3d a93c 8a4c 2339
00000220: 7c1c b13b f94b 073d 268b 1f3e 088a 1abe
00000230: 26e3 c33d a5fd 5fbd 7c0d ce3d 7499 4c3e
00000240: 25e9 bc3b 12fb 643d e0d1 9dbb a160 353d
00000250: ba21 85bd 4d97 d6bc 36cd 3a3d 1090 5b3e
00000260: fe3c 9bbd 44e9 d33a 6524 3b3e 1e83 27be
00000270: 06b4 283d 24f1 963d 57ad 7a3d 75dd 1d3d
00000280: 28e8 c03d ef86 293e 0335 f2bc befc 113d
00000290: 5afc 1ebd cf2c 6cbd c1da 14bd a832 b33d
000002a0: 2629 1d3e cd3a 25be d04a 1e3b fd80 9abd
000002b0: e47f 883d 271a 173d 42a1 f33c d188 4abd
000002c0: a4ba 843d 717a 18bb 9075 2c3d 2902 bebd
000002d0: b547 6a3d fac0 163d 04e8 bc3d bdf1 89bc
000002e0: 1094 f1bd 7815 333e e500 543d 7f39 893d
000002f0: 1001 27be f864 d33d cdb6 dc3c 5e40 403e
00000300: d1ac 8a3d a7a1 23bd 7214 203e 81c7 19be
00000310: bf5d cabd 9f03 91bd f7bf 54bd 0747 233e
00000320: 61a6 b1bd e065 f9bd aca4 7fbe ccbc 253d
00000330: a7a3 643d cd4c 05bc 76ec 48be 9b32 39bd
00000340: e7d7 38bc d6e7 163d eb27 463d f816 10be
00000350: 436a 453e e346 76bc cedd 4bbc 0412 bfbb
00000360: 17c5 33bd 2c46 bdbd c72b 8d3d 8d8d 60be
00000370: 58a3 463e 0853 d0bc 9bdd 7bbe cf7c 75bd
00000380: 4e59 c33d dbf2 f1bd 7a82 213e c425 223e
00000390: 04d6 4e3e 937b 56bc 9351 363e 40af d2bd
000003a0: 749d f93c d49c 1a3e 7aff 743e 0176 8b3d
000003b0: acd5 54bd a8dd c3bd 0112 4cbe 742a 983c
000003c0: 9acb 003e efb3 85be a199 923d b9cf 013d
000003d0: 3dcb ecbc 4f70 d93d fd0b 12be 62c6 8f3d
000003e0: b8af d9bc 657e 88bd fd23 143e 4b11 0a3e
000003f0: 8742 16bd 670b cbbc 5fcc 03be a64c 37bd

ablang_branch.8.bias f4 [64]
-0.010942316 0.032503795 0.000782045 0.0070400285 -0.0048383563 0.006150546 -0.008128985 -0.052938327
-5.119684e-05 -0.020607485 0.03556111 0.017099278 0.023114324 0.053730186 0.021046335 -0.012797856
-0.006096957 -0.016849378 0.004424539 -0.023948342 0.018565543 -0.027602045 0.031842317 0.04193866
-0.026166739 0.042070646 -0.07284396 -0.0005300093 0.0109351035 0.008393334 -0.027064264 0.03117355
-0.058584664 0.010666632 -0.02029285 0.030103853 -0.0050642397 -0.0134226475 -0.013948533 -0.05498999
0.035298742 -0.00537181 0.003036395 0.00621276 0.022663713 0.03323667 -0.09827565 0.027094036
-0.043598745 -0.059968513 -0.06308366 0.033725094 0.020486468 -0.0012752123 0.013076242 0.03371587
-0.009974566 0.0005192618 0.0153643545 0.0028638842 -0.05970687 -0.011715524 -0.0069936546 -0.0093770195
00000000: 6647 33bc b322 053d 2702 4d3a 0ab0 e63b
00000010: 138b 9ebb 858a c93b 6f2f 05bc dcd5 58bd
00000020: 30bc 56b8 07d1 a8bc 87a8 113d c913 8c3c
00000030: 405a bd3c 2f14 5c3d 5d69 ac3c 19ae 51bc
00000040: fbc8 c7bb b507 8abc b9fb 903b 502f c4bc
00000050: c416 983c af1d e2bc 176d 023d dfc7 2b3d
00000060: a15b d6bc 4552 2c3d 372f 95bd 52f0 0aba
00000070: 2629 333c 3284 093c e0b5 ddbc ac5f ff3c
00000080: 79f6 6fbd 19c3 2e3c 313d a6bc 5b9c f63c
00000090: ecf1 a5bb aaea 5bbc 6388 64bc 2f3d 61bd
000000a0: 6a95 103d 0206 b0bb 41fe 463b 6994 cb3b
000000b0: 40a9 b93c 2d23 083d be44 c9bd 50f4 dd3c
000000c0: 9994 32bd 8ba1 75bd 0232 81bd 5323 0a3d
000000d0: 3dd3 a73c 0625 a7ba bc3d 563c a719 0a3d
000000e0: 5d6c 23bc 121f 083a c6ba 7b3c 01b0 3b3b
000000f0: 318f 74bd 78f2 3fbc 072b e5bb 12a2 19bc

ablang_branch.9.weight f4 [64]
0.9813061 1.0078651 1.0065612 0.98418593 0.98570716 1.0393604 0.9671612 0.9897788
0.9564786 1.0074272 0.95684236 0.9953623 0.9805147 1.0226665 1.057089 0.99542063
0.95317996 0.99910766 0.9893021 0.974777 1.0759035 0.9824461 1.0327246 0.9855979
1.0000485 0.9849851 1.0030609 0.97831357 1.0432239 0.94637525 1.0262909 1.0493432
1.0038553 0.9495678 0.9743136 1.0040131 0.9383734 1.0108812 0.971904 0.9964983
0.99253494 0.9555404 0.97497636 0.9182488 1.0112536 1.0085226 0.9563772 0.9564952
0.9518033 0.9852805 0.97631466 1.0425022 1.0142245 0.9567929 1.0188333 1.0234863
0.9990513 0.9627441 1.0304301 0.9643825 1.0036625 0.93472135 0.94782543 1.0137703
00000000: e036 7b3f b901 813f ffd6 803f 9cf3 7b3f
00000010: 4e57 7c3f c309 853f e097 773f 2562 7d3f
00000020: c8db 743f 60f3 803f 9ff3 743f 10d0 7e3f
00000030: 0303 7b3f bce6 823f b14e 873f e3d3 7e3f
00000040: 9a03 743f 85c5 7f3f e742 7d3f fc8a 793f
00000050: 35b7 893f 9681 7b3f 5230 843f 2550 7c3f
00000060: 9701 803f fc27 7c3f 4d64 803f c272 7a3f
00000070: 5c88 853f a645 723f 805d 833f e150 863f
00000080: 557e 803f e016 733f 9e6c 793f 8083 803f
00000090: 3d39 703f 8e64 813f b3ce 783f 831a 7f3f
000000a0: c516 7e3f 4c9e 743f 0d98 793f 5a12 6b3f
000000b0: c270 813f 4517 813f 23d5 743f dfdc 743f
000000c0: 62a9 733f 583b 7c3f c2ef 793f b670 853f
000000d0: 1cd2 813f 61f0 743f 2169 823f 9901 833f
000000e0: d3c1 7f3f 6676 763f 22e5 833f c6e1 763f
000000f0: 0378 803f e649 6f3f b0a4 723f 3ac3 813f
