data/model_weights/cv_fold_3_model2_1.pt (torch, 686405 bytes, 27 tensors)

ablang_branch.0.weight f4 [256, 480]
000000 17 60 eb bd 0f 6e b2 3d d5 64 1b 3e d7 fd 3f bc
       -0.11492937 0.08712398 0.15175183 -0.011718235
000010 ab dd 14 bd 38 ef 1c be c9 51 ca bd 99 be c1 3d
       -0.03634421 -0.1532563 -0.098788805 0.09460182
000020 cf a0 87 bd cb 97 e4 bd 05 04 87 bd 19 b3 b1 3d
       -0.06622469 -0.11161765 -0.065925635 0.08676738
000030 7a 7c ed bd 4e c6 a0 bb 71 0f c6 bb 8c e7 80 bd
       -0.11596008 -0.0049064523 -0.006044321 -0.06294164
000040 eb df 93 3d 6d a7 95 3d e0 12 c5 3c c9 04 80 bc
       0.07220443 0.073073246 0.024056852 -0.015627282
000050 db a2 9d bd 31 b2 57 3b 79 31 5b bd 89 18 a6 bd
       -0.07697078 0.0032912607 -0.053513978 -0.081101485
000060 8c d3 26 3d 8f 3e d1 bd de 80 36 bd 1a a9 c7 bc
       0.04072909 -0.1021701 -0.04455649 -0.024372626
000070 a8 66 2b 3c 23 7d c8 3d 46 f8 a4 3c 52 e2 8c bd
       0.010461487 0.09789493 0.020137917 -0.06879105
000080 6c 6d 07 bc 4c 23 1d 3d 89 fe 2c be 27 9d c3 3c
       -0.008265834 0.03836374 -0.16893972 0.023878647
000090 09 f5 49 3d fd 78 03 be 4d 31 ad 3a 19 86 0a be
       0.04930595 -0.12839122 0.0013213545 -0.13527717
0000a0 52 ba 07 3e f5 d2 fe bc dc 76 86 3d f1 25 31 3d
       0.1325467 -0.031106452 0.065656394 0.043249074
0000b0 d4 2a a9 bd 18 73 7a 3d 0f 4b 38 bd 04 fa 40 3d
       -0.08260122 0.06114492 -0.044993456 0.047113433
0000c0 cd b6 17 bd 3d dd 1c be c3 d5 9f bd 71 2c 3e 3d
       -0.037039567 -0.1531877 -0.07804444 0.0464291
0000d0 c4 d5 04 bd 81 e8 74 3b 5d 65 cf bc 91 01 ec 3d
       -0.032430425 0.0037370028 -0.025316888 0.11523736
0000e0 b9 bc b1 bb 4b 10 98 3c 28 1e 70 3d 5a e8 b3 3d
       -0.005424109 0.018562457 0.05862251 0.08784552
0000f0 34 fc 45 3d 2e fa e3 3d d0 1c 14 b9 c3 c7 a8 3c
       0.048336223 0.11131702 -0.00014125113 0.020603066
000100 fc c5 d8 bc 80 b1 b5 3d 7b 42 c7 bc 60 f6 33 3e
       -0.026461594 0.08871746 -0.024323693 0.17574453
000110 41 b5 59 bd e2 e7 82 bd c4 6a 81 bd d3 e7 0c be
       -0.053151373 -0.063918844 -0.06319192 -0.13760309
000120 2f 79 0e be cc 09 46 3d da 1d 2b bc 5a 9d 3c 3c
       -0.13913415 0.048349187 -0.010444129 0.011512125
000130 56 5b 5f bc d3 4c 38 3d f9 3d 3e 3d 04 ed a3 3c
       -0.013632616 0.04499514 0.04644582 0.020010479
000140 4e 8e 32 bc c8 83 d4 3c 20 ef c8 bd 0a b2 af bd
       -0.010898186 0.025941744 -0.098112345 -0.0857888
000150 f2 2d 36 bd 53 37 2d be 2d 37 91 bc 1d bd 97 3c
       -0.04447741 -0.16915636 -0.017726505 0.018522793
000160 ed aa b6 3b 9c 64 c4 3c 9e be de 3d 73 83 b2 bc
       0.005574575 0.023973756 0.10876201 -0.021791195
000170 85 1d 4d 3d 8a fc 3c bd b5 c4 a2 bd 7c 04 19 3d
       0.05007698 -0.046139278 -0.07947675 0.037357792
000180 48 a9 ba 3d 8d 9a e2 bd c7 c1 9a 3c 9b b7 8a 3c
       0.09114319 -0.110646345 0.018891228 0.016933253
000190 bf 4c c9 bd ee e5 bd bc 40 7e 19 3d ec d6 ab 3d
       -0.09829091 -0.023180928 0.037473917 0.083906025
0001a0 9e 69 dd 3d 0c 46 55 bd dd 39 21 bc ee 77 5d bd
       0.108111605 -0.052068755 -0.009840456 -0.054069452
0001b0 ca ba 87 3c 63 05 08 3e e1 a1 07 bd 24 a3 73 3c
       0.01656856 0.13283305 -0.033113364 0.014870439
0001c0 45 e6 59 bd 97 6c ad bc c0 2b d0 3b cf 7f d2 3a
       -0.053198118 -0.021169944 0.0063528717 0.0016059818
0001d0 9a 14 94 3d a0 d2 b3 bc 4f 9e bb 3d 60 ad 89 bc
       0.07230492 -0.02195102 0.09161054 -0.016806304
0001e0 f3 5b 55 3a ee 24 f3 3d 7f 91 27 bd 21 20 0d be
       0.00081390067 0.11872278 -0.04091024 -0.13781787
0001f0 e6 10 ef bd 2d 2b 8c 3c 45 6d 26 3b 61 2c e9 bc
       -0.11673145 0.017110432 0.002539472 -0.028463544
000200 5b cf 21 bd bd 94 3d bc 74 1f 0a 3d cd b5 6c 3d
       -0.03950439 -0.0115711065 0.033721402 0.057790566
000210 d4 86 c9 bd cc 48 c2 bb 43 c0 f5 3d 7b 20 90 bc
       -0.098401695 -0.005929088 0.11999562 -0.017593613
000220 8f 3e cb bd fb 21 a7 3d 96 e8 52 bd da 36 fc bd
       -0.099240415 0.08160778 -0.051491342 -0.123151496
000230 8d 52 1b 3d a9 d1 19 3d 4e 2b a1 3d 71 60 6e bd
       0.037920523 0.037553463 0.07869588 -0.058197442
000240 ea fc 30 3d aa 4b 03 bd ff ca 46 3d 5c e8 27 be
       0.043209948 -0.03205458 0.048533436 -0.16397232
000250 4d 42 ef bc 16 76 98 3d ee f9 d8 bc 61 16 ea bd
       -0.02920642 0.07444398 -0.026486363 -0.1143005
000260 e9 75 a8 bd 7f a8 87 3d 32 3b 13 bd 3f 4b 05 3e
       -0.082256146 0.06623935 -0.035945125 0.13016985
000270 6f 21 5f bb b9 5a 6a bd 10 55 4e 3d a2 d0 f4 bb
       -0.0034047028 -0.057215426 0.05037409 -0.00747116
000280 1c 54 b0 3c bd 59 ef 3b 94 c9 27 bd 6d 69 13 bd
       0.021524481 0.007304399 -0.040963724 -0.035989214
000290 81 0b 27 bd 50 bb 40 bd 05 c7 9f bc 28 49 ce bc
       -0.040782455 -0.047053635 -0.01950408 -0.025181368
0002a0 70 e7 97 bd 1d 6e a5 3c 68 f0 45 3a 53 65 2a 3e
       -0.0741719 0.020194108 0.0007550777 0.16640215
0002b0 f3 7c ea bb 36 36 c1 3d e4 73 81 3c 81 95 88 bc
       -0.0071560084 0.09434168 0.015802331 -0.016672852
0002c0 08 10 82 bc 1d 66 8b bd bd 3b d6 3d b7 00 cf 3b
       -0.015876785 -0.06806586 0.10460613 0.006317224
0002d0 20 66 81 bd 3d fc 5a bc 9c 5c af 3c 54 87 72 bd
       -0.06318307 -0.013365802 0.021406464 -0.05921109
0002e0 2b e2 35 bd 1e 5a 10 bd 3c ed af 3d 3c 95 cf 3d
       -0.044405144 -0.035242192 0.08590171 0.10135886
0002f0 13 e5 9a bd 8d 05 3c bd de 6f 45 bd 87 61 d6 3d
       -0.07563224 -0.04590373 -0.048202388 0.104678206
000300 bd 22 aa bc 2c ca 3f 3d 69 7c 09 3b 9f 07 22 3d
       -0.020768518 0.046823665 0.0020978695 0.03955805
000310 c2 76 af 3c da b1 f3 3d 86 02 a6 3d e7 1c a5 3b
       0.021418933 0.11899157 0.0810595 0.005038846
000320 d2 bf e6 bc fb 48 fc 3d 30 a4 ea bc be ad 1c bd
       -0.028167639 0.123186074 -0.028642744 -0.03825163
000330 40 37 57 3d 28 01 0d bd bd 7c a7 3a e6 92 5e bd
       0.052542925 -0.03442493 0.0012778264 -0.054339312
000340 00 0c b1 bc 86 3b db 3d 17 82 5e bd 39 e0 08 3e
       -0.021612167 0.107047126 -0.054323282 0.13366784
000350 ca 4c f0 bc 8b a1 62 3c c8 db 07 be 32 3c 51 3d
       -0.02933349 0.01383246 -0.13267434 0.051082797
000360 88 cc 61 3c d0 66 c7 bd 01 da b7 3c e4 91 24 bd
       0.013781674 -0.09736407 0.02244282 -0.040178195
000370 90 2a 6a bd 56 0b 73 3d be 25 e2 3c 62 fa 5a bc
       -0.057169497 0.059336983 0.027605888 -0.01336536
000380 d8 6e 54 3d 1d ef 8f 3d a0 a3 a3 3d dd 36 c7 bd
       0.05186352 0.07028029 0.07990193 -0.09727261
000390 83 3b 5a bd 88 28 d1 3c 29 ed 98 bb 19 fe a9 bd
       -0.05327941 0.025532022 -0.0046669436 -0.083004184
0003a0 f0 e2 a0 bd c6 84 34 be 83 00 28 3d 60 66 8d 3d
       -0.07855785 -0.17628774 0.041016113 0.06904292
0003b0 6b bc 09 bd 44 22 5e 3d 2d be d0 bd 1f be 47 3d
       -0.033626955 0.054231897 -0.10192523 0.048765298
0003c0 8e 48 49 3c 5e 8f 4d bd a0 40 03 3e fc 32 b7 3b
       0.012285365 -0.050185554 0.12817621 0.0055907946
0003d0 10 1b 8a bd 25 48 5b bd d4 d5 07 3d 6c 25 00 3e
       -0.06743443 -0.0535356 0.033162907 0.12514275
0003e0 e5 e0 eb 3b 9e 39 94 bd c9 d4 04 bd 77 8e 16 bd
       0.0071984404 -0.07237552 -0.03242949 -0.03675696
0003f0 a8 7b 60 3c dc 16 94 bd 46 79 aa bd f2 07 34 3e
       0.013701357 -0.072309226 -0.08323912 0.17581156

ablang_branch.0.bias f4 [256]
000000 57 d7 d2 3b 97 44 ae 3b 7e 6a 5e 3c ee 56 7b 3c
       0.006434362 0.005318235 0.013575194 0.01534055
000010 d4 5f 1c 3c bc c4 19 3c 57 ec 9a 3b 10 b0 69 3c
       0.009544332 0.009385284 0.004727881 0.014263168
000020 8f 16 c2 3b 61 8f 88 bb 34 3e 7b 3b d5 44 c6 3a
       0.0059230994 -0.0041674827 0.0038336636 0.0015126715
000030 1e 19 d6 3a 92 80 cf 3b 75 d6 27 3c 66 46 c3 38
       0.001633439 0.0063324654 0.010244002 9.311437e-05
000040 29 b6 6b 3b a5 62 a2 39 22 6a 2e 3c d1 ae 1e 3b
       0.003596673 0.00030972544 0.010645421 0.0024213085
000050 c7 95 c2 3b 61 d9 0a bc 53 8c e3 ba af 37 03 3c
       0.005938265 -0.008474679 -0.0017360545 0.0080088815
000060 6f c9 96 3b b8 25 9a bb 1d 9e 26 b9 88 b3 a5 3b
       0.0046016495 -0.0047042035 -0.00015889895 0.005056802
000070 b5 43 3c 3b 00 8f 83 ba a0 83 b8 bb 29 53 55 3c
       0.002872688 -0.0010037124 -0.0056309253 0.013020315
000080 c1 50 11 3c 11 d7 4e 3b e2 77 7e 3c 6e aa 64 3b
       0.008869351 0.0031561295 0.015531512 0.0034891623
000090 69 53 b5 3b df f0 2c 3a 42 cc 2d 3c 1b 4b 3f 3b
       0.005533625 0.0006597172 0.010607781 0.0029189053
0000a0 2d 50 de 3b 7c 44 96 38 20 c2 a7 3b a0 24 5c 3c
       0.00678446 7.1653136e-05 0.005119577 0.013436466
0000b0 bd ab e8 38 44 47 40 3c 60 d6 cf 3b 88 e8 86 3b
       0.00011094611 0.011735741 0.006342694 0.0041170754
0000c0 46 e9 64 3c f0 5b c1 b9 3d 2d 29 3c 61 06 b8 39
       0.013971632 -0.00036880327 0.010325727 0.00035099967
0000d0 6e d2 89 3b 91 14 b8 3b 42 92 98 3b 86 16 9c 3b
       0.0042059934 0.005617686 0.004656107 0.004763427
0000e0 5e 44 d2 3b 4a c4 e8 3a 78 0c 45 3b d3 34 2f 3c
       0.0064168414 0.0017758694 0.0030067246 0.010693747
0000f0 32 1f bd 3b ca f3 8e b9 de 8c 03 3c ee af 7a 3c
       0.005771541 -0.00027265988 0.008029191 0.015300734
000100 e5 32 27 3c 4e b8 c2 3b 53 bb 32 3c e7 f1 ff 3b
       0.010205005 0.005942381 0.010908919 0.0078108194
000110 f4 1e 2a 3c 00 39 b0 3b ae bc 57 3c d5 ea cc 3b
       0.010383356 0.0053778887 0.013167543 0.00625358
000120 b8 a7 74 3c 32 63 0b 3c e0 ae 09 3b 70 dc c1 b9
       0.014932565 0.008507537 0.0021008775 -0.00036976067
000130 a7 2b c4 3b d8 4a 7c 3c 66 eb 29 3c 64 c4 db 3a
       0.005986649 0.0153987035 0.010371065 0.0016766903
000140 eb da 05 ba 7a 53 16 bb 00 e7 91 3b 03 58 23 3c
       -0.00051061687 -0.002293794 0.004452586 0.009969714
000150 74 23 9e ba b3 6f e0 3a 14 9a 85 bb b1 ae 06 3a
       -0.0012065009 0.0017123133 -0.0040772054 0.00051377254
000160 5c 63 44 3a bd 0b 43 ba f7 ea 2b 3b 9c a1 25 3b
       0.00074916123 -0.0007440409 0.002623258 0.0025273329
000170 a5 4a 92 3c 67 4e 14 3a d2 d8 85 3b ae 88 16 3b
       0.017857859 0.0005657435 0.004084685 0.002296965
000180 4d d3 fd 3b 16 3f 43 3c e7 11 ab 3b 58 48 f8 ba
       0.0077461363 0.011916896 0.00522064 -0.0018942459
000190 08 88 51 3c 3d 67 b1 3b 32 72 29 3c bf cb 0d 3c
       0.01278878 0.0054139183 0.010342168 0.008654534
0001a0 ec 1f e8 3b cd 62 29 3b a3 c8 91 3b 15 cf 1c bb
       0.0070838835 0.0025846243 0.0044489666 -0.0023927141
0001b0 eb 55 4a ba 80 d0 36 b5 e1 ed 27 3b 29 16 74 bb
       -0.0007718491 -6.810369e-07 0.0025623965 -0.0037244654
0001c0 e2 d9 76 3b d0 6b 89 3c 2a eb 97 3b 31 48 48 3c
       0.003766649 0.016775042 0.004636188 0.012224243
0001d0 1e 45 15 3b fe 62 e6 3b ab 5e d8 3b 68 f9 70 3b
       0.0022776793 0.0070308438 0.006603082 0.0036769751
0001e0 5d 2c 3d 3c 1d c3 8a 3c ce b5 01 3c 30 22 97 3b
       0.011546222 0.01693874 0.007916881 0.0046122298
0001f0 5b 9a 5d 3b 26 27 5c ba a1 58 0f 3a c1 87 13 3c
       0.0033813927 -0.00083981676 0.0005468224 0.009004534
000200 49 42 5d 3c 7d e1 8f 3b eb 8c b3 3b 48 a7 a1 3b
       0.013504573 0.004390894 0.005479445 0.0049332716
000210 fa 41 f1 3b ac 1a 66 3b 7e e4 2a 3c 58 00 c7 3a
       0.0073626013 0.0035111113 0.010430453 0.0015182598
000220 f7 dd 23 3c 52 c0 77 3c 4b f2 45 3c a7 56 c3 b9
       0.010001651 0.015121536 0.012081693 -0.0003725786
000230 22 ac 39 3c 36 7b 8b bb 93 16 d4 3b d4 47 41 3b
       0.011332544 -0.0042566312 0.0064724176 0.0029492276
000240 e3 0a 1e 3c 74 24 8b 3c 9a 0f e7 3b ef 9f 4c 3c
       0.00964615 0.016985156 0.0070514204 0.012489303
000250 91 1c 7c 3b 9a 8f 10 3c 94 16 b9 b9 11 8c 46 3c
       0.0038469175 0.0088233 -0.00035302772 0.012118355
000260 bd ab 36 3a 43 b8 20 3b 77 00 48 3b c2 36 c4 3b
       0.000696834 0.002452389 0.0030517855 0.005987973
000270 31 a5 c9 3b 48 56 0b bc 0c 3f 7e 3b 8f 63 cd 3b
       0.0061537256 -0.008504458 0.0038794903 0.006267972
000280 41 c9 0e 3c 64 46 4a 3b c3 5e af ba 29 e0 ab 3b
       0.008714975 0.003086471 -0.0013379682 0.005245228
000290 f0 e4 54 3c b8 3f b8 3b 05 8b 47 bb 14 6e 40 3b
       0.012994036 0.0056228302 -0.0030447852 0.0029362487
0002a0 0f d7 f3 3b 45 dc a5 bb c0 49 a5 b9 b0 f5 4f 3c
       0.0074414085 -0.0050616586 -0.000315262 0.012692854
0002b0 42 25 fc 3b 18 86 2e 3b e3 f7 e0 3b ee 74 12 3b
       0.007694871 0.002663022 0.006865488 0.0022347528
0002c0 7e 99 ee b9 5c b1 83 ba ae 61 25 3b 82 3c 4f bb
       -0.00045509258 -0.0010047364 0.0025235224 -0.0031621759
0002d0 b6 25 13 3b 3f df bf 3b 86 d5 18 3c 8a 52 10 3c
       0.0022452897 0.0058554704 0.009328252 0.008808741
0002e0 01 ea a5 3b 14 cb f5 3b 84 f6 fb 3b 3f 63 58 3c
       0.005063296 0.0075010154 0.007689299 0.013207256
0002f0 2e 0a 52 3c df 75 79 3b 4f f2 d0 3b 37 55 31 3c
       0.01281981 0.0038064641 0.0063765417 0.010823539
000300 e2 f6 3e 3b fa 3b e3 3a e0 c1 d7 3a 79 0e 37 3b
       0.0029138853 0.00173366 0.0016460977 0.002793221
000310 03 b1 72 3c 8c 98 0f 3b 85 63 bb 3a 4c 43 df 3b
       0.014812711 0.0021910993 0.0014296627 0.0068134423
000320 6c 8b 08 3b 38 77 50 ba 60 38 2a bb 20 37 02 39
       0.0020835055 -0.0007952335 -0.0025973544 0.00012418302
000330 dc be 1c 3c 5d 27 19 3c 78 6b 0c 3b fd 4a 16 3b
       0.009566989 0.009347764 0.002142636 0.002293288
000340 ee 50 b4 3b ed 9b ef 3b 49 02 dc 3b 54 10 bb 3c
       0.0055028116 0.007312289 0.0067141396 0.022834934
000350 ab b8 d3 3a 3d b3 26 3b 8a a3 16 3b dc 9a fe 3a
       0.0016153058 0.0025436424 0.002298566 0.0019424814
000360 f9 b6 af 39 72 39 0b 3c 82 cf f1 3b 26 0d 90 3b
       0.00033514926 0.008497583 0.007379473 0.0043960987
000370 9b 9e 89 3b 17 c8 5c bb 5b 0b 33 3c 26 09 62 3b
       0.0041998154 -0.0033688599 0.010928 0.0034490316
000380 c5 be 2b 3c 80 42 d6 ba 29 50 8f bb 74 2e f5 3b
       0.010482495 -0.0016346723 -0.0043735695 0.0074823443
000390 cd 4d 56 3c 9e d3 49 b9 5b fa 8f 3b 15 e4 42 3c
       0.013080073 -0.00019247687 0.0043938584 0.011895199
0003a0 6f d8 bc 3b e0 8a 4a 3c 1a e9 65 bb 3b 15 83 3b
       0.0057631056 0.012362212 -0.0035081566 0.0040003336
0003b0 47 ea c1 3b 71 6c dc 3b 72 04 37 3c a5 4d ab 3b
       0.0059178206 0.0067267944 0.011170493 0.005227762
0003c0 2e 25 a7 3b b6 90 31 3b 28 b0 06 3c d1 ad 73 3b
       0.0051008677 0.002709431 0.00822071 0.003718246
0003d0 49 ad 45 3b 2d dd f6 3b 29 81 bc 3b 70 ae 22 3c
       0.00301631 0.0075336904 0.005752702 0.009929284
0003e0 e3 59 3a 3b ed 85 60 3c d4 9d ac 3b a9 78 04 3c
       0.0028434924 0.013703805 0.005267838 0.008085408
0003f0 d1 bf 20 3b 5f f8 15 3b 8f 97 ca 3b 27 6f 1a 3c
       0.0024528394 0.0022883636 0.006182618 0.009425915

ablang_branch.1.weight f4 [256]
000000 ff 92 7f 3f 26 de 7b 3f 06 36 7c 3f 58 bd 7d 3f
       0.99833673 0.98385847 0.98519933 0.9911704
000010 25 1c 80 3f d5 31 79 3f e5 2f 86 3f a0 f0 7c 3f
       1.0008589 0.9734166 1.0483366 0.98804665
000020 66 d0 7a 3f e8 42 7e 3f d8 2d 7e 3f 9f 5b 84 3f
       0.9797424 0.9932084 0.992887 1.034046
000030 6d b7 78 3f a1 77 80 3f c9 f3 79 3f f0 ef 81 3f
       0.97154886 1.0036508 0.9763761 1.0151348
000040 b2 c4 82 3f f2 09 85 3f 6e 73 78 3f c9 65 7e 3f
       1.0216277 1.039366 0.9705113 0.9937406
000050 4f cd 72 3f 9d a7 83 3f 93 58 77 3f 7e c0 85 3f
       0.94844526 1.0285527 0.9661953 1.0449369
000060 af 39 88 3f 3a 76 83 3f 25 00 80 3f b8 7e 80 3f
       1.0642604 1.0270455 1.0000044 1.0038671
000070 c2 45 85 3f 70 a9 77 3f 63 c7 76 3f d9 96 79 3f
       1.0411913 0.96742916 0.9639799 0.974958
000080 df c0 7d 3f 9b c1 78 3f 9a fe 7d 3f e6 1b 7e 3f
       0.9912242 0.9717042 0.99216616 0.9926132
000090 4b f4 77 3f 80 54 7a 3f cb 7e 89 3f ad 1c 84 3f
       0.96857136 0.97785187 1.0741819 1.0321251
0000a0 fd 39 81 3f 16 fe 76 3f 13 97 76 3f 9a 9f 7b 3f
       1.0095822 0.96481454 0.9632427 0.9829041
0000b0 48 32 88 3f 1b dc 87 3f 90 9c 7b 3f 3f d3 83 3f
       1.0640345 1.0614046 0.9828577 1.0298842
0000c0 30 ab 86 3f a4 ba 7b 3f a0 23 82 3f 12 53 7b 3f
       1.0520992 0.98331666 1.0167122 0.9817363
0000d0 a1 de 70 3f 6b b8 7c 3f 71 e6 76 3f 6f 29 7f 3f
       0.94089705 0.987189 0.96445376 0.996726
0000e0 3f 91 7b 3f 0f 61 76 3f 4c 61 81 3f 22 ac 83 3f
       0.982685 0.9624185 1.0107818 1.0286906
0000f0 16 cc 84 3f 7d a9 7e 3f be 78 80 3f bc d2 86 3f
       1.0374782 0.9947737 1.0036848 1.0533061
000100 85 8b 8c 3f 96 fc 86 3f 44 a9 7e 3f 09 43 83 3f
       1.0980078 1.0545833 0.9947703 1.0254833
000110 59 09 7d 3f 47 19 89 3f 3f a1 7c 3f 4f a5 84 3f
       0.9884239 1.0710839 0.9868354 1.0362948
000120 5b f8 8e 3f 7a c1 84 3f 05 5f 7c 3f 61 34 7a 3f
       1.1169542 1.0371544 0.9858249 0.97736174
000130 7b 6e 81 3f 49 07 7e 3f e1 f8 73 3f a1 95 77 3f
       1.0111841 0.99229866 0.95301634 0.9671269
000140 92 d9 87 3f 3f bf 7b 3f 26 dc 7a 3f f3 12 7e 3f
       1.0613272 0.98338693 0.9799217 0.99247664
000150 22 80 7c 3f ba a4 7e 3f 65 bf 75 3f 82 ec 76 3f
       0.98633015 0.994701 0.9599517 0.9645463
000160 69 51 7a 3f e3 e7 7a 3f d1 d3 80 3f 49 a2 75 3f
       0.9778047 0.9801008 1.0064641 0.9595075
000170 a7 e2 7b 3f 38 05 82 3f be 03 7f 3f 17 11 80 3f
       0.9839272 1.0157843 0.99615085 1.0005215
000180 03 22 7a 3f ab 52 88 3f 49 d7 70 3f 8a cc 87 3f
       0.9770815 1.0650228 0.940785 1.0609295
000190 a2 1e 79 3f 40 d0 87 3f f8 05 83 3f 51 70 80 3f
       0.97312367 1.0610428 1.0236197 1.0034276
0001a0 9e 8b 85 3f a5 cf 7d 3f 1f 27 83 3f 17 65 80 3f
       1.0433233 0.99144965 1.0246314 1.003085
0001b0 ed 32 82 3f c4 51 80 3f d3 69 7e 3f f2 0b 7b 3f
       1.0171791 1.0024953 0.99380225 0.980651
0001c0 0c 0a 83 3f 83 d9 7b 3f 83 62 7e 3f 29 54 8c 3f
       1.0237441 0.9837877 0.99369067 1.0963184
0001d0 38 9f 81 3f 15 11 80 3f 07 1d 81 3f 94 a9 7b 3f
       1.0126715 1.0005213 1.0086983 0.9830563
0001e0 9a 33 80 3f 29 a1 7b 3f 63 ce 7e 3f 05 d4 7f 3f
       1.0015748 0.98292786 0.9953367 0.9993289
0001f0 8c c7 7c 3f 56 2c 77 3f 6a 4a 8f 3f cb 53 79 3f
       0.98741984 0.96552026 1.1194584 0.9739348
000200 53 5c 84 3f 27 eb 81 3f a9 ce 87 3f fb 58 80 3f
       1.0340675 1.0149888 1.0609943 1.0027155
000210 bd ba 82 3f af 35 7b 3f 38 bc 7f 3f 74 1a 80 3f
       1.0213238 0.9812879 0.99896574 1.0008073
000220 1d a5 7d 3f 8e d6 80 3f 79 b5 7f 3f e5 0b 81 3f
       0.9908007 1.0065477 0.9988628 1.0081755
000230 ee c8 84 3f 04 31 8a 3f a3 52 8b 3f 05 fb 79 3f
       1.0373819 1.0796208 1.0884594 0.9764865
000240 01 04 85 3f d0 8d 88 3f d4 8c 7d 3f 9c 27 77 3f
       1.0391847 1.0668278 0.9904301 0.96544814
000250 01 2a 81 3f 3b 43 85 3f 11 88 7c 3f 43 5e 87 3f
       1.0090944 1.0411142 0.9864512 1.0575641
000260 68 76 83 3f 66 ff 8c 3f db ba 7d 3f 95 0f 7b 3f
       1.027051 1.1015441 0.99113244 0.9807065
000270 09 e9 81 3f c3 43 77 3f a6 ac 7a 3f 1a 10 79 3f
       1.0149242 0.9658777 0.9791969 0.97290194
000280 de 77 7f 3f 5f e2 89 3f d4 11 7b 3f 7b 16 73 3f
       0.9979228 1.0772208 0.9807408 0.9495618
000290 47 d6 86 3f 9f 04 80 3f 33 c4 7e 3f f2 81 7a 3f
       1.0534142 1.000141 0.99518126 0.9785453
0002a0 04 b1 8c 3f 36 0f 79 3f 52 46 7b 3f 17 c0 78 3f
       1.0991521 0.97288835 0.98154175 0.97168106
0002b0 e7 57 7d 3f 0a a1 82 3f 5b a3 77 3f 25 f4 7c 3f
       0.98962253 1.0205395 0.96733636 0.98810035
0002c0 97 96 82 3f c4 e2 7a 3f 58 c5 86 3f 65 56 7f 3f
       1.0202206 0.98002267 1.0528975 0.997412
0002d0 3c 83 75 3f 10 d7 77 3f 67 c8 84 3f 95 1a 81 3f
       0.9590337 0.96812534 1.0373658 1.0086237
0002e0 51 c4 78 3f b8 a1 81 3f 66 15 7e 3f be 56 83 3f
       0.97174555 1.0127478 0.992514 1.0260847
0002f0 31 3d 70 3f aa 1a 80 3f 40 05 7f 3f c0 8a 83 3f
       0.9384337 1.0008137 0.99617386 1.0276718
000300 c1 a3 83 3f 28 e7 79 3f 11 b7 7c 3f a1 4f 79 3f
       1.0284349 0.9761834 0.9871684 0.9738713
000310 47 0a 77 3f 7b bb 76 3f 18 10 7c 3f fc ea 81 3f
       0.96500057 0.9637982 0.9846206 1.0149837
000320 ce 2b 83 3f d8 47 77 3f c3 30 7b 3f 2a 42 79 3f
       1.0247743 0.96594 0.9812128 0.97366583
000330 30 8d 7f 3f 9d 51 7d 3f 79 77 85 3f 44 de 78 3f
       0.9982481 0.98952657 1.0427085 0.9721415
000340 48 cc 6f 3f 98 94 7b 3f 44 54 82 3f 47 bf 7c 3f
       0.93671083 0.9827361 1.0181966 0.98729366
000350 01 89 7e 3f 8f 67 79 3f e8 ba 80 3f 73 25 85 3f
       0.994278 0.9742364 1.0057039 1.0402054
000360 75 f2 78 3f 70 e7 7d 3f ff 73 7d 3f a7 d3 79 3f
       0.9724496 0.9918127 0.9900512 0.9758858
000370 e1 eb 7b 3f 1b 07 81 3f 20 79 84 3f 47 7d 80 3f
       0.984068 1.0080293 1.0349464 1.0038232
000380 3e 69 86 3f 44 52 82 3f 79 e7 7b 3f 02 34 7d 3f
       1.0500867 1.0181355 0.98400074 0.9890748
000390 0c 49 7e 3f ad ce 7d 3f 8e 54 7a 3f b6 82 82 3f
       0.9933021 0.9914349 0.9778527 1.019614
0003a0 31 61 7d 3f df 6b 78 3f 8e 1c 79 3f ba c3 85 3f
       0.9897643 0.970396 0.97309196 1.0450356
0003b0 ed de 7a 3f 5d 1a 7b 3f ba 7c 7f 3f 30 df 80 3f
       0.9799641 0.980871 0.9979969 1.0068111
0003c0 6e bf 81 3f d2 7e 7c 3f ff a2 7c 3f 2e e2 7d 3f
       1.0136545 0.9863101 0.9868621 0.9917325
0003d0 f9 49 83 3f 24 30 88 3f e7 d7 82 3f 84 d7 7c 3f
       1.025695 1.0639691 1.0222138 0.9876635
0003e0 b2 f1 79 3f 0b f0 7e 3f da 37 74 3f 2a 78 7a 3f
       0.9763442 0.99585027 0.9539772 0.97839606
0003f0 72 87 7b 3f ca e1 7d 3f 53 6e 84 3f 9b 7f 80 3f
       0.9825355 0.9917265 1.0346168 1.0038942

ablang_branch.1.bias f4 [256]
000000 cd ae 74 bb 80 f5 7e bc b3 4d 07 bb 8d 11 a7 3a
       -0.0037335635 -0.015561461 -0.0020645678 0.0012746319
000010 d5 b3 96 bc 7e 81 ab bc 33 15 0d bd 86 56 e0 3b
       -0.018396297 -0.02093577 -0.034444045 0.006846252
000020 5b be af bc 24 30 d6 bc eb 7a e1 bc 51 86 0a bd
       -0.021453073 -0.026146002 -0.027524432 -0.0338195
000030 d9 20 02 bd f8 25 a2 3b 63 7e e4 bc 43 07 8f bc
       -0.031769607 0.004948374 -0.027892297 -0.017459517
000040 28 fe a6 bc 91 5d 04 bc 55 c9 d4 bb a5 06 a2 bb
       -0.020384863 -0.008078949 -0.006493727 -0.0049446397
000050 c4 9b a7 bc a2 14 78 bd 72 8c 3a bc f7 35 c3 bb
       -0.020460017 -0.060566552 -0.011386024 -0.005957361
000060 de 75 94 bc 68 4a c7 bb 65 91 1c bc 2a 4c cb bb
       -0.01812261 -0.006081868 -0.009556149 -0.006204148
000070 53 ba 52 bd 49 f5 81 bc fc 12 cb bc 75 ba 80 bc
       -0.051447224 -0.015864031 -0.024789326 -0.01571391
000080 3e 03 f4 bb 21 1d a9 bc 17 0d 62 ba 75 4f b8 bb
       -0.0074466756 -0.020643773 -0.00086231664 -0.0056247064
000090 a5 93 46 bc 1f 7e c4 bc ca 14 e1 bb cf c5 fd bc
       -0.012120162 -0.02398592 -0.0068689333 -0.030978112
0000a0 ed df e1 bb 74 1c 04 bd fc b3 27 bc 30 5e de bc
       -0.006893149 -0.032253698 -0.010235783 -0.027144521
0000b0 ed 73 00 bc 95 d9 63 3b a2 6f 85 bc 69 2e 93 bb
       -0.007840139 0.003476714 -0.016288582 -0.0044916165
0000c0 e9 6b 29 bc 74 1f 35 bc 12 2c 2f bd c0 3f 1f bc
       -0.010340669 -0.011054862 -0.042766638 -0.009719789
0000d0 d1 47 a2 bc 39 d5 f2 bc f6 d0 a2 bc b2 11 fb bc
       -0.019809635 -0.029642688 -0.019875031 -0.030648086
0000e0 ea 32 09 bc b3 93 19 bd 2c 9d 1b bd 96 72 25 3c
       -0.008373955 -0.037494373 -0.037991688 0.01009812
0000f0 21 08 01 bc 43 c6 03 bc 1e 1d 88 ba bc 8f ae 3b
       -0.007875473 -0.008042875 -0.0010384654 0.005327193
000100 1c 75 07 3c 25 ce 6b bc 73 c9 49 bd d3 8c 3e 3b
       0.008267667 -0.01439241 -0.049264383 0.0029075637
000110 fe 39 e1 3a 45 e9 83 3a f3 c5 a2 3b 9c 46 30 ba
       0.0017183421 0.0010064027 0.004967445 -0.0006724389
000120 44 94 57 3c b2 f6 0b bc 4c cf 91 bc b5 be 86 bc
       0.013157908 -0.008542703 -0.017799042 -0.016448358
000130 da ba 14 bd 3e 1d e4 bb b4 87 06 bd b5 c1 d0 bc
       -0.036311008 -0.0069614938 -0.03284426 -0.025482992
000140 66 e9 7d bb d7 35 09 bc fc 85 2a bc 24 c1 7b bb
       -0.0038743853 -0.008374653 -0.010407921 -0.0038414681
000150 6c 73 9e bc 14 be 55 bc 13 79 b2 bc b4 9a f8 bb
       -0.019342147 -0.013045806 -0.021786248 -0.0075868014
000160 c4 9d f2 bb 9d f0 43 bc cd f0 82 bb 80 56 a0 bc
       -0.007404061 -0.011959222 -0.003995991 -0.019572496
000170 34 52 f4 3b f3 09 fc bc 0b 30 49 bc 15 c9 bd bb
       0.0074560884 -0.030766463 -0.012279521 -0.005791793
000180 9a 39 65 bc 7f 52 2a 3b b7 e2 8c bc ad 28 63 bc
       -0.013990784 0.0025989113 -0.01719795 -0.013864678
000190 92 0a 02 bc 53 42 e4 3a 50 3d 0b bd 75 63 2d bc
       -0.0079370905 0.0017414786 -0.03399402 -0.010582794
0001a0 ae 91 80 3a 9d 7b 78 bc fa 23 cb bc 24 e8 0b bc
       0.0009809041 -0.01516619 -0.024797428 -0.008539233
0001b0 14 79 cc bb 74 59 1c bb b1 ae e7 bb f4 54 f5 bc
       -0.0062400196 -0.002385703 -0.0070703854 -0.029947735
0001c0 c0 f9 5b bb 0f fa 34 3b f6 48 60 bc d5 de fd 3b
       -0.003356561 0.0027614867 -0.01368927 0.007747511
0001d0 f6 db 39 39 35 ac c6 bb c9 e3 28 3b 14 7a b4 bc
       0.00017724917 -0.006063009 0.0025770536 -0.022030868
0001e0 62 d0 9d bc 84 5d d1 b8 82 20 26 bc 8d 3b 5f bb
       -0.019264404 -9.983315e-05 -0.010139586 -0.0034062595
0001f0 f7 67 81 bc 04 8a 6d bc 37 70 06 bc 94 ac 0f bc
       -0.015796645 -0.0144982375 -0.008205465 -0.008769173
000200 75 53 f1 3b a8 ae 9d bb 19 17 06 3a ee 45 0d bd
       0.007364685 -0.0048120804 0.0005115136 -0.03449052
000210 3c cf 21 3b 6c d7 ec ba 2d 8d 5c bc d5 5c 9c bb
       0.0024690172 -0.0018069572 -0.013461393 -0.0047718086
000220 aa fe 62 ba 1c 33 de bb d2 e5 3a 3b 4f 52 90 bc
       -0.0008659164 -0.006780995 0.0028518331 -0.017617373
000230 98 39 72 3a bf 7f 3b bc 18 13 df bb 54 4f be bc
       0.00092401495 -0.011444031 -0.006807696 -0.023231186
000240 cb 6b 6a bb fd 5a a1 3c 4f 21 76 bd 5d 15 55 bc
       -0.0035769816 0.019696707 -0.06009036 -0.013005582
000250 4b 35 35 bc f7 7e de 3b 09 d8 56 bc bb 0c 4d bc
       -0.011060069 0.0067900377 -0.01311303 -0.012515242
000260 b8 1f 5f bc 14 d2 57 bc bb 58 3b bc 31 9d 2f bc
       -0.013618402 -0.013172645 -0.011434729 -0.01071863
000270 ab 3f 90 bc 1a de 4b bd 9b 39 97 bc ea e5 0d bb
       -0.017608484 -0.04977236 -0.018460086 -0.0021651932
000280 9f 52 0b bb ac df 81 bd 64 e6 9d bc 40 3e 3e bc
       -0.0021258963 -0.0634149 -0.019274898 -0.011611521
000290 f4 7d 2d 3c 19 b6 15 bc 87 55 bf bc 3f 77 e6 bb
       0.010589112 -0.009137654 -0.023356212 -0.007033258
0002a0 25 4c 6c ba 33 68 ff bc 40 da 51 bd 13 d3 91 bc
       -0.0009014032 -0.031177616 -0.05123353 -0.017800843
0002b0 70 97 35 bc 5d 56 76 bb f8 41 05 bc cd 4a 52 bc
       -0.011083469 -0.0037588098 -0.008133404 -0.012835217
0002c0 e4 27 53 bc c0 9c 31 bc f4 79 54 bb 53 3f 28 bc
       -0.012887929 -0.010840595 -0.0032421323 -0.010269004
0002d0 8d c7 0c bd a3 25 13 bd 7c 9c 22 3c ce df 82 3b
       -0.034369994 -0.035924565 0.009925004 0.0039939648
0002e0 57 9b 17 bd a9 7b fe bc 5a ed 84 bc 93 c2 83 bc
       -0.037013378 -0.031064825 -0.01622646 -0.016083991
0002f0 91 3d cf bc 7b f7 75 ba 72 28 23 bd 53 2a 9d bc
       -0.025297912 -0.0009382886 -0.039833494 -0.01918522
000300 85 88 ef bb ab 15 9e bc de c6 c5 bb f6 58 9c bb
       -0.0073099756 -0.019297441 -0.0060356697 -0.004771347
000310 eb cf 1e bc e8 87 0d bd 41 32 c6 bb 02 3c 15 bc
       -0.009693126 -0.03455344 -0.006048471 -0.009108545
000320 34 b4 80 bc e2 80 21 bd a7 4b 4e bd d5 e8 3a bd
       -0.015710928 -0.039429553 -0.050365116 -0.045632202
000330 b4 9c d5 3a 5d 14 a5 bc 1a 43 e0 bb f7 fc 3b bc
       0.0016297312 -0.020151312 -0.0068439366 -0.011473886
000340 e9 70 8d bb 4a 37 e4 bc f3 c9 b3 bb 2f 94 bd bc
       -0.0043164385 -0.027858395 -0.0054867207 -0.023141949
000350 fc dd 91 bc 49 e6 c7 bb ee 3c c0 ba 09 18 27 bd
       -0.017806046 -0.00610045 -0.0014666596 -0.040794406
000360 52 9d 60 bc c9 c7 15 bc 6e d7 8c 39 4f 24 57 bc
       -0.013709383 -0.009141871 0.00026863388 -0.013131215
000370 6b 89 a5 bc 3c 6a 63 bc 43 53 05 bd a2 1d 8c bc
       -0.020207128 -0.013880309 -0.032550108 -0.017103974
000380 71 54 e0 bb e3 7e 45 bd 21 05 dd bc a5 a9 c2 bb
       -0.0068460037 -0.04821671 -0.026979985 -0.0059406334
000390 e3 d7 e4 3b c3 82 fc bc 00 09 b3 bb fa 1d b8 39
       0.0069837435 -0.03082407 -0.0054637194 0.0003511755
0003a0 fa a6 86 bc e2 61 19 ba 40 5c 34 bd 7e 9b 5b bd
       -0.016437043 -0.00058510725 -0.04403329 -0.053615086
0003b0 3f 3d 82 bb 0f 63 29 bd 85 3a a2 3b 57 f3 f9 bc
       -0.0039745863 -0.041354235 0.0049508237 -0.030511541
0003c0 85 e5 08 bd 00 c6 2a bb 7b d2 e0 bb 24 e7 cb bb
       -0.033422012 -0.0026057959 -0.0068610287 -0.0062226225
0003d0 d6 51 3d bc 34 6f c6 b9 1e 87 9f bc 4f 3a 27 bb
       -0.011555156 -0.00037848356 -0.019473609 -0.0025516932
0003e0 14 78 5f bc 85 0e 13 3b 2c 4a c9 bc ef 8a 75 bb
       -0.013639469 0.0022439074 -0.0245715 -0.0037466844
0003f0 b3 b0 a3 bc f1 66 4f bc 3c c7 53 bc fd d7 f3 3a
       -0.019981718 -0.0126588205 -0.012925919 0.0018603798

ablang_branch.4.weight f4 [128, 256]
000000 54 7b bf 3d da 17 36 3d 9a 01 ae 3c 3c 24 60 bd
       0.09349695 0.04445634 0.021240998 -0.054722056
000010 9d 6a 90 bd 27 5f 02 be fd e0 f2 bd 80 79 9d bc
       -0.07051585 -0.1273161 -0.11859319 -0.019222975
000020 d3 f3 08 3e 6f 99 88 bc f6 d5 2a 3d 0d c1 a7 3d
       0.13374262 -0.016674725 0.041707955 0.081911184
000030 12 0c 36 bd a9 78 31 be d4 fb 8b 3c 46 56 89 3d
       -0.044445105 -0.17331184 0.017087854 0.067059085
000040 ab 8d f0 3c 74 51 a6 bd 16 6a d3 bd f6 bb 30 be
       0.029364428 -0.08121005 -0.10322969 -0.17259201
000050 63 56 4e 3d 40 ab 3e 3d a9 30 e8 bc df b7 4b bc
       0.050375354 0.046550035 -0.028343515 -0.012433975
000060 18 72 55 3d 74 f7 07 3c 17 e5 a0 bd f8 e9 e9 3c
       0.05211076 0.0082987435 -0.078561954 0.028553948
000070 e7 a6 e8 3c c2 09 24 be 34 14 07 bd 9b a6 bc 3d
       0.028399898 -0.16019347 -0.03297825 0.09211465
000080 60 b6 a4 3d a0 a1 dc bc 06 8c 20 bd 7e 57 f5 bc
       0.08042598 -0.026932538 -0.039196037 -0.029948946
000090 fe d5 54 bd b8 31 25 3d 8e 8e 95 bd ed ba bd bc
       -0.05196189 0.04033062 -0.07302581 -0.023160422
0000a0 e0 54 08 be f4 cd 4b 3e eb 34 9e 3d 9a 42 9c 3c
       -0.13313627 0.19902784 0.07724937 0.019074727
0000b0 b6 ae 3c 3e a9 35 3d bd 63 d2 02 3e 03 96 39 3d
       0.18426022 -0.046193752 0.12775569 0.045309078
0000c0 d8 77 4a 3d d3 b2 e7 3c 22 99 70 3d 8d c6 e4 bd
       0.0494307 0.028283512 0.05873979 -0.11170683
0000d0 34 f6 99 3c e6 b0 2c 3e 9c 99 86 3d 47 65 4e 3c
       0.018794157 0.16864356 0.065722674 0.012597389
0000e0 54 89 fc 3b fb cd 03 3d c9 99 0e be d9 9d 3f 3c
       0.0077068005 0.03217886 -0.13925852 0.011695349
0000f0 ee b1 80 bd 8d ed ec bc af 03 0c 37 76 69 2d bc
       -0.062839374 -0.028921867 8.345508e-06 -0.010584226
000100 45 3e e3 bd af 22 a2 bc 7e 64 4a be 92 75 80 bd
       -0.11095861 -0.019791929 -0.19764897 -0.06272425
000110 75 38 8c bb 2b 60 ed 3c d2 66 5f 3e 0b 11 9f 3b
       -0.004279191 0.02897652 0.21816567 0.0048543266
000120 7a d8 9b 3c d7 b2 96 bd bf e1 9b bd 2d 06 9d bd
       0.019024123 -0.0735833 -0.07611417 -0.076671936
000130 45 ae e7 3d e0 48 13 bd 2a 78 b0 bd d6 b9 a2 3c
       0.11312536 -0.03595817 -0.086166695 0.019864004
000140 3b e8 14 be 92 a0 f3 bc 19 71 2e bd 26 b1 93 bd
       -0.14541714 -0.029739652 -0.042588327 -0.07211523
000150 0d 65 36 bc 44 2d 92 3a 6f 1d 07 be 8e 1a 76 3d
       -0.011132491 0.0011152406 -0.13194822 0.06008392
000160 5d 0e d1 3d 57 68 e6 3a 3e a3 16 bd 58 8a 80 bb
       0.10207818 0.0017578703 -0.036776774 -0.003922742
000170 ea 61 f0 bd 52 eb 0b 3d 50 95 86 bc 84 76 e6 bd
       -0.117374256 0.034159966 -0.01642862 -0.11253074
000180 bf fa fc 3d f4 49 27 be 73 5e 1a 3d 4a 7b 7c bd
       0.123525135 -0.16336805 0.03768773 -0.061641015
000190 30 1b e6 bd d8 a9 a8 3d cf 83 f2 3b 2a cd 54 bd
       -0.11235654 0.0823552 0.0074009667 -0.051953472
0001a0 b6 56 2e be 7b db e5 3d 07 4d 36 3e ca d4 db bc
       -0.17025265 0.11223503 0.17802821 -0.026834864
0001b0 a7 42 09 be 85 da 48 3e 74 32 ea bb c7 06 63 3e
       -0.13404332 0.19614609 -0.0071471278 0.22170554
0001c0 1b 8d b5 bc 95 d1 68 bd 2d c1 a7 bd d3 96 0f bc
       -0.02216201 -0.056840498 -0.08191142 -0.008763987
0001d0 43 97 9a 3d 33 dc af bd 99 b0 2f 3c 6c 37 0a bd
       0.07548382 -0.085869215 0.0107232565 -0.03374426
0001e0 17 fc fa 3d b8 8f 46 bb fc 00 9d bd 8a 09 88 bd
       0.122551136 -0.0030298065 -0.076662034 -0.066424444
0001f0 d9 01 cc 3d 46 e6 ec bc 69 c1 dc 3d e9 fd 35 bd
       0.0996129 -0.028918397 0.107790776 -0.0444316
000200 1b f0 6e 3c 5e b2 08 3d f0 e4 d4 bc dd 6b 0d 3e
       0.014583613 0.03337323 -0.025988072 0.13810678
000210 21 08 c2 bd c9 93 03 bd b2 1a 81 bc 90 2a 95 3c
       -0.09474207 -0.03212336 -0.0157598 0.018208772
000220 10 1b 2d be ca fe 87 3d e9 c6 a9 bd ae 81 eb bd
       -0.16904855 0.06640394 -0.08289892 -0.11499344
000230 a4 54 7b bd 5e 27 31 be 84 db 80 bd b8 e4 06 3e
       -0.061360016 -0.17300174 -0.06291869 0.13173187
000240 03 fd 94 bd 23 1f bd 3d 62 4c fe bd 6f 4c 06 bd
       -0.07274821 0.092344545 -0.124169126 -0.032787737
000250 4b 07 e4 bc b5 67 97 3c 5f 8a 80 bd 7b 24 21 bd
       -0.027835509 0.018482069 -0.06276392 -0.03934143
000260 be 03 29 bd 16 00 81 bd 60 cf 9e bd 10 35 7b bd
       -0.041263334 -0.062988445 -0.077543974 -0.0613299
000270 8c be 1c 3c ad 67 2e 3e 7c e6 46 3e 69 85 ed bc
       0.009566914 0.17031737 0.1942386 -0.028994279
000280 fd 6d 46 3c 41 de f5 bd 71 b8 0a bc be e6 fa bd
       0.012111184 -0.12005282 -0.008466826 -0.12251042
000290 c6 40 14 bd 06 8e 5d 3d 6b cc 86 bd 85 17 c2 bb
       -0.036194585 0.054090522 -0.065819584 -0.005923214
0002a0 61 b5 c2 3c 5f b1 d9 3d e1 ad 55 3d 3a 35 83 3c
       0.023768129 0.10629534 0.052167777 0.016016591
0002b0 ba 06 20 3d 92 d0 b5 3c 57 a0 61 be 7e 2d 98 bd
       0.039068915 0.02219418 -0.22033821 -0.07430552
0002c0 24 83 d1 bd e1 f9 9a bd ba a8 23 3d 1d 3f aa ba
       -0.10230091 -0.07567192 0.039955832 -0.001298878
0002d0 ff ee a3 bd 6e a7 2e 3d 4b 02 67 bd a5 53 88 3d
       -0.08004569 0.042640142 -0.05639867 0.06656579
0002e0 fc 31 7a 3c 65 46 f2 bc bb ef d2 3c e3 8d 2f bc
       0.015270706 -0.029574582 0.025749078 -0.010714981
0002f0 95 27 3e bd df da d0 3d 15 5e 84 3d 71 11 dd bd
       -0.046424467 0.10197996 0.06463257 -0.10794342
000300 46 82 59 bb 76 7c 9c bd b7 34 85 3d 92 56 03 3d
       -0.0033189221 -0.076409265 0.06504195 0.03206498
000310 6e 10 b0 ba ec 48 0e be 5e 5c 56 bd a9 e1 b2 bc
       -0.0013432631 -0.13895005 -0.052334182 -0.021836119
000320 4d e5 38 bd 94 29 b5 3d 03 88 e3 3d d8 15 aa 3d
       -0.045140553 0.08845821 0.111099266 0.083049476
000330 ae 8d 4e 3b d8 1e 54 bc bc 80 10 3e c8 66 78 be
       0.0031517553 -0.012946807 0.14111608 -0.24257958
000340 fe f1 a2 bd 79 f1 69 3d 53 cf d6 bd 51 25 0e bc
       -0.079563126 0.057115052 -0.10488763 -0.008675889
000350 44 9d 43 bc e3 63 0b 3d 58 e5 14 3d 27 22 a1 3d
       -0.0119393505 0.034030806 0.03635153 0.07867842
000360 8b 7c fc 3c b6 9d 2a bd 8e b6 82 bc be 13 88 3d
       0.030821105 -0.04165431 -0.01595619 0.066443905
000370 70 0c 18 3d 93 52 f9 bd 9a 40 3f 3d e4 98 73 bd
       0.037121236 -0.12173953 0.04669247 -0.05947198
000380 8b fe 7c be 64 90 22 3c d2 78 e2 bd 43 e8 70 3b
       -0.24706475 0.009922121 -0.11058201 0.0036759533
000390 e2 59 07 be 03 75 0f 3d a7 51 88 bb 46 24 0c bc
       -0.13217881 0.0350237 -0.0041601243 -0.00855357
0003a0 a1 ad 84 3c 71 c2 75 bd 34 4c 01 bd c9 72 5f 3d
       0.016196074 -0.059999887 -0.031566814 0.054552827
0003b0 b2 29 9f 3c b3 26 a6 bd 1d 0e bf bd f7 74 6d bd
       0.019429062 -0.0811285 -0.09328864 -0.057972874
0003c0 fc b6 81 bd de 1e 49 bb 43 d0 16 3e 18 d4 9a bc
       -0.063337296 -0.0030688564 0.14727883 -0.018899962
0003d0 02 ec 1f 3e 0b 08 0a 3d 19 50 f0 bd 23 10 4b bd
       0.15617374 0.033699077 -0.117340274 -0.049575936
0003e0 cd ce 23 bd 72 12 56 bd da fa cf bc 92 e2 11 bd
       -0.039992142 -0.052263685 -0.02538817 -0.035616465
0003f0 1b a2 d0 3d 68 3d d2 3d e1 47 68 3e 28 04 67 bd
       0.10187169 0.102656186 0.2268367 -0.056400448

ablang_branch.4.bias f4 [128]
000000 ea 8f 12 bd 62 e6 08 bd 55 be dd bc d8 1a e4 bb
       -0.03578178 -0.033422835 -0.027068296 -0.006961208
000010 0d 80 76 3b 8f d0 d1 3c 22 3a 6a 3c b5 73 11 bd
       0.0037612945 0.025612144 0.0142960865 -0.035510737
000020 db 36 52 3d 09 7b 9e bb cb 1c 4b bd 2d 0b e1 bc
       0.051321846 -0.0048364443 -0.049588006 -0.02747115
000030 9d 49 81 3c b9 6e 06 bd 36 e7 b6 3b 8e b1 1a bb
       0.015782172 -0.032820437 0.0055817617 -0.0023604366
000040 06 af 98 3c 79 f2 1f bd fa 72 db 3c 21 65 b5 3c
       0.018638145 -0.0390496 0.026788224 0.022142949
000050 81 b9 61 bd 7c 7a 0d 3c fb f4 6f 3c a8 1e 13 bc
       -0.05510855 0.00863516 0.01464581 -0.008979477
000060 27 87 5e bd ef f9 fe bc d7 5f 69 3d 44 88 fa 3c
       -0.05432811 -0.031125037 0.056976166 0.030582555
000070 34 c1 94 bc 87 6b fb bc b9 76 2a 3c 02 a1 b6 3b
       -0.018158533 -0.030690921 0.010404282 0.005573393
000080 69 96 a5 3c 0e 6f d9 bc 3d 8a 72 3c 6b 7d c0 bc
       0.020213323 -0.026542213 0.014803466 -0.023497304
000090 39 07 b0 bc 95 11 fe 39 74 bf b4 ba 0a 21 f1 bc
       -0.021487819 0.00048459755 -0.0013789968 -0.0294347
0000a0 36 81 e7 bc f4 ca f0 3c 6f 56 9f 3c 13 05 de bb
       -0.028259855 0.02939365 0.019450394 -0.0067755072
0000b0 7f 5d 78 bc 36 a9 ee bb 72 91 8e bb 25 5c f5 bc
       -0.01515901 -0.007283355 -0.0043508345 -0.029951164
0000c0 ee a3 5c bd 85 52 ed bc 8e 4f 6e 3c 8d 42 17 3c
       -0.053867273 -0.028970012 0.0145453345 0.009232176
0000d0 16 5d 1e bd 1e be bf bc 98 6a 12 bd 11 b8 55 bc
       -0.038662992 -0.023406085 -0.035746187 -0.013044373
0000e0 43 e2 ab bc ad 1b 63 3c bb f0 2f bd a8 6a 37 3c
       -0.020981913 0.013861579 -0.042954188 0.011194862
0000f0 02 34 13 bc 65 ba 0e bc 99 9c 2f bd d2 78 e1 bc
       -0.008984568 -0.008711432 -0.042873953 -0.027523432
000100 6c 31 85 3b 44 45 92 bc a3 03 03 3c 77 08 6e bb
       0.0040647294 -0.017855294 0.0079964725 -0.0036320963
000110 47 44 01 3d a4 5e e8 3b da 7a e7 39 c6 65 d2 bc
       0.031559255 0.00709136 0.00044151285 -0.025683295
000120 22 81 9f bb a3 56 bd 3c a3 cf e9 bc 54 52 0e bb
       -0.0048676888 0.0231126 -0.028541392 -0.0021716552
000130 8d 95 9c bc 66 bb fc bc 7d 87 a0 bc a9 66 ea ba
       -0.01911428 -0.030851077 -0.019595856 -0.0017883378
000140 16 33 98 3c d1 ad c1 bb 7c 8f e8 3c 53 93 cb 3b
       0.018579047 -0.005910613 0.028388731 0.006212631
000150 1e 99 cb bc f7 7b e4 bb c3 a7 26 bd 89 b2 65 3b
       -0.024853285 -0.0069727856 -0.040687334 0.0035049042
000160 52 3c d5 bc ad 2c 34 bb e2 83 5b bc 1a e5 42 3a
       -0.02602974 -0.002749245 -0.0133981425 0.00074346515
000170 01 7c 32 3c f3 48 20 bd 01 21 cf bb 6f c9 f4 3c
       0.010893823 -0.03913207 -0.006321073 0.029881207
000180 99 14 87 3c 9e 89 30 3a 79 73 7a 3c ad 6e 95 3c
       0.016489314 0.0006734374 0.01528632 0.01824125
000190 ef d8 1c bd 33 c8 98 bc c7 63 1b bc 14 4d 9b bc
       -0.03829282 -0.01865015 -0.009484238 -0.018957652
0001a0 05 de d1 3c b6 25 3f bc 31 5c b9 3b ba 30 5f bd
       0.025618562 -0.011666706 0.005656742 -0.05448983
0001b0 75 f4 ed bc 0e a1 08 bc 31 02 7b bc b0 98 82 3d
       -0.02904723 -0.00833918 -0.015320347 0.06376779
0001c0 e6 b0 9e ba 8d 32 1c bd 3e cc f8 3b b6 d3 0b bd
       -0.0012107163 -0.038134146 0.007592707 -0.03413745
0001d0 92 79 df bc c9 e3 d4 3c 2d 0a 6a ba 00 91 ac bb
       -0.027279649 0.025987523 -0.0008927908 -0.005266309
0001e0 48 7a ad bc f7 ef c5 3c 59 82 9d bb f2 f5 22 bd
       -0.021176472 0.024162276 -0.0048067984 -0.039785333
0001f0 bc d5 9a bc 6c 79 f2 bc 86 84 ca bb 0a 5a 10 3d
       -0.018900745 -0.029598914 -0.006180349 0.035242118

ablang_branch.5.weight f4 [128]
000000 78 0d 7c 3f e4 45 73 3f 67 8a 76 3f 74 e0 7f 3f
       0.9845805 0.9502852 0.96304935 0.99951863
000010 bc b9 84 3f 29 b8 81 3f 50 93 79 3f 04 7b 76 3f
       1.0369182 1.0134326 0.97490406 0.96281457
000020 6e 99 84 3f 8f d5 7e 3f 25 94 73 3f 37 14 7d 3f
       1.0359323 0.99544615 0.95147926 0.9885897
000030 5c 54 81 3f 3e b4 7f 3f 74 f5 7b 3f da 1e 7a 3f
       1.010387 0.998844 0.98421407 0.97703326
000040 ae f9 82 3f b7 c2 73 3f fd bb 87 3f 25 23 80 3f
       1.0232446 0.95218986 1.0604244 1.0010725
000050 f3 12 83 3f 55 f4 76 3f 65 86 83 3f e8 45 7a 3f
       1.0240158 0.9646657 1.0275389 0.9776292
000060 ac 44 7c 3f f8 63 71 3f 8e 60 83 3f af b6 80 3f
       0.98542285 0.94293165 1.0263841 1.0055751
000070 73 22 71 3f ea 65 7d 3f fa 89 80 3f 63 0f 7e 3f
       0.9419319 0.98983634 1.0042107 0.9924223
000080 68 f6 83 3f c3 c8 77 3f ff 15 83 3f 30 85 76 3f
       1.0309572 0.96790713 1.0241088 0.9629698
000090 cd 64 79 3f 5e 76 7d 3f 6c 7b 7b 3f 5f fe 75 3f
       0.97419435 0.9900874 0.982352 0.96091264
0000a0 6a 14 83 3f 2e 20 81 3f 3f cf 7c 3f 67 07 83 3f
       1.0240605 1.0087945 0.9875373 1.0236634
0000b0 ae 0f 7e 3f e1 8a 77 3f 83 29 81 3f 90 5c 76 3f
       0.99242675 0.9669629 1.0090793 0.9623499
0000c0 30 90 7e 3f a3 42 79 3f a8 53 81 3f 36 4f 7b 3f
       0.9943876 0.97367305 1.0103655 0.9816774
0000d0 39 2b 75 3f 11 fa 74 3f 4e be 75 3f e8 bd 7e 3f
       0.9576908 0.9569407 0.95993507 0.99508524
0000e0 35 8a 7d 3f 5d 4d 82 3f d4 1d 80 3f 5f 87 83 3f
       0.9903901 1.0179859 1.0009103 1.0275687
0000f0 eb cf 74 3f c5 63 7b 3f ec b9 7a 3f e3 ab 78 3f
       0.9562976 0.9819911 0.97939944 0.9713728
000100 94 dc 7c 3f 2d d1 75 3f fe 90 7a 3f a4 9a 77 3f
       0.98774076 0.960223 0.9787749 0.9672034
000110 54 b7 82 3f df 35 7c 3f 35 2e 77 3f e6 2e 79 3f
       1.0212197 0.985197 0.9655488 0.97337186
000120 77 c9 7e 3f 52 5d 83 3f ec 3e 7d 3f 85 c6 75 3f
       0.9952616 1.0262854 0.98924136 0.9600604
000130 77 0c 75 3f 0c 38 7f 3f 15 82 74 3f cd 4e 7c 3f
       0.95722145 0.99694896 0.9551099 0.9855774
000140 50 b7 7a 3f fd a9 81 3f f1 60 7e 3f 25 6e 7c 3f
       0.9793596 1.0130001 0.9936667 0.9860557
000150 24 25 80 3f 8f 1c 85 3f 78 76 73 3f 23 59 7c 3f
       1.0011334 1.039934 0.95102644 0.9857351
000160 0d ae 79 3f 24 c4 81 3f 70 23 78 3f 6d f3 7a 3f
       0.97531205 1.0137982 0.96929073 0.9802769
000170 c0 22 81 3f 31 d1 7c 3f 83 b4 7c 3f e5 0d 84 3f
       1.008873 0.987567 0.9871294 1.031674
000180 3c 48 80 3f 62 28 80 3f bc ed 7b 3f 14 cf 7e 3f
       1.0022044 1.0012324 0.9840963 0.99534726
000190 96 0b 7c 3f 4c 4b 77 3f 33 94 7d 3f d1 f2 77 3f
       0.9845518 0.9659927 0.9905426 0.96854883
0001a0 8f 1c 7a 3f 05 5b 7c 3f 95 37 80 3f 0a 69 7e 3f
       0.97699827 0.98576385 1.0016962 0.99379027
0001b0 23 77 76 3f 7d e4 7b 3f 54 34 7a 3f db 5b 86 3f
       0.9627554 0.9839552 0.97736096 1.0496782
0001c0 6d 32 80 3f 3b 7d 74 3f 5c a0 80 3f e4 c9 79 3f
       1.0015389 0.95503587 1.0048938 0.97573686
0001d0 fc 3d 79 3f 69 32 84 3f 86 ef 7a 3f 78 ca 74 3f
       0.97360206 1.0327884 0.98021734 0.9562144
0001e0 23 fc 7d 3f 51 03 81 3f a1 42 80 3f d7 63 76 3f
       0.99212855 1.0079137 1.0020334 0.96246094
0001f0 64 6c 76 3f 78 15 77 3f 4a f8 7a 3f a2 86 81 3f
       0.9625914 0.96517134 0.9803511 1.0119212

ablang_branch.5.bias f4 [128]
000000 cb d6 b5 bc 5e fc cf bc ee af 3b bb 71 a5 b0 ba
       -0.022197148 -0.025388893 -0.0028638798 -0.001347704
000010 f1 26 25 3c 54 73 b0 3c 95 db 7b 3c 77 15 95 bc
       0.010080085 0.021539368 0.015372177 -0.018198712
000020 c6 1f 4e 3d d5 78 67 bb 21 45 49 bd 67 f4 7c bc
       0.05032327 -0.0035319824 -0.049138192 -0.015439129
000030 ad 9d 62 3c 88 6f 78 bc c5 4a 06 3c 4e af b1 bb
       0.013831538 -0.01516331 0.008196537 -0.0054225093
000040 72 ca ab 3c 5e 58 13 bd c4 72 ec 3c c3 9e af 3c
       0.020970557 -0.035972945 0.028863318 0.021438008
000050 66 66 23 bd 11 45 04 3c c4 bc 4f 3c 97 99 38 bc
       -0.039892577 0.008073107 0.012679283 -0.011267087
000060 bb 46 19 bd 0f fb b0 bc 1c ed 59 3d 6f 8b ed 3c
       -0.03742097 -0.021604089 0.05320464 0.028997151
000070 5a e6 b9 bb ac ca dc bc 84 fb 08 3c d1 39 0b 3c
       -0.005673212 -0.02695211 0.008360747 0.008497671
000080 e2 dc 9b 3c 3e 76 c4 bc e2 17 8d 3c fa 95 cd bb
       0.019026224 -0.023982164 0.017223302 -0.006273982
000090 b6 23 96 bc d1 cb 0c 3c 44 79 ec 3b 7a 9f a6 bc
       -0.018327575 0.0085935155 0.0072166044 -0.020339716
0000a0 4b 96 70 bc dc 40 ca 3c 1d 17 b3 3c 6d bb 94 bb
       -0.01468427 0.02468913 0.021861607 -0.0045389445
0000b0 09 22 2e bc d0 b2 e7 bb 2e 28 17 ba 98 fb b5 bc
       -0.010628232 -0.0070708767 -0.000576618 -0.022214696
0000c0 fc 3b 36 bd ee 8e 5e bc 67 02 70 3c dc 3b 1f 3c
       -0.0444908 -0.013583882 0.01464901 0.009718861
0000d0 38 6e e5 bc ae 0a 2f bc 75 68 c6 bc 44 bf b7 bb
       -0.028006658 -0.010683699 -0.02421973 -0.0056075174
0000e0 04 c9 7c bc 41 82 a4 3c 8e 15 85 bc 2c 73 58 3c
       -0.015428785 0.020081641 -0.01624563 0.013211053
0000f0 e1 83 a4 bb 96 29 dd bb 97 e4 22 bd eb d7 bb bc
       -0.005020604 -0.006749342 -0.03976878 -0.022930106
000100 37 09 0e 3b fb 72 75 bc d6 54 0f 3c c2 15 09 3c
       0.0021672973 -0.014981027 0.008748254 0.008367004
000110 1a 00 f1 3c f8 ff 9e 3c d3 5d 7b ba 86 96 87 bc
       0.029418994 0.019409165 -0.0009588871 -0.016551267
000120 f8 bd 94 b6 57 6c db 3c 67 d6 d0 bc 64 08 7e 3a
       -4.432859e-06 0.026785059 -0.02549286 0.00096905814
000130 f9 ef 6a bc 51 d0 b9 bc 5f 69 9f bc d4 12 d8 b8
       -0.0143394405 -0.02268234 -0.019459425 -0.000103031896
000140 ec 00 90 3c 75 52 38 3b af 18 e0 3c d2 08 35 3c
       0.017578565 0.002812532 0.02735552 0.011049466
000150 af 8d a9 bc 98 4e cb 3b 19 d4 f1 bc 0f f7 ba 3b
       -0.020697443 0.0062044375 -0.029520081 0.005705721
000160 bc 81 00 bc 57 ae 7c 3b 9d 1a 19 bc d0 4c ef 3a
       -0.007843431 0.0038556063 -0.009344724 0.0018257145
000170 77 16 43 3c 76 d8 d8 bc 28 18 03 bb 93 63 ea 3c
       0.0119072115 -0.026470404 -0.0020003412 0.028611934
000180 c1 7c 8a 3c 99 07 3e 3b 53 53 68 3c 85 fb 8e 3c
       0.01690519 0.0028996228 0.014180022 0.017453918
000190 7d 88 00 bd f8 07 65 bc f8 2e e0 bb 76 79 89 bc
       -0.031380165 -0.013978951 -0.0068415366 -0.01678155
0001a0 88 63 c0 3c fa a8 df bb 14 2b 06 3b 53 1f 3f bd
       0.02348496 -0.0068255635 0.0020472454 -0.046660732
0001b0 20 14 5b bc f8 06 14 bc da cc 49 bc 25 d9 73 3d
       -0.013371497 -0.009034865 -0.012316907 0.059533257
0001c0 a4 4d 9a 3a 23 f1 e0 bc 73 08 27 3c 7b f7 43 bc
       0.0011772406 -0.027458733 0.010194886 -0.011960859
0001d0 1d f4 fa bb 08 4f cd 3c 99 cf 05 bb a1 4c a7 bb
       -0.007658495 0.0250621 -0.0020417927 -0.0051055704
0001e0 1f 35 c6 bb 39 b2 b0 3c ca 0a fd ba 01 df dd bc
       -0.006048813 0.021569358 -0.0019305584 -0.027083876
0001f0 ac e3 69 bc 85 db cc bc 44 a2 74 bb 08 54 1f 3d
       -0.014275473 -0.025007019 -0.0037328163 0.038898498
