data/model_weights/cv_fold_4_model5_2.pt (torch, 685157 bytes, 23 tensors)

ablang_branch.0.weight f4 [256, 480]
00000000: c2ca 87bd d6f3 c2bd e101 a53b 636e 053d
00000010: 4644 113e 0e55 19be 8cc0 92bc 7aa0 8dbd
00000020: 46ed b1bc 8351 28bd 8da7 91bd 2fbd dabc
00000030: 37ed dc3b e6f3 b2bd 469c 92bc 973c 49bd
00000040: cab4 ee3d 9c0c 223d 7510 90bc 2ec9 32bc
00000050: 4443 a8bd 0073 c5bd d31c a43d 5b1c 64bd
00000060: b4ce ff3c 126b 3f3c 2e36 8cbd 96a5 35bc
00000070: 3e75 12bb 76ea 853d 9714 11be 569f 67bd
00000080: 3abe b5bd 6900 193d 3137 a0bd 34f9 f43d
00000090: b860 49bd 2da1 023a ab11 9c3c bac3 8b3c
000000a0: a071 873d 106b 333c 439a 4c3c a791 45bd
000000b0: 9af2 073e 4bc0 11be 29ac fa3d adcf ff3d
000000c0: 5665 f0bc 6b9d 353d 5170 79bc 5d7b 71bd
000000d0: be83 11bc 0621 8dbd f9da 0e3a 70c3 bd3d
000000e0: f2fa 713c 0f16 abb7 cd53 d83d 070f dabd
000000f0: 9b1c aabd 9cf9 01bd 8a09 dabd 31f8 523d
00000100: 36da 4d3d a70c e13d 06a9 9cbd a2df 3c3c
00000110: 6f20 f2bd 6ad0 a8bc fac6 f43c e130 773d
00000120: 5425 9fbd a174 36bd fbb7 2fbc 8320 a8bd
00000130: da79 6d3d 2c10 a93c d4d6 87bd 7595 8ebd
00000140: 33c9 50bc c459 ea3c 64e0 a23d 292e 05bc
00000150: 5f07 c6bc 664c 0ebd 7686 0a3d 8edb 723c
00000160: a27f 63bd e867 ccbc 3244 2cbc a73f 25bd
00000170: 73b5 cc3c 7ac6 933d 4774 7ebd fde7 d9bc
00000180: 8c16 98bd 7554 c93d fd69 a6bd fcf8 db3d
00000190: 7850 48bc 31b9 813c c19a b03d a878 523b
000001a0: 8d27 103e 02df d4bc c092 ba3d ceca f53c
000001b0: 07df e33c e8a4 0dbd f19c aa3d c722 eebd
000001c0: 9755 3fbd 5e00 e2bc 1574 b4bd 19cd d1bc
000001d0: 07ac 6cbd f20d 36bb 87d5 8dbc 6d24 80bc
000001e0: 943e c8bc 0aad 903d d78b b7bc 3b71 4b3c
000001f0: 9612 7e3c a0ac 693c 91ba 063c 44e2 8bbd
00000200: 75b7 d6bc 1c3c e6bd d04d 8aba aa42 e6bb
00000210: 9db8 e2bd 05cc 283d 7be7 f23c 3a16 bf3b
00000220: 3720 043e 1f6e 023c 2fea e2bc 4243 44bd
00000230: 23f2 69bb 01aa 9c3d e0f2 85bd 1d57 c6bc
00000240: 761b 8c3d de85 343b 42ba afbc ceda e93c
00000250: 7821 e03b 6aed ff3c be11 13bb 3bb1 27be
00000260: f227 8b3c 7648 013e a0bb b23c 88dd 0b3d
00000270: 3051 983c 4af6 fbbd 015b 2b3c 2ae5 82bd
00000280: 3db2 85bb b638 553d ba13 01bc 35e9 1dbe
00000290: 06ac 843c bd96 693b 623c 37bc 9c4c 57bd
000002a0: 5346 67bc 1bcf 643d aa11 e43d 7cf7 05b8
000002b0: 3e22 3dbc 39b2 b83c e06a b4bc d5d5 a93c
000002c0: 9814 8e3b 200b 9bbd 7c4a e5bc 6875 c23c
000002d0: 9650 70bd 48c5 e2bd 974c 9a3d b907 6c3c
000002e0: 55b8 aabb a22f 473c e4df 53bc 8466 963a
000002f0: 60cb 08bb 4d6c 72bc 6271 733d 0a46 a3bc
00000300: ea6c d53d b14a 8f3d b017 a73d e187 06bd
00000310: 5064 9b3b 417d 44bd 308f a93c 7ee8 913d
00000320: 0284 fabc 165c e33d ca39 b5bd ba27 323d
00000330: 186f b8bd 3165 acbd 2c1e cf3c 6940 81bd
00000340: 0705 fc3d f00c 1d3d fa79 0f3d 27d7 823b
00000350: 093b 5f3d cb88 8abd b443 dcbd c827 263d
00000360: 92b1 213c 78fd 98bd a275 d3bd 9226 88bd
00000370: be20 dabc cea0 b73d e386 28bc cd34 a33c
00000380: 239a e9bc e147 b1bd ecd9 0cbd 7fba 34be
00000390: 8bf2 90bd b03d c63d b616 9d3d 9339 8dbd
000003a0: ecf2 8dbd a60a 38bc cde7 cb3c f187 ffbc
000003b0: a48c 803d f707 3d3c f913 dcbd 2a60 44be
000003c0: eeb4 643c dbee c2bd 6294 253d ff9f 993d
000003d0: d1e4 113b 9104 433d ab97 5c3b f2d0 853c
000003e0: 967b 5fbd 618d 4d3c 69e4 6cbd 7627 203c
000003f0: 68cc 99bd c902 60bd a573 a8bd dbd3 6b3d
-0.0663047 -0.09519164 0.0050356244 0.032575976 0.141862 -0.14973852 -0.01791408 -0.06915374
-0.021719586 -0.04109336 -0.07112036 -0.026701538 0.0067421454 -0.08737926 -0.017896783 -0.04913005
0.116555765 0.039562806 -0.017585972 -0.010912223 -0.08215955 -0.09641075 0.0801331 -0.055691104
0.031226493 0.011683242 -0.068462715 -0.011086842 -0.0022347714 0.065388605 -0.1416801 -0.05654844
-0.088741735 0.037353907 -0.07823027 0.11961594 -0.049164504 0.00049831235 0.019051393 0.017061103
0.06613469 0.010950819 0.012487951 -0.048234608 0.13276139 -0.1423351 0.12239868 0.12490783
-0.029345196 0.04433958 -0.015224532 -0.05895554 -0.008881507 -0.06891064 0.00054494996 0.09265792
0.014769303 -2.039506e-05 0.10562859 -0.106473975 -0.08306237 -0.031732187 -0.10646351 0.051506225
0.05025693 0.10988741 -0.07649426 0.011527928 -0.118225925 -0.020607192 0.029880036 0.06034935
-0.07770792 -0.04454482 -0.010725017 -0.08209326 0.057977535 0.020637594 -0.06632772 -0.069621004
-0.012743282 0.028607257 0.07952955 -0.008128681 -0.024173437 -0.034740828 0.03381964 0.014822854
-0.055541642 -0.02495189 -0.010514306 -0.040343907 0.024988865 0.07215591 -0.06212261 -0.026599878
-0.074261755 0.09830562 -0.081256844 0.107408494 -0.0122262165 0.015835376 0.08623267 0.0032115374
0.14077587 -0.025985245 0.091100216 0.030003931 0.027816309 -0.034581095 0.083307154 -0.11627727
-0.046712484 -0.027588066 -0.088112034 -0.025610493 -0.057781246 -0.0027779308 -0.017313732 -0.01564237
-0.024443902 0.070642546 -0.022405548 0.012417133 0.015507361 0.014262348 0.008223192 -0.06830266
-0.026210526 -0.11241934 -0.0010551754 -0.00702699 -0.110703684 0.041210193 0.029651394 0.005831507
0.12902914 0.007960825 -0.027699558 -0.047915705 -0.0035697303 0.07649613 -0.06540465 -0.02421146
0.06841175 0.0027545611 -0.02145112 0.028546717 0.0068399273 0.031241138 -0.0022440995 -0.16376202
0.01698682 0.12625298 0.021817982 0.034146816 0.0185934 -0.12302835 0.010458709 -0.06391366
-0.0040800855 0.052056037 -0.007878238 -0.15420993 0.016195308 0.0035642826 -0.01118383 -0.052563295
-0.014115888 0.055861574 0.11136182 -3.194016e-05 -0.0115438085 0.02254592 -0.022023618 0.020731846
0.004335951 -0.07570481 -0.027989618 0.023737624 -0.058670603 -0.11072785 0.075341396 0.014406138
-0.0052099624 0.012157353 -0.012931798 0.0011474644 -0.0020873174 -0.014796329 0.059434302 -0.019930858
0.10421164 0.06996668 0.08158815 -0.032844428 0.004742183 -0.047971014 0.02069816 0.071244225
-0.030580524 0.111015484 -0.08848913 0.043494917 -0.090055645 -0.08417738 0.025282942 -0.063111134
0.123056464 0.038342416 0.035028435 0.0039929333 0.05449966 -0.067643724 -0.10755101 0.040565282
0.009868996 -0.0747022 -0.10325171 -0.06647982 -0.02662694 0.08966218 -0.010286066 0.019922638
-0.02851588 -0.08656288 -0.034387514 -0.17649268 -0.070775114 0.09679735 0.076703474 -0.06895747
-0.06931099 -0.011233008 0.024890805 -0.031192752 0.06276825 0.0115375435 -0.10745997 -0.19177309
0.013959153 -0.09518214 0.040424712 0.0750122 0.002226163 0.047611777 0.0033659737 0.016334984
-0.05456122 0.012545914 -0.057835016 0.009775033 -0.075096905 -0.054690156 -0.082251824 0.057575088

ablang_branch.0.bias f4 [256]
00000000: c24b 873b 29f6 303c f5e3 9bba 4009 163c
00000010: d180 7a3c 4f72 4a3c 17c0 803b f6cb 96ba
00000020: fcfb 803b 048c b83b 8460 bb3b 832f 083b
00000030: ac26 49ba bae1 9a3b 7aa0 493b 405c 43bb
00000040: 141d ffb9 bdb6 4939 9b3e f339 c0ff ed3b
00000050: dcc0 e83a d1a5 113c 0a3b 553c 7d81 4c3b
00000060: 5de4 7a3c b2cf 813c 2a05 bebb de74 ec3b
00000070: 9f9e b93b 944e 01bb ded7 93bb f1b9 6c3c
00000080: b9db a1bb 26d4 163c 41a7 e8bb 259a 8f3b
00000090: 06f2 033c 3ced f5bb bbfa 593a 3cc5 f8bb
000000a0: f781 d13b 1d02 e13a 5ad1 fbba a642 8dbb
000000b0: eb18 553b 73a2 203c ad92 223c c68e 70bb
000000c0: a936 e03a 959e 33bc 4379 163c 289c 56bc
000000d0: 787a 3ebb a7f7 1f3b c676 a33a 76b1 e5bb
000000e0: 13a8 93ba 52d0 9e3c 1894 6abb bfae 343c
000000f0: dd29 9e3a 7b33 96bb ffe2 f8ba 034e 1b3a
00000100: e43b 3e3b 86b9 863b 37fd ccbb 7497 923b
00000110: 5cb9 30bc a225 3c3c e3b9 b53b d2f4 5bba
00000120: 20ad f33b 4b72 9cbb df7a 483b 29e2 473c
00000130: 9919 a03b 727a 373b 7eae 363c 5bce ac3a
00000140: a2d4 a23b 7a1a 123c 33b2 153b 9988 91bb
00000150: 0f94 1a3c fb18 1c3b 8800 96bb 1cdc b1ba
00000160: fc82 d43c 4696 203b d9a7 f7bb 61d4 4b3c
00000170: 5bc1 5dbc 9e75 293b 52dc 8cb7 101e e53b
00000180: 3a77 b23b a5a2 423c acf4 403c 3cbf d8ba
00000190: d1e4 92ba e7e9 9bbb 3584 8abb 4e2b 0e3c
000001a0: d0dc 693c 18ae c6bb a3a2 3c3c 7d07 0c3c
000001b0: 5194 ecbb 3d65 c1bb 0ea8 563b 3de2 98bb
000001c0: 2f56 f8bb 50f8 d8ba da24 a03b 82f4 f7b9
000001d0: 96bf a5ba 767b 96bb 5325 44bb 44d5 383b
000001e0: 6126 16bb 0831 cb3b a2c5 fc3b 5948 e43b
000001f0: a9c1 2fbb ea6a 493b e43c 48bb 55af d83b
00000200: ecf3 e53b 2c19 9a3b a28f 503a 0aeb 9a3b
00000210: 3a74 693b 02f9 56bc 6830 283a 3c93 df39
00000220: 8550 dabb 7ab6 10bb c091 ba3b eb5f 7a3c
00000230: c41a bf3b d0cc bfbb 08f5 8d3b c0f0 453b
00000240: 809d 2fbb cc2d ad38 4213 5a3c 97bb ea3b
00000250: 8672 213b b879 3c3c b500 10bb 7e03 cb3b
00000260: ec37 133c ebd9 ab3c 7e45 e43a 8e95 c1bb
00000270: 4fc0 93ba c616 623a feb4 96bb e076 833b
00000280: a423 bebb aaeb ce3a 9aa1 123b 5735 e3bb
00000290: f542 57bb d26d df3b c7d1 0cbb 35d0 0bbb
000002a0: cf40 9039 0e5c c1bb 12f8 d139 2694 7a3b
000002b0: 30fc 09bc 3060 edb9 b09b 09bc e7ab c2bb
000002c0: 531b acbb 7fd2 ce3a f443 ce3b a83f babb
000002d0: 440f d63b 5221 5c3b 550f c5bb 7f28 c6bb
000002e0: 656a d8bb 4481 033c b565 263b 45eb debb
000002f0: 3428 993b d137 0e3c a2de 4fbb 2891 aab7
00000300: d257 45b8 59ec 253c d0c7 873b 6c81 6638
00000310: 3496 1dbc 82ab 053c 4292 f13b 3f31 c63a
00000320: 840c 303a 4fc8 d7bb e43f a73b 0ec9 7b3b
00000330: 8696 c0ba ebc7 833b eb28 50bb 15a2 5d3b
00000340: fa4b c63b 5ecd 273b 41c7 3fbc c060 ec3b
00000350: d050 a5ba 640f e03b 5f9c d23b 2718 593c
00000360: cc40 1e3b f6c6 a83b 2ff6 90bb 4da1 cb3a
00000370: ef8b 203c c3e0 5c3c 1093 d13b c643 e3ba
00000380: 465b 17bc fd47 46bb bd0e 3cba 7ba2 9b3b
00000390: a9b6 88bb f6d8 da3b fad1 ddbb be87 ceba
000003a0: 4a9a 933b 587e 2dbb 984f 983b 4085 b1ba
000003b0: 4d14 5cbb 9d99 273c 5857 573c 9fc7 bf3b
000003c0: 744a 4dbb b7d5 df3b 6e46 f73b 37da 3abb
000003d0: 8b81 403b 8527 53bc 92d8 acbb 3db1 acbb
000003e0: d7e3 f6bb 2893 f53c 97e2 88bb 800a 6d3a
000003f0: db81 b73b fb7c 973b 7cca 913b 3849 893c
0.004128904 0.010800877 -0.0011893498 0.009157479 0.015289501 0.012356355 0.003929149 -0.0011504877
0.003936289 0.0056319255 0.0057182927 0.0020780272 -0.0007673304 0.0047266157 0.0030765818 -0.0029809624
-0.00048659055 0.00019236929 0.00046395216 0.007263154 0.0017757672 0.008889631 0.013014564 0.003120511
0.015313235 0.015846107 -0.0057989554 0.00721608 0.005664661 -0.0019730674 -0.0045118174 0.014448629
-0.004939523 0.009205854 -0.0071000163 0.004382389 0.008053308 -0.007505087 0.0008315255 -0.0075918715
0.006393667 0.0017166768 -0.0019212172 -0.0043109236 0.0032516073 0.009804356 0.009922666 -0.0036706193
0.0017106134 -0.010963102 0.0091841845 -0.013098754 -0.0029064696 0.0024409087 0.001247131 -0.0070096804
-0.00112653 0.019386444 -0.0035793837 0.011027991 0.001206692 -0.0045837737 -0.0018988549 0.00059244054
0.0029027397 0.0041114716 -0.0062557715 0.004473621 -0.010786381 0.011483582 0.005545841 -0.0008390668
0.0074364096 -0.004774367 0.0030590815 0.012199917 0.004885864 0.0027996567 0.011150001 0.0013184057
0.0049691955 0.008917445 0.002284181 -0.0044413325 0.009434714 0.00238186 -0.0045777 -0.0013569626
0.025941364 0.0024503632 -0.007557851 0.012440772 -0.013534869 0.0025857459 -1.6791895e-05 0.006992109
0.005446342 0.011879598 0.011777084 -0.0016536484 -0.0011207109 -0.004758108 -0.004227186 0.008677317
0.014273837 -0.006063234 0.011513385 0.008546707 -0.007219829 -0.005901961 0.0032753977 -0.0046656416
-0.0075786333 -0.0016553495 0.0048872055 -0.00047293684 -0.0012645598 -0.0045923544 -0.0029929474 0.0028203288
-0.002291106 0.0062009133 0.0077139894 0.0069666323 -0.0026818311 0.0030733892 -0.0030553872 0.006612698
0.007017603 0.0047027078 0.0007955973 0.004727726 0.0035622255 -0.0131208915 0.00064159045 0.00042643573
-0.0066624307 -0.002208142 0.0056936443 0.015281658 0.005832048 -0.005853273 0.0043321885 0.0030203313
-0.0026796758 8.257813e-05 0.0133102555 0.0071634757 0.0024634912 0.011503629 -0.0021973078 0.0061954847
0.008985501 0.020977935 0.001741573 -0.005907721 -0.0011272522 0.00086246093 -0.0045992127 0.0040119737
-0.0058025885 0.0015786786 0.0022374154 -0.006933849 -0.0032846306 0.0068185115 -0.0021487342 -0.0021333818
0.00027514106 -0.0059008664 0.00040048413 0.0038235276 -0.008421943 -0.00045275828 -0.008398935 -0.0059409025
-0.0052522807 0.0015779285 0.0062947217 -0.005683858 0.0065325815 0.0033589196 -0.0060137906 -0.006047308
-0.00660448 0.008026425 0.0025390212 -0.0068029487 0.004673982 0.0086803 -0.0031718393 -2.0333173e-05
-4.705025e-05 0.01012715 0.0041436926 5.4956807e-05 -0.009618331 0.008158566 0.0073721716 0.0015120878
0.0006715732 -0.006585158 0.005104052 0.0038419398 -0.0014693297 0.004021635 -0.003176267 0.0033818532
0.0060515376 0.0025604586 -0.011705221 0.007213682 -0.0012612585 0.006837772 0.0064273323 0.013250387
0.0024147509 0.005150671 -0.0044238786 0.0015535742 0.009798988 0.013481322 0.006395705 -0.0017338924
-0.00923807 -0.003025531 -0.0007173827 0.004749594 -0.0041721654 0.006678696 -0.006769416 -0.0015757007
0.0045044767 -0.0026473012 0.00464816 -0.001354374 -0.0033581436 0.010229495 0.013143383 0.005852654
-0.0031324895 0.0068308967 0.0075462377 -0.0028511414 0.0029374089 -0.01288784 -0.0052748406 -0.005270152
-0.007534485 0.029977396 -0.0041774022 0.0009042397 0.005600197 0.004623053 0.004449187 0.016758546

ablang_branch.1.weight f4 [256]
00000000: ebc9 7d3f b4d8 7d3f 88c3 7d3f 92cf 7f3f
00000010: d82f 823f 2bc3 813f 96ce 813f 0b98 813f
00000020: 51fe 7e3f 4e3b 803f 7f37 803f db94 803f
00000030: 7b99 7f3f 8e42 803f f19d 813f 1af0 7f3f
00000040: 3ac5 803f 03f5 7c3f d434 823f 7558 813f
00000050: 7eba 7e3f e5d6 813f 4b97 823f f0ef 7b3f
00000060: 9e37 833f 9397 803f 8ef0 803f fbba 7d3f
00000070: 0f4f 803f 00ff 7e3f e35c 7e3f 6e3a 833f
00000080: 052d 7e3f 788c 803f 52b8 7c3f d199 843f
00000090: a013 7e3f 5174 7e3f 30a4 7a3f 0d2d 803f
000000a0: 0847 803f 7197 7f3f 0e4d 803f 9268 7d3f
000000b0: edf1 7e3f d798 803f 7c5b 7e3f 4bf2 803f
000000c0: 7b32 833f 0207 803f 0602 813f 1646 823f
000000d0: 69e3 7c3f 6ee2 793f fdff 7f3f 8d2a 813f
000000e0: 304d 833f bcac 823f 9fb5 803f 64fe 803f
000000f0: 3f54 803f 0c22 813f 3f02 7f3f b5cc 783f
00000100: fcc8 7e3f 38b3 803f 5243 813f ebf3 7f3f
00000110: 78ee 803f 5105 7e3f fa33 803f e166 803f
00000120: 230e 7d3f 493b 7f3f cdb0 7e3f eb76 823f
00000130: 6151 823f 8e54 813f a31f 803f 5dea 803f
00000140: 8164 7f3f e439 7e3f 388d 803f 2e00 7c3f
00000150: 6f61 7b3f f8da 7d3f eebe 853f f6f8 813f
00000160: d2e0 893f ea9e 7e3f c662 7f3f 54db 7e3f
00000170: 9e1f 7e3f 0318 823f 69d8 7f3f e565 7e3f
00000180: eef6 803f 31da 7d3f 810f 813f 7dc7 813f
00000190: 585c 803f c45c 7f3f 3019 7e3f 90e8 7a3f
000001a0: 79d4 873f 2fef 7c3f e24b 813f 563a 7f3f
000001b0: cac2 7c3f 4cd2 833f f2b7 7f3f f392 7e3f
000001c0: 0c98 803f d514 803f f9f3 803f bca6 7d3f
000001d0: 2816 803f 7208 7e3f 7548 803f 0355 803f
000001e0: e5c4 823f 2ae4 7f3f e7fd 813f 7295 7f3f
000001f0: e669 813f 0656 823f 5ddd 823f d248 823f
00000200: 5544 813f 485e 7c3f f293 7f3f 2b07 813f
00000210: 5912 823f 432e 7c3f 7852 823f 3263 823f
00000220: ebe9 813f 2b57 813f 37dc 803f 9210 803f
00000230: 4a5b 7f3f e7b5 7d3f ba0b 813f 3561 803f
00000240: 9b49 7c3f 6a37 853f 4882 803f 9ff6 7d3f
00000250: 487c 7e3f 6c68 813f acad 7f3f a817 823f
00000260: f16a 813f 0846 823f 14d6 7f3f 5840 7c3f
00000270: 34da 763f 6b82 813f e8de 7e3f ae97 7c3f
00000280: 4b1b 833f 1557 803f 2226 7f3f 748a 7c3f
00000290: dd78 803f a195 7f3f 0e33 813f 846f 7e3f
000002a0: 5bd8 803f 89c0 7e3f 5eea 7e3f 9061 7f3f
000002b0: f362 803f bd04 7f3f e70d 7d3f 9e33 823f
000002c0: 83d8 7e3f 356a 7b3f 920c 813f eb34 7f3f
000002d0: 496c 803f 4bb7 803f 523d 823f 5dc2 823f
000002e0: 2ca0 7e3f c311 843f 7c92 783f 3a5e 803f
000002f0: 8a08 7f3f a49c 7e3f d735 7d3f 7dc9 803f
00000300: 565a 803f e0a7 7f3f 92f4 803f af6b 7d3f
00000310: 82bb 7e3f bd50 813f 53da 803f 38aa 823f
00000320: 0305 823f 70e0 7d3f 8fbb 803f 97e2 813f
00000330: 1d4b 803f b51f 803f deba 803f 7476 803f
00000340: f41a 803f 9634 7f3f a5b7 823f 366c 833f
00000350: 988a 813f f605 7f3f bb3d 803f 68ad 7b3f
00000360: b531 7c3f 239d 7f3f c201 813f 5eee 783f
00000370: 1e4d 813f 4dd4 7d3f 567c 813f 9b2f 813f
00000380: 215f 7d3f 31d2 813f bbf4 7e3f 3624 813f
00000390: 527e 813f dd62 813f 1a1b 7e3f 16ba 7c3f
000003a0: e116 803f dedc 813f ddf6 7b3f 12ee 7d3f
000003b0: 7627 823f 4762 803f 2893 7c3f b085 803f
000003c0: c3f0 7d3f 30b1 803f 365c 7f3f 14c5 7f3f
000003d0: 236a 7e3f 9569 843f c183 7f3f d6bc 7e3f
000003e0: 2a21 813f 7032 8e3f 7f57 7e3f 9b6c 813f
000003f0: 47fd 7a3f 0a3e 823f 87c7 7f3f 9fc5 843f
0.9913623 0.9915879 0.9912648 0.999261 1.0170851 1.0137686 1.014117 1.0124525
0.99606806 1.0018098 1.0016936 1.0045427 0.9984357 1.0020311 1.0126325 0.9997574
1.0060189 0.9881136 1.0172372 1.010512 0.99503314 1.0143706 1.0202421 0.9841299
1.0251348 1.0046257 1.0073411 0.99113435 1.0024127 0.9960785 0.99360484 1.0252206
0.99287444 1.0042868 0.9871875 1.0359441 0.99248695 0.99396235 0.9790678 1.0013748
1.0021677 0.99840456 1.0023515 0.98987687 0.995879 1.0046643 0.99358344 1.0073942
1.024978 1.0002139 1.0078743 1.0177639 0.987845 0.9761113 0.9999998 1.009111
1.0257931 1.0208964 1.0055426 1.0077634 1.002571 1.0088515 0.996128 0.9718736
0.9952543 1.0054693 1.009867 0.99981564 1.0072775 0.9922686 1.0015862 1.0031396
0.98849696 0.99699837 0.99488527 1.0192541 1.0181085 1.0103929 1.0009655 1.0071522
0.9976273 0.99307084 1.0043097 0.98437774 0.98195547 0.99162245 1.0448892 1.0154102
1.0771735 0.99461234 0.9976009 0.9955342 0.99266994 1.0163578 0.9993959 0.9937423
1.0075357 0.9916106 1.0082856 1.0139004 1.0028181 0.99750924 0.99257183 0.9801111
1.0611717 0.98802465 1.0101283 0.9969839 0.98734725 1.0298553 0.99890053 0.99442977
1.0046401 1.0006357 1.0074455 0.9908254 1.0006762 0.99231637 1.0022112 1.0025944
1.0216337 0.99957526 1.015561 0.9983741 1.0110443 1.0182502 1.0223805 1.0178473
1.0098978 0.9858136 0.9983512 1.0080312 1.0161849 0.9850809 1.0181417 1.0186522
1.0149511 1.0104727 1.0067204 1.0005057 0.9974867 0.99105686 1.0081704 1.0029665
0.98549813 1.0407536 1.0039759 0.9920444 0.9940839 1.0109992 0.9987438 1.0163469
1.0110761 1.0177622 0.9993603 0.9853568 0.964267 1.0117925 0.9955888 0.98668945
1.0242704 1.0026575 0.9966756 0.9864876 1.0036885 0.9983769 1.0093706 0.9938891
1.0066026 0.99512535 0.99576366 0.99758244 1.0030197 0.99616605 0.9884934 1.0172002
0.9954912 0.98208934 1.0081961 0.9969012 1.0033046 1.0055937 1.0174963 1.0215565
0.9946315 1.031792 0.9709852 1.0028756 0.99622405 0.99457765 0.9891028 1.0061489
1.0027568 0.9986553 1.0074637 0.9899244 0.99504864 1.0102764 1.0066627 1.0208197
1.015778 0.9917059 1.0057238 1.0147275 1.0022923 1.0009676 1.0057027 1.0036149
1.0008225 0.99689615 1.0212294 1.0267398 1.012042 0.9961847 1.0018839 0.9831147
0.98513347 0.99849147 1.0078661 0.9723872 1.0101659 0.9915207 1.0116069 1.0092653
0.9897328 1.014227 0.9959218 1.0089176 1.0116675 1.0108296 0.99260104 0.98721445
1.0006982 1.0145528 0.9842356 0.9919139 1.0168293 1.0029992 0.9866204 1.0040798
0.991955 1.0054073 0.9975008 0.9991009 0.993807 1.0344721 0.99810416 0.9950689
1.0088246 1.1109142 0.9935226 1.0111269 0.9804272 1.0175183 0.9991383 1.0372809

ablang_branch.1.bias f4 [256]
00000000: 8c0d ceba 4559 cebb 0a5f b3bb 9dbe 1239
00000010: 456d f53b 4c01 f439 4bf3 6abc 1af0 5ebc
00000020: e464 1e3b 8327 fc3a d5fc aeb9 5c99 cbba
00000030: ce68 0ebc eac5 22bb bc77 4c3b 3738 00bc
00000040: fed0 9939 3875 c5bb 0d49 893a 736b 9cbc
00000050: ae81 a2bb 8867 123c 015d 283c e756 cdbb
00000060: bf82 793c e80b 933a 097d bfbb 0d07 1abc
00000070: f1e4 3f3b 68a9 f3bb d807 01bc 20b5 3c3c
00000080: 7f88 18bc a7cc c43b 4ce2 35bc 74e2 e6bb
00000090: 302b 713b 657a 1ebc 8407 f9bb 64bd 79bc
000000a0: f655 773b 442a 01bd 661e 8ebb 0f8f 05bc
000000b0: 71b6 2ebc 191b 7d3b 96be 08bc 2dcb 56bb
000000c0: dea7 2abb 7e16 67bc 4ecf b43b 13c6 94bc
000000d0: 1afa 3ebc d4f4 9bbb 6e33 493a 135c 14bc
000000e0: ce49 eebc ed29 293c c3ef 1fbb 3570 333c
000000f0: 78b8 383a f887 48bc a5d8 8abb 384c 47bc
00000100: ecee 83bb 764d 2b39 7e12 e7bb 3612 033a
00000110: d5df 6bbc 9378 233b fdaa aebb 7e33 1d39
00000120: c460 483b 5b15 91bb f918 ac3a a2b1 9dbb
00000130: 6e6c c1bb ba90 a7bb 918a 0e3c 104a 26bc
00000140: 9be6 57ba 8240 1b3b 6138 ceba 679c 13bc
00000150: 5925 c3b9 1e59 c9ba eb12 fdbc 328e fbbc
00000160: dc13 c83c ff5f 09bb c3c6 3dbc 80c1 413b
00000170: 090c 92bc d767 2b3b 9493 bfbb 6335 9c3a
00000180: ebb0 87bc 9977 f33b ee80 a4bb 01bf f5bc
00000190: 0a83 89bb 607f 0cbc 030b aabb b747 75bb
000001a0: d765 813c 8ed5 79bc f8e8 c6bc c562 683b
000001b0: d347 27bc dc0a 21bd 8671 38bb aa2a ffbb
000001c0: 500b 2bbc 9d90 dfbb 7587 2c3b 83a5 51bb
000001d0: 51ce 3dbb 2c18 18bc c671 1dbc eafc adba
000001e0: de33 18bd f453 83ba 81f6 c83b b9b9 7f3b
000001f0: 1177 59bc bd10 2fba 7abd 9abc ae26 a63b
00000200: 85c8 0ebb 77b4 08bc b916 acbb 2393 02bb
00000210: cdb4 37ba d6e4 8ebc 4354 723a 1ae2 d0ba
00000220: 661d 5cbc 423a bebb ceef c9ba 0bd0 e73b
00000230: 2a1f 1d3b edc7 20bc 7c13 82bc 674d 7dbc
00000240: 20ed abbb 5ecc 45bb b9cd 1d3c 42ee 6e3b
00000250: 5a31 6bbb cf05 1e3c 7ab5 83ba eb94 17bc
00000260: 18c5 94bb d157 743c 970b 5cbb 36d6 0cbc
00000270: f4f1 56bc c6a2 bbbb ea6c d9bb afa4 3cbc
00000280: a1ce 51bc 546a 3db9 12cc 94bc 5845 61bc
00000290: 757c dabc 1a49 053a b1a8 dcbb 45c5 05bc
000002a0: 6334 56b9 2c00 26bc 8ace 50ba 8d3e ae3b
000002b0: a764 35bc c989 6dbc 9cc1 3cbc f815 63bc
000002c0: 68dd 9bbb 936d adbb 385f dfbb 193a 33bc
000002d0: 07b3 863b 92cd 54bc e611 84bc 9d14 86bc
000002e0: e43c 03bc c806 cb3b 40d8 49bc c898 21bc
000002f0: 97b4 b5bb 3516 a53b c61e eebb 3961 a8bb
00000300: 1379 1ebc ebe2 1cbc 5ccf ba3b 51c4 82bb
00000310: 8e4e 8dbc 471d e13a 656d 503b b247 fabc
00000320: f99f 2ebb 6c9e 2dbc 1894 973b 8e03 07bb
00000330: 63e0 c2bb f4f0 263b 40c5 03bc 2c05 1b3b
00000340: 06a2 623b 329c 5dbb 1573 93bc 4020 9639
00000350: 55c8 09bc 973b 0a3b e12d 423b 30d7 073b
00000360: 1532 98bb 1071 633b 8ab1 a6bb 152d 49bc
00000370: 0197 af3b 3223 cfbb c489 363a d89d 9139
00000380: 83f9 2bbc 90a6 84bc d13d bebb 6b95 4c3b
00000390: e535 14bc 6988 013b 9f63 56bc 76e1 0dbc
000003a0: e0a8 abba 05b2 5abc 43ad 84ba e73b c4bb
000003b0: f626 67bc e407 b53b 5ef1 efbb 63b2 9a3b
000003c0: 6b3c a9bb d7ce 683b 1367 a0bb 4517 96bb
000003d0: e4df 48bb b373 ebbc c41f e0bb 49dc 58bc
000003e0: c7ce 3fbc f9cd 093d c868 cabb 6572 80bb
000003f0: e447 10bb a597 beba e8b2 e1b9 3c02 8f3c
-0.001572059 -0.006297263 -0.005473976 0.00013994654 0.0074898326 0.00046540273 -0.014340232 -0.013607049
0.0024169022 0.001923785 -0.0003337624 -0.0015533376 -0.00869198 -0.0024837204 0.0031199297 -0.007825903
0.00029338145 -0.0060259365 0.0010474041 -0.019094205 -0.0049593067 0.008935817 0.01027608 -0.006266463
0.015228926 0.0011218758 -0.005843763 -0.009401095 0.0029280747 -0.0074359663 -0.007875405 0.011517793
-0.009309887 0.006005842 -0.011101317 -0.0070460383 0.0036799423 -0.009672736 -0.007599773 -0.015242908
0.0037740446 -0.03153445 -0.00433712 -0.008151784 -0.010663615 0.0038620888 -0.0083462205 -0.003277491
-0.0026039998 -0.014104484 0.0055178767 -0.018160855 -0.011656309 -0.0047594104 0.0007675205 -0.009055155
-0.029087927 0.010324937 -0.0024404384 0.010952045 0.0007046531 -0.012239449 -0.004237252 -0.012164168
-0.0040262844 0.00016336687 -0.007051765 0.0004999967 -0.014396627 0.0024943694 -0.005330442 0.00014991869
0.0030575255 -0.0044275946 0.0013130001 -0.0048124352 -0.0059028184 -0.0051136883 0.008700029 -0.010149494
-0.0008235962 0.0023689573 -0.0015733355 -0.009009457 -0.00037221125 -0.0015361642 -0.03089281 -0.030707452
0.024423532 -0.002096176 -0.011583033 0.0029564798 -0.017828004 0.0026154423 -0.00584645 0.0011917766
-0.016563853 0.0074300286 -0.0050202524 -0.029998304 -0.0041965293 -0.00857529 -0.005189301 -0.0037426779
0.015795631 -0.015248669 -0.02428101 0.0035459262 -0.010209995 -0.039316997 -0.0028143837 -0.0077870684
-0.010439709 -0.006822659 0.0026325856 -0.0031989522 -0.0028962085 -0.009283107 -0.009609645 -0.0013274227
-0.03715884 -0.0010019527 0.006132901 0.0039020611 -0.013273017 -0.00066782144 -0.018889178 0.005070529
-0.0021787 -0.008343807 -0.005251732 -0.0019924126 -0.00070078374 -0.017443102 0.00092441234 -0.0015936524
-0.0134347435 -0.0058052847 -0.001540655 0.007074361 0.0023974874 -0.009813291 -0.015878431 -0.015460349
-0.0052467734 -0.0030181627 0.009631568 0.003645793 -0.003588757 0.00964494 -0.0010048591 -0.009251813
-0.004540097 0.014913515 -0.0033576244 -0.008595994 -0.01311921 -0.005726191 -0.006635298 -0.011513873
-0.012805612 -0.00018064055 -0.018163715 -0.013749443 -0.026670674 0.00050844403 -0.006733977 -0.0081647085
-0.00020428146 -0.010131877 -0.0007965347 0.005317515 -0.011071361 -0.014498183 -0.011520769 -0.013860218
-0.0047566183 -0.0052926033 -0.006816771 -0.0109391445 0.004110697 -0.012988465 -0.016121816 -0.016367251
-0.008010123 0.0061958767 -0.012319624 -0.009863086 -0.0055452096 0.0050380477 -0.007266852 -0.005138543
-0.009672421 -0.009575586 0.0057009887 -0.003990688 -0.017249372 0.0017174863 0.0031803485 -0.030551765
-0.0026645644 -0.010596853 0.0046258084 -0.0020601484 -0.005947159 0.002547321 -0.0080426335 0.0023654206
0.0034581437 -0.0033815023 -0.017999211 0.00028634258 -0.008409579 0.0021092647 0.0029629397 0.0020727627
-0.004644642 0.0034704842 -0.0050870823 -0.012278815 0.0053585772 -0.0063213343 0.00069632777 0.00027774158
-0.0104965 -0.016192704 -0.005805709 0.003121699 -0.009046053 0.0019765145 -0.013085275 -0.008659711
-0.0013096593 -0.013348107 -0.0010122437 -0.005988586 -0.01410841 0.0055246223 -0.0073224744 0.0047209724
-0.005164673 0.0035523677 -0.0048951 -0.0045804107 -0.0030651027 -0.028741693 -0.0068397243 -0.013236114
-0.011707014 0.033643696 -0.0061770417 -0.003919887 -0.0022015506 -0.0014541043 -0.0004304864 0.01745712

ablang_branch.4.weight f4 [128, 256]
00000000: 3e5a 9d3d 00fd b73c ce8a e63a 66c4 0ebe
00000010: fa53 18be 6587 34bd 9175 d23d 312c 7b3d
00000020: df1c 2e3d 42a8 653d d2b8 b5bd 6d9e ee3b
00000030: 6d97 e7bd c01a 163e 764a b23c f0cd 173d
00000040: 7b7d 1f3e 4c4f a83c ff17 703c 7ba4 813c
00000050: a512 5fbd 19b8 bbbd 59da 053d 9b92 d6bc
00000060: f96a 62bd 6a68 cfbc ec0b d43d 6121 8ebc
00000070: ac66 2d3e 162d 42be d449 7bbd 48ff 71bd
00000080: a4c3 4bbd 3def ca3c a436 e0bb cabc 18bd
00000090: f82e e73d 8ca7 c63c fbec d9bd 69ed 6dbd
000000a0: 6956 b6bd 8c1c f73c 650f 353e 6338 d6bd
000000b0: 98cc 203d 992b 8a3c 9cb2 27bd 3871 143b
000000c0: 39b9 383e bb79 193e 4263 383d 0567 c6bd
000000d0: 2841 783d 15cf 1abe 24ae 023d 095f 88be
000000e0: 5e21 513d 5485 4dbe d05b 60bd 2a98 2cbe
000000f0: 21d5 d0bd 96bf 02bc c8dd 7bbd 1127 eebd
00000100: 1a8c 58bd e086 813c 762f 0a3e 2c97 8abd
00000110: 20cb 5bbd 5bd9 ce3c c1f1 573e 2d36 8f3b
00000120: b1dd 903d ccd2 bcbd b050 8bbc 76a3 8f3d
00000130: b570 193e 3745 25be 7ccf 7f3e 4ec3 b7bc
00000140: 6d0c 32be 1581 9a3c 315f 6cbc 92da efbb
00000150: ded1 82be 6745 fabd 02be 69b9 57e2 4a3c
00000160: a4cc 6bbd 485b 1dbe d8b5 3fbd 14d3 a3bc
00000170: e3ce 9b3d 8337 413d 3de3 20be 31a1 4ebd
00000180: 60ce b63d 98de 88bd f4c2 993d 45fa 093d
00000190: 58ab 863d 1ae1 203e c277 043e 328d 31bd
000001a0: 7442 bcbc 5b6b 383d 9ad6 1c3e 7c8f 90bc
000001b0: 8502 6f3d 36af 93bd 794a c03d d3b9 e3bd
000001c0: dfd9 cc3c 8e97 9e3d 720c c6bc 78e1 a93c
000001d0: 4593 323c 7c35 20be 533b b7bd 9b9a d4bc
000001e0: 0a97 ff3c 3f9b 26bd f891 39bc c4e0 cc3d
000001f0: 1e1e 833d c2ce b63c 2be1 7b3d 74e1 9dbd
00000200: 36c5 84bd 26a3 073e 0681 8d3d 57f8 203c
00000210: 0e0c dcbd b553 1cbe 356f cebd cb37 4f3d
00000220: 01a6 b63a 36f7 c53d ab0b 1a3d 65a4 16bd
00000230: 6b29 db3d 6d24 f5bd 9f1c 27be 2a92 c83d
00000240: e492 b13d 617d fa3d aaeb 0bbe 1585 fcbb
00000250: 83c9 95bd db3f 5abd 16f0 76be 1b78 ef3d
00000260: 0dc3 153b 6d59 89bb f9d4 363d 27da 27bb
00000270: 277a 00bd 5288 1cbd a18f b83d bec4 1ebe
00000280: b863 a4bd a8e8 e5bd 57e5 babc bd51 b4bd
00000290: 39c1 3f3e acc1 4bbe d2e9 8d3c c34e 883d
000002a0: 666c 6abe 691a 88bb 2d81 00bd c3bc aebb
000002b0: 4fcf 023e 99e5 a33d b870 d93d 421d cc3d
000002c0: e55c 563d c9b8 7d3d 3f67 b9bd 54f4 11bd
000002d0: 7661 1a3e ca99 abbd 6e07 393d 69ae 483e
000002e0: 4763 5f3b 3e7d a6bd f781 783d a137 20bd
000002f0: ec8a df3c 23e9 5a3d abbf 82bd 4492 f7bd
00000300: e409 0fbd 7478 de3c 4863 ee3c 66f4 1e3d
00000310: e81b 453e 6be5 fd3c b61c e5bd 52bb 5a3d
00000320: 6345 26bd 81fb 4cbd fd25 82bd b995 863d
00000330: c409 833d 932c e2bd 4c77 baba 031b 25be
00000340: 6640 28bd a659 7abd cd4b 303d b958 19be
00000350: f21f fdbc bb67 813d 2882 e33c e402 a83d
00000360: 0e23 dbbd 1c2e bc3d 9488 a43d 7871 a2bc
00000370: c578 78bd 2b60 fabd 5f2b 23be 91a6 0ebe
00000380: e058 b03b 0113 ba3d 5606 80bc 1d84 b53d
00000390: 60d8 e03d 4542 1e3e 9c10 b23d ff9f 243a
000003a0: 3f10 02be 431e c03d 19ab b93d de84 183e
000003b0: 94f0 16bc f4e0 2dbd 199b 1ebd 454f 273e
000003c0: 7148 1cbc 5e0b 2c3c 50d8 c33d aa8e ae3d
000003d0: b98a 1bbe e801 ef3d 6e27 54bd 55ea f6bc
000003e0: 0596 973d 7f99 dbbc ef75 37be e2f1 4a3d
000003f0: f8d4 d93c 30ac 893d 36b9 c93c ad7a b6bc
0.07683228 0.022459507 0.0017588974 -0.13942108 -0.14875785 -0.044074435 0.1027633 0.06132144
0.042508002 0.056068666 -0.08873142 0.0072820694 -0.11308179 0.14658642 0.021764021 0.03706163
0.15575211 0.020545624 0.014654159 0.0158255 -0.05446114 -0.09165973 0.032678936 -0.026192954
-0.0552778 -0.025318343 0.103538364 -0.0173499 0.16933697 -0.18962511 -0.061349705 -0.059081346
-0.049747124 0.02477228 -0.006842451 -0.03728942 0.112882555 0.024249814 -0.106409036 -0.05808774
-0.089032 0.03016498 0.17681654 -0.10459974 0.039257616 0.016866492 -0.04094182 0.0022650491
0.18039407 0.14987843 0.045016535 -0.09687618 0.060609013 -0.15118058 0.031904355 -0.26635006
0.051057212 -0.20070392 -0.05477506 -0.16854921 -0.10196901 -0.007980248 -0.061490804 -0.11628545
-0.052867986 0.015811384 0.13494667 -0.06767115 -0.053660512 0.025250128 0.21088316 0.004370472
0.07073534 -0.09219894 -0.017006248 0.070135996 0.149844 -0.16139685 0.24981493 -0.022431996
-0.17387553 0.01886038 -0.014426992 -0.007319757 -0.2555074 -0.12220269 -0.00022291395 0.012383065
-0.057568207 -0.15366852 -0.04680428 -0.01999811 0.0760782 0.04717208 -0.15711685 -0.050446693
0.08926082 -0.066830814 0.075078875 0.03368594 0.0657565 0.1571087 0.12936309 -0.043347545
-0.022980906 0.045024257 0.15316239 -0.017646544 0.058352012 -0.07211153 0.093892045 -0.111194275
0.025006233 0.077437505 -0.024175856 0.020737395 0.01089937 -0.15645403 -0.08946862 -0.025952628
0.03119995 -0.040675398 -0.011326306 0.10003808 0.06402229 0.022315387 0.061494034 -0.077090174
-0.064829275 0.1324583 0.06909375 0.009824834 -0.10744487 -0.15266307 -0.10079805 0.050590318
0.0013934971 0.09666292 0.037608784 -0.036777873 0.10701259 -0.11969838 -0.16319512 0.097935036
0.08670595 0.122309454 -0.13664117 -0.0077062943 -0.07313826 -0.053283554 -0.24115023 0.1169283
0.0022851855 -0.0041915686 0.0446367 -0.0025612207 -0.031366494 -0.038215943 0.0901177 -0.15504739
-0.08026832 -0.11226016 -0.022814436 -0.08804653 0.18726052 -0.19898099 0.017323408 0.066556476
-0.22892913 -0.004153539 -0.03137319 -0.0053325607 0.12774394 0.08002777 0.106172025 0.09966518
0.052334685 0.061943803 -0.09052896 -0.0356334 0.15076241 -0.08378942 0.0451731 0.19597782
0.0034086274 -0.08129357 0.06067082 -0.03911555 0.027287923 0.053444993 -0.06384214 -0.12088445
-0.03492154 0.027157046 0.029100075 0.038807295 0.19248927 0.030993184 -0.11187117 0.0534013
-0.040593516 -0.05004454 -0.06354902 0.06571526 0.06398347 -0.11043658 -0.0014226227 -0.16123585
-0.04107704 -0.06112065 0.04304104 -0.14975251 -0.030899022 0.06318613 0.027772024 0.08203676
-0.107000455 0.09188482 0.08033863 -0.019829497 -0.06066205 -0.12225374 -0.15934514 -0.13930728
0.0053816885 0.09085656 -0.015628021 0.08863089 0.1097877 0.15454967 0.08694574 0.0006279945
-0.1270151 0.09380772 0.090658374 0.14894435 -0.009212632 -0.04245086 -0.03872213 0.16338833
-0.009538756 0.010500757 0.09562743 0.08523305 -0.15189637 0.116702855 -0.051795416 -0.030141035
0.07401661 -0.026806591 -0.17916082 0.049547084 0.02659081 0.06722295 0.024624448 -0.022275293

ablang_branch.4.bias f4 [128]
00000000: f2c9 f5ba 3d22 4abb 3dc0 a33c 0663 23bd
00000010: 79e2 1cbc be0f 483b 27b7 d3bc 3cf2 943b
00000020: 99f5 0e3d dde6 c6bc 9d95 bc3c c5b0 15bc
00000030: 6245 a7bb cde3 853c fca6 8a3a a96b 9abc
00000040: 27fe a53c f23b cebb 6cbb 11bc a2b6 873a
00000050: cabc d53a c213 89bb dd01 56bc 88c4 313b
00000060: dcdf 1f3c 39ae 8fbb 51d0 173d ade7 68bc
00000070: 6a5e 97bc dee2 00bc cfdd 173d 944d f7bb
00000080: ed39 103c a9f6 53bc 367e a8bb a072 26bc
00000090: 26b3 8c3b a904 0d3d cb0b 02bc 241e c9bc
000000a0: effc 45bc 0252 f4bb d829 27bc e67a 9ebc
000000b0: 740e aabb 16a9 0b3c 49b7 82bc 484d fdbb
000000c0: ba31 613c 961f 08bc 46f0 80bc 5221 62bc
000000d0: 0891 65bc bc81 a1bc 7d50 f03b d752 80bc
000000e0: ca07 a8bc 6c69 a93c 3b74 62bb ecaa 65bc
000000f0: 935d 8b3c 02fa dfba 6a4f e0bb 338c 89bc
00000100: 5a7d 00bd 4241 64bc 7fe3 11bc 73f1 84bb
00000110: d6d2 36bc 1050 0bbc 291f 5cbc d962 643c
00000120: 819a 38bb 2d71 b63b 9e0b b9bb cd57 113d
00000130: 012f 8bbb c152 3a3b 9d77 acbb 3ccc 8abc
00000140: acdf 113d 0aa4 bdbc 65ee 32bc afde 6fbc
00000150: 6739 8d3b ff17 1cbc a14a 75bc 84ea a73a
00000160: 770f bfbb 15c5 9cbc faa8 d8bb 3334 123b
00000170: 5107 1abc aa11 74bc f07e bdbb 29e3 b2bc
00000180: 86ab d5bb 06f8 2dbc 1e40 f4ba a07c 3ebc
00000190: 62d0 65bc fe19 0bbb 0ab8 a4bb deea 08bb
000001a0: 1816 9cbc fb24 b93c 1262 f43b 317a bfbc
000001b0: b480 18bc 6af7 4fbc 425a 53bc e9fe 563b
000001c0: 8872 a23c 8ec4 f2bc 2499 933b 6ede 953b
000001d0: 043f 273b 19a1 d63b 0e45 13bd cef0 30bc
000001e0: 5301 ac3c eb02 07bc 25a7 afbc fb48 27bc
000001f0: 87f4 7bbc 2043 c33c b49a d9bb 1128 e8ba
-0.0018752201 -0.0030843162 0.019989127 -0.039889358 -0.00957548 0.0030526961 -0.02584417 0.004545478
0.03490219 -0.024280006 0.02302056 -0.009136383 -0.0051047066 0.016343975 0.001057833 -0.018850164
0.02026279 -0.006293767 -0.0088947825 0.0010354111 0.0016306874 -0.0041832635 -0.013061968 0.0027125198
0.009757962 -0.0043847826 0.0370639 -0.014215392 -0.018477637 -0.007866589 0.037076768 -0.00754709
0.008802873 -0.012937226 -0.0051419986 -0.010159165 0.004293817 0.034428272 -0.007937382 -0.024550505
-0.01208423 -0.007456065 -0.010202847 -0.019345712 -0.005189711 0.0085242 -0.015956538 -0.00773016
0.013744766 -0.008308312 -0.015739571 -0.0138018895 -0.014011629 -0.019715182 0.0073338137 -0.015664501
-0.020511527 0.020680152 -0.0034554142 -0.014017802 0.017012393 -0.0017088058 -0.0068454044 -0.016790485
-0.031369545 -0.013931574 -0.008904337 -0.0040571033 -0.011158666 -0.008502975 -0.013435164 0.013939583
-0.0028168263 0.005567691 -0.005647137 0.035484124 -0.0042475467 0.0028430673 -0.0052632825 -0.01694309
0.0356137 -0.023149509 -0.0109210955 -0.014640494 0.0043098214 -0.0095272055 -0.014971406 0.001281098
-0.005830701 -0.019136945 -0.0066119405 0.0022308945 -0.009401158 -0.01489679 -0.0057829544 -0.021836834
-0.0065206913 -0.010618215 -0.0018634831 -0.011626393 -0.014026733 -0.002122521 -0.005026822 -0.0020891945
-0.019053504 0.022600641 0.00745798 -0.023373695 -0.009308029 -0.012693265 -0.012899937 0.0032805747
0.019830003 -0.02963474 0.00450434 0.004573635 0.0025519738 0.006549966 -0.035954528 -0.0107996
0.020996725 -0.008240442 -0.021442005 -0.010210271 -0.015378124 0.023835719 -0.0066407565 -0.0017712136

ablang_branch.5.weight f4 [128]
00000000: ac92 7c3f 97f0 763f 6f8d 7a3f ce34 7b3f
00000010: 931a 733f 358f 7e3f 7cae 813f 43f8 763f
00000020: 3625 803f c25d 713f 07fe 7d3f 6c42 7d3f
00000030: 36ba 7d3f ffd4 823f 8d32 793f e12c 7a3f
00000040: 3432 843f f8b0 7d3f a4e2 7b3f b9e0 7e3f
00000050: eaee 7b3f f2da 7d3f 013c 7f3f 8545 7e3f
00000060: 1105 7f3f cd2a 7d3f 5cb1 843f 6ad4 7d3f
00000070: 7654 7d3f 3fda 7f3f e44e 833f 5259 7e3f
00000080: e037 7d3f d1c2 723f b760 7a3f e3f8 7d3f
00000090: 7e3c 803f cc39 843f d726 7a3f 1e55 813f
000000a0: 2196 7b3f 1bcb 7d3f 2471 7d3f d5a7 7c3f
000000b0: dfb1 7f3f 3221 813f f5ed 7b3f 87a4 733f
000000c0: 0a06 823f 7b06 7c3f e9eb 7c3f 272d 823f
000000d0: cb72 803f 1c61 7f3f a671 753f 14b7 803f
000000e0: c802 7c3f 2de2 7d3f 51ea 7b3f 00e5 7e3f
000000f0: 437f 853f e31c 7f3f f69d 7e3f 9573 7e3f
00000100: cf8b 7e3f 2bf6 7a3f 9c8b 7d3f 0e48 7b3f
00000110: 51af 7d3f 67f6 7d3f 2309 813f 6752 843f
00000120: c258 793f ff5b 813f ed9d 7f3f 531d 873f
00000130: 8ff1 7a3f 394a 7d3f 6e11 7f3f bd55 7c3f
00000140: 2b94 8a3f fe6c 7f3f b055 803f 65da 7f3f
00000150: 4023 733f 2718 7d3f 1ea7 803f b43d 7e3f
00000160: 8ff6 7e3f 60b0 7d3f 279e 7e3f eff5 783f
00000170: e084 7c3f b626 7d3f 2bb1 7e3f 6f60 813f
00000180: 9a98 793f 4c09 7c3f f334 813f 956d 7b3f
00000190: 2e2c 803f d188 803f 7591 773f b35c 753f
000001a0: 523f 7c3f 9069 813f 3d3c 7c3f 78ea 803f
000001b0: 49bf 7b3f 3e9c 803f 0d00 813f ffd9 7e3f
000001c0: d2c5 6e3f 3e61 803f 58b6 7c3f 6eea 7d3f
000001d0: 227e 773f b238 7d3f 04d1 803f e699 7d3f
000001e0: a1a0 833f 85bd 7c3f 5c67 7a3f d572 7e3f
000001f0: 7454 803f 3576 833f c2a9 7b3f 76ec 7b3f
0.98661304 0.9646086 0.9787206 0.9812745 0.94962424 0.99437267 1.0131373 0.9647257
1.0011356 0.9428369 0.9921574 0.98929477 0.9911226 1.0221251 0.9734276 0.9772473
1.0327821 0.9909816 0.983927 0.9956165 0.9841143 0.9916221 0.99700934 0.9932483
0.99617106 0.98893434 1.0366626 0.99152243 0.98957 0.9994239 1.025845 0.9935504
0.98913383 0.94828516 0.97803825 0.99207896 1.0018461 1.0330138 0.97715515 1.0104101
0.98275954 0.9913804 0.99000764 0.9869359 0.99880785 1.0088255 0.9840997 0.95172924
1.0158093 0.9844739 0.9879747 1.0170029 1.0035032 0.9975755 0.9587654 1.0055871
0.98441744 0.9917324 0.98404413 0.99568176 1.0429462 0.9965345 0.9945978 0.99395114
0.9943208 0.9803187 0.9904115 0.9815682 0.99095637 0.99204105 1.0080913 1.0337647
0.9740106 1.01062 0.9985035 1.0555824 0.9802484 0.9894138 0.9963597 0.98568326
1.0826467 0.99775684 1.002615 0.9994262 0.9497566 0.9886498 1.0051 0.993129
0.9959497 0.9909725 0.9946007 0.97250265 0.9864025 0.98887193 0.99489087 1.0107554
0.97498477 0.98451686 1.0094284 0.98214084 1.0013483 1.0041753 0.96706325 0.9584457
0.9853412 1.011034 0.98529416 1.0071554 0.98338753 1.0047681 1.007814 0.99551386
0.932706 1.0029676 0.98715734 0.99185836 0.9667684 0.98914635 1.0063787 0.99062955
1.0283395 0.98726684 0.97813964 0.9939397 1.0025773 1.0270449 0.98305905 0.98407686

ablang_branch.5.bias f4 [128]
00000000: 4c7e 4cbb 9150 9cbb 9987 193d e778 33bc
00000010: 61a9 78bc 6c99 a43a dc27 e8bc 7298 eb3b
00000020: 1540 613d cb41 bbbc 50d9 1f3d e862 62bc
00000030: a4f7 dabb 5689 f83c 0b2e 25bb 1640 b8bc
00000040: 480b 0b3d 562e d6bb 9ba2 b4bb 2cf6 8f3b
00000050: 6011 483b 6096 7fbb aa17 94bc 3088 0c3b
00000060: c45f 923c fa76 a5bb ca0f 4f3d 189e 89bc
00000070: 4d64 33bb 77c6 36bc b209 693d 5dc4 6abb
00000080: 836b 3b3c b9d0 2f3c 2eac cfbb 40be 14bc
00000090: 2c1b 223c c7d3 5a3d 0516 f0ba 701b 3dbc
000000a0: bece 69bc d72c e6bb 9363 97bc 00f7 52bc
000000b0: dfbe ffbb c657 843c 66b7 8fbc 0f09 09bc
000000c0: 6bcc a83c 3bfc acbb 9ff1 9ebc 9106 93bc
000000d0: 5598 75bc 55b3 e9bc 07cf 1f3c 4242 dbbb
000000e0: 5963 a3bc 0658 0b3d 697b d9ba 42e4 cc3a
000000f0: 33d1 0f3d 1994 6abb ec6b d8bb fb07 90bc
00000100: c8f3 fbb9 2a99 fabb b149 0bbc 57e5 9dbb
00000110: ff83 22bc 4677 45bc 0619 4dbc 9329 bd3c
00000120: e883 ffbb 7632 2d3c 080a f5bb ec37 5a3d
00000130: 03f7 9cbb 511c 3e3c af79 03bc 7031 fc3b
00000140: 279c 553d 8570 d9bc 1976 2dbc fdb9 90bc
00000150: c21f 663c bed7 ddbb d591 99bc cf50 0f3b
00000160: e72f 13bc 6c47 c8bc a84b d2bb db3c 953b
00000170: a698 08bc 0e32 96bc e25e 00bc 01c3 97bc
00000180: 42e0 6bbc 702f 43bc 40f9 20bb c32c 0d3b
00000190: 84be 80bc e4fe 54ba eb2b 14bb fed1 463c
000001a0: e28a 13bc 1012 203d 20ec 1f3c 42bf b9bc
000001b0: 5c03 d0ba cf5d 4fbc d0a5 09bc 5878 ad3b
000001c0: f6e1 073d 6dcf 0abd b4c3 133b 2aab cf3b
000001d0: 228c 9f3b 5f88 223c 9fb7 21bd f71a 5cbc
000001e0: 58eb ff3c 4ee8 05bc 5864 ecbc 7ae8 45bc
000001f0: 600c b0bc 07d7 283d b890 04bc f971 80bb
-0.0031203208 -0.0047703465 0.03748283 -0.010954118 -0.015177102 0.001255793 -0.028339319 0.0071898038
0.054992754 -0.022858521 0.039025605 -0.013817526 -0.006682353 0.030338924 -0.0025204446 -0.022491496
0.033946306 -0.0065362854 -0.005512548 0.0043933596 0.0030527934 -0.0038999543 -0.01807769 0.0021443479
0.01786793 -0.0050495835 0.050552167 -0.016799018 -0.0027373016 -0.011155716 0.05689401 -0.0035822608
0.011439207 0.010730916 -0.006337664 -0.009078562 0.009894174 0.053424623 -0.0018317109 -0.011542186
-0.014270483 -0.0070243883 -0.018480098 -0.012876272 -0.007804736 0.016155135 -0.017543506 -0.008363976
0.020605287 -0.0052790917 -0.019402323 -0.017947467 -0.014989932 -0.028527895 0.009753949 -0.006691248
-0.019944834 0.034019493 -0.0016592565 0.0015631991 0.035111617 -0.003579384 -0.006604662 -0.01758193
-0.00048056082 -0.007647653 -0.008501456 -0.004818599 -0.009919166 -0.012052363 -0.012518173 0.023091113
-0.007797707 0.010571113 -0.0074780025 0.053275988 -0.0047901883 0.011603431 -0.008024617 0.007696323
0.05215087 -0.026542911 -0.010587239 -0.017666811 0.014045658 -0.0067701032 -0.018746296 0.0021868234
-0.008983589 -0.02444812 -0.0064177103 0.0045543737 -0.0083371755 -0.018334415 -0.007835122 -0.018525602
-0.014396729 -0.011913165 -0.0024562627 0.0021541573 -0.015715845 -0.000812514 -0.0022609185 0.012135027
-0.00900528 0.039079726 0.009760886 -0.022674207 -0.0015870142 -0.012656643 -0.008401349 0.005293887
0.033174478 -0.033889223 0.0022547068 0.006337543 0.004869 0.009920209 -0.039481755 -0.013434163
0.03124015 -0.008173062 -0.028856441 -0.0120793525 -0.021490276 0.04122069 -0.008091144 -0.0039198366

ablang_branch.7.weight f4 [64, 128]
00000000: d29a 6cbc 3948 69bd ffd8 ffbd 927d 523d
00000010: a21a ac3c 5003 59bd 11b4 f6bd c91a 143c
00000020: 4b6a 0e3d bb16 0b3d a33b 16be 35ed 663e
00000030: a16d bc3c a26d 56be 9221 98bc 2e13 97bb
00000040: 6822 b1bc 31b1 62be 07c1 043d 79b0 9fbd
00000050: a311 d63d d5e3 7bbd c783 17be 477b 4abd
00000060: 226d 223d aac7 df3d e5de 6b3d 219b 55bd
00000070: fde2 4abd 9239 6c3e 7d63 2bbe 9d68 463d
00000080: a064 a43e ce71 52bc 1794 453e fb64 69bd
00000090: ccc4 273d e00a 883d d6c8 0ebe b0b8 61bd
000000a0: ab55 983d ba3b ac3a 8515 eb3d 7c97 3dbe
000000b0: a847 e33d dac8 813d dbbe 08be 786c 753d
000000c0: b990 c23b 6f84 36be b029 8ebd 4fb9 a4bd
000000d0: 7637 2fbd 5537 113d 4357 ed3d 3777 17bd
000000e0: 30cb d73d d430 7bbe b0b0 0abe 3c17 d3bc
000000f0: acd1 c73b 17fc 813d 4d22 7ebe 152a adbd
00000100: b606 d1bd b879 1bbe 8031 2fbd 3adb 043e
00000110: 8cd4 163e dd07 0bbe 342e 223e 4c86 e2bd
00000120: 0d37 c53d 846a 13be 2a7d 7b3c 871b 8cbe
00000130: 6653 2d3d b177 1b3e b10c b53d d259 e73d
00000140: 6ffb 1b3e 6126 11be 5602 5ebd 0caf f1bd
00000150: d79c 29be b727 ecbc 14a7 6fbd 915a a33e
00000160: 8b64 3c3d 9504 e7bd d0f8 6e3e 258e 133e
00000170: 0fa4 d13c 43d2 9c3e ca77 c0bd f20c 86bd
00000180: 9352 1fbc efb4 24bd 6610 b13d 861f 9dbd
00000190: 9be4 4c3e de2c 1abe 9b5b cabd f02a cdbd
000001a0: fada 353e c9cd 1fbe 3c6f 373d b1bd 5a3e
000001b0: b00f 46bd 7e86 193e 4e7b 093d 4bc0 fc3d
000001c0: 8c6a 9e3d ea54 3b3e 6329 4f3e 7d7e c93d
000001d0: 6704 26be f762 3cbd 6e55 aa3e 4213 efbd
000001e0: 2993 e4bd 39dd 27be b691 50bc c4af 463d
000001f0: 6932 1f3e f004 3abd 275b ca3b f5f7 4b3c
00000200: 7813 14be a7b6 893d 24aa 31be 82bd e4bd
00000210: 1d7d 893c e550 ed3b 1226 cbbd a25d b23d
00000220: e312 04be 7a38 123d ee82 c53c 7210 c83d
00000230: 8572 1ebd 5658 9a3d e441 1c3e b2d6 92bd
00000240: e772 94bd e5ba 99bd 0281 e7bb 45e6 393d
00000250: 36f5 2dbe 4b27 033e 9319 613d 70ee d53d
00000260: 85f5 223d d489 fdbd e2ba 46ba c0c9 05be
00000270: 253b 08be 57dc 633d 0e6f dabb 699a 5a3e
00000280: c139 d8bd f739 243e 0158 513d 19db 123c
00000290: 4c3e b93d e6df bcbd 70cb cb3c 619f 5dbe
000002a0: f572 823e 6aa2 883e bf93 b73d 5fcb 0bbe
000002b0: 4960 bbbd 3f03 143c 9c53 2e3e d32a f1bd
000002c0: d351 a1bd 2dbf afbd 8868 92bd 64e3 123d
000002d0: c453 1c3e 5714 1abe 465b 07bd 033b 0e3e
000002e0: f3ea ddbc b3c4 35be 8dea 0abe 2611 b13d
000002f0: b38c 21be 45f2 023e fa28 b03c c5c6 d5bd
00000300: 4672 2cbd aed6 1abe ccf0 783d fcae 3cbd
00000310: daf1 d0bb de5b d9bc 1e70 8e3d 458e 2ebe
00000320: 0e36 833a 622b 7c3e 6362 f13d 5949 98bc
00000330: 1c26 8e3c ff07 2a3c 0b67 97bd 9a6f 22be
00000340: 8f37 4cbe 2166 65bd 64f1 323c cea0 c53d
00000350: b1a6 04be 9170 703d 0fad ea3d 4cd1 69bd
00000360: 1453 0fbe cd22 07bd 0134 ec3c 6996 093e
00000370: 6ac0 9fbc 1450 c4bd 6610 96bd 58f3 a6bd
00000380: 2b8b 04bd ecbe 07be e315 d63c 8de5 20be
00000390: b797 f6bd cd9f cbbd 93b6 203e 6389 c13c
000003a0: 8887 d7bd 77d5 f63d b92d 03be 464d 2b3d
000003b0: 38ff 15be 33f9 72bc caf1 f93d 2375 d33d
000003c0: 338e 713d 5136 3e3d 6902 573d c80c a0bc
000003d0: 116b 25bd 1af4 42bd 8055 8a3c 45fa 263c
000003e0: 9a3b 8c3d f46c 093d 008e 6ebc 5da1 a8bc
000003f0: 497b a53d 4117 9f3d 5fc2 98bd 9249 953e
-0.014441209 -0.056953643 -0.124925606 0.051389284 0.021008793 -0.052981675 -0.12046064 0.009039589
0.034769338 0.033957224 -0.14671187 0.22551425 0.023001494 -0.20940259 -0.018570695 -0.0046104407
-0.021622851 -0.22137906 0.032410648 -0.07797331 0.10452583 -0.061496574 -0.14796363 -0.049433973
0.03965486 0.10926755 0.057585616 -0.052149896 -0.04953288 0.23068836 -0.1673717 0.04843961
0.3210802 -0.012844516 0.19294773 -0.056981068 0.040959165 0.06642699 -0.139438 -0.055107772
0.07438215 0.0013140358 0.11478714 -0.18514818 0.11097652 0.063371375 -0.13354056 0.059917897
0.0059376624 -0.17823957 -0.06941545 -0.08043157 -0.0427775 0.03545316 0.115889095 -0.036978927
0.10536802 -0.24530345 -0.13543963 -0.025767915 0.006097993 0.063469104 -0.24817772 -0.08455292
-0.10206358 -0.15183151 -0.042771816 0.12974253 0.14729518 -0.13577218 0.15837938 -0.11060771
0.09629641 -0.14396101 0.015349666 -0.27364752 0.042315863 0.15182377 0.08840311 0.11296429
0.15232633 -0.14174797 -0.054201446 -0.11800966 -0.16563736 -0.028827531 -0.058508947 0.31905034
0.045994323 -0.11280171 0.23337102 0.14409693 0.025590925 0.30629167 -0.09397848 -0.06545438
-0.009724277 -0.040211614 0.08645706 -0.07672028 0.20009081 -0.15056178 -0.098807536 -0.10017955
0.17759314 -0.15605845 0.044783816 0.21361424 -0.048354805 0.14992711 0.03356486 0.123413645
0.07735166 0.18294111 0.20230632 0.09838579 -0.16212617 -0.045992818 0.33268303 -0.11673595
-0.11160881 -0.16392983 -0.012730053 0.048507467 0.15546574 -0.045414865 0.006175417 0.012449254
-0.14460552 0.06724291 -0.1735006 -0.11168958 0.016783291 0.0072423094 -0.09919371 0.08709265
-0.1289783 0.03569839 0.024110284 0.09768762 -0.038683433 0.0753638 0.1525951 -0.07169856
-0.072484784 -0.075063504 -0.0070649395 0.045385618 -0.16988072 0.12807958 0.05495603 0.10445869
0.039784927 -0.12379804 -0.00075809483 -0.13065243 -0.13303812 0.055630054 -0.006666071 0.21347965
-0.10557891 0.16037737 0.051109318 0.00896337 0.09045085 -0.09222393 0.02487728 -0.2164283
0.2547833 0.26686412 0.08963727 -0.13651799 -0.09149224 0.009033977 0.17024082 -0.11775746
-0.07876935 -0.08581386 -0.07148844 0.035861388 0.15266329 -0.15046822 -0.03304603 0.13889699
-0.027089572 -0.17750816 -0.13566037 0.08645849 -0.15776329 0.12787731 0.021503914 -0.10438303
-0.042101167 -0.15120956 0.060776517 -0.046065316 -0.006376487 -0.026533064 0.069549784 -0.17046459
0.0010010616 0.24625924 0.11786344 -0.018589662 0.017352156 0.010377883 -0.07392701 -0.15862885
-0.19943069 -0.0560056 0.01092181 0.09649812 -0.12954213 0.0587011 0.114587896 -0.057084367
-0.13996536 -0.032992173 0.028833391 0.13436283 -0.01950093 -0.09585586 -0.073273465 -0.08151883
-0.032359283 -0.13256425 0.026133483 -0.15712567 -0.12040656 -0.09942589 0.15694647 0.023625081
-0.105238974 0.12052434 -0.1281041 0.04182174 -0.1464814 -0.014829922 0.12204321 0.103250764
0.058973502 0.04643852 0.052492533 -0.019537345 -0.04038531 -0.047596075 0.016886473 0.010191505
0.068473056 0.03355117 -0.014560223 -0.020584757 0.080801554 0.07768107 -0.07458948 0.29157692

ablang_branch.7.bias f4 [64]
00000000: 0856 6abc 2021 dbb8 9c49 3ebc 0b46 a73b
00000010: fe73 76ba 0c5f 4f3c 7131 c6bb 5723 3fbc
00000020: 8eee 53bc f838 2338 10da cebc 36c9 c0b9
00000030: b9fd 1dbc 449f cdbb f10e 8c3b d9f4 a6bc
00000040: 6d77 d4bb de6f 723c f5db cabc a140 5ebc
00000050: 0279 c4bc 925c 28bc 46d6 163a ca21 323c
00000060: e4be 87bb 905a 7ebc 8afc afbb b000 9b3c
00000070: a243 b1bb cc56 043d 3e8b a23c db0c 99bc
00000080: 8301 a3bb 1cee 15bc 1cb5 8abb 45e2 bfba
00000090: b4e4 933a 599c ecbb b9ad 13bc ccd8 203c
000000a0: b450 8cbb a3a5 24bc 2143 37bc c7bc 163d
000000b0: 510b 423c d87d f03b 23c9 2abc d999 11bc
000000c0: 9782 223c a858 8bb7 0682 10bd aef3 b0bc
000000d0: 5e87 7bbb b6c6 703b 52bb 40bc a627 483c
000000e0: 198e 003c 5d78 75bb 623a efbb 0804 123b
000000f0: 57e3 3a3c 53ca 1e3c 545d 2a3c 84d2 59bc
-0.014302738 -0.00010448904 -0.0116142295 0.0051047853 -0.00094014395 0.012656938 -0.0060483743 -0.0116661405
-0.012935294 3.8915285e-05 -0.025250465 -0.00036771008 -0.009643012 -0.0062750895 0.004274242 -0.020380424
-0.006483963 0.014797179 -0.024763087 -0.013565213 -0.023983482 -0.010275977 0.0005753975 0.010872314
-0.004142629 -0.0155245215 -0.005370681 0.018921226 -0.005409674 0.03230934 0.019841786 -0.018682888
-0.0049745454 -0.009151008 -0.0042330157 -0.0014639577 0.0011283369 -0.0072207865 -0.009013587 0.009817313
-0.0042820815 -0.0100492565 -0.011185438 0.036801126 0.011843518 0.0073392205 -0.010423931 -0.008886778
0.00991883 -1.6611375e-05 -0.03528025 -0.02160057 -0.0038380246 0.0036739535 -0.011763411 0.012216484
0.007846379 -0.0037455775 -0.007300661 0.0022280235 0.011406741 0.009691793 0.010398228 -0.01329482
