data/model_weights/cv_fold_4_model4_0.pt (torch, 707477 bytes, 29 tensors)

ablang_branch.0.weight f4 [256, 480]
000000 38 cb a6 3d 72 16 a6 bd 9f e8 b2 3c 29 0f 85 bc
       0.0814423 -0.0810975 0.021839438 -0.01624258
000010 78 d7 02 ba 16 1a ba 3c c8 57 16 3e 37 cd 97 bd
       -0.0004991214 0.022717517 0.14681923 -0.074121885
000020 25 e1 ba bc 00 5b e9 bc d8 69 b1 bd 67 74 fa bc
       -0.022812435 -0.028485775 -0.08662766 -0.030573083
000030 71 d5 9e 3d 98 59 4d bc bf 4c 97 bd 5b 9a 07 3e
       0.077555545 -0.012533568 -0.07387685 0.13242476
000040 ed 9c c1 bc bf 82 65 bc 2e e9 c7 bd 6b b5 18 3d
       -0.023634398 -0.014008223 -0.09761272 0.03728239
000050 ca bb 05 be 6b 74 fc bd 08 4e 61 3d 87 0f b3 3d
       -0.13059917 -0.123268925 0.055006057 0.08743196
000060 e0 f2 a1 3d ab 7d 9c bc 4d 94 8a 3d 8a f8 b4 3c
       0.07907653 -0.019102892 0.067665674 0.022091169
000070 7a 13 41 bc 28 1c be 3c 35 a5 cd bd e9 b0 42 3d
       -0.011784429 0.023206785 -0.10041276 0.047531996
000080 13 5e b3 bc a9 4d 01 be 8d 57 f0 3c ba 6d f9 3b
       -0.021895444 -0.12627281 0.029338622 0.0076119574
000090 a2 1f 13 bd 16 fa 17 bd 7f 19 83 bc ab 67 07 3e
       -0.03591884 -0.037103735 -0.016003368 0.1322314
0000a0 22 dd 4a 3c bb e9 f6 bc 44 17 bf bd d5 8b 91 bc
       0.012381824 -0.030140748 -0.093306094 -0.017766872
0000b0 79 01 5e bc 1f 99 5d bd 86 14 90 3c 2b 31 55 bd
       -0.013550156 -0.054101106 0.017587911 -0.052048843
0000c0 22 a8 8b 3d 20 e1 25 3d e9 41 80 bd c8 8a 44 bd
       0.06819178 0.0404979 -0.06262571 -0.047983915
0000d0 fb 1c 61 3d 18 6c 12 bb 70 4d 5a bd 82 6c ad bd
       0.05495928 -0.002234226 -0.053296506 -0.08467962
0000e0 2b 68 38 3d 11 1b 5d bd c9 5c 8c bd 8f e6 8c bd
       0.045021217 -0.05398089 -0.06853635 -0.06879913
0000f0 fa 27 48 ba a0 c6 99 3c 05 78 c1 3c d6 38 b9 bc
       -0.00076353515 0.01877147 0.0236168 -0.02261011
000100 83 bf 5b bd 32 92 a3 3a 27 79 4a 3d 76 82 81 3d
       -0.053649437 0.0012479483 0.049431946 0.063237116
000110 1c e1 44 bc b3 a5 c6 3d b4 01 1a 3e 6c 46 ae bd
       -0.012016561 0.09699573 0.15039712 -0.08509526
000120 f9 66 2f 3d 8a 9a 6c 3d c5 11 ab bb ca 47 59 3d
       0.04282281 0.057764567 -0.005220624 0.05304698
000130 b9 9a 36 3d c0 c2 f2 bc 99 ec 80 3c e8 d4 9d 3b
       0.04458115 -0.02963388 0.015737819 0.00481664
000140 ad e5 48 3d 7a 34 03 3e a3 0a 83 bc 4a d2 d5 3d
       0.04904716 0.12812987 -0.015996283 0.104405
000150 80 39 f5 3c b6 b1 f5 3d ba 31 a4 bd f5 20 37 bd
       0.029934645 0.11996786 -0.08017297 -0.044709165
000160 d0 be 25 bd 3f 12 83 bd f9 3c f7 3d 47 6f c4 3d
       -0.040465176 -0.063999645 0.120721765 0.09591537
000170 c5 58 f6 3a 67 5d 71 3d 35 51 3f 3d 9e f4 57 bd
       0.0018794766 0.058926966 0.046708304 -0.05272352
000180 27 92 90 bd 61 63 73 bd 9e 38 f1 3c bc fe d8 bc
       -0.07059126 -0.059420947 0.029445942 -0.026488654
000190 d0 76 18 3d f7 9d 64 bd 4a 80 f6 3d db ef 15 3d
       0.037222683 -0.05581471 0.12036188 0.036605697
0001a0 25 c0 e2 bd c3 89 25 bd f9 a3 bf bd ac 10 27 3d
       -0.11071805 -0.040414583 -0.09357447 0.040787384
0001b0 83 85 17 be d4 26 26 bd aa 18 16 bd 44 43 84 bc
       -0.14797024 -0.040564373 -0.036644615 -0.016145356
0001c0 c0 df 86 bd f7 a3 b9 3d 78 44 2c 3c e7 01 a3 3d
       -0.06585646 0.09064477 0.010514371 0.07959347
0001d0 0e 9f 76 bd d6 64 a0 3d 38 b3 b4 bd 02 ce 2b 3d
       -0.06021028 0.07831733 -0.08823246 0.04194451
0001e0 c5 39 4b bd e7 47 93 bc 6d d1 b9 bd c6 3f 14 bd
       -0.04961564 -0.017978622 -0.09073148 -0.03619363
0001f0 7e 49 b5 3d 02 01 d2 3b d5 61 2f bd 95 30 20 bb
       0.08851908 0.0064088115 -0.04281791 -0.002444302
000200 32 e5 5b bd 7c 31 6c 3d 98 e8 8b bd 7a 55 0f be
       -0.053685375 0.05766438 -0.06831473 -0.1399745
000210 62 93 2a bc b2 52 97 bd 70 e9 64 3c 35 3a ae bd
       -0.010411115 -0.0738882 0.013971671 -0.08507196
000220 7f 45 af 3c b5 36 97 3b 5c a6 84 3d 63 c5 a8 3d
       0.021395443 0.004614676 0.06477043 0.082407735
000230 79 ae 0e bc 53 0e 89 3d eb 49 90 3d aa f8 80 bd
       -0.00870859 0.06692185 0.07045349 -0.06297429
000240 48 b7 fb bc b6 3e 9c 3d cc df 34 3d 3f 5e ce bd
       -0.030727044 0.07629149 0.04415874 -0.1007657
000250 c0 fd 68 bd ca d4 f9 bd 17 c7 c7 bd 89 eb 61 3d
       -0.05688262 -0.121987894 -0.0975477 0.055156264
000260 4c 68 b5 3d ff cd 9b bc d4 e9 01 3e 85 0b 9f bd
       0.08857784 -0.019019125 0.12686855 -0.07765869
000270 f1 d2 ac bd a1 d9 81 bc 6d bd 3c 3c 68 25 e3 3c
       -0.084386714 -0.015850844 0.011519772 0.027727798
000280 29 cf d8 bd 0e d1 0b 3d c6 bd 87 3d 32 f1 89 3d
       -0.10586388 0.034134917 0.06627993 0.067354575
000290 a6 fd 83 bd e5 f6 4e bc 24 fc 6c bc 98 77 a1 bb
       -0.06444864 -0.012632106 -0.014464412 -0.0049275868
0002a0 c7 06 fd bb f4 3d 1d 3c 5e 6e de bb ac c9 26 bd
       -0.007721755 0.00959729 -0.006788059 -0.040719673
0002b0 cd d6 71 bd d8 c5 3f bd 18 a7 52 3d 3a 13 6d 3d
       -0.05904274 -0.046819538 0.051428884 0.057879664
0002c0 80 18 df bc 1c 51 40 bd 71 99 aa bd da 20 83 3c
       -0.027233362 -0.046952352 -0.08330048 0.016006876
0002d0 ce 37 ef 3d 9d 17 b7 bc 46 62 36 bc 66 28 31 bd
       0.11680566 -0.022350127 -0.011131829 -0.043251418
0002e0 26 d5 09 3d 52 0d 15 3d b9 3a cb 3d ea e2 ca 3d
       0.03365054 0.036389656 0.0992331 0.09906562
0002f0 26 fc 75 bc 91 5a fd 3d 4a b5 ca 3d 7a b0 d6 bc
       -0.01501373 0.1237079 0.098978594 -0.026207197
000300 00 61 40 3d 5a c9 bc bd a1 71 56 3d 83 4a b3 bc
       0.046967506 -0.09218092 0.05235446 -0.021886116
000310 86 56 08 3d d5 d2 81 bc 30 24 ca bc cc 3b 61 3c
       0.03328564 -0.015847603 -0.024675459 0.013747167
000320 5a b9 a4 3d 66 8f 89 3d 37 32 4c 3d 5b 51 9d 3c
       0.080431655 0.06716804 0.049852576 0.019203832
000330 3e b3 8b bd 68 d5 bb 3c ca d8 aa 3d 2f 51 c5 bd
       -0.06821297 0.022928908 0.083421305 -0.09634625
000340 4b a5 08 bd 44 0a 29 3b 85 d0 c6 bc 64 07 17 bd
       -0.03336076 0.0025793472 -0.024269352 -0.036872283
000350 db 50 47 bc f4 05 29 bd 9b dd ac bb 62 8d be bc
       -0.012165274 -0.041265443 -0.005275441 -0.023260776
000360 93 a2 ba 3d 51 50 42 bc 1e 89 b5 3d 01 c4 21 3c
       0.0911304 -0.011859969 0.08864044 0.009873391
000370 6f 90 0b 3e b6 46 0b bd 29 3d cd bd c9 b9 04 3c
       0.13629316 -0.034002982 -0.10021431 0.008100935
000380 ff b1 90 bc f5 36 be bd 8a f0 a3 bd 91 0d 5e bd
       -0.017663 -0.09287826 -0.080048636 -0.054212157
000390 20 ad 53 bb 4a ba 01 3d 6b 80 07 bd 60 d2 87 bd
       -0.0032299235 0.0316718 -0.033081453 -0.06631923
0003a0 13 1d 3f 3d 62 d4 a9 bd 81 3d 11 bd e1 fd 36 3d
       0.046658587 -0.08292462 -0.035459045 0.04467571
0003b0 25 b8 a7 bd dd e8 c3 bc 69 21 ca 3d 8e 9f 0b bd
       -0.0818942 -0.023914749 0.09869654 -0.03408771
0003c0 9a 5d 7f bc c9 63 88 3d 5c f7 02 3e 5a 82 07 bd
       -0.015586281 0.066596575 0.12789673 -0.033083297
0003d0 bf 3c 86 bd fc 1e 39 bd 64 97 58 bc 36 03 b1 3c
       -0.06554555 -0.045195565 -0.013219688 0.021607976
0003e0 e6 5b cd bc 3b 3f 87 3c ac e4 0b bd 99 1f 9f bb
       -0.025068235 0.016509643 -0.034153625 -0.0048560617
0003f0 39 be e5 bc e6 69 b9 bc 34 1e 6e bd f6 55 6e 3d
       -0.028044807 -0.022633504 -0.058134273 0.058187447

ablang_branch.0.bias f4 [256]
000000 ff b3 c7 bb e8 ad 8b ba da fc f1 bb 02 7d b9 bb
       -0.0060944553 -0.0010656686 -0.0073848786 -0.005660654
000010 4e 4d 9b 3a 21 6a 4e bb 12 74 d4 3b 76 50 d7 3b
       0.00118486 -0.0031496363 0.006483563 0.006570871
000020 c5 57 0b 3c 5e 99 91 ba 73 d4 38 bc 10 9f 9c 3b
       0.008504813 -0.0011108329 -0.011281121 0.004779704
000030 0f c4 92 bb e2 4a 53 3b cf a0 b1 3b d1 d7 71 bb
       -0.0044789384 0.0032240679 0.005420781 -0.0036902318
000040 d6 a6 84 3a 2f a9 89 3b df 92 e2 ba 57 29 c8 3b
       0.0010120522 0.0042010765 -0.0017286203 0.0061084437
000050 64 a8 b1 ba ed e7 76 bb 04 54 e4 bb ad df 49 3b
       -0.0013554213 -0.003767486 -0.0069680233 0.0030803487
000060 32 bd 90 ba 79 6c ef ba ed bf 09 bc 43 08 3a 3c
       -0.0011042713 -0.001826658 -0.008407575 0.011354509
000070 6f 31 f5 3a 5e 7d 5e 3b fb b2 15 3b a2 e9 06 bb
       0.0018706749 0.0033949236 0.0022842276 -0.0020586033
000080 2f 5f e7 39 a6 f5 df 3a f9 7b bf 3b e6 6c cd b9
       0.0004413067 0.0017086759 0.005843636 -0.00039181783
000090 e6 20 ce 3b 10 58 1b bc f7 73 16 bc 9b 9d dd bb
       0.006290543 -0.009481445 -0.009182922 -0.006763173
0000a0 97 83 10 bb a3 f7 0d bc 17 c6 97 ba ec d2 e3 3b
       -0.002205109 -0.008664998 -0.0011579421 0.006952634
0000b0 95 a5 3e 3c 9d 7c 9c 3b 0a 2a b2 bb 1d d9 ba bb
       0.0116361575 0.0047755972 -0.0054371404 -0.0057021515
0000c0 bc da 21 b9 28 32 16 bb fe b9 76 3b be c0 30 bb
       -0.00015435641 -0.002291808 0.003764748 -0.0026970352
0000d0 1a 96 21 3b cc 47 fe 39 c0 e9 49 bb 25 23 81 3a
       0.0024656118 0.00048500148 -0.0030809492 0.0009852393
0000e0 9d 3d 0b bb 66 b0 da bb 07 af bc bb e6 29 84 39
       -0.0021246441 -0.0066738604 -0.0057581696 0.0002520822
0000f0 8e c5 3d b9 5c c6 c6 3b e5 77 d9 3b ed 35 96 39
       -0.0001809804 0.0060661267 0.006636607 0.00028650407
000100 7d be 2b 3b ed 69 28 bb e7 b6 7d bb 8f 54 01 3c
       0.002620607 -0.0025697902 -0.0038713755 0.0078936955
000110 ca 6c bf bb 33 f8 84 3b 94 70 6b 3b 5d c0 05 bb
       -0.005841826 0.004057908 0.0035925256 -0.0020408847
000120 46 a1 ad bb d5 67 2e 3c 50 8b b2 38 f4 1c 44 bb
       -0.0052987663 0.010644873 8.5136504e-05 -0.0029924484
000130 83 42 ef ba 89 d8 10 bb d7 5d 1d 3c e5 e8 a7 3b
       -0.0018254075 -0.0022101721 0.009604893 0.0051241987
000140 ef 0d 7b 3b d1 bd a3 ba 12 6c 3f b9 ba b1 0b 3a
       0.0038307866 -0.0012492483 -0.00018255439 0.00053289125
000150 56 c5 0b 3c 6a a0 3c bb ed c7 ef bb c4 a1 dd b9
       0.008530935 -0.0028782138 -0.007317534 -0.0004227293
000160 3a 73 96 bb c3 3a fc 3a 78 b7 02 3b 0d 71 25 3c
       -0.004591373 0.0019243587 0.0019945782 0.010097754
000170 6f b9 68 39 fa 2c c0 3b 0c 3b 87 3c da 1f 4f 3a
       0.00022194324 0.0058647366 0.016507648 0.00079011696
000180 8d b3 2b 3b 23 7f 2a ba 34 b3 8a bb 88 4c 9b bb
       0.002619955 -0.000650393 -0.0042327885 -0.004739348
000190 8c 7a 0a 39 e5 65 d4 bb 64 e4 33 3c aa 6b 77 3b
       0.00013206358 -0.0064818733 0.010979746 0.0037753382
0001a0 2e 55 1a bb e5 98 b9 39 ce 42 3f bc 18 06 ca bb
       -0.0023549306 0.00035399865 -0.011673642 -0.006165277
0001b0 b2 e7 0b bc 5b 4d 15 bc f6 1c bc ba e6 ce ab bb
       -0.008539127 -0.009112681 -0.0014351893 -0.00524317
0001c0 b6 08 0f bc 65 75 ce bb 90 de 97 3a 49 db 9f 38
       -0.008730104 -0.0063006156 0.0011586715 7.622556e-05
0001d0 26 a1 c0 bb 57 49 ae 3b 9a 61 2c b9 68 20 e4 ba
       -0.0058785854 0.0053188014 -0.00016439558 -0.0017404677
0001e0 ae d6 03 bc 83 73 9d bb 9b ad d3 bb 44 63 3e 3b
       -0.008046789 -0.00480503 -0.0064599044 0.0029050866
0001f0 7d f2 b0 ba db f9 88 3b bd a4 dc ba 60 4d 34 bb
       -0.0013500002 0.0041801757 -0.0016833764 -0.002751194
000200 c9 cc 05 bb 94 bc f4 ba 5a ad 33 3b 55 09 b5 3b
       -0.002041625 -0.0018671923 0.0027416558 0.005524794
000210 f6 f6 39 3b df 25 ab b9 83 ef 4f bb 4a da 13 3b
       0.002837596 -0.00032643878 -0.0031728453 0.002256053
000220 44 74 ce b9 a8 42 80 bb f1 4f ac bb ac 65 35 3b
       -0.00039378006 -0.003914196 -0.005258553 0.002767901
000230 de a6 cf 3b 1e 61 1c ba d3 18 fd 3b 99 69 e2 3b
       0.006337031 -0.00059653993 0.0077239065 0.006909561
000240 e0 f7 a2 3b 3b 65 49 bb 42 60 a4 3b cf 23 c5 ba
       0.0049733967 -0.0030730504 0.0050163576 -0.0015040579
000250 ad 48 47 bc 9c b1 b0 3b ad f6 b2 bb 24 9b 00 ba
       -0.012163323 0.0053922664 -0.005461535 -0.000490593
000260 1c 27 6b 3b fd 09 0c bc 43 5a 90 39 8a 2b 3e bc
       0.0035881465 -0.008547303 0.0002753307 -0.01160706
000270 34 28 82 3b 0d 84 00 bc 18 32 db ba b2 f8 15 bb
       0.0039720777 -0.007843983 -0.0016723303 -0.002288383
000280 18 c8 0a bc bf 48 2a 3c c0 fe d6 3b 8d 22 ca bb
       -0.008470558 0.010393321 0.0065611303 -0.0061686696
000290 91 d4 10 3c 5d a7 75 bb ca 25 ab 3a 3e 0a 85 ba
       0.008839742 -0.003748379 0.0013057527 -0.0010150147
0002a0 14 ac 7d 3a 24 18 b5 bb f9 4f b6 bb 4d aa d2 bb
       0.0009676826 -0.0055265594 -0.0055637327 -0.006428993
0002b0 89 aa e6 bb 5d 2a f3 3b de 74 f0 bb 2f dd a4 3b
       -0.0070393723 0.0074208216 -0.0073381504 0.00503125
0002c0 4f 0a 18 3b 36 eb 77 bb ff 74 32 ba 38 a7 c7 bb
       0.0023199504 -0.0037829406 -0.0006807595 -0.006092932
0002d0 be a5 fb bb ad 76 80 39 50 2b 4a ba 4d a0 e5 3a
       -0.00767967 0.00024502483 -0.00077121425 0.0017519087
0002e0 6a d6 84 bb 4d c2 f7 3b b4 93 a6 bb fa 6d 41 3c
       -0.0040538805 0.0075610043 -0.0050835256 0.011806006
0002f0 5b 54 5c 3a a0 f6 8f bb 38 b0 d1 3a 8b d4 1f 3b
       0.0008404904 -0.0043934137 0.0015997952 0.002438816
000300 aa 80 ff b7 77 7d b0 bb 6c 67 f0 ba 69 bf bd bb
       -3.0458283e-05 -0.0053860503 -0.0018341369 -0.00579064
000310 d3 de d5 b9 b1 6d 62 3c 39 3b 0b bc 60 2f cf bb
       -0.00040792543 0.013820098 -0.0084980065 -0.006322786
000320 e5 03 06 3b 1e eb 86 bb f0 88 90 ba e8 a7 32 38
       0.0020449099 -0.0041173836 -0.0011027139 4.2594882e-05
000330 10 b9 26 3c aa 1f ec 3b 00 99 56 3b fd 65 da bb
       0.010175958 0.007205923 0.0032745004 -0.00666499
000340 8d ee e2 bb d8 fe 99 bb 7a cf 88 bb 08 80 8a b9
       -0.00692541 -0.004699569 -0.0041751238 -0.00026416802
000350 9d 16 40 3a 2d 79 38 b9 d6 15 10 3b 50 a9 66 39
       0.00073275884 -0.00017592749 0.0021985671 0.00021997583
000360 50 b4 0c 3b 4f 8b 0e 3b 5d d8 42 bb 2d 55 4f bb
       0.002146978 0.0021750515 -0.0029731013 -0.0031636462
000370 56 12 a6 3a bc 8b 27 3b fd 7e 92 bb dc 46 ab b9
       0.001267026 0.0025565466 -0.0044707046 -0.00032668456
000380 1a 19 cf 39 6d c6 8e ba ea 25 30 bb 8a 24 c9 bb
       0.0003950082 -0.0010892876 -0.0026878067 -0.006138389
000390 89 6d e3 bb e0 6b 25 bb 9e 24 62 ba 70 f1 67 bb
       -0.006940548 -0.00252413 -0.0008626672 -0.003539171
0003a0 12 ef 8a bb 0a f5 e7 bb 89 48 a2 3b cd e3 da 3b
       -0.004239925 -0.0070787715 0.0049524945 0.006679988
0003b0 fa f1 d1 ba cd 79 3a 3b d7 4b 2b bb 26 86 ef 3b
       -0.0016017549 0.0028453947 -0.0026137733 0.007309693
0003c0 37 b0 f0 ba a2 7c 6c bb 7e 4b 00 3c 88 43 94 bb
       -0.0018363063 -0.003608503 0.007830499 -0.004524652
0003d0 2e d8 8c bb e5 5f 40 3a 7e 42 1e 3b 4c 63 39 bc
       -0.0042982316 0.0007338508 0.002414852 -0.011315178
0003e0 18 cb af 3b 68 fe 85 b8 c7 10 02 bc 57 ef ef 3b
       0.005364787 -6.389321e-05 -0.00793857 0.0073222327
0003f0 b1 9b b5 bb ff 84 cf ba 1e 03 a3 3b 53 05 1e bc
       -0.0055422415 -0.0015832483 0.004974737 -0.009644824

ablang_branch.1.weight f4 [256]
000000 6c ae 80 3f 70 5d 7f 3f 3d 38 80 3f b4 c0 7f 3f
       1.0053229 0.9975195 1.0017163 0.99903417
000010 4d b0 7f 3f 95 9d 7e 3f 9e 40 80 3f b3 6f 80 3f
       0.9987839 0.994592 1.001972 1.0034088
000020 6d bb 80 3f f4 ad 7f 3f 6d 73 81 3f e2 a4 80 3f
       1.0057198 0.99874806 1.011335 1.0050318
000030 ed 13 80 3f 3b 92 7f 3f bb 01 80 3f 49 80 80 3f
       1.0006081 0.99832505 1.0000528 1.003915
000040 4e 55 80 3f 32 39 82 3f 00 57 80 3f 27 8f 7e 3f
       1.0026033 1.0173705 1.002655 0.99437183
000050 ba a3 80 3f 4c f6 7e 3f 85 eb 80 3f c8 09 7f 3f
       1.0049965 0.9959457 1.0071875 0.996243
000060 31 5e 7f 3f b8 21 7f 3f 0f c3 7f 3f 9f 80 81 3f
       0.997531 0.99660826 0.9990701 1.0117377
000070 c6 e7 7f 3f 14 0f 80 3f f2 0f 80 3f 0d ee 7e 3f
       0.99963033 1.0004601 1.0004866 0.99581987
000080 25 c0 7f 3f 23 3d 80 3f cd 52 80 3f f9 6c 7f 3f
       0.99902564 1.0018657 1.0025269 0.99775654
000090 95 55 80 3f fb ca 80 3f c2 93 7d 3f 76 cf 80 3f
       1.0026118 1.0061945 0.99053586 1.0063312
0000a0 58 55 7f 3f 54 01 7e 3f c3 db 7f 3f 27 86 80 3f
       0.997396 0.99220777 0.99944705 1.004094
0000b0 9d e5 81 3f bc 36 7f 3f b8 bc 7e 3f 8d 49 7f 3f
       1.0148197 0.99692893 0.9950671 0.99721605
0000c0 37 26 80 3f 43 9e 7f 3f 0c 24 80 3f 9d 9d 7e 3f
       1.0011662 0.99850863 1.0011001 0.9945925
0000d0 a5 b9 7f 3f 9c e3 7e 3f e0 61 7f 3f a0 32 7f 3f
       0.99892646 0.99566054 0.9975872 0.9968662
0000e0 af 8d 80 3f 64 a8 80 3f e4 7f 7b 3f 17 b3 7f 3f
       1.0043238 1.0051389 0.9824202 0.99882644
0000f0 62 8b 7f 3f a9 87 80 3f 18 99 80 3f 94 37 80 3f
       0.99822056 1.00414 1.004672 1.0016961
000100 d3 94 80 3f de 6d 7f 3f b6 58 80 3f 60 15 81 3f
       1.0045418 0.9977702 1.0027072 1.0084648
000110 ff 18 7e 3f a3 34 80 3f 3c 52 7f 3f 85 9e 7e 3f
       0.9925689 1.0016063 0.99734855 0.9946063
000120 1b a9 7e 3f c2 11 81 3f 16 7a 7e 3f 74 44 7f 3f
       0.99476784 1.0083544 0.9940504 0.99713826
000130 c5 02 7f 3f 1b b4 7f 3f a2 19 81 3f 61 14 7f 3f
       0.996136 0.99884194 1.0085948 0.9964047
000140 09 42 80 3f 72 5f 7e 3f c6 63 7f 3f d9 04 80 3f
       1.0020152 0.9936439 0.9976162 1.0001479
000150 12 0b 81 3f 3f 6f 80 3f 73 db 7f 3f 8e 47 7d 3f
       1.0081503 1.003395 0.9994423 0.9893731
000160 45 4e 80 3f 89 0a 7f 3f ec 66 80 3f 76 64 81 3f
       1.0023886 0.9962545 1.0031409 1.0108783
000170 ae 00 80 3f 47 56 7f 3f 12 74 82 3f 94 eb 7f 3f
       1.0000207 0.99741024 1.0191672 0.9996884
000180 9b 82 7f 3f 82 6e 7f 3f de 29 7d 3f 17 bf 80 3f
       0.99808663 0.99777997 0.9889201 1.0058316
000190 d0 52 7f 3f 24 a7 7f 3f 85 a4 80 3f fe 06 80 3f
       0.99735737 0.9986441 1.0050207 1.0002134
0001a0 fc af 7e 3f 28 06 80 3f 02 50 80 3f 29 cd 7f 3f
       0.9948728 1.0001879 1.0024416 0.99922425
0001b0 15 0e 7e 3f df 45 80 3f c6 c5 7f 3f df 9c 80 3f
       0.9924024 1.0021323 0.99911153 1.0047873
0001c0 30 fe 80 3f c0 70 7b 3f 52 1c 7e 3f 68 c0 7f 3f
       1.0077572 0.9821892 0.99261963 0.99902964
0001d0 e0 96 80 3f d1 dc 80 3f bb 2a 80 3f 8c 4f 7f 3f
       1.0046043 1.0067388 1.001304 0.99730754
0001e0 14 3d 81 3f cb d3 7e 3f c7 81 80 3f 0f 21 80 3f
       1.0096765 0.9954192 1.0039605 1.0010089
0001f0 50 97 7f 3f 25 de 80 3f 39 bb 7e 3f 25 78 7f 3f
       0.9984026 1.0067793 0.9950443 0.997927
000200 6a d7 7c 3f 5a 2b 80 3f 30 20 80 3f 94 84 80 3f
       0.98766196 1.001323 1.0009823 1.004046
000210 df fa 80 3f 71 c4 7f 3f 87 80 7e 3f f2 0d 7f 3f
       1.007656 0.9990912 0.9941487 0.99630654
000220 09 d6 7f 3f 99 06 80 3f 45 a7 7e 3f 3f 7e 80 3f
       0.99935967 1.0002013 0.99473983 1.0038527
000230 f3 b4 80 3f d4 cc 7f 3f c7 b5 80 3f 16 97 80 3f
       1.0055221 0.9992192 1.0055474 1.0046108
000240 4c b7 7f 3f 67 b9 7f 3f 63 97 80 3f 5f 14 80 3f
       0.99889064 0.99892277 1.00462 1.0006217
000250 0c d2 81 3f 34 15 80 3f ec 32 80 3f 67 3d 80 3f
       1.0142226 1.0006471 1.001554 1.0018739
000260 7c b3 7e 3f b4 bf 80 3f ae 9a 7f 3f dc d9 81 3f
       0.9949262 1.0058503 0.998454 1.014461
000270 75 c6 7f 3f e6 22 7f 3f 15 86 7f 3f 27 9f 7f 3f
       0.99912196 0.99662626 0.9981397 0.9985222
000280 4b a8 7d 3f 59 13 81 3f 8e 1f 7f 3f 6a 1d 7e 3f
       0.9908492 1.008403 0.99657524 0.9926363
000290 cf 2e 81 3f 00 2a 80 3f 90 b8 7f 3f e4 10 80 3f
       1.009241 1.0012817 0.99890995 1.0005155
0002a0 13 c4 7d 3f d5 a2 80 3f 35 95 7f 3f d4 4a 7e 3f
       0.9912731 1.0049692 0.99837047 0.9933293
0002b0 9b 6b 80 3f ef 57 80 3f 94 69 80 3f 6f 49 7f 3f
       1.0032839 1.0026835 1.003222 0.99721426
0002c0 8b 1b 7f 3f b0 bf 7e 3f 2d 03 80 3f 8f f4 7e 3f
       0.996514 0.9951124 1.0000969 0.99591917
0002d0 ab f6 7e 3f 7f 60 7f 3f c4 65 7f 3f 84 4e 7d 3f
       0.99595135 0.99756616 0.9976466 0.9894793
0002e0 bc d7 7e 3f bd 80 81 3f 2b a3 80 3f 73 38 81 3f
       0.99547935 1.0117413 1.0049795 1.0095352
0002f0 6a c4 7e 3f d1 94 7f 3f 3d 25 80 3f 0e f7 7e 3f
       0.99518454 0.9983645 1.0011364 0.99595726
000300 dd a6 7c 3f f8 88 7f 3f 42 4e 80 3f 4b d9 7f 3f
       0.98692113 0.9981837 1.0023882 0.9994094
000310 79 ef 7e 3f 6e 86 81 3f 79 6a 81 3f 09 ca 7f 3f
       0.99584156 1.011915 1.0110618 0.99917656
000320 8e 1a 80 3f cf 21 80 3f d6 76 7f 3f eb 2d 7e 3f
       1.0008104 1.0010318 0.99790704 0.99288815
000330 43 1f 81 3f 46 ea 80 3f 74 cf 80 3f e0 d3 80 3f
       1.0087665 1.0071495 1.006331 1.0064659
000340 a7 82 80 3f a6 56 80 3f 8b 89 7e 3f bf 4b 7f 3f
       1.0039872 1.0026443 0.99428624 0.99724954
000350 64 e8 7f 3f 24 7b 7f 3f 84 dc 7f 3f 2c a8 80 3f
       0.99963975 0.9979727 0.99945855 1.0051322
000360 a0 8b 7d 3f 9c 0c 80 3f 94 f3 7e 3f 82 4b 7f 3f
       0.99041176 1.0003848 0.9959042 0.9972459
000370 29 0f 80 3f 24 eb 7f 3f fa 1b 7e 3f 68 1e 7d 3f
       1.0004627 0.9996817 0.9926144 0.9887452
000380 43 e0 7f 3f fd e9 7e 3f 81 d5 7f 3f d3 af 7f 3f
       0.9995157 0.9957579 0.99935156 0.9987766
000390 50 73 80 3f 34 08 7e 3f cb 52 80 3f a1 3c 7f 3f
       1.003519 0.99231267 1.0025266 0.9970189
0003a0 56 26 80 3f 70 bc 7e 3f d8 3b 81 3f 6d 83 80 3f
       1.0011699 0.9950628 1.0096388 1.0040108
0003b0 7f 09 80 3f 59 86 80 3f b6 26 80 3f a7 0d 81 3f
       1.0002898 1.0041 1.0011814 1.0082291
0003c0 21 ab 7f 3f 02 be 7f 3f 0b 3e 80 3f d0 d0 7e 3f
       0.99870497 0.99899304 1.0018934 0.9953737
0003d0 37 df 7e 3f 07 3e 7f 3f 8d 59 80 3f 24 33 7f 3f
       0.9955935 0.9970402 1.0027329 0.9968741
0003e0 01 b0 80 3f 72 1c 80 3f 6c 54 80 3f 6b ab 80 3f
       1.0053712 1.0008681 1.0025764 1.0052313
0003f0 b8 9a 7f 3f 31 31 80 3f 0a 8c 80 3f 2c b0 7d 3f
       0.9984546 1.0015012 1.0042737 0.9909694

ablang_branch.1.bias f4 [256]
000000 96 33 d1 bb d6 ea a8 b9 74 59 07 bc 1b ca cb bb
       -0.0063843234 -0.00032218423 -0.008261073 -0.006219161
000010 70 25 c3 3a bc 6b 81 bb 6a c5 bc 3b db 5c a3 3b
       0.0014888477 -0.0039496105 0.0057608383 0.0049854345
000020 3c 3c 08 3c 74 49 00 bb 47 3f 34 bc dd 3f 65 3b
       0.008315142 -0.0019575031 -0.011001415 0.0034980692
000030 51 f2 af bb 81 ce 45 3b fd 5e 7f 3b 16 37 5b bb
       -0.0053694625 0.00301829 0.003896653 -0.0033449582
000040 57 f0 07 ba cd 57 ad 3b 6d 5e 78 bb b3 95 b0 3b
       -0.0005185655 0.0052900077 -0.003789808 0.0053889393
000050 ad 08 e1 ba c6 34 93 bb d9 29 0b bc a1 b5 13 3b
       -0.0017168723 -0.004492375 -0.008493864 0.002253868
000060 15 b6 9b ba 05 ca ae ba bd 2f ea bb ef 1d 43 3c
       -0.0011879826 -0.0013335353 -0.007146804 0.011908992
000070 4d 31 62 3b d2 2c cd 3a 56 68 ff 3a 6e b8 7e bb
       0.003451425 0.0015653616 0.0019486051 -0.0038867253
000080 4c 89 ab b9 4e 8b 0e 3b 08 1a a7 3b ba 1e 92 38
       -0.00032717956 0.0021750513 0.0050995387 6.967546e-05
000090 a8 7b e7 3b 78 83 2c bc e3 46 1f bc 52 b2 b9 bb
       0.0070643015 -0.0105293915 -0.009721491 -0.0056670094
0000a0 3e a5 46 bb 5b 0b 1b bc b2 03 df ba 8a d7 d6 3b
       -0.0030310894 -0.009463157 -0.0017014651 0.006556456
0000b0 be b7 62 3c 8b a1 c9 3b 04 37 c1 bb b2 4e ca bb
       0.013837753 0.0061532906 -0.005896451 -0.006173932
0000c0 bc a3 34 3a fc 7c 47 bb 74 39 61 3b c8 d5 3c bb
       0.00068908534 -0.0030439487 0.003436652 -0.0028813947
0000d0 43 83 0c 3b 3e c3 39 b9 55 e2 48 bb 8e f2 06 3b
       0.0021440543 -0.00017715708 -0.0030652483 0.0020591351
0000e0 e8 03 0b ba 91 d4 e9 bb 8a 6a d5 bb 66 c0 94 ba
       -0.0005303011 -0.0071359356 -0.0065129446 -0.0011348843
0000f0 17 c0 6f ba 7b 82 bb 3b fd c2 e0 3b fb ee a6 ba
       -0.000914575 0.0057223416 0.006859182 -0.0012736017
000100 1a 52 06 3b f0 a8 73 bb fa 10 b3 bb 11 ce fc 3b
       0.0020495714 -0.0037179552 -0.0054646702 0.0077149947
000110 53 30 bf bb 13 90 81 3b 20 c4 61 3a 64 18 54 bb
       -0.005834618 0.0039539426 0.0008612294 -0.003236317
000120 78 31 ac bb 18 b8 29 3c a0 9a d1 b5 59 a0 62 bb
       -0.0052549206 0.010358833 -1.5616715e-06 -0.0034580438
000130 4f 18 2c bb 5c 23 07 bb af ca 1f 3c 33 48 87 3b
       -0.0026259606 -0.002062044 0.009752913 0.00412848
000140 e6 d5 5c 3b 5f 15 b5 ba 64 81 9d b9 0d 14 50 ba
       0.003369683 -0.0013815573 -0.00030041777 -0.0007937558
000150 14 bf 19 3c 02 68 84 bb d9 e4 04 bc 03 1d b5 ba
       0.0093839355 -0.004040719 -0.008111202 -0.001381785
000160 9d 02 c7 bb b9 e2 b0 3a 0c c9 0a 3b e9 5e 29 3c
       -0.0060733096 0.0013495303 0.0021176962 0.01033757
000170 02 ba 9c b8 d5 57 ba 3b 6a cf 82 3c 5f 7e bc 39
       -7.473306e-05 0.00568674 0.015968043 0.00035952308
000180 58 e0 a1 3a 17 ca 7e ba d5 74 ae bb b2 76 b6 bb
       0.0012350185 -0.0009719445 -0.005323986 -0.005568349
000190 69 c0 53 ba 54 4c fe bb 24 ca 34 3c db 81 76 3b
       -0.00080776826 -0.007760564 0.011034522 0.003761402
0001a0 72 f7 41 bb 9a 19 f2 b9 4a 3e 42 bc 78 59 d1 bb
       -0.0029596952 -0.00046176912 -0.011855671 -0.0063888393
0001b0 f3 43 14 bc 03 e7 12 bc 30 cb 69 b9 bc 5c a6 bb
       -0.0090494035 -0.00896621 -0.00022296305 -0.005076973
0001c0 3c ae 00 bc 77 b1 dd bb 5b 68 86 3a f8 d8 8c ba
       -0.007854041 -0.00676554 0.0010254489 -0.0010745814
0001d0 20 34 84 bb 8c ea a4 3b 84 26 f2 39 d3 ac ee ba
       -0.004034534 0.005032843 0.00046186533 -0.0018209465
0001e0 7e 88 fe bb 05 ac 9e bb 69 03 a5 bb 5b 09 53 3a
       -0.007767736 -0.0048422837 -0.005035807 0.00080504053
0001f0 88 ec 15 39 08 3a 8d 3b db bb 5a bb d8 a7 5d bb
       0.00014297862 0.0043098964 -0.003337613 -0.0033821966
000200 ff 96 0f bb 6f a6 26 bb 47 a7 84 3b 79 23 ca 3b
       -0.002191007 -0.0025428792 0.0040482613 0.0061687795
000210 87 8c 0c 3b 3b 27 b6 b9 97 9f 5b bb 4a 52 ba 3a
       0.0021446066 -0.00034742974 -0.003351187 0.0014215198
000220 10 19 b5 ba 06 da 8e bb 77 e6 b9 bb 8a 3e 62 3b
       -0.0013816673 -0.0043594865 -0.0056732255 0.003452214
000230 49 d8 ce 3b c8 99 c5 ba 9a e9 fe 3b ca 22 ba 3b
       0.0063124043 -0.0015075738 0.0077793123 0.0056804167
000240 e9 ec 4d 3b 62 60 91 bb a7 c1 b0 3b 46 ea 36 ba
       0.0031421727 -0.0044365386 0.005394179 -0.00069776585
000250 ae 3b 5f bc 61 f5 c8 3b c6 a7 c3 bb 92 90 ee ba
       -0.013625069 0.006132767 -0.005970928 -0.0018201044
000260 a1 dd 66 3b 0c cf 1f bc 88 af 2f ba 09 5c 69 bc
       0.0035227316 -0.009753954 -0.00067018764 -0.014243134
000270 09 6d 52 3b 2e 97 01 bc cb b6 e8 ba da 20 2c bb
       0.0032108447 -0.007909579 -0.0017754672 -0.0026264698
000280 99 b3 15 bc 2c c4 2a 3c 7e 84 b2 3b 30 fc e9 bb
       -0.009137058 0.010422748 0.005447923 -0.007140659
000290 2c 90 0e 3c 48 37 80 bb 49 44 15 3a b8 01 89 ba
       0.008701365 -0.00391284 0.0005694074 -0.0010452783
0002a0 50 fb 07 3b c2 b0 c4 bb 67 ce cd bb 46 f7 c9 bb
       0.002074916 -0.0060025165 -0.0062807086 -0.0061635105
0002b0 d9 2c f8 bb d7 bb ed 3b 66 f1 02 bc f3 32 be 3b
       -0.0075737056 0.0072550583 -0.007992124 0.0058044135
0002c0 04 49 ea 3a 08 47 92 bb 48 40 da b9 a7 89 c2 bb
       0.0017874544 -0.004464034 -0.00041628093 -0.0059368196
0002d0 c0 7c 0e bc bd 1d 3e ba 22 3a 15 b9 eb aa a5 3b
       -0.008696735 -0.0007252356 -0.00014231403 0.0050557754
0002e0 e3 88 ad bb 08 7c 01 3c e2 c5 d3 bb 4d 52 40 3c
       -0.005295859 0.0079031065 -0.0064627985 0.011738372
0002f0 b5 aa 6b 3a c3 35 ad bb 52 76 10 3b ba e2 db 3a
       0.0008989976 -0.00528595 0.002204318 0.0016775944
000300 86 0a 5e 39 c6 24 cc bb d7 19 32 bb f2 aa d2 bb
       0.0002117549 -0.0062299697 -0.0027176046 -0.0064290697
000310 64 ec 17 ba 58 70 69 3c 22 b0 26 bc 68 9e de bb
       -0.0005795418 0.014247976 -0.010173829 -0.006793786
000320 0d d1 b7 3a f4 73 96 39 1c ce 11 bb 4b 14 f7 3a
       0.0014024094 0.0002869662 -0.0022248095 0.0018850652
000330 f5 c2 21 3c fe 18 f7 3b ef fa 13 3b 74 e2 c7 bb
       0.009873142 0.007540821 0.0022579988 -0.0060999934
000340 9d be ee bb 30 c9 9b bb 63 24 a9 bb ef da 07 ba
       -0.0072859065 -0.004754208 -0.0051618083 -0.0005182465
000350 93 21 3f 3a cd e6 4a 39 f3 9e c1 3a c6 8f 73 3a
       0.0007291075 0.00019350201 0.0014772102 0.0009291138
000360 f3 47 e4 39 25 d0 c2 3a 00 60 e2 ba ea cb 4b bb
       0.00043541155 0.0014863057 -0.0017271042 -0.0031096884
000370 92 25 05 3a d7 e3 27 3b 1e 00 cc bb 96 1c 11 ba
       0.0005079146 0.002561798 -0.0062256 -0.00055355707
000380 c0 3d 38 3a b1 ed ee 39 4f 77 c0 b9 6e 2c a8 bb
       0.00070282444 0.0004557199 -0.00036709986 -0.0051322496
000390 de 0c f4 bb 25 13 5c bb ca 76 03 bb a0 83 43 bb
       -0.007447823 -0.0033580747 -0.0020059817 -0.0029833093
0003a0 78 b8 9b bb c9 b3 f6 bb b1 86 4e 3b 0d 43 c7 3b
       -0.004752215 -0.0075287563 0.0031513388 0.006080991
0003b0 9e 4e c1 ba b9 4e 39 3b 65 46 26 bb 93 26 e0 3b
       -0.0014748161 0.0028275682 -0.0025371548 0.006840536
0003c0 2e 5e 30 bb 4b ef 47 bb 7a 11 fa 3b 74 82 b0 bb
       -0.0026911604 -0.003050762 0.007631478 -0.005386645
0003d0 d6 5e 52 bb d6 31 97 ba 7b 00 40 3b e8 77 3c bc
       -0.0032099984 -0.0011535238 0.0029297161 -0.011503197
0003e0 8e 5c c5 3b ab 02 2e 3a 55 17 e8 bb 95 7c ff 3b
       0.0060229963 0.0006637971 -0.0070828595 0.0077968338
0003f0 e7 d1 de bb 12 f4 2f bb 33 47 a4 3b 0f 5f 20 bc
       -0.0067999247 -0.0026848358 0.0050133704 -0.009788289

ablang_branch.4.weight f4 [128, 256]
000000 13 1c ea bd 79 7b 40 3d f9 b2 59 3d 63 c0 bb bd
       -0.11431136 0.046992753 0.053149197 -0.09167554
000010 11 bb 3f bd 35 e9 36 3c 1b c3 a4 bc 40 e9 a0 bd
       -0.04680926 0.011163999 -0.020112565 -0.07856989
000020 c3 1e e9 bd 8d 30 17 3d 20 8a af bc 5e e1 ea bd
       -0.113828205 0.036911536 -0.021428168 -0.11468767
000030 a4 5b 5e 3e b5 1f b5 3c 13 56 7f 3d a2 b4 e8 bc
       0.21714646 0.022109846 0.062337946 -0.028406445
000040 09 4c 6b bd 79 12 10 3b 31 9a ae 3d 01 f9 72 bd
       -0.05744556 0.0021983667 0.085255034 -0.0593195
000050 95 91 65 bc a0 ef 4b 3c a6 51 4f be a6 54 b9 bc
       -0.01401176 0.012447268 -0.2024599 -0.022623371
000060 62 69 73 3c fc 52 a3 3d 78 24 9d 3d 8e 4a 1f bb
       0.014856668 0.079748124 0.076729715 -0.0024305913
000070 0c a2 2c bd 35 ec f1 bd 85 ae b3 bd 0f b1 d2 bc
       -0.042146727 -0.11812631 -0.08773521 -0.025719194
000080 bb fc 46 3a 53 79 bc 3d e1 8f 72 bd a3 5c 98 bd
       0.00075907604 0.09202828 -0.059219245 -0.07439544
000090 01 8c 08 3e 50 d7 47 3d 91 88 b3 3c 08 8f e4 3c
       0.13334657 0.048789322 0.021915706 0.027900234
0000a0 f7 99 cb 3c 4d 4b ac 3c d2 93 8d bd 73 d1 1b 3e
       0.02485369 0.021032 -0.0691296 0.15216617
0000b0 7f f3 a7 bd 4c 7e 95 bd 15 87 84 3d 63 40 91 bd
       -0.0820074 -0.0729948 0.06471077 -0.07092359
0000c0 72 bb a6 bc 10 39 78 3c a8 25 ec 3d c6 f7 11 be
       -0.020353053 0.0151503235 0.1153062 -0.14254674
0000d0 f4 56 d5 3c 76 c3 cd bc 69 38 94 bd b9 54 81 bc
       0.026042439 -0.025117617 -0.07237322 -0.01578747
0000e0 65 bd 5a bd ca dd 1a bd db 78 01 bd 7b 21 78 3b
       -0.053403277 -0.03780917 -0.031609397 0.0037861753
0000f0 a2 ef a0 bc 76 d7 47 3d 0c 0d 04 bd 68 d3 81 3d
       -0.019645516 0.048789464 -0.032239005 0.06339151
000100 9b 23 c9 bd f3 70 cb bd 7f ae 38 bc 87 67 b8 3d
       -0.09821244 -0.09933653 -0.011272072 0.09004121
000110 6a 5d de 3c ee b8 2d be 20 39 52 3d 8f 16 0a 3d
       0.027144153 -0.16965076 0.05132401 0.03371292
000120 48 fb ef 3c 08 fb 66 bc 98 6c 3b 3d c3 10 a2 3d
       0.029294625 -0.014097936 0.04575786 0.07913353
000130 1e 0d 4c bb 8b f1 fe 3d c0 de f2 bc 8b d8 82 bd
       -0.0031135748 0.124484144 -0.029647231 -0.063889585
000140 04 30 0d be 71 a4 fe bd bd 9c 92 bc 5e c9 c8 bd
       -0.13787848 -0.124337085 -0.017897004 -0.09804033
000150 97 81 4d bd ac ac c6 bd f9 52 a6 bd 66 68 51 3b
       -0.050172415 -0.09700903 -0.081212945 0.0031953095
000160 33 ae a1 bc 44 08 e9 bd 66 9e 70 3c 4f 0f 9f bc
       -0.019736385 -0.1137853 0.014686203 -0.01941648
000170 06 4e 89 bd 29 9d 0b 3d 16 2a 2a 3d f8 aa be 3d
       -0.06704335 0.034085426 0.041544043 0.093099535
000180 e3 fe 5d be 3d 52 62 3c d9 c2 4c bd 32 07 23 be
       -0.21679263 0.013813552 -0.04999051 -0.15920714
000190 71 4d 91 3d d1 b6 f4 3d a0 ef 46 bd 65 79 e2 3d
       0.07094849 0.11948932 -0.048568368 0.110583104
0001a0 48 de 3b 3d 67 69 92 3d a8 76 5a bc 9d 92 d6 3c
       0.04586628 0.0714901 -0.013333954 0.026192958
0001b0 1f 9d dc 39 6e a4 f2 bd 8b 3f 8d 3d 6f 4c ad 3b
       0.00042078734 -0.11847769 0.068968855 0.0052886526
0001c0 ea 60 1c 3e 82 00 51 3d 79 2d f7 bd 19 3c 07 3e
       0.15271345 0.051025875 -0.1206922 0.13206519
0001d0 a9 1e 48 3d f2 39 6d 3e 3a 17 39 3d 66 64 86 bd
       0.048857365 0.23166636 0.045188166 -0.06562118
0001e0 cc c0 86 bd 4c d4 c0 3d 51 ef 76 3c 8c f1 24 3c
       -0.06579742 0.094154924 0.015071706 0.010067355
0001f0 00 3e 42 3d ef 92 ba bd fc 81 5f bc 2d e0 99 bd
       0.04742241 -0.091100566 -0.0136418305 -0.07513461
000200 e9 25 0c bd ab a1 b3 bd ee a7 b4 bc 07 fe 75 bd
       -0.03421584 -0.0877107 -0.022052731 -0.060056712
000210 4f e1 fb 3b 5d 91 0b be 05 dc 58 3c 9c 09 d0 bd
       0.007686771 -0.1362967 0.0132360505 -0.10158083
000220 5d 0a 61 bd 2a 0e 92 3d ba 92 01 3e 47 fe aa 3c
       -0.054941524 0.07131608 0.12653628 0.020873202
000230 59 c5 dc 3d 2a 37 9e be de 0d 9d 3d 0b 92 9e bd
       0.107798286 -0.30901462 0.076686606 -0.07742699
000240 0e d3 13 3e 3a 7c 07 3e 81 8c cf bd b6 f6 4f 3d
       0.1443598 0.13230982 -0.10134221 0.05077239
000250 52 5f 12 bd dc e9 7a 3d e4 05 21 3e 5e 8f b1 3d
       -0.035735436 0.061258182 0.15724903 0.08669923
000260 fc f4 2b be 00 06 67 bd 20 c9 c8 3d f3 38 2b 3b
       -0.16792673 -0.056402206 0.098039865 0.0026126474
000270 34 8c 31 be 3a ed aa bd 07 26 8d 3d 60 a8 88 bc
       -0.1733864 -0.083460286 0.06892019 -0.01668185
000280 33 48 67 3c be b9 d1 3c 65 92 13 3e e1 6b 29 3d
       0.014116335 0.025601264 0.14411314 0.041362647
000290 d0 8f 33 3d 76 35 17 bd e7 0d 49 be 18 41 f4 3d
       0.043838322 -0.03691622 -0.1963421 0.11926478
0002a0 6c ee e0 3b 4d a7 a9 3c 02 2d 85 3b 60 72 ed 3c
       0.0068643596 0.020709658 0.0040642032 0.028985202
0002b0 92 a6 9a bd 4f 9a a8 bd f1 e2 09 3e 50 25 b6 bd
       -0.07551302 -0.08232557 0.13465478 -0.088938355
0002c0 e6 78 3d bd 22 d6 e6 bc f5 fd 84 3c b2 e0 a8 3d
       -0.046257876 -0.028178278 0.016234377 0.08245982
0002d0 c3 32 0c 3e 7d cb 98 bd ca bc 00 3e 7b 8b 6e bd
       0.13691239 -0.07460687 0.12572017 -0.058238488
0002e0 80 50 35 3d fa 18 c3 bd d7 3c f8 3d 9b 24 8a bd
       0.044266224 -0.09526248 0.12120979 -0.06745263
0002f0 73 79 fe bb f4 d5 d1 bd 6a 81 6c bc 18 9d 4d 3d
       -0.0077659427 -0.102458864 -0.014435152 0.050198644
000300 66 9e fe bc e8 e7 d7 3d 6a fb a8 bd c9 e4 0f 3e
       -0.03108139 0.105422795 -0.082510784 0.14052118
000310 48 b5 8a bd 07 df bd bd ff 96 fe bc 12 62 17 be
       -0.06772858 -0.09271055 -0.03107786 -0.14783505
000320 f2 ad 34 bc 40 f7 dc 3c cf dd fd 3c 9c d2 4b 3d
       -0.0110278 0.026973367 0.030989556 0.0497614
000330 b2 d7 2d 3e bf ee 1f be f8 de 87 3d a4 bb 57 bd
       0.16976812 -0.15618418 0.06634325 -0.052669182
000340 ff 22 d6 bc c1 1a 94 bd bd 14 25 bb 2f 1a 0f bd
       -0.026139734 -0.072316654 -0.0025189363 -0.03493708
000350 50 22 d5 bd a5 93 6f 3d 62 a3 50 bd ba dd 76 3d
       -0.10406935 0.058490414 -0.050937064 0.06027005
000360 9e 8c fd 3c 84 0f 6f ba 4f 97 95 3b b9 e3 65 bc
       0.03095084 -0.00091194385 0.0045651565 -0.014031344
000370 39 18 92 bb af 87 cd 3d 56 97 80 bc 5f 25 94 bd
       -0.004458454 0.10035645 -0.015697163 -0.072336905
000380 a3 7b 6a 3d 7f a9 b3 3c 38 1e 44 3d c5 39 89 bd
       0.057246815 0.021931408 0.04788038 -0.06700472
000390 8f 74 80 3d 32 5b 74 bd cd 0b 85 3d 4f 84 cb bc
       0.06272232 -0.059657283 0.064963914 -0.024843363
0003a0 08 aa 05 3d 88 9e 9e 3d d8 44 f7 3c a3 34 d8 bc
       0.032632858 0.07745081 0.030184194 -0.026392287
0003b0 d8 f7 82 3d 37 58 5a bd c9 8a b2 bd 0d 10 be bd
       0.06394929 -0.053306784 -0.087178774 -0.09280405
0003c0 65 3c 2b bd f7 fa a9 3d 37 2d 22 be ff 55 86 3d
       -0.041805644 0.08299821 -0.1583756 0.06559371
0003d0 ac 7d 92 3c f3 f3 cb 3c 84 13 c4 3c 98 56 74 3c
       0.01788219 0.024896597 0.023935087 0.014913224
0003e0 ce ec 2c bd 8f 9a ad 3d b5 4e 86 bd 5d 3f bf bd
       -0.042218022 0.08476745 -0.06557981 -0.093382575
0003f0 e8 97 5e 3b 58 85 5c bc 49 bc 68 3d 0e 7a 1b 3e
       0.0033965055 -0.013459526 0.056820188 0.15183279

ablang_branch.4.bias f4 [128]
000000 9a c6 5f bb ff bd c1 bb a2 d7 24 bc d4 da a9 bb
       -0.0034145475 -0.005912542 -0.0100611765 -0.005183557
000010 28 b0 a2 bb 3b dd 2a 39 de b4 01 bc 42 80 ed 3a
       -0.004964847 0.00016294878 -0.007916657 0.0018119889
000020 c0 4d 80 b9 10 08 eb b8 02 17 6c bb 97 6e 08 bb
       -0.0002447199 -0.00011207175 -0.0036024456 -0.002081787
000030 fe 03 88 bb 80 53 db 3b 53 7e 77 bb d8 a4 96 bb
       -0.0041508665 0.0066933036 -0.0037764504 -0.0045972876
000040 e3 9b bb bb 6e b1 c9 3b 20 47 10 bb a4 24 98 3b
       -0.0057253703 0.0061551845 -0.002201505 0.00464304
000050 2b c6 16 bc d9 88 96 3c a0 fe 0e bb 69 6f b9 3a
       -0.00920252 0.0183758 -0.0021819249 0.0014147583
000060 84 94 f1 ba e7 e9 d4 39 0b cf 68 3c 30 31 1f bc
       -0.0018431102 0.00040610062 0.014209519 -0.009716317
000070 60 22 fa ba d1 f6 af bb 7d e4 6c 3b ac b5 e3 3a
       -0.0019083731 -0.005369999 0.0036146932 0.0017372868
000080 21 57 60 3c fb 28 05 bc 09 ca 17 3c de f9 fa bb
       0.013692648 -0.008127446 0.0092644775 -0.007659181
000090 58 29 94 bb f3 f7 e2 ba d3 f2 39 bb 8f 8c af bb
       -0.00452153 -0.0017316326 -0.0028373494 -0.005357332
0000a0 2a 9a 6c 3c be 73 60 ba ed cc b5 ba c7 f2 11 bc
       0.014441052 -0.0008562169 -0.0013870277 -0.00890798
0000b0 b5 c2 bd bb 05 33 8d 3a f3 2e f5 bb bf e7 da bb
       -0.005791033 0.0010772651 -0.0074824034 -0.0066804583
0000c0 c5 0d e6 3b 91 a2 5b 3c 4e af b8 bb b3 20 5e 3a
       0.0070206844 0.013405458 -0.0056361323 0.00084735005
0000d0 f7 93 7c ba a5 94 c8 3b 7a 2f 8b b9 7e a9 25 bc
       -0.00096350856 0.0061212354 -0.0002654752 -0.010111211
0000e0 b9 57 93 bb eb da 28 bb 2a a2 b5 3a 6c 9a 3b 3b
       -0.0044965413 -0.002576525 0.0013857533 0.0028625978
0000f0 97 ff 91 39 47 1a ba bb cc 0b f5 3b 82 30 cf bb
       0.00027846984 -0.005679402 0.007478213 -0.0063229213
000100 52 a1 b8 3a 83 07 a4 3b 28 5a ac bb 04 0a d6 bb
       0.0014086163 0.0050057783 -0.005259771 -0.0065319557
000110 79 42 2e 3c 36 ba 87 b9 ee 07 63 3b 6b ea 56 bc
       0.0106359655 -0.00025887945 0.0034642178 -0.013117413
000120 4e ab 8e 3c d9 70 04 bc e6 a5 6b ba 9c a5 b0 bb
       0.017415669 -0.008083546 -0.00089892594 -0.005390836
000130 9a 24 69 3a 01 60 58 3b e2 20 a9 bb f5 cf 1c bc
       0.00088936987 0.0033016207 -0.0051613906 -0.009571065
000140 e8 54 d5 bb 75 15 3f b9 33 3d 00 bc ea 5b ad bb
       -0.0065103658 -0.00018223173 -0.007827091 -0.005290498
000150 3e e3 09 bc 02 3d bd 3b 5f 27 90 bb 17 2d 43 bc
       -0.008415995 0.005775095 -0.0043992247 -0.011912606
000160 ee 65 e9 3a bf 05 21 bc 2e e0 8f 3a 51 a5 d7 bb
       0.0017806867 -0.00982803 0.0010976845 -0.0065809865
000170 69 1e 3f bc bf 76 c5 3b 18 8d c5 bb fa 18 ff 3b
       -0.011664965 0.0060261185 -0.0060287826 0.00778496
000180 ae fb 9c 3b 85 48 5e bc 5f b8 c7 b9 38 6a 10 3c
       0.0047907447 -0.013567095 -0.00038093605 0.008814387
000190 bc 24 d2 3a ae 61 82 bb fd b6 2c bb 94 15 23 3b
       0.0016032676 -0.0039789295 -0.0026354187 0.0024884688
0001a0 d3 ae 40 39 7d a8 8a 3c 8c 20 a5 39 f7 a7 71 bb
       0.00018375674 0.016926045 0.00031495502 -0.0036873796
0001b0 69 e6 96 bb 75 38 2f 3c 4c e9 b4 ba df 29 70 b9
       -0.0046051037 0.010694613 -0.0013802438 -0.00022903782
0001c0 50 60 6a 3c 47 be 3c bb 0b 6d d0 bb 3d 3e 8b bb
       0.014305189 -0.0028799938 -0.006360655 -0.0042493627
0001d0 32 a6 07 bc 3b 9c 31 3c 06 28 9a bb e4 ed 99 bb
       -0.00827937 0.010840471 -0.004704478 -0.004697548
0001e0 3d ab 13 3b 3d 2e eb bb 82 dc 91 bb 24 f0 33 bb
       0.0022532486 -0.007177143 -0.0044513354 -0.0027456367
0001f0 41 be c6 bb 3f a4 52 bc c3 29 38 3b fa 54 18 bc
       -0.0060651605 -0.012856542 0.0028101064 -0.009297604

ablang_branch.5.weight f4 [128]
000000 5c 2e 7d 3f 65 dd 7f 3f f2 1a 7d 3f af 16 80 3f
       0.98898864 0.99947196 0.9886924 1.0006922
000010 9d 73 80 3f 1a a7 7e 3f 70 b2 7b 3f 58 f5 7d 3f
       1.0035282 0.99473727 0.9831915 0.9920249
000020 eb 9b 7d 3f 86 23 7e 3f f2 58 80 3f f8 8e 80 3f
       0.99066037 0.99272954 1.0027144 1.0043631
000030 d5 ff 7f 3f ba e5 80 3f 65 0a 7f 3f e7 f5 80 3f
       0.99999744 1.0070107 0.99625236 1.0075043
000040 f9 9d 7e 3f 5b 51 80 3f 0c 90 7f 3f d0 82 7f 3f
       0.994598 1.0024828 0.99829173 0.9980898
000050 1d 88 7d 3f a2 e4 81 3f b9 49 80 3f 53 ef 7f 3f
       0.9903582 1.0147898 1.0022498 0.99974555
000060 ea fb 7e 3f e0 aa 7f 3f 83 f7 80 3f 7e ea 7d 3f
       0.9960314 0.9987011 1.0075535 0.9918593
000070 c7 8a 7d 3f 48 ba 7e 3f 05 dc 7f 3f 9e 8a 7f 3f
       0.9903988 0.9950299 0.999451 0.9982089
000080 77 a2 81 3f f4 15 7d 3f 82 49 80 3f 6a 5a 80 3f
       1.0127705 0.9886162 1.0022433 1.0027592
000090 c6 c1 7f 3f 26 e7 7d 3f 4a 22 7f 3f a6 be 7e 3f
       0.9990505 0.9918083 0.99661696 0.99509656
0000a0 1b 53 81 3f 58 95 7e 3f e9 7c 7f 3f d0 ab 7d 3f
       1.0103487 0.9944663 0.9979997 0.9909029
0000b0 20 b0 7c 3f 90 51 80 3f 33 f7 7e 3f 5f 47 7f 3f
       0.98706245 1.0024891 0.99595946 0.9971828
0000c0 d7 2d 80 3f 7d 30 81 3f ba f6 7e 3f 1a 75 7e 3f
       1.0013989 1.0092922 0.99595225 0.9939743
0000d0 bf d1 7f 3f e1 66 80 3f 4a 23 7f 3f bf 14 80 3f
       0.9992942 1.0031396 0.9966322 1.0006331
0000e0 31 bb 7c 3f 05 1a 7f 3f c7 41 81 3f 6e 81 7e 3f
       0.9872313 0.9964908 1.0098199 0.99416244
0000f0 3c 10 80 3f 5b c6 7e 3f 74 6a 7f 3f 7f 41 7f 3f
       1.0004954 0.99521416 0.9977181 0.99709314
000100 df 0a 7f 3f 9a de 7f 3f 1b 41 7f 3f 1c 94 7e 3f
       0.9962596 0.9994904 0.9970872 0.99444747
000110 83 a6 80 3f 97 fc 7e 3f 09 e3 7e 3f 68 bc 7f 3f
       1.0050815 0.9960417 0.9956518 0.9989686
000120 53 ce 81 3f a3 b9 7d 3f 0f 7f 7f 3f 51 e6 7e 3f
       1.014109 0.99111384 0.9980325 0.99570185
000130 36 04 80 3f 68 03 80 3f e1 df 7e 3f 35 1f 80 3f
       1.0001285 1.000104 0.9956036 1.0009524
000140 a0 96 7e 3f c6 f5 7e 3f a0 cc 7c 3f 69 27 7f 3f
       0.99448586 0.9959377 0.9874973 0.9966951
000150 56 3d 80 3f 25 94 7f 3f 48 82 80 3f 30 63 7d 3f
       1.0018718 0.99835426 1.0039759 0.98979473
000160 ba e0 7f 3f 6a 0f 81 3f ae 77 7d 3f 2e fc 7d 3f
       0.9995228 1.0082829 0.9901074 0.9921292
000170 d8 12 7d 3f cd c1 7f 3f ac c7 7d 3f 07 c1 80 3f
       0.9885688 0.9990509 0.991328 1.0058907
000180 b1 4a 80 3f 45 01 80 3f 39 16 7e 3f 83 5e 80 3f
       1.0022794 1.0000387 0.9925266 1.0028843
000190 bf 7d 80 3f 57 4e 7f 3f 95 21 80 3f c7 4f 7e 3f
       1.0038375 0.9972891 1.0010248 0.9934048
0001a0 70 0e 7e 3f 04 c0 81 3f 42 9e 7f 3f 59 46 7d 3f
       0.9924078 1.0136724 0.9985086 0.98935467
0001b0 a4 d6 7c 3f 09 01 81 3f f3 6c 7e 3f 61 b5 7f 3f
       0.98765016 1.0078441 0.99384993 0.9988614
0001c0 bd b6 81 3f f3 aa 7e 3f b7 ba 7e 3f 43 2f 7e 3f
       1.0133892 0.994796 0.99503654 0.99290866
0001d0 f2 14 80 3f 2a ad 80 3f 54 ba 7e 3f bc 7d 7e 3f
       1.0006392 1.0052845 0.99503064 0.99410605
0001e0 18 d2 7f 3f 60 8c 7e 3f 6c 2e 7f 3f 7e 40 7d 3f
       0.9992995 0.99432945 0.9968021 0.9892653
0001f0 44 28 7e 3f 73 88 7e 3f 1e ab 7f 3f ca d5 7f 3f
       0.9928019 0.99426955 0.9987048 0.9993559

ablang_branch.5.bias f4 [128]
000000 0e fe 7a bb 05 48 cd bb ce 33 27 bc 98 1c b5 bb
       -0.00382984 -0.006264689 -0.010205222 -0.0055270903
000010 70 8e aa bb dc 62 4e 36 3d ba e7 bb 87 98 90 3a
       -0.005204968 3.0753936e-06 -0.007071762 0.0011031785
000020 c1 98 48 ba 8d 62 2d ba 9a b1 fb ba b0 75 42 ba
       -0.00076521566 -0.00066141115 -0.001920271 -0.00074180495
000030 90 fd a6 bb 9c ac df 3b 88 7c 95 bb 27 3e 66 bb
       -0.005096145 0.0068259966 -0.0045619644 -0.003513226
000040 b6 4f da bb dd 86 b6 3b 06 b9 09 bb e8 a7 44 3b
       -0.0066623343 0.005570276 -0.0021014824 0.0030007306
000050 79 f6 23 bc 60 82 8d 3c 66 f0 49 bb b5 56 d4 3a
       -0.010007494 0.017274082 -0.0030813455 0.0016200157
000060 4b 50 81 ba 3e 48 21 b9 4a d4 61 3c c8 68 2b bc
       -0.0009865848 -0.00015381069 0.013783524 -0.0104619935
000070 7d 35 01 bb a9 44 b3 bb ad be 82 3b 57 e5 9e 3b
       -0.001971572 -0.0054708314 0.0039900155 0.004849117
000080 c7 0d 57 3c 20 d1 08 bc 52 d8 17 3c 15 2b ce bb
       0.013125843 -0.008350641 0.009267883 -0.006291757
000090 90 38 9f bb f9 d5 44 bb 7d aa f0 ba 9d 2b c5 bb
       -0.0048590377 -0.0030034764 -0.0018361356 -0.006017162
0000a0 4a ad 5e 3c 3a 5e 3c ba 65 53 9c 3a 2a 0a fe bb
       0.01359112 -0.0007185672 0.0011926709 -0.0077526765
0000b0 a7 ee b4 bb ec 39 1f 3a 5f cb 0a bc 52 f0 ed bb
       -0.0055216136 0.00060739997 -0.008471339 -0.0072613144
0000c0 7c 5b c8 3b 2a 1b 5c 3c 8b 36 b7 bb 84 13 fb 39
       0.0061144214 0.013434211 -0.005591219 0.0004788899
0000d0 d3 2e ac ba 3d 85 d6 3b 8c a9 e7 38 28 57 26 bc
       -0.0013136513 0.006546645 0.00011046519 -0.010152616
0000e0 75 10 a1 bb 36 d1 52 bb e9 15 f1 39 ab 5f 4e 3b
       -0.004915292 -0.0032168156 0.00045983426 0.0031490128
0000f0 ce 85 36 3a a1 6d cd bb 93 b8 f1 3b 3c 7f da bb
       0.00069626875 -0.0062691723 0.0073767393 -0.0066679996
000100 cf 00 b5 3a bf d6 60 3b b2 cb c9 bb 18 28 e9 bb
       0.0013809445 0.0034307686 -0.0061583156 -0.0071153753
000110 0c 54 25 3c 34 71 30 ba 50 dd 0a 3b c9 c0 60 bc
       0.010090839 -0.0006730736 0.0021189041 -0.013717839
000120 86 e6 85 3c 87 e8 0c bc 3c 69 53 ba 52 0e b8 bb
       0.016345274 -0.008600361 -0.00080646924 -0.0056169415
000130 f8 cc c4 39 7a c4 06 3b 4f 1b ba bb ad 0f 13 bc
       0.00037536747 0.0020563887 -0.005679525 -0.008975905
000140 e3 62 f3 bb a1 14 8d b9 8c 42 0e bc e3 37 ce bb
       -0.0074275597 -0.00026908985 -0.008682858 -0.0062932833
000150 f9 6e 1b bc 0b 5f c2 3b 1f 3f 80 bb 7b 55 49 bc
       -0.009486907 0.00593174 -0.0039137746 -0.012288447
000160 fa 74 27 3a 18 8b 20 bc c0 49 be ba 75 a8 e5 bb
       0.00063879753 -0.0097987875 -0.0014517829 -0.007008607
000170 d1 73 50 bc 4d 69 00 3c 9e 28 cc bb bc 6e dc 3b
       -0.012722925 0.007837606 -0.006230428 0.0067270678
000180 10 77 a2 3b bc 36 62 bc 14 dc b9 ba db 16 d9 3b
       0.004958041 -0.013806995 -0.0014179968 0.006625039
000190 21 6f 8e 3a 88 22 84 bb 96 aa d5 ba 45 14 30 3b
       0.0010866859 -0.0040324368 -0.0016301449 0.002686755
0001a0 85 6e 18 3a 3f 27 87 3c 45 b6 ab ba 66 0e 4e bb
       0.00058148085 0.016498206 -0.0013100585 -0.0031441688
0001b0 a8 05 a9 bb e8 f3 16 3c 64 cc 58 ba 38 51 99 ba
       -0.005158145 0.009213425 -0.00082702027 -0.0011697179
0001c0 13 3d 5e 3c bc 65 3d bb a8 fc d6 bb 22 1f 6c bb
       0.013564366 -0.002889975 -0.0065608807 -0.0036029299
0001d0 59 aa 68 bb 0a 36 2d 3c 7a fd 9d bb ec 2e a3 bb
       -0.0035501926 0.010571966 -0.0048214765 -0.0049799588
0001e0 4b cf 6c 3a 76 4a f0 bb f0 63 8c bb fe b3 ff ba
       0.00090335746 -0.007333095 -0.0042843744 -0.0019508598
0001f0 22 0c ff bb f1 00 5a bc dd 49 b2 3a 71 5e 51 bc
       -0.0077834288 -0.0133058885 0.0013602335 -0.012778864
