data/model_weights/cv_fold_4_model5_0.pt (torch, 685157 bytes, 23 tensors)

ablang_branch.0.weight f4 [256, 480]
00000000: ae19 5abd fa05 e8bd 2410 0abc 42b4 fabb
00000010: f9fd 0d3e b0de 18be fcb9 5cbc 5111 40bd
00000020: 397d d0ba 87dc 4cbd ec79 adbd 85b8 06bd
00000030: 4afd 233b 3ee3 c2bd 41f8 0fbb 4d88 83bd
00000040: 7d2a f23d 10c5 3f3d abfe e8bc 2d5b 5ebc
00000050: 38ca 2ebd 4452 c4bd 8cf7 be3d a7d2 64bd
00000060: 7b6a 9b3c fd90 053c daaa 6bbd 2848 01bc
00000070: 0727 70bb 331f 423d 293d efbd 63a4 87bd
00000080: 6323 c8bd fc02 003d 16c0 07bd 132b ef3d
00000090: a144 04bd 663e 1bbc 546e 083c 019a dc3c
000000a0: d954 933d cbce 9c3c 34ba ed3c 77aa 10bd
000000b0: 2461 e23d 7b65 11be d79a 043e f46c fc3d
000000c0: baad abbc a783 283d d529 86bc 6b77 9ebd
000000d0: 92c1 37bb 9552 8fbd c827 8dbc 2b01 a63d
000000e0: ae54 2b3d 5993 2abc ed46 d83d 9490 fdbd
000000f0: 4b4c 81bd fc41 ecbc 2b83 05be c8af 373d
00000100: 8b83 463d 89cb e23d 0594 84bd 5053 233c
00000110: c67c e8bd 8197 e5bc 9574 303d 462c 653d
00000120: 5205 8fbd eda5 3fbd 48ba 10bd 3057 e4bd
00000130: f733 813d 2268 a93c 12d7 85bd bc7f 85bd
00000140: f990 b3bc 340b de3c 91c8 743d efae 7338
00000150: c429 d3bc 1885 05bd 3c82 0f3d 135e 763b
00000160: 5b01 52bd 89bc 71bc 7e59 583a 6ade 0ebd
00000170: 8ed5 e13c d584 a93d f9c4 20bd 55bd 92bc
00000180: ec4b a2bd 879a 7b3d dd52 a5bd dd9f eb3d
00000190: d468 1bbc e526 863c 2109 b53d 9902 40bc
000001a0: 4311 0c3e 7554 f7bc d07a de3d 384a b93c
000001b0: bb4c eb3c f459 86bd eb37 9a3d 6880 c0bd
000001c0: d88e 1dbd 882e 4abd 10be a3bd e187 2ebd
000001d0: 0674 87bd 0d93 84bc 3f85 fdbc 9d83 81bc
000001e0: b16e dcbc e223 1d3d be3f 1abc 0d88 853c
000001f0: cf38 f33c 620e 7b3c d7b3 2d3b 1511 9cbd
00000200: 398e b6bc ca24 02be a32f 563b 4c86 6cbc
00000210: 3d9e d6bd bbfe 093d a2ce 023d 3cfb b4bb
00000220: 9b80 f13d 01cf cd3c f212 2dbd 64d8 78bd
00000230: 3fee 12bc 30fe b23d e7ff 67bd eb6c bdbc
00000240: 7feb 5f3d 27f9 963c a9b7 8fbc 38d5 de3c
00000250: 9603 9b3c 7c59 283d a2f4 11bc ee08 1bbe
00000260: 29d6 843c 27a1 0f3e 3903 eb3c 72b5 2e3d
00000270: 7d12 493c a6c1 edbd f484 603c a19e 64bd
00000280: 1699 3fbc a26c 503d 97ea 1dbc 1752 1abe
00000290: dc0f 9a3c 950a a43b 468d babc 67db 90bd
000002a0: 8ad2 37bc f24e 383d 82c0 e03d d4cf c4bb
000002b0: 8899 a8bb fe7a a33c cfce 88bc ab4f 473c
000002c0: 30e2 413c 1464 b1bd 0bcb 17bc 4b96 bf3c
000002d0: fa4a 6ebd 640a 03be ea24 7c3d 0f4f 3f3c
000002e0: ffe2 62bc 902c 5d3c 78b0 2dba 6cd7 61bc
000002f0: c113 95ba 3052 00bd 1332 8e3d b7ab 02bd
00000300: d284 d73d 3dda 573d 9a7e 933d 271b adbc
00000310: 1c3a f23c 07c1 99bd b2c9 4b3c ec41 9c3d
00000320: 0266 43bd e2ad c93d bfcb c4bd 3311 0d3d
00000330: 92ed d8bd c255 a4bd 7e41 0f3d f6bf a1bd
00000340: a3f1 c23d 1744 153d ef68 823d 3402 c63c
00000350: 3b18 2d3d 419e 98bd b3aa cdbd 082e 933d
00000360: 2884 4a3c 7514 8fbd d044 dcbd 9eb4 85bd
00000370: 3846 ccbc f129 cd3d d0a2 1abc d317 b43c
00000380: 33ba c3bc 9ff0 4fbd 83d3 3bbd 11d7 23be
00000390: 2846 95bd 920c d83d c892 9c3d 3fb0 37bd
000003a0: ea42 80bd ad0b caba 9c2d 84bc a704 c8bc
000003b0: 0910 8b3d e12c 253d 7048 d7bd 9232 3fbe
000003c0: da40 c63c 26d4 d1bd debd 663c 0794 8d3d
000003d0: 0e77 ee3b 160d 623d 9bf3 e23b 88fb 97bb
000003e0: f186 9dbd f5aa 4b3c e2f3 21bd 3ddc c53c
000003f0: c12f a2bd b669 a1bd a40b a7bd aa07 6c3d
-0.053247146 -0.11329265 -0.0084267 -0.007650883 0.13866414 -0.14928699 -0.0134720765 -0.046891514
-0.001590646 -0.050015 -0.084705204 -0.032890815 0.0025022798 -0.09515999 -0.002196804 -0.06422482
0.1182451 0.046818793 -0.028441748 -0.013571543 -0.04267332 -0.095860034 0.093245596 -0.055864956
0.018971672 0.008152244 -0.057535984 -0.007890739 -0.0036644356 0.047393035 -0.11681587 -0.06623151
-0.097723745 0.031252846 -0.03314217 0.11678138 -0.032292012 -0.009475326 0.0083270855 0.026928904
0.07193918 0.019141575 0.029019453 -0.035318818 0.11053684 -0.14198868 0.12949692 0.12325469
-0.020956863 0.04114118 -0.016377369 -0.07737621 -0.002803896 -0.06998173 -0.017230883 0.081056915
0.041828804 -0.010411107 0.10560403 -0.12381092 -0.0631338 -0.028840058 -0.13038318 0.044845372
0.048465293 0.110739775 -0.06473545 0.009968594 -0.11351924 -0.028026344 0.04307993 0.055950426
-0.06983437 -0.0467891 -0.0353339 -0.11149442 0.0630874 0.020679537 -0.06535162 -0.06518504
-0.021919714 0.027104951 0.059761588 5.8098634e-05 -0.025776751 -0.03259763 0.03503631 0.0037592694
-0.051270824 -0.014754423 0.00082530815 -0.03488008 0.027567651 0.08277289 -0.039250348 -0.017912546
-0.07924637 0.061426666 -0.080724455 0.11505101 -0.009485442 0.016375968 0.08839632 -0.011719369
0.1367846 -0.03019164 0.108632684 0.022618398 0.028723111 -0.06560126 0.07530197 -0.093994915
-0.038466305 -0.049360782 -0.07995236 -0.042610053 -0.066139266 -0.0161834 -0.030947326 -0.015809828
-0.02690825 0.0383643 -0.009414611 0.016300226 0.029690174 0.015323253 0.0026504898 -0.07620446
-0.022284614 -0.12709346 0.0032682202 -0.014436316 -0.104794 0.033690196 0.03193534 -0.0055231135
0.11792108 0.025123121 -0.042254396 -0.06075324 -0.008967935 0.08739889 -0.056640532 -0.023123225
0.054667946 0.018429352 -0.01754363 0.02720128 0.018922608 0.041100964 -0.008908423 -0.15140125
0.0162154 0.14026318 0.02868806 0.04265351 0.012272474 -0.11609201 0.0137035735 -0.055815343
-0.011694213 0.05088485 -0.00963845 -0.15070377 0.01880639 0.0050061443 -0.022772443 -0.07073098
-0.01121963 0.044997163 0.10974218 -0.0060062204 -0.0051452555 0.019956108 -0.016700177 0.01216499
0.011833712 -0.086616665 -0.009264718 0.023387095 -0.058176972 -0.12796932 0.06155864 0.011676564
-0.013848065 0.013499394 -0.0006625722 -0.013784271 -0.0011373685 -0.03132838 0.06943145 -0.03190204
0.1052338 0.052698363 0.07201882 -0.021131111 0.029568724 -0.0750752 0.012438225 0.07629761
-0.047704704 0.09847619 -0.09609174 0.03444023 -0.10592188 -0.080241695 0.034974568 -0.07897942
0.09518745 0.03644189 0.06367671 0.024170972 0.042259436 -0.074520595 -0.10042324 0.07186514
0.01236061 -0.06986324 -0.107553124 -0.065285906 -0.024935827 0.10017765 -0.009438232 0.021984017
-0.023892498 -0.050766584 -0.04585601 -0.1600001 -0.07288772 0.105492726 0.07645184 -0.044845816
-0.06262763 -0.0015414857 -0.01613503 -0.02441628 0.06790168 0.040326003 -0.10511863 -0.18671635
0.024200846 -0.10245542 0.014083354 0.069129996 0.007277376 0.05518826 0.0069260127 -0.004638139
-0.07691754 0.012430896 -0.039539225 0.02415287 -0.079192646 -0.07881491 -0.08156517 0.057624497

ablang_branch.0.bias f4 [256]
00000000: b8b1 ad3b df23 e43b 68a0 f2b9 1ea4 5c3b
00000010: 22b2 d93c 5eda 313b 4306 fa3b ef96 473c
00000020: 3086 72ba b43f 193c 6be0 a03b 2cb9 643b
00000030: 39da f83b d6fc 2d3c b333 903b 2d82 36bb
00000040: 8729 e53b 3b37 043c 0a17 c3bb 6c6a 363b
00000050: 7922 ae3b 9c35 073c 37ad 523c 72f4 2c3b
00000060: 681e e63b c1ba 593c 9d2c 44bb f382 283c
00000070: d11f 96bb ca2f 75b9 5650 0a3b ae48 863c
00000080: 1676 55bb 3881 6bb9 7d99 0ebb 61ff 2237
00000090: 2731 b538 c38d 4c3b c84e c5ba d2d2 9cbb
000000a0: 464a db3b f1fa 8b3b 70e4 1538 73f7 a9ba
000000b0: c72f 753b e2a4 a53c 8dd8 0a3c 3fc5 e6ba
000000c0: c619 ccba edd5 333a cb2d a338 3812 6e39
000000d0: 2b5d 883b 33ab a23a 3cca 883b b178 143c
000000e0: 134e 083c cec0 a33c 9b80 4fbb 380a ac3c
000000f0: 8383 4d3b 2f93 593b 8c9e 003b 931f 333c
00000100: e7c5 093c abb7 a63b c875 393a 5acb 243a
00000110: 16a7 b7ba ab92 7a3b 3eb4 89ba 95d9 303b
00000120: fc81 073c ab9c 5ebb 18d3 013c 0851 8e3b
00000130: 61a2 bdba 570b 2dba 6dad 4c3c 32fe 053c
00000140: 8344 9cbb 3d64 0b3c a891 923c 7bcc cd3b
00000150: 22dc b63c ff7a f53b 658c 1f3c 6a54 113c
00000160: 3c54 a43c eae4 80b9 1ae0 4c39 94a4 d33b
00000170: e49f 5abc fab4 823a 3036 5c3a 5c51 ba3b
00000180: da71 a33b 9d7d 3d3c 048c 573b c3ff eeb9
00000190: 35d2 593b e6a4 50bb a831 163a 9890 0d3c
000001a0: 7d47 d23c 9c5c f23b 5b55 183c 2b81 213c
000001b0: 2caa c33b 8063 263c f718 413c e178 31bc
000001c0: 6acd c63b c7db 023c 113f 2abb 8485 4e3b
000001d0: 5fb5 2d3c 8eeb 08ba e152 983b 12fc ca3a
000001e0: 962a 303c a446 51bb 99b5 dd3b cdc1 b3ba
000001f0: bd0d b13a 63ee 3e3b 8ac3 31bb eacf 983c
00000200: 5481 533b 2207 203c 51bc 73bb 2a87 1a3c
00000210: 717e 9c3b 9af3 f4ba 23c1 553b 6e81 0fbc
00000220: 6898 b43a c1c8 273b 2ee1 273c 80d3 a93b
00000230: e83f 933b c4e1 3cbb f42f 803c b313 633c
00000240: 465c a9bb 3d04 2b3c e130 a03b d731 213b
00000250: a9ca 9f3b e429 a03c 8777 c63b 2962 613b
00000260: 3cd6 153c 73bf 393c 1a00 9c3b db1d b93b
00000270: 9f30 f93a 0cf5 8537 f2fd 093c 5791 ac3b
00000280: 3445 f1ba 19b2 463a d214 383b 6995 eaba
00000290: 06d1 253b 8174 603c ad8f 8e3a af05 d9bb
000002a0: 46cf d13b c3d2 273b 79ac bb3b 67e2 d23b
000002b0: 1868 a13b 21fd 893a 7d43 98bb 322d 2e3b
000002c0: df05 0cbb 6064 013c f3d1 813b 71a4 40bb
000002d0: 2f2b a13a 2d1c 8739 dc6e a13b 1719 833b
000002e0: 31f8 823a 7816 5d3c b052 403c b9b3 053c
000002f0: ace2 3f3c 4071 4c3b 1ce7 e3ba 3ab4 923b
00000300: 7922 1f3c 293c 083c 0224 78ba 2020 973b
00000310: 2f59 d639 c4a8 ba3b 0805 003c 1eb3 3e3b
00000320: c9d5 f63b ff78 0ebb 9f3d c63b 1776 703b
00000330: 4578 8d3a 6b53 013c 13d5 2abc 15bd 48bb
00000340: 8e06 9f3a 0f89 173a 726b 623b a7d8 123c
00000350: eb8c b339 1f12 933b 61be 4eba 5787 0e3c
00000360: bed7 76ba 272d 1c3b 3682 b93b d5f5 5b3c
00000370: 2fe3 afb9 feeb 9f3b 8176 893a 9d9a db3b
00000380: cbd0 82bb 69e0 cb3b 45c1 053b a0e0 8eb9
00000390: c9c3 313c 5aa0 123c 64ba 2abb 9ebe 9e3b
000003a0: 93b0 413a f0e7 003c 9b4c deba 80b1 a43b
000003b0: 8896 283c 934a 923b d34a 853c 874b 36bb
000003c0: bf84 983b d681 f9b8 617b 4a3c 1bc2 c13b
000003d0: 1db9 c33b bbc0 9ab9 150f 9f3b ae06 3d3b
000003e0: 2e45 393b 3d00 743c 7e93 273b 1df4 be3b
000003f0: f8b0 b93a 9152 e1ba 5357 f93b 0227 7f3c
0.0053007267 0.006962284 -0.0004627735 0.0033667157 0.026574198 0.0027138214 0.007630141 0.0121819815
-0.0009251563 0.009353567 0.004909565 0.003490041 0.0075943735 0.010619363 0.0044006943 -0.0027848587
0.006993476 0.008069809 -0.005953674 0.0027834428 0.005314168 0.008252528 0.01285868 0.0026390818
0.0070226677 0.0132891545 -0.0029933818 0.010285127 -0.0045814295 -0.00023382824 0.0021105013 0.016392078
-0.0032571605 -0.00022459484 -0.0021758967 9.7154125e-06 8.639908e-05 0.0031212426 -0.0015053386 -0.004785874
0.0066922037 0.004271858 3.5737117e-05 -0.0012967422 0.003741251 0.020220224 0.008474481 -0.0017606391
-0.0015571646 0.00068601855 7.780975e-05 0.00022704236 0.004161497 0.001241064 0.004174499 0.009061978
0.008319396 0.019989397 -0.0031662348 0.021000966 0.0031358905 0.00331993 0.0019625751 0.010932821
0.008409 0.005087813 0.0007074741 0.0006286405 -0.0014011587 0.0038234394 -0.0010505987 0.0026985158
0.008270737 -0.0033967893 0.007923864 0.004343156 -0.0014467948 -0.0006601116 0.01249252 0.008178281
-0.0047689094 0.008507785 0.01789172 0.0062804795 0.022321764 0.007491469 0.0097380625 0.008870224
0.020059697 -0.00024584617 0.0001953844 0.006458828 -0.013343785 0.0009972148 0.00084004086 0.0056859683
0.0049879374 0.011565593 0.0032889852 -0.00045585455 0.0033236865 -0.0031836568 0.0005729445 0.008640431
0.025668854 0.007396294 0.009297694 0.009857456 0.005971214 0.010155559 0.011785737 -0.010832042
0.0060669677 0.007986969 -0.0025977532 0.0031512687 0.010602324 -0.00052230887 0.004648552 0.00154865
0.010752341 -0.0031932974 0.006766033 -0.0013714373 0.0013508123 0.0029133789 -0.0027124607 0.018653829
0.003227313 0.009767326 -0.0037191103 0.00943164 0.004775815 -0.0018688322 0.003261634 -0.008758886
0.0013778331 0.0025601836 0.010246558 0.0051826835 0.004493702 -0.002882109 0.015647866 0.013859677
-0.0051684706 0.010438022 0.0048886393 0.0024596357 0.004876454 0.019551225 0.0060567292 0.0034390783
0.009145316 0.011337149 0.0047607543 0.005649311 0.0019011683 1.5968944e-05 0.008422362 0.0052663493
-0.0018407465 0.0007579639 0.0028088582 -0.0017897311 0.002530159 0.013699652 0.0010876559 -0.006622992
0.0064028827 0.0025607802 0.0057273475 0.0064356807 0.004925739 0.0010527709 -0.004646717 0.0026577231
-0.0021365804 0.007897466 0.0039617955 -0.002939489 0.0012296195 0.000257702 0.0049265455 0.0040007937
0.000999218 0.0134941265 0.011738464 0.008160525 0.011711758 0.0031195432 -0.0017387602 0.004477051
0.009712809 0.008315125 -0.0009465815 0.004611984 0.00040883708 0.005696388 0.0078137 0.0029098461
0.0075328094 -0.00217396 0.0060498263 0.003669148 0.0010793289 0.007893424 -0.010426777 -0.003063028
0.0012132691 0.0005780616 0.0034548906 0.008962787 0.00034246533 0.004488244 -0.0007886645 0.00869926
-0.00094163034 0.0023830624 0.0056612743 0.01342531 -0.00033547866 0.0048804274 0.0010487587 0.006701781
-0.003992175 0.00622182 0.0020409387 -0.0002725171 0.0108499015 0.008949364 -0.002605104 0.0048445007
0.00073886773 0.007867798 -0.0016960086 0.0050260425 0.010289796 0.0044644563 0.01627103 -0.0027816014
0.0046544964 -0.00011897429 0.012358517 0.0059130318 0.005972995 -0.00029516764 0.004854093 0.0028843093
0.0028269994 0.014892635 0.002557009 0.0058274404 0.0014167121 -0.0017190744 0.007609287 0.015573265

ablang_branch.1.weight f4 [256]
00000000: 503f 7b3f be1d 793f 604a 7d3f 5d21 7b3f
00000010: 7b35 833f ca12 783f 0b85 833f cea7 7e3f
00000020: ebcf 7f3f e873 7c3f 88fe 833f d4e9 803f
00000030: 8302 823f b603 7f3f 0efe 7d3f e525 7c3f
00000040: ce1e 843f ef47 7d3f 7c12 833f df64 823f
00000050: e15e 7d3f e64b 7e3f 5e41 823f e36f 803f
00000060: 83c5 813f df0e 7f3f f826 7c3f 9ea7 7b3f
00000070: 4011 7f3f 4c47 7f3f 347d 863f b57d 833f
00000080: 943e 803f 8208 7f3f cfbc 7d3f 1f8b 823f
00000090: 4363 7b3f 7c5b 7d3f 30e7 7c3f b754 7f3f
000000a0: 7e85 7d3f dfa1 813f f154 7f3f 4b86 7b3f
000000b0: dca9 823f 1563 813f d63a 803f 0f5f 803f
000000c0: c229 813f ff28 813f 370b 7e3f 17de 7e3f
000000d0: 8c9f 803f 5bab 803f fb21 823f 3bbc 7f3f
000000e0: e0f5 823f 8ac5 823f 0205 823f 60d9 813f
000000f0: 9fa2 7c3f 0141 813f ec46 7b3f 67e2 7c3f
00000100: c57b 7f3f 21a4 7f3f 0f80 823f d503 813f
00000110: af71 803f 49b5 7b3f becf 7f3f 07fb 803f
00000120: bc86 7a3f c40b 7c3f 211a 803f 3909 853f
00000130: 0533 813f 6c0e 823f 5fc1 7e3f 0176 803f
00000140: 9b74 833f 85cf 7f3f c91d 823f 1bcf 7a3f
00000150: 5335 7d3f 5c29 803f ee81 803f cf61 7d3f
00000160: a7d6 883f abff 813f 4359 7e3f cc04 863f
00000170: cc0b 803f f5c6 813f 0d10 813f f5e4 7f3f
00000180: f016 833f 198e 7c3f 2281 823f bfe6 7e3f
00000190: 07c4 843f 2cb3 803f 4072 7e3f 5147 7f3f
000001a0: 7ef2 883f 40cc 7c3f 5158 843f c357 7a3f
000001b0: 7370 7f3f 7951 7f3f 0e5f 803f 1bb6 7c3f
000001c0: 2b2f 7f3f 4651 823f bdcb 803f 89e3 7e3f
000001d0: 9a0a 7f3f 6a6e 7e3f c468 7c3f a0fd 7f3f
000001e0: df3f 823f 9b36 803f 3ccc 813f 2a8b 7e3f
000001f0: 117e 7f3f 160f 803f 8115 833f 5d2c 833f
00000200: e933 7f3f 16bc 7d3f d266 7e3f e4a8 823f
00000210: a265 813f 7e49 833f 9d4b 7b3f 858b 823f
00000220: c029 823f 3a77 823f ec61 833f 701e 7b3f
00000230: b590 7f3f 53ca 813f 3aa7 823f cfb8 7f3f
00000240: fe7d 803f 1f10 823f 675f 803f c84c 813f
00000250: d71e 7a3f 8e70 813f bf27 7f3f 0e1a 823f
00000260: fe64 823f 7226 803f ed00 7e3f fb5a 7b3f
00000270: e6b5 723f add4 823f 1a69 803f 43f6 7e3f
00000280: 74b5 813f dfc3 783f 609b 7e3f d613 7e3f
00000290: 0029 7d3f cf76 803f a64b 833f 15dd 813f
000002a0: 4eeb 7a3f 0110 7f3f e1b7 803f b02e 803f
000002b0: 0101 823f 0102 813f 174d 773f 1041 813f
000002c0: 1d12 793f aa94 7e3f 7cd4 7e3f 9565 803f
000002d0: e731 813f 0d66 7d3f b518 813f 8e37 813f
000002e0: af81 813f 60a7 833f 5bf7 7a3f 189e 7d3f
000002f0: c042 7c3f fec7 823f 2676 7d3f adb2 7d3f
00000300: be1f 7f3f e512 853f 12d6 873f e1c7 7b3f
00000310: 8b48 803f cead 803f 573c 803f ae9c 893f
00000320: 3cbe 843f f541 793f d5d4 823f 2c8e 823f
00000330: da67 813f 7c39 7c3f 577e 813f db6d 7f3f
00000340: 1f51 823f c23e 833f 287a 7f3f 0ba7 823f
00000350: 634f 7f3f d51c 7d3f ae81 823f fc11 803f
00000360: 3a27 7a3f c895 803f a574 813f 415f 7a3f
00000370: a037 803f 2b8d 7c3f c11a 813f 3fc0 7f3f
00000380: adfb 7c3f 1fce 783f da57 823f c3b2 843f
00000390: 0f14 823f d6f4 7f3f a840 823f 7ff1 803f
000003a0: ada3 793f 66da 7f3f 8bae 7a3f 580a 7a3f
000003b0: 4d9f 7c3f 62e4 7d3f 3d46 7e3f 984a 7f3f
000003c0: a01d 7e3f 197c 7d3f 3312 823f c81e 7d3f
000003d0: 1d59 823f 6e82 813f 0f2d 7f3f ee69 803f
000003e0: 2951 803f 9451 8c3f 6d9b 7a3f 119b 803f
000003f0: 4655 803f cab5 813f 9d61 813f b452 863f
0.9814348 0.9731101 0.9894161 0.98097783 1.0250696 0.9690367 1.0274976 0.994748
0.9992663 0.9861436 1.0312052 1.0071359 1.0157017 0.9961504 0.9921578 0.9849532
1.0321901 0.98937887 1.0240016 1.0187033 0.989729 0.9933456 1.0176198 1.0034145
1.0138401 0.99632066 0.9849696 0.9830264 0.99635696 0.99718165 1.0506959 1.0272738
1.0019097 0.99622357 0.99116224 1.0198706 0.98198336 0.9896772 0.98790264 0.9973864
0.9903182 1.0127524 0.99738985 0.9825179 1.0208087 1.0108362 1.0017955 1.002901
1.0090868 1.0090636 0.9923586 0.9955763 1.004869 1.0052294 1.016662 0.9989659
1.0231285 1.0216534 1.0157778 1.0144463 0.9868564 1.0097963 0.98155093 0.9878296
0.9979823 0.99859816 1.019533 1.0079294 1.0034693 0.98323494 0.99926364 1.0076607
0.9786184 0.9845545 1.0007974 1.039344 1.0093695 1.0160651 0.9951381 1.0036012
1.026996 0.99926025 1.016534 0.9797227 0.9890949 1.0012622 1.0039651 0.9897737
1.0690507 1.0156149 0.9935495 1.0470214 1.00036 1.0138842 1.0083023 0.99958736
1.0241375 0.98654324 1.0195658 0.9957084 1.0372323 1.0054679 0.9939308 0.99718195
1.0699003 0.9874916 1.0339452 0.97790164 0.9978096 0.9973369 1.0029008 0.9871537
0.9968135 1.0181053 1.0062176 0.9956594 0.9962555 0.9938723 0.9859736 0.99996376
1.0175742 1.0016664 1.0140452 0.994311 0.9980174 1.0004604 1.0240937 1.0247914
0.99688584 0.9911512 0.9937564 1.0207791 1.0109141 1.0256803 0.9816225 1.0198828
1.0168991 1.0192635 1.0264258 0.9809332 0.9983018 1.013987 1.0207283 0.9989137
1.003845 1.016117 1.0029114 1.0101557 0.9770331 1.0112474 0.9967002 1.0164201
1.018707 1.0011733 0.9922016 0.981857 0.94808805 1.0221153 1.0032074 0.99594516
1.01335 0.97173876 0.99455833 0.9924902 0.98890686 1.0036258 1.0257461 1.0145594
0.98015296 0.99633795 1.0056115 1.0014248 1.0156556 1.0078737 0.96602005 1.009798
0.97293264 0.99445593 0.99542975 1.0031 1.0093354 0.9898384 1.0085665 1.0095079
1.0117701 1.0285454 0.98033684 0.99069357 0.9853935 1.0217283 0.99008405 0.9910076
0.9965781 1.0396391 1.0612204 0.98351866 1.0022138 1.0053041 1.0018414 1.075094
1.0370555 0.9736627 1.0221201 1.0199637 1.0109818 0.98525214 1.0116681 0.99777
1.0181006 1.0253527 0.9979577 1.0207227 0.9973051 0.9887212 1.0195825 1.0005488
0.97716105 1.004571 1.0113722 0.97801596 1.0016975 0.98652905 1.008629 0.9990272
0.98821527 0.97189516 1.018306 1.0367054 1.0162371 0.99982965 1.0175982 1.0073699
0.97515374 0.99942625 0.9792258 0.97672033 0.98680574 0.9917661 0.99325925 0.99723196
0.99263954 0.99017483 1.0161804 0.98875093 1.0183445 1.0117929 0.9967813 1.0032327
1.0024768 1.0962396 0.9789341 1.0047323 1.0026023 1.0133603 1.0107914 1.0493989

ablang_branch.1.bias f4 [256]
00000000: 0bbe dbbb 6f05 85bc 0c56 87bc 0f06 9fbb
00000010: cd22 953c bb01 15bc 6440 9bbc 65cc a0bc
00000020: c673 03bc c34c bbbb d190 a4bc eb60 0ebc
00000030: 4e74 88bb 0350 0bb9 4d02 5abb 4e1a dbbb
00000040: 76cf 7038 b752 17bb 026e 84bc 1fde 11bd
00000050: 7192 b1bb fbcf b23a e2da 0d3c d29f b0bc
00000060: 4177 b83b fe60 5dbb 1e91 26bc 4138 23bc
00000070: 21e8 febb cf17 e1bc b035 76b8 6157 0b3c
00000080: 48e2 1fbc c81f 21bc afcd d0bb 3e67 c5bb
00000090: 8a76 97bb 9b6b a4bb d502 0cbc 830d a7bc
000000a0: d459 033a 3a7a 4fbd f4ab b6bb a1a9 39bb
000000b0: 8534 00bd d402 703c 638b f5bb 5beb ccbc
000000c0: bb17 1abb f9ff a9bb 40c5 aebb 4ef7 7bba
000000d0: 354f e7bb dd56 d6ba 103b 0ebb 1f0b 4abc
000000e0: f908 94bc 9916 d23b 3b7f 75bb f9e9 7e3c
000000f0: 2585 bebb f8d9 20b8 aa33 d1bb d491 c0bb
00000100: c5b5 8dba c254 21bb 3c77 cdbc 290e bbbc
00000110: 73a3 26bb 087d 2fbc 8e17 53bc 7404 d7bb
00000120: b10c 883b 14a5 31bc e367 b63a db9f 0abd
00000130: f2fe 96bc 3231 91bc 562d b53b 4b83 04bb
00000140: 7620 d3bb 4a98 f4b9 0909 333c d5b8 d7bb
00000150: af5a 223c 94e4 f239 bf4f c2bc 559a c8bc
00000160: ce4e 8e3c 38e5 e0bb cdd5 3fbc 6139 c53a
00000170: d444 6ebc 935a f1bb 5fe1 3cbc 4fe5 b739
00000180: ef76 88bc 5403 e83a 4e96 21bc c978 23bd
00000190: c12c 0c3b f3ea 6abb aece e7bb b8d1 fcbb
000001a0: 7ccb ab3c 7970 d6bb da4e d2bc 17c2 b7bb
000001b0: 0830 4eb9 25e1 e8bc 8227 5eba d5ea f1bc
000001c0: 4c72 d3bb 678b c8bb d4b7 29bc 9701 d0bb
000001d0: 2297 eb3a e554 d1bb f81a 8bb9 1260 e7ba
000001e0: 375f e1bc 05ac 0cbc e7fb bebb ebf6 2ebc
000001f0: c44a 80bc 1d09 96bb fc2a d9bc 4313 843c
00000200: 5a2c 47bc 82e2 0fbb d9fc f5bc f275 753a
00000210: fd0d 4fbc 760a 44bc a08a e1bb ce41 9dbc
00000220: 595a 98bc 6425 5fb7 e4e2 36bb 9ed8 f5bb
00000230: c7ff 2e3b e47d 9dbb 22a3 8fbb e3a9 52bb
00000240: a4e2 abbb 4dbe ecbb 2167 fb3a 15a4 513b
00000250: ef93 e3bb 03cd 173c 19a1 cc3a 0f0e 54bc
00000260: dbe5 3bbc a86e e7ba d2fb 31bb 7f99 77bb
00000270: e4bd 94bc eff6 c5bc 6434 a93a 21e8 57bc
00000280: 6eac 49bc 0fe8 48bc 628f aabc e5c0 19bc
00000290: b586 dabc 1264 153b 3faa 293b 4e4a 5ebc
000002a0: 8216 fabb 4e7f bdbb b85d 0f3a d981 41bc
000002b0: e9e5 553b 7916 c5bc 85d9 55bc 4593 10bc
000002c0: 7c76 36bc 8ac9 a73a 699a 90bc eda2 c7bb
000002d0: 0fc4 87bb 70aa bfbc 92a0 d0bb d01b 68bc
000002e0: a1e7 45bc 4945 2f3c 8242 d5bb 9a00 ce3a
000002f0: 5f84 84b9 f595 65bc 438c e3bb 8eb1 2fbc
00000300: 6d2e 2abc 36a6 83bc a954 cfb9 2328 0cbc
00000310: fd1d f8bb ef35 ecba 7009 bf3b 1154 ebbc
00000320: bedb 4bbb 32e6 8cbc 6da4 0c3a 1615 21bc
00000330: 1959 77bc 6004 4dbb 81d5 cdbc 2513 28bc
00000340: ad15 c6bc 29d8 0fba d957 8fbb 6868 cf39
00000350: 7b31 0ebc fe27 a8bb 2676 d0bc d6b7 2d3a
00000360: 70b0 febb 6460 93bc c182 ebbb 8219 12bb
00000370: 9a15 5fb9 c7cd 40bc c061 a1bc 3215 e2ba
00000380: 5997 f4bb 006a 1ebc 82d1 b53a 9ab2 a8b9
00000390: 40d0 a63b db4c 493b e52f c4bb 5d30 adbb
000003a0: d22a 4cbc 6406 a9bc 4ae9 0dbc b3b6 81bb
000003b0: 8d2a d7bb e0e7 8a3a 07cc f6bb c024 03bc
000003c0: 5057 7eba 9523 5bbb 2a6f eebb f0b9 d6ba
000003d0: b1e5 46bc e0c6 e9bc 9395 d5b9 073f 5dbb
000003e0: df21 7dbb 6a5f 663c a421 c0bb a441 11bb
000003f0: 8ca9 b4bc edcf b6bc ad3b 3ebb d16c 3f3c
-0.0067060045 -0.016237943 -0.016520523 -0.004853017 0.01820507 -0.009094651 -0.018951602 -0.019628713
-0.008023208 -0.005715938 -0.020088585 -0.008690099 -0.004164255 -0.0001328588 -0.0033265532 -0.0066864854
5.7413672e-05 -0.0023090073 -0.016165737 -0.03561222 -0.0054190685 0.0013642305 0.008658143 -0.021560583
0.0056294505 -0.0033779736 -0.010166435 -0.009962142 -0.0077791368 -0.027477173 -5.870097e-05 0.0085047195
-0.0097585395 -0.009834237 -0.0063721756 -0.0060242703 -0.0046222853 -0.0050177104 -0.008545597 -0.020392185
0.0005010639 -0.050653674 -0.0055746976 -0.0028329866 -0.031300087 0.014649112 -0.007493423 -0.02501457
-0.002351268 -0.005187985 -0.0053335726 -0.00096117414 -0.0070590028 -0.0016352792 -0.0021702684 -0.012331753
-0.018070685 0.0064113853 -0.0037459868 0.015558713 -0.005814212 -3.8349972e-05 -0.0063843327 -0.005876759
-0.0010811618 -0.002461717 -0.02508127 -0.0228339 -0.0025427013 -0.010710962 -0.012884034 -0.00656181
0.0041519036 -0.01084258 0.0013916459 -0.033843856 -0.018432114 -0.017723653 0.005529086 -0.0020219858
-0.0064430786 -0.0004665277 0.010927447 -0.006583313 0.009909316 0.0004632814 -0.023719667 -0.024487654
0.017371561 -0.0068632625 -0.011708689 0.0015047007 -0.014542777 -0.0073655336 -0.011528342 0.00035075328
-0.016658274 0.0017701187 -0.009862496 -0.03991011 0.002138898 -0.0035845607 -0.0070741987 -0.00771543
0.020971052 -0.0065441695 -0.025672365 -0.005607854 -0.00019663584 -0.02842767 -0.0008474515 -0.029530922
-0.0064528342 -0.0061201337 -0.010358769 -0.006347846 0.0017974118 -0.006388294 -0.0002653224 -0.0017652533
-0.027511222 -0.0085859345 -0.005828369 -0.010678987 -0.015660651 -0.004578723 -0.026509754 0.016122466
-0.01215657 -0.0021955078 -0.030027794 0.00093635835 -0.012637612 -0.011965385 -0.0068829805 -0.019196417
-0.018597769 -1.33005415e-05 -0.0027906233 -0.0075026294 0.0026702748 -0.004806267 -0.0043834606 -0.0032144717
-0.0052455235 -0.007224834 0.0019180515 0.003198867 -0.0069451253 0.009265187 0.0015611976 -0.012942805
-0.011468376 -0.001765688 -0.0027158153 -0.00377807 -0.018156953 -0.024165599 0.001290929 -0.013177902
-0.012309177 -0.012262358 -0.020820323 -0.009384369 -0.026675561 0.0022795242 0.0025888828 -0.01356752
-0.0076320777 -0.005782998 0.0005468982 -0.011810743 0.0032638258 -0.024058567 -0.013052349 -0.008824174
-0.011136647 0.0012801152 -0.017651754 -0.0060924203 -0.004143245 -0.0233967 -0.0063667977 -0.014166787
-0.01207915 0.010697671 -0.0065081725 0.0015716732 -0.00025275626 -0.014012803 -0.0069442107 -0.010723485
-0.010387045 -0.016070466 -0.00039545193 -0.008554491 -0.0075719343 -0.0018021445 0.0058299825 -0.02872661
-0.0031106318 -0.01719961 0.00053650775 -0.009831687 -0.015096926 -0.0031283125 -0.02512622 -0.010258471
-0.024180258 -0.00054872275 -0.004374486 0.00039559905 -0.008678789 -0.0051317206 -0.025446963 0.000662682
-0.007772498 -0.017990299 -0.007187218 -0.0022293036 -0.00021274984 -0.011767811 -0.019699931 -0.0017248748
-0.007464331 -0.009668827 0.0013871642 -0.00032176526 0.0050907433 0.0030715975 -0.005987155 -0.0052853064
-0.012461381 -0.02063293 -0.0086615775 -0.003958547 -0.0065663517 0.0010597669 -0.007531646 -0.008004367
-0.00097023416 -0.0033437957 -0.0072764354 -0.0016382318 -0.012139724 -0.028537214 -0.00040737967 -0.003375949
-0.0038624925 0.014060834 -0.0058633853 -0.002216437 -0.022053503 -0.022315944 -0.0029027269 0.011683659

ablang_branch.4.weight f4 [128, 256]
00000000: bfce bc3d fb50 963b 76b8 3cbc fb88 1abe
00000010: d9e8 2cbe 735f 3bbd e4d1 0c3e 66d6 883d
00000020: d753 073d f50b 003d 423d 88bd 5d34 8e3c
00000030: 8cdc e2bd bca0 113e 2cdc 9b3c 9aae 063d
00000040: c02c 083e 3a96 223b 2e1e a73b 2f1b 453d
00000050: b887 95bd 4e9e aebd 1850 dc3c 8faf b9bc
00000060: 417d 8bbd 6b3b 45bd 4358 f43d 8b0b f6bb
00000070: 6008 123e 027c 48be d6c8 f6bb a25b 9abd
00000080: 70d0 88bd c212 493c 6ca0 42bb 9e66 5dbd
00000090: 3646 b43d 9767 243d 963e c1bd 068b 58bd
000000a0: 0553 d6bd 98ce 2a3d 4401 503e e601 cdbd
000000b0: 9ba2 663d 8c7c 4dbc dee9 00bd 529d 963a
000000c0: f0be 2e3e 9bd2 f63d 868a 083d 8661 c1bd
000000d0: 2ea0 3a3d 627d 09be 86a7 063b 00d3 8dbe
000000e0: 653e 863d d107 4ebe 3cb6 e2bc cdbf 37be
000000f0: 5eee bcbd f4e1 2c3c b3e5 88bd 8373 05be
00000100: ada9 99bd 2468 22ba 7b5a 183e 7495 a2bd
00000110: 6059 cbbc 2970 563c 62ff 533e 271b 6ebc
00000120: 0ce8 473d 9d04 c2bd 1e93 08bd 1f89 953d
00000130: 9d21 083e 1c42 19be 8817 7e3e 84a9 03bd
00000140: 0c03 16be 5263 0c3c 001b bdbc 38bb 95bc
00000150: 2673 8cbe 2ba6 fcbd 04b0 cebb c5b6 a73b
00000160: f4a2 91bd c5d7 37be c19e 5ebd ebe7 d2bc
00000170: ccce c93d 5769 243d 7690 01be eb29 76bd
00000180: 2d3d e13d 08f8 88bd 71ec a73d 2768 473d
00000190: 5101 b63d 7607 2c3e a63e 013e a371 a5bd
000001a0: 8cd7 c2bc 304e 803d 199e 393e 1ad8 023d
000001b0: 9700 493d 5e4a 90bd ca3d 843d 86e0 cfbd
000001c0: 2d72 223d a602 c83d 6739 32bd f155 f53b
000001d0: caec c8bb b2a4 22be d1a2 b6bd 5a7e 1abd
000001e0: e78b b73c a294 0bbd 273a 15bc 89e9 d13d
000001f0: 1ead 8f3d 2b7a 8fbc 6639 3d3d 90d1 b1bd
00000200: 6b1b 95bd 3a6a 0e3e 8808 b13d 7485 15bd
00000210: 0773 d3bd abab 1cbe b5f9 acbd fbae 413d
00000220: f2b6 393c c5f5 983d 70d5 773c 5e37 09bd
00000230: a144 d73d 738e bebd c393 3cbe 05e9 c83d
00000240: bbaa d23d a3b8 f73d a673 08be 6cd5 c9ba
00000250: 2a9f a0bd ff5e 82bd 5ee0 72be a15f 0c3e
00000260: 904b c93b ad74 87bc f318 0a3d 4005 17bc
00000270: baee 0ebd 7cb2 19bd ef01 a23d 8572 20be
00000280: e472 99bd 5256 e6bd 2cf5 a6bc b0aa adbd
00000290: 926f 463e dc9b 3cbe f260 f03c 801c b93d
000002a0: 7b2c 67be d201 ddbc 4ebd 76bd fafd 9b3c
000002b0: f2aa 133e 58c5 c63d a460 fb3d c594 dc3d
000002c0: 8646 3e3d 84f5 a53d b383 b5bd 6375 e4bc
000002d0: 6372 083e 90a5 90bd 1ec8 513d d34b 533e
000002e0: 3fc7 e6bb 43f5 c5bd 6424 343d f722 1bbd
000002f0: 5584 273d da0a 963d 5e0a 5fbd d513 cbbd
00000300: 413e 27bd e2af fc3c 8f7b 823d 58d9 5c3d
00000310: 9f39 353e 0482 9c3c 3870 f9bd 06a8 b53d
00000320: 1533 a7bb 0b5a 4dbd e91c adbd 6378 ae3d
00000330: 9b4e 8a3d 5e0b bcbd 391e 1b3b dd76 23be
00000340: 9d76 0dbd cdae 22bd 3f29 433d 944d 48be
00000350: 3018 80bd e152 763d 867b 873c a26e a53d
00000360: fee4 e1bd 3d5f b13d e801 b93d 4a98 06bd
00000370: c49d 48bd 4cd8 f8bd a76c 2fbe e5c6 07be
00000380: db0a a23c 2a11 ca3d 5e7e dfba a8f7 f33d
00000390: a2dd b03d 655c 093e dbb5 fd3d 7ea9 e7bc
000003a0: 6c3b 0bbe 3f28 dc3d 8600 9d3d d44a 0d3e
000003b0: 6096 daba ed93 0cbd 8341 97bd 9de3 2b3e
000003c0: b6da 723b 5891 29bc c62e ce3d 2536 a73d
000003d0: f71d 0cbe 2c4b ea3d 868a e8bb 8847 d2bc
000003e0: b24b ac3d 0bc5 27bd f7e4 40be db76 803c
000003f0: 309c 0e3d cde1 8e3d 3eb5 e13b 100f 1ebd
0.09219121 0.0045872903 -0.011518588 -0.15091316 -0.168857 -0.045745324 0.13751942 0.06681518
0.03303894 0.031261403 -0.06652309 0.017358953 -0.11077222 0.14221472 0.019025885 0.032881357
0.13298321 0.002480878 0.0051000332 0.048121627 -0.07301277 -0.08526288 0.02689366 -0.02266672
-0.06811 -0.04815237 0.11930897 -0.0075087002 0.14261007 -0.19578555 -0.0075312657 -0.07537009
-0.06680381 0.012272539 -0.002969767 -0.05405294 0.08802454 0.040137853 -0.094357654 -0.052866958
-0.104650535 0.04170093 0.20312983 -0.10010128 0.056307416 -0.012541901 -0.031473033 0.0011490977
0.17065024 0.120518886 0.03333523 -0.09442429 0.045562916 -0.13426736 0.002054663 -0.27700043
0.065548696 -0.20120169 -0.027674787 -0.1794426 -0.092251524 0.010551918 -0.06684437 -0.13032345
-0.07503066 -0.0006195328 0.14878266 -0.07938662 -0.02482289 0.0130882645 0.2070289 -0.014532841
0.04880528 -0.09473536 -0.033343427 0.073015444 0.13294072 -0.14966625 0.24813664 -0.032144085
-0.146496 0.008568602 -0.023084164 -0.01827775 -0.274316 -0.123363815 -0.006307604 0.0051182234
-0.07111159 -0.17953403 -0.05435062 -0.025745353 0.098538965 0.040139522 -0.12652764 -0.06009857
0.109979965 -0.06687933 0.081993945 0.04868331 0.0888697 0.16799721 0.12621555 -0.08078315
-0.023784421 0.06264913 0.18126716 0.03194437 0.04907283 -0.070454344 0.06457098 -0.10150246
0.039659668 0.0976613 -0.043511774 0.0074870517 -0.006131743 -0.15883139 -0.089177735 -0.037718154
0.022405578 -0.034077294 -0.009108103 0.102496214 0.07015441 -0.017514309 0.046197318 -0.08682549
-0.0728062 0.1390771 0.08644205 -0.036504224 -0.10324674 -0.15299861 -0.08446065 0.047286015
0.0113351215 0.07468752 0.015126571 -0.033500068 0.10511137 -0.09304514 -0.18415742 0.0981007
0.102864705 0.120957635 -0.13325366 -0.0015398688 -0.07842858 -0.06365775 -0.23718402 0.13708355
0.006143041 -0.016535128 0.0337152 -0.00921756 -0.034895636 -0.03752373 0.07910525 -0.15668686
-0.07492617 -0.11246933 -0.020380579 -0.08479822 0.19378498 -0.1841883 0.029343102 0.09038639
-0.22575562 -0.026978407 -0.06023913 0.019042004 0.14420679 0.09705609 0.12274292 0.10770563
0.046453975 0.08103469 -0.0886301 -0.027888006 0.13324885 -0.070628285 0.051216237 0.20634393
-0.007042795 -0.096659206 0.043980017 -0.037875142 0.040897686 0.073262885 -0.054453246 -0.09915892
-0.040830854 0.030845586 0.06371223 0.053918213 0.17697762 0.019104965 -0.12179607 0.088699386
-0.005102525 -0.0501347 -0.0845278 0.08519056 0.06753274 -0.091818556 0.0023669137 -0.15963311
-0.034536947 -0.039717484 0.047646757 -0.19560844 -0.062546134 0.060137633 0.016538393 0.08077742
-0.11030005 0.086607434 0.09033567 -0.032860078 -0.048978582 -0.1215063 -0.17131291 -0.13259466
0.019780567 0.09866555 -0.001705121 0.11912471 0.08636023 0.13414152 0.12388202 -0.028279062
-0.13596886 0.10749864 0.076661155 0.13798076 -0.0016676895 -0.03432076 -0.07385542 0.16786046
0.0037056631 -0.010349594 0.10067515 0.08164624 -0.13683306 0.11440119 -0.0070965914 -0.025668874
0.08412875 -0.0409594 -0.18837343 0.015681675 0.03481692 0.06976662 0.006888061 -0.038588583

ablang_branch.4.bias f4 [128]
00000000: d655 6ebc 34b4 1bbc 69fc a63c 9c94 1cbd
00000010: 76a2 90bc bd7f 41b9 bf25 ebbc 0d95 d4ba
00000020: 26ee 083d 78bc e2bc 65a9 cd3c bd47 0dbc
00000030: 0df7 96bb 8c5a 913c db04 1abc 511a d0bb
00000040: a3a6 e53c 44aa 33bc 49fe 5fbc 6530 0d3c
00000050: 3754 86bc 68af a9bc 8ea1 98bb 80ba a3bb
00000060: b174 233c b88b efbb ccd1 0d3d 4bbf 5ebc
00000070: e3fb 01bd a499 eeba d9e3 103d b67c 3b3a
00000080: c3f3 163c 6055 67bc 6408 a8bb ce63 79bb
00000090: 5b8d 093c d57b 3d3d 74b8 58bb 1ffc 37bc
000000a0: 62f1 28bc ccc1 f4bb 31f5 bebc cb22 debb
000000b0: 5902 43bc 56a0 573c 9cac cabc f002 debb
000000c0: 8182 393c d6a6 febb 8268 cabc f984 a9bc
000000d0: f195 2ebb 6390 5cbc 48d5 003c 5a52 b6bc
000000e0: f5c3 09bd 98e2 b93c a8e9 bcbb b2a7 94bc
000000f0: 089c a73c 5f2b 67bc c8a3 bfbb 93ce 83bb
00000100: d920 15bc 0e46 81bc 8cc6 98bc c9e2 1cbc
00000110: ff1c 24bc b65f 373a 14d9 4abc f6e4 a83c
00000120: f3db c13b 72fb 193c aacc 28bc fe5a 1d3d
00000130: 1234 87bc 0353 18ba 993d b7bc 191c 61bc
00000140: bbaf 1c3d 1181 6abc 6c0c 7fbc f69f a1bc
00000150: b999 c838 af55 d6bc 1127 7ebc 26a0 61bb
00000160: 3ab5 c4bc dd29 e8bc ecec 83bc 3c91 d13a
00000170: 9b71 4abc 0210 9bbc 25d5 72bc 4a49 9ebc
00000180: 669d 01bd a2a3 9dbc 0ef0 b4bc 1e75 79bc
00000190: 9006 14bc b868 afbb 2256 9eb9 a2c5 d3bb
000001a0: 5772 773a c156 c23c 4299 c33b 553e 9fbc
000001b0: 989f 6dbb d33d 55bc 3513 4fbc 013b ba3b
000001c0: b0a8 ac3c df71 5ebc a7b2 67bc ebdf 853a
000001d0: ebf8 a3ba 7c10 c53b 70ad 11bd 7004 91bc
000001e0: 47ea ce3c 62e6 31bc 257b 95bc 87d8 4abc
000001f0: 513b f9bc bb36 dc3c a6d7 d5bc 2cbb 7abc
-0.014546832 -0.009503413 0.02038403 -0.038227662 -0.017655592 -0.000184535 -0.028704522 -0.0016218737
0.03343024 -0.02767776 0.025105188 -0.008623061 -0.0046070875 0.017743371 -0.009400572 -0.0063507934
0.02803356 -0.010965887 -0.013671466 0.008617495 -0.016397579 -0.020713523 -0.0046579307 -0.0049965978
0.009976552 -0.007310357 0.034623906 -0.0135954125 -0.03173436 -0.0018203747 0.035373542 0.0007152067
0.009213391 -0.014119476 -0.0051279534 -0.0038053873 0.008395518 0.046260674 -0.0033068927 -0.011229544
-0.010311456 -0.0074693915 -0.023310276 -0.00677905 -0.011902415 0.013160786 -0.02474051 -0.0067752525
0.011322618 -0.0077713532 -0.024708036 -0.02069329 -0.0026639665 -0.013462159 0.00786335 -0.022256065
-0.033634145 0.022691056 -0.0057651587 -0.01814637 0.020460144 -0.014109462 -0.0058483817 -0.0040224283
-0.00910207 -0.015780475 -0.018649362 -0.009575554 -0.010016679 0.0006995158 -0.012380857 0.02061699
0.0059161126 0.009398328 -0.010302702 0.038416855 -0.016504321 -0.00058107096 -0.02236824 -0.013739609
0.038253527 -0.014312998 -0.015566926 -0.019729596 9.565376e-05 -0.026163904 -0.015512244 -0.0034427731
-0.024012197 -0.028340274 -0.016104184 0.0015988718 -0.012356187 -0.018928532 -0.014821325 -0.019322056
-0.031644247 -0.019243065 -0.022087123 -0.015225677 -0.009034768 -0.0053530596 -0.00030200282 -0.0064627687
0.000943934 0.023723008 0.0059691975 -0.019438902 -0.0036258455 -0.013015228 -0.012638857 0.0056833033
0.02107653 -0.013576954 -0.014141715 0.0010213827 -0.0012510096 0.006013928 -0.035565794 -0.017702311
0.025258197 -0.01085815 -0.018247196 -0.012380726 -0.030423792 0.026881566 -0.026103806 -0.015303414

ablang_branch.5.weight f4 [128]
00000000: eeff 803f a14c 743f 0969 7b3f a39d 7a3f
00000010: e429 6f3f e4ba 7a3f 4ebe 813f a2c4 753f
00000020: 2d3c 803f 05e8 6f3f 1cd6 7e3f f406 803f
00000030: ddb5 7b3f eac8 823f b206 783f bcee 7b3f
00000040: ceb5 843f bda9 7a3f 8cdd 783f 8077 7f3f
00000050: e881 783f f926 813f 1a35 803f 6802 773f
00000060: 58aa 7e3f 5b97 773f 7c64 843f 84dd 7a3f
00000070: 4d35 7d3f 3c9a 803f 98d6 823f ac5b 763f
00000080: 21f3 7f3f e725 723f 4e9e 783f 98c9 7e3f
00000090: aea8 803f b8c5 843f cd8d 7f3f 9393 7d3f
000000a0: ab0e 7c3f b455 803f 160b 803f e617 783f
000000b0: 747a 7d3f b1f1 803f 0b0a 803f 0804 743f
000000c0: 09e0 823f 1058 7c3f 83d8 7b3f d965 813f
000000d0: 379d 7d3f c73b 813f 138e 733f f1a9 7c3f
000000e0: 8eb2 7f3f 48d1 7e3f 6560 7e3f 51cd 7c3f
000000f0: 1e51 853f 805e 7e3f 6dd1 7e3f 5848 7e3f
00000100: 0b5b 7e3f 7a5e 7a3f 5bf2 7c3f 2c5c 7a3f
00000110: b3e2 7a3f 7a82 7b3f 3314 7c3f dd52 843f
00000120: 1b0d 7a3f 11a8 813f 92bf 803f 2d21 873f
00000130: c6dd 7f3f 7786 7c3f d3b8 7c3f 4eec 7b3f
00000140: 19c7 8a3f 7003 7b3f 812f 7a3f 0a1a 7d3f
00000150: 9f2f 733f 8519 7d3f bae3 803f 1a60 793f
00000160: 68e8 813f f289 7a3f e1c6 7c3f f0d4 793f
00000170: 5ee2 7b3f 1720 7c3f aebc 7f3f 1429 813f
00000180: 97dc 7c3f db4e 803f e505 813f 958c 793f
00000190: b07e 7e3f 4639 813f 4e1c 773f 03dd 713f
000001a0: 36d2 773f 0c9b 803f f430 7c3f 4e7d 7f3f
000001b0: fa2a 7a3f 5cfc 803f 9827 803f 6fad 7f3f
000001c0: 45a7 6e3f 06a1 803f 87ed 7a3f 4aa6 7b3f
000001d0: c0ec 763f 3f8f 7e3f c651 813f 1225 803f
000001e0: 87d4 833f ece0 783f 3083 7a3f 55fa 7d3f
000001f0: 3b3c 793f f4c4 833f b18f 813f 4338 7f3f
1.0078104 0.95429426 0.98207146 0.97896785 0.93423295 0.9794142 1.0136201 0.9600316
1.0018364 0.9371341 0.99545455 1.0002122 0.98324376 1.0217564 0.96885216 0.98411155
1.0367982 0.9791525 0.97213054 0.9979172 0.9707322 1.0090019 1.0016205 0.96488047
0.99478674 0.96715325 1.0343165 0.97994256 0.98909456 1.0047069 1.0221739 0.9623363
0.9998036 0.94589084 0.97116554 0.9952636 1.0051477 1.0372839 0.99825746 0.99053305
0.9845988 1.0026155 1.0003383 0.96911466 0.99014974 1.0073758 1.0003065 0.9531865
1.022462 0.9857187 0.98377246 1.0109206 0.99068016 1.0096368 0.95138663 0.9869681
0.9988183 0.9953809 0.99365836 0.9875079 1.041538 0.99362946 0.9953831 0.9932914
0.9935767 0.9780041 0.98807305 0.97796893 0.98002166 0.98245966 0.9846832 1.0337788
0.9767625 1.0129415 1.0058463 1.0557 0.99947774 0.9864268 0.9871952 0.9840745
1.084201 0.9805212 0.97728735 0.9886786 0.9499454 0.98867065 1.0069497 0.97412264
1.014905 0.9786674 0.98740965 0.9759054 0.98392284 0.98486465 0.9989728 1.0090661
0.98774093 1.0024065 1.0079924 0.97480136 0.9941206 1.0095603 0.96527565 0.9447786
0.9680513 1.0047317 0.98512197 0.99800575 0.9772183 1.0077014 1.0012083 0.99874014
0.93223983 1.004914 0.9801869 0.9830061 0.96455 0.99437326 1.010308 1.0011313
1.0299233 0.97218204 0.97856426 0.992101 0.9735753 1.029448 1.0121976 0.99695224

ablang_branch.5.bias f4 [128]
00000000: 6d3f c5bc a872 f5bb 8879 233d 233a cfbb
00000010: 4d7c 97bc 8a2a cfb9 5ca6 01bd cd71 73b9
00000020: 60d9 5b3d 0159 cabc 3c99 1c3d d181 4abc
00000030: 81a6 f5bb a273 e93c 2d22 2bbc 11bd f1bb
00000040: 2565 273d 8803 0fbc 85c4 3cbc 7ed9 0e3c
00000050: 66a2 13bc 2a02 a7bc 1a1f 06bb eb7a 8339
00000060: d9a0 ab3c a29b 19bc 6fd8 4d3d 1b16 92bc
00000070: a220 62bc cf87 95bb 9418 5e3d 68f1 473c
00000080: 53da 843c 035a 4f3c dad3 0ebc 994d 7abb
00000090: 623b 913c ab93 7a3d 4014 4eb7 65e7 913b
000000a0: c7a6 2fbc b278 aebb 0fcd 0fbd c390 edba
000000b0: a31c 2dbc 3a38 8f3c 3922 dcbc dcad e9bb
000000c0: a359 be3c 3922 9bbb 22cc c9bc de83 b1bc
000000d0: 56a0 923b 78e3 99bc 3e52 e63b e44a 45bc
000000e0: 668e 10bd 2956 163d 7ef5 a3bb 0621 8fba
000000f0: 6e6e 133d ba5b 60bc 8b26 ecbb 1fc0 ddbb
00000100: cf8e c63c b655 c3bb 6755 90bc 3f38 e6bb
00000110: 6c7c fbbb 17d9 67bb 7fdd aebb 2bda d33c
00000120: d12c 8fbb a047 553c 0bc9 25bc b197 5e3d
00000130: 4a92 a4bc bd14 1a3c 51ac c5bc e999 623c
00000140: 6d1e 633d 7d2a 8ebc e576 64bc 8f38 b1bc
00000150: c16b 3a3c 738f abbc 3d42 4abc 43b4 38bb
00000160: 67ce f8bc 7ea8 10bd f355 83bc a6ee d43b
00000170: e77b d6bb 48b0 a8bc 7fc5 88bc fbd0 64bc
00000180: 1698 00bd 5dcf 73bc c4c6 8fbc d606 9c3a
00000190: 0c47 3abc eb04 3dbc fef5 de3b 075b 693b
000001a0: dedd 583c 1d56 163d 0969 5b3c 9863 50bc
000001b0: 3012 683b ba8e 3abc 32b6 c43a 6429 0c3c
000001c0: 8b65 0a3d 3c2f 59bc 3ea8 74bc 0f68 853b
000001d0: 3526 b23b 4018 443c a947 24bd 2a5c 9abc
000001e0: 4fc7 183d bdf0 fcbb 4221 dbbc b2ca 63bc
000001f0: 2be4 edbc 7262 353d 4070 00bd 89b0 58bc
-0.024078095 -0.0074904747 0.039910823 -0.006324069 -0.018491888 -0.0003951381 -0.031652793 -0.0002321668
0.0536741 -0.024700643 0.038232073 -0.012360052 -0.0074966555 0.02849752 -0.01044516 -0.007377275
0.040867943 -0.008728869 -0.011521463 0.008718846 -0.009010887 -0.020386774 -0.0020465315 0.00025077848
0.020950722 -0.009375485 0.050255235 -0.017832806 -0.013801726 -0.004563309 0.05422266 0.012203552
0.016217386 0.012655738 -0.008717502 -0.0038193224 0.017728511 0.061175983 -1.2283272e-05 0.004452633
-0.010720915 -0.0053244466 -0.03510767 -0.0018124807 -0.01056591 0.017482866 -0.026871787 -0.0071313214
0.023236101 -0.0047343043 -0.02463347 -0.021669324 0.00447468 -0.018785223 0.007028847 -0.012041781
-0.03529205 0.036703262 -0.00500363 -0.0010919876 0.035993986 -0.013693744 -0.007206743 -0.0067672874
0.024238018 -0.0059611453 -0.017618848 -0.007025748 -0.0076747444 -0.0035377198 -0.005336463 0.025860867
-0.004369356 0.013017565 -0.010118733 0.054343883 -0.020089287 0.009404358 -0.024130018 0.01383064
0.05544894 -0.017354244 -0.013944362 -0.021633415 0.01137823 -0.020942425 -0.012344894 -0.0028183616
-0.030371858 -0.035316937 -0.016032195 0.0064981757 -0.006545532 -0.02059187 -0.016695736 -0.01396584
-0.03139504 -0.014880982 -0.017550834 0.0011903893 -0.011369478 -0.011536817 0.006804227 0.0035607235
0.013236491 0.036703218 0.013391742 -0.0127190575 0.0035411231 -0.011386568 0.0015007912 0.00855479
0.033788245 -0.01325589 -0.01493269 0.0040712426 0.0054366835 0.011968672 -0.040107403 -0.018842775
0.03729945 -0.007719128 -0.026749257 -0.013903307 -0.029039463 0.044283338 -0.03135705 -0.013225683

ablang_branch.7.weight f4 [64, 128]
00000000: a7dd a5bc 3301 56bd 9c46 edbd d77a 293d
00000010: 0742 e23c 7263 7fbd 840b 02be e2ac 123c
00000020: 9c2b 393d 3582 d33c c1c5 0dbe 1a42 5e3e
00000030: 869e 7fbb 103c 49be 8484 e0bc 7e02 0abc
00000040: 24eb 5fbc 9557 79be 4368 083d c0d1 9dbd
00000050: fa9a c23d ce92 8abd c940 0abe 5b4f 85bd
00000060: 0a34 5c3d 0564 8d3d 3a33 8d3d baaa 1ebd
00000070: 627f 74bd 8aa9 5b3e 03dd 23be 1235 f03c
00000080: b4c1 aa3e 4230 eabc 7910 523e fb10 87bd
00000090: fe94 4c3d dc46 9b3d 80e4 17be d84b a2bd
000000a0: 09c1 7a3d 048f a1bc 0060 cd3d 5f7d 54be
000000b0: 84b5 cb3d 7214 943d a1ef 13be 16de e53c
000000c0: ddb5 603c 5d04 43be 5b8b 9abd 9ef1 c2bd
000000d0: 704e 5dbd a48d c73b bf56 fd3d e17e 11bd
000000e0: a787 d13d 1e88 71be e98a 0abe 8fe6 0cbd
000000f0: d550 883c cfb9 f93c adf6 84be deee d0bd
00000100: 3617 eebd f42a 33be 8fd4 65bd a3e0 e43d
00000110: 8efb f63d c611 14be f3b2 0f3e e2fd d5bd
00000120: 20f5 873d 86d2 0cbe 705f 243c d01a 89be
00000130: bdd1 533d d5c6 1a3e cb6a ba3d d8c5 df3d
00000140: b1eb 253e dffb 20be 5b82 87bd c2a6 0dbe
00000150: c28f 22be 3383 0abd 515d 81bd 3cae 8c3e
00000160: 2c9d 233d 1189 f5bd 4707 673e 99da 233e
00000170: dfd1 a93c 823f 9d3e ce1f c9bd b729 97bd
00000180: 2a7a 3dbc 808c 3bbd f0c5 973d 8795 acbd
00000190: ce4f 393e c1fe 23be a2dd f0bd 6f4d e3bd
000001a0: 9c7e 2f3e 0741 1cbe d708 613d 7fec 553e
000001b0: 0955 68bd 7189 0e3e 7b02 ec3c 504b 073e
000001c0: 9a86 aa3d 8c37 2f3e c142 363e 3d44 b83d
000001d0: a4bf 20be 66c9 23bd 1993 a43e 89fe 02be
000001e0: b677 ccbd 1402 25be 1cde b8bc 2084 fc3c
000001f0: 333b 113e c83d 14bd 298b 71b9 487f 56bb
00000200: c901 00be 9d69 ac3d f0e8 43be 2d4b d4bd
00000210: 47b1 b73c 6334 243c 2837 95bd 7498 8c3d
00000220: 8acb 12be 4864 613d e0b7 a83b a073 d63d
00000230: 441f dfbc a0c9 753d 526b 1f3e e8ff 91bd
00000240: fe96 b4bd e5e7 8abd 410d 923c 00a7 e33c
00000250: 71c9 2fbe ab7c 0c3e 2711 5f3d cc11 b83d
00000260: dd89 ac3c ebaf f7bd 6c02 80bc f87c f1bd
00000270: 693e f1bd 7891 913d 6955 bfbc c039 6a3e
00000280: f3f2 e7bd 528d 083e bcdb 283d 3432 d33c
00000290: 4eba 993d 4ab8 d6bd 3c2d 2e3d a555 51be
000002a0: 6ff9 8d3e 5dc8 953e 2ce2 d73d 3a86 f6bd
000002b0: 0d02 acbd 26b8 98bb fcdf 3c3e e824 0abe
000002c0: ae73 b5bd c94f 99bd be85 50bd 3eb9 3e3d
000002d0: ed75 293e c7e8 0ebe f646 31bd 29cf 1f3e
000002e0: c9dc 1ebc 5216 45be 5f60 05be fd34 d83d
000002f0: 5df3 2dbe 8cf2 fa3d 740a 773c e629 fcbd
00000300: 8366 f6bc e39b 13be d71c 983d 324b 4fbd
00000310: fe3a a33a 0983 0bbc e560 953d 0306 3ebe
00000320: 17b7 873b a53e 6c3e c542 043e 159c 08bd
00000330: 195b 053d b3a5 bd3c b7bc 83bd 5a68 15be
00000340: 0f6e 5abe dda0 35bd 29b3 e23c 2679 d23d
00000350: 61bf 17be bedf 913d d8ec 083e 3c33 54bd
00000360: 04f7 f5bd 52c3 98bc 2ac0 2e3d 45ba ff3d
00000370: af0a 39bb b880 acbd ade8 7cbd bbcc 8cbd
00000380: 9f03 a0bc 9a84 ffbd e83c 1f3d de80 0cbe
00000390: 51a3 d1bd 6696 93bd 3f7d 153e 7f63 eb3c
000003a0: f145 bcbd 6c59 d83d a47e 10be 4a6f 6b3d
000003b0: e981 05be 6c2f 80ba 8d32 0f3e 4b81 ae3d
000003c0: 4750 2c3d 04a1 2a3d 489f 733d 5656 fabc
000003d0: 63c9 60bd 9a85 89bd e67c ea3c cc48 d63c
000003e0: 90cc 623d 26b2 343d 4fdf 503a 47c6 d9bb
000003f0: 06e6 b83d db7e 7a3d 79e2 71bd f83d 9d3e
-0.020247294 -0.052247237 -0.11585733 0.041376915 0.027619375 -0.062350698 -0.12699705 0.008952351
0.045207605 0.025818923 -0.13844968 0.21704903 -0.00390044 -0.19651818 -0.027406938 -0.008423446
-0.013666902 -0.24349816 0.033302557 -0.07706022 0.09502216 -0.06766282 -0.13501276 -0.065092765
0.053760566 0.06903843 0.06894536 -0.038737036 -0.059691794 0.21451393 -0.16002278 0.02932218
0.3335091 -0.028587464 0.20514096 -0.06595036 0.049946778 0.07581875 -0.1483326 -0.07924622
0.06121925 -0.019721515 0.10028076 -0.2075095 0.09946731 0.07230462 -0.1444688 0.02806
0.013715235 -0.19044633 -0.07546111 -0.09518741 -0.054029882 0.006089883 0.12370061 -0.03552139
0.10230952 -0.23587081 -0.13529553 -0.034399565 0.016640106 0.030484108 -0.2596945 -0.1020181
-0.11625521 -0.17496854 -0.056110915 0.111756586 0.12059699 -0.14459905 0.14033107 -0.10448815
0.06638551 -0.13752183 0.01003252 -0.2677827 0.051713694 0.15114911 0.091024004 0.109264076
0.1620319 -0.15721081 -0.0661666 -0.13833144 -0.15875152 -0.033816528 -0.06316627 0.2747668
0.039944813 -0.11989034 0.2256137 0.16001357 0.020729957 0.30712515 -0.098205194 -0.07381003
-0.011564771 -0.045788288 0.074108005 -0.084269576 0.1809685 -0.1601515 -0.11761023 -0.11098754
0.17138141 -0.15259181 0.05494007 0.20890997 -0.05672172 0.13919617 0.028809777 0.13212323
0.083264545 0.17111033 0.17798902 0.089973904 -0.15698105 -0.03998699 0.32143477 -0.1279241
-0.099837705 -0.16114074 -0.022566848 0.03082472 0.14182739 -0.03619173 -0.00023035392 -0.0032729674
-0.12500681 0.08418582 -0.19131827 -0.10365901 0.0224234 0.010022256 -0.07285911 0.068650156
-0.14335456 0.055027276 0.0051488727 0.104712725 -0.027236588 0.060006738 0.15568283 -0.07128888
-0.08817862 -0.067825116 0.017828586 0.027789593 -0.17166688 0.13719432 0.054459717 0.089877695
0.021061832 -0.120941006 -0.015626155 -0.11791414 -0.11779482 0.07107824 -0.023356156 0.22873592
-0.11325636 0.1333516 0.04122518 0.025780775 0.07506238 -0.10484369 0.042523608 -0.20442827
0.27729365 0.29254428 0.10541186 -0.120373204 -0.08398829 -0.004660624 0.18444818 -0.13490641
-0.08859955 -0.07485921 -0.050908796 0.04656338 0.16548891 -0.13955985 -0.043280564 0.15606369
-0.009696194 -0.19246796 -0.13025044 0.10556982 -0.16987367 0.122532934 0.015078176 -0.12312679
-0.030078178 -0.14414935 0.07427376 -0.05060882 0.0012453494 -0.008515128 0.07293872 -0.18556981
0.004141699 0.23070772 0.12916096 -0.033351976 0.03255758 0.0231503 -0.06432479 -0.14590588
-0.21331047 -0.044342864 0.02767332 0.102770135 -0.14819099 0.071227536 0.13371599 -0.051806673
-0.12010005 -0.018647823 0.04266373 0.124867 -0.0028235128 -0.08422989 -0.061745334 -0.06874987
-0.019532977 -0.124764636 0.038876444 -0.13721034 -0.10236228 -0.072064206 0.14598559 0.028733967
-0.09193028 0.10563931 -0.1411081 0.05747918 -0.13037838 -0.0009779758 0.13984127 0.085207544
0.042068746 0.041657463 0.059478074 -0.030558746 -0.054879557 -0.067149356 0.02862401 0.02615776
0.055370867 0.044115208 0.0007967846 -0.006645951 0.090282485 0.061156135 -0.05905387 0.3071134

ablang_branch.7.bias f4 [64]
00000000: 3728 f9bb 94ef 82bc 0883 42bc d1c7 2c3c
00000010: e355 1dbc 1b1a 3f3c e3c3 96bc ee5b 92bc
00000020: 4e28 80bc c1f2 91bc 7d1a 15bd d248 a33b
00000030: 9c8b 03bd 1d30 babc 8d2c 113c 6617 d5bc
00000040: 6749 8bbc fbbc 763c 4324 f2bc 70b5 12bc
00000050: c7b3 bcbc 8c36 29bc c3ea 7bbc 4db4 603c
00000060: 223e 18bc 0972 89bb 394e b7bb ade0 a53c
00000070: 4d58 0abc 9359 fa3c e2ce 5d3c 8568 02bd
00000080: e641 61bb 7700 1ebb 2fd5 8dbb c453 a7bc
00000090: 9b98 c4ba 02db 89bb 6d64 32bc 0969 2b3c
000000a0: 199f bfbb 2a16 843b b32b 1abc 0c26 083d
000000b0: 8b0e f63b 8e00 3b3b d527 05bc 061a 96bc
000000c0: 2958 523c 4461 8bbb 965c 52bd 8d35 39bc
000000d0: 636f ecbc fe51 37bc ea0f a4b9 22c3 343c
000000e0: 0bbe 973c 5242 f4bc 6a0d e6bb ca32 133b
000000f0: ec83 7a3c 5333 5b3c b92e 943b 13f8 83bc
-0.007603671 -0.01598338 -0.011872061 0.010545687 -0.0096029965 0.011663939 -0.018403953 -0.017866101
-0.015644219 -0.01781595 -0.036402214 0.004983046 -0.032115564 -0.02272802 0.008860719 -0.026012134
-0.017002774 0.015059705 -0.029558307 -0.008954391 -0.023034943 -0.010327946 -0.015375796 0.013714862
-0.009292157 -0.0041945023 -0.0055940417 0.020248735 -0.008443904 0.03056029 0.013538094 -0.03183796
-0.0034371554 -0.0024109164 -0.004328392 -0.020425685 -0.0014999093 -0.004207016 -0.010888201 0.010462054
-0.0058478233 0.0040309625 -0.009409833 0.03323941 0.007509058 0.0028534266 -0.0081271725 -0.018322956
0.012838402 -0.0042535383 -0.051357828 -0.011304271 -0.028861707 -0.011188982 -0.00031292374 0.011032851
0.018523237 -0.02981678 -0.007020642 0.0022460693 0.015290242 0.013378936 0.0045221713 -0.016109502
