data/model_weights/cv_fold_1_model4_2.pt (torch, 707477 bytes, 29 tensors)

ablang_branch.0.weight f4 [256, 480]
00000000: 17d0 1fbd da40 62bd e928 ad3d 3deb 8a3d
00000010: fc58 06bd 14b0 76bc 734b e9bc 747f 8b3d
00000020: b106 513c 71f6 363c e2d2 203d d1de 41bd
00000030: 347e c9bd 1b59 cbbc 84c2 ee3c 73f6 6c3d
00000040: c999 aabb 66da e23d b5e5 a8bc b3d4 8ebd
00000050: e2bc 883c b301 af3d 0461 b83c 1fcb 8abd
00000060: e821 d63c 97b8 4ebd 5633 7b3d ba72 313d
00000070: 5635 6bbd 7caa 9bbd 8078 f4bd 0935 9e3d
00000080: 2f5c 0a3d 2996 44bd ffd6 0abd fac6 83bd
00000090: 5db6 43bd e860 033d fcd6 3fbd 28c8 46bd
000000a0: 6029 eb3d 1875 debc 6d18 333c 57fe 613c
000000b0: db29 cabd 0012 b5bc 81a7 2cbd 690d 2e3c
000000c0: 73ae 643d 054e 4abd 2f71 733d ff2e 0f3c
000000d0: 4112 74bc 7c94 52bd 0544 433c 9824 b6bd
000000e0: d09c 0cbc 0e89 afbc 54c7 1c3c 7c53 84ba
000000f0: 850c 8bbd 1da8 453d f3a4 1e3e b2f9 523d
00000100: 1829 2cbd c27d 8f3d 409b c73d 3c04 b73d
00000110: 855b c2bd f2e8 e2bd 8a39 d63d 9fc9 803c
00000120: f2fe f9bc cf64 9ebc 9ce9 4ebd 8289 263d
00000130: 2b83 e53c 81be 7e3b 71cd aebd 985b 2039
00000140: 6d04 973d 7081 3f3c 1436 0fbd 9ce8 33bd
00000150: 7ae4 0fbd e3d7 e4bc 3de2 93bc 6590 5dbd
00000160: c0ce 9c3d ca5b c8bd 9d8b 8b3d 3f4e 0ebd
00000170: 7e42 f8ba b4dc 5b3c 9bb2 b23d fd5f a6bc
00000180: dbba 043e a88d 09bb a97e 44bd 48cc 8fbc
00000190: f5e1 b23c 6fdf 2d3d 8f4f 8b3d 8ed8 abbc
000001a0: a8a3 943b 0c61 5ebd 905a aabc 19a0 dd3d
000001b0: 4c2b d23d 1219 c7bc 27c7 0a3d 2933 483c
000001c0: 4e0e 0c3d afc2 773d 707b 12bc e240 b83c
000001d0: 7a5e ad3c 4518 3ebe fcc4 34bd bf98 4e3d
000001e0: d2d0 113c eccd cd3c b0eb 963c 1c16 01be
000001f0: a062 3a3d a4ec 86bd afcf cabb 3c51 183e
00000200: f67f 1cbd 839c 95bd 4d22 a23c 409b ccbd
00000210: 0719 19bb 50f8 b73a 6962 3d3d ea66 e43c
00000220: aba1 18bc 75f9 8b3d 1be6 883d 3daa e7bd
00000230: 5762 0abc 1716 0e3e e632 cbbd e49d 033d
00000240: be44 13bd 68bd 883d 595d d73c 8b71 89bc
00000250: a6b5 de3d f7d0 b53c fa0b 0cbd b27f 30bd
00000260: d4a7 b5bc f2b2 ad3c 0d9d 4abd 6cb0 483c
00000270: 4c13 b1bc 7ff6 c0bc 23d8 ba3b 746b 683c
00000280: 6de6 4b3d 0884 b4bd f6f7 84bd c64c de3d
00000290: 8a10 73bd 5b44 513d 61c0 a23d 2d94 5abc
000002a0: a921 28bd 2598 973d 939e d63d f4f0 d43d
000002b0: 24cf 293d 1888 bc3d 8909 b53d 7331 733e
000002c0: 2ccd c9bb 0c3c 1ab9 281c c4bd ad7f 0bbd
000002d0: 2524 fc3d 58fe 6abd a024 debd eb7b 67bd
000002e0: 29c6 04be dcdd e93c 09c8 6bbd f923 dd3c
000002f0: b662 38bd 287e 3fbd 2878 c6bd 5ccd d83d
00000300: e659 47ba 5998 8bbc e486 8e3d 14e5 263d
00000310: 4706 9f3b dd7e 35bd 2326 04be 8f6f 90bd
00000320: 23a3 11be 7335 65bd df93 09bd a776 24bd
00000330: a400 d4bd 3ee2 fe3d 2d3b 69bc 3df2 bf3d
00000340: e3e6 98bc 9e2c 253d f05f 0abd 22d1 b93b
00000350: 3f0b eabc bcb2 5d3d 915d 91bd 60f8 0cbd
00000360: 32b6 3b3d a197 b23c 9b6d bc3d f239 1abd
00000370: 5612 e0bb 2ffd 92bd 4684 50bd ae70 aa3c
00000380: 8a0a ddbd fa39 cdbd 0a14 81bd 7f9e fabd
00000390: 340b 513d e543 cfbd b3dd 8dbd fe73 e23c
000003a0: 158f 343d 48b2 303c 982e 0a3d f952 96bd
000003b0: f3a7 69bd d7fa 74bd bd24 943c 2d27 793d
000003c0: 91b5 72bd 4298 4d3d aa1f 97bd 3879 963c
000003d0: b857 2c3e 1949 8a3d 1ac1 c93d 1055 d33c
000003e0: ec28 c9bd bcd6 123d c635 62bd b82e 2b38
000003f0: 9c10 3ebd 3232 d0bc 146d 15be 599d 97bd
-0.03901681 -0.05523763 0.084550686 0.067831494 -0.032799706 -0.015056629 -0.02847836 0.06811419
0.012757943 0.011167155 0.039263614 -0.047331635 -0.098385245 -0.024822762 0.029145487 0.05785222
-0.005206321 0.110768124 -0.020617345 -0.06974163 0.016691629 0.08545246 0.022507198 -0.067770235
0.026139215 -0.050469007 0.061328255 0.043322302 -0.057423912 -0.07600877 -0.11937046 0.077249594
0.03377932 -0.047994766 -0.033896443 -0.06434436 -0.047781337 0.03207484 -0.046835884 -0.048530728
0.11482501 -0.027155444 0.0109311165 0.0137935495 -0.098712645 -0.02210331 -0.04215193 0.010623314
0.05583043 -0.04939081 0.059434112 0.008739232 -0.01489693 -0.051411137 0.011918073 -0.088936985
-0.008582309 -0.021427657 0.009569008 -0.0010095681 -0.06789497 0.04825603 0.1549261 0.05150766
-0.042031378 0.07006408 0.097464085 0.089363545 -0.09490112 -0.11079587 0.104601935 0.01572114
-0.030517075 -0.019335179 -0.050515756 0.04065848 0.028016647 0.0038870873 -0.085352786 0.0001529291
0.07373891 0.011688575 -0.034963682 -0.043923005 -0.03513 -0.027934974 -0.018052215 -0.054092783
0.07656622 -0.097831324 0.068137385 -0.03474259 -0.0018940715 0.013419319 0.087254725 -0.020309443
0.12961905 -0.0020988975 -0.047972355 -0.017553464 0.02183626 0.04244941 0.06802284 -0.020977285
0.004536111 -0.05429177 -0.020795137 0.10821552 0.102621645 -0.024303947 0.033881333 0.012219229
0.03419333 0.0604884 -0.008940563 0.022491876 0.021163214 -0.18563946 -0.04413317 0.05043864
0.008899884 0.025122605 0.018422931 -0.1260609 0.045504212 -0.06588104 -0.0061893086 0.14874738
-0.03820797 -0.07305243 0.019791747 -0.09990549 -0.0023360865 0.0014035795 0.04623643 0.027881104
-0.009315888 0.068346895 0.06684514 -0.11311767 -0.008446298 0.13875614 -0.099218175 0.032132998
-0.03595423 0.066767514 0.026289629 -0.016777774 0.108744904 0.022194369 -0.03419111 -0.04309053
-0.022174753 0.021203492 -0.04946618 0.0122490935 -0.021615647 -0.023555038 0.005702035 0.014185775
0.049780298 -0.088142455 -0.06492607 0.10854487 -0.059341945 0.05109058 0.079468496 -0.013340992
-0.041047726 0.07402066 0.104794644 0.10397521 0.04145731 0.09205645 0.08839709 0.23749332
-0.0061584916 -0.00014708954 -0.09575683 -0.034057308 0.123115815 -0.057371467 -0.108468294 -0.05651466
-0.12966217 0.028548174 -0.057563815 0.026994692 -0.045016013 -0.04675117 -0.09690887 0.10586044
-0.00076046435 -0.017040418 0.06959322 0.04074581 0.0048530432 -0.04431044 -0.12905173 -0.07052528
-0.14222388 -0.055959176 -0.033588286 -0.04015222 -0.10351685 0.12445496 -0.0142353 0.09372375
-0.018664783 0.040325753 -0.0337829 0.0056706825 -0.028569816 0.054125533 -0.070979245 -0.034416556
0.045828052 0.021800818 0.09200593 -0.037652917 -0.0068381233 -0.07177197 -0.050907396 0.020805683
-0.10793026 -0.10020824 -0.0630265 -0.12237262 0.051036075 -0.10120372 -0.069270514 0.0276432
0.044081766 0.010784693 0.03373584 -0.073400445 -0.057044934 -0.059809532 0.018083924 0.060828377
-0.059255186 0.050194032 -0.07379086 0.018368348 0.16830337 0.067522235 0.09851284 0.025797397
-0.09822258 0.035849318 -0.055227064 4.0813087e-05 -0.04640256 -0.02541456 -0.14592391 -0.074030586

ablang_branch.0.bias f4 [256]
00000000: 34c3 5e3a aaab d3b9 c1d5 88bb 18d8 943a
00000010: f90e b4ba 50fc 0e3b c5bc 9a3b abb0 87bb
00000020: ecd1 d9ba 5d4c 693b a08d 8ebb 1cdb 58bb
00000030: 346f 17bb 72c4 d5b9 8cb4 1c3a fcb5 69ba
00000040: 4e97 623b 67b4 933b c0af 16bb 0c40 25bb
00000050: 388f 12bb 2f41 8a39 3e1d aabb fee8 ff3a
00000060: 652d 563b a15e 443b 5208 98b9 3837 a83a
00000070: e166 833a b16b e8ba 884f 853a c522 3e3b
00000080: 6977 ecb9 7fac c1ba 6aec 5f3b 0859 6dbb
00000090: 1842 6a3b 1abc 873a 4e53 8bbb b0cd 9dba
000000a0: 07ce faba befe efb9 a015 6d37 b784 34bb
000000b0: 2b7f dfb9 1075 4ebb b76e 993a eb64 56bb
000000c0: 28ab bf3a b83e 673a 517f 173b 803d 1c3b
000000d0: 6ee6 3e3b 45ee 80bb c6ea 85bb 8b1d 233b
000000e0: 488b 4fba 11a4 91bb 0ecf 203b dbf5 843b
000000f0: c816 a2ba 68b1 fe38 9a51 10bb 34b0 acba
00000100: af0c b5ba 36ae 2f3b aee0 5fbb 0197 f33a
00000110: 049b 81bb 5840 53bb 876e 283b 6241 b4b9
00000120: fc61 b93a cac9 173b 8f19 743b f04c 013b
00000130: ab32 993b ec9f 24bb 16b7 313b 47e4 0fbb
00000140: a043 19b7 280b 1d3b 5d3d 8b3b c3cc 863b
00000150: a121 beba aaf7 713b ec7b 223b 6311 8fb9
00000160: ccbf 83bb f4f4 8e3b 4956 8ebb 452e a3bb
00000170: e3f7 0cba 4a30 0d3b 5f20 2d3b 8945 543b
00000180: 1878 00b9 05d6 3db9 7060 b5b8 4684 b4b9
00000190: a4be 353a 70d4 c638 ed19 85bb be9c 32ba
000001a0: 2381 67ba eb87 1fbb 2417 3d3a a3df 713b
000001b0: d1b5 0fbb 6f10 7abb e324 f9ba b9fc bdba
000001c0: 900a 4439 7b5a 4b3b 006c 62b9 7bde 8bbb
000001d0: d1dc 0d3b d4e3 aa39 6a21 45bb 6499 b1bb
000001e0: 6c64 a43a 4670 afbb 9204 c73a 90c6 683a
000001f0: d962 a7b9 75c7 7c3a e21f 71ba cd7e 6f3a
00000200: 170a 49bb cba2 efba fd43 0fbb 646c 54ba
00000210: c528 173b 8c8f be38 3463 043b a893 11bb
00000220: fab8 06bb 1a09 7a3b eed8 e5ba 28d0 acb9
00000230: 9e3e b63a 9c55 c83a d879 553b ad33 48bb
00000240: ea48 ffba 0a73 9fbb f346 b63a d630 0fbb
00000250: 8477 beba 2801 b5ba 7850 7f3b 95db 3a3b
00000260: fc62 923b 44c0 313a 2a87 253b 5330 7e3b
00000270: 3e86 113a fb9d 7dbb 521d 0abb ef85 dd39
00000280: fe4a 44bb f0b8 6438 6f70 c0ba 42c4 813b
00000290: bc4a 66bb 435a 06bb 1a13 163a 9823 843b
000002a0: 0f1a 48bb 14c7 29bb 0d9e 773b a079 8dbb
000002b0: 0879 c3ba a3a6 783a 765b 70bb 2655 bf3a
000002c0: 91dc d13a fdb7 40bb 6732 493a a68e 553a
000002d0: 06e0 073a bdeb 873b 3ac6 25bb c9cd 9d3b
000002e0: 2ce8 28bb 49b1 7e3b 3881 92ba 3279 db3a
000002f0: da2d 55bb b42f 53bb 91c3 af3a 723c 7c3a
00000300: fdcd beba c6e9 58bb 8044 f83a e776 1abb
00000310: 34d7 5e3b 08f2 e739 bcf5 c8ba 7f03 a2ba
00000320: 6a18 f9b8 ec08 fd3a 4ae8 e53a 124d 393a
00000330: 2ee5 6e3a 9d6d 8bbb 0174 86bb c063 993a
00000340: 70e8 a739 6527 343a 5d06 14bb aa16 5bba
00000350: d6ae 753b ea9f 103a fe0a 57b9 5b82 c3ba
00000360: a8cd f6b9 a632 253b 8002 12ba 60a5 0f3b
00000370: 487a 78bb f8db 3238 08a7 493b 0c4c 49bb
00000380: f86b b439 9073 4f3b 6c2e 8cbb 8ddf d33a
00000390: 5bfb 4bbb 676f 4f3b eab0 02ba ba9b 8e3b
000003a0: 7bd1 12bb a65a 16bb a8eb 14bb 0f26 69bb
000003b0: 93f3 e43a 26dd 04bb 7bb1 a23b 274c 82bb
000003c0: df96 8ebb 8a73 3d3a aa63 7bbb 82e5 24bb
000003d0: 5356 8039 74f9 19bb 4e2c c6b9 3c32 343b
000003e0: 63c7 283a 1b6e 0a3b 8b6a 0b3b 37c8 4cbb
000003f0: 0c06 6e3b 6053 96bb 51c2 99bb 8103 383b
0.00084977155 -0.00040372956 -0.004175872 0.0011355905 -0.0013737372 0.002181787 0.00472221 -0.0041409335
-0.0016618348 0.0035598495 -0.004350379 -0.0033089584 -0.0023107054 -0.0004077289 0.00059778313 -0.00089153624
0.0034575048 0.0045075896 -0.0022992939 -0.0025215177 -0.0022363197 0.00026369977 -0.005191474 0.0019524393
0.0032680866 0.002996363 -0.00028997898 0.0012833839 0.0010025167 -0.001773229 0.0010170797 0.0029012423
-0.00045102395 -0.0014776139 0.0034168013 -0.0036216397 0.0035744961 0.0010355741 -0.004251874 -0.0012039449
-0.0019134887 -0.0004577543 1.4131336e-05 -0.0027544925 -0.00042628622 -0.003150288 0.0011705969 -0.003271396
0.0014623152 0.00088212965 0.0023116658 0.0023840368 0.0029129046 -0.003934654 -0.004086825 0.0024889435
-0.0007917178 -0.004444607 0.0024537477 0.0040576286 -0.0012366408 0.00012144708 -0.0022021295 -0.0013175071
-0.0013812984 0.0026806719 -0.003416102 0.0018584431 -0.003955247 -0.0032234397 0.0025700645 -0.0003438099
0.0014143582 0.0023161047 0.003724668 0.0019729696 0.0046752295 -0.0025119735 0.0027117184 -0.0021956132
-9.135256e-06 0.0023962948 0.0042492584 0.004113765 -0.0014505872 0.00369213 0.0024793101 -0.0002728804
-0.0040206667 0.004362697 -0.004343782 -0.004979881 -0.0005377514 0.0021543675 0.0026417 0.003239008
-0.0001225177 -0.00018104173 -8.6487154e-05 -0.00034430827 0.000693301 9.480945e-05 -0.0040619285 -0.00068135175
-0.00088311936 -0.0024342488 0.0007213226 0.003690698 -0.002192844 -0.0038156768 -0.0019008185 -0.0014494873
0.00018695951 0.0031029272 -0.00021593273 -0.004268465 0.002164651 0.00032594672 -0.003007973 -0.005419897
0.0012542135 -0.00535396 0.0015183857 0.0008879686 -0.0003192637 0.00096427585 -0.00091981713 0.0009136021
-0.003067618 -0.0018282769 -0.0021860593 -0.00081033097 0.0023065072 9.086644e-05 0.0020200731 -0.0022213254
-0.0020557032 0.0038152398 -0.0017535964 -0.00032961485 0.001390416 0.0015284303 0.0032573845 -0.003054838
-0.0019476686 -0.0048660086 0.0013906643 -0.0021849177 -0.0014531468 -0.0013809549 0.0038957875 0.0028512229
0.0044673663 0.0006780664 0.0025257566 0.0038786128 0.00055513147 -0.00386989 -0.0021074605 0.00042252193
-0.0029951925 5.4531673e-05 -0.0014681945 0.0039601633 -0.003513976 -0.0020500578 0.0005724892 0.0040325634
-0.003053311 -0.0025906013 0.0037783415 -0.0043174773 -0.001491339 0.000948528 -0.0036675609 0.001459752
0.0016011168 -0.002940654 0.0007675052 0.00081465614 0.00051832234 0.0041479752 -0.0025295154 0.0048157913
-0.002577315 0.0038862994 -0.0011177426 0.0016744493 -0.003252855 -0.0032224478 0.0013409724 0.0009622044
-0.0014557239 -0.0033098324 0.0018941313 -0.0023569406 0.0034002783 0.0004424008 -0.0015332024 -0.0012360661
-0.00011877793 0.0019305027 0.0017540541 0.00070686743 0.000911313 -0.0042550103 -0.004103184 0.0011702701
0.00032025902 0.00068723253 -0.00225868 -0.0008357564 0.0037488244 0.0005516993 -0.00020508093 -0.0014916168
-0.00047074002 0.002520719 -0.00055698305 0.002191864 -0.0037914682 4.264337e-05 0.0030769724 -0.0030715493
0.00034412718 0.0031654574 -0.004277995 0.0016164646 -0.0031125161 0.0031652094 -0.00049854687 0.00435206
-0.0022402692 -0.0022942214 -0.002272347 -0.0035575663 0.001746761 -0.0020273416 0.004965005 -0.003976363
-0.0043514813 0.00072269945 -0.0038358965 -0.0025161211 0.0002447838 -0.0023494633 -0.00037798512 0.0027495762
0.00064384023 0.0021122757 0.0021273221 -0.0031247267 0.0036319522 -0.004587576 -0.004692354 0.002807826

ablang_branch.1.weight f4 [256]
00000000: 3145 803f 3ed0 7f3f 1bf2 7e3f 3a7e 7f3f
00000010: 438e 7f3f ba28 7f3f 8aa1 803f 340d 7f3f
00000020: d066 7f3f ed6a 803f edca 7f3f 2c92 803f
00000030: 78bc 7f3f fbc0 7f3f 7c6b 7f3f bccc 7f3f
00000040: 4db9 7f3f 08f9 7f3f ee5e 7f3f e4c8 7e3f
00000050: 3234 803f ab03 803f 377e 803f cd42 803f
00000060: 194d 803f 612f 803f 2800 7f3f e902 803f
00000070: 5467 803f d03f 803f f3b9 7e3f 6a18 803f
00000080: 311c 7f3f e392 7f3f 228e 803f 69db 7e3f
00000090: 1087 803f 573b 803f 7f6e 803f 1086 7f3f
000000a0: 8c34 803f 29dd 7f3f 7879 7f3f ee45 7f3f
000000b0: f180 803f c233 7f3f c957 7f3f cd60 803f
000000c0: ca47 803f 4625 803f 002b 803f cc56 803f
000000d0: 89fc 7e3f bb27 7f3f 5dc1 7e3f a039 7f3f
000000e0: 0d2b 803f ebe4 7e3f fb3e 803f dfe4 7f3f
000000f0: e2bb 7f3f a7a4 7f3f 171c 803f f002 803f
00000100: c477 803f 5ea8 7f3f c161 803f 35d6 7e3f
00000110: 253c 7f3f 9215 7f3f 1354 7f3f 170a 803f
00000120: 7430 803f fde2 7f3f f986 803f e9a2 803f
00000130: 457f 803f ce6e 7f3f d94a 7f3f de16 7f3f
00000140: 8bc0 7f3f 7c72 803f fe49 803f 9477 803f
00000150: 9f54 7f3f 6879 803f 0e37 803f 822c 803f
00000160: 9c19 803f 87ad 7e3f 4ff2 7e3f a421 803f
00000170: 73af 7f3f 5e30 803f dd2d 803f 5e58 803f
00000180: 39ef 7f3f 5369 7f3f 8efc 7f3f 7cce 7f3f
00000190: 9099 7f3f 1ed8 7f3f 5b96 7f3f a508 803f
000001a0: d70d 7f3f aa66 7f3f 257d 7f3f 1f01 803f
000001b0: 04be 7f3f 955c 7f3f db4c 7f3f 1116 803f
000001c0: b8ec 7f3f f117 7f3f 39ac 7f3f 7d87 7f3f
000001d0: bd49 7f3f cbeb 7f3f ac07 803f 02ae 803f
000001e0: 2192 7f3f bfb3 7e3f bb02 803f a8c4 7f3f
000001f0: 82da 7f3f 8b7c 803f 641c 803f 1b86 7f3f
00000200: 1053 803f e721 7f3f 8716 803f c115 7f3f
00000210: 0f55 803f 26ba 7f3f 2f46 7f3f d18b 7f3f
00000220: 73ee 7f3f d991 803f 2994 7f3f 9fdf 7f3f
00000230: 3933 803f 1135 803f 7e58 803f 603f 803f
00000240: 59aa 7f3f 0578 803f bf41 803f f625 7f3f
00000250: 1d5d 7f3f 5bc5 7f3f 7978 803f 326a 803f
00000260: f4a5 803f 0011 803f 694b 803f e783 803f
00000270: 700a 803f de2d 7f3f 32df 7e3f 2805 803f
00000280: 070f 7f3f a42c 7f3f d67c 7f3f f38a 803f
00000290: 1219 803f 4685 7f3f 7bb5 7f3f b88b 803f
000002a0: 2869 803f 7254 7f3f c038 7f3f a15a 7f3f
000002b0: 2501 803f a16c 7f3f 4f03 7f3f a96a 7f3f
000002c0: 027a 7f3f 644a 803f 65f2 7e3f 4139 803f
000002d0: 5913 803f a061 803f 8043 803f d8a3 803f
000002e0: 16c7 7f3f 15cf 7f3f bd37 803f 465b 7f3f
000002f0: 3cdf 7f3f 16e1 7e3f bcd7 7f3f 2ab8 7f3f
00000300: 6b4c 803f 5322 803f e9e5 7e3f d262 7f3f
00000310: 126e 803f bc16 7f3f 408c 7f3f 97e6 7e3f
00000320: 5934 803f 3ec4 7e3f ccf8 7e3f bea7 7f3f
00000330: 4667 7f3f 4edb 7e3f 2394 803f 243b 803f
00000340: 7dbe 7f3f a936 803f 5375 7f3f 92cc 7f3f
00000350: 0675 803f 0789 7f3f 8fc5 7f3f d08b 7f3f
00000360: 2519 803f 3e48 803f 9238 803f dc4e 7f3f
00000370: 0e78 803f 2f9e 803f eb27 7f3f 2a0c 803f
00000380: 6798 7f3f 6362 803f e646 803f 3370 7f3f
00000390: a134 7f3f bc18 7f3f 5806 803f 1c73 803f
000003a0: 8694 803f 4d73 7f3f 2335 803f 155f 803f
000003b0: 9f5b 803f 7618 7f3f 5a77 803f f169 7f3f
000003c0: cd2c 803f 5efa 7e3f dc76 803f 3236 7f3f
000003d0: a10a 803f 0644 803f 224e 803f c523 803f
000003e0: ba1d 803f bd71 7f3f 5a4b 803f ef0d 7f3f
000003f0: 641b 7f3f 3586 803f 48d4 7e3f d031 803f
1.0021116 0.9992713 0.99588174 0.9980198 0.9982645 0.9967152 1.0049298 0.9962952
0.99766254 1.0032631 0.99919015 1.0044608 0.99896955 0.9990384 0.99773383 0.99921775
0.9989212 0.99989367 0.99754226 0.99525285 1.0015929 1.0001119 1.0038518 1.0020386
1.0023528 1.0014459 0.99609613 1.0000888 1.0031533 1.0019474 0.99502486 1.000745
0.9965239 0.99833506 1.0043375 0.99553543 1.0041218 1.0018109 1.0033721 0.9981394
1.0016036 0.9994684 0.9979472 0.9971608 1.003935 0.9968835 0.99743325 1.0029541
1.0021908 1.0011375 1.0013123 1.0026488 0.9960409 0.9967 0.995138 0.99697304
1.0013138 0.9956805 1.001922 0.99958605 0.9989606 0.99860615 1.0008572 1.0000896
1.003655 0.9986628 1.0029832 0.99545604 0.9970115 0.9964229 0.9973766 1.0003079
1.0014787 0.9995573 1.004119 1.0049716 1.003884 0.9977845 0.99723583 0.9964427
0.9990317 1.0034938 1.0022581 1.0036492 0.99738497 1.003705 1.0016801 1.0013583
1.0007815 0.9948353 0.99588484 1.0010266 0.9987709 1.001476 1.0013996 1.0026968
0.999744 0.99770087 0.9999474 0.99924445 0.9984369 0.99939144 0.998388 1.0002638
0.9963049 0.9976603 0.9980033 1.0000342 0.99899316 0.99750644 0.9972665 1.0006734
0.9997058 0.99645907 0.99872166 0.99816114 0.9972189 0.99969167 1.0002341 1.0053103
0.9983235 0.9949302 1.0000833 0.9990945 0.9994279 1.0038007 1.0008664 0.99814004
1.0025349 0.99661106 1.0006875 0.9964257 1.0025958 0.99893415 0.99716467 0.9982272
0.9997322 1.0044509 0.9983545 0.99950594 1.0015632 1.0016195 1.0027006 1.001934
0.99869305 1.0036627 1.0020064 0.996673 0.99751455 0.99910516 1.0036765 1.0032408
1.0050645 1.0005188 1.0023013 1.0040253 1.0003185 0.9967936 0.9955932 1.0001574
0.99632305 0.9967749 0.9979986 1.0042404 1.0007651 0.99812734 0.9988629 1.0042639
1.0032091 0.9973823 0.9969597 0.99747664 1.0000349 0.9977513 0.99614424 0.99772125
0.99795544 1.0022702 0.99588615 1.0017473 1.0005904 1.0029793 1.0020599 1.0050001
0.99913156 0.9992536 1.001701 0.9974865 0.99950004 0.99562204 0.9993856 0.9989039
1.0023321 1.0010475 0.99569565 0.9976016 1.0033591 0.99644065 0.9982338 0.995706
1.0015975 0.9951819 0.99598384 0.9986533 0.9976696 0.9955338 1.0045208 1.0018048
0.9990004 1.0016681 0.997884 0.99921525 1.0035713 0.9981846 0.99910825 0.9982271
1.0007674 1.0022047 1.0017264 0.99729705 1.0036638 1.0048274 0.99670285 1.0003712
0.9984192 1.0030025 1.0021636 0.9978058 0.9968968 0.99647117 1.0001936 1.0035129
1.0045326 0.9978531 1.0016216 1.0029017 1.002796 0.996467 1.0036423 0.9977103
1.0013672 0.9960078 1.0036273 0.9969207 1.0003244 1.0020759 1.0023844 1.0010916
1.0009072 0.99782926 1.0022995 0.99630636 0.9965117 1.0040957 0.99542665 1.0015202

ablang_branch.1.bias f4 [256]
00000000: 3c92 af3a 461e 71b9 9228 85bb d874 8f3a
00000010: dad3 84ba bc89 153b 4fdd 993b 75d4 86bb
00000020: 7939 daba 54ae 6d3b d845 84bb a8dc 2fbb
00000030: aa2c 26bb d8c8 a2b8 0936 793a 0a5f 50ba
00000040: 119b 6d3b 19d0 963b b295 10bb d4ce 00bb
00000050: 0d95 e9ba 4b2c ab39 6f7e 99bb 397a fd3a
00000060: 5ea4 543b 4475 4c3b 2c47 4fb9 f48d e33a
00000070: 6c8f 593b 0a4f 08bb 064d 823a 14f5 453b
00000080: 5cb1 2bbb 2bf0 b4ba 1885 5d3b 6abf 65bb
00000090: f7f3 623b 7a00 b43a d7b4 85bb 7827 43b9
000000a0: ac62 f3ba 4873 f238 3ef7 023a 75b5 2ebb
000000b0: e49f 6db9 50b2 52bb 6ca9 43ba 61ea 49bb
000000c0: 28c7 cb3a 6451 423a 5af3 193b f7b9 1e3b
000000d0: e952 853b 08b2 67bb adf8 86bb 8655 193b
000000e0: d2c9 21ba a31c 8ebb 4ce2 1e3b c75f 883b
000000f0: 0627 67ba 13e4 a139 de17 abba 7988 acba
00000100: 8e00 a3ba 803e 313b 1633 58bb 395a 043b
00000110: 0067 78bb b0c5 47bb c8d2 3e3b 7ad4 b2b9
00000120: b447 cc3a a16f 3d3b b083 823b dd42 093b
00000130: 9303 993b 243e 2dbb 0f55 473b df65 0abb
00000140: 083c ba39 2acc 323b dee4 1d3b 0827 883b
00000150: 69cb c1ba 82a4 733b 5958 1c3b 08a5 e038
00000160: 9e4b 7bbb 93b6 923b 489a 80bb b7fe a1bb
00000170: 70f0 0bb8 fd2d 1f3b fa02 373b 840e 5d3b
00000180: e182 0939 907e 1a37 e8a6 8db8 6e1b 14bb
00000190: 591c 99ba c409 0f39 b433 88bb de41 cbb9
000001a0: 164d 25ba f80e 1abb b802 e23a 3b00 6d3b
000001b0: ed89 f7ba 65a8 68bb 46d2 01bb a157 9aba
000001c0: e073 fd38 2b7d 663b ddfb b2b9 bf95 89bb
000001d0: 30a1 1a3b 89d1 e339 211c 44bb 21c7 abbb
000001e0: 9ff9 e53a 0fec adbb 74b9 c73a 4fd5 7a3a
000001f0: 9f65 e5b9 3665 2d3a 7be3 6cba 8ea6 b43a
00000200: 3bfd 2ebb 5aa4 cfba 7aed 0bbb 5281 70ba
00000210: 5d71 233b f61e 2a3a 7770 253b 9fe3 08bb
00000220: bfc9 0ebb e608 853b 8650 d3ba ea82 00ba
00000230: 6cbb c23a 88d4 b23a dec8 653b e441 44bb
00000240: c09a e2ba 126c 83bb 3663 a03a 9693 04bb
00000250: 7e5c c6ba 9522 a6ba 2bc1 843b 0120 3d3b
00000260: 1e7d 973b 00f0 593a 66f5 273b aa54 813b
00000270: 1e17 823a 71f5 6cbb 765e 03bb 33e9 b239
00000280: e171 39bb d4b5 9939 d1b7 f2ba 7a0d 893b
00000290: b1b3 4dbb 45f3 faba b28b 423a 1583 873b
000002a0: 3868 3dbb 33d9 1ebb 5539 8a3b 622d 88bb
000002b0: 467e f7b9 6554 973a 357e 65bb 5188 eb3a
000002c0: 4f38 cb3a 5bf8 41bb 20c9 ab3a 6e9e 4d3a
000002d0: b38d 293a a8be 853b 68bd 1dbb 3644 933b
000002e0: f92f 12bb 876d 883b 042f 2fba e49d f83a
000002f0: 8689 42bb 52ca 58bb f41f 803a bda7 153a
00000300: 2088 8bba 2e97 46bb 0e16 0d3b d8d7 14bb
00000310: 6235 613b fadb 623a 0713 c0ba 1a9e f5b9
00000320: 6021 093a b3a1 103b 0432 ba3a edd1 a93a
00000330: b2f9 ba3a 8d2c 8abb 6a64 80bb 0d6c f23a
00000340: 01d2 2e3a d6df 453a 5999 0bbb d4e7 2cba
00000350: 7718 763b 50fd e83a a0e1 a439 bad0 e1ba
00000360: 4684 01ba f141 243b e735 e939 930c 393b
00000370: f432 71bb 94fe 1bb9 b317 4b3b 0e74 4fbb
00000380: 7820 f439 4849 573b a10f 8ebb 1697 083b
00000390: 8afa 46bb 0d42 6a3b 6a1d a2b9 d838 8c3b
000003a0: bddb 0bbb e042 0abb eca7 05bb 1bf6 4dbb
000003b0: 8a47 1a3b 6e41 f4ba 49d4 9c3b 63fd 7ebb
000003c0: bc88 89bb cdd6 6b3a 60e8 6fbb 1db1 f4ba
000003d0: 43e8 dd39 f49a 0dbb 84a9 e138 37ef 433b
000003e0: ee12 5d3a 3379 1f3b 0c65 d33a 8cab 49bb
000003f0: 9f92 913b 0279 9bbb 9d80 97bb 7b67 2a3b
0.0013395022 -0.00022994829 -0.0040636742 0.0010944856 -0.0010133937 0.0022817692 0.0046955715 -0.0041146823
-0.0016649208 0.0036267238 -0.0040366463 -0.0026834402 -0.0025356212 -7.762172e-05 0.0009506648 -0.0007948732
0.0036255757 0.004602444 -0.0022061882 -0.001965453 -0.001782091 0.00032648662 -0.0046842615 0.0019338793
0.0032446603 0.0031197825 -0.00019767572 0.0017361031 0.0033197058 -0.0020799064 0.0009941168 0.0030205892
-0.0026198244 -0.0013804486 0.0033801254 -0.0035056719 0.0034630278 0.0013733052 -0.0040803957 -0.00018611352
-0.0018568835 0.00011560932 0.00049959484 -0.002665845 -0.00022661645 -0.003214974 -0.00074639055 -0.0030809867
0.0015547024 0.0007412641 0.0023490996 0.002421973 0.0040687216 -0.0035353918 -0.004119 0.0023396923
-0.0006171736 -0.00433691 0.002424377 0.004161808 -0.00088177656 0.00030878242 -0.0013053378 -0.0013163231
-0.0012436078 0.002704531 -0.0032989434 0.0020195378 -0.003790319 -0.0030482821 0.0029117335 -0.00034109113
0.0015585334 0.0028905647 0.0039829835 0.0020944395 0.0046696155 -0.0026434744 0.003041569 -0.0021117849
0.0003552141 0.0027282336 0.0024092714 0.0041550435 -0.0014785352 0.0037176912 0.002385637 0.00010711892
-0.0038344632 0.004477331 -0.0039246418 -0.0049436945 -3.3364107e-05 0.0024288886 0.0027925358 0.0033730576
0.00013114094 9.208583e-06 -6.754493e-05 -0.0022599357 -0.0011681422 0.0001364118 -0.004156554 -0.00038768252
-0.0006305737 -0.0023507457 0.0017243242 0.0036163467 -0.001888571 -0.0035500762 -0.001980917 -0.0011775383
0.000120855635 0.003516982 -0.00034138458 -0.0041987593 0.002359461 0.0004345293 -0.0029923993 -0.005242244
0.0017545706 -0.0053076814 0.0015237764 0.00095685286 -0.00043753997 0.0006614508 -0.0009036583 0.0013782547
-0.002670123 -0.0015841827 -0.0021351264 -0.00091745437 0.0024939396 0.0006489599 0.0025244036 -0.0020887626
-0.002178773 0.0040598987 -0.001612202 -0.000490232 0.0014856881 0.0013643662 0.0035062353 -0.00299465
-0.0017288551 -0.0040106857 0.0012236598 -0.002022957 -0.0015133766 -0.0012675101 0.0040513477 0.0028858187
0.0046230694 0.0008313656 0.0025628447 0.0039468603 0.0009925102 -0.0036157037 -0.0020045317 0.00034124553
-0.0028296637 0.00029317907 -0.0018517916 0.0041825147 -0.0031387622 -0.0019145986 0.0007421329 0.0041354992
-0.002890123 -0.0024238348 0.0042182603 -0.0041558007 -0.00047205592 0.0011545537 -0.0035017852 0.0017969703
0.0015504452 -0.0029597494 0.0013106205 0.0007843737 0.0006467953 0.004081566 -0.0024069194 0.0044942154
-0.0022306426 0.0041634473 -0.0006682726 0.0018967954 -0.002968402 -0.0033079577 0.0009775148 0.0005708894
-0.0010645427 -0.0030302512 0.0021528038 -0.002271166 0.0034364094 0.0008653995 -0.0014654108 -0.00046847836
0.00052311085 0.0022069036 0.001420558 0.001295624 0.0014265089 -0.0042167366 -0.0039182203 0.0018495336
0.0006668866 0.0007548308 -0.002130112 -0.00065958244 0.0037551203 0.0017775688 0.0003144862 -0.0017228343
-0.000494067 0.0025063718 0.00044481384 0.0028236255 -0.0036804052 -0.0001487679 0.0030989468 -0.0031654867
0.00046563498 0.0032850076 -0.004335359 0.0020842007 -0.0030361735 0.0035744936 -0.00030920963 0.0042792372
-0.002134069 -0.002109699 -0.0020394279 -0.0031427208 0.0023541176 -0.0018635222 0.0047860486 -0.0038908354
-0.004197208 0.00089965464 -0.0036607012 -0.0018668507 0.00042325453 -0.0021607252 0.00010760411 0.0029897222
0.00084333017 0.0024333715 0.0016128137 -0.0030772416 0.0044425274 -0.00474465 -0.004623486 0.002600162

ablang_branch.4.weight f4 [128, 256]
00000000: 5d99 263e bb1b efbc 7eb5 32bd 7f6b d4bc
00000010: 1cea ee3d eced a5be ea6b 32bd bc46 74bd
00000020: 1156 223e 54e2 5cbd 29c7 86bc d6fa 253d
00000030: f426 81bd 99dd 143d f68f cd3c b880 233e
00000040: dc84 5b3c 17c9 febc 7fbd 31be 8096 eabd
00000050: e424 263d b769 013e 44d1 9dbd ad5e 513d
00000060: c9eb 90bb f040 6bbd 84f0 de3d af61 ee3d
00000070: fb7b ce3d 3659 be3d 96a4 993d 8876 6e3c
00000080: b0a6 393e a229 6fbb f21b c3bd 2e60 bcbd
00000090: 4c8b 613d 42b6 153e c6c3 44bd eac3 663e
000000a0: b9f2 f53c 40e5 5d3d 7666 ce3d dc03 9f3c
000000b0: 9c67 d7bd 2947 d9bc 1445 b1bd 24c5 58bd
000000c0: 5056 d53d db44 6abd a74b 8b3d dd57 a33d
000000d0: 1764 023e 73d2 b83d aee9 2dbe 5ba6 5c3c
000000e0: 5b21 b33d db57 f4bd de08 493d adf6 8cbd
000000f0: 3f06 4dbc a7e4 ff3c 8f78 273e 8d2d 33be
00000100: 0b5c 9e3d 0b33 573d 4348 523c 81f0 45be
00000110: 6560 0cbe f616 143e 6bc4 2a3e 4a15 a83d
00000120: d0f4 8a3d dc07 713e 5a21 043e 87dd 1b3e
00000130: 218b cf3d da20 9bbd 8fb6 0b3e e0cc 943c
00000140: a419 8a3d b710 97bd 3422 073e d23e 663d
00000150: 0dce 3e3b 0704 463d 3ca3 413c 783f 9cbd
00000160: c834 353d 0f7b c1bc 1b2b 5abd 489e 753d
00000170: 555c 003e ca49 9dbb b9f9 6dbd 7ed8 fabb
00000180: 1e7d da3d 0c77 9c3d 7347 5ebd 0f8f 843d
00000190: 7d75 0e3d a4a5 da3b ad1b 67bd 010a ed3c
000001a0: ef2a 2cbe 4c51 2f3d 1b66 8d3e d717 1b3d
000001b0: f17d 07bb 46a3 433d 16b8 8cbd 794e 8bbd
000001c0: 63ff fa3d 4773 ba3b 0854 853d 6598 79bd
000001d0: 57fc e33c 8f9b 08bd ac4b 753d 471e c43d
000001e0: af03 2bbd a021 1abd 18ba e3bd a5db b43d
000001f0: b62e de3d ec6e 02bd 3446 b0bd fef9 253b
00000200: e3e9 84bc d4d0 dd3d 9939 19be 0dcd 493c
00000210: 3315 f7bd 0f2c 3abe f10a 06be 0fd6 d7bc
00000220: 8862 adbe ca87 453d 35b9 dabd 3d9a ea3c
00000230: 14d2 4d3d 6928 bcbd 557c 7b3d 96a0 4c3c
00000240: a57f 18ba 9bf9 78bd e99f 7bbd b5cd 5e3e
00000250: de7e 2c3d d85f b63b 9764 ed3d 9fdf 273a
00000260: 6b7f 923d 9173 16bc dd53 883e 4f5f 0fbd
00000270: d056 97bd 1279 ea3d 09fb 8c3d 4592 4e3c
00000280: 9a77 07be f64f 2c3c 04f1 253b a435 803d
00000290: c37f 9cbc c022 8b3d 60c0 0e3d 51e2 e43d
000002a0: 2bcf aa3d 956c 823d 1f0d dc3b c381 dfbd
000002b0: 927b 83bd 9742 703d 169b 753a 53c9 8e3c
000002c0: c630 0dbd 8938 27be f6d0 0cbd 4ca4 26be
000002d0: 6e05 12bd 1ccc 1dbd 35b3 cc3d c35a 093b
000002e0: f2f3 82bd 9615 70bd 2c27 6ebd 508c 763d
000002f0: 855f 463d 462e 6cbd d5d1 283c 8c5a 3abd
00000300: 6525 7d3d 8c5b 063e dd24 5f3d fd92 29be
00000310: b3bd a03d fead 383d 6a13 bd3d e304 01ba
00000320: ef6f dabd f3cd abbc c840 983d 3f30 3abd
00000330: ad84 ce3d 6c54 8e3c c56f 643b ad73 943c
00000340: 5f7f 7d3c 8ddf 833e 80be 3cbd 1cd7 e0bd
00000350: bd1c 62bc bc70 263c 0661 583d 0224 8c3c
00000360: 5806 abbd 61d1 b8bd 9cab 433d 9052 b13c
00000370: aecd 443c 9cf9 73bd 9dc4 56be 140d 7c3d
00000380: 4e19 08be f4c5 ad3d 743a a0bb 898d 723c
00000390: 65ab 383d 1620 f1bb cacb 2a3b 7397 173d
000003a0: aba0 98bc c0c9 9f3c 0108 323c afb3 023d
000003b0: 497f a1bd d919 0cbd 4819 993e 1c71 59bd
000003c0: 18c9 2e3d d71a 0a3c a850 1f3d ecd7 c1bd
000003d0: 5f2b 85bd 379d b73d 2c5c 10be bd23 973d
000003e0: 62fb fbbd d363 113e 49eb 623d da0f 47bd
000003f0: 7edc c33d 9dea d0ba b283 90bd 1083 4abd
0.16269441 -0.029188028 -0.043630116 -0.025930164 0.116657466 -0.32408082 -0.043559946 -0.05963777
0.15853144 -0.05392678 -0.016452389 0.04052242 -0.06306258 0.036344144 0.02509306 0.15967071
0.013398375 -0.031101746 -0.17357443 -0.11454487 0.040562525 0.12637983 -0.0770593 0.05111568
-0.004422639 -0.057434976 0.108857185 0.116397254 0.10082241 0.092943594 0.075020954 0.014554627
0.18129992 -0.003649332 -0.095268145 -0.09198032 0.055064484 0.14620307 -0.048038267 0.22535673
0.030022966 0.054173708 0.100781366 0.01941102 -0.10517809 -0.02652319 -0.08655754 -0.052922383
0.104168534 -0.057194572 0.06801539 0.07975743 0.12733494 0.09024515 -0.16983673 0.013467397
0.087465964 -0.119308196 0.049080722 -0.06882987 -0.012513696 0.03123696 0.16354583 -0.17497845
0.077323996 0.052538913 0.012834611 -0.19330026 -0.13708647 0.14461884 0.1667649 0.082071856
0.067849755 0.23538154 0.12903348 0.15221225 0.101339586 -0.07574625 0.1364386 0.018164098
0.06743172 -0.07376235 0.13196641 0.056212254 0.0029114515 0.048343685 0.011818703 -0.07629293
0.04423979 -0.02361825 -0.053263765 0.059965402 0.12535222 -0.004800056 -0.058099482 -0.0076552024
0.106683955 0.07639894 -0.054267358 0.06472599 0.034780014 0.006672578 -0.056422878 0.028935434
-0.16813253 0.04280214 0.27616963 0.037864532 -0.0020674432 0.04776313 -0.06871049 -0.06802077
0.122557424 0.0056900117 0.06510168 -0.06093635 0.027830286 -0.033351477 0.05988662 0.095760874
-0.04175156 -0.037629724 -0.11119479 0.08830956 0.10848753 -0.031844065 -0.0860714 0.002532601
-0.016224807 0.108308464 -0.14963378 0.012316954 -0.1206459 -0.1818087 -0.13090111 -0.026347188
-0.33864236 0.0482252 -0.10679857 0.028638 0.050249174 -0.09187395 0.06139787 0.012489459
-0.00058173604 -0.060784917 -0.0614318 0.21758159 0.042113177 0.0055656247 0.115914516 0.00064038666
0.07153209 -0.009182827 0.26626483 -0.035003003 -0.07389605 0.114488736 0.06883819 0.012608116
-0.13229218 0.010517111 0.0025320658 0.06260231 -0.01910389 0.067937374 0.03485143 0.11175979
0.083402954 0.06368367 0.0067154313 -0.10913422 -0.064200535 0.058657255 0.0009369118 0.017429983
-0.034470342 -0.1633016 -0.03437897 -0.16273612 -0.03564971 -0.038524732 0.099951185 0.002095864
-0.06394185 -0.058614336 -0.058142826 0.060192406 0.04843094 -0.057661317 0.010303934 -0.04549651
0.06180324 0.1312086 0.054478515 -0.16559978 0.07848682 0.045087807 0.092322186 -0.00049216877
-0.10665881 -0.020972228 0.07434231 -0.045456167 0.100839 0.01737424 0.003485666 0.018121565
0.015472262 0.25756493 -0.046080112 -0.10978529 -0.013800797 0.010158714 0.052826904 0.017107014
-0.08350819 -0.09024311 0.04777108 0.021645814 0.0120119285 -0.059564218 -0.2097344 0.06153591
-0.13290903 0.08485022 -0.0048897807 0.014804252 0.04508533 -0.0073585613 0.002606141 0.037009668
-0.0186313 0.019505382 0.010866166 0.03190964 -0.07885606 -0.034204338 0.299021 -0.053086385
0.042672247 0.008429251 0.03889528 -0.09465012 -0.06502413 0.08965533 -0.14097661 0.073798634
-0.12303807 0.14198236 0.055400167 -0.0485991 0.0956354 -0.0015939061 -0.07056369 -0.049441397

ablang_branch.4.bias f4 [128]
00000000: 63f9 8a3b 4173 503b 799f 4c3b f14b 5dbb
00000010: 6052 8c3a 62d2 03ba eaf8 d73a 4cd6 14ba
00000020: ea1f 473b 9033 e3ba f4a5 b9b8 482d 89bb
00000030: f455 edb8 3a06 aa39 0cf3 403a 58d8 10bb
00000040: bac3 90bb b27e 723a dd33 c1ba ddd8 023b
00000050: 3974 d2ba 2715 f63a d7ab 023b 3ef3 823b
00000060: c276 5cba 1f46 2b3b 4001 e2b6 08a1 beba
00000070: 5c90 d2ba af3d 783b a39a b839 bb41 e0ba
00000080: 622b 403b 09b7 69bb 0409 773b 5edd 443b
00000090: f4ce 82bb e082 8fba ad24 64bb c667 98bb
000000a0: d6b0 9fbb 066a 76ba 8054 be36 e2a6 5eba
000000b0: 603d 8bba 53cd 5abb de4c e1ba 523d 1d3a
000000c0: f806 05bb 298e 81bb f457 44bb 730f 05bb
000000d0: 9e6f 233a 3f74 c83a d4de 383b ddfc 5cbb
000000e0: 4ba0 19ba ca76 1ebb 8726 ef3a 2361 92bb
000000f0: 598c 07ba 6dc0 97bb aee7 cfba 6e17 5fbb
00000100: 52aa 0a3a 8a1d cc38 ea37 9d3a de6b b33a
00000110: 3082 09bb 28c7 2d3b a117 0d3b 8537 e9ba
00000120: ee41 cbba 2448 193b 49ce de3a 925a e0ba
00000130: 72e1 bbba cb3f 81bb 5ced 72ba aac1 7eba
00000140: d279 a13a 7ec5 983b 8d09 cfba 8a9e a63a
00000150: 6b5c 293a f46c 4cbb cb7f 64bb df9e ae3a
00000160: be27 3d3b 6a8e 943b 9421 d4ba de62 83bb
00000170: 05cd 8eba 895e 09bb 2606 8539 8082 4ebb
00000180: d8a7 0b3b 4c5a 92ba cf4e 8dbb cfc4 1a3b
00000190: 3fc9 d039 8841 21bb 7a42 8a3b e6df 803b
000001a0: 50e1 7937 4bee 16bb 61e9 213b e5b4 2a3b
000001b0: 99af 333b 7bda d7b9 96bb 9eba a210 423b
000001c0: dea8 62bb ae9c 8d39 883c a53b 3c83 46bb
000001d0: 8203 87ba 3890 2f3a 4bc8 643b 9dac f53a
000001e0: f6c8 53bb 031e 8d3b b6c5 343b 6353 38bb
000001f0: dd91 2fbb 4440 653a 3624 6dbb c0b0 133b
0.004241155 0.0031806978 0.0031222983 -0.0033767188 0.0010705702 -0.0005028603 0.001647738 -0.00056776847
0.0030384012 -0.0017334092 -8.8523986e-05 -0.004186306 -0.00011317051 0.00032429566 0.00073604356 -0.0022101607
-0.0044178637 0.00092504465 -0.0014740188 0.0019965686 -0.0016056366 0.0018774614 0.001993885 0.003996282
-0.000841003 0.0026134325 -6.7354704e-06 -0.0014543841 -0.0016064751 0.0037878563 0.00035210428 -0.0017109433
0.0029322733 -0.0035662076 0.0037694583 0.0030039172 -0.003991956 -0.0010949038 -0.00348119 -0.0046510426
-0.0048733754 -0.0009399954 5.6722783e-06 -0.00084934954 -0.001062315 -0.0033386543 -0.0017189046 0.0005998212
-0.0020298343 -0.0039537144 -0.002995965 -0.0020303398 0.0006234589 0.0015293433 0.0028208988 -0.0033720054
-0.00058603723 -0.002417969 0.0018245735 -0.004467146 -0.0005170755 -0.0046310932 -0.0015861893 -0.0034041065
0.0005289662 9.73298e-05 0.0011994813 0.0013688763 -0.0020982139 0.0026516411 0.0021528977 -0.0017793035
-0.001550732 0.0023388946 0.0016998734 -0.0017116836 -0.0014334156 -0.0039443723 -0.00092669367 -0.0009718189
0.001231963 0.004662215 -0.0015795693 0.0012712043 0.000646061 -0.003119287 -0.003486621 0.0013322494
0.00288628 0.0045335786 -0.0016184323 -0.0040095886 -0.0010894841 -0.0020960888 0.00025372318 -0.003151089
0.002130976 -0.0011165827 -0.004312373 0.0023615842 0.00039822792 -0.002460571 0.0042193504 0.003932941
1.4894016e-05 -0.0023030217 0.0024705755 0.0026047763 0.0027417897 -0.00041170776 -0.0012110348 0.0029611965
-0.0034585516 0.0002701035 0.0050426163 -0.0030290624 -0.0010300728 0.00066972105 0.0034909423 0.0018743459
-0.0032315827 0.004306556 0.0027583665 -0.0028125874 -0.0026789822 0.0008745233 -0.0036184913 0.002253577

ablang_branch.5.weight f4 [128]
00000000: c175 803f 7eca 7f3f 285c 803f 7312 7f3f
00000010: 1041 7f3f 13dd 7f3f 149d 803f 4144 7f3f
00000020: 107a 803f 9a94 7f3f 8034 803f 5d85 7f3f
00000030: c071 7f3f bfc5 7f3f 8827 803f 0ffc 7f3f
00000040: 38f3 7e3f a8e4 7f3f 2169 7f3f be19 803f
00000050: fe8a 7f3f 0027 803f 7fd3 7f3f 6b64 803f
00000060: cff6 7f3f a201 803f b650 803f dd88 7f3f
00000070: 9c55 7f3f 107b 803f 1ff3 7f3f 766c 803f
00000080: 9831 803f 6322 7f3f 5c88 803f de35 803f
00000090: 423e 7f3f ad06 803f 9101 803f 9d90 7f3f
000000a0: cf79 803f b09e 7f3f ab71 803f 53cb 7f3f
000000b0: 5d6a 803f 7825 803f 84dd 7f3f 2219 803f
000000c0: f485 7f3f eb18 7f3f 1b81 7f3f 015e 7f3f
000000d0: 6c28 803f e4f8 7e3f 3351 803f 430a 803f
000000e0: f8f8 7f3f 4cb7 7f3f aea3 7f3f 0e18 7f3f
000000f0: c984 803f cdb9 7f3f 886a 7f3f 9043 7f3f
00000100: 5155 803f b54a 803f dd2e 803f 483d 803f
00000110: 4c13 7f3f b45d 803f f8ff 7f3f 1b51 803f
00000120: 53cb 7f3f 713f 803f 5f34 803f e230 7f3f
00000130: 703c 803f 6f32 7f3f 6932 803f 071e 7f3f
00000140: 6b54 803f 117c 803f 182f 803f f717 803f
00000150: 5498 803f 0c18 7f3f 1f43 7f3f ff2e 803f
00000160: c4e7 7f3f 7c70 803f ff77 803f 26ca 7f3f
00000170: ff01 803f 41bf 7f3f 3e71 803f 7904 7f3f
00000180: 213b 803f 9b22 803f b21f 7f3f 2005 803f
00000190: 9738 803f 8337 7f3f b3ab 803f 169c 803f
000001a0: eabc 7f3f c3c8 7e3f 1e6b 803f 8f4e 803f
000001b0: 3783 803f b805 803f d490 7f3f 4207 803f
000001c0: b571 7f3f 41ea 7f3f dec4 7e3f 30cc 7f3f
000001d0: 1d5d 803f e209 803f 8b5d 803f 9047 803f
000001e0: 7b78 803f 5c30 7f3f c45c 803f 0afa 7f3f
000001f0: f68d 7f3f 5a62 7f3f b235 7f3f 601d 803f
1.0035936 0.99918354 1.0028124 0.99637526 0.9970865 0.9994671 1.0047936 0.9971352
1.003725 0.99836123 1.0016022 0.9981287 0.99782944 0.9991111 1.0012064 0.99993986
0.9958987 0.99958277 0.9976979 1.0007856 0.9982146 1.0011902 0.9993209 1.0030645
0.99985975 1.0000498 1.0024631 0.9981821 0.99740005 1.0037556 0.9998035 1.00331
1.0015135 0.99661845 1.0041614 1.0016439 0.9970437 1.0002037 1.0000478 0.9983004
1.0037173 0.9985151 1.0034689 0.99919623 1.003246 1.0011435 0.9994738 1.000767
0.9981377 0.99647397 0.99806374 0.99752814 1.0012336 0.99598527 1.002478 1.0003132
0.9998927 0.99889064 0.9985913 0.9964608 1.0040523 0.99892884 0.9977193 0.9971247
1.0026037 1.0022799 1.0014302 1.0018702 0.9963882 1.0028596 0.9999995 1.0024751
0.99919623 1.0019361 1.0015982 0.99683964 1.0018444 0.9968633 1.0015384 0.99655193
1.0025762 1.0037862 1.0014372 1.0007313 1.0046487 0.9964607 0.99711794 1.0014342
0.9996302 1.0034328 1.003662 0.9991783 1.0000609 0.99901205 1.0034559 0.996162
1.0018045 1.0010561 0.9965774 1.0001564 1.001727 0.9969408 1.0052398 1.0047634
0.99897635 0.9952509 1.003269 1.0023974 1.0040044 1.0001745 0.99830365 1.0002215
0.9978288 0.9996682 0.99519145 0.9992094 1.0028416 1.0003016 1.0028547 1.0021839
1.0036768 0.99683166 1.002831 0.99990904 0.9982599 0.9975945 0.9969131 1.0008965

ablang_branch.5.bias f4 [128]
00000000: 2b8b 863b db66 663b 67d0 433b ae44 57bb
00000010: 8648 023b ec3d c9b9 b6d6 ee3a 401d 30b8
00000020: de83 3f3b 48af cdba f00f c7b8 18cf 8cbb
00000030: 699b 4939 e628 853b c5d9 833a 78e7 02bb
00000040: b0ba 93bb 21a3 8e3a 4baa b2ba 86e4 083b
00000050: e0fd d9ba 51ad 053b b939 143b 3952 843b
00000060: 6d59 52ba 57d9 303b 05d7 b739 d3b4 4eba
00000070: 5d74 9dba cbb0 833b 2e35 0f3a ede8 b2ba
00000080: d329 443b 926e 5fbb bc4d 733b a6c2 393b
00000090: 933e 8ebb 083e 8138 7110 70bb bc8a 99bb
000000a0: 7da0 90bb b47e 62ba 4935 b839 6ac8 b93a
000000b0: f7a1 8dba abaf 71bb f17c f3ba addd 4b3a
000000c0: 1722 f9ba 8d60 87bb 24c5 42bb 1966 f4ba
000000d0: c35a 843a b237 d63a d8ae 2d3b cbe9 2bbb
000000e0: a18d 10ba e0e0 1ebb 11d5 f33a 3fea 92bb
000000f0: 93fb de38 c7bc 98bb 9b16 9bba 3594 59bb
00000100: 7688 563a 3975 5c39 834b 993a 2b58 ba3a
00000110: f3bc 06bb a550 2d3b cfaf 0d3b 702f d6ba
00000120: e8be b2ba b185 2c3b 6ec7 e73a 4b5e d3ba
00000130: a899 beba effc 84bb cab8 46ba 22eb 54ba
00000140: 0e5c 9e3a 6eee 9c3b 605f d5ba dc1f aa3a
00000150: ab97 643a 3ed4 51bb bce7 63bb ff17 bb3a
00000160: d266 483b d3a3 933b 0460 a2ba 9adf 85bb
00000170: 8063 55ba a5d9 feba 7e88 9439 b4bf 46bb
00000180: 7129 1b3b e7a2 8aba 3019 91bb cb00 233b
00000190: af3d 7d3a a5b8 1fbb 3075 883b 3e91 7b3b
000001a0: 482a 47b8 b232 02bb 663d 313b b802 2a3b
000001b0: 611f 3b3b 08a9 7db9 ea74 88ba cda6 3a3b
000001c0: f624 5dbb 1f29 9639 bdb9 983b 9007 cdba
000001d0: 0669 7bba feb9 633a 0a81 5f3b 1de0 f23a
000001e0: f578 38bb a9b0 8c3b aa11 433b 230a 33bb
000001f0: e881 1fbb 126a c63a b6b5 75bb 7c6e 053b
0.0041059456 0.0035156521 0.0029878856 -0.0032847333 0.0019879653 -0.00038383843 0.0018221948 -4.198891e-05
0.0029222886 -0.0015692497 -9.492028e-05 -0.0042971484 0.00019226749 0.0040637134 0.0010059407 -0.0019974392
-0.004508339 0.0010882356 -0.0013631074 0.0020888164 -0.0016631447 0.0020397494 0.0022617413 0.004038122
-0.000802419 0.0026985013 0.00035064682 -0.0007885221 -0.0012012828 0.004018878 0.00054629415 -0.001364974
0.0029932156 -0.0034093005 0.003712519 0.002834478 -0.0043409555 6.1627536e-05 -0.0036630894 -0.004685728
-0.004413663 -0.0008640096 0.00035134915 0.0014174108 -0.0010805716 -0.0036878388 -0.0018576664 0.0007776868
-0.0019007352 -0.004131383 -0.0029719556 -0.001864615 0.001009785 0.0016343503 0.002650192 -0.002623188
-0.00055142684 -0.0024242923 0.0018602927 -0.0044834907 0.00010632644 -0.004661176 -0.0011832298 -0.003319991
0.00081837864 0.00021024504 0.0011695478 0.001421695 -0.00205594 0.0026445773 0.0021619683 -0.0016341042
-0.0013637217 0.0026324803 0.0017683336 -0.0016126124 -0.0014541643 -0.0040584723 -0.00075806363 -0.0008122196
0.0012081878 0.004789165 -0.0016279034 0.0012979466 0.000872011 -0.0032017375 -0.0034775576 0.0014274119
0.0030578864 0.0045056134 -0.0012388234 -0.0040854933 -0.0008140132 -0.0019443525 0.00028330454 -0.0030326666
0.0023675824 -0.0010577113 -0.0044280514 0.0024872299 0.00096603757 -0.0024371531 0.0041643605 0.0038386132
-4.7484675e-05 -0.0019866643 0.0027044653 0.0025941562 0.0028552639 -0.00024190929 -0.001041082 0.0028480769
-0.0033743954 0.00028640867 0.0046608136 -0.0015642513 -0.000959054 0.0008687078 0.0034104013 0.0018529926
-0.0028148268 0.0042935205 0.0029765167 -0.0027319274 -0.0024338905 0.0015137813 -0.0037492341 0.0020360043

ablang_branch.8.weight f4 [64, 128]
00000000: 4981 ca3d 11ff 643e 067c 06be c659 863c
00000010: 7da4 1ebe 534c 983e 5c1a af3d e63d 853c
00000020: b066 d23c 57c4 073c d300 463d c521 26bb
00000030: 5a03 c9bd 96fc cd3d b1e9 ad3d 6fab db3d
00000040: aa1c 09bd 2c44 e2bc b2f4 203d 7ba6 4a3d
00000050: 1a90 3a3e 43de 223e edd8 b73d 1b8a fe3b
00000060: 9bee 29bd 5a6c 4b3e c164 91bd 354f 013e
00000070: 522f 463e 35e8 483d 81b4 403e 3f77 9b3e
00000080: 270e ddbd 607b 483d f91f e13d 785b 713e
00000090: b269 bdbc 253f 863c bf7c 0dbe 0985 bdbd
000000a0: ec71 bd3d 6bfc 833d 00b8 0cbe 470d 9e3e
000000b0: 91fc 1c3e f557 8a3e 2e80 473e 7be9 dabd
000000c0: bff2 ee3d 8251 253d d132 173e ae91 01be
000000d0: 2b69 f1bd 1248 0f3e 41b5 573d 0178 5bbe
000000e0: cf15 c3bd 7e4d 863c a631 f73d 85a8 103e
000000f0: a2ad c53d d401 6a3d 1569 113c 93bf a13c
00000100: 46ee 543d 0e01 3b3d 38a7 06be b5af 16be
00000110: 690a 963d 9148 7d3c 9079 693c 99be e63d
00000120: eb0f 89bd 397e 333e 2459 3cbd d831 8cbd
00000130: 11ac 18be 4055 f0bd 9d60 fe3d 2684 ab3d
00000140: e768 323c 9cd6 d73d dda2 12be aeb9 d03d
00000150: 51a7 37be b488 883e efe2 af3d c10b 033e
00000160: 48c3 41be 9360 7a3e 6d88 d23c 65e3 6bbe
00000170: a4a8 e33c bd70 0c3d 315e 5cbe 8226 ecbd
00000180: 05c4 a6bd 5281 c23c 73b6 2bbd e1b9 7cbe
00000190: 4a9e d03d f0ee 77be 9e75 1bbe 0b08 c73c
000001a0: 3722 c4bd 8d8a 0abe 288d f73c f089 adbd
000001b0: a145 183d 0585 173e 63ce 213c 18be 4cbd
000001c0: 8b1c 07be 7a6c a13b cfd0 c2bd 9f55 2dbe
000001d0: 2c4c 7fbe e040 eb3d dc70 143d 060f 94bd
000001e0: 7180 183e 2b1f 04be ac40 393e f0b4 cd3d
000001f0: 6fe0 d93d a510 ffbd 0fee 163e 4d86 cd3d
00000200: b397 86bd f142 c53d 4635 4a3e 331e 86bd
00000210: dd11 9bbc 9868 273e bcb0 93bc 6337 41be
00000220: c28a 05bd 2390 07be 8e28 693c 6c07 143e
00000230: 6143 ce3d 854e 0bbd 69bf b73c 56dd cebc
00000240: f808 b93d 098e 86bc 80e1 ed3c 0c08 95bd
00000250: 12b1 113e 5f33 3dbe 816e 433e 7b2f 46be
00000260: e523 f53d 46a1 a23d 650d 1a3e cb4e 3abc
00000270: e393 e33d 2cfd 08be 586c 6cbd cefc 14be
00000280: fa50 bc3c d179 4c3d 5fb2 253d bb9b 25bd
00000290: 6521 25be 2e38 d8bd dec0 4a3e 3962 79be
000002a0: 4ffb cb3e d4ae 8d3d e040 c83c d9dc 91bd
000002b0: 22b8 78be 6254 503e f7be d63d dc76 013e
000002c0: 7d5f 833d 4dad c43d a0ec 1a3e f339 ff3d
000002d0: f6f7 09be 8fa2 353d d42e b4bc fd20 7dbd
000002e0: c1be 05be dea4 cabd 89d4 403e 5f69 883d
000002f0: 5401 403b 2766 ca3c 2180 a13e 3261 493d
00000300: 9ea0 223e 766b 173d e733 cc3d 7542 21be
00000310: e971 dcbc f068 e73c 540b d93c f520 773d
00000320: b24e 2d3d 7125 fcbd 987c 82bd 794a 2a3e
00000330: 9c43 bfba 622e cd3b ac8d e73d 1abd 403d
00000340: 982b 76bd 1da5 94bd fbfe 023d 3d4a 0abe
00000350: 6207 43bd 67ca 0e3d 359f 98bd 34e9 90bd
00000360: ce5d c0bd dec4 753e deb6 863c a627 6abd
00000370: b783 8ebe b775 ffbc 12a5 003e 7e97 b23d
00000380: a54a af3d a658 43be 9b17 c8bc e010 233d
00000390: 22c3 fabc 545c ad3d 0746 e2bd aa8e f2bd
000003a0: 79db 6cbd 3e03 483e 108a 913d 6eb1 4b3d
000003b0: 28e6 513e 0314 273e ff2d 993d 5ddb 1cbe
000003c0: 5637 f6bd 082d c1bd 6118 1f3d 9a27 b9bd
000003d0: df23 433e b5bc a23d 4c90 cebd f0e2 3fbe
000003e0: 781c 8bbe 6b4e 50bd 932b e63d c1c2 04bc
000003f0: 46e4 e23d b05a 13be 3e87 e5bd 08dc 08bd
0.098879404 0.22362925 -0.13133249 0.01640023 -0.15492435 0.2974573 0.085499495 0.016264867
0.02568373 0.008286557 0.04834063 -0.0025349718 -0.098150924 0.100579426 0.08491839 0.10726058
-0.0334746 -0.027620398 0.03929586 0.049475174 0.18219033 0.15905099 0.08976922 0.0077679283
-0.041487318 0.19865552 -0.070992954 0.12627871 0.19353989 0.049049575 0.18818857 0.30364415
-0.10793715 0.048945785 0.109924264 0.23570049 -0.023121689 0.016387532 -0.13817118 -0.0925389
0.092502445 0.06444629 -0.13742065 0.30869505 0.15330721 0.2702023 0.1948249 -0.10689064
0.11667394 0.040360935 0.14765479 -0.12653229 -0.11787637 0.13992336 0.05266309 -0.21432497
-0.09525644 0.016394373 0.120700166 0.14126785 0.096522585 0.05713065 0.008875151 0.01974467
0.051985048 0.045655303 -0.13149726 -0.14715464 0.07326204 0.015459196 0.014250174 0.11266822
-0.06692489 0.17528619 -0.04598345 -0.068454444 -0.14909388 -0.1173501 0.12420771 0.08374815
0.0108892685 0.1053898 -0.1431994 0.101916656 -0.1793492 0.26666796 0.08588206 0.12797453
-0.1892215 0.24450903 0.025699819 -0.23035963 0.027790375 0.034287203 -0.21520306 -0.11530782
-0.081428565 0.023743305 -0.041922044 -0.24680282 0.10186441 -0.24212241 -0.15181586 0.024295827
-0.095768385 -0.13529415 0.030218676 -0.08473575 0.03717578 0.14796837 0.009875867 -0.049985975
-0.13194482 0.0049262615 -0.09512483 -0.16927193 -0.24931401 0.11486983 0.036240444 -0.07229428
0.14892747 -0.12902515 0.18091077 0.10044277 0.106385104 -0.124543466 0.1473925 0.100353815
-0.06571903 0.09631909 0.19746885 -0.06548729 -0.018929416 0.16348493 -0.01802861 -0.18868785
-0.032603033 -0.13238578 0.01423086 0.14455956 0.10071445 -0.03401043 0.022430139 -0.025252026
0.09034914 -0.01642515 0.02903819 -0.072769254 0.14227703 -0.18476628 0.19085123 -0.1935405
0.11969737 0.07940917 0.15044172 -0.011371325 0.111121915 -0.13377827 -0.057720512 -0.14549562
0.022987831 0.04992086 0.04045331 -0.04043172 -0.1612602 -0.105575904 0.19800135 -0.24353875
0.3984017 0.069181114 0.024444997 -0.071222015 -0.24288991 0.2034469 0.104856424 0.12642998
0.06414697 0.09603367 0.15129328 0.12462225 -0.13473496 0.04434448 -0.021994986 -0.06179904
-0.13061048 -0.09894727 0.18831076 0.06660723 0.0029297667 0.024706913 0.31543067 0.04916496
0.15881583 0.036967717 0.09970837 -0.15748008 -0.026909785 0.02824828 0.02649466 0.060334165
0.042311378 -0.12311829 -0.063714206 0.16629972 -0.0014592293 0.006261633 0.11306319 0.04705534
-0.060100168 -0.07258055 0.03198145 -0.13504882 -0.047614463 0.034860995 -0.07452241 -0.0707573
-0.09392892 0.2400088 0.01644462 -0.057166718 -0.27834865 -0.03118406 0.1256297 0.08720301
0.08559159 -0.19076785 -0.024425318 0.039811015 -0.030610625 0.08464876 -0.11048513 -0.11843617
-0.057826493 0.19532487 0.071064115 0.049729757 0.20497954 0.16316228 0.07479476 -0.15318055
-0.12022273 -0.09432417 0.03884161 -0.090407565 0.19056652 0.07946149 -0.10086116 -0.18738914
-0.27170157 -0.050856035 0.1123878 -0.008103074 0.11078696 -0.14390063 -0.11207436 -0.033412963

ablang_branch.8.bias f4 [64]
00000000: 1d64 c839 aba1 b63a 1bc2 1bbb 1302 683a
00000010: 9fa4 0dbb 9312 84ba beca 263b ac9a 903a
00000020: f233 593a 62bc 7e39 3692 52bb 3e10 113b
00000030: c2e8 f239 6d05 30bb ce45 e2ba 5a7c 283b
00000040: 66e9 913b 9639 e6ba c205 343b e55d f93a
00000050: 323d 4c3a 4f8e 8d3a b2d1 6fba b9db 34bb
00000060: 2703 5fba baf0 2e3a a041 caba 160b 963b
00000070: bb9b 13bb 24a9 493a 42ba 7abb b16d a23a
00000080: 7091 53bb d5f3 92bb 793f 33bb a919 1a3a
00000090: 9b6b 6d3b 9ad0 4aba 0bb7 053b f6ef 4abb
000000a0: e175 553b b5ac 863b a2d0 07bb 30d6 003b
000000b0: 86b7 6cbb 2f74 8a3a fc8a 9cbb b3d8 33b9
000000c0: 187c 19bb ab6d 86bb 50cd 8d3a e29e 2aba
000000d0: e0eb b9ba 1202 a33b 0ec4 973a a6cc 0bbb
000000e0: f056 1bba 7ac4 3a3b 562b 06bb 2e7e f8ba
000000f0: 105f af39 8b51 df39 0852 12bb 290e 28ba
0.00038221563 0.0013933679 -0.002376682 0.0008850407 -0.0021613014 -0.0010076336 0.0025450434 0.0011032424
0.00082856335 0.00024293506 -0.0032130606 0.0022134925 0.00046331255 -0.0026858703 -0.0017263235 0.0025708885
0.004452872 -0.0017564769 0.0027469252 0.0019025175 0.0007791101 0.0010799858 -0.00091483735 -0.0027596785
-0.00085072446 0.00066734443 -0.0015430935 0.0045789583 -0.0022523243 0.00076927454 -0.003825799 0.001239231
-0.0032282732 -0.0044846334 -0.0027351065 0.00058784575 0.0036227468 -0.00077367725 0.0020403292 -0.0030965782
0.0032571482 0.0041099438 -0.002072372 0.0019658916 -0.003612013 0.001056319 -0.0047773104 -0.00017151497
-0.0023419913 -0.004102429 0.0010818634 -0.0006508661 -0.0014184676 0.004974612 0.0011578815 -0.0021331697
-0.00059257355 0.0028498457 -0.0020472608 -0.0018958503 0.00033449428 0.0004259463 -0.0022326726 -0.00064108014
