data/model_weights/cv_fold_1_model5_4.pt (torch, 685157 bytes, 23 tensors)

ablang_branch.0.weight f4 [256, 480]
0	0x3d823cb8	0.063592374
1	0xbd49fbf3	-0.049312543
2	0xbd7d58cb	-0.061852258
3	0xbd87c566	-0.06629448
4	0xbd82d30a	-0.06387909
5	0x3db4e253	0.088322304
6	0xbe01a823	-0.12661795
7	0xbd28a686	-0.041174434
8	0xbc8c55da	-0.017130781
9	0xbd3266cd	-0.04355507
10	0xbd1733d1	-0.03691465
11	0xbd87f0f0	-0.06637752
12	0x3d0ca456	0.03433641
13	0x3e26e73b	0.16299145
14	0xbdb8dc29	-0.09026367
15	0xbd0caddc	-0.034345493
16	0x3df36fd3	0.11886563
17	0x3d646e50	0.055769265
18	0x3d79e729	0.061011467
19	0xbb829499	-0.0039849994
20	0x3dba4a6a	0.090962246
21	0xbd012c99	-0.031536672
22	0x3b203450	0.0024445243
23	0xbd1db77d	-0.038505066
24	0x3cd9e3ab	0.026597818
25	0xbdc07c4b	-0.09398707
26	0x3de091e8	0.109653294
27	0xbd496ed1	-0.04917795
28	0x3d4e311e	0.05033981
29	0x3c3b8335	0.011444856
30	0xbd8d2dea	-0.06893523
31	0x3de7910e	0.11306964
32	0x3d867d5d	0.0656688
33	0xbc16c70c	-0.00920273
34	0xbdc703e8	-0.09717542
35	0xbe071047	-0.13189803
36	0xbccb69ef	-0.024830787
37	0xbd34d280	-0.04414606
38	0xbdcfb7eb	-0.101425014
39	0x3b321af6	0.0027176715
40	0x3c111500	0.008855104
41	0xba85689a	-0.0010178268
42	0xbda2ef9b	-0.07955857
43	0x3dbee512	0.093210354
44	0xbe17bf69	-0.14819111
45	0xbda64844	-0.08119252
46	0xbd2c803f	-0.042114493
47	0x3da11fed	0.078674175
48	0x3e179774	0.14803869
49	0x3d8fb438	0.07016796
50	0xbd6678d8	-0.05626759
51	0x3ccb46f5	0.024814108
52	0xbc3854f3	-0.011250722
53	0xbd4eecf7	-0.050518956
54	0xbd802930	-0.06257856
55	0x3dadf393	0.08493724
56	0xbd0545ed	-0.03253739
57	0x3d18dabc	0.037317976
58	0x3e0ee97b	0.13956253
59	0x3d090d34	0.033459857
60	0x3d80dbec	0.06291947
61	0x3d8e991c	0.06962797
62	0xbc37a00e	-0.011207594
63	0xbd4ffeef	-0.050780233
64	0x3d63d8f2	0.055626817
65	0x3d2b81a3	0.041871678
66	0x3dd6e765	0.10493354
67	0x3cb38d73	0.021918034
68	0xbd173a53	-0.036920857
69	0xbd55d0c7	-0.05220106
70	0x3cf18343	0.029481536
71	0x3d842b8c	0.064536184
72	0xbb34619e	-0.0027524005
73	0x3db41965	0.08793906
74	0xbd91bf11	-0.07116521
75	0x3d3d0429	0.046146546
76	0x3ccebfa3	0.025237864
77	0xbcc8879f	-0.024478732
78	0xbcba622f	-0.022751896
79	0xbde20a34	-0.11037102
80	0xbd90e149	-0.0707422
81	0xbd71ca65	-0.05903091
82	0xbdc84054	-0.097778946
83	0xbd5d2529	-0.053990517
84	0xbd7f33c0	-0.062305212
85	0xbd94f67d	-0.072735764
86	0xbab6682a	-0.0013916541
87	0xbe05307f	-0.13006781
88	0xbd0af098	-0.033920854
89	0x3c095170	0.008381233
90	0xbdcdbb14	-0.10045448
91	0xbd730a5b	-0.059336048
92	0xbd2ab97a	-0.04168079
93	0x3d5d2f17	0.053999986
94	0x3d65157f	0.055928703
95	0xbd5030fe	-0.050827973
96	0xbd9b9a6d	-0.07597814
97	0xbc022162	-0.007942529
98	0xbca3729a	-0.019952107
99	0x3e368a75	0.17826255
100	0x3d61716c	0.05503981
101	0x3d611c3d	0.05495857
102	0xbd001a96	-0.031275354
103	0x3e457b30	0.19285274
104	0x3de048ab	0.1095136
105	0xbc23e0cf	-0.010002329
106	0xbe066e31	-0.13127972
107	0x3e06d71f	0.13168
108	0xbb62d0a8	-0.0034609232
109	0xbe1a8c0e	-0.15092489
110	0xbd6d503e	-0.057937853
111	0x3d91f926	0.071275994
112	0x3cef4819	0.029209184
113	0x3d25f68a	0.04051832
114	0xbbf28ff4	-0.0074024145
115	0x3d42e1cb	0.047578614
116	0x3db3dc33	0.08782234
117	0xbd38d1d4	-0.045121983
118	0x3d8eb83a	0.06968732
119	0xbb164a72	-0.0022932556
120	0x3cb147f2	0.021640752
121	0xbd02749b	-0.031849485
122	0x3d7c442a	0.061588444
123	0xbc0bd7b3	-0.008535313
124	0x3d542c13	0.051799845
125	0xbcf32fe5	-0.029685924
126	0xbd27627a	-0.0408654
127	0xbd5960ac	-0.05307071
128	0xbc0bbbe0	-0.00852868
129	0x3dda877c	0.10670373
130	0xbd107bc6	-0.03527429
131	0xbcc3bc13	-0.023893392
132	0xbce83c6f	-0.02834913
133	0x3cf99dcd	0.030470753
134	0x3d9c40ef	0.076295726
135	0xbd9693fa	-0.07352443
136	0x3da8d0e4	0.08242968
137	0xbe387aca	-0.1801559
138	0x3c81379c	0.015773587
139	0xbc73a213	-0.0148701845
140	0xbd3e2bb9	-0.046428416
141	0x3ccd45b6	0.025057655
142	0x3cf69bab	0.030103525
143	0xbca52382	-0.020158533
144	0x3c924097	0.017853064
145	0xbe05b95b	-0.13058989
146	0x3d065647	0.032797124
147	0xbe55b09b	-0.20868151
148	0xbd013d27	-0.03155246
149	0xbce28d5c	-0.027655296
150	0xbde3bbd5	-0.111198105
151	0x3deeeb57	0.11665981
152	0x3df8b2ca	0.12143476
153	0x3c00ef5a	0.007869566
154	0x39c8174e	0.00038164336
155	0xbc7a9d0b	-0.015296231
156	0x3d141f6c	0.03616278
157	0xbdd61b43	-0.104544185
158	0x3d81d785	0.06339935
159	0x3d545ed9	0.051848266
160	0xbd8736f7	-0.066022806
161	0x3be232f5	0.006903047
162	0x3ce6cb8d	0.028173232
163	0x3d9bbde0	0.07604575
164	0x3d68bc00	0.056819916
165	0x3b866bde	0.0041022142
166	0xbdc92154	-0.0982081
167	0xbe390773	-0.18069248
168	0xbc90762f	-0.01763448
169	0x3cebf304	0.028802402
170	0x3c618431	0.013764427
171	0x3db872a2	0.090062395
172	0xbd9be79c	-0.07612535
173	0x3d2d800e	0.04235845
174	0x3d8bf265	0.068333425
175	0x3c780203	0.015137198
176	0x3d46c3f2	0.04852671
177	0xbccdba91	-0.025113376
178	0xbcf575d3	-0.02996341
179	0x3c8b9268	0.017037585
180	0x3b394279	0.002826838
181	0xbd6ef6c8	-0.058340818
182	0xbd520b46	-0.051280282
183	0xbdb2fa70	-0.087391734
184	0x3e043cd0	0.12913823
185	0xbd78911c	-0.060685262
186	0x3d307098	0.043076128
187	0x3db4b0b5	0.08822767
188	0x3d56c7ec	0.052436754
189	0x3e03780c	0.12838763
190	0x3d0ac39d	0.033877958
191	0x3de26ec7	0.11056285
192	0xbda4718a	-0.08029468
193	0x3da2da3a	0.0795178
194	0xbc239543	-0.009984317
195	0x3e18b088	0.14911091
196	0x3c0b40e2	0.008499356
197	0x3c0d3b72	0.00862013
198	0xbdedd2db	-0.11612483
199	0x3cd0dadf	0.02549499
200	0x3c1714d5	0.009221275
201	0xbc0f6413	-0.008751887
202	0x3d9768ec	0.07393059
203	0x3c33eaca	0.010981271
204	0x3d9323e5	0.07184581
205	0xbc9a4749	-0.01883282
206	0x3cf7a3c3	0.030229455
207	0x3d5d61ce	0.054048352
208	0xbd4ee7cc	-0.050514027
209	0x3dd41a95	0.103566326
210	0x3d80fa11	0.062976964
211	0xbda0fa6c	-0.07860264
212	0x3e133110	0.14374185
213	0xbd3a54d1	-0.045491043
214	0x3d15566a	0.036459364
215	0xbae86b67	-0.0017732204
216	0x3e07fec8	0.13280785
217	0x3da00d87	0.0781508
218	0x3b2e46cc	0.0026592491
219	0x3dfacaa7	0.12245684
220	0x3d24610f	0.040131625
221	0x3dd1d8d1	0.102464326
222	0xbe0da491	-0.13832308
223	0x3d2cc5c6	0.0421808
224	0x3cc4d95b	0.024029424
225	0x3dd59d05	0.1043034
226	0xbdb85b93	-0.090018414
227	0xbe2008ee	-0.15628406
228	0xbd80f27c	-0.0629625
229	0x3ca62b80	0.020284414
230	0x3dc22967	0.09480553
231	0xbc236f9d	-0.009975341
232	0xbd6cc0e6	-0.05780115
233	0x3d8f3caf	0.06993996
234	0xbd337f29	-0.04382244
235	0x3d8c7d99	0.06859893
236	0x3d8257cf	0.063644044
237	0x3cb555f6	0.022135716
238	0x3c1213d4	0.00891586
239	0x3d956510	0.07294667
240	0xbdc1e1c4	-0.094668895
241	0xbdb378a6	-0.08763246
242	0x3c584ab7	0.013201407
243	0x3cf4a37f	0.029863117
244	0x3cd34a10	0.025792152
245	0x3c826b6e	0.015920367
246	0x3c9fdc58	0.019514248
247	0x3df55ed5	0.119809784
248	0x3d8c58e8	0.06852895
249	0x3d0df9b7	0.034661975
250	0x3c4d6e9c	0.012538578
251	0xbd2bb414	-0.041919783
252	0xbd4aed2c	-0.04954259
253	0xbc587046	-0.013210362
254	0x3e24b0cc	0.16083068
255	0x3bc19d12	0.005908617

ablang_branch.0.bias f4 [256]
0	0xba91f586	-0.0011135794
1	0x3c084771	0.008317814
2	0xbad34d75	-0.0016121106
3	0xbc991c9b	-0.018690398
4	0xbb3a5f56	-0.0028438172
5	0xbb8f1a65	-0.00436716
6	0x3c1e954a	0.009679148
7	0xbc4dc004	-0.012557987
8	0x3cd39db6	0.025832038
9	0xbbf68be4	-0.0075240005
10	0xbbf82911	-0.007573255
11	0xbc4e5eb9	-0.012595826
12	0x3b85a349	0.004078303
13	0x3bd9a7cb	0.006642317
14	0xbcc4ef29	-0.024039822
15	0xbba140f2	-0.004921072
16	0xbc8586ef	-0.016299693
17	0xbba9f048	-0.0051861145
18	0xbba9714e	-0.0051709777
19	0x3a5c0f2d	0.00083945954
20	0xbbd3893b	-0.006455568
21	0xbc8667cf	-0.016406922
22	0xbc43e62c	-0.011956733
23	0xbbfc9326	-0.007707971
24	0x3c985957	0.018597288
25	0xbc3623cd	-0.011116934
26	0x3c35f7df	0.01110646
27	0xbcadbd85	-0.021208534
28	0xbb792d6b	-0.0038021456
29	0xbc3db297	-0.011578224
30	0x3b60423e	0.003421917
31	0xbc40f928	-0.0117781535
32	0xbc26836b	-0.010163168
33	0x3b2af2c3	0.0026084639
34	0x3a0bf132	0.000533837
35	0xbc2cf1d7	-0.010555706
36	0xbae8686f	-0.0017731319
37	0xbc267023	-0.010158571
38	0xbb03689a	-0.002005136
39	0x3d228135	0.039674003
40	0xbc330dca	-0.010928581
41	0xbd15a5ca	-0.036535062
42	0xbb3af20c	-0.002852562
43	0x3b7a8bcc	0.0038230298
44	0xbc55e5f5	-0.013055314
45	0xbc827888	-0.015926614
46	0x3bb1631a	0.005413425
47	0x3c858e06	0.016303074
48	0xbc59ce26	-0.0132937785
49	0xbc0500aa	-0.008117834
50	0xbceda2d0	-0.0290083
51	0xbb8b608b	-0.004253452
52	0xbc849b50	-0.01618734
53	0xbbc3815a	-0.0059663476
54	0x3c328ba6	0.010897553
55	0xbc065687	-0.008199341
56	0x3c6bc3df	0.014389961
57	0x3c6b538d	0.014363182
58	0x3c8bd0b0	0.017067283
59	0xba992b72	-0.0011685921
60	0xbbc36dd6	-0.005964021
61	0xbcc21940	-0.02369368
62	0xbbc7e9dc	-0.0061008763
63	0xbc229e67	-0.009925461
64	0xbbb4aa30	-0.005513452
65	0xbc8525d8	-0.016253397
66	0xbca65f40	-0.02030909
67	0x3c193e3f	0.0093532195
68	0xbca03c2d	-0.019559944
69	0x3bbe3238	0.0058043264
70	0xbadde13a	-0.0016928085
71	0x3ca96eb5	0.020682672
72	0xbc30172a	-0.01074771
73	0xbc47a90d	-0.012186301
74	0xbc0bb8ee	-0.008527977
75	0x3c232248	0.009956904
76	0xbcaad8c6	-0.020855319
77	0xba05e1f6	-0.0005107218
78	0xba869626	-0.0010268136
79	0xbc793f0b	-0.0152127845
80	0xbc202dae	-0.009776516
81	0xbbfaf43e	-0.0076585105
82	0xbc896fc1	-0.016776921
83	0x3cc9cd08	0.0246339
84	0xbd2d2d2b	-0.042279404
85	0xbc714371	-0.014725552
86	0xbc300b7d	-0.0107449265
87	0x3c49233b	0.012276466
88	0xbc24cf56	-0.010059198
89	0xbbe71ec0	-0.007053226
90	0x3b816fed	0.00395011
91	0xbba618e9	-0.0050688875
92	0x3b9c5065	0.004770326
93	0x3d0e505c	0.034744605
94	0xbc886e70	-0.016654223
95	0x3c245b6f	0.010031565
96	0xbc0c369f	-0.008557945
97	0x3b99c930	0.004693173
98	0x3c9a867f	0.01886296
99	0xbc542f9f	-0.012950807
100	0xbb34cddc	-0.0027588522
101	0xbc175702	-0.009237053
102	0xbb559fee	-0.0032596546
103	0xbbca551a	-0.0061746957
104	0xbc8e3d93	-0.017363345
105	0x3b107944	0.0022044936
106	0xbc15cd1e	-0.009143142
107	0x3bb1fe0e	0.005431897
108	0xbb439c78	-0.0029847901
109	0x3c2c09ab	0.010500352
110	0xbb83103c	-0.003999738
111	0x3c4fbd45	0.012679403
112	0xbc92bb83	-0.017911678
113	0x3c4bd6f5	0.0124413865
114	0x3b628a4f	0.0034567302
115	0xbc36077f	-0.011110186
116	0xbc21acf6	-0.009867897
117	0x3ca21bf3	0.019788718
118	0x3d194693	0.03742082
119	0xbc2e75e6	-0.010648226
120	0xbbeb231a	-0.0071758153
121	0x3a9f3406	0.0012146241
122	0xbc093016	-0.008373281
123	0xbccccdfe	-0.025000568
124	0xbc9430cf	-0.01808968
125	0xbbda255c	-0.0066572856
126	0xb9ed60b5	-0.00045276215
127	0x3c5828b8	0.013193302
128	0xbd3c24bd	-0.045933474
129	0x3aeee957	0.00182275
130	0xbc15a18e	-0.009132756
131	0xbb394407	-0.0028269307
132	0xbc29d7c8	-0.010366388
133	0x3b7170c0	0.0036840886
134	0x3adaa590	0.0016681422
135	0xbbc72be8	-0.006078232
136	0xbc61b145	-0.0137751745
137	0xbc04f9a0	-0.008116156
138	0xbbf68aca	-0.007523869
139	0x3c0ca3f0	0.008584008
140	0x3ca676b8	0.020320281
141	0x3c42d119	0.011890673
142	0xbc107039	-0.0088158185
143	0xbc5eb932	-0.013593959
144	0xbc0f4368	-0.008744098
145	0x3bda6c49	0.0066657406
146	0x39000c28	0.0001221156
147	0xbc021cdd	-0.007941452
148	0x3c013d19	0.007888102
149	0x3c15fbed	0.009154302
150	0xbc2ed962	-0.010671945
151	0xbc69ccf4	-0.014270056
152	0xbb65837c	-0.0035020998
153	0xbc73820d	-0.0148625495
154	0x3c63ed93	0.013911623
155	0x3cdabd76	0.02670167
156	0xbc433f61	-0.011916966
157	0x3c46c3cf	0.012131645
158	0xbcb7dc4d	-0.022443915
159	0xbc2483cb	-0.0100411875
160	0xbd16b00c	-0.036788985
161	0xbb9773a6	-0.0046219407
162	0xbc2e2263	-0.010628316
163	0x3ca5d7b1	0.020244451
164	0x3be85aaf	0.0070908885
165	0x3ba69a1b	0.005084289
166	0x3cc65f49	0.024215357
167	0xbc2689bc	-0.010164674
168	0xbc09ed64	-0.008418415
169	0xbc4654a3	-0.01210514
170	0xbb576072	-0.0032863882
171	0x3b75a706	0.0037483587
172	0x3c22100e	0.009891523
173	0xbba62348	-0.005070124
174	0xbbe8542b	-0.0070901117
175	0x3c54db9f	0.012991815
176	0x3bd3cd4b	0.006463682
177	0x3c5fbd60	0.01365599
178	0xbb65fb02	-0.003509224
179	0xbb4b6953	-0.003103812
180	0x3c93eb10	0.018056422
181	0x3b1c6795	0.002386545
182	0xbccfd299	-0.025368975
183	0xbc4f11f6	-0.01263856
184	0xbb8a5c09	-0.004222397
185	0x39a2545e	0.00030961906
186	0x3c83e160	0.016098678
187	0x3bb970d4	0.005659202
188	0xbc32bcb0	-0.010909244
189	0xbbd443bd	-0.0064778016
190	0x3c60aaa4	0.013712559
191	0x3c5fc12d	0.013656897
192	0xbc511647	-0.012761659
193	0xbba42737	-0.0050095576
194	0xbac1b9a9	-0.0014780062
195	0x3b162232	0.0022908566
196	0x3bb2b6b2	0.005453908
197	0xba4eb952	-0.0007885891
198	0xbc1b4bee	-0.009478552
199	0xbc2122e5	-0.00983498
200	0x3ca8134a	0.02051701
201	0xbbc08770	-0.0058755204
202	0xbc2c1349	-0.010502645
203	0x3c3d8226	0.011566674
204	0xbc4e894f	-0.012605979
205	0xbc55a2c9	-0.013039299
206	0xbc8c6cad	-0.017141664
207	0x3ceabea6	0.028655361
208	0xbc55e5f6	-0.013055315
209	0xbbb88c78	-0.0056319796
210	0x3c24728e	0.010037078
211	0xbc62fca2	-0.013854178
212	0xbc043318	-0.008068822
213	0x3c2d3214	0.010571022
214	0xbc1e7e9a	-0.009673739
215	0xbb33c6b3	-0.0027431666
216	0xbb88754a	-0.0041643726
217	0x3bb0cd41	0.005395562
218	0xbb4e75b4	-0.0031503262
219	0x3c181da8	0.009284414
220	0xbc138292	-0.009003298
221	0xbc466268	-0.012108423
222	0xbc10e80e	-0.008844389
223	0xbc37255e	-0.011178343
224	0x3bf1d091	0.0073795994
225	0xbae05245	-0.0017114362
226	0xbb2cf297	-0.0026389712
227	0xbc0681a1	-0.008209617
228	0x3cb86270	0.022507876
229	0x3b4bd54f	0.0031102484
230	0xba052b2c	-0.00050799805
231	0xbc7b0c72	-0.015322791
232	0xbcdc0799	-0.026859092
233	0xbc06bf82	-0.00822437
234	0xbc46b2d1	-0.012127594
235	0xbc322d81	-0.010875107
236	0xbc212126	-0.009834563
237	0x3c82f8e2	0.015987817
238	0xbcacc749	-0.02109112
239	0xba3c3d6a	-0.0007180782
240	0xbbe3c397	-0.0069508064
241	0x3bcfad06	0.0063377647
242	0x3c08e445	0.008355205
243	0x3bb53335	0.005529786
244	0xbbf3d8fa	-0.007441637
245	0xbc590d32	-0.013247775
246	0xbb7c87fe	-0.0038533206
247	0x3b4bc0cd	0.003109026
248	0x3bfacbe6	0.007653701
249	0x3c0e6165	0.008690213
250	0xba86b8b9	-0.001027844
251	0x3b0a50ef	0.002110537
252	0x3c2b690f	0.01046206
253	0x3c9a64ba	0.018846858
254	0xbbe9ab32	-0.007131004
255	0x3c1c1d21	0.009528429

ablang_branch.1.weight f4 [256]
0	0x3f7d3ccf	0.9892091
1	0x3f7cfd92	0.9882442
2	0x3f7f90f1	0.9983054
3	0x3f7bb6fa	0.98326075
4	0x3f7d1936	0.98866594
5	0x3f7e72f2	0.9939414
6	0x3f80db1b	1.0066866
7	0x3f81f593	1.0153068
8	0x3f82fb19	1.0232879
9	0x3f7d044c	0.9883468
10	0x3f8074a2	1.0035594
11	0x3f7e5226	0.993441
12	0x3f80e5f8	1.0070181
13	0x3f7fcb51	0.9991961
14	0x3f80ba3f	1.0056838
15	0x3f7d16e8	0.9886308
16	0x3f7c10ac	0.9846294
17	0x3f7c9bfb	0.9867551
18	0x3f7f3a68	0.99698496
19	0x3f7e0d1a	0.9923874
20	0x3f7cee5e	0.9880122
21	0x3f7ef9f7	0.99600166
22	0x3f794f90	0.9738703
23	0x3f7e60f6	0.993667
24	0x3f814bde	1.0101278
25	0x3f800b53	1.0003456
26	0x3f81400e	1.0097673
27	0x3f81faec	1.01547
28	0x3f7e7702	0.9940034
29	0x3f7e489a	0.9932953
30	0x3f7d7872	0.9901191
31	0x3f7f9a6b	0.99845
32	0x3f7dcb7e	0.9913863
33	0x3f7ac021	0.97949415
34	0x3f81b8ae	1.0134485
35	0x3f80a8cf	1.0051516
36	0x3f7c8d78	0.98653364
37	0x3f7d3aee	0.98918045
38	0x3f7c6ea0	0.986063
39	0x3f87078a	1.0549176
40	0x3f7fe2a7	0.9995522
41	0x3f8224c4	1.016747
42	0x3f7d5fec	0.9897449
43	0x3f806dd2	1.0033514
44	0x3f7c3843	0.9852335
45	0x3f7e334b	0.99297017
46	0x3f81354b	1.0094389
47	0x3f82a084	1.0205235
48	0x3f7eb6a7	0.99497455
49	0x3f8128db	1.0090593
50	0x3f842dc6	1.0326469
51	0x3f7da010	0.9907236
52	0x3f7d4c19	0.9894424
53	0x3f8048c5	1.0022207
54	0x3f818b57	1.0120648
55	0x3f807d7b	1.0038294
56	0x3f7f92e1	0.99833494
57	0x3f809d0c	1.0047927
58	0x3f81e0d0	1.0146732
59	0x3f7df829	0.9920679
60	0x3f79183e	0.97302616
61	0x3f81ab14	1.0130334
62	0x3f7c6685	0.9859393
63	0x3f80c934	1.0061402
64	0x3f7c52ee	0.9856404
65	0x3f8040b4	1.0019746
66	0x3f812527	1.0089463
67	0x3f809f97	1.0048703
68	0x3f8316c6	1.0241325
69	0x3f7c7500	0.9861603
70	0x3f7c8f92	0.9865657
71	0x3f834c6d	1.0257698
72	0x3f7f053a	0.9961735
73	0x3f7e730a	0.99394286
74	0x3f801b83	1.0008396
75	0x3f8220d6	1.0166271
76	0x3f816e1a	1.0111725
77	0x3f7ec98b	0.9952628
78	0x3f7b7053	0.9821827
79	0x3f74054d	0.9532059
80	0x3f7de86b	0.99182767
81	0x3f7c78a1	0.98621565
82	0x3f78fbe1	0.97259337
83	0x3f840173	1.0312942
84	0x3f82c421	1.0216104
85	0x3f7e53da	0.993467
86	0x3f7ce168	0.9878144
87	0x3f80be7e	1.0058134
88	0x3f81e781	1.0148774
89	0x3f7b7eee	0.98240554
90	0x3f794650	0.97372913
91	0x3f803870	1.0017223
92	0x3f82797e	1.0193326
93	0x3f839ced	1.0282265
94	0x3f815726	1.010472
95	0x3f7da60e	0.99081504
96	0x3f8017cf	1.0007266
97	0x3f7c714a	0.98610365
98	0x3f836991	1.0266591
99	0x3f80cbc7	1.0062188
100	0x3f79a685	0.97519714
101	0x3f7e195c	0.99257445
102	0x3f7d11f9	0.9885555
103	0x3f7db8f4	0.9911034
104	0x3f82ba2e	1.0213068
105	0x3f7bb5da	0.9832436
106	0x3f7f6131	0.9975768
107	0x3f7b0d4a	0.9806715
108	0x3f8191a1	1.0122567
109	0x3f8055c0	1.0026169
110	0x3f81a849	1.0129482
111	0x3f83dabb	1.0301126
112	0x3f800e08	1.0004282
113	0x3f7f96db	0.9983956
114	0x3f7e25f1	0.99276644
115	0x3f7fef6e	0.99974716
116	0x3f7d7e5f	0.9902095
117	0x3f82b0fd	1.0210263
118	0x3f8424a6	1.0323684
119	0x3f8063c6	1.0030448
120	0x3f77f5d0	0.96859455
121	0x3f7e0816	0.9923109
122	0x3f79f72f	0.976428
123	0x3f823817	1.0173367
124	0x3f810b22	1.0081522
125	0x3f7f523e	0.99734867
126	0x3f7c63b0	0.9858961
127	0x3f83992c	1.0281119
128	0x3f84d04f	1.0376071
129	0x3f7c9614	0.986665
130	0x3f80fb56	1.0076702
131	0x3f7fac8d	0.99872667
132	0x3f7ef73b	0.99595994
133	0x3f801052	1.000498
134	0x3f7b5b6d	0.9818638
135	0x3f7b4f2d	0.9816769
136	0x3f7a0ca1	0.9767552
137	0x3f7c1647	0.9847149
138	0x3f791519	0.9729782
139	0x3f7f7396	0.99785745
140	0x3f823b13	1.0174278
141	0x3f8094d0	1.0045414
142	0x3f7f637e	0.9976119
143	0x3f7e4c6b	0.99335355
144	0x3f7a2b9c	0.9772279
145	0x3f801273	1.000563
146	0x3f7dda41	0.99161154
147	0x3f802603	1.00116
148	0x3f804202	1.0020144
149	0x3f7d9fe6	0.9907211
150	0x3f803eb5	1.0019137
151	0x3f804759	1.0021774
152	0x3f7e3d67	0.9931244
153	0x3f816926	1.0110214
154	0x3f81449f	1.0099066
155	0x3f85f2f2	1.0464766
156	0x3f7ed99f	0.99550813
157	0x3f80fd36	1.0077274
158	0x3f7e84c8	0.9942136
159	0x3f806e2b	1.003362
160	0x3f8548ad	1.0412804
161	0x3f802c9d	1.0013615
162	0x3f80bba2	1.0057261
163	0x3f82276d	1.0168282
164	0x3f81cfd9	1.0141555
165	0x3f7f2acd	0.99674684
166	0x3f8518f9	1.0398246
167	0x3f7eb99b	0.9950196
168	0x3f80044d	1.0001312
169	0x3f7f8757	0.9981589
170	0x3f81143b	1.0084299
171	0x3f75eaf8	0.9606166
172	0x3f7f6771	0.99767214
173	0x3f7d5ec2	0.98972714
174	0x3f7d96f6	0.99058473
175	0x3f80a61e	1.0050695
176	0x3f7ea6d8	0.99473333
177	0x3f6d19ab	0.9261729
178	0x3f7d72ef	0.990035
179	0x3f7825c2	0.96932614
180	0x3f832023	1.0244182
181	0x3f8222d7	1.0166882
182	0x3f80f46f	1.0074595
183	0x3f7c0cf0	0.9845724
184	0x3f7c4683	0.9854509
185	0x3f7ca7c6	0.986935
186	0x3f817ab8	1.0115576
187	0x3f7d80d3	0.99024695
188	0x3f7d1408	0.9885869
189	0x3f7e3341	0.9929696
190	0x3f8242a4	1.0176587
191	0x3f813621	1.0094644
192	0x3f7f89d0	0.9981966
193	0x3f7b21b4	0.980983
194	0x3f7ce678	0.9878917
195	0x3f7ee62d	0.9956997
196	0x3f7fde09	0.99948174
197	0x3f8101b3	1.0078644
198	0x3f7e1dd3	0.9926426
199	0x3f803423	1.0015911
200	0x3f838c52	1.0277197
201	0x3f82cf04	1.0219426
202	0x3f81d562	1.0143244
203	0x3f80b917	1.0056485
204	0x3f7e13ee	0.9924916
205	0x3f7d1681	0.98862463
206	0x3f803cdc	1.0018573
207	0x3f842223	1.0322918
208	0x3f7d1c9d	0.98871785
209	0x3f7dd0a3	0.9914648
210	0x3f81ff88	1.0156107
211	0x3f808a21	1.0042154
212	0x3f803628	1.0016527
213	0x3f7eeb60	0.99577904
214	0x3f7e8a57	0.9942984
215	0x3f7eae44	0.9948466
216	0x3f7d241c	0.98883224
217	0x3f795891	0.97400767
218	0x3f7f6982	0.9977037
219	0x3f7d1c16	0.9887098
220	0x3f72419e	0.94631374
221	0x3f80e102	1.0068667
222	0x3f7ee682	0.99570477
223	0x3f8019d1	1.0007879
224	0x3f80932c	1.0044913
225	0x3f7b8cf0	0.9826193
226	0x3f7fda1c	0.99942183
227	0x3f79ffc9	0.9765592
228	0x3f8183e2	1.0118372
229	0x3f7ddb60	0.99162865
230	0x3f777940	0.9666939
231	0x3f7c5d1f	0.9857959
232	0x3f83ee16	1.0307033
233	0x3f80e34b	1.0069364
234	0x3f82ada3	1.020924
235	0x3f7e876b	0.9942538
236	0x3f7f5aae	0.9974774
237	0x3f7f08af	0.99622625
238	0x3f816725	1.0109602
239	0x3f7e9d91	0.9945918
240	0x3f7bd93f	0.98378366
241	0x3f7f78fe	0.99793994
242	0x3f777e5c	0.96677184
243	0x3f7f2167	0.9966034
244	0x3f7b4fff	0.9816894
245	0x3f818f42	1.0121844
246	0x3f80165e	1.0006826
247	0x3f75f151	0.96071345
248	0x3f804177	1.0019978
249	0x3f802d64	1.0013852
250	0x3f77a454	0.9673512
251	0x3f7d7f8a	0.99022734
252	0x3f7f62a2	0.99759877
253	0x3f8174c9	1.0113765
254	0x3f7a6b46	0.97819936
255	0x3f80212b	1.0010122

ablang_branch.1.bias f4 [256]
0	0xba060462	-0.00051123474
1	0x3b5a21c4	0.0033284286
2	0x3a8950c3	0.0010476339
3	0xbc0c27e5	-0.0085544335
4	0xbbbec514	-0.0058218334
5	0xbc1d7a3e	-0.009611664
6	0x3c55e540	0.013055146
7	0xbc551360	-0.013005108
8	0x3d0ee40f	0.034885462
9	0xbb50810c	-0.00318152
10	0xba87353d	-0.0010315549
11	0xbc72e73c	-0.014825638
12	0x3bcb00e1	0.006195173
13	0x3be1fe6a	0.0068967836
14	0xbc2e8e60	-0.010654062
15	0xbb9e0543	-0.0048224046
16	0xbc664f32	-0.014056968
17	0xbbede788	-0.0072602667
18	0xbc2316d9	-0.009954178
19	0x39a11374	0.00030722807
20	0xbbd9b1df	-0.0066435183
21	0xbc9c3135	-0.019066432
22	0xbc3d76d3	-0.011563974
23	0xbb70c428	-0.0036738012
24	0x3cc50a4e	0.024052765
25	0xbc74519d	-0.014912036
26	0x3c4fe2c8	0.012688346
27	0xbcd110f2	-0.025520775
28	0x3b4c1bdd	0.0031144537
29	0xbc097720	-0.008390218
30	0x3b0b1d6f	0.002122726
31	0xbc11ba67	-0.008894539
32	0xbc5d636a	-0.013512472
33	0x3c828ebe	0.015937205
34	0x3bb54d5b	0.005532903
35	0xbbcecd33	-0.0063110827
36	0xbb2bdd48	-0.0026224423
37	0xbc17dfff	-0.009269713
38	0x3b3c15e3	0.002869957
39	0x3d4fee0a	0.05076412
40	0xbc01e494	-0.007928032
41	0xbc7bfa32	-0.015379475
42	0x3b40e7b1	0.0029434974
43	0x3b9e7032	0.004835152
44	0xba0ec244	-0.0005445818
45	0xbc9ef1b7	-0.019402368
46	0x3cab2263	0.02089042
47	0x3cad5b62	0.021161739
48	0xbc84241c	-0.0161305
49	0xbc65d786	-0.014028436
50	0xbd01bb18	-0.031672567
51	0xba8ddc47	-0.0010823094
52	0xbca1685b	-0.01970308
53	0xbb763960	-0.003757082
54	0x3c88f016	0.016716044
55	0xbc3f6447	-0.011681623
56	0x3c8b03bd	0.016969556
57	0x3c8626b5	0.016375879
58	0x3caa2cd8	0.020773336
59	0xbba497b9	-0.0050229696
60	0xbbc9e209	-0.0061609787
61	0xbc953965	-0.018215844
62	0xbbf39025	-0.007432955
63	0xbc9de253	-0.019272959
64	0xbb8fbb7c	-0.0043863636
65	0xbc784554	-0.015153248
66	0xbca927c1	-0.020648839
67	0x3c1f8cd6	0.009738168
68	0xbc6421df	-0.013924091
69	0x3bc382c1	0.005966515
70	0xbbe713ae	-0.0070519065
71	0x3cd43e55	0.025908628
72	0xbc3f908b	-0.011692177
73	0xbc07ad61	-0.008281083
74	0xbc93fb48	-0.018064156
75	0x3c8a2d83	0.016867405
76	0xbc7c35c1	-0.015393675
77	0xbb0d479f	-0.0021557582
78	0x38a6e3fd	7.957963e-05
79	0xbc500294	-0.012695927
80	0xbc59efe3	-0.013301822
81	0x3a6f14fa	0.0009120252
82	0xbc1be411	-0.0095148245
83	0x3cfceca2	0.030874554
84	0xbca336ac	-0.01992353
85	0xbc8d97e9	-0.01728435
86	0x3c239e69	0.009986498
87	0x3c8c605f	0.017135797
88	0xbc860bb3	-0.016363
89	0xbbfb80fd	-0.0076752887
90	0x3b820cd6	0.0039688153
91	0xbba31de8	-0.0049779303
92	0x3c64600a	0.013938913
93	0x3d094156	0.033509575
94	0xbc6846e5	-0.014177059
95	0x3bec4a13	0.007210979
96	0xbb892bc6	-0.0041861264
97	0x3a42b90f	0.00074280886
98	0x3cbc0733	0.022952652
99	0xbbd8d230	-0.006616853
100	0x3bdddda3	0.006770806
101	0xbbd2ede7	-0.0064370516
102	0x3b920638	0.0044563077
103	0xbbe4a428	-0.0069775768
104	0xbc47f9ca	-0.01220555
105	0x3ba31130	0.004976414
106	0xbbc30e6f	-0.0059526484
107	0x3c0ab594	0.008466143
108	0x3b807a14	0.003920803
109	0x3c8b99b7	0.01704107
110	0x3c26fbd6	0.010191878
111	0x3c2bde26	0.010489976
112	0xbc58699b	-0.013208772
113	0x3c8bdb14	0.017072238
114	0xbac90951	-0.001533786
115	0xbc59aca1	-0.013285787
116	0xbc436e51	-0.011928157
117	0x3cbe7fae	0.023254242
118	0x3d1db4b9	0.03850243
119	0xbc80fff0	-0.01574704
120	0x3c46653d	0.012109098
121	0x3bb07067	0.005384493
122	0xbaf7ba35	-0.0018900099
123	0xbcacb019	-0.021080064
124	0xbcb747d4	-0.022373118
125	0xbc4cb8f2	-0.012495266
126	0xbb3cd6f7	-0.0028814652
127	0x3ce88171	0.028382035
128	0xbcf97d3d	-0.030455226
129	0x3b899164	0.00419824
130	0xbc004999	-0.007830047
131	0xbb4b1e19	-0.0030993281
132	0xbbfebf03	-0.007774235
133	0x3b478537	0.0030444392
134	0xbb823576	-0.003973658
135	0x39917e76	0.00027750776
136	0xbbd8e400	-0.0066189766
137	0xbbe5da17	-0.0070145237
138	0xbb673926	-0.0035281866
139	0x3ba622dc	0.0050700735
140	0x3c8580b4	0.016296722
141	0x3c524c7d	0.012835619
142	0xbbb0519a	-0.0053808214
143	0xbbf8a8f8	-0.007588502
144	0xbc114d32	-0.008868502
145	0x3c76b840	0.015058577
146	0x3aa22c75	0.0012372868
147	0xbc2d74b4	-0.010586906
148	0x3c1d35e9	0.009595373
149	0x3bec4139	0.0072099236
150	0xbc9a9d26	-0.018873762
151	0xbc8d3cc3	-0.017240888
152	0x3cadd6a1	0.021220507
153	0xbcaae601	-0.020861628
154	0x3c8fe608	0.017565742
155	0x3d098d8c	0.033582255
156	0xbc6e9096	-0.014560839
157	0x3c67e2ea	0.014153222
158	0xbce0fbb7	-0.027463777
159	0xbc7be5c1	-0.015374602
160	0xbd1638fa	-0.03667543
161	0x39d14093	0.00039911698
162	0xbc641f71	-0.013923512
163	0x3ca809c6	0.020512473
164	0x3be73806	0.007056239
165	0x3b8e42f5	0.004341478
166	0x3cedffb7	0.029052598
167	0xbbfb57d1	-0.0076703806
168	0xbc261988	-0.010137923
169	0xbc7de0e5	-0.015495514
170	0xbc0840fb	-0.008316274
171	0x3c168ef8	0.00918936
172	0x3c079aa4	0.008276615
173	0xbb1f096f	-0.0024267097
174	0x3a9f1816	0.0012137915
175	0x3c9dcb9e	0.019262131
176	0x3b2d38d9	0.002643159
177	0x3c8a737c	0.01690077
178	0xbc07e233	-0.008293676
179	0xbbcbf479	-0.006224212
180	0x3cc299d6	0.023754995
181	0x3c0ca327	0.00858382
182	0xbc8ce4aa	-0.01719888
183	0xbbbb39f7	-0.005713697
184	0xbb95e7b6	-0.0045747412
185	0xba05c9bc	-0.0005103608
186	0x3c8a84f7	0.016909106
187	0x3bb569bb	0.0055362857
188	0xbbd7b1bc	-0.006582467
189	0xbb6b5745	-0.003591017
190	0x3ca39a41	0.019971015
191	0x3c8ba98a	0.017048616
192	0xbbe25be4	-0.006907927
193	0xb9f7db3a	-0.00047274848
194	0xbbc4061d	-0.005982174
195	0x3abc1bf8	0.0014351597
196	0x3bba7e46	0.0056913225
197	0x3bb84701	0.0056236987
198	0xbc88d36a	-0.016702373
199	0xbc5ae196	-0.013359448
200	0x3cce9cf9	0.025221335
201	0xbc6d503d	-0.014484462
202	0xbc96ed78	-0.01842378
203	0x3c459625	0.012059723
204	0xbc98f50d	-0.018671537
205	0xba84d32a	-0.0010133733
206	0xbc1281b3	-0.0089420555
207	0x3d0b9f32	0.034087367
208	0xbc1a5ec3	-0.009422007
209	0xbba7376a	-0.0051030414
210	0x3b822820	0.0039720684
211	0xbc88cd8d	-0.016699577
212	0xbc17f25b	-0.009274091
213	0x3c9c79ea	0.019101102
214	0xbbf655fb	-0.007517574
215	0x39ae51c8	0.00033248798
216	0x3a79a1de	0.0009522716
217	0x3c56cdd3	0.013110596
218	0xbbf44ab8	-0.007455196
219	0x3be4b745	0.0069798552
220	0xbc1c5150	-0.009540871
221	0xbc9bf0f4	-0.019035794
222	0xbc364608	-0.011125095
223	0xbc0ec9dc	-0.008715119
224	0x3c46de63	0.012137982
225	0xbb8ae8b0	-0.0042391643
226	0xbc39e937	-0.011347107
227	0x3a51aca6	0.0007998444
228	0x3cc0c8d6	0.023533266
229	0x3bccbe4d	0.0062482716
230	0x3c0ee425	0.008721386
231	0xbc8218de	-0.015880998
232	0xbce589a1	-0.028019728
233	0xbc1a8109	-0.009430178
234	0xbc88e4a1	-0.016710581
235	0xbbaf0526	-0.00534119
236	0xbc85a9c9	-0.016316311
237	0x3c87a319	0.016557263
238	0xbcb8b503	-0.02254725
239	0x3aa3ab57	0.0012486976
240	0x3bfbb3a2	0.007681326
241	0x3ba3ea5d	0.0050023035
242	0x3c0febed	0.008784276
243	0x3bc558d6	0.006022553
244	0xbc48be7a	-0.012252444
245	0xbc9236bb	-0.017848363
246	0xbb95a046	-0.004566225
247	0x3bb51c5b	0.005527062
248	0x3b72e173	0.0037060648
249	0x3c052f24	0.008128915
250	0x3be095ec	0.0068538096
251	0x3aa72a33	0.0012753665
252	0x3c234930	0.00996618
253	0x3c94d074	0.018165804
254	0x3acf8392	0.0015832058
255	0x3c0b7946	0.008512801

ablang_branch.4.weight f4 [128, 256]
0	0x3d994495	0.07483784
1	0x3de2c59c	0.11072847
2	0x3d80847f	0.062752716
3	0x3d7a2242	0.061067827
4	0xbe316e83	-0.17327313
5	0xbdd78441	-0.10523272
6	0x3d816460	0.06317973
7	0x3cf6bf22	0.030120436
8	0xbdac89e0	-0.08424735
9	0x3d97e39e	0.074164614
10	0x3e102288	0.14075673
11	0x3e1f3559	0.15547694
12	0xbdcf1f79	-0.10113425
13	0xbe65c666	-0.22438964
14	0xbcb4b0b7	-0.02205692
15	0x3e0b02f7	0.1357535
16	0xbd521796	-0.051292025
17	0x3c61c3f8	0.013779633
18	0x3dfbb63e	0.12290619
19	0xbd934849	-0.07191522
20	0x3dd7b99e	0.105334505
21	0xbc94c8a0	-0.018162072
22	0x3dd89a69	0.105763264
23	0xbdb2e176	-0.087344095
24	0xbde198d0	-0.11015475
25	0xbc5d38b7	-0.013502291
26	0x3d816360	0.063177824
27	0xbcf12e0b	-0.0294409
28	0xbdcce92a	-0.1000541
29	0x3d59cb91	0.05317265
30	0x3d7def3b	0.061995726
31	0xbe0c3c75	-0.13694938
32	0xbdf32d96	-0.11873929
33	0xbd8cbb73	-0.068716906
34	0xbcb72c73	-0.022360062
35	0x3dbb369a	0.09141274
36	0x3c53d36f	0.012928828
37	0xbdfe382c	-0.12413058
38	0xbd58437c	-0.052798733
39	0x3d99cf50	0.07510245
40	0xbdfc928f	-0.12332641
41	0x3e0889ec	0.13333863
42	0x3db4e1ea	0.08832152
43	0xbd2a3cdc	-0.041561946
44	0x3d81bd83	0.063349746
45	0x3cc18786	0.023624193
46	0x3d8d0989	0.06886584
47	0xbd954533	-0.07288589
48	0xbd9ee5cc	-0.07758674
49	0x3c5176ab	0.01278464
50	0x3d8d425e	0.06897424
51	0xbd340a08	-0.04395488
52	0xbc863d5a	-0.016386677
53	0x3e12b6cd	0.14327545
54	0xbe05cc77	-0.13066278
55	0xba22769c	-0.0006197484
56	0xbb8e12bb	-0.004335729
57	0xbd5914f8	-0.052998513
58	0x3de52744	0.1118913
59	0x3c8f5ae0	0.017499387
60	0xbd9c010c	-0.07617387
61	0x3bcf6a86	0.0063298373
62	0x3db22131	0.08697737
63	0x3d6b24f5	0.05740829
64	0x3e2bab1b	0.1676449
65	0xbbdba9bb	-0.006703583
66	0xbe297377	-0.16547953
67	0x3dd827a4	0.10554436
68	0x3d839c49	0.064262934
69	0xbca21235	-0.019784072
70	0x3d88c7e1	0.06678749
71	0x3c4213ad	0.011845511
72	0xbd756e6e	-0.059919767
73	0xbd439f8a	-0.04775957
74	0x3e40c99a	0.18826905
75	0x3c770287	0.015076286
76	0x3dd392eb	0.10330757
77	0xbd3c2d09	-0.045941386
78	0x3dc9f54c	0.0986124
79	0xbe3a36e8	-0.18185008
80	0x3c405c26	0.01174072
81	0x3d4639ca	0.048394956
82	0xbe1e74d7	-0.15474258
83	0xbca2bbe2	-0.01986498
84	0xbd8e9afa	-0.06963153
85	0xbd84e6ba	-0.0648932
86	0xbce15814	-0.02750782
87	0xbcd734f8	-0.026270375
88	0x3b967da1	0.004592613
89	0x3d1d844b	0.038456243
90	0xbe029def	-0.1275556
91	0x3df2e120	0.118593454
92	0xbc75a79e	-0.014993576
93	0x3d27b642	0.0409453
94	0x3cda2088	0.02662684
95	0x3ca30b40	0.019902825
96	0xbe003add	-0.12522455
97	0xbcf7afae	-0.030235138
98	0x3da2965c	0.07938835
99	0xbdc4ef0b	-0.09615906
100	0x3d99cf1a	0.075102046
101	0x3d8dbfa2	0.06921317
102	0xbad08794	-0.0015909546
103	0xbd0a1513	-0.033711504
104	0xbe291d83	-0.16515164
105	0xbc22cbcd	-0.009936285
106	0xbd0e3285	-0.034716148
107	0x3ded532f	0.11588132
108	0xbd7d4461	-0.06183279
109	0x3d588fc0	0.052871466
110	0x3b32def8	0.0027293544
111	0xbda8ec93	-0.08248248
112	0xbd78134f	-0.06056529
113	0x3dfb4031	0.12268103
114	0x3dd6e1e9	0.10492308
115	0xbdd4d29b	-0.10391732
116	0xbc62650a	-0.013818035
117	0x3e3876d8	0.18014085
118	0xbcd08ad9	-0.025456833
119	0x3dd5d92f	0.10441815
120	0xbd81e367	-0.06342202
121	0x3dc4cd7b	0.09609505
122	0xbdab7931	-0.08372725
123	0x3c11f4d2	0.008908467
124	0x3e87298b	0.26398882
125	0xbcc9346b	-0.024561128
126	0x3ceecb61	0.029149713
127	0x3e30a157	0.17249046
128	0xbe116957	-0.1420034
129	0x3dbc4d0e	0.091943845
130	0x3e372d24	0.17888314
131	0xbcad43f5	-0.021150569
132	0x3c7aa240	0.0152974725
133	0x3c3ae2c2	0.011406602
134	0x3d725a01	0.059167866
135	0x3e2346af	0.15944932
136	0x3d53959c	0.05165635
137	0xbcd7535c	-0.026284866
138	0xbcf43d87	-0.029814495
139	0xbd10e826	-0.035377644
140	0xbcfafdd9	-0.030638622
141	0xbdf22265	-0.118229665
142	0xba40d62e	-0.0007356134
143	0x3dabc06a	0.083863094
144	0xbe4866bb	-0.19570439
145	0xbe1fe1e5	-0.15613516
146	0x3dfddca1	0.12395597
147	0x3d9a80fa	0.075441316
148	0x3d9f85a8	0.07789165
149	0xbce15271	-0.027505131
150	0xbe533455	-0.20625432
151	0xbdbf442a	-0.09339173
152	0x3ce63a33	0.028103923
153	0xbe0b41df	-0.13599347
154	0xbda13325	-0.07871083
155	0x3ce9249f	0.028459845
156	0x3e18c0d8	0.14917314
157	0x3cf3595a	0.029705692
158	0xbcf24bfb	-0.029577246
159	0x3e00dce8	0.12584269
160	0x3dac3f09	0.084104605
161	0x3c8810e7	0.016609622
162	0xbd85f287	-0.06540399
163	0xbdd9d3ac	-0.10636076
164	0x3d938044	0.07202199
165	0xbda70f62	-0.08157231
166	0xbd123a3d	-0.03570007
167	0x3de16c25	0.11006955
168	0x3db3f06c	0.08786091
169	0xbd9918d8	-0.07475442
170	0xbd8291cb	-0.06375464
171	0x3e30e436	0.17274556
172	0x3d9ee317	0.07758158
173	0x3e32c637	0.17458425
174	0x3de31b10	0.11089146
175	0xbded98d0	-0.11601412
176	0xbdb446eb	-0.08802589
177	0x3c4db97b	0.012556429
178	0x3d66fcca	0.056393422
179	0xbbb02282	-0.0053752074
180	0x3ac7e98d	0.0015252099
181	0x3daebfb8	0.08532661
182	0xbda3a7f8	-0.07991022
183	0xbcb667e6	-0.02226634
184	0x3dba0eff	0.090848915
185	0x3d0cf596	0.034413897
186	0x3dd38a0c	0.10329065
187	0x3d94118e	0.07229911
188	0x3ce10216	0.027466815
189	0xbceb1b76	-0.028699618
190	0xbd28c405	-0.041202564
191	0x3cfebfde	0.031097349
192	0xbb1d0b8f	-0.0023963188
193	0xbd3e67bf	-0.04648566
194	0x3e214860	0.15750265
195	0xb9da8350	-0.00041678036
196	0xbd0ca434	-0.034336284
197	0x3d831d89	0.06402118
198	0xbc8387e1	-0.016056003
199	0x3d0bde5b	0.0341476
200	0x3dd859bb	0.1056399
201	0xbd38cec8	-0.045119077
202	0x3e2968e6	0.16543922
203	0x3bc0db60	0.0058855265
204	0xbd358372	-0.04431481
205	0x3ca9a79f	0.02070981
206	0x3e1ab5f8	0.15108478
207	0xbd6bfed4	-0.05761607
208	0x3c626bd6	0.013819655
209	0xbdc1eb40	-0.094686985
210	0x3bc9fbcb	0.0061640493
211	0xbdead790	-0.114668965
212	0x3d8ddebc	0.06927249
213	0x3d1031ba	0.035203673
214	0x3cc790d5	0.024361053
215	0xbd269291	-0.04066712
216	0x3d5d83fb	0.054080945
217	0x3df4609b	0.119324885
218	0x3d042fbe	0.032272093
219	0xbd7c1acb	-0.06154899
220	0x3df86de5	0.12130336
221	0xbd3eaaa5	-0.046549458
222	0xbddf78d3	-0.10911717
223	0xbcd09e3b	-0.025466075
224	0xbe0567b7	-0.13027845
225	0xbdde71b6	-0.108615324
226	0xbdb22ac3	-0.086995624
227	0x3daa4487	0.08313852
228	0x3cbf300b	0.023338338
229	0x3e358028	0.17724669
230	0x3d7811d0	0.060563862
231	0xbcb5adce	-0.022177603
232	0x3d0f9161	0.035050754
233	0x3e0b5c37	0.13609396
234	0x3d103cba	0.035214163
235	0x3d140235	0.036134917
236	0xbd3db700	-0.0463171
237	0xbd8855fd	-0.06657026
238	0x3c91a970	0.01778099
239	0xbca77d7a	-0.020445574
240	0x3c3f4094	0.0116731115
241	0xbc36c8f5	-0.01115631
242	0x3d928ea5	0.071561135
243	0x3d18b321	0.037280206
244	0xbdd35132	-0.10318221
245	0xbcbf7906	-0.023373138
246	0xbd3f95d1	-0.046773735
247	0x3caf0f8a	0.021369714
248	0x3d9dfa2c	0.07713732
249	0x3ce269bf	0.027638314
250	0xbe0197ea	-0.12655607
251	0xbe4ace3e	-0.19805238
252	0xbdf9760a	-0.12180717
253	0xbdc14fe0	-0.09439063
254	0x3ceb52c4	0.02872599
255	0x3d010b25	0.03150477

ablang_branch.4.bias f4 [128]
0	0x3baaf1be	0.005216806
1	0xbd198be5	-0.03748693
2	0xbc4c5ea1	-0.012473733
3	0x3d0a2b6c	0.033732817
4	0xbc6cec54	-0.014460642
5	0xbb1aebb1	-0.0023639018
6	0xbcc33270	-0.023827761
7	0xbcb9dcbe	-0.022688266
8	0xbcedbeef	-0.029021708
9	0xbd088c49	-0.03333691
10	0x3cefe814	0.029285468
11	0x3c7cc31b	0.015427376
12	0xbcdefbe0	-0.027219713
13	0xbcd85969	-0.026409822
14	0x3cdc3d7d	0.026884789
15	0xbd0c6eba	-0.034285285
16	0xbc752317	-0.014961979
17	0x3c54dff2	0.012992846
18	0xbd122eb9	-0.03568909
19	0x3c8fa679	0.017535435
20	0xbd251565	-0.040303607
21	0xbcb3823c	-0.021912687
22	0xbccb7a33	-0.024838543
23	0xbc7a3f52	-0.015273886
24	0xbca42606	-0.020037662
25	0xbc608b8d	-0.0137051465
26	0xbb506670	-0.0031799339
27	0x396c85aa	0.00022556508
28	0x3cf8ecb1	0.0303863
29	0xbbe6d0ae	-0.0070439195
30	0xbd13e9a7	-0.0361115
31	0x3b70e44d	0.0036757172
32	0x3b5cddff	0.0033701656
33	0x3c964c94	0.018347062
34	0x3ba4b797	0.0050267684
35	0xbcbae1b0	-0.022812694
36	0xbc7c8a8d	-0.015413892
37	0xbb3416d8	-0.0027479436
38	0x3b2fa033	0.0026798367
39	0x3bfcab1e	0.0077108284
40	0xbcaf1afd	-0.021375174
41	0xbcc24ade	-0.02371734
42	0xbcdd9487	-0.027048362
43	0xbc96293c	-0.018330209
44	0x3ceda154	0.029007591
45	0xbc2ef683	-0.01067889
46	0xbb385366	-0.0028125881
47	0xbd179a8b	-0.037012618
48	0xbcd77e12	-0.026305232
49	0xbcdba5cb	-0.026812455
50	0xbca5dc48	-0.02024664
51	0xbcebcd02	-0.028784279
52	0x3d082382	0.033236988
53	0xbc5b8ec6	-0.013400739
54	0xbcd8f5c2	-0.026484374
55	0xbc624750	-0.013810948
56	0x3d0d18c4	0.034447446
57	0xbd2a5c56	-0.041591965
58	0xbce496f5	-0.027904013
59	0xbd23cfb5	-0.039993007
60	0xbc8bc407	-0.017061247
61	0x3d3b50af	0.045731243
62	0xbc544846	-0.012956684
63	0x3d065c46	0.032802843
64	0xbb63309d	-0.0034666427
65	0xbc8791ec	-0.016549073
66	0xbc888ac1	-0.016667726
67	0xbd012c3c	-0.031536326
68	0xbc26336e	-0.010144098
69	0xbcc878ff	-0.024471758
70	0xbcab6e8a	-0.020926733
71	0xbce240bc	-0.027618758
72	0xbcdd3190	-0.027001172
73	0xbbac14e2	-0.005251513
74	0xbbaeb29b	-0.00533135
75	0xbcc09402	-0.023508076
76	0x3cc3e826	0.023914408
77	0xbcc70434	-0.024293996
78	0x3d28ff95	0.041259367
79	0xbcd1581c	-0.02555471
80	0xbb3dfa94	-0.0028988468
81	0xbce5daa0	-0.02805835
82	0x3cb6eb70	0.022329062
83	0x3c7f3592	0.015576737
84	0xbc9a6fb5	-0.018852094
85	0xbcb8113c	-0.022469155
86	0x3d0fb6e6	0.035086535
87	0x3bcd29d9	0.006261092
88	0xbd1d4e47	-0.03840473
89	0xbcbf0315	-0.0233169
90	0xbcf07d76	-0.0293567
91	0xbd024617	-0.031805124
92	0x3acf0328	0.0015793787
93	0x3cccaf60	0.024985969
94	0x3a95b673	0.0011422172
95	0xbcf82fb4	-0.030296184
96	0xbcbb5511	-0.022867711
97	0xbcfa50f8	-0.030556187
98	0xbc676535	-0.014123251
99	0xbcac842f	-0.021059124
100	0xbcd44af2	-0.025914643
101	0x3ce6846d	0.028139317
102	0x3c97fd25	0.018553326
103	0xbc94427a	-0.018098105
104	0xbc30235e	-0.01075062
105	0xbd0f2849	-0.03495053
106	0xbcd0296e	-0.02541038
107	0xba948f08	-0.001133413
108	0x3c83ef37	0.016105277
109	0xbcdb7d05	-0.026793012
110	0x3d3948c1	0.0452354
111	0x3a92c3f1	0.0011197311
112	0xbcc32077	-0.023819191
113	0x3c05873c	0.008149918
114	0xbc23321f	-0.00996068
115	0x3c33dc87	0.010977871
116	0x3c3660d6	0.011131486
117	0x3cbbf763	0.022945112
118	0xbc9502e6	-0.018189859
119	0xbd011091	-0.03150994
120	0xbc0af264	-0.008480642
121	0xbcda515e	-0.026650127
122	0x3af81926	0.0018928393
123	0xbc70b188	-0.014690764
124	0xbc783eec	-0.0151517205
125	0xbcb9efa5	-0.02269728
126	0xbc2b3485	-0.010449533
127	0x3c8447f7	0.016147597

ablang_branch.5.weight f4 [128]
0	0x3f7ae518	0.9800582
1	0x3f828139	1.0195686
2	0x3f7c54fc	0.98567176
3	0x3f8046ac	1.0021567
4	0x3f77fb7b	0.96868104
5	0x3f7a2c49	0.97723824
6	0x3f79eab5	0.9762376
7	0x3f7e2dc9	0.9928861
8	0x3f80f741	1.0075456
9	0x3f803094	1.0014825
10	0x3f8435dc	1.0328937
11	0x3f83b990	1.0291004
12	0x3f82069e	1.015827
13	0x3f7aadb9	0.9792133
14	0x3f818e9e	1.0121648
15	0x3f7dd20c	0.9914863
16	0x3f6f420f	0.9346017
17	0x3f7f733e	0.9978522
18	0x3f7b50fe	0.9817046
19	0x3f7d4fbe	0.989498
20	0x3f824bce	1.0179384
21	0x3f80fef5	1.0077807
22	0x3f7cd93d	0.9876898
23	0x3f7d587e	0.98963153
24	0x3f7c6966	0.98598325
25	0x3f7ba0ca	0.9829222
26	0x3f79668b	0.97422093
27	0x3f78b53d	0.9715155
28	0x3f81e5a6	1.0148208
29	0x3f78269d	0.9693392
30	0x3f7e8b96	0.9943174
31	0x3f7c98b1	0.9867049
32	0x3f792a25	0.9732993
33	0x3f7de9bf	0.99184793
34	0x3f7b543b	0.981754
35	0x3f7d2b0b	0.98893803
36	0x3f788bb7	0.9708819
37	0x3f7adfe9	0.9799791
38	0x3f7aa8df	0.97913927
39	0x3f7e17d9	0.9925514
40	0x3f7fc96a	0.9991671
41	0x3f7b8dbf	0.9826316
42	0x3f80658a	1.0030987
43	0x3f7a636e	0.9780797
44	0x3f83182b	1.024175
45	0x3f7b3779	0.9813152
46	0x3f778534	0.96687627
47	0x3f7c5118	0.9856124
48	0x3f7c2fe0	0.9851055
49	0x3f80fbc8	1.0076838
50	0x3f7e37b2	0.99303734
51	0x3f798c46	0.97479665
52	0x3f83e7bf	1.0305098
53	0x3f782e68	0.9694581
54	0x3f7988db	0.9747445
55	0x3f7e4780	0.9932785
56	0x3f8312c1	1.0240098
57	0x3f788f5e	0.9709376
58	0x3f7a9490	0.9788294
59	0x3f7fe830	0.99963665
60	0x3f8297ea	1.020261
61	0x3f86365d	1.048534
62	0x3f771769	0.96520096
63	0x3f833a7a	1.0252221
64	0x3f79bef2	0.97556984
65	0x3f7bfafb	0.9842984
66	0x3f7bc403	0.98345965
67	0x3f7eec3d	0.9957922
68	0x3f7996c5	0.9749568
69	0x3f7f26db	0.99668664
70	0x3f7b1298	0.98075247
71	0x3f81465d	1.0099598
72	0x3f74020f	0.9531564
73	0x3f7b3e49	0.98141915
74	0x3f7a4690	0.9776392
75	0x3f7daa5f	0.9908809
76	0x3f81c6eb	1.013883
77	0x3f7c0250	0.9844103
78	0x3f8396dd	1.0280415
79	0x3f82da1b	1.022281
80	0x3f789d29	0.9711481
81	0x3f7cbb2b	0.98723096
82	0x3f829e34	1.020453
83	0x3f818378	1.0118246
84	0x3f787a67	0.9706177
85	0x3f7b2005	0.9809573
86	0x3f836582	1.0265353
87	0x3f7e264a	0.99277174
88	0x3f7e02f3	0.9922325
89	0x3f7d3ef5	0.9892419
90	0x3f7feedc	0.99973845
91	0x3f79c9a2	0.9757329
92	0x3f7cd595	0.987634
93	0x3f8189b6	1.0120151
94	0x3f7de697	0.9917998
95	0x3f7eced3	0.9953434
96	0x3f794626	0.97372663
97	0x3f7cd609	0.9876409
98	0x3f79a80d	0.9752205
99	0x3f7c0a1a	0.98452914
100	0x3f793a60	0.973547
101	0x3f81ef2b	1.0151113
102	0x3f808c18	1.0042753
103	0x3f78eb12	0.9723369
104	0x3f79eb35	0.9762452
105	0x3f8119f6	1.0086048
106	0x3f8036fb	1.0016779
107	0x3f7c0d24	0.9845755
108	0x3f7ef8e6	0.9959854
109	0x3f797fa1	0.9746037
110	0x3f8736f5	1.0563647
111	0x3f7a994b	0.97890157
112	0x3f80001b	1.0000032
113	0x3f7e603f	0.9936561
114	0x3f7d6ea1	0.9899693
115	0x3f7d2511	0.98884684
116	0x3f764a29	0.9620691
117	0x3f81ca1a	1.0139802
118	0x3f80afd4	1.0053658
119	0x3f7e32b6	0.9929613
120	0x3f7c9a3d	0.9867285
121	0x3f7a4417	0.97760147
122	0x3f79ec83	0.97626513
123	0x3f7d6839	0.98987156
124	0x3f7e103d	0.9924353
125	0x3f7e52bf	0.9934501
126	0x3f764a33	0.9620697
127	0x3f802018	1.0009794

ablang_branch.5.bias f4 [128]
0	0x3c1804d4	0.009278495
1	0xbce98e79	-0.02851032
2	0xbb9e617d	-0.004833399
3	0x3d1e7930	0.038689792
4	0xbaf7fab0	-0.0018919315
5	0x3bd98b7c	0.0066389423
6	0xbc81655c	-0.015795402
7	0xbc6751db	-0.014118637
8	0xbce65206	-0.028115284
9	0xbcf204d2	-0.029543314
10	0x3d1a9e06	0.03774836
11	0x3c7715c7	0.015080876
12	0xbc9fc2c9	-0.01950206
13	0xbcb8f9c3	-0.022580033
14	0x3d0c4a26	0.0342504
15	0xbd051f81	-0.032500748
16	0xbc0eb837	-0.008710912
17	0x3c8d3ca6	0.017240833
18	0xbd1d81ee	-0.03845399
19	0x3cb997a3	0.022655314
20	0xbcae3e76	-0.021270018
21	0xbc20d000	-0.009815216
22	0xbcbaa63a	-0.022784341
23	0xbb8663b2	-0.00410124
24	0xbc968cd2	-0.018377695
25	0xbc3c58d4	-0.011495788
26	0x3adbb301	0.0016761721
27	0x3be8ab91	0.0071005304
28	0x3d1b2780	0.037879467
29	0x3b820b5c	0.0039686393
30	0xbcc57ad9	-0.02410643
31	0x3bbfcea7	0.0058534923
32	0x3c3b67dc	0.011438336
33	0x3cadce32	0.021216486
34	0x3bcdd1b9	0.0062811044
35	0xbc9442f4	-0.018098332
36	0xbc55fc69	-0.013060668
37	0x3ad2bf08	0.001607866
38	0x3bb29d96	0.0054509146
39	0x3c55cf8b	0.01304997
40	0xbc4f0bb0	-0.012637064
41	0x3c177751	0.009244756
42	0xbc42136c	-0.011845451
43	0xbc832b09	-0.016011732
44	0x3d07d313	0.03316028
45	0xbbd6a28d	-0.0065501393
46	0x3a263cb6	0.0006341444
47	0xbc42533e	-0.011860667
48	0xbc3d80a5	-0.011566316
49	0xbcb314d9	-0.021860527
50	0xbc60007f	-0.013671993
51	0xbce5f90c	-0.028072856
52	0x3d15bcfe	0.03655719
53	0xbc095858	-0.008382879
54	0xbcd4cb8c	-0.025975965
55	0xbbe064df	-0.0068479623
56	0x3d2bb070	0.04191631
57	0xbd156d3d	-0.03648113
58	0xbbb9eb3b	-0.0056737936
59	0xbc98546f	-0.018594949
60	0xbc6eeebd	-0.014583287
61	0x3d6b1dcc	0.057401463
62	0xbc1f3081	-0.009716154
63	0x3d17a3a9	0.037021313
64	0xb81b0dfc	-3.6967904e-05
65	0xbc5bcd58	-0.013415657
66	0xbc6f6231	-0.014610813
67	0xbcca7db8	-0.02471815
68	0xbc2460e2	-0.010032864
69	0xbb9eca88	-0.004845921
70	0xbca2734a	-0.019830365
71	0xbcc1f2fb	-0.023675432
72	0xbc8d8703	-0.017276293
73	0xbb4ddfb3	-0.0031413853
74	0xb860da56	-5.3609103e-05
75	0xbc15d4e9	-0.009145
76	0x3cea7657	0.028620882
77	0xbc68473c	-0.01417714
78	0x3d46539c	0.04841958
79	0xbcaece14	-0.0213385
80	0x3b70feb8	0.0036772918
81	0xbccad914	-0.024761714
82	0x3cf79743	0.030223494
83	0x3cb216ea	0.021739442
84	0x3c0881d1	0.008331732
85	0xbccc38d4	-0.024929442
86	0x3d2f31d7	0.04277214
87	0x3c378187	0.011200315
88	0xbc9e1066	-0.019294929
89	0xbc91277e	-0.017719027
90	0xbca00c9e	-0.019537266
91	0xbcec651f	-0.028856812
92	0x3c6ea9ab	0.014566819
93	0x3cf1f7fc	0.029537193
94	0x3b86080e	0.0040903157
95	0xbbfaf9ca	-0.0076591717
96	0xbb87ad0c	-0.004140502
97	0xbcd52523	-0.026018685
98	0xbc198887	-0.00937093
99	0xbc5a6bde	-0.013331382
100	0xbc73a809	-0.014871606
101	0x3d067c7a	0.032833554
102	0x3cb6e344	0.022325166
103	0xbc6743f4	-0.014115322
104	0xbbd11ede	-0.0063818535
105	0xbcdd6958	-0.02702777
106	0xbca103fa	-0.019655216
107	0xbb033c6c	-0.0020025028
108	0x3c8d07f3	0.017215705
109	0xbc8fc613	-0.017550504
110	0x3d6040ca	0.054749288
111	0x3bf4f4e6	0.007475483
112	0xbc94b3bc	-0.01815211
113	0x3c601bfa	0.013678545
114	0xbba3593b	-0.0049850023
115	0x3ca87b8e	0.020566728
116	0x3c81e3aa	0.015855629
117	0x3cf82740	0.030292153
118	0xbc8464c3	-0.016161328
119	0xbb688622	-0.003548034
120	0xbb4c6e22	-0.0031193574
121	0xbc963011	-0.018333467
122	0x3b9a437f	0.004707753
123	0xbc744f4b	-0.014911483
124	0xbb2678fb	-0.00254017
125	0xbcaa13f6	-0.020761471
126	0xbbefe4fa	-0.0073209973
127	0x3c9cd277	0.019143326
