data/model_weights/cv_fold_3_model2_4.pt (torch, 686405 bytes, 27 tensors)

ablang_branch.0.weight f4 [256, 480]
000000 de bd d2 bd 67 0b 6c 3d f9 02 f1 3d b2 a7 83 bc
       -0.102901205 0.05762806 0.11768145 -0.016071174
000010 d1 31 1e bd 14 7a 09 be b3 68 be bd 52 1a 15 3e
       -0.038621727 -0.13425475 -0.092973135 0.14560822
000020 0e 68 66 bd 26 a7 e5 bd 35 63 a1 bd 85 d4 b6 3d
       -0.056251578 -0.11213522 -0.0788025 0.08927254
000030 5f 3b b4 bd 0b cd 85 bc f6 2f de 3c 28 19 80 bd
       -0.08800387 -0.016333124 0.027122479 -0.06254798
000040 5d 50 9d 3d 50 47 63 3d ad 4d 1d 3d 1d bb be bd
       0.07681344 0.05548793 0.038404156 -0.09313033
000050 1a e8 95 bd ef 3a 99 3c 11 ad 0a bc c2 0f 3c bd
       -0.073196605 0.01870486 -0.008464114 -0.045913465
000060 17 e6 3a 3d 5a 8e d3 bd 00 8b 0a bd c8 8c 4a bd
       0.045629587 -0.10329886 -0.033823967 -0.049450666
000070 d2 06 b0 3c ca bb b6 3d c6 c0 ab 3c d8 76 88 bd
       0.021487627 0.08922537 0.020965945 -0.06663293
000080 e1 44 81 bc 29 77 21 3d 01 f8 28 be be fd 08 3c
       -0.015779914 0.03942028 -0.16500856 0.008361278
000090 30 6b 49 3d 8e f6 19 be c3 6a 80 3c 8b f5 cd bd
       0.049174488 -0.1503546 0.015675908 -0.10056599
0000a0 23 f7 06 3e c3 e8 82 bd 6f e9 8d 3d ea 0e 72 3d
       0.13180213 -0.06392052 0.069292895 0.059096254
0000b0 30 00 b0 bd 29 76 4d 3d 99 59 50 bd 10 01 6b 3d
       -0.08593786 0.050161514 -0.050866697 0.05737406
0000c0 ac cf 68 bd 14 c1 2a be ae f0 5a bd 66 1f 19 3d
       -0.056838676 -0.16675216 -0.053452186 0.03738346
0000d0 51 2c a7 bc 6e f7 92 3c c3 78 1a bd 80 90 eb 3d
       -0.020406874 0.01794025 -0.037712824 0.115021706
0000e0 43 35 7a bc 24 d1 d9 3c e8 08 7e 3d ec 21 73 3d
       -0.015271488 0.026588984 0.062020212 0.059358522
0000f0 d5 9b 39 3d 86 ef c2 3d eb e2 b0 bc ae 77 ad 3c
       0.04531463 0.09518342 -0.021592578 0.021175232
000100 64 02 06 bc ed 1e 74 3d be 94 e2 3b 35 0e f7 3d
       -0.008179281 0.059599806 0.006914704 0.12063257
000110 8a 18 54 bd 90 d6 7a bd a7 34 91 bd c7 94 f6 bd
       -0.051781215 -0.06123978 -0.07090121 -0.12040096
000120 8c be 19 be 46 08 91 3d 55 d7 5f bb 72 fb c6 bc
       -0.15014094 0.07081656 -0.0034155448 -0.02428982
000130 34 cd 96 bc b2 01 2d 3d 7e c9 de 3c 4b ea d4 3c
       -0.018408395 0.042237945 0.027195688 0.025990626
000140 11 40 4e 3c 59 29 df 3c 0a dd a1 bd 21 7c ac bd
       0.012588517 0.027241396 -0.07903488 -0.08422113
000150 ba 74 29 bd 5e 6f 2f be 24 3b a2 bc 21 ef aa 3b
       -0.041371085 -0.17132327 -0.019803591 0.0052164947
000160 30 cc 37 3c b8 f3 72 3b 05 9e e9 3d a6 8d 8c bc
       0.011218116 0.0037071537 0.11407093 -0.017157387
000170 45 cf 07 3d 23 6c 6d bc c3 57 d2 bd bb 32 2d 3d
       0.033156652 -0.014491114 -0.102706455 0.04228471
000180 36 f7 97 3d f7 7d 8e bd 05 08 5c 3c 99 a4 d5 3b
       0.074201986 -0.0695762 0.013429646 0.0065198657
000190 fa 73 a7 bd b3 5b 39 bc ae d3 09 3d 15 1e bf 3d
       -0.08176418 -0.011313367 0.03364914 0.093319096
0001a0 b9 a9 a1 3d e1 ba 77 bd 36 63 a8 bc 22 91 76 bb
       0.078937 -0.060480956 -0.02055512 -0.0037623127
0001b0 9c 3f d4 bb b8 20 22 3e 62 c8 7e 3c b0 b8 22 3d
       -0.0064773094 0.15832794 0.015550705 0.039726913
0001c0 24 22 6d bd 4a 69 bf bd 36 e6 c5 3a b9 44 c1 3c
       -0.057893887 -0.09346254 0.0015098515 0.02359234
0001d0 79 80 8e 3d 00 48 32 bd cb 45 d8 3d ac 73 8c bc
       0.06958098 -0.043525696 0.10560187 -0.017145
0001e0 dc e4 aa bb 24 a4 cf 3d 0e 42 be bc d7 ab ee bd
       -0.0052152704 0.10138729 -0.023224857 -0.116538696
0001f0 2d fd 02 be b5 a7 b6 3c 4c 30 bc 3b 48 80 be bc
       -0.12791891 0.022296766 0.005743062 -0.023254529
000200 a3 25 1c bd be 3d 07 bd 44 30 23 3d 26 ee 88 3d
       -0.03812183 -0.033017866 0.03984095 0.06686048
000210 f1 fe ab bd bb ce 5d bb 30 07 01 3e 3d f9 dc 3c
       -0.083982356 -0.0033845145 0.12600398 0.026974315
000220 0c df dd bd 6b 13 f3 3d 21 e6 69 bd fa 87 9a bd
       -0.108335584 0.11868938 -0.057104234 -0.07545467
000230 e8 10 7a 3d b7 48 4e 3d c2 9a a0 3d 64 0d 87 bd
       0.06105128 0.050362315 0.07842018 -0.06594351
000240 37 4d 34 3d f3 3b 56 bd fc 4d 53 3d 62 ac 27 be
       0.04401895 -0.052303266 0.051588044 -0.16374353
000250 b5 bb 6d bd 3d cf 4b 3d c4 ed 98 bc 6f bd a8 bd
       -0.05804034 0.049758185 -0.018668063 -0.082392566
000260 22 bc 9e bd 9b 69 78 3d 43 c5 aa bc f0 30 eb 3d
       -0.07750727 0.06064759 -0.020846015 0.114839435
000270 e2 0c 87 3c f1 de 50 bd c7 06 8d 3d 20 36 75 bc
       0.016485635 -0.050993863 0.06886058 -0.014966518
000280 f7 b1 e2 3c e4 18 91 3c d8 fb 1b bd 28 c3 3a bd
       0.02767275 0.017712064 -0.038081974 -0.04559627
000290 10 1a 56 bd 93 c3 43 bd 5d 94 fb bb 53 9e 98 3c
       -0.05227095 -0.047793936 -0.0076775984 0.018630182
0002a0 61 f4 1b bd dd b2 b1 3c 67 fc 65 bc 63 fb 34 3e
       -0.038074855 0.021691734 -0.014037228 0.17674021
0002b0 a5 45 4a 3b 77 f2 d5 3d 86 77 96 3c 90 2f 94 bc
       0.0030864265 0.10446637 0.01836754 -0.018089086
0002c0 b2 ce 57 3c b8 21 c1 bd 22 53 b2 3d ad e9 3f 3a
       0.013171839 -0.094302595 0.087072626 0.0007320892
0002d0 67 2d a3 bd 9f 84 63 bb 20 1e 1e 3c e2 6f 42 bd
       -0.07967644 -0.00347165 0.009650737 -0.04746998
0002e0 fe 4c 39 bd 73 ac 24 bd f9 49 70 3d d7 8f c3 3d
       -0.04523944 -0.040203523 0.058664296 0.0954892
0002f0 87 a6 81 bd 61 fa 57 bd fc 4d 23 bd 56 32 93 3d
       -0.06330591 -0.052729014 -0.039869294 0.07187335
000300 d3 a1 ea bc aa f7 25 bb f6 ba 01 3c e4 c4 f0 3c
       -0.028641617 -0.0025324621 0.00791811 0.02939076
000310 35 53 83 3c d9 56 bf 3d 22 3f b9 3d 70 25 91 3b
       0.016030887 0.09342737 0.09045245 0.0044295117
000320 d2 78 19 bd 26 60 02 3e b8 cd b6 bc de 2a 60 bd
       -0.03746874 0.1273199 -0.022314891 -0.05472838
000330 e0 c0 5d bc 27 f5 23 bd 2b e4 a0 bb eb aa 70 bd
       -0.0135347545 -0.040028717 -0.0049100122 -0.05875675
000340 14 79 cc bc c4 6a a6 3d 7f 86 00 bd 18 44 c5 3d
       -0.024960078 0.08125833 -0.031378265 0.096321285
000350 4f da ee bc 9a 17 6f 3c 3c 02 d6 bc 07 22 75 3d
       -0.029156832 0.014593029 -0.026124112 0.059846904
000360 e6 bd a4 3c 78 f5 d1 bd 51 4f aa 3c a3 8e 25 bd
       0.020110082 -0.102518976 0.020789774 -0.040419232
000370 6c 7f 62 bd 2e 05 5f 3d 71 36 8e 3c f9 ad 44 bc
       -0.0552973 0.0544483 0.017359944 -0.012004369
000380 87 99 53 3d 6e 6d 39 3d 04 b7 9f 3d a9 cd a9 bd
       0.051660087 0.045270376 0.07798579 -0.0829118
000390 6d 24 1a bc 50 a2 0f 3d 03 00 5c bc 5c d4 c1 bd
       -0.009408099 0.035066903 -0.013427737 -0.094643325
0003a0 02 16 a7 bd 29 cc 35 be be 2b a4 3d 9e 46 7f 3d
       -0.081584945 -0.17753662 0.08016156 0.062323205
0003b0 89 5f 0e bd df 4b 7f 3d 11 e1 b6 bd 23 3d 64 3d
       -0.03475908 0.062328216 -0.08929647 0.055722367
0003c0 d3 e0 70 bc 95 d3 e0 bc a8 8f 29 3d 19 20 1e bb
       -0.01470204 -0.02744464 0.041396767 -0.0024128018
0003d0 00 5b 86 bd 0b 11 51 bd 3e e4 dc 3c 2c 2d d5 3d
       -0.065603256 -0.051041644 0.026964303 0.104090065
0003e0 99 0f 6b bc 43 40 4e bd 23 0c 63 bb 93 c5 0b bd
       -0.0143469805 -0.050354254 -0.0034644685 -0.03412397
0003f0 1c 69 99 bc 38 25 61 bd 35 99 b3 bd 14 c9 0d 3e
       -0.018726878 -0.054967135 -0.08769456 0.13846236

ablang_branch.0.bias f4 [256]
000000 36 c3 ef 3a da bc 46 3b 55 3c 0c 3c f4 3d 5c 3c
       0.001829243 0.0030324967 0.008559306 0.013442505
000010 5b e7 02 3c f7 d4 f8 3b e9 3f c3 3b 51 34 83 3c
       0.00798973 0.0075937468 0.0059585464 0.016016157
000020 fb 30 98 3b e2 06 86 bb fb 72 04 3b 98 fd ba 3b
       0.004644511 -0.004090176 0.0020210135 0.0057065003
000030 44 88 b3 39 61 e1 84 3b 05 11 2f 3c 5b 11 2e 3b
       0.00034243066 0.0040551876 0.01068521 0.0026560638
000040 97 1b 6f bb 46 70 a1 bb 53 02 22 3b 5f 4a 2a 3c
       -0.003648495 -0.004926714 0.0024720624 0.010393708
000050 f7 c3 73 3b 46 a1 45 bb fa f5 9f bb 61 ba 33 3b
       0.0037195662 -0.003015594 -0.0048816176 0.0027424323
000060 ff 1e c0 3b 35 01 31 bb ce 97 21 3b 82 db 6c bb
       0.00586307 -0.0027008776 0.0024657133 -0.003614158
000070 14 a8 ce 3a ec d0 16 bc ec ad c6 ba 93 f9 96 3c
       0.0015766644 -0.009205084 -0.0015158034 0.018429553
000080 54 b8 a3 3b 93 65 cc 39 f5 f1 b5 3b 2e 0b 03 bb
       0.004996339 0.0003898559 0.005552525 -0.0019995677
000090 62 bd 06 3c 5d 05 20 ba d5 f5 32 3c 62 01 78 3b
       0.008223863 -0.0006104315 0.010922869 0.003784262
0000a0 d0 87 e1 3b 2e e8 9b 3b af 0d af 3b 42 89 97 3c
       0.006882645 0.0047579026 0.0053422074 0.018498067
0000b0 1b 95 72 ba 83 de 6a 3a 8c 8e 40 3b 06 96 33 3a
       -0.0009253786 0.00089595484 0.002938184 0.00068506633
0000c0 d9 17 23 3c 22 b6 70 ba bc e3 12 3c 98 3c 97 3b
       0.009954416 -0.00091824133 0.008965429 0.0046153776
0000d0 a7 37 0b 3b 97 ca 35 bb ee 93 e9 3b bd 35 28 3b
       0.0021242888 -0.002773916 0.0071282303 0.0025666796
0000e0 62 9f 30 3b c1 a5 1c 3b ad 6e 4f 3b 89 bd 41 3c
       0.0026950468 0.0023902508 0.0031651661 0.011824974
0000f0 aa c2 84 3b f7 4a 90 bb cc 2c 89 3b 3c e0 41 3c
       0.004051526 -0.0044034678 0.0041862484 0.011833247
000100 cb 13 dc 3b e1 b4 05 3b dc 02 df 3b 27 72 ad 3b
       0.0067162267 0.0020402002 0.006805761 0.005293149
000110 45 75 cc 3b cb 5c c0 3b d5 36 04 bb ef 1d cd 3b
       0.0062395656 0.005870437 -0.0020174284 0.006259672
000120 08 5a 44 3c d9 35 05 3c ec b2 69 3b df 9b be 3a
       0.011984356 0.008130514 0.0035659624 0.0014542303
000130 74 52 f4 3b 8d d2 d8 3b 6c 75 c5 3b 7c fb 5f 3a
       0.0074561182 0.0066168965 0.0060259607 0.0008544249
000140 03 e5 01 bb 64 89 85 bb 08 8d b0 ba 9b 13 0f 3c
       -0.001982034 -0.004075216 -0.0013469765 0.008732702
000150 e2 65 43 3b 0b f2 a7 3a f2 fc 33 3a 3b 78 24 bb
       0.0029815366 0.0012813223 0.0006866 -0.0025096077
000160 9d 4d 59 3b 7a 95 ed 3a be 2c ca b8 f7 6b 83 3b
       0.0033157833 0.0018126213 -9.6404445e-05 0.004010673
000170 54 8f 1e ba 67 3e c3 ba bf 5b a6 3b fd a9 40 bb
       -0.0006048579 -0.0014895917 0.005076855 -0.0029398196
000180 23 fc 87 ba df b0 28 3c b9 38 22 3c cc ca de b8
       -0.0010374825 0.010296076 0.009901219 -0.00010623559
000190 8e c5 08 3c 50 20 19 3c 71 6c a1 3b ba d2 f3 3b
       0.008347882 0.009346083 0.0049262573 0.007440892
0001a0 61 8e 29 3c f6 4e 97 3b d4 b3 28 3b d1 98 bd bb
       0.010348887 0.004617567 0.0025741952 -0.0057860394
0001b0 6c c4 b9 38 3e c6 11 bb 11 03 cd 3b 9d a2 93 bb
       8.858074e-05 -0.0022243406 0.006256469 -0.004505469
0001c0 91 21 22 3b b2 9b d7 3a d3 99 e8 39 95 12 25 3c
       0.0024739245 0.0016449599 0.00044365096 0.010075231
0001d0 8c 10 4c bb 72 d5 22 3b 09 43 f4 3b c9 5e ca 3b
       -0.0031137792 0.0024846462 0.0074542803 0.00617585
0001e0 74 c4 bc 3b 3d 62 59 3c dc 08 6b 3c 49 f8 a4 3b
       0.0057607237 0.013268051 0.014345374 0.0050344807
0001f0 46 d9 54 3b 64 aa 5f 3b 1a b8 20 3b da 7a 23 3c
       0.0032478138 0.003412866 0.0024523796 0.009978021
000200 e3 d0 4d 3a 76 d3 4a 3b a4 c1 86 3b 9e ea 01 3c
       0.0007851256 0.0030948794 0.004112439 0.007929472
000210 4f 3c 74 3b e2 20 e2 ba e6 68 eb 3b 74 93 9f 3b
       0.0037267392 -0.0017252231 0.0071841357 0.0048698727
000220 bc 4f 46 3c 90 2a 00 3c e2 2b 19 3b c4 9d 76 bb
       0.012103971 0.007822648 0.0023372103 -0.0037630657
000230 1d 81 1a 3c 71 95 e9 bb d4 13 62 3b 9b 0d bf 3b
       0.009430197 -0.0071284105 0.0034496682 0.0058304793
000240 ef d9 d7 3b 3f d2 8c 3c 61 95 0e 3c 68 5d 64 3b
       0.006587259 0.017190097 0.008702607 0.0034845714
000250 e5 d0 03 3b b2 91 ee 3a 2e 17 85 bb 4f 3e 3c 3c
       0.0020113525 0.001820138 -0.004061601 0.011489465
000260 de 1d 0d bb 64 6b b5 3b ff 4f 9c 3b ab 68 c3 3a
       -0.0021532695 0.0055364836 0.0047702785 0.0014908513
000270 76 a3 f6 3b f3 47 f0 bb 8f c8 40 bb 6f 12 49 3b
       0.0075268103 -0.0073327958 -0.0029416417 0.0030681153
000280 73 c6 8e 3b ea 7f 30 3c b5 cd 9b 3a b5 7e f3 3b
       0.004357153 0.010772685 0.0011886867 0.007430876
000290 d7 d9 74 3c 7d 5a a3 3b be 57 dc 3a b5 cc a8 bb
       0.014944515 0.0049851523 0.0016810817 -0.005151356
0002a0 47 47 c1 3b f2 ef 16 bc e7 f3 ae bb 9a 81 a5 3b
       0.0058983895 -0.009212481 -0.005339134 0.00505085
0002b0 a2 62 da 3b 76 c1 78 3b b2 9a f0 38 a7 24 a3 3b
       0.00666459 0.0037957109 0.00011472906 0.0049787345
0002c0 cb 2c 72 39 e0 c1 3b 37 aa ae 04 bb 46 f1 83 bb
       0.00023095605 1.1191209e-05 -0.002024571 -0.004026565
0002d0 50 b2 84 3b cd 3e f9 3b 4d ba c8 3b 1f fd a6 3b
       0.004049577 0.0076063634 0.0061257244 0.0050960924
0002e0 11 e7 d3 3b 3e 62 3f 3c a4 dd 92 3b 61 9b 9c 3b
       0.0064667542 0.011681138 0.004481988 0.004779265
0002f0 d3 35 16 3c 71 c0 4f bb 49 86 08 3c 84 3f 59 3c
       0.009168106 -0.0031700397 0.008332797 0.013259772
000300 56 a3 16 3b 3d 6c 42 3b 72 85 e2 3a f0 23 64 39
       0.002298554 0.0029666566 0.0017282201 0.00021757162
000310 92 2e 5d 3c a1 6f 01 bb 8e 33 74 3a a5 b9 95 3b
       0.013499873 -0.0019750374 0.00093155436 0.0045692497
000320 3b 91 36 3b 65 66 40 3c ea 84 e3 3a c4 77 09 3b
       0.002785756 0.011743163 0.0017358337 0.0020975927
000330 f6 62 31 3c 61 d6 e7 3b 87 dd 6c 3b 94 bd 92 3a
       0.010826817 0.0070751165 0.0036142783 0.0011195415
000340 c9 ab 9c ba 2d 3e 8e 3b d2 3f c9 3b b7 cf 15 3c
       -0.0011953051 0.004340908 0.006141641 0.009143761
000350 cb 91 9d 3b 16 cc 2f 3b 95 66 fa 3b d9 6f 85 b9
       0.0048086396 0.0026824526 0.0076416233 -0.0002545107
000360 5e ba 0e bb 67 a0 1e 3c cc 73 ea 3b 95 0e c6 3b
       -0.0021778564 0.009681798 0.0071549173 0.006044219
000370 7d e2 14 3c b0 7c 5e 3a bf fb 65 3c c6 c3 bb 3b
       0.009087202 0.0008487208 0.014037072 0.005730125
000380 d7 c5 02 3c e3 56 92 3b f8 da a0 3b 08 e0 65 3a
       0.007981739 0.004465924 0.0049089156 0.000876904
000390 ac 56 b9 39 32 cb 52 3b b4 a7 07 bb da 40 9f 3b
       0.00035350525 0.003216457 -0.0020699324 0.004860026
0003a0 e3 9e 48 3c ed 2e 55 3b d3 0a 06 3c 18 20 84 3c
       0.012244913 0.003252919 0.008181292 0.016128585
0003b0 20 a0 d7 3a bd ab 88 3c 54 a3 1c 3a 32 f5 c4 3b
       0.0016450919 0.016683454 0.00059752655 0.006010675
0003c0 01 87 d2 3b 49 3a 41 3b 93 29 1d 3c d2 62 b9 bb
       0.006424785 0.0029484204 0.009592432 -0.0056575323
0003d0 d3 52 ed 3a 95 8b d0 3b 80 49 1c 3c 80 98 09 3c
       0.0018106349 0.0063642957 0.009539008 0.008398175
0003e0 ae 9d 88 3b 68 5f 51 3c 62 bd cf 3b df b6 0e 3c
       0.0041691875 0.012779094 0.006339715 0.008710592
0003f0 e4 2a 2a bb 36 f2 e4 39 5a c7 5d 3b 0f 3f 9e 3b
       -0.0025965506 0.0004366801 0.0033840747 0.0048292945

ablang_branch.1.weight f4 [256]
000000 4e 4b 7f 3f 6b 0c 7a 3f cf 4d 7a 3f 4a 1a 7d 3f
       0.9972428 0.976752 0.97774976 0.9886824
000010 09 ef 80 3f 98 e4 7f 3f e0 f9 82 3f cd 0c 7c 3f
       1.0072948 0.9995818 1.0232506 0.9845703
000020 60 cc 80 3f f8 c6 7b 3f bb 3e 81 3f 7c e2 80 3f
       1.006237 0.9835048 1.0097269 1.0069118
000030 69 80 80 3f 80 0f 81 3f 5e 58 76 3f 73 3e 85 3f
       1.0039188 1.0082855 0.9622859 1.0409683
000040 57 7b 81 3f a6 8f 81 3f 76 2f 7b 3f bc 1d 7e 3f
       1.0115765 1.0121963 0.98119295 0.9926412
000050 1b 0f 77 3f 24 15 7c 3f f7 5f 7a 3f 38 16 86 3f
       0.96507424 0.9846976 0.9780268 1.0475531
000060 15 63 8b 3f 6d e6 7f 3f 44 c6 83 3f 11 08 84 3f
       1.0889612 0.99960977 1.0294881 1.0314962
000070 95 b2 78 3f 85 4d 7d 3f 24 c9 79 3f df c3 7a 3f
       0.97147495 0.9894641 0.9757254 0.97955126
000080 f3 ef 83 3f 63 0e 7a 3f 0f 7d 80 3f 34 7f 77 3f
       1.0307602 0.976782 1.0038165 0.9667847
000090 ca 0c 7d 3f 5a 4e 7b 3f 80 b9 81 3f 8b 88 7f 3f
       0.9884764 0.9816643 1.0134735 0.99817723
0000a0 ae 63 80 3f 58 90 84 3f db 5a 7b 3f db 46 81 3f
       1.003042 1.035655 0.9818551 1.0099748
0000b0 b3 20 86 3f 23 c3 84 3f 71 cb 7c 3f ff cb 79 3f
       1.0478729 1.0372051 0.98747927 0.975769
0000c0 e6 20 81 3f 57 98 7b 3f a1 77 7c 3f c1 16 7e 3f
       1.0088165 0.9827933 0.9862004 0.9925347
0000d0 b4 b6 78 3f 13 2d 87 3f 0f 99 7e 3f 81 17 83 3f
       0.9715378 1.056063 0.994523 1.0241548
0000e0 cc 56 82 3f 77 dc 7b 3f d4 12 7c 3f e2 8b 84 3f
       1.0182738 0.9838328 0.9846623 1.0355189
0000f0 fa a4 7d 3f c9 41 7f 3f c5 55 7f 3f 92 67 81 3f
       0.9907986 0.99709755 0.9974025 1.0109732
000100 84 81 85 3f 3e 43 80 3f c3 b1 80 3f 93 1b 84 3f
       1.043015 1.0020521 1.0054249 1.0320915
000110 25 83 7e 3f a7 51 81 3f 93 2f 80 3f 56 25 7f 3f
       0.9941886 1.0103043 1.0014518 0.99666345
000120 17 a4 89 3f 61 7b 80 3f 40 b8 79 3f 51 60 7e 3f
       1.0753201 1.0037652 0.9754677 0.9936572
000130 14 ff 82 3f 24 2f 7b 3f 6b 40 7e 3f 7d c9 82 3f
       1.0234094 0.98118806 0.99317044 1.0217739
000140 2f 96 87 3f 18 f2 81 3f 09 ef 80 3f 37 be 7d 3f
       1.0592707 1.0152006 1.0072948 0.9911837
000150 c3 96 7b 3f 16 2e 83 3f 68 61 7d 3f 13 b0 7c 3f
       0.9827692 1.0248439 0.98976755 0.9870617
000160 e6 f2 77 3f de 4d 7d 3f 7d 88 7e 3f ac 89 7d 3f
       0.9685501 0.9894694 0.99427015 0.99038196
000170 d5 6f 79 3f 83 71 83 3f d0 9f 81 3f ec 53 7d 3f
       0.9743627 1.0269016 1.0126896 0.9895618
000180 5a 5d 7e 3f 09 f0 8c 3f b7 d1 7b 3f 1b 54 7d 3f
       0.99361193 1.1010753 0.98366874 0.9895646
000190 40 f6 7b 3f 98 a7 88 3f 9c aa 7b 3f 98 26 84 3f
       0.9842262 1.0676146 0.98307204 1.0324278
0001a0 75 1d 7f 3f 07 df 77 3f d4 7f 7d 3f 63 fb 81 3f
       0.9965432 0.9682469 0.99023175 1.0154842
0001b0 aa ac 81 3f a6 a0 75 3f bb a3 76 3f 08 70 7c 3f
       1.0130818 0.95948255 0.9634358 0.98608446
0001c0 7f 29 81 3f 08 2a 79 3f 5e 53 85 3f 41 7a 84 3f
       1.0090789 0.9732976 1.0416067 1.0349809
0001d0 24 34 7e 3f 30 80 7c 3f ea e4 7e 3f 1a 04 7f 3f
       0.9929831 0.986331 0.99568045 0.99615633
0001e0 54 27 82 3f 07 0e 80 3f e6 0c 81 3f e8 f0 7f 3f
       1.0168252 1.0004281 1.0082061 0.9997697
0001f0 93 b6 82 3f 24 4d 81 3f b9 e9 8f 3f b0 95 7d 3f
       1.0211967 1.0101666 1.1243201 0.9905653
000200 cf 4b 89 3f f8 59 84 3f c1 52 84 3f 81 41 81 3f
       1.072626 1.0339956 1.0337754 1.0098115
000210 78 12 81 3f d1 46 80 3f 5d 77 84 3f 13 9e 81 3f
       1.0083761 1.0021611 1.0348927 1.0126365
000220 fd 9d 7e 3f 67 60 7f 3f 2b 33 85 3f 65 4b 78 3f
       0.9945982 0.99756473 1.040624 0.9699004
000230 3e f7 84 3f 4e 48 80 3f d3 e3 83 3f ac 6a 81 3f
       1.0387952 1.0022066 1.0303901 1.0110679
000240 35 78 86 3f 5e 6c 89 3f c1 fb 7e 3f d6 01 7d 3f
       1.0505434 1.0736196 0.99602896 0.98830926
000250 5a f8 80 3f cc e7 7d 3f 17 8d 81 3f 07 2b 83 3f
       1.0075791 0.9918182 1.0121182 1.0247506
000260 aa e2 81 3f c9 f1 90 3f 5c eb 7e 3f c6 8e 7b 3f
       1.0147297 1.1323787 0.9957788 0.9826473
000270 06 0d 82 3f 05 7e 76 3f 20 e6 7c 3f a8 d7 7d 3f
       1.0160224 0.9628604 0.9878864 0.9915719
000280 92 6b 7f 3f 41 64 7f 3f 7d ed 7e 3f 98 ed 7c 3f
       0.99773514 0.9976235 0.9958113 0.9880004
000290 b8 bc 85 3f dc 47 7f 3f 70 49 7e 3f 87 16 7e 3f
       1.0448217 0.99719024 0.99330807 0.99253124
0002a0 fe c3 84 3f b5 0a 80 3f 71 42 77 3f 8e ab 75 3f
       1.0372312 1.0003268 0.96585757 0.95964897
0002b0 21 68 7b 3f 7a a8 81 3f 74 60 84 3f d8 7d 7d 3f
       0.98205763 1.012954 1.0341935 0.9902015
0002c0 a2 c1 7b 3f 6e fa 79 3f 40 e6 7d 3f 17 68 7d 3f
       0.98342335 0.9764775 0.9917946 0.98986953
0002d0 1a 10 81 3f af 44 78 3f 48 84 83 3f 54 2a 81 3f
       1.0083039 0.969798 1.0274744 1.0091043
0002e0 ab d3 75 3f ce 55 79 3f 2b 66 79 3f 19 93 84 3f
       0.96026105 0.9739655 0.9742152 1.0357391
0002f0 c3 1a 79 3f 93 f6 7e 3f ce 8a 7d 3f 5a 33 7f 3f
       0.9730646 0.9959499 0.99039924 0.9968773
000300 43 b3 86 3f 71 7b 7e 3f 97 47 7f 3f 54 e2 7c 3f
       1.0523456 0.99407107 0.9971861 0.9878285
000310 e0 8f 8d 3f eb 42 7c 3f a4 17 81 3f 87 86 7c 3f
       1.1059532 0.9853961 1.008534 0.9864277
000320 df 95 7a 3f 60 e5 8e 3f b9 55 7b 3f 48 2b 7c 3f
       0.97884935 1.116375 0.9817768 0.9850354
000330 74 a2 7d 3f a7 71 85 3f 30 06 80 3f a0 56 7d 3f
       0.9907601 1.0425309 1.0001888 0.98960304
000340 cf b9 77 3f 8f 27 7f 3f 62 aa 80 3f f4 40 7f 3f
       0.96767896 0.99669737 1.0051997 0.99708486
000350 33 3d 7f 3f 8a 00 7e 3f f5 8c 81 3f c0 92 83 3f
       0.9970276 0.9921957 1.0121142 1.027916
000360 7f 24 7b 3f 48 2e 81 3f 01 91 7e 3f 7a 13 80 3f
       0.98102564 1.0092249 0.9944001 1.0005944
000370 38 b7 78 3f 5c 58 80 3f e9 42 7b 3f 60 97 7b 3f
       0.9715457 1.0026965 0.9814897 0.98277855
000380 17 e6 7e 3f eb d5 80 3f 68 63 7b 3f 0d 4e 7d 3f
       0.9956984 1.0065283 0.98198557 0.9894722
000390 18 c8 7d 3f 15 65 76 3f 9f 40 80 3f df f0 83 3f
       0.99133444 0.9624799 1.0019721 1.0307883
0003a0 1e 5c 84 3f 05 3a 82 3f e0 08 7a 3f 09 71 7d 3f
       1.0340612 1.0173956 0.9766979 0.990006
0003b0 43 15 79 3f aa 20 86 3f f5 79 7a 3f 90 49 7f 3f
       0.9729807 1.0478718 0.9784234 0.9972162
0003c0 17 f0 7f 3f a1 44 7a 3f e7 2f 80 3f 00 bf 7c 3f
       0.99975723 0.9776097 1.0014619 0.9872894
0003d0 c2 da 81 3f 99 81 8a 3f c5 1f 83 3f ad e1 7e 3f
       1.0144885 1.08208 1.024407 0.99563104
0003e0 63 1f 78 3f 0e 6c 7e 3f d9 34 78 3f bf a5 7e 3f
       0.9692289 0.9938363 0.9695564 0.9947166
0003f0 c0 f1 75 3f fc 18 7d 3f fb 3a 7d 3f b0 ff 7f 3f
       0.96072006 0.9886625 0.9891812 0.99999523

ablang_branch.1.bias f4 [256]
000000 3e 71 ce bb ab 51 e6 bc 73 56 3e bc 74 d1 69 ba
       -0.0063001206 -0.028115114 -0.011617291 -0.00089194556
000010 30 99 f0 bb bb af a7 bc 51 e8 84 bc e4 0a c2 3b
       -0.00734248 -0.020469537 -0.016224058 0.0059217084
000020 51 ec 16 bb b4 e9 91 bc d7 c3 c0 ba d8 82 c1 bc
       -0.002302904 -0.017811634 -0.0014706802 -0.023621961
000030 ec 2f 33 bd e1 46 9b bc 0f 85 0d bd 64 3c e1 b9
       -0.043746874 -0.018954696 -0.034550723 -0.0004296034
000040 95 8e 0d bc 9d 61 87 bc db 19 74 bc 8a 56 9b 3b
       -0.008639951 -0.016526038 -0.014898743 0.004740541
000050 15 2c ab bc c7 38 a3 bc 30 2f 4e bc 81 2e 00 bd
       -0.020895043 -0.019924534 -0.012584493 -0.03129435
000060 24 ef 8a bc 59 f9 01 bc 66 af a2 ba 56 3f f2 bc
       -0.016959734 -0.007932984 -0.0012411892 -0.029571217
000070 b8 9a 2a bc f7 01 85 bc a4 a9 da bc 37 d1 86 bb
       -0.010412864 -0.016236288 -0.02669222 -0.004114296
000080 33 d8 74 bb 1b ed fb bb 4d 7c a6 bc 4e 1e 2d bc
       -0.003736031 -0.0076881773 -0.020322943 -0.010566307
000090 86 20 bd ba 32 8b bf bc 0c 3f b1 bb dd 14 f2 bc
       -0.0014429248 -0.023381803 -0.005409127 -0.029550964
0000a0 ea 4a 6b bb 08 48 ab ba e9 6e 43 bb 8e b2 55 bb
       -0.0035902807 -0.0013067732 -0.0029820746 -0.0032607648
0000b0 53 24 21 bc 3e e9 7a bc 70 79 9c bc b5 1d 2d bc
       -0.0098353205 -0.015314398 -0.019100875 -0.010566165
0000c0 98 35 88 bc 74 e5 57 bc 92 41 e7 bc dd 2e 17 3b
       -0.016627118 -0.0131772645 -0.028229509 0.0023068704
0000d0 a5 9f 7d bc df 8b fb bc 40 e5 b6 bb 47 d8 0f bc
       -0.015479957 -0.030706344 -0.005581528 -0.008779592
0000e0 93 65 57 bb c6 7b 74 bc 0a ef 20 bc e1 b4 34 3c
       -0.003286694 -0.014922088 -0.009822616 0.011029453
0000f0 07 44 af bc 92 60 1a bc 7d 70 ab bb f0 a2 c4 3b
       -0.021394743 -0.009422438 -0.0052319155 0.006000869
000100 91 bf b0 3b d2 46 3a bb 23 90 90 bc 67 7e 10 3b
       0.0053939302 -0.002842356 -0.017646855 0.0022047998
000110 b2 d8 ab ba 14 cb f9 ba 39 18 96 bc 77 e0 98 ba
       -0.0013110845 -0.0019057714 -0.018322097 -0.0011663575
000120 e3 22 4d 3c dd 9e d6 bb 1f d7 8c bc 52 a1 12 bc
       0.012520525 -0.0065496997 -0.017192421 -0.008949595
000130 9d c0 ca bb 5d d0 f6 bc 18 28 0e bd 8a 25 58 bb
       -0.006187512 -0.030128652 -0.034706205 -0.003298136
000140 0a 04 bc bb d4 8a c7 bb 5d 41 9e bc 04 9a 6b bc
       -0.005737786 -0.0060895476 -0.019318277 -0.014379982
000150 b7 94 13 bc ba 51 10 bc 4e 77 8a bb 3d 5c 32 bc
       -0.009007624 -0.008808548 -0.004225648 -0.010886249
000160 f0 8f 01 bc 0f 22 aa bc 48 f0 ba bb 38 54 fc bb
       -0.0079078525 -0.020768194 -0.0057049133 -0.0077004693
000170 3d d3 a2 bc c1 e6 46 bc 3d ec 91 3b 73 b2 7c bc
       -0.019876117 -0.012139977 0.0044532106 -0.015423405
000180 74 d0 37 bc 41 03 67 3b 73 46 99 3b f7 9f a4 bc
       -0.011219133 0.0035249742 0.0046775877 -0.020095808
000190 16 0d f5 bc 28 2a f9 3b 8f 6f a0 bc d2 78 fb bc
       -0.029913466 0.0076039024 -0.019584445 -0.03069726
0001a0 22 8d 8d bb 7c 6e 16 bc d6 12 65 bc 13 e4 0c bc
       -0.004319803 -0.009181615 -0.013981542 -0.008599299
0001b0 30 8b 71 bb 3f ae 95 bc 06 a8 d2 bb 12 b0 9a bc
       -0.0036856644 -0.018271564 -0.0064287214 -0.018882785
0001c0 ce 7c 06 bc 54 5e c4 bc 3c 51 f2 bb ba 0a d6 3b
       -0.008208467 -0.02397076 -0.007394938 0.0065320404
0001d0 37 69 e5 bc d4 90 09 bc 62 89 40 3b e2 f2 8a 3b
       -0.028004272 -0.008396346 0.0029378762 0.0042403797
0001e0 40 fd 90 bc d4 c3 c6 3b 1f 84 3f 3b 1b 64 06 bb
       -0.017698884 0.006065825 0.0029223037 -0.0020506445
0001f0 6c 5e 16 bc 08 7b b3 bb 3b 74 d3 bb 36 48 15 3b
       -0.009177785 -0.005477313 -0.0064530647 0.0022778637
000200 92 11 d6 bc fc 90 2f bc bf 00 b1 ba c4 22 1c 3b
       -0.026131425 -0.010715719 -0.0013504251 0.0023824433
000210 0a dc 17 3a 11 78 a7 bb 15 11 e2 bb e4 84 36 3b
       0.0005792981 -0.0051107486 -0.006899009 0.0027850205
000220 94 b1 17 3c 20 9b ac bc 7e a7 19 bd 85 48 0c bd
       0.0092586465 -0.021070063 -0.03751325 -0.034248848
000230 89 e9 5a 3c 62 3e 0c bc ca 1e 31 bc 47 39 40 ba
       0.013361343 -0.008559795 -0.010810563 -0.0007332754
000240 eb 19 32 bc 62 71 8b 3c 42 94 9e bc 9e 40 a7 bb
       -0.010870437 0.017021839 -0.019357804 -0.0051041385
000250 e1 a9 80 bb c1 24 39 bb 7c f6 6d bc 94 ba 5b bc
       -0.003926501 -0.0028250667 -0.0145240985 -0.013411183
000260 14 1e ed bb 0b ad 02 bc 5b 79 c4 bb a6 fb 80 bc
       -0.0072362516 -0.007975827 -0.005995912 -0.015744995
000270 b1 cf de 3b d8 76 c1 bc 9c 4d b5 bc d0 4c a9 bb
       0.006799661 -0.02361624 -0.022131734 -0.0051666275
000280 af 33 fb ba c7 3c a2 bc 19 de 97 bc b0 10 c5 bb
       -0.0019165183 -0.019804372 -0.018538522 -0.006013952
000290 7c 7d 53 3c e0 14 a4 bb c7 4f 96 bb ee 70 95 bc
       0.012908336 -0.0050073713 -0.004587147 -0.018242326
0002a0 55 8c 82 ba b3 01 aa bc f8 97 bd bc 36 93 00 bd
       -0.0009960035 -0.020752763 -0.023143753 -0.03139039
0002b0 50 3f 12 bb 44 1c 27 bb a8 15 e3 bc 95 cc 0d bc
       -0.002231557 -0.0025499025 -0.027720287 -0.008654733
0002c0 de f2 a1 bc 74 bc a9 bb b9 09 a8 bc 69 34 4e bc
       -0.019769128 -0.005179936 -0.020512449 -0.012585738
0002d0 70 0d 04 bc 9e 8a e5 bc 26 08 af 3b 9a 1c 77 bb
       -0.008059844 -0.0280202 0.0053415475 -0.0037706257
0002e0 bb fa 8a bc 57 2f 58 bc 1d 74 91 bc 18 cb 9f bc
       -0.01696526 -0.01319488 -0.017755562 -0.019506022
0002f0 e4 c6 c3 bc e1 63 ef bc 67 db 8b bc 1e dd e3 bb
       -0.02389855 -0.02922243 -0.017072393 -0.0069538495
000300 7c 67 6b bb d2 81 66 bc 33 3b fe bb a3 90 df bb
       -0.0035919836 -0.0140690375 -0.007758522 -0.006822662
000310 2c f8 bb 3a b9 ec fa bc 8b 31 a7 bb 24 82 b0 bc
       0.0014340929 -0.030630456 -0.0051023415 -0.02154643
000320 1a b2 b7 bc 26 d8 eb bb f1 3f cc bc fc 52 5d bc
       -0.022423793 -0.0071973978 -0.024932833 -0.013508555
000330 a6 37 2d 3b 76 91 04 bc ec 17 0f bc f0 08 d4 bb
       0.0026430874 -0.008091321 -0.008733731 -0.006470792
000340 77 68 c0 bc 22 b5 2d bc 8c 84 17 bc f7 ca f0 bc
       -0.023487313 -0.010602267 -0.00924791 -0.029393656
000350 52 34 99 bb ba a1 f8 ba 4a 58 58 3b 7a 01 8b bc
       -0.0046754265 -0.0018969097 0.0033011609 -0.016968478
000360 1b 74 97 bc 37 91 8a bb 79 c0 6c 3a 2d 8e db ba
       -0.01848798 -0.0042287367 0.0009031366 -0.0016750746
000370 0e ed fd bc 1d a8 cf bb 8d 2b 81 bc 84 e3 7a bc
       -0.030996826 -0.0063371793 -0.015767837 -0.015313033
000380 1a 71 5d bc 6d bd a5 bc 0c 35 a3 bb bb dd 92 bc
       -0.013515735 -0.020231927 -0.004980689 -0.017927995
000390 91 55 af bb af 3c c7 bc 15 b6 d3 bc 25 de 0b bc
       -0.0053507765 -0.024320928 -0.02584366 -0.00853685
0003a0 d3 c1 7d 3b f8 d8 8a b9 72 52 61 bc b7 20 3a bc
       0.0038720265 -0.00026483065 -0.013752567 -0.011360339
0003b0 89 58 cb bb b1 1a c2 b9 b4 c9 e8 bc e5 4e e5 b9
       -0.0062056226 -0.0003702245 -0.028416492 -0.00043737065
0003c0 5f aa e6 bb 9b 50 13 bc 46 b9 54 ba fe 51 e8 bc
       -0.007039353 -0.008991386 -0.0008114766 -0.02835941
0003d0 1f 4e 10 bc c2 71 3e 3b df 73 26 bc 60 eb c3 ba
       -0.008807688 0.0029059504 -0.010159462 -0.0014947467
0003e0 7e 51 74 bc 2c 24 e7 3b 56 25 d2 bc a7 d0 41 bc
       -0.014912007 0.0070538726 -0.025652569 -0.011829532
0003f0 a6 40 c9 bc d2 1f 89 bc a5 f7 94 ba 18 e4 af ba
       -0.02456696 -0.016738806 -0.0011365308 -0.0013419418

ablang_branch.4.weight f4 [128, 256]
000000 1d 18 db 3d 1a e5 2e 3d 8c ef de 3c dd 13 4f bd
       0.106979586 0.042698957 0.027213834 -0.050556052
000010 1a a9 bb bd 6f e3 ec bd 30 66 e1 bd 25 4b e5 bc
       -0.09163113 -0.11566817 -0.11005819 -0.027989933
000020 ba 7b bf 3d 62 20 b9 bc 9c 89 ae 3c 22 4e 94 3d
       0.09349771 -0.02259845 0.021305852 0.07241465
000030 d7 f2 1d bd ba 48 ed bd d6 67 05 3d 3c e3 88 3d
       -0.03856167 -0.11586137 0.03256973 0.066839665
000040 9e a5 13 3d 8b f3 83 bd 50 2f c7 bd ac 6f 2e be
       0.036046617 -0.064429365 -0.09725821 -0.17034787
000050 35 24 b0 3b e4 09 1c 3d 16 38 ca bc 52 19 09 bd
       0.00537541 0.03809537 -0.024684947 -0.033471413
000060 80 92 57 3d e6 13 18 bc 1a fa cd bd de d5 1b 3d
       0.052629948 -0.009282088 -0.10057469 0.038045757
000070 cd 45 a2 3c 36 b5 16 be a6 ef 94 bd 47 dc bf 3d
       0.019808674 -0.14717564 -0.07272272 0.093681864
000080 46 39 37 3d 64 ab 3d bd e7 cc 0b bc 9b e3 f4 bc
       0.044732355 -0.04630603 -0.008532739 -0.029893687
000090 73 bd a8 bd 39 c8 17 3d 73 c0 e1 bd 0d 80 1a bd
       -0.082392596 0.03705618 -0.11023035 -0.037719775
0000a0 6a 3a 3a be 0e 14 33 3e 63 42 85 3d 94 4d 28 bd
       -0.18186346 0.17488119 0.06506803 -0.04108961
0000b0 cb f5 23 3e 87 e8 18 bd 3d 37 00 3e 64 21 a5 3d
       0.16011731 -0.03733113 0.12521072 0.080630094
0000c0 58 b2 71 3d 3b b9 12 3d d5 db 18 3d d5 16 09 be
       0.059007972 0.03582118 0.037319023 -0.13387616
0000d0 0c e5 8e bc 38 bf 25 3e 55 d0 14 3d 33 29 af 3b
       -0.017443202 0.16186225 0.036331493 0.0053454875
0000e0 97 9f 6e 3c 60 5d 67 b8 ee fa 0b be e3 f0 7f bb
       0.014564416 -5.5161654e-05 -0.13669941 -0.0039053492
0000f0 c1 98 9d bd e3 cc ad 3b da 66 2f 3c a2 9b 23 bb
       -0.07695151 0.0053039654 0.010705674 -0.002496459
000100 4c 0f d1 bd 68 8c ce bc ae 15 22 be 9e 08 82 bd
       -0.10207996 -0.025213435 -0.15828583 -0.063493
000110 0f 27 5a 3a 09 c3 0c 3d 89 9e 73 3e e7 5d ec 3c
       0.000832186 0.034365688 0.23790945 0.02885337
000120 4b 47 0a ba e3 19 86 bd 6d 06 bc bd 13 1b a1 bd
       -0.00052749057 -0.06547906 -0.09180913 -0.07866492
000130 0b 5b c7 3d 16 d4 55 bd 14 80 b6 bd f1 42 65 3c
       0.09734162 -0.052204214 -0.08911148 0.013993011
000140 14 8f 17 be bb 21 d0 bc a3 f2 25 bd 62 fc a3 bd
       -0.14800674 -0.025406709 -0.0405146 -0.080071226
000150 ad e8 07 bc 35 ec 85 3b 44 39 00 be fa 49 1a 3d
       -0.00829522 0.004086996 -0.12521845 0.037668206
000160 ee cd 8e 3d 43 dd 83 3b 9e af 4b bd 7e f5 11 bd
       0.06972872 0.004024179 -0.04972803 -0.03563451
000170 4c 46 57 bd a1 07 14 3d b2 7f a0 bc 50 bd df bd
       -0.052557275 0.036140088 -0.01959214 -0.1092478
000180 63 47 d8 3d 39 fa 03 be 32 58 a0 bb 0a 5f b6 bd
       0.10560491 -0.12888421 -0.004893326 -0.08904846
000190 8b 01 c4 bd 25 00 af 3d 51 5f 47 bc 89 df 2d bd
       -0.09570607 0.085449494 -0.012168721 -0.042449508
0001a0 24 ca 18 be a9 6d dd 3d fa 06 4d 3e 5b 21 0e bd
       -0.1492086 0.10811932 0.20022193 -0.03469978
0001b0 24 16 1e be 69 1e 37 3e 98 aa 67 3c 19 ee 4d 3e
       -0.15438133 0.17882694 0.014139794 0.20110358
0001c0 30 e1 96 bc 23 6d 15 bd 48 ba e4 bd d4 5f 21 bd
       -0.018417925 -0.036481034 -0.11168343 -0.03939803
0001d0 00 55 b6 3d 16 68 ac bd 0f 1f 8d 3c c5 e6 8c bd
       0.08902931 -0.0841829 0.017226724 -0.06879953
0001e0 28 46 04 3e ca 98 51 bd e3 ae b7 bd bf 0f b0 bd
       0.12917387 -0.0511711 -0.08968904 -0.08596753
0001f0 9e a4 bb 3d f1 ee 75 bd 9a cb 8e 3d 04 cb 91 bd
       0.091622576 -0.060042325 0.06972428 -0.071188
000200 5e 00 46 3d d0 58 52 3d e5 46 51 bc 09 06 25 3e
       0.048340194 0.05135423 -0.01277325 0.16115583
000210 8e 2a 2b bd 40 04 0d bb 9a f4 dd bc 47 be b5 3c
       -0.04178863 -0.0021517426 -0.027094174 0.022185458
000220 22 c0 33 be 38 82 b8 3d 53 21 45 bd 8f 6e b4 bd
       -0.17553762 0.09009212 -0.048127484 -0.0881015
000230 d2 6e 5e bd e9 99 54 be 40 d9 a6 bd d3 b4 b1 3d
       -0.054304905 -0.20761837 -0.08146906 0.086770676
000240 c6 e0 9e bd aa 57 f7 3d 27 92 0a be bd 1c 85 bb
       -0.07757716 0.120772675 -0.13532315 -0.0040622638
000250 51 2a ef bc 5f 5c 45 3d 0b f5 82 bd 39 21 a0 bc
       -0.029194983 0.048183795 -0.063943945 -0.019547092
000260 47 15 0c bd 66 c9 f1 bd 38 2d b9 bd 81 d5 83 bd
       -0.03419998 -0.11805992 -0.09041828 -0.06437207
000270 eb 49 d6 3b 1b 27 23 3e 6f d1 3e 3e 4d 19 94 bb
       0.0065395734 0.15932886 0.1863458 -0.0045196177
000280 12 04 a0 bc 28 f8 15 be 43 4e bf bc f5 2f c5 bd
       -0.01953319 -0.14645445 -0.023352748 -0.09628288
000290 e8 48 cf bc 8e 8b 08 3d cf 88 89 bd b6 a6 7d ba
       -0.02530332 0.033336215 -0.06715547 -0.0009676026
0002a0 e4 58 16 3d b8 bd a5 3d ea 8e 40 3d 53 eb 60 b9
       0.036705866 0.080928266 0.047011293 -0.0002144997
0002b0 ed d0 29 3d 8d 60 1e 3c 1e a7 68 be 17 66 ab bd
       0.041459013 0.009666574 -0.2272 -0.083690815
0002c0 de f5 69 bd 34 51 65 bd 5b 9b 95 3d 3f a9 26 3b
       -0.057119243 -0.055985644 0.07305022 0.0025430468
0002d0 7c 02 f6 bd 8e 68 5f 3d 64 b4 1b bd 1e e7 a4 3d
       -0.120121926 0.05454307 -0.03801383 0.080518946
0002e0 48 35 84 3c ac 0e 4a bd ed 47 00 3d e9 e6 d7 bc
       0.016138688 -0.0493304 0.031318594 -0.026355224
0002f0 2b e7 f2 bc 3b 5c 0a 3e 58 92 76 3d 46 bd 00 be
       -0.029651245 0.13511746 0.060198158 -0.12572202
000300 89 cd 88 3c 6e 22 ab bd 05 3f a3 3c 90 fe 9d 3c
       0.01669957 -0.08356176 0.019927511 0.019286424
000310 9f d6 22 bb 02 21 06 be 11 d6 1b bd 9a 1c 5e ba
       -0.0024847162 -0.13098529 -0.038045947 -0.000847289
000320 0c cd 88 bd 85 76 af 3d 55 1f e1 3d 61 96 5d 3d
       -0.066797346 0.08567528 0.10992304 0.05409849
000330 0f ac 27 3b 60 01 d2 bc 7a 92 eb 3d e1 c7 75 be
       0.0025584733 -0.025635421 0.115025476 -0.24002029
000340 0c e9 70 bd f9 35 5a 3d 92 cb ed bd cd ca 35 bb
       -0.058816 0.05327413 -0.116110936 -0.0027739287
000350 c4 dc d4 bc 7a 44 08 3d c3 02 06 3d cc ab 9b 3d
       -0.025984176 0.03326843 0.032717478 0.07601127
000360 99 ab d2 3c 44 12 20 bd a4 4f f2 bb 0e 72 15 3d
       0.02571659 -0.03907992 -0.007394748 0.036485724
000370 ad f7 01 3d 35 13 ed bd 14 7d 07 3d 03 a4 a2 bd
       0.031730343 -0.11575929 0.03307827 -0.07941439
000380 0b bc 86 be 77 7f 7e 3b 4c d3 dc bd 88 57 ca 3b
       -0.2631534 0.00388333 -0.10782489 0.0061749853
000390 c6 78 0e be 1e 4e 68 3c 6f 5a 19 3d c9 7f 41 3b
       -0.13913259 0.014178781 0.03743976 0.0029525629
0003a0 32 4d a6 3c 65 19 9b bd 66 7c 1e bd 6a 9d 10 3d
       0.020300481 -0.07573203 -0.038692854 0.03530637
0003b0 00 ae d2 3c b5 dd c3 bd a1 c4 90 bd ab 64 ab bd
       0.025717735 -0.09563772 -0.07068754 -0.0836881
0003c0 bf b0 a1 bd e1 6f cd bb a8 bb 1d 3e a5 e6 09 3c
       -0.0789504 -0.0062694405 0.15403616 0.008416806
0003d0 bd 72 10 3e fd 10 04 3d 65 da 03 be 21 c1 91 bd
       0.14106269 0.032242764 -0.1287628 -0.071169145
0003e0 49 39 40 bd 19 00 84 bd 77 49 b5 bb 71 87 47 bc
       -0.04692963 -0.06445331 -0.0055324393 -0.012178288
0003f0 72 44 16 3e a4 93 ab 3d 60 3a 61 3e 33 be 69 bd
       0.14674547 0.083777696 0.21994925 -0.057066154

ablang_branch.4.bias f4 [128]
000000 16 67 07 bd b5 89 a6 bc be f1 f0 ba d6 42 92 bc
       -0.033057295 -0.020329336 -0.0018382592 -0.017854135
000010 59 23 04 bd 8f cb e7 3c f2 ac 5a 3c ca d0 36 bd
       -0.032260273 0.028295306 0.013346897 -0.04463271
000020 19 08 72 3d 83 2c 64 3c de 31 eb bc 29 a0 18 bd
       0.059089754 0.013926628 -0.028710302 -0.037262116
000030 cd 84 5e 3d 5d 6c 37 bd 11 4a c6 bb d9 0a 40 3c
       0.054325867 -0.044781078 -0.00605131 0.011721336
000040 ab 43 75 3c 7e 63 b2 bc 71 a9 00 3d 03 36 cf 3c
       0.014969747 -0.021775957 0.031411592 0.02529431
000050 22 ca b2 bb d9 0a 77 bc b7 b5 c0 3c 8b 8c 0e bc
       -0.005456225 -0.01507827 0.023524148 -0.0087005
000060 55 5e 9c bc 2b 70 d3 ba 89 54 7e 3c 9a 51 cf ba
       -0.01908795 -0.0016131451 0.015523084 -0.0015817166
000070 9b b5 b4 bc df d0 c4 bc 32 8a 97 3b 66 a6 b7 bc
       -0.022059252 -0.024025379 0.0046246285 -0.022418212
000080 17 ce 2f 3c bc 03 4e bb a1 0a 51 bc 71 1c 46 bd
       0.010730288 -0.0031435331 -0.012758882 -0.048366968
000090 58 65 8b bc 74 3e 26 3a 91 c4 82 bc 9e b5 a0 3c
       -0.017016098 0.00063417037 -0.01596287 0.019617852
0000a0 06 d3 23 bc 51 58 c8 3c e7 b4 d2 bc 2c 0c 84 bc
       -0.009999042 0.024456175 -0.025721027 -0.016119085
0000b0 7f 7e 67 bc 51 55 2d bc 15 f4 4b 3c 22 30 b5 bc
       -0.01412928 -0.010579423 0.01244833 -0.022117678
0000c0 bc 42 c4 bc 4b 98 ee bc 6b 90 c5 3b 4f d5 a5 3c
       -0.023957603 -0.029125353 0.006029179 0.020243315
0000d0 e5 87 32 bd 1d 11 f6 bc 47 df bc bc 5f 4b 2a 3c
       -0.04358663 -0.030037457 -0.023055686 0.010393946
0000e0 f0 1e 4d bc dc 0b b0 bc 58 d8 07 bd 50 e7 1f 3b
       -0.012519583 -0.02149003 -0.033165306 0.0024399348
0000f0 b1 8d a2 3c 20 ce 93 bc 00 7f bf bc ba 6b 09 bd
       0.019842954 -0.018042624 -0.023375988 -0.03355
000100 75 f7 8b 3c 9f 80 8d bc bb 4e 5c 3c 4b 64 8d bc
       0.01708577 -0.017273245 0.013446505 -0.017259737
000110 b7 f9 6c bb be 2a 96 bc e5 6a 57 3c 94 2c 93 bb
       -0.0036159584 -0.018330928 0.013148044 -0.004491398
000120 c9 40 f9 3b 1c c4 1e 3b 69 2a 6c bc 9f fd ac 3b
       0.0076066 0.0024225777 -0.014414408 0.0052792574
000130 d9 8f 50 3c b7 04 00 bd b5 6e a9 bc 04 58 c6 bc
       0.012729608 -0.031254496 -0.020682672 -0.024211891
000140 33 8d b7 bb a3 28 1d bd 34 58 a8 3c fa 98 f2 ba
       -0.005601549 -0.038368832 0.020549871 -0.0018508725
000150 6d d0 c4 bc 92 b4 29 bc 70 cb dc bc 5d a5 12 bc
       -0.024025166 -0.010357993 -0.026952475 -0.0089505585
000160 fc 58 20 bd d7 f5 1a bd 3f 7b 9c b8 64 91 88 bc
       -0.039147362 -0.037832107 -7.461616e-05 -0.01667089
000170 84 08 74 3c 76 fd 6c bc 43 f7 92 bb 38 d8 07 3d
       0.014894608 -0.014464727 -0.0044850423 0.033165187
000180 a0 10 15 3d 9c 82 e8 bb af 0d d4 bb e3 ee 5e 3c
       0.036392808 -0.007095648 -0.006471358 0.01360676
000190 7e b0 f4 ba 4d 37 b2 bc 99 39 85 3c 69 7f 2e bc
       -0.0018668321 -0.021754885 0.016262816 -0.010650494
0001a0 94 16 b8 3c 51 23 69 bc 99 b4 06 3d cf 58 e8 bc
       0.022471704 -0.0142296115 0.032887075 -0.02836266
0001b0 12 b5 8c bc 16 79 9a 3c 80 92 75 bc dd ba 2b 3d
       -0.017176185 0.018856566 -0.014988542 0.041926254
0001c0 71 d0 37 ba 78 4e 11 bd 66 94 af 3a 9b 0c ca bc
       -0.0007011956 -0.035475224 0.0013395667 -0.024664214
0001d0 b8 ff 53 bd 16 13 11 3d 60 ce 49 39 24 ca 9d 3b
       -0.051757544 0.035418592 0.00019245734 0.004815357
0001e0 e1 92 d8 bc 95 36 33 bb 65 07 93 3b de 09 f3 bc
       -0.026437225 -0.0027345766 0.0044869655 -0.029667791
0001f0 f9 14 09 bb 22 1e 9b bb c9 30 69 3c 13 3f af 3c
       -0.0020917042 -0.0047338167 0.014232823 0.02139238

ablang_branch.5.weight f4 [128]
000000 b0 25 81 3f 81 ea 77 3f 67 14 76 3f 1f 61 77 3f
       1.0089626 0.968422 0.9612488 0.9663257
000010 75 0b 78 3f 14 ba 81 3f c1 d0 83 3f e0 51 75 3f
       0.9689248 1.0134912 1.0298082 0.95828056
000020 2a be 85 3f 37 1f 81 3f 6a e2 72 3f 68 72 79 3f
       1.0448658 1.0087651 0.9487673 0.97440195
000030 c0 63 85 3f 19 e7 81 3f de 4d 7c 3f bb 25 7b 3f
       1.0421066 1.014865 0.98556316 0.9810445
000040 a6 32 85 3f 67 12 77 3f 24 a1 84 3f 08 d0 81 3f
       1.0406082 0.96512455 1.0361676 1.0141611
000050 8a 8b 7f 3f 76 e8 76 3f 43 12 85 3f 8d 5c 79 3f
       0.99822295 0.9644846 1.0396198 0.97406846
000060 ec d4 80 3f aa a2 7c 3f b0 f0 7c 3f 88 de 7e 3f
       1.0064979 0.98685706 0.9880476 0.99558306
000070 b9 b6 7b 3f f7 d6 7a 3f 7d 75 7e 3f 34 96 75 3f
       0.9832569 0.9798426 0.9939802 0.95932317
000080 e8 33 7a 3f 2a 3e 78 3f 10 ee 7c 3f 9d a2 7e 3f
       0.9773545 0.96969855 0.98800755 0.9946688
000090 9e 55 7b 3f 8c 40 82 3f d1 95 74 3f d9 5e 84 3f
       0.98177516 1.0175948 0.955411 1.0341445
0000a0 8d d5 7d 3f b9 a2 80 3f 2f e1 7a 3f b9 28 7e 3f
       0.9915398 1.0049659 0.9799985 0.9928089
0000b0 b5 f3 7f 3f d3 ba 73 3f 58 47 80 3f 97 6c 79 3f
       0.9998124 0.95206946 1.0021772 0.9743132
0000c0 a4 c3 7d 3f 23 fe 79 3f b6 d3 76 3f 32 27 7f 3f
       0.9912665 0.97653407 0.96416795 0.9966918
0000d0 45 5d 80 3f c8 b1 7c 3f 20 06 75 3f f0 b8 81 3f
       1.0028464 0.9870877 0.9571247 1.0134563
0000e0 c0 32 7a 3f 53 d8 78 3f f5 d4 7e 3f 43 38 81 3f
       0.9773369 0.97205085 0.99543697 1.0095295
0000f0 77 cf 7a 3f 21 69 7b 3f 21 bf 79 3f 43 83 7b 3f
       0.97972816 0.9820729 0.97557265 0.98247164
000100 62 bc 7e 3f 6d 12 7d 3f b1 35 7f 3f 51 3b 79 3f
       0.995062 0.9885624 0.996913 0.97356135
000110 42 d1 7e 3f ba e4 7d 3f 5f df 7d 3f fe 01 7f 3f
       0.9953805 0.99177134 0.9916896 0.99612415
000120 34 bd 7c 3f 0f 37 7b 3f 7d 1a 7a 3f 62 5e 76 3f
       0.987262 0.9813089 0.9769667 0.96237767
000130 22 62 7a 3f 6f a7 77 3f d5 79 7b 3f b3 ed 79 3f
       0.9780599 0.9673986 0.98232776 0.97628325
000140 df 72 79 3f d1 02 79 3f 26 0a 7f 3f d4 47 79 3f
       0.97440904 0.9726992 0.9962486 0.97375226
000150 26 e8 7b 3f 18 2c 7f 3f f6 0f 7f 3f 57 7f 7a 3f
       0.98401105 0.99676657 0.9963373 0.97850555
000160 2e 8a 7a 3f 1c 4f 7a 3f b8 0e 7d 3f b3 cf 7e 3f
       0.97867095 0.9777696 0.98850584 0.99535674
000170 62 86 7f 3f 93 a2 78 3f 30 b6 80 3f 7d f6 81 3f
       0.99814427 0.9712307 1.0055599 1.0153347
000180 3b 5e 85 3f d6 55 78 3f 48 3c 77 3f e3 e7 7d 3f
       1.0419382 0.97005975 0.96576357 0.99181956
000190 39 78 7d 3f a7 e8 78 3f 30 2d 7e 3f 1f f2 76 3f
       0.9901157 0.9723 0.992877 0.964632
0001a0 74 dc 7b 3f d3 2c 7d 3f 96 1a 82 3f c0 c0 77 3f
       0.9838326 0.9889652 1.0164363 0.9677849
0001b0 80 c5 7c 3f 9e 4b 84 3f 1e 13 78 3f e4 08 84 3f
       0.9873886 1.0335577 0.9690417 1.0315213
0001c0 10 66 7a 3f e0 45 76 3f 92 21 7d 3f 2b c4 7e 3f
       0.97811985 0.9620037 0.9887935 0.9951808
0001d0 f9 c1 81 3f 69 c0 82 3f 80 18 7c 3f 32 61 7e 3f
       1.0137321 1.0214969 0.98474884 0.9936706
0001e0 d1 ae 75 3f 69 51 80 3f 31 e6 79 3f 47 ba 79 3f
       0.95969874 1.0024844 0.9761687 0.9754986
0001f0 ba a0 7b 3f ef 21 7e 3f 63 85 81 3f 4e b4 80 3f
       0.98292124 0.9927053 1.0118831 1.0055025

ablang_branch.5.bias f4 [128]
000000 21 38 d6 bc bb c1 6f bc b0 03 93 3c ae 75 75 bc
       -0.026149811 -0.014633591 0.017946094 -0.01498167
000010 93 58 e2 bc f6 f5 b1 3c ce 9a 6f 3c 5a ca ed bc
       -0.027630126 0.021723729 0.014624311 -0.029027153
000020 45 1b 5a 3d 4f 1e 47 3c 56 51 e7 bc 6a 4d e8 bc
       0.053248663 0.012153222 -0.028237026 -0.028357226
000030 ac 51 4c 3d 89 47 e9 bc 87 11 ea bb 75 1d 3a 3c
       0.049882576 -0.028476493 -0.0071432027 0.011359562
000040 a7 24 5e 3c c1 31 a7 bc bb d1 0c 3d 65 5d c9 3c
       0.013558543 -0.020409467 0.034379702 0.024580667
000050 16 13 a8 bb 30 a0 78 bc 02 e4 c1 3c ae 24 3e bc
       -0.0051292283 -0.01517491 0.023668293 -0.011605425
000060 95 cf 90 bb 6d f1 80 3b ba 5b 39 3c ea 54 e1 ba
       -0.004419277 0.00393503 0.011313373 -0.0017191444
000070 f0 8e 87 bc da cd d4 bc d6 be f9 b8 94 a7 b2 bc
       -0.01654765 -0.025977064 -0.00011908791 -0.021808423
000080 47 e1 29 3c 12 d3 83 bb 68 d9 4b bc 8b d6 23 bd
       0.010368652 -0.0040229643 -0.01244197 -0.039999526
000090 54 e2 82 bc 77 f4 c7 3b 3b e1 05 bc 0a 46 c8 3c
       -0.015977062 0.0061021405 -0.008171375 0.02444746
0000a0 96 a5 16 3a c5 48 b2 3c 44 85 d3 bc 17 da 5d bc
       0.000574672 0.021763215 -0.025820382 -0.013540766
0000b0 11 e7 15 bc 0f d7 0b bc b0 1e 98 3c df f5 94 bc
       -0.009149329 -0.008535161 0.01856932 -0.018183647
0000c0 a6 96 74 bc 4d 22 8b bc ed dc 11 3c fd 67 a7 3c
       -0.0149284955 -0.01698413 0.0089027705 0.020435328
0000d0 29 f2 2c bd c1 76 99 bc 08 f6 53 bc ad 18 4b 3c
       -0.04222313 -0.018733384 -0.012937076 0.01239602
0000e0 36 97 2c bc cf 12 7c bc 6d 7a 05 bc 96 b6 39 3b
       -0.010534098 -0.015385344 -0.008146864 0.002833759
0000f0 09 53 8d 3c 18 b1 a1 bc 6a 2e aa bc 97 06 08 bd
       0.017251508 -0.019737765 -0.020774085 -0.03320941
000100 c5 52 71 3c 88 9a 81 bc 59 0e 81 3c c8 74 00 bc
       0.014729206 -0.015820757 0.015753912 -0.007840343
000110 51 17 8a bb 0b f6 4f bc 25 53 54 3c 1e db 76 3a
       -0.0042142053 -0.012692939 0.012959276 0.0009416806
000120 f3 ad 03 3c 8d d1 b7 3a af 9a 84 bc d2 2c ea 3b
       0.008037078 0.0014024243 -0.01618704 0.0071464563
000130 a4 a2 5e 3c 57 c7 e3 bc de 67 b3 bc 2b e3 da bc
       0.013588581 -0.027805014 -0.021900114 -0.02671965
000140 83 b9 f5 bb d7 5f 00 bd d3 69 ac 3c 58 52 c8 39
       -0.0074989214 -0.0313414 0.021046555 0.00038208324
000150 f8 65 b1 bc a0 83 7e b8 f8 32 af bc c6 3b 0b bc
       -0.021655068 -6.0680904e-05 -0.021386608 -0.008498138
000160 ae 20 a3 bc 87 fa 01 bd ea f8 6c ba af e9 8b bc
       -0.019913044 -0.031733062 -0.00090397766 -0.017079202
000170 91 04 3c 3c c7 47 64 bb 2d b7 1e ba 8f bd 01 3d
       0.011475698 -0.0034832822 -0.0006054517 0.031674918
000180 8b 15 22 3d a6 b7 20 bc 4b 39 2d bc 59 e0 22 3c
       0.039571326 -0.00980941 -0.010572742 0.009941184
000190 26 c7 4a 3b ec c5 b3 bc 3d 0a 9f 3c b7 d0 00 bc
       0.0030941456 -0.021944962 0.019414062 -0.0078622615
0001a0 fe 63 9c 3c bc 25 5e bc 0c bb e0 3c 36 60 c7 bc
       0.019090649 -0.013558801 0.02743294 -0.02433787
0001b0 83 c3 04 bc 3f 85 8b 3c 35 0e 78 bc d2 f5 11 3d
       -0.008103254 0.01703131 -0.015140106 0.035634823
0001c0 43 1c 8f 3a 34 38 cc bc 55 9f b4 3a 64 32 1a bc
       0.0010918457 -0.024929143 0.0013780395 -0.009411428
0001d0 8c d5 19 bd 01 53 0e 3d 9f 09 a2 ba a0 79 c4 3b
       -0.03755717 0.034747127 -0.0012362486 0.005995944
0001e0 a3 84 8b bc 29 71 32 bb 3d 15 ed 3b 34 f5 af bc
       -0.01703102 -0.0027228093 0.007235198 -0.021479227
0001f0 97 6a e1 3a 39 d1 40 3b b3 82 8f 3c b1 61 c6 3c
       0.0017197904 0.0029421581 0.017518377 0.024216505
