data/model_weights/cv_fold_3_model5_4.pt (torch, 685157 bytes, 23 tensors)

ablang_branch.0.weight f4 [256, 480]
-0.0076485574 -0.03986625 -0.047200836 0.019174129 -0.078602284 -0.016577177 0.15413645 -0.03634634
-0.027362997 0.12501426 -0.0018116024 0.024145244 0.07787452 0.09352972 0.012867061 -0.05068405
0.0094476035 0.073072806 0.0011518039 -0.048015997 -0.03379299 0.009753605 0.004088924 0.029747965
-0.03466916 0.0049550333 0.042709053 -0.01653907 -0.08910295 -0.023779133 0.08276317 -0.0036708205
0.06302629 0.010830807 -0.0488118 0.114425234 0.01587319 0.104335375 0.0093023125 -0.016733212
-0.05897488 -0.028558215 0.06481807 0.051752087 -0.087096654 0.09728901 -0.06842559 0.06350972
-0.065638 -0.1809476 0.09017704 0.0074710124 -0.10322894 -0.05257 0.0775451 -0.0058627105
0.03314804 -0.03202654 0.06410206 0.037323322 0.009884679 0.1456563 -0.06860587 0.08402404
-0.055777464 0.13826165 0.0036980782 -0.017380212 0.021100014 -0.11972006 0.12705323 0.0724511
0.01208734 0.053966675 -0.022909889 0.09365881 -0.01928344 -0.044060733 0.11227699 -0.017268676
-0.010480196 -0.07435779 -0.0037318598 -0.051759098 0.004956553 0.05761965 0.020315424 -0.06980246
-0.03861977 -0.086534 0.09147762 -0.04534118 0.018985402 -0.04844606 -0.019839702 0.07245106
-0.027427226 -0.048517607 0.027469177 -0.08155486 0.026244521 0.0518981 0.073582105 0.04699563
0.05703624 -0.050915383 -0.020305462 0.020360934 -0.010401629 -0.010646797 -0.027785614 0.04875457
0.01399694 0.050290994 -0.052785877 -0.024010044 -0.0193458 0.060687218 -0.047239482 -0.025719501
-0.02673478 0.023709482 -0.041360408 0.05970947 0.014359312 -0.07925087 -0.04588509 -0.025502563
0.12528695 0.14182721 -0.2267301 -0.09816956 -0.009505044 -0.057767432 0.01568549 0.024110042
-0.13784586 -0.018166915 0.012818185 -0.0337069 -0.14648317 -0.103154175 0.023347422 -0.016333275
0.028190326 0.02019469 -0.026696991 -0.05911932 0.16030973 0.15635362 -0.073399395 -0.0015571034
-0.02176115 -0.08930665 -0.036955703 0.020940829 -0.062285934 0.15561467 -0.10253632 -0.07049651
0.018417116 -0.11632173 0.03261479 -0.0058566723 -0.052430216 0.03245406 -0.031006811 0.055100515
-0.08741562 0.10991424 0.052022535 0.07599763 0.058816887 -0.008299915 -0.016880302 0.04444498
0.020334462 -0.033694807 0.05127264 0.064719 0.044611245 -0.052355807 0.13863477 0.0074036317
-0.020061072 0.0044510616 -0.013168196 0.061460827 0.014666591 0.05098404 0.012703181 0.013031677
0.07551251 0.010347098 -0.19186246 0.007255148 0.03313323 -0.07166663 0.008139775 -0.010786586
-0.050175827 0.14967096 -0.0018842586 -0.0014426125 0.0028241032 0.014188897 -0.08189391 0.07989366
0.00701467 0.054666266 -0.116122946 0.060012296 0.08906862 -0.0740446 0.071737655 -0.02581898
-0.09586507 0.0007577703 0.060999054 0.0236611 -0.0083702365 0.035806768 -0.011718164 0.012993922
0.052204117 -0.056210823 -0.0033367705 -0.035487432 -0.014371063 0.027562646 -0.11035995 0.024396641
0.04393059 0.1264292 0.16533569 -0.11351512 -0.038950622 -0.030857254 -0.08662845 -0.06015529
0.07655606 -0.11218278 0.00894274 0.03451048 0.019446291 0.00626403 0.033525854 -0.04164468
0.080712914 0.05209216 0.14132594 0.021505032 0.009594556 -0.018608097 0.033349883 -0.054937717
00000000: c0a0 fabb cb4a 23bd aa55 41bd 1013 9d3c
00000010: 3cfa a0bd dccc 87bc f2d5 1d3e e6df 14bd
00000020: 5d28 e0bc bd03 003e 4a73 edba 3fcc c53c
00000030: ad7c 9f3d 838c bf3d 5ed0 523c 149a 4fbd
00000040: 1fca 1a3c 32a7 953d 20f8 963a 6cac 44bd
00000050: 856a 0abd 96cd 1f3c 61fc 853b 01b2 f33c
00000060: 4001 0ebd d55d a23b b0ef 2e3d f27c 87bc
00000070: 9c7b b6bd 75cc c2bc bd7f a93d 2692 70bb
00000080: ed13 813d b273 313c e2ee 47bd c757 ea3d
00000090: 7e08 823c c9ad d53d ba68 183c 1714 89bc
000000a0: a58f 71bd ebf2 e9bc 56bf 843d fff9 533d
000000b0: bb5f b2bd 763f c73d b722 8cbd 6211 823d
000000c0: 376d 86bd 544a 39be bdae b83d 65cf f43b
000000d0: b269 d3bd a453 57bd f7cf 9e3d fb1b c0bb
000000e0: 3dc6 073d 432e 03bd f147 833d 57e0 183d
000000f0: 59f3 213c ed26 153e 3c81 8cbd cc14 ac3d
00000100: e976 64bd 7694 0d3e 755b 723b f260 8ebc
00000110: f0d9 ac3c ca2f f5bd 3e1a 023e 3e61 943d
00000120: fa09 463c 290c 5d3d 85ad bbbc 31d0 bf3d
00000130: 4ef8 9dbc 0779 34bd 7bf1 e53d 0a77 8dbc
00000140: 21b5 2bbc e648 98bd 3892 74bb 5901 54bd
00000150: 956a a23b 9502 6c3d 886c a63c 98f4 8ebd
00000160: c42f 1ebd bd38 b1bd 9e58 bb3d acb7 39bd
00000170: 4687 9b3c 606f 46bd df86 a2bc 3961 943d
00000180: 10af e0bc 66ba 46bd 0a07 e13c 3c06 a7bd
00000190: c0fe d63c 1a93 543d 37b2 963d 7d7e 403d
000001a0: d59e 693d a68c 50bd a457 a6bc f9cb a63c
000001b0: 986b 2abc e76f 2ebc a89e e3bc dfb2 473d
000001c0: 6c53 653c eefd 4d3d 0136 58bd b6b0 c4bc
000001d0: 157b 9ebc 2993 783d 307e 41bd b4b1 d2bc
000001e0: e602 dbbc 633a c23c 8869 29bd eb91 743d
000001f0: 5243 6b3c 484e a2bd 01f2 3bbd c0ea d0bc
00000200: 394b 003e 273b 113e ef2b 68be 1f0d c9bd
00000210: 0bbb 1bbc 8b9d 6cbd db7e 803c 6c82 c53c
00000220: 7727 0dbe c8d2 94bc 5d03 523c 3f10 0abd
00000230: afff 15be 7f42 d3bd 1843 bf3c 5ccd 85bc
00000240: 66ef e63c 566f a53c a6b3 dabc 1a27 72bd
00000250: 3c28 243e 2a1b 203e 6c52 96bd b817 ccba
00000260: 7044 b2bc 68e6 b6bd dd5e 17bd 1a8c ab3c
00000270: 891f 7fbd 7459 1f3e 90fe d1bd 7960 90bd
00000280: 7edf 963c 163a eebd 1697 053d 54e9 bfbb
00000290: 11c1 56bd 8cee 043d ff01 febc 14b1 613d
000002a0: f606 b3bd b81a e13d 9515 553d a5a4 9b3d
000002b0: fae9 703d 5efc 07bc 8f48 8abc f00b 363d
000002c0: 7594 a63c 9103 0abd 4203 523d 658b 843d
000002d0: 48ba 363d 0b73 56bd 46f6 0d3e 2a9a f23b
000002e0: 1e57 a4bc 36da 913b 6bbf 57bc 59be 7b3d
000002f0: 244c 703c a4d4 503d 0121 503c d182 553c
00000300: 4ea6 9a3d e086 293c 9877 44be 98bc ed3b
00000310: b6b6 073d f4c5 92bd b15c 053c 39ba 30bc
00000320: 2b85 4dbd 5843 193e 3af9 f6ba 0b16 bdba
00000330: 9714 393b 8c78 683c ffb7 a7bd 4a9f a33d
00000340: 51db e53b bce9 5f3d ded1 edbd 74cf 753d
00000350: 9c69 b63d b2a4 97bd 31eb 923d 5382 d3bc
00000360: e854 c4bd 1ba5 463a 25da 793d ecd4 c13c
00000370: 5123 09bc 1eaa 123d 8bfd 3fbc 76e4 543c
00000380: fcd3 553d 523d 66bd b8ad 5abb 455b 11bd
00000390: 9b74 6bbc 0fcb e13c 6604 e2bd 77db c73c
000003a0: 90f0 333d a876 013e c24d 293e 9e7a e8bd
000003b0: b08a 1fbd 5ac8 fcbc 426a b1bd 6565 76bd
000003c0: 6cc9 9c3d 16c0 e5bd 9284 123c dc5a 0d3d
000003d0: d44d 9f3c 7e42 cd3b 6852 093d 9d93 2abd
000003e0: d04c a53d 975e 553d bfb7 103e 522b b03c
000003f0: 7c32 1d3c 0270 98bc e399 083d 5f06 61bd

ablang_branch.0.bias f4 [256]
0.008583786 0.007851673 0.0073822006 0.0010887126 -0.0029647409 0.002810495 0.0059960736 -0.0013666113
0.0011456629 0.009716492 -0.00010218376 0.0017234095 0.0004705904 0.008301436 -0.005218169 0.0018824241
0.0005216074 -0.00091845356 -0.0001725007 0.0005744182 -0.0006905548 0.0061471034 -6.9220914e-05 0.0011261835
0.0063084867 0.004033951 0.005288421 0.004405562 0.004431991 0.00085164444 0.0025179798 0.0019008201
0.0014224018 0.0013583973 -0.0010098096 0.01284217 0.003103415 0.0019123086 0.0052780644 -0.00041778715
0.0005977191 0.0049224617 0.0048459386 0.00918719 -0.004259852 0.002757605 0.0035255207 0.0032931066
0.0035203847 0.0014589243 0.010598019 0.0039163064 0.0033738883 0.007959262 0.004451902 0.0014107905
0.008776978 0.0014903678 0.0016883976 0.0020134023 -0.008760299 0.010805048 0.00095380074 0.004800787
0.008207665 0.0012037571 0.0039928243 -0.007205367 0.0056542633 0.003742607 0.006405318 0.0006344011
0.0021467498 -0.0064565535 0.0069932966 0.001810184 0.0022759696 0.011812046 -0.0027409378 -0.0032233023
0.0020196098 0.0032344367 0.0044276738 0.006016829 0.0060113813 0.0009923959 0.0004191034 -0.0016456041
0.004566274 0.0033682205 0.004320942 0.0029702834 0.0003544861 0.008161847 0.0143445525 0.008677538
-0.0020875114 0.002960245 0.0020830818 0.00030787755 -0.00020204218 -0.001148253 -0.0018979518 0.00031821622
0.009560928 -0.0036553736 -0.002976948 -0.0036542276 -0.0049769175 -0.00013487818 0.004451714 -0.0020316418
0.006626812 -0.002317951 -0.0015639097 0.0053428155 0.010120028 0.0015288664 0.0073644235 -0.00040385115
-0.0011157244 0.0031550003 0.0091941515 -0.0041054017 0.005319792 0.010041754 0.0026610862 0.0020477625
0.006192639 0.0031870913 0.004031863 0.0028800974 0.0045013153 0.0063132555 0.006804877 0.0048552374
7.608692e-05 0.0015849982 0.0041316906 0.0039770775 0.0073063066 0.0012865195 0.0007794344 0.0015791957
0.0010192457 0.0035217467 -0.00085250376 -0.0076767015 0.010353066 0.0039212126 0.005216582 -0.0026516367
0.0031375526 0.0038566745 0.005339277 7.726994e-05 0.009501893 0.004494521 0.0007383548 -0.0007891825
-0.005090683 0.003961085 0.0019478688 0.0075921235 0.0016707255 0.0014123328 -0.002267865 -0.0035777222
0.0074820244 0.0066039823 0.007969229 -0.005609418 0.0065369965 0.009288917 0.00072508643 0.005152808
0.005063028 0.004748661 -0.00019498306 0.0015327865 0.0024670723 0.0053811884 0.0007197036 0.009359206
0.00019684949 0.004986219 0.0034696867 0.004787816 0.0071907677 0.0038543455 0.00042179966 0.0035629284
0.0014162579 0.0070763608 -0.0077978256 -0.0014554074 0.0030815678 -0.00073201646 0.0048307497 2.2668672e-05
0.0030196952 0.0062277606 0.004451977 0.007572994 0.011197888 0.002200505 0.007834334 0.0014746005
0.012098633 0.0008088567 0.0010094406 0.0027437094 0.010023086 -0.005274825 0.005587572 0.003774232
0.0054536625 0.00916547 -0.0032048328 0.001458251 -0.004005562 0.010520598 0.003495002 0.0077200537
0.009893705 -4.7290378e-06 0.0048247557 0.008051411 0.002172359 0.01112021 0.007925476 0.0061230753
0.00084256433 -0.0011460219 0.0008201886 0.008964611 0.008545003 -0.002859895 0.0028363648 0.000187517
0.010782008 0.0041278442 0.0038767834 0.006554469 0.008024715 0.0068460717 0.0015069647 0.0021161267
-0.0019557518 0.0023040092 -0.00090698065 0.0044533885 0.004610458 0.0012538829 0.0043348456 0.00973626
00000000: 02a3 0c3c 4ea4 003c 63e6 f13b 22b3 8e3a
00000010: 194c 42bb 4830 383b b67a c43b de1f b3ba
00000020: 112a 963a ec31 1f3c 7d4b d6b8 07e4 e13a
00000030: 93b9 f639 bf02 083c 2dfd aabb acbb f63a
00000040: 7bbc 083a 60c4 70ba 4ee1 34b9 8e94 163a
00000050: 5906 35ba a46d c93b b22a 91b8 739c 933a
00000060: 6cb7 ce3b 3c2f 843b 7e4a ad3b 885c 903b
00000070: 3c3a 913b e440 5f3a b104 253b f024 f93a
00000080: e26f ba3a 400c b23a 965b 84ba f767 523c
00000090: aa62 4b3b 6ea6 fa3a 9df3 ac3b 710a dbb9
000000a0: 40b0 1c3a 9a4c a13b aeca 9e3b de85 163c
000000b0: 3b96 8bbb efb8 343b 6c0c 673b 29d1 573b
000000c0: 41b6 663b 6039 bf3a 50a3 2d3c 5c54 803b
000000d0: 741c 5d3b 9067 023c 43e1 913b 46ea b83a
000000e0: 50cd 0f3c 7258 c33a 394d dd3a 49f3 033b
000000f0: 5b87 0fbc a807 313c 7c08 7a3a ec4f 9d3b
00000100: 7179 063c 63c7 9d3a 3dd6 823b 001b ecbb
00000110: 6647 b93b 8746 753b b4e3 d13b f04d 263a
00000120: 7cb0 0c3b 7f91 d3bb 0628 e53b b243 ed3a
00000130: 6f28 153b 5087 413c 4ea1 33bb 0a3e 53bb
00000140: 6e5b 043b d8f8 533b 0516 913b d228 c53b
00000150: 1ffb c43b 4813 823a 1bbb db39 50b1 d7ba
00000160: afa0 953b 5dbd 5c3b b096 8d3b 16a9 423b
00000170: 52da b939 44b9 053c 6a05 6b3c 3b2c 0e3c
00000180: a1ce 08bb ab00 423b 5084 083b a06a a139
00000190: 49db 53b9 fa80 96ba b2c4 f8ba 42d6 a639
000001a0: 70a5 1c3c fe8e 6fbb e618 43bb c47b 6fbb
000001b0: 6915 a3bb 166e 0db9 afdf 913b 4b25 05bb
000001c0: ba25 d93b c4e8 17bb 1afc ccba c912 af3b
000001d0: 79ce 253c 3e64 c83a 4351 f13b fcbb d3b9
000001e0: 803d 92ba 1fc4 4e3b 11a3 163c 9b86 86bb
000001f0: a651 ae3b 2b86 243c 9e65 2e3b c133 063b
00000200: 9feb ca3b 85de 503b b81d 843b 04c0 3c3b
00000210: c57f 933b 6ddf ce3b 72fb de3b af18 9f3b
00000220: db90 9f38 b7bf cf3a 2263 873b 2552 823b
00000230: be69 ef3b 6ea0 a83a f552 4c3a 04fd ce3a
00000240: 3698 853a 1bcd 663b 8f7a 5fba d78c fbbb
00000250: e89f 293c 847d 803b ddef aa3b 15c7 2dbb
00000260: 669f 4d3b 43c0 7c3b 1af5 ae3b fc0b a238
00000270: d4ad 1b3c c646 933b 278e 413a 24e1 4eba
00000280: becf a6bb fdcb 813b a24f ff3a 59c7 f83b
00000290: 3ffc da3a 061e b93a 76a0 14bb 3878 6abb
000002a0: c52b f53b 3866 d83b 5e91 023c 35cf b7bb
000002b0: 4d34 d63b 8b30 183c ba13 3e3a e3d8 a83b
000002c0: c2e7 a53b a89a 9b3b 5e74 4cb9 c8e7 c83a
000002d0: 9bae 213b ae54 b03b 7eaa 3c3a 5b57 193c
000002e0: 6269 4e39 7063 a33b af63 633b 1de3 9c3b
000002f0: 88a0 eb3b 3099 7c3b fe24 dd39 0580 693b
00000300: bba1 b93a d1e0 e73b e784 ffbb 5ec3 beba
00000310: 21f4 493b cbe4 3fba 444b 9e3b 9a28 be37
00000320: 14e6 453b 3e12 cc3b e4e1 913b e126 f83b
00000330: 5977 373c 5936 103b 945b 003c 6247 c13a
00000340: 5839 463c 7409 543a 354f 843a cecf 333b
00000350: df37 243c 70d8 acbb f417 b73b 1b59 773b
00000360: a3b4 b23b c42a 163c 2c08 52bb c922 bf3a
00000370: 1741 83bb 965e 2c3c 670c 653b 81f8 fc3b
00000380: 3519 223c 20ae 9eb6 fc18 9e3b 11ea 033c
00000390: 235e 0e3b 8b31 363c dbd9 013c 14a4 c83b
000003a0: 89df 5c3a 1d36 96ba ed01 573a 4ee0 123c
000003b0: 5700 0c3c 136d 3bbb 4ee2 393b 36a0 4439
000003c0: 05a7 303c de42 873b a211 7e3b dfc6 d63b
000003d0: 187a 033c 0355 e03b 5885 c53a b7ae 0a3b
000003e0: 122c 00bb dcfe 163b 71c2 6dba bbed 913b
000003f0: 5313 973b 5459 a43a 520b 8e3b d684 1f3c

ablang_branch.1.weight f4 [256]
1.005492 1.0513351 1.0315717 1.002057 0.99575424 1.0099844 1.011917 1.0038702
1.0178849 1.0312936 0.9960288 0.9959957 1.0127529 0.96601886 1.0046436 1.013041
1.0138807 1.0104586 0.9936766 0.9893727 0.992474 1.0029632 1.0286003 0.9899359
1.0225344 0.9924677 1.0431144 1.0110722 0.99768746 0.9973815 1.0165954 1.0004505
1.0093819 0.99626666 0.99389714 1.0069326 0.98024267 0.99968714 1.0105318 1.0145966
0.98819137 1.0042758 1.0249048 1.0156509 0.99434054 1.0148208 1.0005963 1.0012789
0.99306434 1.0234779 1.0124348 1.0172007 1.0559762 0.9970432 0.998981 1.0074813
1.0891274 1.0025086 1.031505 0.9966939 1.0010273 1.0039246 1.0025939 0.9974622
0.9840546 1.0037999 0.995835 0.9909474 1.0103855 1.002639 1.0565687 0.99155235
0.9906477 0.991001 1.0215591 1.027223 0.9972292 1.0033315 1.0010395 1.0076209
1.0167526 1.0067623 1.0076606 1.0158592 1.0288931 0.99860716 1.0045512 0.9984142
1.0023159 0.99618006 1.0081085 1.0040008 1.0193361 0.996866 1.0086952 0.9861493
1.0019063 1.0016026 1.0107385 1.0208393 0.99782777 1.0022105 1.0083874 0.9974321
0.98007655 0.99483496 0.9781064 1.0051328 0.99241495 0.99942726 0.9978759 0.99809706
1.006889 1.0129083 1.056621 1.0324293 1.0055072 1.0104226 1.0054395 1.001202
1.0004317 0.9902443 1.0135065 0.9997076 1.055744 1.0001384 1.051158 1.0019243
1.010003 1.0188868 1.011615 1.0054423 1.0024314 0.9974302 0.9965784 1.0074238
1.0219382 0.9973308 1.0003946 0.98991334 0.9712882 1.0272288 0.99043685 1.0000768
0.994897 1.0092471 1.020391 0.9986313 0.99625826 0.9927925 1.0226108 1.023286
0.9957378 0.97803026 1.0067523 1.0035605 1.0103931 1.032161 1.0254401 1.0048417
1.0034394 1.001135 0.992719 1.0293636 0.99692166 0.9894256 0.9937811 0.99764055
0.993556 1.0264899 1.0070348 0.981692 1.0242484 1.0039713 0.9987401 1.0159954
1.0074855 1.0283363 1.003226 1.0040075 1.0102515 0.988364 0.9902356 0.9983876
0.9940442 0.9960004 0.9933922 1.0040721 1.0064143 1.0143415 1.0309207 1.0281948
0.9972304 1.0071155 0.99027854 1.0015302 1.0109353 0.99548984 0.9966457 0.99657255
0.9934177 0.9983576 1.0152012 1.0047846 1.0098456 1.0050422 1.0030873 1.0324204
0.9917715 0.9915301 1.0010949 0.9980907 1.0061553 1.0001137 1.0011144 1.0030673
0.9953457 1.0243274 0.98292 1.0166355 1.0496844 0.9908913 1.0116571 1.0425667
1.0114084 1.0044688 0.9993306 0.99711347 0.9980786 1.0172006 1.0075201 0.9976176
0.9951652 1.0025573 0.98672837 1.0112506 0.99836665 0.99888444 1.0241652 1.0016596
1.0297652 0.99973154 1.0032431 1.001129 0.9988966 0.9862865 0.99650705 0.9969313
0.9826603 0.9898471 1.0302615 0.9913267 1.0212088 0.99371105 1.0084468 0.995324
00000000: f6b3 803f 2692 863f 8b0a 843f 6743 803f
00000010: c0e9 7e3f 2b47 813f 7f86 813f d27e 803f
00000020: 0d4a 823f 6e01 843f befb 7e3f 93f9 7e3f
00000030: e3a1 813f 034d 773f 2998 803f 54ab 813f
00000040: d8c6 813f b556 813f 9761 7e3f 8747 7d3f
00000050: c712 7e3f 1961 803f 2da9 833f 706c 7d3f
00000060: 68e2 823f 5d12 7e3f c684 853f d06a 813f
00000070: 7268 7f3f 6554 7f3f cc1f 823f c30e 803f
00000080: 6d33 813f 550b 7f3f 0b70 7e3f 2be3 803f
00000090: 2ff1 7a3f 7feb 7f3f 1b59 813f 4dde 813f
000000a0: 1cfa 7c3f 1c8c 803f 1530 833f d900 823f
000000b0: 1a8d 7e3f a6e5 813f 8a13 803f e829 803f
000000c0: 7739 7e3f 5301 833f 7797 813f a233 823f
000000d0: 3a2a 873f 393e 7f3f 38bd 7f3f 26f5 803f
000000e0: 8768 8b3f 3452 803f 5b08 843f 5527 7f3f
000000f0: aa21 803f 9a80 803f ff54 803f af59 7f3f
00000100: 01eb 7b3f 847c 803f 0bef 7e3f bbae 7d3f
00000110: 5054 813f 7a56 803f a53d 873f 60d6 7d3f
00000120: 169b 7d3f 3eb2 7d3f 73c2 823f 0b7c 833f
00000130: 6a4a 7f3f 2b6d 803f 1022 803f b9f9 803f
00000140: f324 823f 96dd 803f 06fb 803f ad07 823f
00000150: c5b2 833f b8a4 7f3f 2295 803f 1398 7f3f
00000160: e34b 803f a805 7f3f b309 813f 1983 803f
00000170: 9b79 823f 9c32 7f3f ed1c 813f 4874 7c3f
00000180: 773e 803f 8434 803f e15f 813f ddaa 823f
00000190: a471 7f3f 6f48 803f d712 813f b657 7f3f
000001a0: 4ce6 7a3f 81ad 7e3f 2e65 7a3f 31a8 803f
000001b0: e80e 7e3f 77da 7f3f cc74 7f3f 4a83 7f3f
000001c0: bde1 803f fba6 813f 5b3f 873f a526 843f
000001d0: 76b4 803f 8755 813f 3eb2 803f 6327 803f
000001e0: 250e 803f a780 7d3f 95ba 813f d6ec 7f3f
000001f0: 9f22 873f 8904 803f 588c 863f 0e3f 803f
00000200: c747 813f e26a 823f 9a7c 813f 55b2 803f
00000210: ac4f 803f 9657 7f3f c31f 7f3f 43f3 803f
00000220: dfce 823f 1251 7f3f ee0c 803f f66a 7d3f
00000230: 58a6 783f 3c7c 833f 458d 7d3f 8402 803f
00000240: 92b1 7e3f 022f 813f 2c9c 823f 4da6 7f3f
00000250: c80a 7f3f a627 7e3f e9e4 823f 09fb 823f
00000260: ace8 7e3f 3160 7a3f 42dd 803f ac74 803f
00000270: 9054 813f da1d 843f 9f41 833f a79e 803f
00000280: b470 803f 3125 803f d522 7e3f 30c2 833f
00000290: 4236 7f3f ff4a 7d3f 7068 7e3f 5f65 7f3f
000002a0: b059 7e3f 0564 833f 84e6 803f 2b50 7b3f
000002b0: 921a 833f 2282 803f 6ead 7f3f 230c 823f
000002c0: 49f5 803f 86a0 833f b669 803f 5183 803f
000002d0: ec4f 813f 6c05 7d3f 1580 7d3f 5496 7f3f
000002e0: ae79 7e3f e2f9 7e3f f44e 7e3f 6f85 803f
000002f0: 2fd2 803f f1d5 813f 36f5 833f e39b 833f
00000300: 7e4a 7f3f 29e9 803f e582 7d3f 2432 803f
00000310: 5466 813f 6cd8 7e3f 2c24 7f3f 611f 7f3f
00000320: 9f50 7e3f 5d94 7f3f 1df2 813f c89c 803f
00000330: 9f42 813f 39a5 803f 2a65 803f 5a26 843f
00000340: bde4 7d3f ebd4 7d3f e123 803f df82 7f3f
00000350: b2c9 803f ba03 803f 8424 803f 8264 803f
00000360: face 7e3f 291d 833f a5a0 7b3f 1d21 823f
00000370: 0f5c 863f 0dab 7d3f fb7d 813f d372 853f
00000380: d575 813f 6f92 803f 21d4 7f3f d442 7f3f
00000390: 1482 7f3f a133 823f 6bf6 803f de63 7f3f
000003a0: 26c3 7e3f cc53 803f 3b9a 7c3f a970 813f
000003b0: f594 7f3f e4b6 7f3f d817 833f 6236 803f
000003c0: 59cf 833f 68ee 7f3f 456a 803f ff24 803f
000003d0: b0b7 7f3f 467d 7c3f 161b 7f3f e436 7f3f
000003e0: a08f 7b3f 9f66 7d3f 9cdf 833f 96c7 7d3f
000003f0: f8b6 823f d963 7e3f c914 813f 8ecd 7e3f

ablang_branch.1.bias f4 [256]
-0.00786039 0.0020722486 0.00027460535 -0.0021167917 -0.0076991217 -0.008671486 -0.0111981 -0.0034095494
-0.019106044 0.0051106852 -0.003797183 0.00089637155 -0.020733891 -0.00016406934 -0.006142951 -0.0023705643
0.00016363403 -0.012285499 -0.0072867153 -0.0028947387 -0.0045545795 0.0038920229 -0.0037163596 -0.023926236
-0.0025166816 0.0017934325 0.004183233 0.0026984708 0.003256955 0.0002723324 -0.014342737 -0.0029490471
-0.0012983396 -0.0100421645 -0.006596646 0.012691274 -0.0070974566 -0.0012899449 -0.0050565447 -0.0034127142
-0.003263197 0.0022531091 -0.0026050531 -0.0256965 -0.007861962 0.002618395 0.0030104613 0.00072413933
-0.0004324933 -0.0021830031 0.004438153 0.0006798588 -0.00452073 0.005893951 0.0018630034 -0.0013817787
-0.002876492 -0.0006122906 -0.016226223 -0.00041207008 -0.009951148 0.008963881 -0.002331613 0.0026403158
-0.006932345 -0.001876927 -0.022739539 -0.009278375 0.0013275632 -0.0011845399 -0.0029773186 -0.005590249
-0.0059711123 -0.0073923026 -0.013260062 0.0009725422 -0.007984344 -0.005306588 -0.023207124 -0.007442067
-0.016236745 0.0036675695 0.0013667087 -0.008880422 -0.0053341747 0.0025046943 -0.0027749105 -0.00571305
-0.0050211246 0.0032991155 0.0025631937 -0.00021780343 -0.02121095 -0.011452057 -0.0072526094 -0.0029350838
-0.01832329 0.0019632108 -0.0051181526 -0.0026906282 -0.0036922575 -0.0040010437 -0.020074174 -0.004127794
-0.006790953 -0.005048341 -0.012526701 -0.0060747103 -0.010054738 -0.0027882 0.00065472024 -0.012616866
0.004136915 -0.006493003 -0.0056692176 -0.013213466 -0.004977854 0.0011944624 0.0066715297 -0.0057280655
-0.004645873 -0.004811778 -0.017841764 -0.0068621896 -0.013546151 0.0042644716 -0.0024235772 -0.0023332334
0.001295956 -0.00430382 0.0026608084 0.0022982217 -0.00928808 0.00575298 0.0031202757 0.004818547
-0.020716464 -0.0035916765 -0.00014601751 -0.010908814 -0.0038488256 -0.001133178 -0.0005996992 0.0015054148
-0.00073237653 -0.00020030979 -0.016583527 -0.010329071 0.0029924288 -0.014009756 -0.0017066161 -0.0053313486
-0.015217856 -0.003994577 0.0012476334 -0.023436585 0.010237176 -0.0012706702 -0.0066996734 -0.004934272
-0.01935463 -0.012486311 -0.00039570063 0.0013759643 0.0005510998 -0.011275396 -0.011409792 -0.0063957702
-0.002079273 -0.01833333 0.006920798 -0.017921973 0.0011464726 0.00825039 -0.0048661036 -0.00299819
0.003662185 0.0012801097 -0.02164697 -0.002099134 -0.0011067301 -0.012124265 -0.005490903 -0.00988152
-0.007864525 0.002736042 -0.011847383 -0.0023773692 -0.0016813176 -0.0019420412 -0.0035765166 1.2541417e-05
-0.019649198 -0.014474761 -0.009823872 -0.0037369658 -0.011980386 -0.0018984203 -0.006756482 -0.008936077
-0.003914513 0.00549964 0.0026239182 -0.0098441765 0.010713515 -0.0018417514 0.0035321019 -0.005620399
-0.013229647 -0.0032972153 -0.0008638279 0.0016885615 0.007438229 -0.0065755527 0.0039896895 0.0006875148
0.002284399 0.0009877025 -0.0073211477 -0.00029803748 -0.015509175 -0.0024408766 -0.020866053 0.004492494
-0.00088567624 -0.0019732635 -0.0023260338 0.0053519555 -0.013757135 -0.0024131844 0.0070471433 0.0018503403
-0.003019599 -0.005027434 -0.008507207 -0.01798568 -0.0060829557 -0.003305929 -0.0099173 -0.018629981
-0.0051730433 0.0038126274 0.0012494981 -0.0119621735 0.0039417855 0.00023813466 -0.0022505687 -0.0013363844
-0.018012328 -0.005000004 -0.0030581572 -0.010597934 -0.029688872 -0.00025996682 0.0040411665 -0.008300018
00000000: ddc8 00bc 90ce 073b e8f8 8f39 dfb9 0abb
00000010: ea48 fcbb d912 0ebc 3c78 37bc bf72 5fbb
00000020: 4784 9cbc 8977 a73b 29da 78bb 7afa 6a3a
00000030: 1fda a9bc 070a 2cb9 cf4a c9bb 785b 1bbb
00000040: 2d95 2b39 1e49 49bc 66c5 eebb a8b5 3dbb
00000050: 953e 95bb 4f11 7f3b 2b8e 73bb f400 c4bc
00000060: e9ee 24bb 9c11 eb3a 8013 893b d4d8 303b
00000070: a372 553b d6c7 8e39 cdfd 6abc cd44 41bb
00000080: 0c2d aaba e487 24bc ad28 d8bb 10ef 4f3c
00000090: c891 e8bb 5e13 a9ba 5fb1 a5bb d8a7 5fbb
000000a0: 5cdb 55bb e6a8 133b 8ab9 2abb 7781 d2bc
000000b0: 75cf 00bc 6199 2b3b 294b 453b 2bd4 3d3a
000000c0: 45c0 e2b9 b710 0fbb ed6d 913b 8d38 323a
000000d0: a222 94bb 0b22 c13b 0530 f43a cd1c b5ba
000000e0: 8783 3cbb 2082 20ba dbec 84bc 1c0b d8b9
000000f0: 240a 23bc 3edd 123c facd 18bb 2609 2d3b
00000100: ba28 e3bb 3803 f6ba 4548 babc 5304 18bc
00000110: a101 ae3a 9042 9bba 1e1f 43bb 682e b7bb
00000120: 52a9 c3bb 213b f2bb bb40 59bc 34f2 7e3a
00000130: c4d0 02bc e3e2 adbb de1c bebc 95dc f3bb
00000140: ec02 85bc 9b5b 703b 2223 b33a 317f 11bc
00000150: 4dca aebb cc25 243b 46db 35bb 8934 bbbb
00000160: 3f88 a4bb f935 583b 41fb 273b 2a62 64b9
00000170: 96c2 adbc 69a1 3bbc 4ca7 edbb 895a 40bb
00000180: b91a 96bc 36a9 003b 2db6 a7bb 4055 30bb
00000190: cdf9 71bb 301b 83bb 9872 a4bc 7242 87bb
000001a0: a586 debb 8e6c a5bb cb3c 4dbc 5d0e c7bb
000001b0: a1bc 24bc 3cba 36bb 88a1 2b3a f9b6 4ebc
000001c0: f58e 873b 42c3 d4bb d8c4 b9bb 4b7d 58bc
000001d0: 441d a3bb 828f 9c3a d99c da3b 7fb2 bbbb
000001e0: 683c 98bb 1fac 9dbb e428 92bc 38dc e0bb
000001f0: adf0 5dbc fbbc 8b3b e1d4 1ebb 29e9 18bb
00000200: 11dd a93a 0f07 8dbb f560 2e3b c39d 163b
00000210: 082d 18bc 7e83 bc3b 8a7d 4c3b e7e4 9d3b
00000220: 93b5 a9bc 5562 6bbb 471c 19b9 e2ba 32bc
00000230: 943c 7cbb 2587 94ba 2235 1dba 5751 c53a
00000240: f5fc 3fba 400a 52b9 2dda 87bc 443b 29bc
00000250: a01c 443b 2d89 65bc 89b0 dfba 98b2 aebb
00000260: 5054 79bc f1e4 82bb a187 a33a 15fe bfbc
00000270: d4b9 273c 9e8c a6ba ef88 dbbb acaf a1bb
00000280: 9a8d 9ebc 6293 4cbc 0a76 cfb9 b359 b43a
00000290: ae77 103a 70bc 38bc 23f0 3abc 9c93 d1bb
000002a0: 6a44 08bb c82f 96bc ddc7 e23b 1ad1 92bc
000002b0: 3d45 963a a52c 073c d673 9fbb 487d 44bb
000002c0: 4501 703b 5bc9 a73a fd54 b1bc a091 09bb
000002d0: b30f 91ba daa4 46bc 08ed b3bb 19e6 21bc
000002e0: 35da 00bc 2b4f 333b 871b 42bc a3cd 1bbb
000002f0: a85f dcba 178c feba fe63 6abb fa68 5237
00000300: 5bf7 a0bc 8c27 6dbc 4ef4 20bc e2e7 74bb
00000310: 6249 44bc 6ad4 f8ba 7b65 ddbb a068 12bc
00000320: 5145 80bb 5336 b43b 0bf6 2b3b 7849 21bc
00000330: bd87 2f3c ec66 f1ba d67a 673b 532b b8bb
00000340: 29c1 58bc 1816 58bb 8272 62ba b952 dd3a
00000350: 63bc f33b bc77 d7bb f1bb 823b 563a 343a
00000360: dbb5 153b cc75 813a 3de6 efbb ea41 9cb9
00000370: 321a 7ebc 1df7 1fbb 49ef aabc c535 933b
00000380: ba2c 68ba de51 01bb 5f70 18bb 755f af3b
00000390: 9b65 61bc 8426 1ebb b9eb e63b 1e87 f23a
000003a0: 77e4 45bb 2cbd a4bb d061 0bbc b456 93bc
000003b0: 8853 c7bb 49a8 58bb 2c7c 22bc e79d 98bc
000003c0: a282 a9bb 46dd 793b 33c6 a33a fefc 43bc
000003d0: 182a 813b c9b3 7939 477e 13bb 9f29 afba
000003e0: 978e 93bc 13d7 a3bb 5d6b 48bb f5a2 2dbc
000003f0: 1436 f3bc 284c 88b9 c36b 843b ccfc 07bc

ablang_branch.4.weight f4 [128, 256]
0.085788 0.037231587 0.1416249 -0.10599262 0.13976817 0.095131844 0.08953292 0.10385079
-0.0034032543 -0.07393339 -0.07892048 0.07265132 0.0017376589 0.0098906895 -0.07135508 0.0435634
-0.034076106 0.14504366 0.0147333145 -0.2129599 0.016077666 0.073453866 0.2194172 0.11114428
0.0514179 -0.014822596 -0.10107716 -0.06740434 -0.077923425 -0.016652545 -0.087750606 -0.053588793
0.005654758 0.047058757 -0.06385024 -0.1108098 -0.027225938 -0.08148575 -0.09097097 -0.013126099
-0.110128485 0.02983235 0.056211136 0.013642895 -0.09932227 -0.04260996 -0.04513654 0.090150304
0.0052794246 0.0053760246 -0.11240428 0.037530575 -0.03582752 -0.018808456 0.027420912 -0.12975006
0.0886505 -0.10793818 0.09559697 0.01767637 0.053857826 -0.09179986 -0.116587676 -0.18763004
0.05938016 0.017289164 0.029246587 0.0027697033 -0.027338186 -0.13247627 -0.07451245 0.027071087
0.04744326 -0.056239802 -0.034810342 -0.06696954 -0.070633225 0.07683471 0.05430272 0.0005934097
-0.0150691485 0.07766475 -0.034697745 -0.1238351 -0.003493644 -0.066717856 0.10506785 0.026285475
0.0057450365 0.13026841 -0.10252857 0.1794816 0.071242295 -0.20468768 0.01179973 0.08823103
0.04635009 0.10569928 0.16212086 0.09269856 0.107019156 0.046736784 -0.041629113 0.03463899
0.10339771 0.13698068 -0.08931742 -0.042449612 -0.0021998025 0.060170766 0.10086008 -0.057448886
0.013810935 -0.061178073 -0.08790551 0.007392909 0.09787828 0.009038705 0.03977613 0.22295241
-0.052810345 -0.08143906 0.110815644 0.037436638 -0.111402124 -0.07473725 -0.04294223 0.03130864
-0.1828242 -0.078813754 0.13883348 0.029635755 0.008171148 -0.15317546 -0.107951745 -0.029229887
0.057014707 -0.012758514 -0.04529342 -0.0062221377 0.12817979 -0.0024644388 0.046036743 -0.08227543
-0.10776044 0.03149327 -0.010982217 0.15657665 -0.018701462 0.07230094 0.102229975 -0.08370772
0.18036872 0.04302961 -0.054142106 0.13129522 -0.026804486 -0.10586444 0.06937502 0.08748213
-0.012476803 0.041477926 -0.068824 0.061752852 -0.13027047 0.03131112 0.117634565 -0.07750356
-0.09777475 0.008653328 0.0379183 0.012067431 0.17078349 0.10823489 0.034032036 -0.19264776
-0.017912624 0.110967554 0.22621028 -0.07791056 0.018453186 0.025166785 -0.09675403 -0.043829218
0.03259815 -0.08980842 0.016624156 0.022928154 -0.04239497 0.012632151 0.035897113 0.03821431
-0.053671356 0.05753375 -0.11845847 -0.036906607 -0.07898466 0.13769788 0.06034985 -0.04818069
-0.055183835 -0.041518208 0.054071944 -0.09114151 -0.19140157 -0.0050440156 -0.10614291 0.02171865
0.027873335 -0.10210024 -0.20497999 -0.015175695 -0.06730083 0.021155192 -0.05728455 -0.07357194
-0.16888587 -0.07841547 -0.03927327 0.13084096 -0.0030722648 0.046187826 -0.10633177 -0.09752493
0.05117946 -0.020343529 -0.039498065 -0.0056287963 -0.061047178 -0.1265777 0.004582976 -0.037207417
-0.04367844 -0.055631682 0.052471373 -0.017762706 -0.043035552 -0.12741557 0.089398615 0.2450531
0.110405564 -0.022221442 0.0075364714 0.04370597 0.052515626 0.13309234 -0.043337923 -0.022023747
0.017798359 -0.040898684 0.030078761 0.003519189 -0.061075136 -0.0775848 -0.032192696 0.013191585
00000000: 9eb1 af3d 2680 183d 1e06 113e a912 d9bd
00000010: 631f 0f3e 7cd4 c23d 095d b73d b9af d43d
00000020: 2209 5fbb 646a 97bd 10a1 a1bd 37ca 943d
00000030: 28c2 e33a 8f0c 223c 9d22 92bd 896f 323d
00000040: 6393 0bbd 5386 143e 0064 713c 2912 5abe
00000050: 4fb5 833c fb6e 963d e7ae 603e 9d9f e33d
00000060: 939b 523d 79da 72bc 8b01 cfbd 490b 8abd
00000070: 5196 9fbd eb6a 88bc 97b6 b3bd ec7f 5bbd
00000080: 8c4b b93b afc0 403d eac3 82bd 40f0 e2bd
00000090: ee08 dfbc 00e2 a6bd fd4e babd d90e 57bc
000000a0: 0b8b e1bd f962 f43c a63d 663d 7386 5f3c
000000b0: 7969 cbbd c887 2ebd 18e1 38bd b9a0 b83d
000000c0: 06ff ac3b 5d29 b03b 3734 e6bd a9b9 193d
000000d0: e1bf 12bd 3114 9abc d2a1 e03c 33dd 04be
000000e0: 658e b53d b10e ddbd 58c8 c33d 09ce 903c
000000f0: 069a 5c3d 9101 bcbd 85c5 eebd 1722 40be
00000100: 9c38 733d 01a2 8d3c 8a96 ef3c e983 353b
00000110: 55f4 dfbc dca7 07be fc99 98bd 2fc4 dd3c
00000120: dd53 423d b55b 66bd 4a95 0ebd 5427 89bd
00000130: 27a8 90bd 845b 9d3d 876c 5e3d 0d8f 1b3a
00000140: 97e4 76bc b20e 9f3d 391f 0ebd 429d fdbd
00000150: 9ff5 64bb 5fa3 88bd d02d d73d a354 d73c
00000160: dc40 bc3b 1565 053e 80fa d1bd 06ca 373e
00000170: 7be7 913d a699 51be a853 413c 78b2 b43d
00000180: 98d9 3d3d dd78 d83d 0303 263e bed8 bd3d
00000190: dc2c db3d 126f 3f3d 4a83 2abd 9de1 0d3d
000001a0: 2ec2 d33d aa44 0c3e 0dec b6bd a5df 2dbd
000001b0: 902a 10bb 9f75 763d bb8f ce3d 864f 6bbd
000001c0: 4347 623c dc95 7abd ce07 b4bd 3740 f23b
000001d0: 6874 c83d 1417 143c 4cec 223d a34d 643e
000001e0: a94f 58bd 86c9 a6bd 50f3 e23d 2957 193d
000001f0: cc26 e4bd d80f 99bd 31e4 2fbd 7d3d 003d
00000200: 4436 3bbe 1b69 a1bd 5d2a 0e3e afc6 f23c
00000210: 47e0 053c 07da 1cbe ce15 ddbd 8473 efbc
00000220: 4188 693d 1609 51bc 9885 39bd 13e3 cbbb
00000230: 9041 033e 6c82 21bb 0691 3c3d 0580 a8bd
00000240: 81b1 dcbd 16ff 003d c2ee 33bc a155 203e
00000250: cf33 99bc 8412 943d f35d d13d f46e abbd
00000260: 94b2 383e d13f 303d 1dc4 5dbd 4172 063e
00000270: 1595 dbbc 75cf d8bd 7e14 8e3d d529 b33d
00000280: 816b 4cbc c2e4 293d 99f3 8cbd 8ff0 7c3d
00000290: 9f65 05be 1740 003d 64ea f03d 30ba 9ebd
000002a0: 213e c8bd b0c6 0d3c 3850 1b3d 79b6 453c
000002b0: dee1 2e3e 41aa dd3d 2d65 0b3d 7445 45be
000002c0: 7fbd 92bc f542 e33d aba3 673e 928f 9fbd
000002d0: 232b 973c 932a ce3c fa26 c6bd 4486 33bd
000002e0: a385 053d 7aed b7bd 622f 883c d3d3 bb3c
000002f0: 59a6 2dbd 15f7 4e3c da08 133d 9c86 1c3d
00000300: 7fd6 5bbd 82a8 6b3d 5b9a f2bd 622b 17bd
00000310: b6c2 a1bd ac00 0d3e 6831 773d 1d59 45bd
00000320: 7208 62bd ff0e 2abd 8b7a 5d3d 66a8 babd
00000330: c6fe 43be 4548 a5bb 7461 d9bd 4feb b13c
00000340: 9f56 e43c ee19 d1bd 46e6 51be 7aa3 78bc
00000350: 04d5 89bd a74d ad3c 34a3 6abd e3ac 96bd
00000360: 6bf0 2cbe 4a98 a0bd 02dd 20bd 2cfb 053e
00000370: 0d58 49bb 722f 3d3d 79c4 d9bd 27bb c7bd
00000380: 8ea1 513d 79a7 a6bc b9c8 21bd c471 b8bb
00000390: 9b0c 7abd 969d 01be ca2c 963b ce66 18bd
000003a0: 2ae8 32bd 0cde 63bd 39ec 563d 1883 91bc
000003b0: 0c46 30bd 3a79 02be 9f16 b73d 33ef 7a3e
000003c0: 501c e23d be09 b6bc 81f4 f63b 0805 333d
000003d0: a01a 573d 5c49 083e 1b83 31bd 256b b4bc
000003e0: ddcd 913c 6185 27bd bc67 f63c 32a2 663b
000003f0: ec29 7abd c8e4 9ebd 7ddc 03bd 8521 583c

ablang_branch.4.bias f4 [128]
-0.008686737 0.0056940736 -0.0015192794 -0.008356976 -0.007231934 0.011939756 -0.01738588 1.177079e-05
-0.010734984 -0.013844734 -0.012310901 -0.020312775 0.0025127493 -0.014461586 -0.014248202 -0.01954289
-0.002185278 -0.013207327 -0.006192168 -0.013911231 -0.012344713 0.0051925755 -0.000612284 -0.016310869
-0.009283015 -0.0132563505 0.007461772 -0.012011043 0.000781912 -0.011604586 -0.017960165 -0.019701041
0.0042511066 -0.01313903 0.0024965473 0.020847304 0.0016066022 0.012644625 0.010844918 0.0018020669
-0.011709768 -0.0011710488 -0.013717895 -0.0063311514 0.004708097 -0.018192194 0.027400563 -0.009073158
-0.012159971 -0.0010736798 0.014708243 -0.006665103 -0.003608164 -0.0059743244 -0.0075322394 -0.007270066
-0.009911503 0.018441366 -0.012561451 0.017735388 0.012687443 -0.01398196 -0.01428556 -0.012929371
-0.0037682129 -0.018137557 -0.015548831 -0.016499659 0.007707485 0.016073814 -0.0026964922 -0.012985268
0.0033131137 -0.024656417 0.015518994 0.007508708 -0.003887647 -0.00440217 -0.0039366595 -0.017153146
0.0065611736 -0.001168456 -0.011905275 -0.008774919 0.004946441 -0.019871637 0.012400253 -0.014757737
-0.0037081807 0.0152487755 -0.0040350123 -0.012148354 -0.00030723854 0.0159676 0.00042498985 -0.010509477
-0.0044701025 -0.008781448 -0.020538406 -0.00094575936 0.010700749 0.012842011 -0.0007852464 0.0072566513
-0.016116058 -0.012124002 -0.02364534 0.009737238 -0.017563809 -0.013475638 0.015894761 -0.012442725
0.0006859999 -0.0065250257 -0.0112705 0.0014815173 -0.01249548 0.00893395 -0.02711665 -0.0019076553
-0.024280004 -0.0014939755 -0.011589907 0.0057665575 0.004569191 -0.0009472775 -0.017553812 -0.007048862
00000000: d152 0ebc 5a95 ba3b 8f22 c7ba b3eb 08bc
00000010: dcf9 ecbb f79e 433c d56c 8ebc 287b 4537
00000020: c9e1 2fbc 06d5 62bc a9b3 49bc fa66 a6bc
00000030: f0ac 243b 4af0 6cbc 4a71 69bc 6918 a0bc
00000040: e236 0fbb 8b63 58bc ace7 cabb efeb 63bc
00000050: 7b41 4abc 7b26 aa3b af81 20ba 5f9e 85bc
00000060: c917 18bc 2a31 59bc e181 f43b f7c9 44bc
00000070: 3af9 4c3a 2921 3ebc 3221 93bc 1464 a1bc
00000080: de4c 8b3b 1645 57bc 1d9d 233b f7c7 aa3c
00000090: a094 d23a 672b 4f3c e2ae 313c 5533 ec3a
000000a0: 54da 3fbc e17d 99ba 06c1 60bc 8c75 cfbb
000000b0: 6146 9a3b cc07 95bc 2577 e03c 95a7 14bc
000000c0: 9d3a 47bc b7ba 8cba d8fa 703c f066 dabb
000000d0: f276 6cbb 44c4 c3bb 01d1 f6bb bc39 eebb
000000e0: db63 22bc 5912 973c 8bce 4dbc ce49 913c
000000f0: fede 4f3c 9714 65bc fb0d 6abc b6d5 53bc
00000100: 1ff4 76bb 3795 94bc 86c0 7ebc 4b2a 87bc
00000110: 128f fc3b 3bad 833c a2b7 30bb 29c0 54bc
00000120: d320 593b 41fc c9bc 6143 7e3c 9c0b f63b
00000130: e5c7 7ebb 1440 90bb 18ff 80bb c184 8cbc
00000140: 1dff d63b e126 99ba 580e 43bc aec4 0fbc
00000150: c115 a23b d8c9 a2bc 6e2a 4b3c 6fca 71bc
00000160: f304 73bb 00d6 793c 2338 84bb e409 47bc
00000170: dc14 a1b9 7cce 823c 2cd1 de39 f12f 2cbc
00000180: f079 92bb 10e0 0fbc 2940 a8bc d6ec 77ba
00000190: 3252 2f3c 4c67 523c fed8 4dba 34c9 ed3b
000001a0: d305 84bc c0a3 46bc dfb3 c1bc f088 1f3c
000001b0: fae1 8fbc ecc8 5cbc bb35 823c 92dc 4bbc
000001c0: add4 333a e2cf d5bb e7a7 38bc 792f c23a
000001d0: d7b9 4cbc b45f 123c bd23 debc 4a0a faba
000001e0: dce6 c6bc 80d1 c3ba 98e3 3dbc 64f5 bc3b
000001f0: 27b9 953b b852 78ba 03cd 8fbc 24fa e6bb

ablang_branch.5.weight f4 [128]
0.9863109 0.9986894 0.99272496 0.98944783 0.99199873 0.9948654 1.0063882 0.98208106
0.98950744 1.0000917 0.9875871 0.98751724 0.99156547 0.9781096 0.9855772 0.9747288
0.99400634 0.98942447 0.99987054 0.9849544 0.9751209 0.9947698 0.99740267 0.99212754
0.9726434 1.0144228 1.0052727 0.9771944 1.0014863 0.9816465 0.9838198 1.0122857
0.9868113 0.9961117 1.0033675 1.0224636 0.99265724 1.0135071 1.0035732 0.99292076
0.98171884 1.0117767 1.0033513 0.9878018 1.00101 0.9814372 1.021969 0.98301923
0.9790992 0.98199207 1.016178 0.98156524 0.9967634 0.997349 1.0092407 0.9716533
0.99040335 1.0200768 0.9769452 1.0191362 1.0090796 0.98447764 0.98241395 0.9769851
1.0032539 0.9841891 1.0005008 1.0015591 1.0009843 1.0158343 0.993255 0.98222625
0.998734 0.9758805 0.9999888 0.9966157 0.973862 0.9956873 0.99539834 1.0029022
1.0048653 0.98891056 0.9842004 0.9843065 1.0093668 1.0145214 1.0057735 0.97022545
0.99114746 1.0096185 0.9884368 0.99095273 0.9973766 1.0057043 0.99455374 0.99148834
0.98560184 0.9912969 0.99757034 0.98722965 1.0023746 1.0099523 1.0130078 1.0020012
0.9920523 0.98258877 0.9686917 1.0048876 0.98484415 0.9865231 1.0153706 0.9744199
0.9930433 0.9833463 0.99210954 1.0040612 0.9805715 0.9983482 0.99921495 0.97515
0.99802005 0.9801135 0.99956715 0.9996259 1.001918 1.0169004 1.0003935 1.0003784
00000000: df7e 7c3f 1caa 7f3f 3923 7e3f 744c 7d3f
00000010: a1f3 7d3f 80af 7e3f 54d1 803f aa69 7b3f
00000020: 5c50 7d3f 0103 803f 82d2 7c3f eecd 7c3f
00000030: 3cd7 7d3f 6465 7a3f ca4e 7c3f d487 793f
00000040: 3377 7e3f ec4a 7d3f 84f7 7f3f f925 7c3f
00000050: 86a1 793f 3ca9 7e3f c855 7f3f 12fc 7d3f
00000060: 28ff 783f 9bd8 813f c7ac 803f 6a29 7a3f
00000070: b430 803f 2f4d 7b3f 9ddb 7b3f 9492 813f
00000080: aa9f 7c3f 2d01 7f3f 596e 803f 16e0 823f
00000090: c91e 7e3f 9aba 813f 1675 803f 0e30 7e3f
000000a0: ed51 7b3f e681 813f d16d 803f 94e0 7c3f
000000b0: 1821 803f 783f 7b3f e1cf 823f 26a7 7b3f
000000c0: 3fa6 7a3f d563 7b3f 1f12 823f dc47 7b3f
000000d0: e32b 7f3f 4452 7f3f cd2e 813f 45be 783f
000000e0: 138b 7d3f e091 823f 1519 7a3f 0e73 823f
000000f0: 8529 813f ba06 7c3f 7b7f 7b3f b21b 7a3f
00000100: a06a 803f d1f3 7b3f 6910 803f 1733 803f
00000110: 4120 803f dc06 823f f645 7e3f 2e73 7b3f
00000120: 08ad 7f3f 4ed3 793f 44ff 7f3f 3522 7f3f
00000130: 054f 793f 5de5 7e3f 6dd2 7e3f 195f 803f
00000140: 6d9f 803f 3e29 7d3f 8ff4 7b3f 83fb 7b3f
00000150: ee32 813f d6db 813f 30bd 803f b260 783f
00000160: d7bb 7d3f 2e3b 813f 320a 7d3f 14af 7d3f
00000170: 1354 7f3f ebba 803f 139b 7e3f 2ed2 7d3f
00000180: 6750 7c3f a2c5 7d3f c560 7f3f 15bb 7c3f
00000190: d04d 803f 1e46 813f 3daa 813f 9341 803f
000001a0: 24f7 7d3f f08a 7b3f 2efc 773f 28a0 803f
000001b0: bf1e 7c3f c78c 7c3f aaf7 813f 9573 793f
000001c0: 1638 7e3f 95bc 7b3f e4fa 7d3f 1485 803f
000001d0: bc06 7b3f bf93 7f3f 8dcc 7f3f 6ea3 793f
000001e0: 3e7e 7f3f b8e8 7a3f a2e3 7f3f 7ce7 7f3f
000001f0: d93e 803f cb29 823f e50c 803f 660c 803f

ablang_branch.5.bias f4 [128]
-0.005555408 0.005419289 0.0006576845 -0.0064957566 -0.0036067876 0.013347357 -0.018464584 0.0035381592
-0.00941318 -0.010325125 -0.0115030855 -0.020106902 0.0030970154 -0.012911984 -0.013624314 -0.015209865
4.5708457e-06 -0.013522983 -0.003161921 -0.014710778 -0.010521487 0.0060359077 0.00120308 -0.013837652
-0.0055250013 -0.013792999 0.0070580067 -0.012512 0.00245342 -0.012052611 -0.017072989 -0.016713312
0.005326751 -0.013427921 0.0037841026 0.022815267 0.0021026342 0.013246098 0.009772935 0.0082673
-0.010232509 0.0039122095 -0.013906161 -0.0076347934 0.004172965 -0.018301861 0.028031997 -0.008895403
-0.011160195 -6.680292e-05 0.017758714 -0.006205802 0.0049436344 -0.0039105113 -0.0040963436 -0.007947624
-0.008276343 0.02092814 -0.01205886 0.018976608 0.014294986 -0.014984089 -0.011991199 -0.012587995
-0.0018234933 -0.017870685 -0.014723728 -0.010680006 0.007981936 0.015863452 -0.00021467982 -0.00783463
0.002182976 -0.022602225 0.015510904 0.0075267632 -0.0020681848 6.113392e-05 -0.0007353885 -0.018740552
0.009936469 -0.0015037637 -0.012185123 -0.009046599 0.0048686964 -0.017053379 0.012804715 -0.012698631
-0.0039807544 0.015729627 -0.0009034502 -0.011380912 -8.63926e-05 0.01672 0.0002663235 -0.007966279
-0.001971496 -0.0060656634 -0.020304294 -0.001248222 0.011129122 0.012654501 -0.0011343044 0.0080420375
-0.013060119 -0.013977987 -0.020651512 0.010213868 -0.0143831745 -0.012158768 0.01765417 -0.007845041
0.002306618 -0.00598718 -0.008093619 0.0034865786 -0.013103135 0.010250336 -0.023358626 -0.00089868903
-0.024692502 -0.0018492411 -0.009555563 0.0072068907 0.005678021 9.7025884e-05 -0.015102433 -0.0032393325
00000000: 240a b6bb 4b94 b13b 7668 2c3a 5bda d4bb
00000010: db5f 6cbb dfae 5a3c 0a43 97bc 76e0 673b
00000020: bd39 1abc b72a 29bc 7077 3cbc 3bb7 a4bc
00000030: 4cf7 4a3b c98c 53bc 8438 5fbc cc32 79bc
00000040: 445f 9936 808f 5dbc 3b38 4fbb 7a05 71bc
00000050: 5162 2cbc ddc8 c53b abb0 9d3a 52b7 62bc
00000060: 120b b5bb 08fc 61bc da46 e73b 22ff 4cbc
00000070: 8fc9 203b 5178 45bc a7dc 8bbc 5bea 88bc
00000080: 078c ae3b c800 5cbc b5fe 773b 15e7 ba3c
00000090: 59cc 093b 2906 593c a91e 203c 9273 073c
000000a0: 41a6 27bc fe31 803b abd6 63bc 4a2d fabb
000000b0: 5ebd 883b c9ed 95bc 5ca3 e53c 06be 11bc
000000c0: 40d9 36bc 8b18 8cb8 b97a 913c 0a5a cbbb
000000d0: 36fe a13b bf23 80bb 9f3a 86bb c036 02bc
000000e0: 8099 07bc 7e71 ab3c 8692 45bc d574 9b3c
000000f0: 8435 6a3c d37f 75bc bc76 44bc e13d 4ebc
00000100: 4802 efba 8b65 92bc cb3b 71bc 31fb 2ebc
00000110: abc6 023c 12f4 813c ad1b 61b9 d25c 00bc
00000120: 4310 0f3b 4d28 b9bc 7221 7e3c 11a3 f63b
00000130: 628a 07bb 0635 8038 16c7 40ba c985 99bc
00000140: 92cc 223c f019 c5ba 1ca4 47bc 3038 14bc
00000150: 9689 9f3b 87b3 8bbc deca 513c eb0d 50bc
00000160: fd70 82bb 6bdb 803c 84d5 6cba 0177 3abc
00000170: ad2d b5b8 62f8 883c 56a1 8b39 ff84 02bc
00000180: 3734 01bb 79c2 c6bb 3155 a6bc 619b a3ba
00000190: ec56 363c d354 4f3c f1ac 94ba c0c2 033c
000001a0: 1cfa 55bc ed03 65bc 5c2d a9bc 1158 273c
000001b0: 68a7 6bbc 9235 47bc 7a9f 903c 7d88 00bc
000001c0: a12a 173b 1b30 c4bb 199b 04bc 157f 643b
000001d0: 88ae 56bc 06f1 273c 975a bfbc 0096 6bba
000001e0: ee47 cabc 3c62 f2ba f08e 1cbc c827 ec3b
000001f0: b10e ba3b 607a cb38 3270 77bc fb4a 54bb

ablang_branch.7.weight f4 [64, 128]
-0.17740351 0.102603056 -0.15059815 -0.030898854 -0.046814952 -0.07275721 0.020258378 -0.0975103
-0.12640767 -0.08466116 -0.043175273 -0.028338157 0.23638104 0.22489357 -0.035109617 -0.1809085
0.025417589 -0.09021195 0.06354099 -0.044373248 0.16582513 0.13127698 0.062196717 -0.066948675
0.0031200855 0.24149211 0.12948287 -0.05203212 -0.0020762696 0.068383045 -0.061594043 -0.009883487
-0.045454856 -0.058758035 -0.054373797 0.14446777 0.027851721 0.05090109 -0.1685887 0.09130045
-0.016182097 -0.15702704 -0.09196441 0.048647933 -0.00013709745 0.15901111 0.113367856 -0.040271472
0.2134129 0.015037807 0.28601903 0.058541197 -0.13908114 0.035027124 0.047864843 -0.13747749
0.035635818 0.1044768 0.018251924 0.22387576 0.031260032 -0.09855257 -0.20208211 0.055499893
0.014933573 -0.24008557 0.007897885 0.11613209 0.08482522 0.12465729 0.004047929 -0.06805735
0.028077144 -0.021042855 0.23754366 0.04128462 -0.05660032 0.019566689 0.057570852 -0.05598911
-0.051071443 0.07062497 0.083817 -0.10738168 -0.15195909 0.00035920803 -0.06739122 0.016450109
-0.16785802 0.12799947 -0.058848973 -0.37014177 -0.2002985 0.16239676 -0.06811534 -0.028883817
0.112881616 0.080817066 -0.23293109 -0.17815918 0.18704386 -0.009622774 0.0972967 0.06136424
0.03272143 -0.10886931 -0.20499183 -0.01700524 -0.048231002 -0.050978005 0.20796368 0.014808922
0.05860572 0.09859486 0.07724376 0.012341538 -0.062369343 0.12809914 -0.22057979 -0.013008594
-0.11928337 0.073665 -0.09682294 0.2114075 -0.017022297 0.16108118 -0.04273844 -0.14164102
0.018722504 -0.10246351 0.04487944 0.16628733 -0.15042582 -0.16825913 0.18587962 0.06831733
0.16815798 -0.15016519 -0.16493258 -0.041784424 -0.014422943 -0.13386714 0.07766205 -0.21020274
0.062588274 0.15053591 -0.036878776 0.19804834 -0.16767819 -0.011229103 -0.17422736 -0.013066392
-0.30994877 0.31362098 -0.13422374 -6.423953e-05 0.029139476 0.4130236 0.014485563 -0.06576826
-0.0828529 0.39139715 -0.1548707 -0.019785736 -0.08529814 -0.067774445 0.015595221 -0.17598116
0.04638225 -0.14930984 -0.05564878 0.10350358 -0.15168132 0.040507585 0.061188713 -0.22611727
-0.28653893 -0.07506752 0.06451145 0.03438757 0.048375256 -0.06329551 0.11636703 -0.073417015
-0.09648566 -0.045939583 -0.075098395 -0.06837557 0.20922077 0.017793749 0.1261332 0.04187039
-0.040328864 -0.10445518 -0.21247186 0.03942867 0.002294281 0.030409683 0.020679552 -0.024548376
0.03760254 0.2405556 -0.018171187 0.034178462 -0.07524202 0.07884223 0.16559345 0.14518885
0.13990355 -0.17350774 -0.0773972 0.18578452 -0.025514726 0.15583679 -0.21119605 -0.05302921
-0.09130469 -0.017861001 -0.15184587 0.043194603 -0.023747845 -0.0955432 0.053400278 0.12082493
-0.24933782 0.116041094 -0.037532642 0.17074278 -0.086096436 0.001877404 -0.22021808 0.2319924
0.086927466 -0.13432388 -0.1428142 -0.07717523 0.037103944 -0.03482379 -0.17771167 -0.2121961
-0.0703402 0.20980063 -0.20511469 -0.29182142 -0.10949664 0.2237782 -0.006237909 -0.07855567
0.10850841 -0.09061655 -0.037641373 0.057135068 -0.12473651 0.07849152 0.11266112 0.089885496
00000000: 44a9 35be 8d21 d23d 6736 1abe 981f fdbc
00000010: 09c1 3fbd bb01 95bd e6f4 a53c 7bb3 c7bd
00000020: 0371 01be d562 adbd 8ed8 30bd 6c25 e8bc
00000030: df0d 723e 804a 663e 1acf 0fbd 1440 39be
00000040: 8c38 d03c 0bc1 b8bd c721 823d b9c0 35bd
00000050: 10ce 293e 796d 063e fcc1 7e3d 631c 89bd
00000060: 597a 4c3b b549 773e 2897 043e a21f 55bd
00000070: 0612 08bb 690c 8c3d 094a 7cbd 59ee 21bc
00000080: df2e 3abd 44ac 70bd 0fb7 5ebd 5cef 133e
00000090: 4b29 e43c a97d 503d 84a2 2cbe bbfb ba3d
000000a0: 5190 84bc b2cb 20be d657 bcbd 0e43 473d
000000b0: d1c1 0fb9 cfd3 223e 682d e83d b3f3 24bd
000000c0: e988 5a3e 2261 763c 1671 923e e5c8 6f3d
000000d0: 496b 0ebe 9a78 0f3d ed0d 443d e6c6 0cbe
000000e0: ddf6 113d eff7 d53d 0f85 953c b03f 653e
000000f0: 850a 003d eed5 c9bd 9dee 4ebe db53 633d
00000100: f2ab 743c fed8 75be 2166 013c a9d6 ed3d
00000110: d8b8 ad3d 524c ff3d 7da4 843b a761 8bbd
00000120: 0a02 e63c 1162 acbc a53e 733e 101a 293d
00000130: bdd5 67bd 524a a03c 6acf 6b3d d654 65bd
00000140: 4a30 51bd d3a3 903d 3fa8 ab3d edea dbbd
00000150: 2a9b 1bbe 1654 bc39 6804 8abd 61c2 863c
00000160: f9e2 2bbe 4b12 033e 9f0b 71bd 3983 bdbe
00000170: 0d1b 4dbe 564b 263e 0e80 8bbd c19d ecbc
00000180: 7a2e e73d 6b83 a53d 7d85 6ebe 5c6f 36be
00000190: 6d88 3f3e d7a8 1dbc 7e43 c73d 1259 7b3d
000001a0: e806 063d dff6 debd 61e9 51be 934e 8bbc
000001b0: df8d 45bd 50ce 50bd 6ef4 543e 1fa1 723c
000001c0: 8d0c 703d 1aec c93d fa31 9e3d 2a34 4a3c
000001d0: ff76 7fbd 6c2c 033e abdf 61be ff21 55bc
000001e0: d74a f4bd addd 963d 1b4b c6bd 357b 583e
000001f0: 5872 8bbc 77f2 243e 810e 2fbd 580a 11be
00000200: f05f 993c 64d8 d1bd 81d3 373d 3a47 2a3e
00000210: 3a09 1abe 1f4c 2cbe 3a57 3e3e f5e9 8b3d
00000220: 9b31 2c3e e7c4 19be 16e4 28be 2526 2bbd
00000230: 354e 6cbc 7814 09be 480d 9f3d 633f 57be
00000240: 482e 803d 1626 1a3e 330e 17bd 2fcd 4a3e
00000250: d5b3 2bbe 46fa 37bc a868 32be 6c14 56bc
00000260: 9bb1 9ebe ee92 a03e f371 09be 56b8 86b8
00000270: e9b5 ee3c d477 d33e db54 6d3c 82b1 86bd
00000280: c8ae a9bd 3565 c83e 6d96 1ebe b215 a2bc
00000290: cbb0 aebd 54cd 8abd 1983 7f3c 6834 34be
000002a0: 50fb 3d3d aee4 18be faef 63bd aff9 d33d
000002b0: 5952 1bbe 48eb 253d 04a1 7a3d 498b 67be
000002c0: 3bb5 92be 00bd 99bd 941e 843d fbd9 0c3d
000002d0: 2225 463d 14a1 81bd d651 ee3d a95b 96bd
000002e0: 469a c5bd 252b 3cbd 30cd 99bd 7e08 8cbd
000002f0: f83d 563e 32c4 913c 1029 013e 4980 2b3d
00000300: e12f 25bd 99ec d5bd 3992 59be f57f 213d
00000310: a65b 163b ba1d f93c 2a68 a93c ad19 c9bc
00000320: 1f05 1a3d 3554 763e bedb 94bc b7fe 0b3d
00000330: 7d18 9abd 0978 a13d 5491 293e 63ac 143e
00000340: e042 0f3e 03ac 31be 6c82 9ebd 4c3e 3e3e
00000350: 4204 d1bc ae93 1f3e c743 58be 2835 59bd
00000360: f4fd babd 3c51 92bc 7c7d 1bbe d3ec 303d
00000370: d78a c2bc 27ac c3bd 40ba 5a3d 1073 f73d
00000380: 6a52 7fbe f4a6 ed3d d4bb 19bd 32d7 2e3e
00000390: 5453 b0bd 3a13 f63a d980 61be 6a8f 6d3e
000003a0: 0707 b23d 338c 09be e33d 12be 0c0e 9ebd
000003b0: 4efa 173d 64a3 0ebd 0cfa 35be ef49 59be
000003c0: 860e 90bd fad5 563e 9609 52be 9e69 95be
000003d0: c63f e0bd 1d26 653e 6067 ccbb cce1 a0bd
000003e0: a839 de3d 2b95 b9bd d72d 1abd 7606 6a3d
000003f0: db75 ffbd 29c0 a03d e0ba e63d e315 b83d

ablang_branch.7.bias f4 [64]
0.018381583 -0.012271146 -0.0064645736 0.0010939421 -0.008083165 -0.0047033583 0.0013554714 0.007196551
-0.009537269 -0.010265875 0.006381304 -0.015077541 -0.019880136 -0.012713065 -0.011612772 0.013489792
-0.008620571 -0.016654594 -0.019318802 0.00572291 -0.006203487 -0.018136546 0.00547781 -0.010960488
0.012805177 -0.011019524 -0.0070930077 0.0023746178 -0.00065404165 0.0010321969 -0.01266487 -0.0013000639
-0.013994369 0.012521045 -0.014559095 0.010753114 0.0032660635 -0.001002141 -0.006119458 -0.011568927
0.0016632344 -0.010460699 0.0031909368 -0.005684421 0.012047705 -0.018721947 0.0041104695 -0.0021759542
0.015087679 -0.0023666166 -0.011764697 -0.0043805614 -0.017959595 0.014348047 -0.013716606 0.0042318697
0.020391788 -0.013126009 -0.019598965 0.004851653 0.0069391243 -0.01686224 -0.013079009 -0.0015586832
00000000: f994 963c eb0c 49bc c6d4 d3bb 9b62 8f3a
00000010: 406f 04bc a11e 9abb 13aa b13a 0cd1 eb3b
00000020: 3542 1cbc 3332 28bc 421a d13b ca07 77bc
00000030: abdb a2bc 764a 50bc 7f43 3ebc 4a04 5d3c
00000040: 4c3d 0dbc 376f 88bc 7742 9ebc 4087 bb3b
00000050: 9f46 cbbb 1893 94bc 337f b33b 9e93 33bc
00000060: cecc 513c 3c8b 34bc 766c e8bb 7a9f 1b3b
00000070: fe73 2bba c84a 873a 5180 4fbc e866 aaba
00000080: a348 65bc 1225 4d3c 4589 6ebc d42d 303c
00000090: 740b 563b 465a 83ba bc85 c8bb 998b 3dbc
000000a0: e300 da3a 5a63 2bbc 091f 513b 6144 babb
000000b0: bd63 453c c55e 99bc 1eb1 863b 749a 0ebb
000000c0: 5032 773c 3d19 1bbb b7c0 40bc d08a 8fbb
000000d0: 0020 93bc 1214 6b3c 9ebb 60bc 7fab 8a3b
000000e0: ae0c a73c 790e 57bc 028e a0bc 9dfa 9e3b
000000f0: 9861 e33b ae22 8abc 5749 56bc bb4c ccba
