data/model_weights/cv_fold_1_model2_4.pt (torch, 686405 bytes, 27 tensors)

ablang_branch.0.weight f4 [256, 480]
00000000: c636 fe3c 92a1 863d ef78 33bd 5044 d6bd
00000010: 060f ac3d fa7f 4a3c cb1f 533c ebb9 0d3d
00000020: 3b83 cc3c 7be9 2cbd 8a37 4bbd 020b a53c
00000030: ba12 1fbe cb6b 10bb 34ca bc3d f917 d1bd
00000040: 348f 21bc 28ca 943d 1d4b 043d 8c5c f7bd
00000050: ab64 34bd 4cec 103d 1786 51bd 0e51 0e3d
00000060: 1d8f 573d 3864 b33d 1aea ccbb 519c 4abd
00000070: 4d33 a1bd ddab 2d3d 4d99 d13c 4b27 34bd
00000080: 9eaf b3bd ba09 20bd ed0e 88bd a5a2 d8bd
00000090: 055c a13c 05d9 5bbc ced5 a9bd 1cea 3a3d
000000a0: 0211 ad3d 8880 edbc 6b72 b43c edac afbc
000000b0: 8046 9a3d d5ed acbc b8cd e1bd fa2f 683c
000000c0: 3292 b4bd 537d 79bd 4d8c cabc d918 843d
000000d0: d163 6fbd 7117 003e 64ef 533d 368f 0a3d
000000e0: 73a5 10be 3f53 573d 3279 253d 4d9e 72bd
000000f0: 2320 2b3d 3c68 4bbc 2a66 cd3d 0a80 ab3d
00000100: 698d a33c 0aef 823c ab0b 3c3d 5ff0 bf3d
00000110: 2c35 fa3d dbe7 2e3d aab5 a1bd 990e aa3d
00000120: 848e 8bbd 8eb1 81bd be74 e6bc 2f24 8c3d
00000130: 7013 d43c 7d5f 36bd c3be a33c eaa9 ecbc
00000140: b079 e1bc 3deb 653a 2d7b 603c 1c31 aa3d
00000150: b3ad 193d 0934 b3bd fa24 16bd 254a b2bd
00000160: 4985 6cbd 60c6 303d 7565 5c3d 8626 7a3d
00000170: 7932 8b3d ddcb 14bd 602c 8a3d 2a32 97bd
00000180: 3ab7 4cbd 5961 db3c 75e2 d53d 3adf f5bd
00000190: f7a5 8e3d 1750 793d a19b 16bd 349f 113d
000001a0: 1ed2 84bd 3f2b 503b ce85 a03d 4f37 45bc
000001b0: 1e16 90bc 77a5 e73d 8d9a afbd f761 07bd
000001c0: 9e17 c2bd e0a8 c3bc 240c a13c 13c8 353d
000001d0: 8b8c 263e eebb a8bd c344 4fbd 16fc c5bd
000001e0: 3dfb 94bc 40cc 6bbd 74ea d6bb 8598 8cba
000001f0: 50f2 253d 5f28 c1bc 2e7d d83b 7229 43bc
00000200: 9e75 15bd af8d ffbc 3a9e 2e3d 03e0 d53d
00000210: 7310 d8bc 8226 703d f35b 513c 0c76 943d
00000220: 686f 59bc 981e 38bc 7826 053c 286b bc3d
00000230: 72b8 ed3d 407a 8dbc 5efc a23c 531c bdbc
00000240: 1081 353c 4edb 23bd 78e3 593c f14c 2ebc
00000250: 4a91 5abd e6c9 d33d 1afe 1ebd b182 a3bd
00000260: 40f9 963d f798 143e 23e6 bc3d 49bd 2ebe
00000270: ad4c be3d cb9f a73b 3069 91bd 6662 493c
00000280: 6e3b 823d bba9 44bd 24e0 0fbe 85e7 773d
00000290: 878d 60bb e332 3e3d e0a4 9d3c ed2e 9e3d
000002a0: 4db6 133d db31 e3bd b677 5b3c c2cf 50bd
000002b0: 71e4 57bd 9fe7 853c 38b4 0abe 88ce 9cbc
000002c0: 760e 123e e160 8cbd 9e8f 1b3d a70c b4bd
000002d0: 7272 b93c 72dc 873c ce29 a13d 184d e33c
000002e0: 224b 57bd eb63 eb3d f030 dc3b a0e5 52bd
000002f0: 95c7 ecbc ca66 d23c 5550 833d 2a15 c7bd
00000300: fc0d bcbd 8ccb 99bc 2eb5 36bd 86ab 0bbe
00000310: dc60 9d3d f6a1 89bd 7713 aebc 413c aa3c
00000320: abc0 d5bd 89b2 4d3d 892c 29bd 8a22 69bd
00000330: b1f8 43bd aa1b 0d3d 2661 1f3c 1dfa efbc
00000340: 00bb 963d 5692 c03c 2e80 2ebc ab0e 4d3c
00000350: b57a 40bc 9b2e c73c 2dce a63d 5798 a4bd
00000360: 76c9 04bd e290 923d 9d59 8dbd 48ff 8d3d
00000370: a1a5 b3bd ca76 393d 67c6 45bd 3622 d83d
00000380: 7b79 20bd 2594 643c 2c90 4dbd 4f25 8cbb
00000390: 8985 82bb 5b4f 9d3d 0b12 29be e2a9 c8bd
000003a0: cf35 edbd cdc1 0d3d 8f17 5c3d 3234 b5bc
000003b0: 7078 03bc f8bc 3bbd 3400 703d bbea a13d
000003c0: 401c c43c dc24 393d a9e3 c73c 3f7c f53c
000003d0: b959 afbc 18e1 823d 69d9 6f3d 1993 0abe
000003e0: 93a3 1ebd e636 9a3d b6db ae3d eff8 983d
000003f0: 2eb4 9e3d add1 f53c e570 a93d c4e2 95bd
0.031031977 0.06573786 -0.043816503 -0.10462248 0.08401303 0.012359614 0.012885998 0.034601133
0.02496492 -0.04221485 -0.049613513 0.02014685 -0.15534487 -0.0022036906 0.09218255 -0.102096505
-0.009860802 0.07265121 0.032298196 -0.12078199 -0.044041317 0.0353816 -0.05115327 0.03474527
0.052626718 0.087593496 -0.006253493 -0.04946548 -0.07871113 0.04240023 0.025585795 -0.043982785
-0.08773731 -0.039071776 -0.06643472 -0.10577897 0.019697199 -0.013418441 -0.08292733 0.04563342
0.084505096 -0.028991953 0.022027215 -0.021444762 0.07532978 -0.0211095 -0.11025566 0.014171595
-0.08816947 -0.060910534 -0.024725104 0.06450052 -0.0584448 0.12508942 0.051741973 0.033827983
-0.14125614 0.052569624 0.040398784 -0.059233 0.041778695 -0.012414988 0.10029252 0.08374031
0.01996489 0.015983123 0.045909565 0.09372019 0.12217173 0.042701583 -0.07895978 0.083035655
-0.06814292 -0.06332694 -0.028131839 0.06842839 0.025888175 -0.04452466 0.019988423 -0.028889615
-0.027523845 0.000877071 0.013701242 0.08310148 0.037519168 -0.08750159 -0.036656357 -0.08705548
-0.057744298 0.043157935 0.053807694 0.061071895 0.06796736 -0.03632723 0.06746745 -0.07382615
-0.049979426 0.026779817 0.10443584 -0.12005468 0.06965249 0.060867395 -0.036769513 0.03555222
-0.06485389 0.0031764058 0.07838021 -0.012037112 -0.017588671 0.11310857 -0.085744 -0.03305241
-0.09477161 -0.023884237 0.01965911 0.04438026 0.1626455 -0.0823897 -0.050602686 -0.09667222
-0.018186206 -0.057567835 -0.0065587107 -0.0010726607 0.04051429 -0.02357882 0.0066067195 -0.011911737
-0.03648912 -0.03119549 0.042631365 0.104431175 -0.026375031 0.058630474 0.01277827 0.07249078
-0.01327119 -0.011237763 0.008126847 0.09200126 0.11607446 -0.017270207 0.019895729 -0.023084795
0.011078134 -0.040004067 0.013298862 -0.010638461 -0.053361215 0.103412434 -0.03881655 -0.07983912
0.073717594 0.14511476 0.092235826 -0.17064394 0.092919685 0.0051154844 -0.07100141 0.012291526
0.063589916 -0.04801343 -0.14050347 0.06052353 -0.0034264044 0.046435248 0.019243658 0.07723794
0.036062527 -0.110934936 0.0133952405 -0.050979383 -0.052708093 0.016345797 -0.1354531 -0.01914145
0.14263329 -0.06854416 0.03797876 -0.08791476 0.02263758 0.016584609 0.07869302 0.027746722
-0.052561887 0.11493667 0.006719701 -0.05148852 -0.028903762 0.02568378 0.064118065 -0.097208336
-0.09182355 -0.018773817 -0.04460638 -0.1363965 0.0768449 -0.06720345 -0.021249516 0.020780684
-0.10437139 0.050219093 -0.041302238 -0.056917705 -0.047844592 0.03445021 0.009727752 -0.029294068
0.07359886 0.023507278 -0.010650678 0.012515704 -0.011748006 0.024314215 0.08144794 -0.08036869
-0.03241869 0.071565405 -0.06901858 0.06933457 -0.087718256 0.0452793 -0.048284914 0.105534
-0.039178353 0.013951336 -0.05018632 -0.0042769085 -0.003983204 0.076811515 -0.16510789 -0.097980276
-0.11582529 0.03460865 0.053733405 -0.022119615 -0.00802432 -0.04583451 0.058593944 0.079060994
0.023939252 0.045201167 0.024400549 0.029966472 -0.021405088 0.063905895 0.058556948 -0.13532676
-0.038730215 0.07530002 0.08538 0.07469355 0.0774921 0.030007208 0.08273486 -0.07318643

ablang_branch.0.bias f4 [256]
00000000: c91b 8abb 01dc 983b debc f3bb 56a1 ffba
00000010: 68c6 05bc fc77 baba ef8b 87bb 5602 7e3c
00000020: b127 e3bb a23c 39bc e746 80bb 90b9 9fbb
00000030: f65c ca3b 97b2 dbbb 5103 2ebc 37e3 c3bb
00000040: 3c1f 15bc b24f fcbb 6bd6 e6bb a233 73bb
00000050: f446 cc3b d746 17bb 9f08 f5bb 9a6b 9138
00000060: 1ade 3bbc 0e6d 16bb 5d1c 24bc 0044 903a
00000070: 6bd3 8bba 01a2 21bc 02fb 02bc 1c2d cbba
00000080: 9e99 19bc 9c5b d3ba aae9 0ebc 50d2 d73b
00000090: cf69 e4bb 6bae 053c 1d18 d73a 5811 153c
000000a0: 01f9 0f3c 6ca7 41bc a587 d3bb 170e 08bc
000000b0: d7f2 4a3b de9d 9ebb 00c8 f83a d616 12bc
000000c0: c75f 9b3a 2c9d e7bb 474a 4cbb bc46 d8bb
000000d0: 3af8 82bb fe5e fdbb a9f4 febb 9596 a13b
000000e0: 8341 223c 767c 0dbc 03ee 17bc 5b1c ac3a
000000f0: a12e acbb e7ec 2c3c 0f8c 10bc 7a62 bd3b
00000100: 3233 a23b b57a adbb b0c2 2e3b 8421 02bc
00000110: efa0 1e3b b97e 17bc 5203 9bba 1235 abba
00000120: 89d2 3b3c a2f1 1b3b 760e 7cbb cb92 993b
00000130: d896 baba 882d cbbb 3d87 42bb df33 76bc
00000140: 1c50 f0bb e282 a2bc 855c 4ebc 3916 4cbb
00000150: 476a c4ba 0ae4 823a 37dc 133c 8e1f 9dbb
00000160: 32ac 3bbc e427 f5bb 8a4d 0c3c d56e 903b
00000170: 5e6a 1cbb 5997 3d3c 3bd1 e5bb e7c1 17bb
00000180: 5290 16bc 2bd2 f7bb c4e2 253c b3d3 6a3c
00000190: bc4a 7cbb a1f2 bbbb 5d97 563c 4492 b3bb
000001a0: 441a 06bb bb6e 363c 2b24 60bb 0e5e f3bb
000001b0: 6a2e 033b 41ad a7bb 5f70 2c3c 8af2 44bc
000001c0: ba99 4ebb ed5a f2ba 10d1 f23b 8452 c6bb
000001d0: f449 3d3c f029 c5bb 2f23 90bb 41f9 86bb
000001e0: 3f9d adbb c358 c23b 8b8c 1ebc 5675 683c
000001f0: 1df0 813c 657f 583c 9616 8a3c 472a a2bc
00000200: 3ecf 63bc cbaf c8bb 0251 ecbb 2fd3 05bc
00000210: f77f 3339 ce9a 8f3a 5442 b3bb 8e06 b0bb
00000220: e3fa c0bb dc5a dabb 7966 0c3c e21d fdbb
00000230: 693d 8c3a ca52 09bc 2c25 cebb ea88 173c
00000240: c95d 26bb c511 293b 729c fab9 f9f3 08ba
00000250: 8b3c 753c 3f8e 7c3c c316 373b 7c5e f6bb
00000260: 9f61 0d3c 44f2 26bc 8790 103c 59b5 dbba
00000270: e6b2 f83a acbf bcbb 1593 dbbb 2852 033c
00000280: 447e 23bb 6f41 483c f65d 383c 8d8c 67ba
00000290: 151f e03a 4009 acbb 5e12 dbbb 7240 05bb
000002a0: 5bc4 02bc 5511 eebb 88d6 16bc 4fe4 1c3c
000002b0: 5802 f5bb 60ca 8e3c e4b1 00bc df36 12bc
000002c0: b02a 5c3a d58b ffbb 9d9c bc3b c1d2 a83c
000002d0: 6d3f 0c3a 996e b13a 6023 2cbb fc0d b73b
000002e0: cad7 26bb ba9f 4fbc 8f47 58bc bec1 2f3c
000002f0: f1c8 613c daaa 843c 82d9 19bc 0b4c 14bb
00000300: 9ba3 8d3b d714 60bb 30a4 76bb 0686 e13a
00000310: e270 b83b 5583 bcbb a71e ddbb 519b e43c
00000320: e6d4 53ba 7a68 7b3b 547e f5b9 fe94 c53b
00000330: 87c7 02bc 8488 de3a 9010 f038 2785 4cba
00000340: 55b7 39bb b21b e9b9 0918 f9ba a685 30bc
00000350: 87a0 0a3c 3c16 bf3b 5b55 09bc 71aa 6abb
00000360: 8996 39bb fde7 80bb 746e ad3b 2e9a a2bc
00000370: 747b 293c 40af 563c 76ad 23bc 3dcb c53b
00000380: 262e 4b3c 4f18 66bb 76a0 ca38 aef6 90bb
00000390: 3c7b bbbb 3f90 c4bb 7c6b f1bb de28 d0bb
000003a0: 0543 f0bb 1504 25bc df85 a43c 4789 7d3c
000003b0: ff06 b5bb d80e 3c3c 1626 9fbb bea4 92bb
000003c0: 4c76 06bc c521 aabc ab42 b4bb 49c3 bcba
000003d0: 8a85 2bbb e268 9fbb d346 acbb 3048 6fbb
000003e0: 7efa 9d3b 6b97 5abb b5b3 07bc 97ce 3e3c
000003f0: cbe4 abbb 4f2e aa3b f758 08bc 2829 9abb
-0.004214738 0.0046648984 -0.007438286 -0.0019503038 -0.0081649795 -0.0014226432 -0.0041365544 0.015503487
-0.006932222 -0.01130596 -0.003914702 -0.0048744157 0.0061756326 -0.006704639 -0.010620908 -0.005978014
-0.009101685 -0.00769993 -0.0070446036 -0.0037109633 0.006234044 -0.0023082995 -0.0074778344 6.934181e-05
-0.011466527 -0.0022953185 -0.010016528 0.0011006594 -0.0010667866 -0.009865285 -0.007994415 -0.0015501115
-0.009375004 -0.0016125324 -0.008722702 0.0065863505 -0.006970621 0.00815926 0.0016410385 0.009098373
0.0087873945 -0.011819702 -0.006455379 -0.0083041405 0.0030967498 -0.0048405966 0.0018980503 -0.008916577
0.0011854105 -0.007068297 -0.0031172202 -0.006600229 -0.003996876 -0.007732271 -0.0077806306 0.004931281
0.0099033145 -0.008635631 -0.009273055 0.0013131009 -0.005254582 0.010554529 -0.008822455 0.0057795616
0.0049499506 -0.005294169 0.0026666336 -0.007942561 0.002420481 -0.009246522 -0.0011826551 -0.0013062081
0.01146377 0.0023795147 -0.0038460768 0.0046866885 -0.0014235629 -0.006200496 -0.002968266 -0.0150270155
-0.0073337685 -0.0198378 -0.012595301 -0.0031141175 -0.0014985286 0.0009986174 0.009024671 -0.0047950214
-0.011454629 -0.007481562 0.008563409 0.0044077435 -0.002386711 0.011571729 -0.0070134676 -0.0023156346
-0.009189682 -0.007562896 0.010124866 0.0143327 -0.0038496694 -0.0057357107 0.013097611 -0.0054800827
-0.0020462433 0.011134799 -0.0034201245 -0.0074269837 0.0020016679 -0.005117089 0.010524838 -0.012020716
-0.0031524734 -0.0018490233 0.007410176 -0.006052317 0.011553276 -0.006016962 -0.0043987255 -0.004119069
-0.005298286 0.0059309914 -0.009677063 0.014188131 0.015861565 0.013213967 0.016856473 -0.01979555
-0.013904391 -0.006124472 -0.0072118053 -0.008168026 0.00017118441 0.001095617 -0.0054705534 -0.005371875
-0.005889283 -0.0066636633 0.008569353 -0.0077245096 0.0010699454 -0.008381555 -0.0062910523 0.009248951
-0.002538549 0.0025797945 -0.00047800277 -0.0005224343 0.014968048 0.0154147735 0.002793715 -0.0075185876
0.008629232 -0.010189597 0.0088235205 -0.001676242 0.0018974214 -0.0057601538 -0.006700883 0.008015193
-0.0024947086 0.012222632 0.011252871 -0.00088328944 0.0017099107 -0.005250126 -0.006685539 -0.0020332602
-0.007981385 -0.0072652497 -0.009206422 0.009575917 -0.007477086 0.017430484 -0.007854912 -0.008924215
0.0008398695 -0.0077986517 0.0057559744 0.020608308 0.00053500273 0.0013536989 -0.0026266202 0.005586384
-0.002545821 -0.012672359 -0.013200655 0.010727344 0.013780818 0.01619475 -0.009390237 -0.0022628333
0.004322482 -0.003419211 -0.0037634484 0.001720608 0.005628691 -0.0057529607 -0.006748039 0.027906092
-0.00080807356 0.0038361833 -0.00046824163 0.006029724 -0.007982141 0.0016977941 0.00011447177 -0.00078018237
-0.0028338034 -0.00044461858 -0.0019004355 -0.010774052 0.008461124 0.005831508 -0.008382167 -0.0035807157
-0.0028318486 -0.003933905 0.005292708 -0.01984891 0.010344375 0.013103306 -0.009990087 0.006036191
0.012401139 -0.0035109704 9.661999e-05 -0.0044239378 -0.005721478 -0.005998641 -0.0073675495 -0.006352528
-0.007332208 -0.010071774 0.020083366 0.015474624 -0.0055245156 0.011478148 -0.004856835 -0.004475205
-0.008206915 -0.020768056 -0.0055011115 -0.0014401461 -0.0026172125 -0.004864798 -0.0052574663 -0.0036511533
0.0048211208 -0.0033354412 -0.008282592 0.011645935 -0.00524578 0.0051935087 -0.008321992 -0.0047046132

ablang_branch.1.weight f4 [256]
00000000: 9b9e 7e3f a35a 803f 2d25 7e3f bf6b 7f3f
00000010: f0e3 813f 2ab2 7d3f e2d0 7e3f aafb 823f
00000020: 1790 803f b808 813f e896 7e3f ae73 7e3f
00000030: 82b5 7f3f 9165 7e3f ebfe 7d3f 4cb9 7d3f
00000040: 2426 803f 1d31 803f 976d 7e3f 0d56 803f
00000050: 9839 7f3f 07a1 7e3f 212f 7f3f c3ce 7c3f
00000060: 08d7 7e3f d21e 7e3f fe5e 803f f45b 7d3f
00000070: 023d 7e3f 324b 7e3f 270a 7d3f ccbc 783f
00000080: bc69 813f dcb6 7a3f f3d7 7c3f c607 813f
00000090: 26e8 7b3f 0013 803f 9b9e 7e3f c90d 813f
000000a0: 8d09 7f3f 94de 823f 65dd 7f3f 13fb 803f
000000b0: 1034 7f3f affe 7e3f 150c 803f 7a09 803f
000000c0: 3a2c 7b3f 4260 803f 94b7 7d3f 5d44 813f
000000d0: 00ac 7f3f 9021 803f e105 813f fd49 803f
000000e0: 8115 813f e611 803f 1078 7f3f 360a 7c3f
000000f0: 49c9 7d3f b580 7d3f 8d54 813f 8f43 803f
00000100: 9625 7f3f ae35 7e3f 871c 7f3f 374d 7e3f
00000110: 4353 7e3f e306 7e3f badf 7e3f 5f9c 753f
00000120: 050b 823f 5db5 7a3f c457 803f 5d46 7e3f
00000130: e1b3 7b3f 4122 7f3f 5506 803f 3a28 823f
00000140: 63db 7d3f ab60 833f 0bd0 7e3f 1777 7e3f
00000150: 7a2d 7e3f a671 7f3f 496d 803f e73f 803f
00000160: ecf2 7e3f afb4 803f 945a 7b3f 8347 7d3f
00000170: 8985 7f3f c953 813f 8d54 803f 4734 7f3f
00000180: 4a2d 813f 43e3 803f a20f 813f 217f 813f
00000190: 0aed 7b3f e875 813f e104 823f 3f4f 7f3f
000001a0: 6e61 7d3f 6d2a 813f 69f6 7d3f 7569 7f3f
000001b0: 8da7 7f3f c99d 7e3f 4d39 803f 15d6 813f
000001c0: 6305 803f bc00 7a3f 8351 803f a507 7e3f
000001d0: bac7 813f 7ce0 7d3f a427 7e3f a4d0 7d3f
000001e0: 874a 7d3f 893a 803f 1f7e 7c3f 357a 813f
000001f0: fa41 823f 2ee8 813f c937 823f d23d 833f
00000200: 0514 823f 1e6a 813f fd45 813f ee26 7e3f
00000210: 5a0b 803f 9b14 7f3f 11d1 7f3f 8b47 7b3f
00000220: 389b 7f3f c1fa 7d3f 57cb 803f 2a16 803f
00000230: 74be 7e3f c3a6 7e3f 7a45 7e3f fae2 803f
00000240: cc84 7e3f ddae 7e3f 38b3 7c3f fed8 7e3f
00000250: 13fb 813f d9c1 813f 7f71 7f3f c66a 803f
00000260: 6772 813f 25fc 7e3f 2c13 813f 4564 7e3f
00000270: b92c 803f f341 7d3f f780 7b3f 06fe 803f
00000280: 33a5 7d3f 7251 813f 803f 813f f816 803f
00000290: 426c 7e3f 9f1c 7f3f f2c9 7f3f 6974 7d3f
000002a0: ded1 7d3f 63e8 7f3f ac54 803f d810 7d3f
000002b0: 0fe1 7d3f 4904 823f 8a38 803f 3815 813f
000002c0: 99a7 7c3f c629 7e3f e595 803f 8659 813f
000002d0: 87f4 7d3f 1d95 7a3f 4a6c 803f 0255 7c3f
000002e0: 7d57 793f e2b9 7d3f e259 7e3f 240f 7e3f
000002f0: 1c42 813f 19e7 803f c889 7b3f eb8b 7d3f
00000300: a898 7f3f fa78 803f b9ab 7d3f 68c4 7d3f
00000310: d093 7e3f 3897 7f3f b6b0 803f 673d 843f
00000320: 005a 7f3f 89d4 7f3f d8c4 7c3f abfa 7c3f
00000330: 6d5b 803f 9670 7e3f 7496 7e3f bf84 803f
00000340: 1113 7c3f 75f6 793f 137b 7f3f 4b50 7e3f
00000350: f50a 813f baec 7a3f 7f88 7f3f 9d8f 7e3f
00000360: 9357 7d3f 030c 7e3f 5e5a 7d3f d8fd 823f
00000370: 88c1 803f 03ac 813f a60b 813f e39a 7a3f
00000380: 8c35 813f 5096 7e3f 14a0 7a3f 7e21 813f
00000390: f9b2 7b3f b9c8 7f3f 1def 803f 178a 7e3f
000003a0: f23b 7d3f d099 7e3f 77a2 843f 7583 813f
000003b0: a7e6 7c3f 4b04 813f 3161 813f 5854 803f
000003c0: ce07 813f 0bde 833f 3796 7e3f 221f 7a3f
000003d0: 4b31 803f 0fed 7d3f 88c6 7e3f e1a9 7e3f
000003e0: 2f2f 803f 74f2 7b3f a39a 7d3f 2684 803f
000003f0: b29a 7d3f 1f39 7c3f 58d5 7e3f 5e45 7f3f
0.9946076 1.002766 0.99275476 0.9977378 1.0147686 0.9909998 0.9953748 1.0233052
1.0043973 1.0080786 0.99449015 0.99395263 0.99886334 0.9937373 0.992171 0.99110866
1.001164 1.0014988 0.9938597 1.0026261 0.99697256 0.9946446 0.9968129 0.98752993
0.9954686 0.9926578 1.0028989 0.98968434 0.9931184 0.9933349 0.98843616 0.9716308
1.0110393 0.9793527 0.9876701 1.0080497 0.98401105 1.0005798 0.9946076 1.0082332
0.9962395 1.0224175 0.99947196 1.0076622 0.99688816 0.99607366 1.0003687 1.0002892
0.9811436 1.0029376 0.99108243 1.0098988 0.99871826 1.0010242 1.0079919 1.002258
1.0084687 1.0005462 0.99792576 0.9845308 0.9913526 0.99024516 1.0103928 1.0020617
0.99666727 0.9930066 0.99652904 0.9933657 0.993458 0.9922926 0.9956013 0.9594173
1.0159613 0.9793299 1.0026784 0.99326116 0.9832135 0.9966164 1.0001932 1.0168526
0.9916288 1.0263876 0.995362 0.99400467 0.9928814 0.9978279 1.0033351 1.0019501
0.9958942 1.005514 0.98185086 0.98937243 0.99813133 1.0103694 1.0025803 0.99689144
1.0091946 1.0069355 1.0082896 1.0116922 0.9840857 1.0114107 1.0157739 0.99730295
0.9897679 1.0091072 0.9920412 0.9977029 0.9986504 0.9945951 1.0017487 1.0143458
1.0001644 0.9765737 1.0024875 0.99230415 1.0139077 0.9917066 0.99279237 0.99146485
0.98941845 1.0017864 0.98629946 1.011542 1.0176384 1.0148981 1.0173274 1.0253241
1.016236 1.0110509 1.0099484 0.9927815 1.0003464 0.99640816 0.99928385 0.9815604
0.9984622 0.99210745 1.0062054 1.0006764 0.9950936 0.9947321 0.9932476 1.0069268
0.9942138 0.9948557 0.98710966 0.99549854 1.0154747 1.0137283 0.99782556 1.0032585
1.0113038 0.9960349 1.0083976 0.9937175 1.0013648 0.98928756 0.9824366 1.0077522
0.990802 1.010298 1.0097504 1.000701 0.9938394 0.9965305 0.9991752 0.9900575
0.99148357 0.9996397 1.002584 0.98853827 0.9917154 1.0157558 1.0017254 1.00846
0.98693234 0.9928249 1.0045744 1.0105445 0.99201244 0.9788378 1.0033047 0.9856721
0.9739912 0.9911176 0.993559 0.9924185 1.00983 1.0070525 0.9825711 0.9904162
0.9984231 1.0036919 0.9909015 0.9912782 0.99444294 0.99840117 1.0053928 1.0331239
0.99746704 0.9993368 0.9873786 0.9881999 1.0027901 0.9939054 0.99448323 1.0040511
0.98466593 0.9764169 0.9979717 0.9934127 1.0081469 0.98017466 0.9981765 0.99437886
0.9896175 0.9923708 0.98966014 1.0233717 1.0059061 1.0130619 1.008168 0.9789259
1.0094466 0.9944811 0.9790051 1.0088346 0.98319966 0.99915653 1.0072972 0.9942946
0.98919594 0.9945345 1.036208 1.0118243 0.9878945 1.0079435 1.0107785 1.002574
1.0080507 1.0302137 0.9944796 0.97703755 1.0015043 0.9918985 0.99521685 0.99477965
1.0014399 0.9841683 0.9906408 1.0040329 0.9906417 0.9852466 0.99544287 0.9971522

ablang_branch.1.bias f4 [256]
00000000: 97a3 20bb 1776 e63b 92d1 edbb 6c9f 8bbb
00000010: 8368 9cbc d015 14bb 151d aabb 1797 9b3c
00000020: 2342 22bc ea63 65bc c1d3 d8bb 9908 e3bb
00000030: 1cfa c93b b120 fdbb a602 75bc c222 0ebc
00000040: 0b26 41bc 0fb5 2abc e68c 32bb 6d38 f8bb
00000050: 42f9 103c b8c1 adbb d886 29bc b8a0 5bbb
00000060: 492d 6abc 615b 5fbb ed1c 5ebc 8497 963b
00000070: 1653 37bb 99e7 48bc cd6d 0dbc d9fc d6ba
00000080: 4904 36bc 24b6 6fbb c4ec 1ebc d3d7 293c
00000090: af92 12bc 9f65 203c bbb8 773a 42ed 073c
000000a0: 5204 483c 73b6 88bc d1e7 05bc 5699 1dbc
000000b0: f742 a93b 6099 0ebc 51ed ea3a 934f 3cbc
000000c0: b9aa 1f3a e54d 12bc 676a 37bb ee7d 1bbc
000000d0: 356e bfbb 43f3 0fbc b9e0 2bbc 1e73 523b
000000e0: 0577 3e3c a974 30bc 6263 45bc e54a b23a
000000f0: add3 d8bb 5a2d 283c 3a49 56bc 33d9 b83b
00000100: 6bee 603b 6871 c7bb 7284 c73a eb13 00bc
00000110: 3091 203a 2e06 2cbc 1e34 2abb f7e9 053a
00000120: 0ebb 863c 57c2 b33b bf05 e9bb b63b 653b
00000130: 562f 11bb 3dac 32bc 4c50 e7bb 87ba 96bc
00000140: c5b8 c4bb b486 ccbc 571d 85bc c61f 95bb
00000150: 05eb acba 04f8 163b 7d01 2a3c d8d9 e9bb
00000160: d237 82bc f3a4 30bc 6a65 093c 6c6a df3a
00000170: d53d 3fbb f265 563c a2c6 10bc 3453 6cbb
00000180: e2fd 2ebc 61e1 15bc b0c3 493c 914a 923c
00000190: d35c c4bb e60a 6ebc b9c7 893c 4322 bdbb
000001a0: 0e7a 18bb de5f 303c 90c4 b4bb 3867 11bc
000001b0: d210 3bba e061 bbbb c86f 4b3c 4679 62bc
000001c0: ac3d 69bb ed87 6cbb 43e3 0c3c e289 fbbb
000001d0: cca0 743c b8a1 0abc 9f24 d5bb ce76 9ebb
000001e0: 62a1 dcbb f73d dd3b 3478 1ebc 335e 743c
000001f0: a547 953c 1b38 7c3c 4936 a03c 6784 c9bc
00000200: 43e3 8ebc f793 5abc 727f 40bc 86ff f3bb
00000210: 8644 7bbb d36b 29ba 04df fcbb 2f11 9fbb
00000220: 3338 5ebb 6235 0bbc 22e2 363c 72b2 2cbc
00000230: 35ed 6e3b 4683 4dbc 63ca 08bc 1168 263c
00000240: 1737 41bb 4cc2 113b 5f6c efba ea26 5f39
00000250: a18a 813c bcf7 9d3c 9ddd 693a 3c7d 23bc
00000260: ccd4 3a3c cb49 59bc 9a81 283c bdbc 72bb
00000270: 7860 1abb 9b08 edbb 3190 e3bb cf9c 123c
00000280: d067 57bb fe3f 6e3c 7c72 633c c306 ccbb
00000290: 7f74 d0b9 86b6 19bc 69c7 e8bb 09c4 b0bb
000002a0: 4495 2fbc b621 11bc f631 6ebc d77d 813c
000002b0: 3a8f fdbb 2638 913c 1852 1cbc 68e7 3ebc
000002c0: 2a61 88ba 463a 38bc 39d0 a43b 32e3 ba3c
000002d0: ba96 1f3a e95a bb3b df3c c6bb 5b63 a33a
000002e0: 9c2e 45bb 9bc2 78bc fc6b 79bc 217a 2f3c
000002f0: ceca 823c d483 9e3c 7edc 14bc c842 91ba
00000300: 088c be3b 2f1d b3bb ab1c 5ebb c4f5 233b
00000310: 51c1 ab3b 883e c4bb 6a60 22bc d5b9 073d
00000320: 85a1 6cbb 7710 093c 63e1 d4ba cb78 253c
00000330: 7ef0 15bc b532 7c3b b163 9dba 9993 e1bb
00000340: 4bd0 80bb dd15 e2ba e58e 1a3a 22d8 5cbc
00000350: 04a6 533c d733 9a3b 48fe 29bc 5d25 8abb
00000360: 3021 023a 6ff8 9abb ef1e a63b 3e51 c5bc
00000370: 7d97 383c a721 7c3c b9db 3fbc 917c c33b
00000380: 2bc6 793c 6506 80bb 99b5 153b 4899 d2bb
00000390: b576 e0bb 8ee6 c5bb 4250 1ebc 4d04 1bbc
000003a0: 134e fcbb cfd5 3bbc 8308 e83c a125 6a3c
000003b0: 03b0 ccbb 7c18 203c 8ab8 febb e8e9 00bc
000003c0: 49fd 83bc 175d e9bc ab26 e1bb 61a3 f5ba
000003d0: 791a e5bb 7ea2 f2bb 3f2a c9bb 9e29 94bb
000003e0: a506 9a3b b20c 91bb aa28 e4bb 50ef f93b
000003f0: bc23 c1bb b117 cd3b 8a7b 4abc ead2 05bc
-0.002451157 0.0070331204 -0.0072576487 -0.004260948 -0.019092804 -0.002259601 -0.005191455 0.018992944
-0.009903464 -0.014000872 -0.00661704 -0.006928515 0.0061638486 -0.0077248444 -0.014954245 -0.008675279
-0.011788855 -0.010419144 -0.0027244627 -0.007575086 0.00884849 -0.005302634 -0.010347091 -0.0033512544
-0.014293023 -0.0034081566 -0.013556701 0.004595699 -0.0027973107 -0.012262248 -0.008632136 -0.0016402259
-0.01110942 -0.003657707 -0.009700004 0.010366398 -0.008946105 0.009789853 0.0009449829 0.008296313
0.012208061 -0.016688561 -0.008172945 -0.009619078 0.0051654535 -0.00870356 0.0017923509 -0.011493581
0.00060908083 -0.008929704 -0.0027987005 -0.009490473 -0.005841995 -0.008786025 -0.01049059 0.0032112072
0.011625056 -0.010770001 -0.0120476205 0.0013602643 -0.0066170306 0.010264719 -0.013078982 0.0056411265
0.0034321796 -0.006086517 0.0015221967 -0.007817249 0.000612515 -0.01049952 -0.0025971006 0.0005108411
0.016446617 0.0054858136 -0.0071112807 0.0034978217 -0.0022153459 -0.010905323 -0.0070591327 -0.01839949
-0.0060034716 -0.024966575 -0.016249342 -0.004550907 -0.00131926 0.0023036012 0.010376331 -0.0071365647
-0.015895758 -0.010781514 0.008385995 0.0017045266 -0.0029181142 0.013085829 -0.00883642 -0.0036060335
-0.010680648 -0.009147973 0.012314722 0.017857822 -0.005992511 -0.014528966 0.016818868 -0.0057719066
-0.002326611 0.010765044 -0.005516596 -0.008874707 -0.00071359903 -0.0057184547 0.012416787 -0.013822859
-0.0035589738 -0.003609176 0.008599105 -0.007676349 0.014930915 -0.008461408 -0.0065046097 -0.00483594
-0.0067331055 0.0067517716 -0.009672213 0.014915037 0.01822264 0.015394236 0.019557135 -0.024599267
-0.017442351 -0.013340942 -0.011749135 -0.0074462323 -0.0038340404 -0.00064629054 -0.007717015 -0.0048543434
-0.003390801 -0.008496614 0.011162313 -0.010540592 0.0036457304 -0.012543505 -0.008349034 0.010156647
-0.00294823 0.0022241054 -0.001826655 0.00021281434 0.015813174 0.019283168 0.00089212676 -0.009978589
0.011403274 -0.0132622225 0.010284806 -0.0037038766 -0.0023556035 -0.007233692 -0.006944679 0.008948519
-0.0032868274 0.014541624 0.013882276 -0.006226392 -0.00039759648 -0.009381896 -0.0071038497 -0.005394463
-0.01071674 -0.008858135 -0.014538279 0.015807075 -0.007738021 0.017726969 -0.009541057 -0.011651851
-0.0010404934 -0.011244362 0.005029705 0.022813413 0.00060878287 0.0057176244 -0.006049737 0.0012465523
-0.0030087596 -0.015183116 -0.015223499 0.01071027 0.015965845 0.01934997 -0.009085773 -0.0011082524
0.005815033 -0.0054661254 -0.00338916 0.0025018314 0.005241551 -0.0059888996 -0.009910682 0.033136208
-0.0036107015 0.008365742 -0.0016241487 0.0100996 -0.009151576 0.0038482372 -0.001200786 -0.00688405
-0.0039310805 -0.0017248947 0.0005895927 -0.013479264 0.012917999 0.004705887 -0.010375567 -0.00421588
0.0004964052 -0.0047293226 0.0050696055 -0.02408659 0.011266586 0.015388883 -0.011710101 0.005965777
0.015245001 -0.0039070123 0.0022843836 -0.006426964 -0.0068500885 -0.006039447 -0.00966269 -0.009461475
-0.007699737 -0.01146455 0.028324371 0.014291198 -0.006246568 0.0097714625 -0.0077734636 -0.007868268
-0.016111987 -0.028486772 -0.0068710647 -0.0018740707 -0.006991681 -0.0074046245 -0.0061390693 -0.0045215627
0.004700499 -0.004426562 -0.0069628553 0.007627405 -0.0058941524 0.0062589278 -0.012358556 -0.008167962

ablang_branch.4.weight f4 [128, 256]
00000000: 8ef7 cc3c d402 18be cdc6 a53d a597 6e3d
00000010: e76c 543d 8dfb 03be 8063 ffbd 6c75 153c
00000020: f62b 8fbd b479 b03d a4d5 593d 0b0a 2bbd
00000030: bb59 44bc 75ff ce3d 92d9 8b3d 97f2 7fbb
00000040: c645 2abd 1901 1b3e 5d0c 0cbe 23cf 4fbd
00000050: 4040 1bbd 3956 72bc d191 6c3c 7e66 87bd
00000060: a785 0d3e 32ff f23d 7390 153e 5e3a 5cbd
00000070: 0b63 30be 2112 08bd fc11 d3bd 2502 6b3d
00000080: 1f8f 8a3d 90e9 d33d 8c72 3abd db56 d53b
00000090: d6bf aabc 428a 5a3c 801d a4be c10d 15bd
000000a0: a8c0 98bd fa6d fbbd a580 bcbd 2c1e 1d3e
000000b0: 54d7 c63c c6cc 3a3e 9b3c 30bd bc07 7dbc
000000c0: 5fa9 edbb ba87 933d 6b0b 073e 93f2 ac3c
000000d0: 3996 353e e396 9e3d 6fa8 383d 145a 8a3d
000000e0: a0be 9bbc 848a 00bd 435e 5e3e f7fa 03bd
000000f0: 783c 9c3d 4718 42bd 0ba4 12be 2470 eb3b
00000100: 1756 833d 96db 033e e2aa d2bd 0fbe 97bd
00000110: 13e6 5b3c 2042 47bd dcdb 3ebc ac5b 103d
00000120: 47c7 c1bc 7112 353d f825 573d 0961 fc3d
00000130: 9547 e73d 6c7b 213d b9d4 6dbe 2376 ff3d
00000140: 3964 183e bd37 7fbd 90e8 a7bd fea7 2dbd
00000150: 4bdd 10be f687 463d a604 39bd cc78 e7bd
00000160: 7388 7fbd 7a7f 1a3d 1077 dc3c 3a7a c0bd
00000170: 709e 5a3e c56a 863d b062 84bd 5073 313c
00000180: e852 b83d f70e 8cbd 9fa9 14bc 0709 30bd
00000190: ab72 f1bb bf83 25bd 05f8 8dbd 8d54 a0bc
000001a0: 80cd 8cbd c37a 0c3d aae1 ec3c e455 8d3b
000001b0: c441 b93d a347 03be 1d20 fabc 20dc 14bd
000001c0: 6d91 aa3c 11f7 0a3e 7a64 2ebe 4ed4 093d
000001d0: 2f0f 39be d6aa 873d cb8a 3b3d c992 8b3c
000001e0: 472f 153e 1839 283d 9f9b 00be f2c6 f13c
000001f0: 5dc3 e7bc 1b8d 12bc 45ef 063d 0f0e 473c
00000200: 9aea cabc 0949 bfbd 192b 66bc d203 b73d
00000210: 11c1 6e3d 5401 dfbd c0c8 b83d b1fb 8b3c
00000220: 5e0e 823d 6554 23bd 0336 fbbc 18da 26bd
00000230: ed72 b1bd c7a4 bc3c e384 9f3d 264a e2bd
00000240: 3b84 dcbc 2b04 913d c8e3 a6bd 7089 aebd
00000250: cd7e 0f3e cd94 8b3d 3ecf 55bc 39a7 abbc
00000260: 5f7c b23d 2c4b 3d3d c8e2 d5bd 8575 9bbd
00000270: fc4d 5a3e a8cf 02bd 438c 85bd 65fc fc3d
00000280: 1598 843d a193 c2bd 544b 47bd 3781 873d
00000290: b1ba b33c fd37 b9bd 105e a63d 3fc0 fabc
000002a0: bf86 913d 1cdb debd 94c9 d23b d32f 97bc
000002b0: 2478 1fbe ad32 b83c 9f5b 393d e20d 81bd
000002c0: 4074 17bd c228 b13c 76fa d1bd 8940 c9bc
000002d0: 3d2c ea3d 63d0 45bd cbba 033e 898b a63d
000002e0: 8f78 6b3e 4860 0bbd bad6 9bbc a647 373e
000002f0: bcbb 67bd ebab 52bc f745 49bd cba0 973d
00000300: 2d13 8ebb d0a8 25bc f179 3b3c ed3b 063e
00000310: cbed 1fbe 3e0c 1e3d 1f6e 97bb 7102 b3bc
00000320: 1846 42bc f585 eabd 89d3 9f3c d7ae 05bd
00000330: eb8b 993b c642 3e3c d4e4 9dbd 6eb5 e73d
00000340: 50f9 873c b999 97bd 99e5 333d 32d6 bb3d
00000350: fcac 0cbd 0fac dabd 3d27 d839 ed0f 0fbe
00000360: c6d4 5f3d fab8 5f3c 88b5 56bc 383e b93c
00000370: 2611 983d 41dd f9bd 38ce 8cbc 2ff6 89bc
00000380: 4edc 213e 1721 c7bc 9c11 753e b057 ec3c
00000390: 800e e3bc 8ec2 083d 9022 53bd 063c 24bb
000003a0: d1ef 7bbc d0c9 13bd 3d7c e5bd 7d0a 593c
000003b0: 9eb1 1ebd da89 2ebe f2e4 a43d 7ff2 2a3b
000003c0: 5d59 203e 803c e8bc 9d5e ecbd 5d7f 0e3d
000003d0: d701 b9bd ea85 38bd 951d 2bbe c64e c33d
000003e0: 8e82 323e 60db ff3c 987d 0c3e c770 d63d
000003f0: 32ff 30bd c3f4 cebd 04d8 993d d8dd 6ebd
0.025020387 -0.14844829 0.08094559 0.05825009 0.05186167 -0.12888928 -0.1247015 0.009122234
-0.06990807 0.08616963 0.05318226 -0.041757625 -0.011984284 0.10107318 0.068286076 -0.0039054507
-0.041570447 0.15137137 -0.13676591 -0.05073465 -0.03790307 -0.014791065 0.014439062 -0.06611346
0.13820516 0.11865081 0.14605884 -0.0537666 -0.17225282 -0.033220414 -0.103061646 0.057375092
0.067655794 0.10347283 -0.045519397 0.006510598 -0.020843428 0.013338627 -0.32053757 -0.03639007
-0.07458621 -0.12276836 -0.092042245 0.15343541 0.024272598 0.18242177 -0.043026548 -0.015443739
-0.0072528566 0.07203622 0.1318795 0.021111762 0.17733087 0.07743623 0.045082506 0.06755462
-0.019011796 -0.0313821 0.21715645 -0.03222176 0.07628721 -0.047386434 -0.1432039 0.007184999
0.06412905 0.12876734 -0.102864996 -0.07409298 0.013421553 -0.048647046 -0.011649098 0.035243675
-0.023654593 0.04420704 0.052526444 0.123231955 0.1129295 0.039424345 -0.23225679 0.12473705
0.14881982 -0.062309016 -0.08198655 -0.042396538 -0.14146917 0.048469506 -0.04517045 -0.11302337
-0.062385987 0.037719227 0.026912242 -0.09398313 0.21349502 0.065633334 -0.06464136 0.010830715
0.09000188 -0.06838792 -0.009073644 -0.04297736 -0.007368406 -0.040408846 -0.069320716 -0.019571567
-0.068751335 0.034296762 0.028916199 0.0043132175 0.09045747 -0.12820296 -0.03053289 -0.03634274
0.020821298 0.13570811 -0.17030516 0.033649735 -0.18072198 0.06624381 0.04578666 0.017037766
0.14568816 0.041070074 -0.12559365 0.02951381 -0.028291399 -0.008944775 0.03294303 0.012149348
-0.02477007 -0.09340102 -0.014048361 0.089362755 0.05828959 -0.10888925 0.09022665 0.01708779
0.063503966 -0.039875407 -0.030665403 -0.040735334 -0.086644985 0.02302779 0.07789018 -0.11049299
-0.026918521 0.07080873 -0.081489146 -0.08522308 0.14013214 0.06815491 -0.013049899 -0.020953761
0.08715128 0.046214268 -0.10443646 -0.075907744 0.21318811 -0.031936318 -0.065208934 0.12352828
0.0647432 -0.09500814 -0.048655823 0.06616443 0.021939607 -0.09043882 0.0812341 -0.030609248
0.07105779 -0.108816355 0.0064327214 -0.018455422 -0.15573174 0.022485102 0.045253392 -0.06301476
-0.0369761 0.02162588 -0.1025285 -0.024566906 0.11434219 -0.048294436 0.12864225 0.08132083
0.22995208 -0.034027368 -0.019023288 0.17898425 -0.05657552 -0.012858371 -0.04913899 0.07403716
-0.004335782 -0.010111049 0.011442647 0.13108797 -0.15618055 0.038585894 -0.0046212818 -0.02185175
-0.011857532 -0.114513315 0.019510048 -0.032637443 0.004685869 0.0116126 -0.07709661 0.11313902
0.016598374 -0.07402367 0.043920133 0.09171714 -0.03434466 -0.10677349 0.00041227965 -0.13970919
0.054646276 0.013654942 -0.013104804 0.022612676 0.07425146 -0.12200404 -0.017188177 -0.016841022
0.15806696 -0.02430777 0.23932499 0.028850406 -0.027716875 0.033388667 -0.051546633 -0.002506019
-0.015377001 -0.036081135 -0.11205337 0.0132471295 -0.038743608 -0.17044774 0.0805148 0.002608448
0.1565909 -0.028349161 -0.115414836 0.03478943 -0.09033554 -0.045049585 -0.16710503 0.09536509
0.17432615 0.031232536 0.13719785 0.10470729 -0.043212123 -0.10105278 0.07511905 -0.058317035

ablang_branch.4.bias f4 [128]
00000000: 18c4 d7bb b148 39bc e018 6fbc b834 64bc
00000010: 115b 62bc 27c4 ecba 5c59 88bb 5a71 a9bb
00000020: 6959 2abc 62b4 68bc ba48 22bc b1a3 d43b
00000030: fc28 7d3b 3ef5 03bc 8a26 31ba cf71 dcbb
00000040: 4af7 b13c e515 5ebb bd8e 84bc 5912 07bc
00000050: dedd 9cbc 991b cfbb 82d6 fc3b 950f 24bc
00000060: 8a08 50bb 309e 54bc 08a5 2a3b 1d8a 86bc
00000070: ae6f a1bb e47e e33c 56cc 1bbc f7aa 983b
00000080: 8afc d7b8 cf31 b93c 588a 74bc 68d3 813b
00000090: 39eb 1fbb 2ea9 ed3a 8a18 0cbc e0cf c2bb
000000a0: 052a 8cb9 368e b5bc 3863 01bb 5291 80bc
000000b0: 2095 973c fbc4 0cbc b4e2 ad3b 001f a5bb
000000c0: 06ab 95bc 7157 afb9 357a 873b b085 2f3c
000000d0: 4d41 04bb f820 7b3c 9e24 09bc 146f 33bc
000000e0: 2bfc 23bb fd26 de3b 4c7f 1e3c 83d7 14bb
000000f0: 6141 99bb 56c6 1838 75ac 97bb 2c48 0f3c
00000100: 0a17 8f3c 354c e6bb 25a5 a6ba ae60 31bc
00000110: 6164 43bc 18fa 81bb 7ec0 8b3c 0749 c83c
00000120: 392a 2a3c bf56 0b3b d886 6dbc 1c2a e1bb
00000130: e4b3 71bc 8a60 903b 620d 06bc a414 4ebb
00000140: a7ff d0bc e1ff ae3b 8df0 80bb d3fa cebb
00000150: c449 21bc d4cc 5fbc 6a75 01bb ccbd 4f3c
00000160: 0bcd 393c 1db7 743c c103 873b 3ac4 c43a
00000170: 594f c9bb 2ac9 b0bb 87ac 423c 00bd faba
00000180: 7fa5 e8bb 5f69 7ebc f537 cf39 1333 1b3d
00000190: 4c91 ce3c 0608 b6b8 99db 54bc 251f 95bc
000001a0: 8702 e9bb 8573 97bc 9f98 5fbb 3ab9 643c
000001b0: 8604 58bc a59a 5c3c 6425 18bc 782e 38bc
000001c0: a497 483c 487d 0ebc c17f c13a 7dd0 a83b
000001d0: bc1b 89bc cb75 8f3c 19d4 013c 9450 e63b
000001e0: c810 cc3c d809 5a3c fcb0 a8bb 324e aabc
000001f0: 2d92 dcbb 86dc 05bc eb98 0cbc 50f0 c4bc
-0.0065846555 -0.011308835 -0.014593333 -0.013928585 -0.013815657 -0.0018063829 -0.004161043 -0.0051709833
-0.010397294 -0.014203163 -0.009905035 0.00648924 0.0038629165 -0.008054076 -0.0006757757 -0.006727434
0.021724362 -0.0033887562 -0.016181344 -0.0082441205 -0.019148763 -0.0063204286 0.007716001 -0.010013481
-0.003174337 -0.012977168 0.0026038308 -0.01642328 -0.0049266433 0.027770467 -0.009509167 0.0046590525
-0.00010299038 0.022606758 -0.014925562 0.003961969 -0.0024401678 0.0018132085 -0.008550772 -0.005945191
-0.00026734188 -0.022162538 -0.0019742977 -0.015694294 0.018503726 -0.008591886 0.005306566 -0.005039096
-0.018270027 -0.0003344375 0.0041344413 0.010713026 -0.0020180524 0.015327685 -0.008370547 -0.010951776
-0.002502213 0.00677955 0.009673905 -0.0022711463 -0.004676983 3.642434e-05 -0.004628713 0.008745234
0.01746704 -0.0070281276 -0.0012714012 -0.010826273 -0.011925788 -0.003966581 0.01705956 0.024448885
0.010386043 0.0021261421 -0.014497481 -0.006871475 -0.014752362 0.0044060396 -0.008181902 -0.0031445408
-0.02551253 0.0053405617 -0.003934926 -0.0063165217 -0.009844247 -0.013659675 -0.0019753822 0.012679528
0.01134039 0.014936236 0.0041203205 0.0015012093 -0.006143492 -0.0053950744 0.011881954 -0.0019129813
-0.007099807 -0.015528052 0.00039523808 0.037890505 0.025215767 -8.679931e-05 -0.012991809 -0.018203327
-0.007110897 -0.018487701 -0.003411807 0.013960177 -0.013184672 0.0134646045 -0.009286258 -0.011241548
0.012243185 -0.008696862 0.0014762805 0.005151807 -0.016736858 0.017512223 0.007924103 0.0070286486
0.024910346 0.013308011 -0.0051480513 -0.02078924 -0.0067312927 -0.008170253 -0.00858138 -0.024040371

ablang_branch.5.weight f4 [128]
00000000: 9ada 7f3f f39c 7d3f 6d8b 7b3f 23bb 7c3f
00000010: f79b 803f cf87 7f3f b8b7 7f3f 6c5b 803f
00000020: d6f2 793f 8951 803f 68ea 7c3f f02e 803f
00000030: a4a7 803f f91f 7b3f b758 803f d35a 803f
00000040: 9562 823f 08f9 7d3f b160 7e3f fa97 7c3f
00000050: 915c 7e3f 4f46 803f 704d 7f3f e27d 7d3f
00000060: b095 7c3f 4d05 793f 5ca0 7e3f b3eb 813f
00000070: 926c 7d3f 2dfb 823f f9d3 7d3f 92f1 803f
00000080: 57a8 7f3f 1404 833f 2817 803f 60a1 803f
00000090: 3c8c 7f3f 038e 7d3f f30b 7d3f 3ff5 7f3f
000000a0: 3733 7f3f 8630 803f eaaf 7e3f c223 7d3f
000000b0: 2887 823f 5d58 803f 5d83 7d3f 3d8c 7b3f
000000c0: 0324 7e3f 9e82 7d3f 770d 803f 2399 803f
000000d0: ed74 7e3f e0b1 813f ab93 7e3f 911c 7b3f
000000e0: d17d 7d3f eaf2 7f3f a7cb 803f 0c04 7e3f
000000f0: 0f8b 7c3f d08e 803f 9402 7a3f 3290 7f3f
00000100: 9eac 803f 7080 7a3f b304 803f a3f5 7c3f
00000110: b020 7d3f b8ae 7d3f e07c 823f 7c8e 823f
00000120: 95fd 803f aaa7 7f3f 7e2a 803f 68cf 793f
00000130: 1b4a 823f 9a8a 7a3f 987a 7e3f 6627 7d3f
00000140: 7437 7d3f 97c5 7e3f 8aa7 7e3f 8976 7e3f
00000150: 1514 7d3f 2af1 7e3f ac6c 7f3f 4197 813f
00000160: 9dc7 813f 7ea2 803f afc1 7d3f 9c44 7d3f
00000170: 68ec 803f 8afe 7e3f 2f87 7d3f 7ed9 7e3f
00000180: 50e6 7d3f c1dd 823f ae09 7d3f a3f2 843f
00000190: 83cd 813f c282 7b3f df42 7d3f e80b 7f3f
000001a0: 92f6 7c3f f9d1 803f 8ab3 7e3f 0fbe 803f
000001b0: acd4 773f 762b 813f 0ade 793f 30aa 783f
000001c0: 64f2 803f 5c8f 7c3f 89ee 7d3f a61b 7f3f
000001d0: a33a 803f 30b6 813f 46b1 803f e323 803f
000001e0: 2f32 813f cd8b 803f 8af3 7e3f d6d0 7a3f
000001f0: 0ffb 7e3f 0c00 803f 278a 7e3f 3c58 7b3f
0.99942935 0.9906761 0.9825962 0.9872305 1.0047597 0.998166 0.9988971 1.00279
0.97636163 1.0024883 0.98795176 1.0014324 1.005116 0.9809566 1.0027074 1.0027717
1.0186335 0.99208117 0.9936629 0.986694 0.99359995 1.0021456 0.99727535 0.99020207
0.98665905 0.97273713 0.9946344 1.0150055 0.9899379 1.0232903 0.9915157 1.0073721
0.9986624 1.023562 1.0007067 1.0049248 0.99823356 0.9904482 0.9884636 0.9998359
0.9968752 1.0014808 0.99487174 0.9888269 1.0197496 1.0026966 0.9902857 0.9826086
0.992737 0.9902743 1.0004109 1.0046734 0.99397165 1.0132408 0.99444073 0.98090464
0.99020106 0.9998003 1.006215 0.99224925 0.98649687 1.0043583 0.97660184 0.998294
1.0052679 0.9785223 1.0001434 0.9881231 0.98878 0.99094725 1.0194359 1.0199733
1.0077387 0.9986521 1.0012968 0.975821 1.0178865 0.9786774 0.99405813 0.9888824
0.9891274 0.9952025 0.99474394 0.9939962 0.9885877 0.9958674 0.99775195 1.0124284
1.0139042 1.0049589 0.9912366 0.98932815 1.0072145 0.99607146 0.990344 0.99550617
0.99179554 1.0223924 0.98842895 1.0386547 1.0140842 0.98246396 0.9893016 0.9962754
0.98813736 1.0064079 0.99492705 1.0058001 0.96808887 1.0091388 0.9760443 0.97134686
1.0073972 0.9865625 0.991921 0.99651563 1.0017895 1.0133724 1.00541 1.0010952
1.009344 1.0042664 0.9959036 0.9797491 0.99601835 1.0000014 0.99429554 0.9818151

ablang_branch.5.bias f4 [128]
00000000: 88de e5bb 42a2 57bc 885d 85bc 0b15 8bbc
00000010: 1472 5ebc 1408 c7b8 d918 3dbb bcef 6bbb
00000020: 0db2 e1bb 8b46 51bc 66b0 49ba dfff b23b
00000030: 30c1 bd3b 949d aebb b99e 67ba 8aab b7bb
00000040: d30b bd3c 2031 5abb e5f6 a3bc b9ac e7bb
00000050: c72a a2bc 2716 d3bb 6915 1c3c 8bd8 23bc
00000060: 74c2 0bbb e005 44bc d7d5 0e3b 4601 87bc
00000070: b4a4 b8bb ec4b fb3c 6795 dfbb c955 c83b
00000080: 6721 bc3a 47fb d03c 976f 8ebc 4587 0d3c
00000090: 48dc 3cbb 0318 ad39 b1af 33bc 3b76 b3bb
000000a0: 465a 053a 43ee a1bc 94e0 e8ba 819c 91bc
000000b0: 5470 9f3c f23d c1bb c6e7 b33b 8d36 6b3a
000000c0: c501 8fbc ca30 43ba 0222 d33b e723 413c
000000d0: d3ed 16ba 9b69 883c 92bb 1bbc 6212 3fbc
000000e0: ae7a 0abb 6bba 023c a71f 093c 973b 32bb
000000f0: b22e fdba 04b0 243a b5cf 4bbb be12 1b3c
00000100: 0b81 8e3c c15c 8bbb 74af f338 b113 34bc
00000110: 1ee0 2dbc ef44 b3ba ca75 963c 136e e73c
00000120: 0c7c 343c 350b 853b b235 4bbc 735f a7ba
00000130: b57d 68bc 20bb f83b e0b6 0bbc 8086 4db9
00000140: f5e3 ffbc f088 de3b 7288 2fbb 337c aebb
00000150: f54f 31bc b997 84bc 1913 bd39 31b5 883c
00000160: f0cd 663c 5edc 693c 8cc9 d33b 1e16 a63b
00000170: 8645 16bb 897d debb f668 813c c3f0 68ba
00000180: be4c d7bb 3fb6 30bc 970d 573a 85f5 223d
00000190: d5ab e23c f7e5 c43a 504e 73bc cd31 99bc
000001a0: 6c0a ddbb ac37 43bc c1c1 1ebb fbd8 a53c
000001b0: 50c2 22bc 6e0e 4f3c 1a4e b1bb c7ee dabb
000001c0: 4217 543c a994 01bc 28df 533b 1b59 a43b
000001d0: d769 86bc d008 a23c 74c2 0b3c d304 d53b
000001e0: 827d de3c a286 6c3c 5eb9 a9bb df36 bebc
000001f0: 1266 98bb f92c 09bc 18be c2bb f1aa cabc
-0.007015053 -0.013161244 -0.01627995 -0.016977808 -0.013577003 -9.490564e-05 -0.0028853922 -0.0036001047
-0.0068876804 -0.012773166 -0.0007693827 0.005462631 0.005790852 -0.0053288434 -0.0008835602 -0.005605166
0.023076927 -0.003329344 -0.02001519 -0.0070701507 -0.019795788 -0.0064418497 0.009526589 -0.010000358
-0.002132562 -0.011964291 0.002179494 -0.0164801 -0.0056348685 0.03067585 -0.00682323 0.006113742
0.0014353216 0.025510443 -0.017387195 0.008638208 -0.0028817821 0.00033015021 -0.010967181 -0.0054767407
0.0005086999 -0.019766932 -0.0017767125 -0.017774822 0.019462742 -0.005897277 0.005490276 0.0008972667
-0.017456898 -0.000744593 0.006443263 0.011788345 -0.00057574845 0.01665192 -0.0095051695 -0.011662098
-0.0021130252 0.007979016 0.008369363 -0.0027196163 -0.0019316284 0.0006282332 -0.0031099145 0.009464918
0.017395517 -0.0042530005 0.000116198236 -0.010991023 -0.010612516 -0.001367716 0.018366713 0.02825073
0.011015903 0.004060174 -0.012402939 -0.0012769535 -0.014190127 0.0075906664 -0.0085274875 -0.00019600429
-0.031236628 0.0067912266 -0.0026784209 -0.0053248643 -0.010822286 -0.016185628 0.00036063118 0.016687961
0.014087185 0.014273731 0.0064632352 0.0050685545 -0.0022929623 -0.0067898673 0.01579712 -0.0008885974
-0.0065704277 -0.010785638 0.0008203624 0.039784927 0.027669827 0.0015022148 -0.014850214 -0.018700505
-0.006745627 -0.011915129 -0.0024224373 0.020245066 -0.009934023 0.012637718 -0.0054109218 -0.0066812965
0.012944998 -0.0079089785 0.0032329056 0.005015505 -0.01640789 0.019779593 0.008530248 0.006500819
0.027159456 0.014436396 -0.005179568 -0.023219524 -0.0046508396 -0.008372539 -0.005943071 -0.024739714

ablang_branch.8.weight f4 [64, 128]
00000000: 99aa e5bc d1f8 713e 2678 51bd 9c10 123d
00000010: 4916 933d 64d4 58bd ab01 c23d 9255 8f3d
00000020: e2b2 113d ff81 dcbd b379 f6bd 4119 7b3c
00000030: cbd0 7a3c b52a 823e 1fd5 2f3e 4d49 223d
00000040: 2c55 d43d 2997 62bd cce6 b4bd c3f7 9fbb
00000050: 2be5 723d 1f6c 98bd 7e94 263b 2201 17be
00000060: 2bed d0bc 7f04 3f3e 435c 6f3e e95e 25be
00000070: a920 97bc dbf0 143d 65b9 66bb 45bc abbd
00000080: 685d b13c 7ee1 02be b522 c5bc 0516 f1bc
00000090: e008 9d3d 1e0e 1a3e 6b62 bf3d d295 74bd
000000a0: c41a 6a3d cdf7 553d 9bf7 513c b308 76bd
000000b0: b095 00be 6b44 f8bc 13db 6b3d ea1e 7a3d
000000c0: d5d4 d6bc a8bf ca3c ce2e fd3d 516e 0cbe
000000d0: 4349 0c3d 5090 80bd 0bcf 18be 3c0f 62be
000000e0: d3f4 3dbd 2d0c fb3c 5bc2 58be 6745 053d
000000f0: 1e54 e43d 9b73 3b3d fb26 b53d 7092 13be
00000100: 86bf 9cbd 02b8 8bbd ef56 6d3e f33d a6bc
00000110: 0f4a 893c 6f1d 7cbd 5626 503b 549f 2abd
00000120: 12c4 033b 3e1d c8bd afdc 3fbd 13c4 b5bb
00000130: 1497 bfbd f438 2e3e 0841 5fbd ba26 46be
00000140: b6f2 0fbd a7bd 88be ba67 4f3d 0900 c7bc
00000150: c469 333d ea65 153e 05cd dbbd e7aa 573c
00000160: de9f 8c3d 5d85 ddbd ed78 793e 0945 6ebd
00000170: 4cbc 743c c37c 1fbe 2951 83be 09bb 5b3e
00000180: 0c52 383d 43c7 e4bc 2c14 dfbd 29d5 59be
00000190: 3da8 5fbd 0cad 323d 0d81 2c3e 622e ee3d
000001a0: 7e9a e23d 21c8 bd3d 4484 fcbd 0030 423e
000001b0: 1540 b83d b258 c83d 7ac1 73bd 16fb 2bbe
000001c0: d3d8 993e 1d21 34be 16d8 3d3e c38c d73d
000001d0: fb49 53bd 1fc8 373e a7db 483e be62 e1bc
000001e0: a85c 9b39 fb23 4fbe 165f 45be 8a31 ed3d
000001f0: 5f01 d63d 1973 303e 82cb 9abd 44fa a9bd
00000200: 3202 59be 26a4 87bc 2dc7 523c fdc7 b93d
00000210: 10b2 88bd 69b7 cbbc f73a 64be 17c9 c6bd
00000220: fe3f 4c3e 1a54 483d 1c09 533c 578f a5bd
00000230: f4d7 febd c467 9fbe 8fe6 16be cdb2 d1bd
00000240: 5668 dc3c e9a9 67bd 1e8a 753d ed5c abbd
00000250: 33e2 8b3d a5e5 d0bc c046 823a 2108 87bd
00000260: 9465 2ebd 5b83 af3c 8a43 12be 7803 25be
00000270: 284a 41be 6735 b1bc 8040 b23d ca0b 3bbc
00000280: 368f 583e c64c dc3c 59bb e33d dc42 7cbd
00000290: 936e aa3d 866e 3b3d 7456 a8bd 8246 d73d
000002a0: 4a42 8ebb 5781 8c3b 5705 373e 2d0f 0f3e
000002b0: e495 f23d d286 283e 2005 ab3d cf19 eebd
000002c0: 58e4 77be 4764 e43d 237b 11be 9c62 22be
000002d0: 6fc2 84bc a760 fb3d e2f9 8cbd b14d a3bd
000002e0: 2c64 89bd fabf 13be 00ff ebbc 6ac5 fe3c
000002f0: faf8 fa3d 04d8 0fbd 04e3 28bd e91b 51bd
00000300: 2a03 443e 4593 3ebe 3064 b63d 3291 0bbe
00000310: 959d 183d da03 1abe 30e2 d3bd 071a 883d
00000320: b68d 4fbe bb5b 553c b81d 3b3e e9e4 14be
00000330: bad1 203e 41d8 913d 8f72 9bbe 6007 093d
00000340: 9836 96bd fac1 3c3e 0390 f23c 3a37 c73d
00000350: 1586 7bbb 5d88 cabd 0e9a 653d a891 cf3e
00000360: a9ca 623e de56 0a3e 08fc c03d e68a c6bc
00000370: efdf 243d e606 343d 8f83 f13d e764 673d
00000380: bd91 433e 433c 54bc 41d8 21bc 7a9f 8f3d
00000390: 5c1f d3bd 7ca2 ba3d 7c9c a0bc febe 4fbc
000003a0: e479 44bc 0c8f 23be fd28 8bbe a71c c63c
000003b0: 92d2 433c a513 07be ac79 c13b 39f0 fd3d
000003c0: 55d5 ac3d cd5e 963d 0526 5f3d 81b4 61be
000003d0: 45b0 783e 5ae1 193d a022 60bd 7781 94bc
000003e0: c710 c4bc 7ec9 423e 5d61 363b 7d24 a23d
000003f0: a5f7 a0be 6536 47be e8ab ca3d 95b0 e9bb
-0.028035449 0.23630072 -0.051139973 0.03566037 0.07181985 -0.052936926 0.094729744 0.06998743
0.035570987 -0.10766982 -0.12034931 0.015325845 0.015308569 0.25423208 0.17171143 0.039620686
0.10367808 -0.05531994 -0.088330835 -0.0048818304 0.059300583 -0.074424975 0.0025418098 -0.14746526
-0.025503716 0.18654059 0.23375039 -0.16149487 -0.01844819 0.03636251 -0.0035205719 -0.08385519
0.021650985 -0.12781331 -0.024064401 -0.029429445 0.076677084 0.15044448 0.093449436 -0.059713192
0.057154432 0.052238274 0.012815381 -0.06006689 -0.12557101 -0.030306062 0.057581972 0.06106464
-0.026224533 0.024749592 0.12362443 -0.13713957 0.034249555 -0.062775254 -0.1492273 -0.22076124
-0.04637606 0.030645454 -0.2116789 0.03253689 0.111488566 0.045764547 0.088453256 -0.1441133
-0.07653718 -0.06822206 0.23177694 -0.020293212 0.016758947 -0.061551508 0.0031761131 -0.041655853
0.002010588 -0.097712025 -0.04684132 -0.0055470555 -0.09354988 0.17013913 -0.054505378 -0.1935071
-0.035143577 -0.26707193 0.05063603 -0.024292009 0.043802038 0.14589658 -0.10732464 0.013163305
0.0686643 -0.10816453 0.24362536 -0.058171306 0.014937472 -0.15574937 -0.25647858 0.21458067
0.04500012 -0.027927047 -0.10892519 -0.2127272 -0.054603804 0.04362206 0.16846104 0.116299406
0.11064623 0.09266687 -0.12329915 0.18963623 0.08996598 0.09782542 -0.059510686 -0.16795
0.30048236 -0.17590757 0.18539461 0.10524895 -0.051584225 0.17947434 0.1961504 -0.027512904
0.00029632938 -0.20228569 -0.19274554 0.115817145 0.1044948 0.17231406 -0.07558347 -0.082996875
-0.21192244 -0.016557764 0.01286487 0.09071348 -0.06674588 -0.02486773 -0.22288118 -0.097063236
0.19946286 0.04890833 0.01288059 -0.080839805 -0.124435335 -0.31133854 -0.14736389 -0.10239182
0.02690522 -0.056558523 0.059946172 -0.083673336 0.068302535 -0.025500128 0.0009939298 -0.06593347
-0.04257734 0.02142494 -0.14283577 -0.16114604 -0.18875945 -0.02163191 0.08703709 -0.011416385
0.2114838 0.026892077 0.11119718 -0.0615872 0.083218716 0.0457597 -0.082196146 0.10511495
-0.0043413984 0.0042878794 0.1787313 0.13970633 0.118449956 0.1645768 0.08350587 -0.11626016
-0.242082 0.11151939 -0.14207129 -0.15857929 -0.016205994 0.12274294 -0.06883599 -0.07973803
-0.067085594 -0.14428702 -0.028808117 0.031099994 0.1225452 -0.035118118 -0.041232124 -0.051052008
0.19141832 -0.18610866 0.08905828 -0.13629606 0.037259657 -0.15040532 -0.10345876 0.06645589
-0.20268902 0.0130223585 0.18273056 -0.14540447 0.15705004 0.07121325 -0.3036084 0.0334543
-0.07334632 0.18433371 0.029609686 0.097273305 -0.003837948 -0.098892905 0.05605512 0.40540814
0.22147621 0.135097 0.09423071 -0.024236154 0.040252622 0.04395189 0.11792671 0.056492712
0.19098563 -0.012953821 -0.009878219 0.070128396 -0.10308716 0.09113023 -0.019605868 -0.012679813
-0.011991952 -0.15972537 -0.2717971 0.024183584 0.011952059 -0.13191088 0.005904397 0.123993345
0.08439127 0.073423006 0.054479618 -0.22041513 0.24285991 0.037568428 -0.05472052 -0.01812814
-0.023933781 0.19022176 0.002782903 0.07917116 -0.31438938 -0.19454344 0.0989607 -0.007131646

ablang_branch.8.bias f4 [64]
00000000: 9468 363a b6bc 933c 7221 18bc b0ea 5f3a
00000010: 98db f3bc 2b27 95bb 5b5a e0bb 4663 393c
00000020: 5760 5e3b 47df 5cba 64fc f23c 6d47 47bc
00000030: c833 aabb d078 ffbb 0d76 203c bc53 d2bb
00000040: 3c91 60bb 838f 6c3c 006f 503c 1a00 30bc
00000050: 74c5 f53a 6e38 823c 5534 8d3a 957c 0c3b
00000060: 0116 cb3c 423f 5cbc 7a2c 613c c0ad 62bc
00000070: 9159 51bc ecb9 88bc 9f72 97bb df1f dcbb
00000080: 296b c1bc e523 0cbc 3818 a4bc 601c c03b
00000090: 577f afbb b1f0 5b3c fd6b 063b 4c4e 123c
000000a0: 84a9 243c 4591 853b a4a7 d9bb e622 3b3b
000000b0: 57be a23b cc78 24bc 360f a53b d0ee c4bc
000000c0: fb93 09bc 2d4f 913c b152 b4bc ab20 8b3c
000000d0: 0554 c43b 8701 24bc 6be6 d8bb d901 20bb
000000e0: c726 68bc a187 06bc db13 34bb 1f7d 403d
000000f0: 6b48 ce3b e008 3d3c 0a6f 9fbc ec15 203c
0.00069583324 0.01803432 -0.009285318 0.0008541746 -0.029767796 -0.0045517883 -0.0068467087 0.011315173
0.0033931935 -0.0008425605 0.029661365 -0.012163025 -0.005194161 -0.0077963844 0.0097937705 -0.0064186733
-0.0034266254 0.014438513 0.012721777 -0.010742212 0.0018750862 0.015896048 0.0010773042 0.0021436561
0.024790766 -0.013442816 0.013743514 -0.013835371 -0.012777702 -0.016690217 -0.004621818 -0.0067176665
-0.023610668 -0.00855348 -0.02003108 0.0058627576 -0.0053557563 0.0134240845 0.0020511143 0.0089298
0.010050181 0.0040761554 -0.006642299 0.0028554737 0.004966538 -0.010038566 0.0050372137 -0.024039656
-0.008397098 0.01773795 -0.022012087 0.01698335 0.005991461 -0.01001013 -0.006619265 -0.0024415164
-0.0141694015 -0.008211047 -0.0027477655 0.046994325 0.006295254 0.0115377605 -0.019462127 0.009770852
