data/model_weights/cv_fold_2_model2_4.pt (torch, 686405 bytes, 27 tensors)

ablang_branch.0.weight f4 [256, 480]
00000000: ec87 48bd 07b6 c83c 73b1 a93d e750 dcbc
00000010: aefe 44bd 80a1 94bd beda c9bd a5f1 8cbb
00000020: f473 f1bc d13b bc3d a0fd 9b3d 62d9 b03c
00000030: be7e b23d a6a0 f7bd b8b2 6dbd 66e8 4cbd
00000040: f858 eeb9 af69 29bd e789 d5b9 552c 82bd
00000050: 8972 e4bb 5dc0 363c a48d 103d 1176 8dbc
00000060: c0d1 e23d fe19 8a3c f535 dfbc 1639 ccbb
00000070: b461 083d 4b8b 3a3d 2348 b1bd 8091 b5bc
00000080: 48ed c03c 90db 6a3d f976 debc 5d72 023d
00000090: 1bcc 7bbc 111b 433d 2a1e ab3d fb3c 3cbd
000000a0: d4d7 babc 6437 15bd b13d 803c 341c 0cbd
000000b0: 0fee 99bd 1b08 83bd 55cf 04bd 8841 80bd
000000c0: 891f 863d c313 8f3d a8fa d9bd f7e7 3cbd
000000d0: 1d06 58bd d639 1b3e c495 cd3d 890e 463c
000000e0: a346 97bd 2f17 b53c 2dc7 913c 23dd 253c
000000f0: 43da 9b3d a5a0 66bd a82b fcbc b853 a63d
00000100: 7a72 243d 10e1 3abc 54ca 08bd 8867 9f3b
00000110: 15bd 933c 2bbf e83d 456c b8bd b91e d63c
00000120: 86ff 2ebd 1034 063d 0580 0f3e a305 313d
00000130: a0cf 19bd c17a 6e3c b191 d73d a73e 49bc
00000140: fbd4 c5bc 0f5c 49bd 75e0 d53c 702c 3bbd
00000150: ef1a dc3d 0133 cf3d 597d 4abd 13ae bc3b
00000160: 4493 97bc efd8 45bd c4e3 353d 3e4c dc3d
00000170: 3e6d 9bbd 98ac c9ba 3735 4b3c 420d 133d
00000180: d067 de3c 345f 1a3c 5e2f 10bd 1b75 113d
00000190: 8b77 9fbd f764 013d 140f 6bbd f78e 803c
000001a0: eeef 02be 6dbb bf3d 6e28 953b 5896 2b3d
000001b0: 0038 17bc 5015 65bc 58c8 fcba 2020 9fbc
000001c0: 7052 56bd 3687 85be 872c aebd 8fd0 5f3d
000001d0: 075b de3d 3359 793a a0e5 33bd 347c 73bb
000001e0: a36b 693b 3eb2 f9bc a24d c43d 5fa3 d43c
000001f0: b6dd 403d 924e eebc ad64 71bc 8ff3 9ebd
00000200: f635 1a3d 9969 1ebd d1af 673d 4294 b13d
00000210: 0cc9 72bb c0b4 01be bd7a 363e c147 96bc
00000220: 7978 f7bd d022 07ba 281d 38bd 9675 22bd
00000230: bba4 cabd 55d1 693d 0e7f 92bb d9ca b2bd
00000240: eef9 cdbd 253d 2b3d 2290 b93c d428 1ebd
00000250: b074 cf3c bf5c 083d acac ad3d 4e9a e13c
00000260: 96bc 10be 650f 91bd 05aa 8cbd d290 93bd
00000270: 564a d9bc 7a06 913d 014c 3fbd 5cc3 85bc
00000280: a295 59bc f219 51bd b6bc d1bc 9fd4 d0bd
00000290: 31e8 2cbd bc81 fe3d a52e e5bd 0642 09be
000002a0: 6af9 19bd 946e 033d b38a 983a 9630 8e3d
000002b0: 023f 013c d60a 0a3c cf03 223d 7897 c53d
000002c0: 11a3 cabc 55f0 9b3c ada9 f6bc 5d49 373e
000002d0: 37ca 22bd 6975 bebc a568 993d 5e86 23bd
000002e0: e0ad a5bd a0c3 88bc 6f0c cdbd 9740 b73d
000002f0: fb67 49bd 564f 473d 9758 6ebb 27f4 043d
00000300: 6a5e 973d c923 0a3d bd81 173d 4c9b 9cbd
00000310: 6171 0fbd 4c4c e5bd 8f92 2dbd 7bda 81bd
00000320: 6293 933c 4228 a4bc 74a5 993c d4a0 01bd
00000330: 8b29 063d a09f 173d 49fe 193d 2744 d2bc
00000340: 5683 183c 72de a5bd 2a09 f33c 2424 c53c
00000350: bacb 52bc ac53 053c db2a 0f3e a161 a8bc
00000360: c4c5 6bbd ac86 41bd fba1 c8ba 3918 13bd
00000370: b0d2 8a3d afc3 953d 4f5a cfbb 5c1a af3b
00000380: e617 63bd 7be1 02bd 6f60 e1bc 9b86 933d
00000390: cc33 3f3e 5881 283d 2bcb 45bd 463a ffbc
000003a0: da26 dc3d d0f4 4e3d e5f8 ebbc 7d1f aa3d
000003b0: 42b0 6dbd 8acd 8cbd 8f12 113d 8667 ffbc
000003c0: 3df9 dbbd 0843 123e ecdb 9a3d 8cff 7abd
000003d0: c63a ebbd 1662 093e b38b 36bb 4278 3abd
000003e0: a9c1 08bc 623b ef3c 63c5 4cbd f034 4e3c
000003f0: 7a2d 043b ea4a 1b3d d480 653d f0d5 6d3d
-0.04895775 0.02450086 0.08285799 -0.026894046 -0.048094444 -0.07257366 -0.09856175 -0.004301267
-0.029474236 0.091910966 0.076167345 0.021588031 0.087155804 -0.12091188 -0.058031768 -0.05002632
-0.00045461184 -0.041360553 -0.0004072927 -0.06356112 -0.0069716615 0.011154261 0.03529133 -0.017268213
0.11075163 0.016858097 -0.027247408 -0.006232391 0.033296302 0.045542996 -0.08656337 -0.022164106
0.023550645 0.057338297 -0.02715634 0.031847347 -0.015368487 0.047633234 0.08355363 -0.045956593
-0.022807993 -0.036429778 0.015654417 -0.034206584 -0.07516109 -0.0639803 -0.03242429 -0.06262499
0.065489836 0.06986191 -0.10643512 -0.046119656 -0.052740205 0.15158781 0.10038331 0.012088426
-0.0738652 0.022105781 0.01779517 0.010123524 0.076099895 -0.056305546 -0.030782536 0.08121437
0.040148236 -0.011406198 -0.03339608 0.004864637 0.018034497 0.113645874 -0.09005026 0.026137697
-0.042724155 0.032764494 0.1401368 0.043218266 -0.037551522 0.014555634 0.10525835 -0.012283004
-0.024149409 -0.04916006 0.026108006 -0.045696676 0.10747325 0.1011715 -0.049435947 0.005758056
-0.018502839 -0.048302587 0.044406667 0.107567295 -0.07589196 -0.001538652 0.012402824 0.035901316
0.027149111 0.009422112 -0.035201423 0.03551207 -0.07786473 0.03159043 -0.057387426 0.015693171
-0.12786838 0.093619205 0.0045519387 0.041891426 -0.00922966 -0.013982132 -0.0019285781 -0.019424498
-0.052324712 -0.2607972 -0.08504587 0.054642256 0.10857206 0.0009511888 -0.04392016 -0.0037152888
0.0035617135 -0.0304805 0.0958512 0.025956808 0.04708644 -0.0290902 -0.014733476 -0.07761299
0.037649117 -0.038674925 0.056564156 0.08670856 -0.0037046103 -0.12666607 0.17820258 -0.018344762
-0.12083525 -0.0005155029 -0.04494968 -0.03966292 -0.09894701 0.0570844 -0.0044707125 -0.08730096
-0.10057436 0.04180636 0.022651736 -0.038613155 0.025324196 0.033291575 0.084802 0.027539399
-0.1413444 -0.070830144 -0.06868366 -0.07205357 -0.026524704 0.070813134 -0.046703342 -0.016328506
-0.013280304 -0.051050134 -0.02560268 -0.10196804 -0.042213622 0.124270886 -0.11190537 -0.13404092
-0.037591375 0.032087877 0.0011638015 0.06942861 0.007888557 0.008425435 0.039554413 0.09648031
-0.02473596 0.019035498 -0.030110205 0.1789908 -0.03974363 -0.023249345 0.074906625 -0.039923064
-0.08089805 -0.016694844 -0.10012137 0.089478664 -0.04917143 0.048659645 -0.0036368722 0.032459404
0.07391055 0.033725534 0.036988962 -0.07646808 -0.035020236 -0.11196193 -0.042376097 -0.063405
0.018014614 -0.020038728 0.018755652 -0.03164752 0.032754462 0.037017465 0.03759602 -0.025667263
0.009308657 -0.08099069 0.029667456 0.024065085 -0.012865955 0.008137625 0.13981192 -0.020554366
-0.05756165 -0.047247574 -0.0015307063 -0.035911772 0.06778467 0.07312714 -0.0063279043 0.0053437185
-0.055442713 -0.031953316 -0.027511803 0.07203408 0.18672103 0.041138977 -0.04828946 -0.031155717
0.10749598 0.05052644 -0.028805206 0.08306787 -0.05802942 -0.06875141 0.03541809 -0.031177294
-0.10740898 0.14283383 0.07561478 -0.061278865 -0.114858195 0.13416323 -0.0027854263 -0.045524843
-0.008346953 0.02920312 -0.04999293 0.0125858635 0.0020168708 0.03791324 0.056031063 0.058065355

ablang_branch.0.bias f4 [256]
00000000: 7221 f23b d1d2 eb3b c0d2 0a3c af45 2b3c
00000010: afc4 cbba 524b 2a3c bb57 653c 5c48 103b
00000020: 5daa 553b 1ef1 0b3a 2850 3e3c ff31 b03b
00000030: 98d0 8c3b 53e3 9d3c ada9 fdba b925 a33b
00000040: 73a1 48ba 6f1a 943b 9843 d9ba 05c3 663c
00000050: 79d8 8a3c a36f 803c 1b4d 043c 536f f63b
00000060: db67 e33b 1d04 de39 09c2 383c 0e9c cb3b
00000070: 532a 813b 8582 b73b 7e2b b73b a906 3f3c
00000080: 5b1d 373c d1e9 c0bb 3d3a d33b ac83 d43b
00000090: df01 cb3b 1cd3 723c a35f ce3a 2d23 bb3b
000000a0: 5c3b bb3b 8662 e1ba f946 f43b e79b ba3b
000000b0: bd0f fd3b 2e65 673a 3a2c a83b 0206 203b
000000c0: 8112 8bba 2b82 ca3b be72 1dbb 1e45 ab38
000000d0: 77a7 913b cba3 0f3c eeff 1f3c 7288 4bbb
000000e0: 1369 ad3b 065a 203c 2038 b63b 5fda ce3b
000000f0: 0fbd 993a 83f7 c73b bfcd 453c 8408 a639
00000100: 7cdd 76b9 776e 1f3b 55ed e63b c951 6a3c
00000110: 5b39 cc3a 4b10 1d3b 3330 613c b728 b83b
00000120: 6b10 39bb c684 9fb9 c839 8a3a 388b 5e3c
00000130: 159c 1fba c7f6 413c 91ec 9c3c 48f6 efb8
00000140: 3377 c63b 6f80 633b 8622 b63b 161e 40bb
00000150: 8c94 5c3b 8195 2d3b b18e 06bb 2aea 023c
00000160: 494c fb3b 1df5 503c 3489 0b3c 75be a039
00000170: 82c0 9d3b aaac 5b3c 02f1 013c cdbe a93b
00000180: bfb8 233c 8b30 083b ad53 88bb 56df 183c
00000190: aee5 f43b 3ac9 843b cfb1 783a c0e8 8cbb
000001a0: 1b2c 343b 93e1 c13b b64f 853c f834 173c
000001b0: 34de 683c 6c87 593b 62b8 c93b 6ae6 a1ba
000001c0: 4784 bcba 983d 953b fb1d a23b c412 153b
000001d0: 0c16 663c 09e5 1c3c dbe4 0cb7 09de 273b
000001e0: 1321 383b 6ba1 53ba d484 0b3c 89a6 aa3b
000001f0: 46ac 7b3b 0183 013c 350a 9d3b 4b8f 723b
00000200: 9306 2d3c 651b a539 2722 1e3c 477a 043c
00000210: 09ca ab3b fd6f d83b de09 1b3c 48ff 893b
00000220: 312e 8eba 1370 803b 0da0 4c3c 4798 833b
00000230: afad 7dbb 6321 a03b ad09 c33a d8b3 0c3c
00000240: 0abd 613b 92ba 5e3c e469 e53b e3b7 073a
00000250: 04be 873a 6192 0e3b ff2d 9a3b befe 0c3c
00000260: 360c be3a 2b5b 363c be0f 083c 8392 8bba
00000270: c51f f33a f1b2 3cbb 4c23 e93b d0b5 333c
00000280: a426 c13b 4aba 8c3b b817 ab3b 31d4 3b3b
00000290: 93d8 a03b ac3a 773a 2b90 3439 a13d e73a
000002a0: 016a a13c 104c da3b fd0f 8e3b eb86 d5bb
000002b0: c332 e93b 1abb d03a 8f80 143c 8a68 8939
000002c0: b14d 233c 3f3b 373b 1d8b 923a a274 a13b
000002d0: 6588 033c c614 ae3b 3812 a8bb a694 c2ba
000002e0: ca61 b23b 6316 43bb 2515 873b 8bff c73b
000002f0: 85f5 fe3b 93da c43b cb64 043c d191 513c
00000300: 70dd 95ba a3bd 9c3b 6919 843b c41b 503c
00000310: 4265 94ba cc1b 6a3b 5ec0 25ba da37 b63b
00000320: d1ba c6ba dda0 323a 374f 153c 640b 343b
00000330: 54e3 3c39 6543 073c d87f c9ba c47d d73a
00000340: 4efd 263b 8eaf 6cb8 6cac cc3b b982 a03b
00000350: a11c ef3b 8b42 6e3b f36d 993b 8a37 c5b8
00000360: 7866 2f3b c1d6 5d3b bf98 56bb 4ac5 a23b
00000370: 5593 333c 7230 163b f289 2f3b 69f1 963a
00000380: 9d10 4cba 44dd 1b3c cddf 0a3b 799a 0e3b
00000390: 9859 2f3c 0210 6b3b 65a7 563c 6f67 c63b
000003a0: d3eb 173c cdfe 143c 7490 153c c3d1 3dbb
000003b0: b3b0 e239 cfb1 4a3b 7cd5 613b c070 65bb
000003c0: a3ab 103b fe16 1c3b 94a7 15bb 0398 aeba
000003d0: fc99 4c3b 05ce d43b a3cb 3d3a f7d0 023c
000003e0: cf7e 543c 616a 563c 9adf 063b 51c8 e63b
000003f0: 8e54 0a3c 34e8 8a37 cb26 b03c 68a2 343b
0.007389241 0.007196762 0.008473098 0.010453626 -0.0015546287 0.010393934 0.013997967 0.0022015786
0.0032602765 0.00053383585 0.01161579 0.0053770537 0.0042973273 0.019273436 -0.0019352935 0.004978862
-0.00076534523 0.0045197527 -0.0016575931 0.014084582 0.016948925 0.015678233 0.008075024 0.007520595
0.006939871 0.00042346204 0.01127673 0.0062136715 0.003941813 0.005600276 0.0055899015 0.011659303
0.0111764325 -0.005887248 0.0064461515 0.006485423 0.0061952914 0.01482084 0.0015745055 0.0057109804
0.0057138633 -0.00171955 0.0074547497 0.0056948545 0.0077228234 0.00088270276 0.0051322253 0.0024417643
-0.0010610373 0.006180068 -0.002402469 8.1667895e-05 0.004445012 0.008767079 0.009765608 -0.003105667
0.005292067 0.009787088 0.00556089 0.006312653 0.0011729317 0.0061025037 0.0120729795 0.00031668332
-0.00023542898 0.0024327317 0.007047335 0.014301726 0.0015581058 0.002396601 0.013744402 0.005620088
-0.0028238546 -0.00030425767 0.0010545785 0.013582997 -0.00060886267 0.011838621 0.019155772 -0.000114422815
0.00605669 0.0034714004 0.0055583147 -0.0029314808 0.0033657877 0.0026486816 -0.0020531828 0.007990399
0.007669006 0.012753752 0.0085165985 0.0003065948 0.0048142085 0.013407866 0.007930996 0.005180216
0.009992777 0.0020780887 -0.0041603656 0.009330591 0.007473669 0.0040523084 0.0009486945 -0.004300207
0.002749211 0.005916783 0.01627336 0.009228937 0.014213134 0.003319229 0.0061560133 -0.0012351994
-0.0014382683 0.0045544617 0.0049474216 0.002274678 0.014043342 0.009576091 -8.397935e-06 0.002561452
0.0028095886 -0.00080730644 0.008515555 0.005207841 0.0038402244 0.007904769 0.0047924765 0.0037011679
0.010560649 0.00031491663 0.009651697 0.008085794 0.0052425903 0.006605147 0.009462802 0.00421134
-0.0010847506 0.0039196103 0.012489331 0.0040159556 -0.003870826 0.0048867925 0.0014880203 0.0085878
0.0034444951 0.0135942865 0.0070011485 0.00051772426 0.0010356312 0.002175473 0.00470519 0.008605657
0.0014499489 0.011130135 0.0083045345 -0.0010648522 0.0018548897 -0.002879318 0.0071148034 0.01096864
0.005894499 0.0042946683 0.0052213334 0.0028660411 0.00490863 0.0009431045 0.00017219844 0.0017642268
0.019703867 0.0066618994 0.004335402 -0.0065163276 0.007116647 0.0015924901 0.009063854 0.00026208564
0.009967254 0.0027958897 0.0011180375 0.004927234 0.008028124 0.005312535 -0.005129125 -0.0014845326
0.0054437863 -0.0029767982 0.0041223937 0.006103461 0.007780733 0.0060075014 0.008080672 0.012791113
-0.0011433791 0.0047833486 0.0040313494 0.012701932 -0.0011321681 0.0035722135 -0.00063229154 0.0055608572
-0.0015161877 0.00068141316 0.009113125 0.002747261 0.00018013763 0.008255814 -0.0015373183 0.0016440679
0.0025480571 -5.6430283e-05 0.00624614 0.004898396 0.007297114 0.003635558 0.0046822964 -9.404037e-05
0.0026763957 0.0033849927 -0.0032744852 0.0049673663 0.01096042 0.002291706 0.0026785103 0.0011516038
-0.0007784458 0.009513203 0.0021190525 0.0021759553 0.010702513 0.0035867696 0.013101433 0.0060548107
0.0092725335 0.009093952 0.009128679 -0.002896414 0.0004323773 0.0030928736 0.0034459522 -0.0035009831
0.002207496 0.0023817415 -0.002283548 -0.001332045 0.0031219712 0.006494286 0.0007240122 0.007984391
0.012969687 0.013086886 0.0020580054 0.0070429225 0.008443011 1.655901e-05 0.021502873 0.0027562622

ablang_branch.1.weight f4 [256]
00000000: dc78 7e3f 471a 7d3f f000 853f 0c09 7c3f
00000010: 315e 843f 6834 813f 41e3 7f3f 50f2 863f
00000020: 578c 803f e186 7b3f 5b89 8a3f ca2e 823f
00000030: 94e0 7b3f d34c 7c3f bc29 773f 093f 803f
00000040: 51d4 833f 2db9 7c3f a390 803f cd4c 7d3f
00000050: 0058 803f 4272 873f 7207 783f 99ae 7e3f
00000060: 1bb1 883f 944d 803f 0987 7e3f 74ef 7f3f
00000070: 90e4 823f f300 823f dcbc 803f 5e1f 7b3f
00000080: eab7 833f c14c 7d3f 266c 7c3f 3e63 7a3f
00000090: 99a5 893f d8f9 803f 60fb 873f 3d1a 783f
000000a0: 0ef2 793f 1416 753f 13f7 7b3f 77e4 823f
000000b0: 8c49 853f 99aa 7c3f e274 7d3f c719 7d3f
000000c0: 18b5 783f b820 7b3f 18fd 7f3f fcb2 7a3f
000000d0: 0c46 893f daf1 793f a17a 893f 0d34 803f
000000e0: 0d05 803f 5989 873f 96ac 7f3f 93ef 783f
000000f0: d11c 7d3f ecf1 7a3f af87 813f f1cc 7c3f
00000100: 4f56 7e3f 14cb 833f f74c 793f 8971 7f3f
00000110: e9b6 7b3f 71b5 813f de0b 823f 5f48 803f
00000120: 7a79 7f3f 039c 7a3f 0cc9 833f 48e7 7a3f
00000130: 31f0 7f3f b065 883f 7974 833f 22ae 833f
00000140: 7a7d 743f e2d3 823f ebfc 793f a91a 7d3f
00000150: 87d9 803f 6e0e 823f c495 803f c201 7d3f
00000160: 67aa 833f 2a2b 813f 4bef 7a3f d017 823f
00000170: 1e42 793f 6acb 7c3f 0d45 7e3f c907 823f
00000180: 4d3d 793f afd5 7e3f 552f 7a3f 654f 823f
00000190: 244f 823f 3114 7b3f 2a10 813f bac3 843f
000001a0: 4d49 853f 4655 7a3f 1676 7e3f b300 7f3f
000001b0: 9c95 843f 3a28 833f 0868 7e3f c152 813f
000001c0: e7e0 803f 8c10 823f fcf9 813f d106 813f
000001d0: 7200 7b3f 8355 773f 7a85 833f a3c3 823f
000001e0: 31f3 7b3f 5c5d 7c3f de99 7c3f d0ef 7a3f
000001f0: cd65 813f 35c7 823f 25f7 893f d209 813f
00000200: 5b2b 7e3f 1afb 7b3f 8fad 813f b9c3 853f
00000210: 2160 7e3f 3274 813f 2b22 783f 6f83 853f
00000220: 5f32 7c3f 56df 7c3f eabd 863f a2d6 773f
00000230: e498 773f f68d 793f 863e 863f 9825 7b3f
00000240: d7d7 7f3f 093a 7f3f b060 803f 8e04 873f
00000250: 91b9 793f 3b6a 7f3f 2f14 7d3f 92b9 793f
00000260: c1e4 7a3f 9424 893f 0a45 833f d1e5 803f
00000270: b623 7b3f 6864 7a3f 19db 833f e2e1 823f
00000280: 29fe 7d3f 8684 7c3f dd3c 7c3f 9143 803f
00000290: 554f 803f 5d6d 7c3f dbfd 813f ff37 7d3f
000002a0: 6bfe 7c3f 91c5 7f3f d076 833f f2f1 783f
000002b0: d270 7d3f b762 803f 5adc 883f 42d6 7e3f
000002c0: 373a 823f 6f76 873f 7fcb 813f 87d1 863f
000002d0: 1ae5 793f 12c5 833f f8c9 7a3f fca6 7d3f
000002e0: 9590 813f d0d7 7f3f a531 763f c200 7b3f
000002f0: 1add 7d3f 6857 823f 05d4 813f 516c 783f
00000300: a50a 823f fa62 783f 94fd 833f 7d8c 833f
00000310: 5105 7e3f 154c 813f c6e6 7f3f 7ba0 813f
00000320: f23c 833f b319 823f 7701 7b3f 19e2 813f
00000330: b51e 783f 7f9c 803f 2afe 773f fae3 783f
00000340: 85a8 813f 0888 753f d05a 7a3f 3c19 823f
00000350: 56e6 7a3f e868 7c3f 93ad 7e3f 302a 843f
00000360: 276f 7e3f 39c7 823f cf68 7b3f 6e22 783f
00000370: 8c24 893f 3ad1 7b3f 9540 843f f03f 7c3f
00000380: 39b0 7d3f 6d73 7c3f e681 783f 9ff0 7f3f
00000390: 5731 7c3f da82 7b3f 872e 7e3f 79f3 823f
000003a0: f522 823f 8c41 7b3f 87e4 7d3f ed56 7f3f
000003b0: f1cf 7d3f 988d 793f aec1 7c3f 9033 823f
000003c0: 8cff 853f e8b2 823f 2eaa 7c3f ee9a 7a3f
000003d0: bec6 7c3f a01e 843f 64cf 7e3f f1c3 803f
000003e0: 8a1a 853f 5edc 823f 831a 803f 93be 7c3f
000003f0: dbfa 7e3f bbfe 813f 9b3f 7d3f 5f5b 7c3f
0.99403167 0.9886822 1.0390911 0.98451304 1.0341245 1.0094118 0.99956137 1.0542698
1.0042828 0.98252684 1.0823168 1.0170529 0.98389554 0.98554724 0.96548057 1.0019237
1.0299169 0.98720056 1.004414 0.98945314 1.0026855 1.0581744 0.9688636 0.99485165
1.0679048 1.0023675 0.994248 0.9997475 1.0226002 1.015654 1.0057635 0.9809474
1.0290501 0.9894524 0.9860252 0.9780768 1.0753661 1.0076246 1.0623589 0.96915036
0.9763497 0.95736814 0.9842388 1.0225972 1.041307 0.9869781 0.99006474 0.9886746
0.9715133 0.980968 0.99995565 0.9792936 1.0724502 0.9763466 1.0740548 1.0015885
1.0001541 1.058879 0.9987272 0.9724056 0.98872095 0.98025393 1.0119532 0.98750216
0.99350446 1.029635 0.97383064 0.99782616 0.98325974 1.0133497 1.0159872 1.0022086
0.99794734 0.97894305 1.029573 0.9800916 0.9997588 1.0656033 1.026992 1.0287516
0.9550396 1.0220912 0.9765155 0.98868805 1.0066384 1.0160654 1.0045705 0.9883081
1.0286378 1.0091298 0.9802138 1.0163517 0.9736651 0.98747885 0.99324113 1.0158626
0.9735916 0.99544805 0.9772847 1.0180479 1.0180402 0.98077685 1.0083058 1.0372231
1.0412995 0.97786367 0.99398935 0.9961044 1.0358157 1.0246651 0.9937749 1.010338
1.0068635 1.01613 1.0154414 1.0080205 0.98047554 0.96614856 1.0275109 1.0215954
0.98417956 0.98579955 0.9867228 0.98022175 1.0109192 1.0217043 1.0778548 1.0081122
0.99284905 0.98430026 1.0131091 1.0450355 0.9936543 1.0113585 0.96927136 1.0430735
0.9851436 0.98778284 1.0526707 0.9681188 0.9671767 0.9748224 1.0487831 0.9810424
0.9993872 0.9969793 1.0029507 1.0548265 0.97548777 0.9977147 0.9885892 0.9754878
0.980053 1.0714288 1.0255444 1.0070134 0.98101366 0.9780946 1.0301238 1.0225184
0.9921594 0.98639715 0.9853037 1.002062 1.002421 0.98604375 1.0155596 0.9891357
0.9882571 0.9991084 1.0270634 0.9724418 0.99000275 1.0030125 1.0692246 0.9954568
1.0174016 1.0583018 1.0140227 1.0532693 0.97615206 1.0294516 0.9796443 0.9908292
1.0122248 0.9993868 0.961695 0.9804803 0.991655 1.0182924 1.0142828 0.9704028
1.0159498 0.97026026 1.0311761 1.0277249 0.9922686 1.0101343 0.9996151 1.01271
1.0252974 1.0164093 0.9804911 1.0147125 0.96921855 1.0047759 0.968722 0.97222865
1.0129553 0.9591069 0.9779482 1.0163951 0.98007715 0.98597574 0.99483603 1.0325375
0.99388355 1.0217048 0.982068 0.96927536 1.0714278 0.9836613 1.0332209 0.9853506
0.9909702 0.98613626 0.9707321 0.99976534 0.98512787 0.9824654 0.99289745 1.0230552
1.0166918 0.9814689 0.9917683 0.99742013 0.9914542 0.9748168 0.9873303 1.0171986
1.0468612 1.0210848 0.98697174 0.97892654 0.98740757 1.0321846 0.995352 1.0059797
1.0398724 1.0223501 1.0008091 0.98728293 0.99601525 1.0155863 0.9892518 0.9857692

ablang_branch.1.bias f4 [256]
00000000: 2602 59bb d987 e1bb e5eb bdbb f1f4 d6bb
00000010: 30d8 87bc 8c49 2d39 9e82 adbc a82e 2dbd
00000020: 677e 1dbc 804c 9abc b578 a5bc 2a20 bbbc
00000030: 2fa5 23bb e806 e9b9 3052 bfbc 788a c1bc
00000040: bb72 a9bb fdd2 d6ba 1dc7 9abc 48ca bf39
00000050: 9c1a 293a 4b48 9a3b 29ff f1bb 1dba 16bb
00000060: 2bc6 fdbb 4050 a8bb bd0e 0a3b 0194 543b
00000070: b20b 9ebb de3b 89bb 343d 21bb 9945 c2ba
00000080: f167 e43b 91bc 84bc ae06 40ba 492a f4bb
00000090: 8476 e0ba 54f9 aa3b c283 1aba 51b7 88bc
000000a0: 1511 8ebc 8b4c b8bc dc6d a0bb 3a26 f1bb
000000b0: 4c38 9abb bf76 09bc e456 e9bb 9746 4ebc
000000c0: 4589 abbc 25ac 51bb 103c b3bb 432b ebbb
000000d0: 94d3 713a 1ecf 8abb b998 3dbb d206 b8bb
000000e0: 1541 12bb 93fb 02bb f272 f2bb e528 1dbc
000000f0: b031 c6bc 0844 adbc 4f5f 25bc aa57 02bc
00000100: f37c acbb 1336 41bb 4b55 c0bb e75e 55bc
00000110: 0277 07bc 22e1 e8ba a475 5bbc 2b9f 51bb
00000120: 0284 70bc ec9e 7bbc 3ac8 c63a de76 1a39
00000130: 48f0 04bc befb 97bb 42fc 0c3c cb5a 75bd
00000140: 4172 f4bb 7074 63bc f5fb fcbc c9d2 c4bb
00000150: 17be 5c39 a069 f7bb 919f 0fbc 0f6d 5fba
00000160: a088 00b7 7ad2 1a3b cdc6 2abc 5007 2ebc
00000170: c478 16bc f97f 963b 7190 07bc d104 30bd
00000180: 1962 75bc 2b0d 80ba f278 6abc 4d96 abbb
00000190: f75e 82bb c702 93bb 04f1 f8bb 86b1 8fbc
000001a0: e3b6 78bb 4481 93bb 2160 b4bc dfc5 dd3a
000001b0: 2df1 85bc 4f74 05bb 24be dcbb fa56 56bc
000001c0: 5aba c2bc 645e 7fbc 9429 8cbc efe7 b0bb
000001d0: ed7f f1bc 6f5d aabb e1f5 e8bb ff38 18bd
000001e0: ef4e 94bb bb20 b5bc 818b d639 0043 80bc
000001f0: 09d8 d0bb ac71 5b3b 6793 42bc 4004 a7bb
00000200: cf32 233b 9630 d3bb b610 c43a 8995 b73b
00000210: 08de 05bc fdd9 27bb b388 c7bc 229a 09bb
00000220: 2bd8 8cbc 0803 77bc cead 23bc ae12 a5bc
00000230: 0357 cdbc fa38 c1bc 6d6e a2bb 1844 73bc
00000240: 633a 8eba 1c50 7939 750c c1bc 7acf 48bb
00000250: 9225 9bbc 6cee 85bb b64a 90bb 703e bebc
00000260: ccda 41bc a16d e1bb db29 17bb 9571 b1bb
00000270: 2980 58bc cd2d c4bc 3d1b 9dbc ed85 a4bc
00000280: 01a4 81bb 5a40 ccbb b276 50bc 19f0 bbbc
00000290: 4d6a 04bb d673 abbb b6eb d4bb bae5 9bbb
000002a0: e25d 05bc c9ad 47ba 4965 2abb 4c38 d0bc
000002b0: d8ce f5bc 821d dbbc 33ab cdbb e751 cbbc
000002c0: d7ac 01bc 5192 4dbc 7179 81bb d6b5 613a
000002d0: 1787 b2bb 8bda b1ba b1a4 9abc f168 28bc
000002e0: 04f4 94bb a80a 1ebc cb6a dfbc 3859 e9bb
000002f0: bdc6 5bbc fb40 31bb b99e e23b 2df0 1dbc
00000300: 3d6d 95bc 5cd5 1abd 023b b8bb ff4c 18bd
00000310: a81c 53bc a5c4 22bc 4b50 d9bb b563 9b3a
00000320: c03a e2bb 5feb babb 9f17 fcbc 1f8d 2fbc
00000330: 002f 88bc 28dd 1bbb 95a6 45bc d209 6fbc
00000340: 7513 10bb 584d 9fbc 78ce 36bc 4a1f aabb
00000350: 6e9c 6dbc 070e a9bc e8ed e8bb 49d6 aabb
00000360: 2d51 1ebc 9850 1abc 1e08 33bc 82a9 cebc
00000370: f5a4 dcbb f136 02bc ea01 83bd ca48 84bc
00000380: f257 adbb 7363 d53a e704 6fbc c804 52bd
00000390: 7c7d 13bd 2a85 eabb 1513 8dbc b158 d738
000003a0: 678e 37bc dfcc 8bbb 181b 11bc 901f 0bbc
000003b0: 2770 aabb cbd6 20bd e618 c7bc aca9 44bc
000003c0: fc1e b939 26bc bdbb 395d 0ebc 3276 a5bc
000003d0: 72e4 7fbb d9ef 8dbc 638b e3bb 45c4 51ba
000003e0: 98e5 88bb 8848 13bb b75c 05bc e6c9 8fbc
000003f0: 9fb6 dfba 6c5b 12bc fe52 03bd 15b8 bcbc
-0.0033112853 -0.0068826494 -0.005795943 -0.006559961 -0.016582578 0.00016525964 -0.021180447 -0.042280823
-0.009612656 -0.018835306 -0.02019916 -0.022842485 -0.0024970283 -0.0004444637 -0.02335462 -0.023625597
-0.0051711476 -0.0016389784 -0.018893773 0.0003658107 0.00064508035 0.004708325 -0.007385154 -0.0022999116
-0.0077445707 -0.0051365197 0.0021065914 0.003243685 -0.0048231715 -0.004188045 -0.002460313 -0.0014821767
0.0069703986 -0.016203197 -0.0007325214 -0.00745133 -0.0017125164 0.0052177105 -0.0005894267 -0.016688975
-0.01734213 -0.022497436 -0.0048959088 -0.0073592933 -0.004706418 -0.008390128 -0.007120954 -0.012590072
-0.020939479 -0.0031993475 -0.0054698065 -0.007176788 0.0009224948 -0.004236116 -0.002893014 -0.0056160474
-0.0022316624 -0.0019986376 -0.0073989565 -0.00959227 -0.024193615 -0.021150604 -0.010093524 -0.007955471
-0.0052639185 -0.0029481694 -0.0058695427 -0.013023115 -0.00826812 -0.001776729 -0.013394747 -0.003198574
-0.014679911 -0.015357714 0.0015165873 0.00014730866 -0.008113928 -0.0046381643 0.008605065 -0.05990104
-0.007459909 -0.013882741 -0.030881861 -0.006006573 0.00021051649 -0.0075504333 -0.008766071 -0.0008523026
-7.661205e-06 0.002362399 -0.010423374 -0.010621861 -0.009184066 0.0045928922 -0.008274184 -0.042973343
-0.014977002 -0.0009769549 -0.014311062 -0.005236423 -0.003978606 -0.004486415 -0.0075970907 -0.017540704
-0.0037950806 -0.0045014936 -0.022018494 0.0016919932 -0.016350353 -0.0020363515 -0.0067365337 -0.01308226
-0.0237705 -0.015586469 -0.01710967 -0.0053987424 -0.029479945 -0.0051991264 -0.007109389 -0.03716373
-0.004526011 -0.022110334 0.000409212 -0.015656948 -0.0063734096 0.0033484502 -0.011875964 -0.005096942
0.002490211 -0.006445001 0.0014958594 0.005602543 -0.008170612 -0.002561211 -0.024357175 -0.0020996411
-0.01719292 -0.015076406 -0.009990169 -0.020150509 -0.025065904 -0.023586739 -0.0049570114 -0.014847778
-0.0010851141 0.00023776334 -0.02356551 -0.0030641244 -0.018938813 -0.00408726 -0.0044034375 -0.023223132
-0.01183195 -0.006879524 -0.002306572 -0.0054151514 -0.0132141495 -0.02394762 -0.019178027 -0.020083392
-0.0039563184 -0.0062332572 -0.012723612 -0.022941636 -0.0020204962 -0.0052323146 -0.0064978255 -0.00475761
-0.008140059 -0.00076171436 -0.0026000312 -0.02541747 -0.030005857 -0.026747469 -0.006276512 -0.024819328
-0.007914743 -0.012547092 -0.0039512445 0.00086101645 -0.005448233 -0.0013569159 -0.01887736 -0.010278926
-0.0045456905 -0.009646095 -0.027272603 -0.0071212314 -0.013414082 -0.0027046788 0.006915894 -0.009639782
-0.018240565 -0.03780113 -0.0056222687 -0.037182804 -0.01288525 -0.009934579 -0.006631886 0.0011855277
-0.006903976 -0.005704328 -0.030772982 -0.010714798 -0.016623974 -0.0023782942 -0.012063642 -0.014589744
-0.0021984254 -0.01944606 -0.011157624 -0.005191718 -0.014502628 -0.020636572 -0.0071084388 -0.005213533
-0.0096629085 -0.009418629 -0.010927228 -0.025227312 -0.0067335316 -0.007947669 -0.063968495 -0.01614799
-0.005290025 0.0016280249 -0.014588571 -0.05127409 -0.036008343 -0.0071569877 -0.017221013 0.00010268519
-0.011203385 -0.004266366 -0.008856557 -0.008491412 -0.005201358 -0.039267343 -0.024303865 -0.012003344
0.00035309035 -0.0057902513 -0.008689218 -0.020197961 -0.0039046076 -0.017326282 -0.0069441064 -0.0008001964
-0.0041777603 -0.0022473652 -0.008139781 -0.017552327 -0.0017067975 -0.0089329295 -0.03206157 -0.023036996

ablang_branch.4.weight f4 [128, 256]
00000000: 282c babd 8418 6bbd 7ad2 c2bc cd3c b8bc
00000010: e7e6 a1bd f341 9abd aa34 8abd c6f6 ca3d
00000020: 6f0b 03be be2a a93d a7ff 653c fd66 5a3d
00000030: 3363 a1bd 64bd 3f3e 1146 dcbd 37d3 dfbd
00000040: c773 e4bc 54f6 6ebd 90ae 8bbd 9ab3 18bd
00000050: 6be8 fd3c 43ba 1ebd b65e e5bc 4879 2cbe
00000060: 608b a9bc 7b93 41bd 6d59 903d 4970 d93d
00000070: 22ea 273c 0336 8abb 3201 b73d 22e7 dfbd
00000080: d1b4 2f3d 53e1 203e c872 0dbd 3ce8 18be
00000090: 0867 de3d 6269 863d 4d3d 1d3c 36a8 89bd
000000a0: 878b 19b9 95e5 fa3d 7eb9 173d 949b 803c
000000b0: 863b 733c 52f7 98bd 86d6 d6bc 251e 733e
000000c0: 5754 393d 9205 833d ffd9 41bc 36f3 4ebd
000000d0: 46b8 edbd 182c cabd a552 e6bc f503 1abd
000000e0: 3552 073e fd3a 1a3c d197 adbc b1fa a63d
000000f0: c706 ff3d 8b4e 84bc 59d3 3fbd 7b70 15be
00000100: b71b 0ebe c41a 563d 5144 83be 197d 89bd
00000110: 0acd 84bd 4e71 e5bd 1c21 b2bd 1f18 3a3e
00000120: c3b3 e9bd b211 1c3e 4f07 633c 7f14 cb3d
00000130: fced 56be ea86 fc3d 2cf2 2fbd 21af 01bd
00000140: 0a22 5b3b 29de c13d d8ac adbb f5cc 03be
00000150: 5f39 5b3d 166c 15be ae9e 48be d47f a03d
00000160: d60a 153e 93db b73c cfe1 2dbd 4024 c63d
00000170: 57b9 013d 9495 483c b8ae ac3d 06f8 03bd
00000180: 49d4 fb3d 5d17 ca3c b203 0f3e 5416 3d3d
00000190: 2cbb 8d3d b7c1 1abe 6e84 213e 2928 353d
000001a0: 9ea7 aa3d e0e0 9a3d cbd9 dd3d fe9e 693e
000001b0: b9d1 253e f129 ea3c efa6 5fbc dd01 15bb
000001c0: 2828 0bbe a507 bebd 6f55 923b d4fd a5bd
000001d0: f655 a13b 8a5d 22bc 14c4 8dbd ade9 5fbc
000001e0: 11f5 9fbd 6c1d 32bc de66 4c3e 9310 2e3e
000001f0: 3c84 71bd 505c 92bd 0081 113c 2bfd 163d
00000200: 7d41 3cbe 3e58 1d3e f8c7 7bbd fd9e 8d3d
00000210: 49ad ab3d b882 c0bd b0d2 c3bc 4151 8b3c
00000220: 0afe ccbd d046 fb3d e6fe e2bd 47f3 293d
00000230: fb33 113c c45c be3d d97a 023e 6448 1dbd
00000240: ebbc 07bd 30f5 0abe 5b18 c13d d235 273d
00000250: 8200 0abe 2db3 253d e7c4 06bd e7da fb3c
00000260: c5b1 b6bb a6d8 853d e99b 7fbd effb f4bd
00000270: bf28 e1bd e7ab 2d3d f96f 2d3d 2e48 f63d
00000280: 624e 19be 540e 1d3d e292 c8bb 9830 b0bd
00000290: 5f72 df3d e72f 763d 555e bd3d abf8 3bbd
000002a0: 37ec e2bd 6d31 9c3d 9762 b93d 5e93 a9bd
000002b0: f362 12bd dcd7 353d 3e82 2a3e 6d52 8f3b
000002c0: b3c5 90bd 33d5 833d f6c6 1cbd 4ecc 2b3e
000002d0: bd78 353d bfa8 26bd cf91 a53d 7a9e f6bc
000002e0: 8bac e2bd ed44 ecbc 7104 023e 50b5 943d
000002f0: 5161 6f3d 58dc cabd e7c4 913d 418c ef3d
00000300: a320 8e3c c886 87bb ceee 96bd a299 d83c
00000310: 43eb 83bd 12c0 dabd 5658 2fbd 3500 033e
00000320: 439c a33c 15a8 6d3b 840e 483d 7273 8d3d
00000330: fe9a c4bd 7741 c33c f8df ab3d 1d51 c9bc
00000340: 671d 3dbd cb90 1e3e 72b9 2bbd b54c d43d
00000350: e72c 0a3e 9def bcbc b92c 2ebe ab8a d63c
00000360: d1f5 cbbd cb49 193e 54f9 5c3c 5a1b 5f3d
00000370: 0ace 6b3d 90b0 cebd cf4a d0bc cd4b 273d
00000380: e0d7 f73c b894 14be 74d4 423d 43f4 443d
00000390: b350 9cbd a9c7 393c e01c 053d 062c fdbd
000003a0: cbc7 ab3d c638 8abd 9367 68bd bc7b afbc
000003b0: fb73 97bd efce 1a3e 9194 ce3d 00fd 3e3d
000003c0: 2ea9 a0bd 918c 58bd 7c6a 6b3d 0229 5abe
000003d0: cfc8 c0bc 3b9b d1bd c625 7e3b 2437 1fbc
000003e0: f8c3 37be 6483 a23d 5613 033d c9b8 013d
000003f0: 7934 09bd b548 803d 0181 be3d 3c1c 143b
-0.090904534 -0.057396427 -0.023782004 -0.02248993 -0.07905369 -0.0753211 -0.06748326 0.099103495
-0.1279733 0.082601056 0.014038003 0.053320874 -0.07880249 0.1872459 -0.107555516 -0.10928958
-0.027887238 -0.058340386 -0.068204045 -0.037280656 0.030994615 -0.03875185 -0.027999263 -0.1684314
-0.020696342 -0.04725979 0.070483066 0.1061712 0.010248693 -0.0042178645 0.08935775 -0.10932757
0.04289705 0.15710954 -0.034533292 -0.1493234 0.108594954 0.06563069 0.009597135 -0.06721537
-0.00014643195 0.122508205 0.037042134 0.015699185 0.014845734 -0.074690476 -0.02622534 0.23741968
0.04524645 0.06397547 -0.0118317595 -0.050524913 -0.11607413 -0.098716915 -0.02811558 -0.03760143
0.13214953 0.009413478 -0.021190556 0.08153284 0.124524646 -0.016150733 -0.046832416 -0.14593689
-0.1387776 0.05227162 -0.2563806 -0.067133136 -0.064844206 -0.11203252 -0.08697721 0.18173264
-0.1141124 0.15241125 0.013856723 0.09916019 -0.20989221 0.1233042 -0.042955562 -0.031661157
0.0033437037 0.09466202 -0.0053001456 -0.12871154 0.05352151 -0.14592013 -0.19591781 0.07836881
0.14554915 0.022443568 -0.042451676 0.09674883 0.031670894 0.012242693 0.084317625 -0.032218955
0.122963496 0.024669344 0.13966253 0.046163872 0.06920466 -0.15112959 0.15773174 0.044227753
0.08332752 0.07562423 0.10832556 0.22814557 0.16193284 0.028584452 -0.01365064 -0.0022736706
-0.13589537 -0.09278802 0.004465751 -0.081050545 0.0049235774 -0.009909997 -0.069221646 -0.0136665525
-0.078104146 -0.0108712725 0.19961116 0.1699851 -0.058964 -0.071465135 0.008880854 0.036862534
-0.18384357 0.15365693 -0.061470002 0.0691509 0.08382661 -0.093999326 -0.023904175 0.017006518
-0.100093916 0.12269366 -0.11083774 0.041491773 0.008862491 0.092950374 0.12742175 -0.038399115
-0.03313915 -0.13570094 0.094284736 0.04082281 -0.13476756 0.04045408 -0.032902624 0.03074403
-0.005575391 0.06535463 -0.062404547 -0.11962115 -0.109941 0.042400267 0.042343114 0.12025486
-0.14971307 0.038343742 -0.0061210254 -0.086030185 0.109104864 0.060104277 0.09246508 -0.045891445
-0.11080211 0.07626615 0.09052008 -0.08280061 -0.035738897 0.044395313 0.16651246 0.0043738396
-0.07068958 0.06437149 -0.03827568 0.16777155 0.044304598 -0.040688273 0.080844514 -0.030104864
-0.11068066 -0.02884146 0.12697007 0.07261145 0.058442418 -0.099053085 0.07117634 0.11696673
0.017349547 -0.00413594 -0.07369767 0.026440445 -0.06441357 -0.10681166 -0.042808853 0.12793048
0.019971972 0.0036263515 0.04884197 0.06906785 -0.09599875 0.023834927 0.08392328 -0.02457481
-0.04617062 0.15484922 -0.0419249 0.10366193 0.13493691 -0.023063475 -0.17009248 0.026189169
-0.09958995 0.14969556 0.013487179 0.054469444 0.05756954 -0.100922704 -0.025426297 0.040843774
0.030254304 -0.14509857 0.047565892 0.04808451 -0.0763258 0.011339107 0.03249824 -0.123619124
0.08387717 -0.0674911 -0.0567394 -0.021421306 -0.073951684 0.15118001 0.100869305 0.046628
-0.078447685 -0.05286843 0.0574746 -0.21304706 -0.023533253 -0.10234686 0.003877984 -0.009717736
-0.1794585 0.07935217 0.032000862 0.031670365 -0.033497307 0.06263868 0.09301949 0.0022599837

ablang_branch.4.bias f4 [128]
00000000: e276 c6bb 9890 5f3a 3746 06bd 0ce6 55ba
00000010: ce6b 813b 8e1b d93b 8767 bebc d531 0a3d
00000020: 32eb 5bbc 8d0f 88bc cd29 a33c 0a8e 953c
00000030: 8d23 803b 6e96 15ba ee12 903c 43aa 7abc
00000040: 27b7 b5bb c447 b2bc c065 dfba 86b8 09bd
00000050: 8e59 87bb 9ae1 023d 96bb 1abd 2378 203c
00000060: 3830 023c 6c4f b03b 0614 17bb c765 26bb
00000070: 7a24 8e3c 0d80 a6bb 9106 3c3c a7d4 1cbc
00000080: c237 b43b 583b edbc 784a f7bb c5f2 ef3a
00000090: 893e 56bc 1077 39ba d06f b93c 1c6d b839
000000a0: dc77 eabb 8e4a aebc 277f f13c c5e3 3bbd
000000b0: 16ab 513c d0b9 8dbc 99c8 6fba 8f76 8a3c
000000c0: 9adb bfbc 3085 993c f04f 87bb 48d5 f1bc
000000d0: 9515 0b3c dccf 153c ce13 87bb 2ff4 0c3c
000000e0: bb37 2ebc da0d d03a a86e b13b 68cd 1bbd
000000f0: ba19 363d 0d00 cfbb 0201 793d 1126 87bc
00000100: 4ad6 1439 2e44 79ba 9698 533c bb98 4b3c
00000110: eb19 89bc fc99 d43c 2535 85bc b778 2abd
00000120: b6db a13c fbbd babc 40e7 f8bb 0637 783c
00000130: 8c1f 2abd a8c8 0f3c 7fe2 53bd e73f 03bc
00000140: 56e0 38bd d3e6 94bb a3e8 b9bc 7b5a 363b
00000150: 42f7 773c e9a9 3cbc 58ab 7abc 3640 ac3c
00000160: 5847 a3bc fe79 d7bb 370b ddbb 38ed f2bb
00000170: b634 32bd 3582 75bb cc6d d0b8 89de 783c
00000180: aecf bebc 6426 61bb f7dd ccbb 86d2 003c
00000190: 130a 283c 654c 97bc 9889 13bc 0473 0e3b
000001a0: 7943 073d b04b eebc 6d50 25bc 30ef 49bc
000001b0: 9911 36bc 2a08 d5ba b734 27bb 6c89 8eba
000001c0: e8fe a73b eb0f 02bd 41ca dabb f2bf 563b
000001d0: a837 af3c 3fbe ccb9 f567 cb3c 4e0e d3b9
000001e0: 13d5 5a3c d819 84b9 0efa bbbc c99d 19bd
000001f0: 8e4c 33bd 7b42 60bc 694f e7bc d67a 373b
-0.0060566524 0.0008528321 -0.032781806 -0.0008159585 0.003949619 0.006625599 -0.023242725 0.03373893
-0.013422774 -0.016608978 0.019917393 0.018256206 0.003910488 -0.00057063147 0.017587151 -0.015299383
-0.005545515 -0.021762736 -0.0017043874 -0.03362324 -0.004130549 0.03195343 -0.037776552 0.009794268
0.007946067 0.0053805616 -0.0023052706 -0.0025390254 0.017351378 -0.005081183 0.011476175 -0.009572185
0.005499811 -0.028958961 -0.007546719 0.0018306604 -0.013076433 -0.00070749316 0.022636324 0.00035176508
-0.0071554016 -0.021275785 0.029479576 -0.045871515 0.012797138 -0.017300516 -0.0009147018 0.016902236
-0.023420144 0.018740267 -0.0041294023 -0.029520646 0.008489032 0.009143796 -0.004122234 0.00860314
-0.010633404 0.0015873269 0.0054148026 -0.038037688 0.04445813 -0.0063171447 0.060791977 -0.016497644
0.00014194209 -0.0009508756 0.012914797 0.0124265505 -0.016735991 0.025952332 -0.016260693 -0.04161903
0.019758087 -0.022795668 -0.0075959265 0.015149837 -0.04153399 0.0087758675 -0.051729675 -0.008010841
-0.04513582 -0.004544118 -0.022693938 0.0027824927 0.015134634 -0.011515119 -0.015299641 0.021026712
-0.01993148 -0.006575822 -0.0067457217 -0.0074135326 -0.0435073 -0.0037461643 -9.938664e-05 0.015189775
-0.023292389 -0.0034355158 -0.006252046 0.007862693 0.010256308 -0.018469045 -0.009004973 0.0021736035
0.03302333 -0.029088825 -0.010089976 -0.012325093 -0.011112594 -0.0016253043 -0.0025513598 -0.0010874695
0.0051268227 -0.03175346 -0.0066769426 0.0032768217 0.021388844 -0.00039051656 0.024829844 -0.00040255714
0.013356465 -0.00025196257 -0.022946384 -0.03750399 -0.04377418 -0.013687725 -0.028236108 0.00279968

ablang_branch.5.weight f4 [128]
00000000: c3b9 773f 41a1 793f d9ed 7b3f 29e6 7d3f
00000010: 03d8 813f 6b67 7c3f c435 7f3f a020 843f
00000020: b436 793f ad5b 833f e1a3 803f f7c0 803f
00000030: 8231 813f 503a 7e3f 7cec 7e3f b3a4 7d3f
00000040: 7813 813f 45a6 753f dc3c 7f3f fa79 7d3f
00000050: b397 793f 3340 823f 9b75 7c3f e37a 7d3f
00000060: 8f45 7c3f f8fe 803f d604 7e3f 4631 813f
00000070: 4ea5 7f3f 6427 7b3f da97 7c3f d147 743f
00000080: bfea 823f 7217 7c3f c45f 763f 85a5 7e3f
00000090: 1df7 773f 1ecd 7c3f e494 843f 6ea3 793f
000000a0: 13af 7f3f cd8a 7b3f 5530 823f 3d27 783f
000000b0: 4dd1 7e3f d18d 7c3f 3d7f 7d3f ba54 813f
000000c0: 0a31 7f3f 7d4f 813f 5421 7b3f 6df9 773f
000000d0: e5a5 813f 71c2 7f3f bb94 773f 7246 803f
000000e0: 45e7 783f 1d71 813f a7b9 7e3f 7cc7 813f
000000f0: 1e3a 813f d611 793f 4ab0 863f 1945 743f
00000100: da6d 803f aaa8 803f be47 7f3f d0dc 7c3f
00000110: f0ce 803f 3eb6 803f af46 7c3f fc5b 803f
00000120: 6ee5 813f 8c79 793f 1c55 793f 42f1 7d3f
00000130: e665 7d3f 345b 823f 4425 7a3f fc41 743f
00000140: e764 803f b46a 7f3f 8f35 793f 48a9 803f
00000150: 52c1 7f3f 9c34 783f f84e 733f e81b 803f
00000160: 2e21 753f 19fc 7f3f c9b7 7a3f de61 7f3f
00000170: 9d52 843f ab25 7d3f 6272 7b3f 6ebb 803f
00000180: f33b 7b3f e565 7f3f bd98 803f 248a 7c3f
00000190: a201 803f 8088 7d3f 7352 7b3f 89a8 7f3f
000001a0: 345f 813f be41 7a3f ad0d 803f d4f1 7d3f
000001b0: 4bc0 7b3f fc18 823f db23 833f ef0f 793f
000001c0: 9699 803f 4dd5 793f b4a7 803f b8f5 7e3f
000001d0: e179 7e3f 20f7 7e3f bf16 7f3f dcc0 7e3f
000001e0: f620 7c3f 2ed0 803f d86b 793f db38 813f
000001f0: a090 7a3f 6c12 7c3f ee17 733f 7e08 7e3f
0.96767825 0.9751168 0.984098 0.9917932 1.0144047 0.98595303 0.99691415 1.0322456
0.97349095 1.0262352 1.0050012 1.0058888 1.0093234 0.9930773 0.99579597 0.99079436
1.0084066 0.9595683 0.9970224 0.99014246 0.974971 1.0175842 0.9861695 0.99015635
0.9854364 1.007781 0.9922613 1.0093162 0.9986161 0.9810698 0.9866921 0.95422083
1.0227889 0.98473275 0.96239877 0.9947131 0.9686144 0.98750484 1.0357938 0.97515
0.9987652 0.9825867 1.0171 0.9693487 0.9953812 0.98653895 0.99022275 1.0103981
0.996842 1.0102383 0.9809773 0.9686497 1.0128752 0.9990607 0.9671132 1.0021498
0.9722789 1.0112644 0.99502033 1.0139003 1.0095861 0.9729284 1.0522549 0.95417935
1.0033524 1.0051472 0.99718845 0.98774433 1.0063152 1.0055616 0.98545355 1.0028071
1.0148141 0.9745109 0.9739549 0.99196255 0.9898361 1.0184083 0.9771311 0.95413184
1.0030793 0.9977219 0.9734735 1.005166 0.9990436 0.96955276 0.9504237 1.0008516
0.95753753 0.99994045 0.97936684 0.9975871 1.0337712 0.988856 0.9822141 1.0057199
0.9813835 0.99764854 1.0046612 0.98648286 1.0000498 0.9903641 0.9817268 0.9986654
1.0107179 0.97756565 1.0004174 0.99197125 0.9834029 1.0163875 1.0245317 0.9728994
1.0046871 0.97591096 1.0051179 0.9959369 0.9940472 0.9959583 0.9964408 0.9951303
0.98487794 1.0063531 0.9743018 1.0095476 0.9787693 0.9846561 0.9495839 0.9923171

ablang_branch.5.bias f4 [128]
00000000: 910b 33bb c379 1abb c2db 06bd 597d 3dbb
00000010: 9600 af3b d56c 8e3b f290 97bc 40c9 e13c
00000020: 1b73 65bc 687c 30bc af0c a23c d323 8e3c
00000030: 375c 893a 4529 b2bb 798b ba3c 8d16 b4bb
00000040: 3c13 31bb cca5 c5bc ee70 f73b 1ce1 d2bc
00000050: 4b27 b1bb 58dd ff3c 5ccf 03bd 9450 c83b
00000060: f8c5 ab3b 20d3 0f3c 92bb cf3b 7aa3 ceba
00000070: c6f6 9e3c d2cc e1bb df19 363c 1657 a8bb
00000080: b119 ba3b ede2 a6bc 4984 09bc 0a03 fb3a
00000090: 8eef 7fbc eef2 c33a f019 ac3c a5e7 9cbb
000000a0: f722 3dbc 9b58 a0bc 9ba1 ce3c fe19 41bd
000000b0: fece f53b f497 3ebc 153d 24bb 4455 893c
000000c0: 9c2b aabc 1a6e 943c fc88 81ba e413 d6bc
000000d0: 5a68 013c e450 0c3c c035 33bb f999 093c
000000e0: bae8 ecbb b74b cb3b 6a20 283b 1662 0ebd
000000f0: 4c05 413d 3aa5 c3bb 94ac 633d 937e 78bc
00000100: d406 c7ba b615 653b 6dd8 fc3b fa63 8c3c
00000110: 6487 1dbc 9351 c73c cd95 6bbc 932a 04bd
00000120: 1621 8e3c 83d0 b7bc 6b5b 2cbc a7b0 523c
00000130: 9f7c 1fbd d761 473c c36b 59bd e8fe dbbb
00000140: 02c1 2fbd cc96 463b 37c0 82bc 418a 993b
00000150: fa97 7b3c 0945 60bc 4da3 73bc 3576 8b3c
00000160: 7425 a0bc fa8e c3bb 0f8a 1fbb 705f 0ebc
00000170: 76d3 04bd 4be2 adbb e660 b53b d4bf 793c
00000180: 38e2 c2bc 31f3 81bb b65e feb8 4392 193b
00000190: 9fd3 533c 0650 a7bc 72f5 2dbc e589 24ba
000001a0: e550 eb3c 6826 d8bc 5335 42bc 6e20 47bc
000001b0: d6c6 3dbc e1dc 07bb 8937 a13b 488b c23b
000001c0: 70d3 9e3b 4f59 0dbd 6824 79ba 5fe5 993b
000001d0: 79e1 8e3c cee8 2f39 d74d c23c e3f4 473b
000001e0: 83b1 943c 8817 cbba 95b5 5fbc f70c 59bc
000001f0: f257 14bd 6252 72bc 29e0 dcbc 8516 023b
-0.0027320127 -0.002357111 -0.03292442 -0.0028913824 0.005340646 0.00434647 -0.018501732 0.027561784
-0.014004494 -0.010771848 0.019781439 0.017351067 0.0010479753 -0.0054370486 0.022771584 -0.0054958523
-0.0027019521 -0.02412691 0.007551304 -0.025742106 -0.0054062954 0.031233475 -0.032180175 0.0061131213
0.0052421056 0.0087783635 0.006339499 -0.0015765273 0.01940478 -0.0068908716 0.011114567 -0.0051373346
0.005679332 -0.020371879 -0.008393356 0.0019150686 -0.015621079 0.0014949718 0.021008462 -0.0047883564
-0.011543981 -0.0195735 0.025223544 -0.04714393 0.007501482 -0.011632908 -0.0025060822 0.01676429
-0.020772748 0.018118907 -0.0009882743 -0.026132531 0.0078984145 0.008564208 -0.002734527 0.008398526
-0.0072298916 0.0062040943 0.0025654086 -0.03476151 0.047124192 -0.0059706243 0.055584505 -0.015166896
-0.001518453 0.0034955568 0.0077162297 0.017137516 -0.009614799 0.02433089 -0.014378977 -0.032267164
0.017349761 -0.022438293 -0.010519843 0.0128595 -0.038937207 0.012169323 -0.053081285 -0.006713737
-0.042908676 0.0030302284 -0.015960796 0.0046856706 0.015356058 -0.013688334 -0.014870477 0.017024139
-0.019549109 -0.005967972 -0.0024343764 -0.008689746 -0.032428227 -0.0053065172 0.005535233 0.015243489
-0.02378951 -0.0039657583 -0.00012129305 0.0023433126 0.012928872 -0.0204239 -0.010617601 -0.00062766514
0.028725097 -0.026385501 -0.011853534 -0.012153728 -0.011583051 -0.002073102 0.0049199504 0.005937014
0.0048469827 -0.034509 -0.0009504021 0.0046965326 0.017441498 0.00016776027 0.023718758 0.0030510954
0.01815105 -0.0015494684 -0.013654132 -0.01324772 -0.036216684 -0.014790149 -0.026962357 0.0019849848

ablang_branch.8.weight f4 [64, 128]
00000000: f85c a33d f88b 01bd 8c58 003e 8de1 1bbe
00000010: c2c4 153d f2ae 633c ec85 12b9 fc86 6ebe
00000020: 5e15 5abe a7be d8bd 0296 84bd f896 af3c
00000030: e722 d3bd c0d4 f9bc f677 e4bd 5cd9 bb3d
00000040: 443c c6bd 6f92 4e3d 82f5 343d dbe0 cfbc
00000050: dac5 0dbd 553b 8f3d 11f0 8abd ef10 8dbd
00000060: 8ea4 12be a218 8abd e5fe 8f3e d7a8 8cbc
00000070: b042 523e 4de6 803d 25bd efbd 211e fcbd
00000080: 5b6f 2cbe a997 29bd 338b 1a3e ab2b 66be
00000090: 4c9c c83d 67c7 0cbd a479 a13d c2a6 2cbe
000000a0: 25de 54bd e8bb 3ebd 4e83 c9bd a586 963d
000000b0: 14e9 cabd 9144 06be 08f7 493d 595f 89bd
000000c0: df1d 213e 9696 03be 8121 403d 71d6 a83d
000000d0: c35f 063d efff 153e e2e6 a43d 7d0f 1a3e
000000e0: fdda 3fbe 4380 383d a83e 873e 27f3 55bd
000000f0: d1a6 f7bd eb42 4a3e e92d c7bd 048d 9cbd
00000100: 41ff 5d3d 1d93 ae3c 12b9 24be c370 4abd
00000110: 1e25 d53d 7e3a d03d 010f 54bd 6d79 60bd
00000120: 0079 1dbe 8b4c 233d 540c 383e 15cd 38bd
00000130: f11f b93b 4752 40be 7dce aa3e 6e17 d6bd
00000140: 95dc 783e 61db e6bd 7cde 1a3e 4bb1 b1bd
00000150: 1b13 31be a0ed bdbd c35e 8e3d 92a6 2a3a
00000160: ae24 823e e614 aa3d 92db d3bd 6380 fbbd
00000170: cc74 3d3d 0cd7 2bbe abc0 92bc 46f4 4bbe
00000180: 8723 3c3e e470 d93d 91fa 3a3e 6089 8d3e
00000190: b083 28be 7bc2 dd3c 31f0 babd d797 22be
000001a0: 6e01 4cbd dd33 163e 28fc 83bd c2b4 a43d
000001b0: 8ab4 813e edb0 8c3e b407 873d 12db a4bd
000001c0: 7025 88be 408d 47bd 3f57 d33c 2853 aa3c
000001d0: f1c8 68bd 2c36 dd3d 4f51 82bc 83df 2abe
000001e0: 07bd d0b9 d099 9dbc 77d4 0d3e 78b6 1bbe
000001f0: 4e25 f43b 3728 55bc 72c1 373e 4dae 863e
00000200: b6ad 873d 605d 023e f6c3 1a3d 16a1 873d
00000210: d22f 5bbd c607 043b 8190 9b3d 99f0 cfbc
00000220: 8dc2 713d 4ccc 893e 1312 90bd 5042 703e
00000230: 5f23 663d d4df a1bd 008e aa3d f956 5c3c
00000240: 0ea2 a3bd 501f 98bd 7ed4 6bbd 2a65 44bd
00000250: 86e2 ccbd 7a1f 093e b5c2 303e 2632 3a3e
00000260: ea05 23be 7763 bf3c eabc 393d 60e6 9dbd
00000270: 9723 0d3d de02 45be 19b6 84bd 41eb 98bc
00000280: 466f 6bbd d99a 593d 7204 91bd 7f77 5e3e
00000290: c057 debd 7448 963d 184b d43d b478 afbd
000002a0: 608d f03d 4349 673e 778c 033e a405 213d
000002b0: 9637 5c3d 857b 58be ecfd 0f3d a356 423d
000002c0: efac 993d a74d 32be dda3 58be f75b 2fbb
000002d0: 3e6e da3d 26e9 6b3d a6cc adbd 7aa6 c1bd
000002e0: e3a3 d4bc 8c85 81bd 9df2 513e ea73 ee3c
000002f0: 9a84 613e cad8 bfbd 104b 873e 7dda bebd
00000300: f2e2 5d3e 6466 2a3e 709b 6ebe 6adb 5abd
00000310: d5f2 94bd 6219 cb3c 995b ab3c 6956 71bc
00000320: 447c 8abe 1142 b43d 5bd3 abbd 083c 0fbe
00000330: d1e7 d63d eca4 81bd 1e7a 553c 5962 7f3e
00000340: d393 d6bd 52b5 22bd f938 1bbe 2278 843e
00000350: 58ca eb3b 476a 47be 3234 183e ea3b d1bc
00000360: 3aec 2f3d 0813 ad3c 6069 63be 1b3f 333e
00000370: 1dbe 0b3d 5cc5 c23d 20c2 013e 7ca2 303e
00000380: 0611 73bd 2ec8 d5bd 38ca 84bd 9176 953c
00000390: f618 05bd 9950 e8bc ea86 79bc bba6 e1bc
000003a0: 698d 56bd a1bc 05bd 016f 84bc 89a3 963d
000003b0: a87a 9cbd 8426 ad3d cc87 86bc 995b b8bc
000003c0: 0536 0c3e f3f4 24be 0c35 a2bd 7a9f 233e
000003d0: 78c8 1f3d 4615 0a3e 1dd8 7c3d b983 933d
000003e0: 2bb3 713d dfbe 8b3e d15f bebd a962 b73d
000003f0: 85df cb3c 61a5 87bc 5859 243b f794 243e
0.07976717 -0.031627625 0.12533778 -0.1522276 0.036564596 0.013896691 -0.00013973535 -0.2329368
-0.21297213 -0.10583239 -0.06473924 0.021434292 -0.103093915 -0.030496955 -0.11155693 0.091723174
-0.096794635 0.05043262 0.044179447 -0.025375774 -0.034612514 0.069937386 -0.0678407 -0.068879955
-0.14320585 -0.067429796 0.28124157 -0.017170353 0.20533252 0.062939264 -0.11705998 -0.12310434
-0.16839354 -0.0414044 0.15092163 -0.22477596 0.09795436 -0.034369852 0.07884529 -0.16860488
-0.051969666 -0.04656592 -0.098394975 0.073499 -0.099077374 -0.13112094 0.049307853 -0.06707639
0.15734051 -0.12850413 0.04690695 0.082440265 0.03280617 0.14648412 0.0805185 0.15044971
-0.18735881 0.045044195 0.2641499 -0.05223384 -0.120923646 0.1975209 -0.097255535 -0.07644084
0.054198507 0.021310383 -0.16086224 -0.049423944 0.1040747 0.101674065 -0.05177212 -0.0548033
-0.15378189 0.03986792 0.17973453 -0.045117456 0.0056495597 -0.18781386 0.33360663 -0.104536876
0.24302895 -0.11272312 0.15123934 -0.08676394 -0.17292444 -0.09273839 0.06951668 0.0006509806
0.2541861 0.08304767 -0.10344614 -0.12280347 0.046253964 -0.16781253 -0.017914137 -0.19917402
0.18372928 0.10617235 0.18259646 0.2764387 -0.16456485 0.027070275 -0.09127844 -0.15878235
-0.04980605 0.14668222 -0.06444579 0.08042289 0.25333053 0.27478734 0.06593266 -0.08049597
-0.26591063 -0.04871869 0.025798438 0.020791605 -0.056832258 0.10801348 -0.015907912 -0.16686825
-0.00039813688 -0.019238383 0.1385058 -0.15206325 0.007450736 -0.013010076 0.17944887 0.26304856
0.066249296 0.12730932 0.03778454 0.066225216 -0.053512402 0.0020146235 0.07595921 -0.02538328
0.05902343 0.2691368 -0.070346974 0.23462796 0.056186076 -0.0790402 0.083278656 0.01344847
-0.07989894 -0.074278474 -0.057575695 -0.04794804 -0.100041434 0.13390914 0.17261775 0.18183193
-0.15920225 0.023362858 0.045346178 -0.07709956 0.03445777 -0.19239375 -0.06480045 -0.018666865
-0.057479165 0.05312619 -0.07080926 0.21725272 -0.10856581 0.07338038 0.103658855 -0.08567944
0.11745715 0.22586541 0.12846552 0.03931202 0.05376395 -0.21140869 0.03515427 0.047445904
0.075036876 -0.17412435 -0.21156259 -0.0026757696 0.10665558 0.057595395 -0.08486299 -0.09455581
-0.025957054 -0.063243 0.20502706 0.029108007 0.2202324 -0.09367521 0.26424456 -0.09319017
0.21668604 0.16640621 -0.23301482 -0.053431906 -0.07272879 0.024792377 0.0209177 -0.014730074
-0.27047932 0.08801664 -0.08389922 -0.13987744 0.10493434 -0.063302845 0.013029603 0.2493986
-0.10477414 -0.0397237 -0.15158452 0.25872904 0.007195752 -0.19474135 0.14863661 -0.025541265
0.042949893 0.021127239 -0.22208166 0.17504542 0.034116853 0.095102996 0.12671709 0.17249483
-0.059342407 -0.10438572 -0.06483883 0.018245013 -0.032494508 -0.028358744 -0.01522992 -0.027545324
-0.052380953 -0.032650594 -0.016166212 0.073554106 -0.07640582 0.08454612 -0.016422175 -0.022504615
0.13692482 -0.16109066 -0.07920274 0.15978804 0.03900954 0.13484678 0.06172954 0.072028585
0.05900876 0.2729406 -0.09295619 0.08954365 0.024886856 -0.016558351 0.0025077667 0.1607245

ablang_branch.8.bias f4 [64]
00000000: 04ab b5bc 51ba cc3c feb7 9cbd b64f 4d3c
00000010: 0216 02bd 6a92 4d3d 7545 9a3c d219 93bc
00000020: 422e dfbb 6eea 27bd dced 07bd 1347 eabc
00000030: 2a6e b43c 786d 6c3d 702d 953b 7cba 14bd
00000040: 8c03 02bc 1ceb 35bc 0e49 003c 111a 29bd
00000050: 7cfc d8b8 8861 64bd ab95 663b 501f 33bc
00000060: ef19 2b3d ba3e 4e3d 3735 c5bc c590 12bd
00000070: c978 ab3c 6cc0 91bd fa17 29bc c5a5 1ebc
00000080: 3645 0bbd bfad 88bc dd84 b0bc 5645 803a
00000090: 7983 65bb 57f3 83bb 72d0 9b3c 9cdd 93bd
000000a0: 0eac dcbb dcfc 05bd f0d8 85ba 0685 b43b
000000b0: ed32 e13c bd64 9e3c d894 57bd 7b2d 003d
000000c0: 18f2 05bd 5fc9 b43a d1fd a6bc 1fea 00bd
000000d0: d399 18bd 0839 bb3b f529 aebd 249e 52bd
000000e0: b3ac 9939 693a 283b d093 59bd d028 06bd
000000f0: 14ad 903a 5d7b 053c 8460 073c b998 0a3d
-0.022176273 0.024991186 -0.07652281 0.012531212 -0.03175927 0.05018846 0.018831948 -0.017956648
-0.0068109343 -0.040995054 -0.033185825 -0.028598344 0.022025187 0.057721585 0.0045525357 -0.036310658
-0.007935416 -0.011103418 0.007829918 -0.041284624 -0.000103467115 -0.055757076 0.0035184424 -0.010932758
0.04177278 0.05035279 -0.024073226 -0.035782594 0.020931618 -0.0711678 -0.010320658 -0.009683077
-0.03400155 -0.016684411 -0.02154773 0.0009786289 -0.003502099 -0.004026811 0.019020293 -0.07220003
-0.0067343777 -0.03271185 -0.0010211747 0.0055090217 0.027490104 0.019335145 -0.052632183 0.031293374
-0.03270158 0.0013792923 -0.020384701 -0.031473275 -0.037256073 0.0057135858 -0.085040964 -0.051420346
0.00029311105 0.002566958 -0.05311948 -0.032753766 0.001103791 0.008147088 0.008262757 0.033837054
