data/model_weights/cv_fold_1_model4_1.pt (torch, 707477 bytes, 29 tensors)

ablang_branch.0.weight f4 [256, 480]
0	0xbd27e88f	-0.04099327
1	0xbd6872d6	-0.05675014
2	0x3daf6529	0.08564217
3	0x3d81f267	0.06345063
4	0xbd00215a	-0.031281807
5	0xbc9207d8	-0.017826006
6	0xbcf965d6	-0.030444067
7	0x3d8e7fc0	0.0695796
8	0x3c42caa0	0.01188913
9	0x3c42038b	0.011841665
10	0x3d27d412	0.04097373
11	0xbd38e0ab	-0.045136135
12	0xbdcea12e	-0.10089336
13	0xbcc39a67	-0.023877336
14	0x3d145b4b	0.036219876
15	0x3d74488d	0.059639502
16	0xbbd4d3cb	-0.0064949743
17	0x3de9bda7	0.114131264
18	0xbcbe9e2c	-0.023268782
19	0xbd932f18	-0.07186717
20	0x3ca3620b	0.019944211
21	0x3da81871	0.08207787
22	0x3cd5e2a2	0.026109044
23	0xbd8c619f	-0.06854557
24	0x3ceb030f	0.028687982
25	0xbd53cd06	-0.051709197
26	0x3d714369	0.058902178
27	0x3d37fd27	0.04491916
28	0xbd678854	-0.056526497
29	0xbd9828a7	-0.07429629
30	0xbdf31a54	-0.11870256
31	0x3da11262	0.07864834
32	0x3d12538e	0.035724215
33	0xbd3b6478	-0.04575011
34	0xbd099986	-0.033593677
35	0xbd7c2b42	-0.06156469
36	0xbd4820ca	-0.048859395
37	0x3d0b312f	0.033982452
38	0xbd4be22d	-0.049776245
39	0xbd4c9259	-0.049944256
40	0x3de6790a	0.11253555
41	0xbcd08356	-0.02545325
42	0x3c51c12f	0.012802406
43	0x3c3afc93	0.011412757
44	0xbdc5c39c	-0.0965645
45	0xbca4a159	-0.020096468
46	0xbd2e0a57	-0.04249033
47	0x3bc9e23a	0.0061610015
48	0x3d6cda1a	0.057825185
49	0xbd43d2f5	-0.047808606
50	0x3d7d7616	0.061880194
51	0x3c17613b	0.00923949
52	0xbc8de547	-0.017321242
53	0xbd5a14db	-0.053242546
54	0x3c6af400	0.014340401
55	0xbdb12456	-0.08649509
56	0xbbb4dba0	-0.0055193454
57	0xbcc2ebeb	-0.023794135
58	0x3c1f799e	0.009733586
59	0xbb373d85	-0.0027960252
60	0xbd90430e	-0.0704404
61	0x3d467336	0.048449717
62	0x3e21b3e7	0.15791284
63	0x3d4e2e35	0.050337035
64	0xbd242e11	-0.040082995
65	0x3d8b7a51	0.068104394
66	0x3dca8d30	0.09890211
67	0x3dbe6197	0.092959575
68	0xbdc63c2e	-0.09679447
69	0xbdde4c89	-0.10854442
70	0x3dcf4f15	0.101225056
71	0x3c61e5f0	0.0137877315
72	0xbd03cfcc	-0.032180592
73	0xbcb454ac	-0.022013031
74	0xbd5902f3	-0.05298133
75	0x3d1ed5e1	0.03877819
76	0x3cf76e56	0.03020398
77	0x3bb253fe	0.0054421416
78	0xbdb0dece	-0.086362466
79	0xbb18d978	-0.002332298
80	0x3d9645d6	0.07337539
81	0x3c14175f	0.009038775
82	0xbd17e48f	-0.037083205
83	0xbd3c3125	-0.045945305
84	0xbd17f184	-0.03709556
85	0xbcd1db6a	-0.02561732
86	0xbc83d321	-0.016091885
87	0xbd558c1c	-0.05213557
88	0x3d983db0	0.07433641
89	0xbdc29bc8	-0.09502369
90	0x3d87725c	0.06613609
91	0xbd22c543	-0.039738905
92	0x395cdcdc	0.00021063111
93	0x3c451c30	0.012030646
94	0x3da5a1ad	0.08087478
95	0xbca03dfb	-0.019560805
96	0x3e06236c	0.1309945
97	0xbb778248	-0.0037766863
98	0xbd4bd36a	-0.049762167
99	0xbc784d27	-0.015155113
100	0x3cc72859	0.024311231
101	0x3d37264f	0.04471427
102	0x3d8fadf5	0.070156015
103	0xbcc19fd6	-0.023635786
104	0x3b36950a	0.002785983
105	0xbd57a522	-0.052647717
106	0xbc97f653	-0.018550074
107	0x3ddc4a93	0.107564114
108	0x3dd48c5d	0.10378335
109	0xbcc2f8e8	-0.023800328
110	0x3cfef7c6	0.031124007
111	0x3c1beb5f	0.009516566
112	0x3d15feff	0.036620136
113	0x3d7aa648	0.061193734
114	0xbbe62d45	-0.0070244395
115	0x3cac2436	0.02101336
116	0x3c935803	0.017986303
117	0xbe3b9098	-0.18316877
118	0xbd2a03df	-0.041507598
119	0x3d47b19d	0.04875337
120	0x3c31a07e	0.010841487
121	0x3ca573ae	0.020196762
122	0x3cab586e	0.02091619
123	0xbe03aba7	-0.12858449
124	0x3d3a485a	0.045479156
125	0xbd81e1ba	-0.06341882
126	0xbc077322	-0.008267196
127	0x3e15c4c6	0.14625844
128	0xbd2237be	-0.03960394
129	0xbd9b675e	-0.07588075
130	0x3cb52ad5	0.02211515
131	0xbdc5aa2f	-0.096516006
132	0xbbe11946	-0.006869468
133	0xb9880f1c	-0.000259512
134	0x3d3489ac	0.044076607
135	0x3ce1fb8b	0.027585765
136	0xbc17bb7d	-0.009261009
137	0x3d91d743	0.07121136
138	0x3d843705	0.06455807
139	0xbde81b58	-0.113333404
140	0xbc0c3d46	-0.008559531
141	0x3e13fbac	0.14451474
142	0xbdd1c41e	-0.102424845
143	0x3d0cb78c	0.03435473
144	0xbd1e015b	-0.03857551
145	0x3d8f4b9e	0.06996845
146	0x3cc7dfb3	0.02439866
147	0xbc951cca	-0.018202204
148	0x3ddfe674	0.10932627
149	0x3cc79545	0.02436317
150	0xbd0c48e2	-0.034249194
151	0xbd304480	-0.043034077
152	0xbcc57b0b	-0.024106523
153	0x3cb7462a	0.022372324
154	0xbd527ae6	-0.051386736
155	0x3c737213	0.01485874
156	0xbcc90a30	-0.02454099
157	0xbcac1a87	-0.021008743
158	0x3bca8284	0.0061801095
159	0x3c537e62	0.01290855
160	0x3d426d09	0.047467265
161	0xbdb73955	-0.08946482
162	0xbd880f71	-0.0664357
163	0x3dd91265	0.105992116
164	0xbd6a905b	-0.057266574
165	0x3d465278	0.048418492
166	0x3d9fdf04	0.07806209
167	0xbc521c68	-0.012824155
168	0xbd1b0853	-0.037849735
169	0x3d96d5e1	0.07365013
170	0x3de1bd61	0.11022449
171	0x3dd06e12	0.10177244
172	0x3d22de20	0.039762616
173	0x3dbecb17	0.0931608
174	0x3db13b21	0.08653856
175	0x3e70bda2	0.23509839
176	0xbb86c2d6	-0.0041125817
177	0x3a2e404e	0.00066471554
178	0xbdc4e60b	-0.0961419
179	0xbd06a42d	-0.032871414
180	0x3df765b1	0.12079943
181	0xbd69eb12	-0.057108946
182	0xbdda26aa	-0.10651906
183	0xbd677f0e	-0.056517653
184	0xbe082029	-0.13293518
185	0x3cfca701	0.030841352
186	0xbd69c19a	-0.0570694
187	0x3cbc6ac6	0.023000132
188	0xbd39485a	-0.045235015
189	0xbd4a2a4a	-0.049356736
190	0xbdca85e6	-0.0988882
191	0x3dd52008	0.104065
192	0x3ab36349	0.0013686205
193	0xbcab81f4	-0.02093599
194	0x3d920c3c	0.0713124
195	0x3d326742	0.043555506
196	0x3ba0a6ef	0.0049027125
197	0xbd334e2c	-0.043775722
198	0xbe041c95	-0.12901528
199	0xbd95ab4d	-0.07308064
200	0xbe1618ab	-0.14657848
201	0xbd702083	-0.058624756
202	0xbd1039f4	-0.03521152
203	0xbd1814ff	-0.0371294
204	0xbdd263de	-0.102729544
205	0x3e010954	0.12601215
206	0xbc6d08f9	-0.014467471
207	0x3dc09943	0.09404232
208	0xbc92460d	-0.017855668
209	0x3d2e4c00	0.042552948
210	0xbcff2d6c	-0.031149589
211	0x3c07fb45	0.008299653
212	0xbcf3ffb7	-0.02978502
213	0x3d51cb7b	0.051219445
214	0xbd92180e	-0.07133494
215	0xbd14d124	-0.036332265
216	0x3d323b45	0.043513555
217	0x3cc19237	0.023629291
218	0x3dc101c5	0.09424166
219	0xbd1fb707	-0.038992908
220	0xbb94032e	-0.0045169806
221	0xbd92acfe	-0.07161902
222	0xbd4fa64c	-0.050695702
223	0x3c9b180f	0.01893237
224	0xbdd6f605	-0.10496143
225	0xbdc7d5d9	-0.09757585
226	0xbd7c26aa	-0.06156031
227	0xbdf2a0c7	-0.11847072
228	0x3d5934b1	0.053028766
229	0xbdd2f5c4	-0.10300782
230	0xbd8a2f3a	-0.06747289
231	0x3cfb32e0	0.030663908
232	0x3d2bf2fe	0.041979782
233	0x3c206253	0.009789067
234	0x3d04fd2a	0.032468
235	0xbd90b11b	-0.0706503
236	0xbd8002db	-0.06250545
237	0xbd6e4aab	-0.058176678
238	0x3c8a2943	0.016865378
239	0x3d755c7d	0.059902657
240	0xbd86fa4b	-0.06590708
241	0x3d5251b1	0.05134744
242	0xbd96dc53	-0.07366242
243	0x3c9ec022	0.019378725
244	0x3e291b80	0.16514397
245	0x3d809d9f	0.06280064
246	0x3dce6d46	0.10079436
247	0x3ceb613c	0.028732888
248	0xbdcad925	-0.09904698
249	0x3d1df26f	0.03856128
250	0xbd614f59	-0.055007312
251	0x3a950990	0.0011370648
252	0xbd3965e6	-0.045263194
253	0xbce6daae	-0.028180446
254	0xbe175ab0	-0.14780688
255	0xbd8df83a	-0.06932111

ablang_branch.0.bias f4 [256]
0	0x3b3a7bef	0.0028455218
1	0x37612708	1.3420133e-05
2	0x3b8fabe5	0.004384505
3	0xb9808e4d	-0.00024520085
4	0x3b30b3cb	0.0026962634
5	0x3b9650fc	0.004587291
6	0xbb9e0501	-0.004822374
7	0xbaa91d4b	-0.0012902407
8	0x39ed575f	0.0004526926
9	0x3b8d1774	0.0043057743
10	0x3aae0c8e	0.0013278888
11	0xb9891278	-0.00026144437
12	0x3a1e8069	0.0006046356
13	0xbb2cfd53	-0.002639611
14	0xba7c7d33	-0.0009631693
15	0xb9cbc37a	-0.0003886482
16	0x3abb7a14	0.001430335
17	0x3b3593fe	0.0027706618
18	0x3b602117	0.003419941
19	0xbb6c7113	-0.003607814
20	0x37705d40	1.4326826e-05
21	0xbb86510a	-0.004099016
22	0xbb04f9e5	-0.002029055
23	0xbb8cccd5	-0.004296879
24	0xbb92935c	-0.004473133
25	0x3a74e5a2	0.0009342079
26	0xbb41be3d	-0.0029562854
27	0xbaca7a4a	-0.0015447822
28	0x3b7ade5d	0.0038279512
29	0xbb97a58f	-0.0046278904
30	0xbaa3bb9d	-0.0012491826
31	0xbb761670	-0.0037549995
32	0xbaaddf02	-0.0013265314
33	0xbabe08fa	-0.0014498525
34	0xba56dc00	-0.00081962347
35	0xb79c8c00	-1.8661842e-05
36	0x39ebade6	0.00044952257
37	0xb88d8d1a	-6.749686e-05
38	0xbba61066	-0.005067873
39	0xba26394d	-0.0006340936
40	0xb95fe706	-0.00021353
41	0xbb9916d0	-0.004671909
42	0xbb00ff2c	-0.0019683344
43	0x3b7e1439	0.0038769378
44	0x3af09448	0.0018354738
45	0x3b812666	0.003941345
46	0xbb717d6e	-0.0036848444
47	0xbb3f890f	-0.002922598
48	0x3a6f62c6	0.0009131845
49	0x3b331deb	0.0027331065
50	0xbac28ebc	-0.0014843564
51	0xbb6dff20	-0.0036315396
52	0xbb91f929	-0.004454751
53	0x39149b21	0.0001417217
54	0x388d2fd8	6.7323155e-05
55	0xbb02f4dd	-0.0019982376
56	0xba9e9cb5	-0.0012101146
57	0x3b2464ea	0.0025084564
58	0xbb8ddb51	-0.004329123
59	0xbb24c3c4	-0.00251411
60	0x3ae165e2	0.0017196501
61	0xba421dd0	-0.0007404955
62	0x3b6d0702	0.0036167507
63	0x3b30af35	0.00269599
64	0xbb0cdb60	-0.0021493062
65	0x3b3ae282	0.0028516357
66	0xbb525b48	-0.0032097865
67	0x3943cefa	0.00018673754
68	0xbaa6660c	-0.0012695207
69	0xbb11e6c6	-0.0022262796
70	0xba3afe6b	-0.0007133248
71	0x3acb21be	0.0015497727
72	0x3b260d4a	0.002533751
73	0xbaecd6de	-0.0018069407
74	0xbb029cd5	-0.0019929905
75	0x3ae286f6	0.0017282653
76	0xb9698bb4	-0.00022272655
77	0xbb253e7d	-0.0025214248
78	0x3b7b6f6b	0.003836597
79	0x3b0deadf	0.0021654887
80	0x3a181016	0.0005800737
81	0x3b0967e7	0.0020966472
82	0x3b4b48aa	0.0031018653
83	0xbac8c3d5	-0.0015317152
84	0x3b2a22f7	0.0025960782
85	0x3aa109a0	0.0012286194
86	0x3b3ee6b3	0.0029129207
87	0x3b0fcfde	0.0021943967
88	0xbb1aa311	-0.002359573
89	0xba81db0b	-0.0009907199
90	0x3b6e6a6f	0.0036379357
91	0x399280e2	0.00027943315
92	0xba8bdd90	-0.0010670889
93	0xbb2623d6	-0.002535095
94	0x3b23eac1	0.002501175
95	0x3b0a4d81	0.0021103325
96	0xba954049	-0.0011386956
97	0x39cba0c4	0.00038838957
98	0x3b7a5dcb	0.0038202878
99	0xba96c0f1	-0.0011501593
100	0x3a549de2	0.00081106846
101	0xbb5b7915	-0.0033488919
102	0xbb22b799	-0.002482867
103	0xba9196e2	-0.0011107589
104	0xbb91c67e	-0.004448711
105	0xbaa051d4	-0.0012231418
106	0xbaa21d30	-0.0012368318
107	0xba60f39a	-0.00085812213
108	0x3b8b4453	0.0042500882
109	0x3aaaf0e3	0.001304176
110	0x3b6b931c	0.0035945838
111	0x3b469f6d	0.0030307428
112	0x3b925d8c	0.004466718
113	0x3b8968ae	0.004193387
114	0x3aa3cb36	0.0012496475
115	0xbb8e0dfd	-0.0043351636
116	0xbb6d204e	-0.0036182585
117	0xbb2409fe	-0.002503037
118	0xbac268a8	-0.0014832215
119	0x3b79e262	0.003812932
120	0x3b85ecf5	0.0040870854
121	0xba9bff2a	-0.0011901606
122	0x3b4c5d82	0.0031183665
123	0xbb1a8047	-0.0023574994
124	0x3b15c6c4	0.002285407
125	0x3b393e4c	0.0028265892
126	0x3a911f42	0.0011071938
127	0x3b76f554	0.0037682848
128	0x3b6c9ac8	0.0036103
129	0xb9891c39	-0.00026151704
130	0xbb4abc07	-0.0030934827
131	0xbb55407f	-0.0032539663
132	0xbb4cdae5	-0.00312584
133	0x3b69bd9c	0.0035665995
134	0x3af55fba	0.0018720545
135	0x3a36167e	0.00069461006
136	0x3b45f333	0.0030204772
137	0x3ab92f6c	0.0014128513
138	0xbb817445	-0.003950628
139	0xbab5727d	-0.0013843324
140	0xb953a253	-0.00020182999
141	0xba96ab9d	-0.0011495237
142	0xbb7c4880	-0.0038495362
143	0x3acc285f	0.0015575996
144	0xbb619c6b	-0.0034425508
145	0xbb9e8da2	-0.0048386613
146	0x3b3ced45	0.0028827947
147	0xbb1f2eba	-0.0024289326
148	0x3b127469	0.0022347218
149	0x39118136	0.00013876412
150	0x3b9b1b97	0.0047335136
151	0xbb9d276a	-0.0047959583
152	0x3b8a3f38	0.004218962
153	0xbb936769	-0.0044984114
154	0xba068f7c	-0.0005133075
155	0x3b75be16	0.0037497333
156	0xbb4663ab	-0.003027181
157	0xbb3630c1	-0.0027800056
158	0xb9a0c271	-0.00030662448
159	0xbb8f6ea6	-0.004377204
160	0xb6b665d0	-5.435875e-06
161	0xbb8b7e4d	-0.0042569996
162	0xbb823107	-0.0039731297
163	0xbb869a59	-0.004107755
164	0xba70221c	-0.0009160356
165	0xb965245c	-0.00021852687
166	0xbac21488	-0.0014807144
167	0xbb8a0396	-0.0042118533
168	0x3b476b2c	0.003042887
169	0xbb93d014	-0.004510889
170	0xbb4f9f5b	-0.0031680677
171	0xbb68ecea	-0.0035541602
172	0xba2cb77e	-0.0006588622
173	0x3b139aeb	0.0022522758
174	0x3b6443e7	0.0034830512
175	0xba88ca1e	-0.0010436212
176	0xbae39fa8	-0.0017366307
177	0xba399ecb	-0.0007080852
178	0x3a5b313e	0.00083615247
179	0x3b95a244	0.0045664627
180	0x3a0c60c4	0.00053549954
181	0xbae48cd0	-0.0017436985
182	0xbb40e418	-0.002943283
183	0xbb326ceb	-0.0027225565
184	0x3b4eb773	0.003154245
185	0xbb053912	-0.0020328206
186	0x3b0da9e4	0.0021616155
187	0x3b0b3a91	0.0021244625
188	0xbb5b4f56	-0.0033464036
189	0x3b85f209	0.0040876907
190	0xbb142c62	-0.0022609462
191	0xbb764acc	-0.0037581204
192	0x3b4222ad	0.002962272
193	0xba9900bf	-0.0011673196
194	0xbb309334	-0.0026943209
195	0xbb2616f1	-0.0025343264
196	0xba41dc6b	-0.00073952106
197	0x3b01da7a	0.001981406
198	0x3b8ad765	0.004237103
199	0x3afc90df	0.0019269249
200	0xbb08c1f5	-0.002086756
201	0x3b9af118	0.0047284476
202	0xbb8bb777	-0.004263814
203	0xbaf6b06d	-0.001882089
204	0x39558801	0.00020363928
205	0xbb3c5f2d	-0.0028743253
206	0x3ab50909	0.0013811897
207	0x3b80a0c0	0.003925413
208	0xbada7702	-0.0016667547
209	0xb83bbe3c	-4.4761444e-05
210	0xbb3c25c0	-0.0028709024
211	0x37c09a20	2.2959954e-05
212	0xbb109266	-0.0022059917
213	0x3aa574da	0.0012623325
214	0x3ad6e177	0.0016394098
215	0x3a9ac244	0.0011807163
216	0x3b8c2a09	0.004277472
217	0x39e2ceb7	0.00043260094
218	0xbb5a3a2e	-0.0033298838
219	0xbb1766e7	-0.0023102106
220	0xb958fa98	-0.00020692719
221	0x3acf1ca0	0.0015801378
222	0x3a619e28	0.0008606636
223	0x3a0e2c82	0.00054235023
224	0x3a871029	0.0010304499
225	0x3b23cf94	0.0024995552
226	0x3aaf9958	0.001339714
227	0xba8ee592	-0.0010902158
228	0xbb23acfc	-0.0024974933
229	0x3b3d7736	0.0028910167
230	0xbb33082c	-0.0027318103
231	0xbb74329f	-0.0037261618
232	0xbb54744e	-0.0032417956
233	0x3aaac58f	0.0013028848
234	0xbb0166d4	-0.0019745128
235	0x3a42ef07	0.00074361305
236	0x3b816034	0.003948236
237	0xba62b27a	-0.0008647811
238	0x3b84d1b6	0.00405332
239	0xbb8027c6	-0.0039109914
240	0xbb183d5f	-0.002322994
241	0x3a2db9a5	0.00066270895
242	0x3a6ec579	0.0009108405
243	0xba225612	-0.0006192635
244	0x3b4ccf38	0.0031251442
245	0xbb0c547e	-0.0021412666
246	0x3b710339	0.0036775602
247	0x398b8a7e	0.0002661533
248	0x39b674a5	0.00034800652
249	0xb939aedc	-0.00017708115
250	0xbb7998cb	-0.0038085456
251	0xb9a3c421	-0.0003123591
252	0xbb5f22bd	-0.0034047805
253	0xb9813cb3	-0.00024650022
254	0xbb2fad00	-0.0026805997
255	0xbb3695a8	-0.0027860198

ablang_branch.1.weight f4 [256]
0	0x3f800adc	1.0003314
1	0x3f7fe155	0.99953204
2	0x3f8093a9	1.0045062
3	0x3f7fc00e	0.9990243
4	0x3f8051b4	1.0024934
5	0x3f7ebc1b	0.99505776
6	0x3f7f14b7	0.99640983
7	0x3f7f893a	0.99818766
8	0x3f8008f0	1.0002728
9	0x3f808821	1.0041543
10	0x3f7f3ae2	0.99699223
11	0x3f807b95	1.0037714
12	0x3f7f450b	0.99714726
13	0x3f7f24fa	0.99665797
14	0x3f7fa7ef	0.9986562
15	0x3f7fefd4	0.99975324
16	0x3f7f1886	0.99646795
17	0x3f8010c8	1.0005121
18	0x3f806ea4	1.0033765
19	0x3f7f8253	0.99808234
20	0x3f80194b	1.0007719
21	0x3f80027d	1.0000759
22	0x3f803f98	1.0019407
23	0x3f7eefd2	0.99584687
24	0x3f7ff9f6	0.99990785
25	0x3f7fa94c	0.998677
26	0x3f803b65	1.0018126
27	0x3f7fc2e4	0.99906754
28	0x3f801ff6	1.0009754
29	0x3f806c06	1.0032966
30	0x3f802517	1.0011319
31	0x3f7ee883	0.99573535
32	0x3f7f7ce5	0.9979995
33	0x3f7f71d4	0.9978306
34	0x3f80329c	1.0015445
35	0x3f7f8c96	0.9982389
36	0x3f802a67	1.001294
37	0x3f7fedb7	0.999721
38	0x3f8057a5	1.0026747
39	0x3f8019a7	1.0007828
40	0x3f7f6f30	0.99779034
41	0x3f8094f1	1.0045453
42	0x3f7f7e9c	0.99802566
43	0x3f803308	1.0015574
44	0x3f800fc9	1.0004817
45	0x3f807cbb	1.0038065
46	0x3f7f0f1b	0.99632424
47	0x3f805650	1.002634
48	0x3f804251	1.0020238
49	0x3f8056a5	1.0026442
50	0x3f7fb72f	0.9988889
51	0x3f7ef8ae	0.99598205
52	0x3f807656	1.0036113
53	0x3f7f6586	0.9976429
54	0x3f801fcb	1.0009702
55	0x3f7fbcf4	0.99897695
56	0x3f800f62	1.0004694
57	0x3f803990	1.0017567
58	0x3f800281	1.0000764
59	0x3f7fb0d6	0.99879205
60	0x3f7f694b	0.9977004
61	0x3f7fe4c6	0.99958456
62	0x3f7f2548	0.9966626
63	0x3f806139	1.002967
64	0x3f800518	1.0001554
65	0x3f805345	1.0025412
66	0x3f7f135f	0.9963893
67	0x3f7eec06	0.99578893
68	0x3f7f4a2b	0.99722546
69	0x3f7f8af8	0.99821424
70	0x3f802c19	1.0013458
71	0x3f803553	1.0016273
72	0x3f803f0f	1.0019244
73	0x3f7f5b75	0.9974893
74	0x3f7f7463	0.9978697
75	0x3f8007ea	1.0002415
76	0x3f8002ed	1.0000893
77	0x3f7f18df	0.99647325
78	0x3f7edb72	0.99553597
79	0x3f804290	1.0020313
80	0x3f8020ae	1.0009973
81	0x3f80416e	1.0019968
82	0x3f805aa4	1.0027661
83	0x3f7f0cb8	0.9962878
84	0x3f801da0	1.0009041
85	0x3f801200	1.0005493
86	0x3f8049dc	1.002254
87	0x3f7f3c90	0.99701786
88	0x3f7fed14	0.9997113
89	0x3f803fa0	1.0019417
90	0x3f805d2d	1.0028435
91	0x3f7f0fe7	0.9963364
92	0x3f7fb713	0.99888724
93	0x3f7ee36e	0.9956578
94	0x3f80557b	1.0026087
95	0x3f7f9102	0.9983064
96	0x3f800402	1.0001223
97	0x3f809a56	1.00471
98	0x3f807658	1.0036116
99	0x3f800609	1.0001842
100	0x3f8011ee	1.0005472
101	0x3f809c6d	1.0047737
102	0x3f7ed400	0.99542236
103	0x3f7ff279	0.9997936
104	0x3f7f3cd9	0.9970222
105	0x3f7fa33e	0.9985846
106	0x3f8030b3	1.0014862
107	0x3f7fded1	0.99949366
108	0x3f8044cb	1.0020994
109	0x3f7f5e76	0.9975351
110	0x3f808654	1.0040994
111	0x3f7f3bae	0.9970044
112	0x3f80a29e	1.0049627
113	0x3f7eee7b	0.9958264
114	0x3f802bd6	1.0013378
115	0x3f7f1c2c	0.9965236
116	0x3f8055b1	1.0026151
117	0x3f800bc5	1.0003592
118	0x3f8039ef	1.001768
119	0x3f7f1220	0.9963703
120	0x3f8083fe	1.0040281
121	0x3f7fed8a	0.9997183
122	0x3f806e70	1.0033703
123	0x3f7f24e5	0.9966567
124	0x3f8048b9	1.0022193
125	0x3f803ed9	1.001918
126	0x3f7fa3f7	0.99859565
127	0x3f7f576a	0.9974276
128	0x3f7f2c10	0.9967661
129	0x3f7feb97	0.99968857
130	0x3f7f68cf	0.997693
131	0x3f7efe2f	0.99606603
132	0x3f7eff8f	0.996087
133	0x3f7efa1b	0.9960038
134	0x3f7f5d6a	0.99751914
135	0x3f7ffe8f	0.999978
136	0x3f806532	1.0030882
137	0x3f803607	1.0016488
138	0x3f7fb913	0.99891776
139	0x3f7f2a5f	0.9967403
140	0x3f7feed6	0.9997381
141	0x3f7fa754	0.998647
142	0x3f7f1c2f	0.9965238
143	0x3f7f7425	0.997866
144	0x3f7f0f7a	0.9963299
145	0x3f8082b7	1.0039891
146	0x3f802a21	1.0012857
147	0x3f7ee1d2	0.99563324
148	0x3f80719f	1.0034674
149	0x3f7f62cd	0.99760133
150	0x3f806a8c	1.0032516
151	0x3f7ed0d4	0.99537396
152	0x3f80501f	1.0024451
153	0x3f7edbeb	0.9955432
154	0x3f803131	1.0015012
155	0x3f8088b4	1.0041718
156	0x3f804c5a	1.0023301
157	0x3f801148	1.0005274
158	0x3f803591	1.0016347
159	0x3f7ed299	0.99540097
160	0x3f801172	1.0005324
161	0x3f7f356e	0.996909
162	0x3f7f042e	0.9961575
163	0x3f7edf16	0.9955915
164	0x3f7f9f4e	0.99852455
165	0x3f80090b	1.000276
166	0x3f8038a5	1.0017287
167	0x3f7f2e82	0.9968034
168	0x3f7fd5b0	0.99935436
169	0x3f7f0c27	0.9962792
170	0x3f807321	1.0035135
171	0x3f7f1dce	0.99654853
172	0x3f7ffbe8	0.99993753
173	0x3f7f59be	0.9974631
174	0x3f80622f	1.0029963
175	0x3f7ff97f	0.99990076
176	0x3f7fb0c4	0.998791
177	0x3f808192	1.0039542
178	0x3f7fcac5	0.99918777
179	0x3f809e8c	1.0048385
180	0x3f7f2298	0.9966216
181	0x3f7fe82e	0.99963653
182	0x3f806030	1.0029354
183	0x3f7f6ae3	0.9977247
184	0x3f7fd137	0.9992861
185	0x3f805afe	1.0027769
186	0x3f803262	1.0015376
187	0x3f7f17f7	0.9964594
188	0x3f7f718a	0.9978262
189	0x3f8073a8	1.0035295
190	0x3f7ff2f3	0.99980086
191	0x3f7f2947	0.9967236
192	0x3f7ec6cf	0.9952211
193	0x3f7fe446	0.9995769
194	0x3f804289	1.0020305
195	0x3f7f76fc	0.9979093
196	0x3f7fd440	0.9993324
197	0x3f803ce6	1.0018585
198	0x3f8018b7	1.0007542
199	0x3f7ef7bc	0.9959676
200	0x3f802c60	1.0013542
201	0x3f7f5f7e	0.99755085
202	0x3f8046b0	1.0021572
203	0x3f803332	1.0015624
204	0x3f800453	1.000132
205	0x3f7f68d0	0.99769306
206	0x3f7f1892	0.99646866
207	0x3f803c43	1.001839
208	0x3f808962	1.0041926
209	0x3f803cd0	1.0018559
210	0x3f7f3160	0.99684715
211	0x3f8041ba	1.0020058
212	0x3f8049b6	1.0022495
213	0x3f800fe1	1.0004846
214	0x3f7ff239	0.9997898
215	0x3f806068	1.0029421
216	0x3f8090b1	1.0044156
217	0x3f7fd4ec	0.9993427
218	0x3f803d61	1.0018731
219	0x3f8042f7	1.0020436
220	0x3f7fc1b5	0.9990495
221	0x3f7feb38	0.9996829
222	0x3f8096e7	1.0046052
223	0x3f800b14	1.0003381
224	0x3f808591	1.0040761
225	0x3f7fefd4	0.99975324
226	0x3f7fb88b	0.99890965
227	0x3f801132	1.0005248
228	0x3f802578	1.0011435
229	0x3f7f1c3e	0.9965247
230	0x3f7f56db	0.99741906
231	0x3f7ef3b7	0.9959063
232	0x3f7f8159	0.99806744
233	0x3f802179	1.0010215
234	0x3f7fc7a8	0.99914026
235	0x3f7fb5a3	0.9988653
236	0x3f7f7c31	0.99798876
237	0x3f7f7d0d	0.9980019
238	0x3f809e88	1.004838
239	0x3f7faecd	0.998761
240	0x3f7f6c68	0.9977479
241	0x3f7f5dd5	0.9975255
242	0x3f805f52	1.002909
243	0x3f8032d2	1.0015509
244	0x3f806056	1.0029399
245	0x3f8092d1	1.0044805
246	0x3f8098b9	1.0046607
247	0x3f7fadcd	0.99874574
248	0x3f7feaa5	0.99967414
249	0x3f800f94	1.0004754
250	0x3f7f082b	0.9962184
251	0x3f802df2	1.0014021
252	0x3f805854	1.0026956
253	0x3f7fe913	0.9996502
254	0x3f7f3fef	0.9970693
255	0x3f7f464a	0.9971663

ablang_branch.1.bias f4 [256]
0	0x3b3859c1	0.002812967
1	0xb7f352a8	-2.9006347e-05
2	0x3b93699c	0.0044986736
3	0xb9648244	-0.00021792302
4	0x3b2a35f2	0.0025972095
5	0x3b927e4b	0.0044706217
6	0xbb9ddf89	-0.004817907
7	0xba5abdcc	-0.0008344322
8	0x39a614c5	0.00031677462
9	0x3b91092e	0.004426143
10	0x3abc60f8	0.0014372161
11	0xb9a3b495	-0.00031224327
12	0x39fa75c5	0.0004777146
13	0xbb15152a	-0.002274821
14	0xba87b52d	-0.0010353677
15	0xb9661274	-0.00021941384
16	0x3ace4af0	0.0015738886
17	0x3b5c8127	0.0033646317
18	0x3b609ea2	0.003427424
19	0xbb66e741	-0.0035233053
20	0x39397c3a	0.00017689253
21	0xbb885db2	-0.00416156
22	0xbb08c44c	-0.0020868955
23	0xbb8cd659	-0.004298013
24	0xbb8ec73a	-0.0043572458
25	0x3a4164cc	0.00073773856
26	0xbb2b7258	-0.0026160683
27	0xbad3ee55	-0.0016169051
28	0x3b732d53	0.0037105873
29	0xbb75b70c	-0.0037493138
30	0xba8f6dd7	-0.0010942769
31	0xbb628c7e	-0.0034568603
32	0xbabeffaf	-0.0014572049
33	0xba8dea8e	-0.0010827349
34	0xba240670	-0.0006257063
35	0xb7667a60	-1.3737561e-05
36	0x39fac48b	0.00047830152
37	0x3b2833be	0.0025665606
38	0xbba29125	-0.00496115
39	0xb9de3b96	-0.00042387535
40	0x392716ac	0.00015934807
41	0xbb953fc9	-0.004554723
42	0xbb09b457	-0.0021012032
43	0x3ad7179e	0.0016410237
44	0x3afe7d77	0.0019416054
45	0x3b80a8e0	0.0039263815
46	0xbb7649fb	-0.0037580717
47	0xbb2412c9	-0.002503561
48	0x3b635df9	0.0034693463
49	0x3b33934e	0.0027401033
50	0xbab68271	-0.0013924373
51	0xbb6f901c	-0.0036554402
52	0xbb75aeaf	-0.0037488153
53	0xb82d0c98	-4.1258143e-05
54	0x39dbc63d	0.00041918634
55	0xbaaebd27	-0.0013331518
56	0xba66dbf3	-0.00088065787
57	0x3b19aebf	0.0023450104
58	0xbb8c01dd	-0.004272683
59	0xbaf4c17f	-0.0018673389
60	0x3aeafacd	0.0017927528
61	0xb8bb7652	-8.938894e-05
62	0x3b62b090	0.0034590103
63	0x3b2990e0	0.0025873706
64	0xbaf36988	-0.001857088
65	0x3b39d02b	0.0028352838
66	0xbb4b5365	-0.0031025049
67	0x3a604250	0.0008554803
68	0xbab74d93	-0.0013984911
69	0xbb1a7cc2	-0.0023572897
70	0xba2cd949	-0.00065936573
71	0x3ae2489b	0.001726407
72	0x3b1ae82c	0.002363692
73	0xbab8d10e	-0.0014100389
74	0xbae765bd	-0.0017654222
75	0x3ad317e0	0.0016105138
76	0x376e8e80	1.4219084e-05
77	0xbb206f42	-0.0024480377
78	0x3b746e4d	0.003729719
79	0x3b1d6cf0	0.002402123
80	0x3a08f2de	0.00052241783
81	0x3b829f5b	0.003986282
82	0x3b4a6026	0.0030880063
83	0xbab87fad	-0.0014076136
84	0x3b1e0a02	0.0024114852
85	0x3aa84ad6	0.0012839686
86	0x3b40b12d	0.002940248
87	0x3b12ce86	0.002240093
88	0xbb040abb	-0.0020147997
89	0x3810bf4d	3.4510438e-05
90	0x3b69c00a	0.0035667443
91	0x39108771	0.00013783366
92	0xba8d3b25	-0.0010775073
93	0xbb13112f	-0.0022440662
94	0x3b1d7c26	0.0024030297
95	0x3b122c03	0.0022304065
96	0xbb68512c	-0.0035448773
97	0x39cf70d4	0.0003956618
98	0x3b8065d2	0.003918388
99	0xba6490a0	-0.00087190606
100	0x3a8b29f3	0.001061736
101	0xbb680337	-0.0035402307
102	0xbb181bb9	-0.0023209883
103	0xba450c78	-0.00075168116
104	0xbb9055b6	-0.004404749
105	0xba97f1f7	-0.0011592497
106	0xbaa5f2f3	-0.0012660905
107	0xba491e84	-0.00076720887
108	0x3b9340fe	0.0044938317
109	0x3ab38aac	0.0013697944
110	0x3b733731	0.0037111754
111	0x3b52873a	0.0032124058
112	0x3b9cfcd2	0.0047908807
113	0x3b8d6053	0.0043144613
114	0x3ab00eae	0.0013432109
115	0xbb8ccdb2	-0.0042969817
116	0xbb5e03b8	-0.0033876728
117	0xbb37db26	-0.0028054207
118	0xba95fc8b	-0.0011443062
119	0x3b7fd4e2	0.00390368
120	0x3b856a88	0.0040715374
121	0xba459112	-0.0007536571
122	0x3b484570	0.0030558966
123	0xbb169cff	-0.002298176
124	0x3b11f0a3	0.0022268675
125	0x3b3b7029	0.0028600788
126	0x3aabcbbc	0.0013106982
127	0x3b7f4196	0.0038949004
128	0x3b6dda98	0.0036293622
129	0xb94a9c5b	-0.00019322468
130	0xbb4af2e7	-0.0030967535
131	0xbb4f9563	-0.0031674735
132	0xbb4e18db	-0.003144792
133	0x3b65c522	0.0035060127
134	0x3abc0000	0.0014343262
135	0x3a7a5ea4	0.0009550846
136	0x3b2c0e45	0.0026253622
137	0x3aaecba3	0.0013335835
138	0xbb899490	-0.0041986182
139	0xbac986ff	-0.0015375315
140	0xb9b0d319	-0.00033726616
141	0xba77037b	-0.0009422821
142	0xbb63b02f	-0.0034742465
143	0x3ac01313	0.0014654122
144	0xbb5d4517	-0.0033763105
145	0xbb969839	-0.004595783
146	0x3b35af40	0.0027722865
147	0xbb1e4ae4	-0.0024153525
148	0x3b1a44e4	0.0023539597
149	0x3a059bf8	0.00050967885
150	0x3b9a739e	0.0047134897
151	0xbb9d3a84	-0.0047982354
152	0x3b8490ea	0.0040455954
153	0xbb947ee5	-0.0045317286
154	0xb9fd80ef	-0.00048351983
155	0x3b812022	0.003940598
156	0xbb0e4b0a	-0.0021712207
157	0xbb1e0d03	-0.0024116642
158	0xba1803a0	-0.000579888
159	0xbb91db5b	-0.004451198
160	0x393df401	0.00018115343
161	0xbb8acdd6	-0.0042359633
162	0xbb7fc4cc	-0.0039027212
163	0xbb7ade7e	-0.0038279588
164	0xba0f1da8	-0.0005459436
165	0xb9b72b18	-0.00034936587
166	0x3a58c6e6	0.0008269384
167	0xbb88c1b2	-0.004173481
168	0x3b3e467c	0.0029033711
169	0xbb921bcd	-0.0044588805
170	0xbb5940c8	-0.0033150185
171	0xbb5df6b4	-0.003386897
172	0xb970001e	-0.00022888227
173	0x3b1150c7	0.0022173391
174	0x3b5cf9a9	0.0033718145
175	0xba6d0cdc	-0.0009042749
176	0xbafb084f	-0.0019152256
177	0xba0f7323	-0.0005472174
178	0x3a688866	0.00088704226
179	0x3b979298	0.0046256296
180	0x3a0398aa	0.0005020002
181	0xbb81d80b	-0.003962522
182	0xbb35d317	-0.0027744228
183	0xbb2af524	-0.0026086057
184	0x3b5c2c4e	0.0033595744
185	0xbaf5d658	-0.0018755896
186	0x3b54ae2b	0.0032452445
187	0x3b07e2c4	0.0020734528
188	0xbb464bac	-0.0030257506
189	0x3b7c93a1	0.0038540142
190	0xbb006dea	-0.0019596764
191	0xbb7015bb	-0.0036634046
192	0x3b4b5f18	0.0031032022
193	0xbaa0b424	-0.0012260717
194	0xbb3aa1ea	-0.0028477856
195	0xbb2245ee	-0.002476092
196	0xba24c61d	-0.00062856247
197	0x3b0b64c2	0.0021269773
198	0x3b88f7f1	0.0041799475
199	0x3b80e6c4	0.0039337594
200	0xbb082c4a	-0.0020778351
201	0x3b9fd022	0.0048771063
202	0xbb81163e	-0.003939419
203	0xbad14292	-0.0015965274
204	0x39975e0a	0.0002887103
205	0xbb358872	-0.0027699736
206	0x3ac207c0	0.0014803335
207	0x3b82b9c1	0.0039894287
208	0xbac69812	-0.0015151522
209	0x3af750b1	0.0018868652
210	0xbb3a3627	-0.0028413625
211	0xb699c200	-4.58234e-06
212	0xbb324a36	-0.0027204878
213	0x3a819488	0.0009886185
214	0x3ae4f629	0.0017468381
215	0x3b045216	0.0020190529
216	0x3b9086b2	0.004410588
217	0x3a3dcb98	0.00072401157
218	0xbb3f38cf	-0.0029178148
219	0xbb023cb0	-0.0019872598
220	0x396edb28	0.00022779091
221	0x3aa627c6	0.0012676648
222	0x3a74bc2e	0.0009335902
223	0x3a6f9e2a	0.0009140695
224	0xba5875cb	-0.00082572986
225	0x3b1b352e	0.002368282
226	0x3aad0f88	0.0013203481
227	0xba525ca1	-0.0008024667
228	0xbb1c393e	-0.002383783
229	0x3b4e36aa	0.0031465688
230	0xbb365d38	-0.0027826559
231	0xbb7ab34e	-0.0038253847
232	0xbb4e6baf	-0.003149729
233	0x3aaa6566	0.001300019
234	0xbabd7caa	-0.0014456708
235	0x3a788280	0.0009479895
236	0x3b84c410	0.004051693
237	0xba56b178	-0.0008189897
238	0x3b81b466	0.0039582727
239	0xbb7fab8b	-0.003901216
240	0xbb10fbce	-0.0022122744
241	0x3a1c73de	0.0005968193
242	0x3aac6c58	0.0013154848
243	0xb9c43249	-0.000374215
244	0x3b25d7ff	0.0025305746
245	0xbadc3db8	-0.0016803062
246	0x3b80d448	0.003931556
247	0x3a296984	0.00064625614
248	0x3a146326	0.0005660526
249	0xb980c195	-0.00024558292
250	0xbb771020	-0.003769882
251	0xb89e2bc6	-7.5421805e-05
252	0xbb538819	-0.0032277165
253	0xb92eee9f	-0.00016682826
254	0xbb2932af	-0.0025817563
255	0xbb32d14b	-0.0027285393

ablang_branch.4.weight f4 [128, 256]
0	0x3e2d368a	0.16915336
1	0xbd0eb22a	-0.03483788
2	0xbd543e7c	-0.051817402
3	0xbd0e78bd	-0.034783114
4	0x3de3f51c	0.11130735
5	0xbea3027c	-0.31837833
6	0xbd4cfb50	-0.050044358
7	0xbd8761b5	-0.06610433
8	0x3e1f6a72	0.1556795
9	0xbd7833e8	-0.060596377
10	0xbc5a4f6e	-0.013324602
11	0x3d2c491c	0.04206191
12	0xbd744f18	-0.059645742
13	0x3ce59b4d	0.028028155
14	0x3ccb277b	0.0247991
15	0x3e1d5abe	0.15366647
16	0x3c9d1122	0.019173209
17	0xbd05339d	-0.032519925
18	0xbe3603ee	-0.17774937
19	0xbdd9f5b0	-0.10642564
20	0x3d4a79a6	0.04943242
21	0x3df71a2f	0.12065541
22	0xbd8f455b	-0.069956504
23	0x3d3e7af2	0.04650397
24	0xbb81f01d	-0.0039653913
25	0xbd6a17c1	-0.05715156
26	0x3de6ad0d	0.112634756
27	0x3de22b3f	0.11043405
28	0x3dd42c5a	0.10360022
29	0x3dcf94f7	0.10135835
30	0x3d9001f4	0.070316225
31	0x3c97bdbb	0.018523088
32	0x3e35e243	0.17762093
33	0xbbad5d4a	-0.005290662
34	0xbdc5a0ee	-0.096498355
35	0xbdb168b2	-0.08662547
36	0x3d4fc38d	0.0507236
37	0x3e0c6d84	0.13713652
38	0xbd2d35ef	-0.042287763
39	0x3e6c1b7f	0.23057364
40	0x3d0b9a2b	0.034082573
41	0x3d7331ad	0.059373546
42	0x3dca8272	0.09888162
43	0x3c372130	0.011177346
44	0xbdd2f2ae	-0.10300194
45	0xbd0e9f16	-0.034819685
46	0xbdc2e43f	-0.09516191
47	0xbd3bbad0	-0.045832455
48	0x3ddf0ad1	0.10890735
49	0xbd75e2ec	-0.060030863
50	0x3d861c13	0.065483235
51	0x3d990ce7	0.07473164
52	0x3e04b01f	0.1295781
53	0x3daed064	0.08535841
54	0xbe343e02	-0.17601779
55	0x3c6e2466	0.014535045
56	0x3dbadeee	0.09124552
57	0xbe00e117	-0.12585865
58	0x3d47b13e	0.048753016
59	0xbd86d0c4	-0.06582788
60	0xbc294691	-0.010331766
61	0x3d0a455f	0.033757564
62	0x3e2d5fe8	0.16931117
63	0xbe366a60	-0.17814016
64	0x3dad1c5a	0.08452673
65	0x3d5bbf6e	0.05364936
66	0x3ca9c034	0.020721532
67	0xbe41cacc	-0.18925017
68	0xbe0cd5ff	-0.13753508
69	0x3e0ca9be	0.13736627
70	0x3e2e4d1a	0.170216
71	0x3da0487c	0.07826325
72	0x3d815a1c	0.06316015
73	0x3e6f78de	0.23385951
74	0x3df75179	0.120760866
75	0x3e169190	0.14703965
76	0x3dcdf7f4	0.10057059
77	0xbd9e6220	-0.077335596
78	0x3e11bfe5	0.14233358
79	0x3c9e55c4	0.019328006
80	0x3d7d86a7	0.061895993
81	0xbda00b24	-0.07814625
82	0x3e0566a3	0.13027434
83	0x3d456e81	0.048201088
84	0xbb426c6a	-0.002966667
85	0x3d271246	0.04078891
86	0x3bf4e773	0.00747388
87	0xbd95aaad	-0.073079444
88	0x3d58a040	0.0528872
89	0xbcb3b264	-0.02193565
90	0xbd76fa3d	-0.06029724
91	0x3d8d013e	0.068850026
92	0x3df72ff7	0.120696954
93	0xbb97274d	-0.0046128393
94	0xbd848b5b	-0.064718924
95	0xb9421e30	-0.00018512527
96	0x3dd3dc15	0.10344712
97	0x3d9d7831	0.0768894
98	0xbd6e57be	-0.058189146
99	0x3d95ae91	0.073086865
100	0x3cd419ca	0.025891203
101	0x3c770736	0.015077403
102	0xbd5861ba	-0.052827574
103	0x3d04386e	0.032280378
104	0xbe25bebd	-0.16186042
105	0x3d2307ef	0.039802488
106	0x3e8f3745	0.27971855
107	0x3cf69f75	0.030105332
108	0xbbb454b7	-0.005503263
109	0x3d5ecccb	0.054394525
110	0xbd9126f4	-0.07087508
111	0xbd85fc7b	-0.065422975
112	0x3ded51cf	0.115878694
113	0x3c3d107a	0.011539573
114	0x3d678b88	0.05652955
115	0xbd6fda9a	-0.058558084
116	0x3d115a9b	0.0354868
117	0xbd25ddc6	-0.040494703
118	0x3d81842a	0.063240364
119	0x3dd0c240	0.101933
120	0xbd3c00fe	-0.045899384
121	0xbd29e1e2	-0.041475184
122	0xbde79958	-0.11308545
123	0x3db14f4b	0.08657702
124	0x3dd7e156	0.10541026
125	0xbd16c187	-0.036805656
126	0xbd9c771d	-0.076399066
127	0x3c2e9f7d	0.010658142
128	0xbc321105	-0.010868316
129	0x3dd0f4ac	0.102029175
130	0xbe136f22	-0.14397863
131	0x3bcd2461	0.00626044
132	0xbe0483d2	-0.1294091
133	0xbe3447e9	-0.17605557
134	0xbe0012fd	-0.12507243
135	0xbce2846b	-0.027651032
136	0xbeb10ce5	-0.3458015
137	0x3d333262	0.04374922
138	0xbdd72648	-0.105053484
139	0x3cad3839	0.021144973
140	0x3d494e7f	0.049147125
141	0xbdbb67b5	-0.0915064
142	0x3d5cdf25	0.053923745
143	0x3c79959b	0.015233423
144	0xbac2675e	-0.0014831831
145	0xbd590001	-0.05297852
146	0xbd6a11d2	-0.0571459
147	0x3e5e3a2b	0.21701877
148	0x3d295095	0.041336615
149	0x3c51606d	0.012779337
150	0x3dead371	0.114661105
151	0x37e8b2a0	2.7739734e-05
152	0x3d896e44	0.067104846
153	0xbc254b50	-0.010088757
154	0x3e89491a	0.26813585
155	0xbd132124	-0.035920277
156	0xbd926fd2	-0.07150234
157	0x3de2bf1b	0.11071607
158	0x3d8651c9	0.06558568
159	0x3c0bed12	0.008540409
160	0xbe0cdb62	-0.13755563
161	0x3c205926	0.00978688
162	0xbb3de938	-0.002897812
163	0x3d6c0ff4	0.0576324
164	0xbc3db561	-0.011578889
165	0x3d738e87	0.059462097
166	0x3d1ecd20	0.03876984
167	0x3ddcbee4	0.10778597
168	0x3db75210	0.08951199
169	0x3d7d4799	0.06183586
170	0x3c37134b	0.011174033
171	0xbde12c41	-0.10994769
172	0xbd656f64	-0.056014434
173	0x3d7ce082	0.061737545
174	0xbb9cd369	-0.0047859442
175	0x3cc4c71b	0.024020722
176	0xbcef7ae5	-0.029233405
177	0xbe20192b	-0.15634601
178	0xbd047524	-0.032338277
179	0xbe2c0bec	-0.16801423
180	0xbd094c9f	-0.033520337
181	0xbd2a2dd2	-0.041547604
182	0x3dddfd34	0.1083931
183	0xba20df37	-0.0006136777
184	0xbd7f4d26	-0.062329434
185	0xbd7040b6	-0.058655463
186	0xbd65be12	-0.05608947
187	0x3d8789b0	0.06618059
188	0x3d587b20	0.052851796
189	0xbd7d08eb	-0.061776083
190	0x3c0965db	0.008386101
191	0xbd3b202d	-0.045684982
192	0x3d87865d	0.06617425
193	0x3e0a4804	0.13504034
194	0x3d75d076	0.060013257
195	0xbe3225e7	-0.17397271
196	0x3d9a0287	0.07520013
197	0x3d2a9869	0.041649256
198	0x3dc66a2b	0.09688219
199	0x3b7f6281	0.0038968625
200	0xbdd5930b	-0.10428437
201	0xbc8b2f5b	-0.016990354
202	0x3daa9856	0.08329837
203	0xbd2f9691	-0.0428682
204	0x3de1b3a1	0.110205896
205	0x3c507996	0.012724301
206	0x3c4ee036	0.012626698
207	0x3c96ea35	0.018422225
208	0x3cc85050	0.024452358
209	0x3e8810c6	0.26575297
210	0xbd5ca4cf	-0.05386811
211	0xbde01702	-0.109418884
212	0xbc93f51d	-0.018061215
213	0x3c139dff	0.009009837
214	0x3d7c789d	0.061638463
215	0x3cb8450c	0.022493862
216	0xbdb0a2bc	-0.08624789
217	0xbdc13b1d	-0.09435103
218	0x3d542b5f	0.051799174
219	0x3ce637ff	0.028102873
220	0x3c8e823a	0.017396081
221	0xbd899db3	-0.06719532
222	0xbe56c66f	-0.20974134
223	0x3d691a01	0.056909565
224	0xbe02be55	-0.12767918
225	0x3d9f38a5	0.07774476
226	0xbae2463e	-0.0017263365
227	0x3c7d75fd	0.015470025
228	0x3d5a5dd5	0.05331214
229	0x3a7c89b5	0.0009633557
230	0xbbd9ff94	-0.0066527817
231	0x3d11dedc	0.035612926
232	0xbcc6715f	-0.024223981
233	0x3c99a7c1	0.01875675
234	0x3c81d2d1	0.015847595
235	0x3d1a274d	0.037635136
236	0xbd90c777	-0.07069295
237	0xbcf3e149	-0.02977051
238	0x3e962b94	0.29330122
239	0xbd5a2048	-0.053253442
240	0x3d2d0a38	0.042246073
241	0x3c6de0f6	0.014518967
242	0x3d34f621	0.04418004
243	0xbdc5d861	-0.096604116
244	0xbd8b91d3	-0.06814923
245	0x3dc4796a	0.095934704
246	0xbe0caee6	-0.13738593
247	0x3d9c6046	0.0763555
248	0xbe046a6b	-0.1293122
249	0x3e1272ec	0.14301652
250	0x3d46f496	0.0485731
251	0xbd4797fe	-0.048728935
252	0x3dc87d95	0.09789578
253	0x3be28da6	0.0069138585
254	0xbd9f1192	-0.07767023
255	0xbd497ce0	-0.049191356

ablang_branch.4.bias f4 [128]
0	0xbadd0449	-0.0016862239
1	0x39af7b19	0.00033470316
2	0xbb88d74f	-0.0041760574
3	0xbb5c79aa	-0.0033641853
4	0xbb22e569	-0.0024855977
5	0x3b5e4f74	0.003392187
6	0xbb676bec	-0.003531213
7	0x399a66f6	0.0002944988
8	0xbaf2e1e6	-0.0018530458
9	0x3b376982	0.0027986472
10	0x3a43b692	0.0007465865
11	0xb6015080	-1.9269355e-06
12	0xb94d6272	-0.00019586997
13	0xbab931b4	-0.0014129193
14	0xbb90c49c	-0.004417969
15	0xbaed7c0a	-0.0018118632
16	0xb8a35b10	-7.7894074e-05
17	0x3b67b4d0	0.0035355575
18	0x3b3d717e	0.0028906758
19	0xbb136290	-0.0022489168
20	0x3b53f227	0.003234038
21	0xbb687e0c	-0.003547552
22	0xbb9929a0	-0.0046741515
23	0x3ba2ce07	0.004968408
24	0x3b4d8846	0.0031361743
25	0xbb595697	-0.0033163184
26	0xbb7edc8e	-0.0038888785
27	0x3b437d43	0.00298293
28	0x3a9bb800	0.0011880398
29	0xbb8181b1	-0.003952228
30	0xbb88625a	-0.004162115
31	0xba5924d8	-0.0008283383
32	0xbb251b33	-0.0025193214
33	0x3acd82ec	0.0015679277
34	0xba898b3d	-0.0010493767
35	0x3b098e45	0.002098934
36	0xbb482b83	-0.0030543513
37	0x39be5ba1	0.00036307893
38	0x3aeac579	0.0017911635
39	0xbb507dee	-0.0031813341
40	0xbab26b06	-0.0013612218
41	0xbb24e85e	-0.0025162916
42	0xbaa8faf8	-0.0012892177
43	0xbb97ff55	-0.0046385922
44	0x3afd0f86	0.0019306995
45	0x3a40887a	0.00073445553
46	0x3b5af06b	0.003340746
47	0xba29b680	-0.0006474033
48	0xbb3cf3d3	-0.0028831854
49	0x3ac29f87	0.0014848568
50	0x394dd8c0	0.00019631069
51	0xba88faf1	-0.0010450763
52	0x3b6cb5d9	0.0036119132
53	0x3b08b8c6	0.0020862087
54	0xbb16fa75	-0.0023037468
55	0x3afadf56	0.0019140046
56	0x3b6f6afc	0.0036532274
57	0xbb4d9027	-0.003136644
58	0xbb6139a3	-0.003436663
59	0xbb5c8492	-0.0033648354
60	0x3a85310b	0.0010161711
61	0xbb7b26af	-0.0038322618
62	0x3b5a10d8	0.00332742
63	0x3b384ed7	0.0028123164
64	0xbac730b6	-0.0015197012
65	0xba51fcba	-0.00080103765
66	0x3b7ec1fc	0.0038872948
67	0xbb8d4a17	-0.0043118107
68	0xba9fbd16	-0.0012187089
69	0xbb00d011	-0.0019655267
70	0x3af88606	0.001896084
71	0xb9f0b9af	-0.00045914712
72	0xb982822b	-0.00024892515
73	0xba672445	-0.0008817355
74	0xba8d61fe	-0.001078665
75	0x3b8ccb46	0.004296693
76	0xba14b021	-0.0005671997
77	0xba8624f5	-0.0010234403
78	0x3afe90ea	0.001942185
79	0x39fa6dda	0.00047765562
80	0x3b93cca9	0.0045104814
81	0xba4594b2	-0.0007537111
82	0x38da6416	0.000104136925
83	0x3b8427f4	0.004033083
84	0xbb8f78da	-0.0043784203
85	0x3b86c03a	0.0041122707
86	0xbb6d15ef	-0.0036176404
87	0x3aadf68a	0.0013272327
88	0xbaec72f4	-0.001803963
89	0x3b58fe3f	0.0033110527
90	0xbb240a45	-0.0025030535
91	0xbb840af7	-0.0040296274
92	0x3b8899bc	0.004168717
93	0x3a98d21b	0.0011659296
94	0x3a1aa51f	0.0005899239
95	0x3b8105dc	0.003937466
96	0x3b0b21dd	0.00212299
97	0xbb9059b9	-0.004405227
98	0xbb9a2ba5	-0.00470491
99	0x3ad9f292	0.0016628078
100	0x3b3543b5	0.0027658765
101	0x398d8926	0.000269958
102	0x3aa6c845	0.001272448
103	0xba9e84fa	-0.0012094073
104	0x3b815d92	0.003947922
105	0x3ae01eb7	0.0017098997
106	0xb9c1e0b0	-0.00036979234
107	0x3afb2758	0.0019161506
108	0x3b699489	0.0035641512
109	0x3b5eb6c9	0.003398346
110	0xb9f0d799	-0.00045937
111	0xbb798e6d	-0.0038079277
112	0x374e2fe0	1.2289704e-05
113	0xbb416a3c	-0.0029512784
114	0x3b37a223	0.0028020225
115	0xbb5e791c	-0.0033946699
116	0x3b07f3b8	0.0020744633
117	0x3b98b42b	0.0046601496
118	0xb918bb6e	-0.00014565673
119	0x3b84445e	0.0040364703
120	0xbb973e2c	-0.0046155658
121	0x3a994d6d	0.0011696048
122	0x3adbcd9a	0.0016769648
123	0x3aeeb9d4	0.001821334
124	0xbaa8bbff	-0.001287341
125	0x3b7fed78	0.0039051455
126	0xba3302a1	-0.00068287
127	0xbaa5e78e	-0.001265751

ablang_branch.5.weight f4 [128]
0	0x3f7fbe4c	0.99899745
1	0x3f805329	1.0025378
2	0x3f7ef640	0.995945
3	0x3f7efb5c	0.99602294
4	0x3f800a1f	1.0003089
5	0x3f80522d	1.0025078
6	0x3f7ecf70	0.99535275
7	0x3f7ef5b1	0.99593645
8	0x3f8046d1	1.0021611
9	0x3f803fb6	1.0019443
10	0x3f801bf9	1.0008537
11	0x3f7f5b0b	0.99748296
12	0x3f7ff18a	0.99977934
13	0x3f806ea7	1.0033768
14	0x3f7ef1b3	0.99587554
15	0x3f804bba	1.002311
16	0x3f7f844e	0.99811256
17	0x3f805cad	1.0028282
18	0x3f806302	1.0030215
19	0x3f800160	1.000042
20	0x3f806a88	1.0032511
21	0x3f7f7787	0.9979176
22	0x3f80a33c	1.0049815
23	0x3f809a0f	1.0047015
24	0x3f7f8806	0.9981693
25	0x3f7f4484	0.9971392
26	0x3f7f152d	0.99641687
27	0x3f8047eb	1.0021948
28	0x3f805bb4	1.0027986
29	0x3f7eb7b4	0.9949906
30	0x3f7f81d4	0.99807477
31	0x3f7f5dbe	0.99752414
32	0x3f7f4d05	0.997269
33	0x3f7f5917	0.99745315
34	0x3f801247	1.0005578
35	0x3f7fbc4e	0.99896705
36	0x3f7f25cb	0.9966704
37	0x3f7fbd00	0.99897766
38	0x3f801ce3	1.0008816
39	0x3f7f146f	0.99640554
40	0x3f7ed08b	0.9953696
41	0x3f7f45ae	0.997157
42	0x3f7f6100	0.99757385
43	0x3f80611f	1.0029639
44	0x3f805e89	1.002885
45	0x3f807ee3	1.0038723
46	0x3f7f31b1	0.996852
47	0x3f80198c	1.0007796
48	0x3f7f5673	0.99741286
49	0x3f8031a3	1.0015148
50	0x3f801055	1.0004984
51	0x3f80256d	1.0011421
52	0x3f80635b	1.0030321
53	0x3f802dc1	1.0013963
54	0x3f7f63bd	0.99761564
55	0x3f7ff591	0.9998408
56	0x3f804817	1.0022
57	0x3f804ffb	1.0024408
58	0x3f804579	1.0021201
59	0x3f7fb7f4	0.99890065
60	0x3f805080	1.0024567
61	0x3f7f0db1	0.99630266
62	0x3f809259	1.0044662
63	0x3f802776	1.0012043
64	0x3f7faffd	0.9987791
65	0x3f7f7d5b	0.9980065
66	0x3f805cf7	1.0028371
67	0x3f7eb8ba	0.9950062
68	0x3f7ef427	0.99591297
69	0x3f802dea	1.0014012
70	0x3f8030e7	1.0014924
71	0x3f7efcad	0.996043
72	0x3f8032cc	1.0015502
73	0x3f805a8b	1.0027632
74	0x3f7f9a83	0.9984514
75	0x3f805fd5	1.0029246
76	0x3f7fa2bf	0.99857706
77	0x3f7fdc7f	0.99945825
78	0x3f7fd6ab	0.9993693
79	0x3f80089b	1.0002626
80	0x3f808d8b	1.0043195
81	0x3f802d37	1.0013798
82	0x3f7f6696	0.9976591
83	0x3f809595	1.0045649
84	0x3f809124	1.0044293
85	0x3f7f2271	0.9966193
86	0x3f7f0dcd	0.99630433
87	0x3f7ffb1b	0.9999253
88	0x3f8050a3	1.0024608
89	0x3f809c05	1.0047613
90	0x3f802342	1.001076
91	0x3f7f1320	0.9963856
92	0x3f806da7	1.0033463
93	0x3f803280	1.0015411
94	0x3f7fcd39	0.9992252
95	0x3f805c39	1.0028144
96	0x3f7f7d1c	0.99800277
97	0x3f7efc86	0.9960407
98	0x3f7f7b5f	0.99797624
99	0x3f804f3e	1.0024183
100	0x3f80678c	1.00316
101	0x3f7fffbc	0.99999595
102	0x3f7f6243	0.9975931
103	0x3f7f1192	0.99636185
104	0x3f80696f	1.0032176
105	0x3f7f9ff9	0.99853474
106	0x3f7fc563	0.99910563
107	0x3f805e4c	1.0028777
108	0x3f7fc771	0.999137
109	0x3f8047ff	1.0021971
110	0x3f7ff56e	0.9998387
111	0x3f7efa55	0.99600726
112	0x3f803c61	1.0018426
113	0x3f7f1c57	0.9965262
114	0x3f7fc896	0.99915445
115	0x3f8003cb	1.0001158
116	0x3f7f5a10	0.997468
117	0x3f80987f	1.0046538
118	0x3f7f964e	0.9983872
119	0x3f808a72	1.004225
120	0x3f7fa169	0.9985567
121	0x3f7fb19b	0.9988038
122	0x3f7fa8a8	0.99866724
123	0x3f80225b	1.0010484
124	0x3f8048c1	1.0022203
125	0x3f808170	1.0039501
126	0x3f7f2255	0.9966176
127	0x3f7f7d9b	0.99801034

ablang_branch.5.bias f4 [128]
0	0xbabeb8f1	-0.0014550966
1	0x39a0f4bf	0.00030699928
2	0xbb86a0c3	-0.0041085198
3	0xbb673bef	-0.0035283526
4	0xbb140a71	-0.0022589231
5	0x3b5752ec	0.0032855822
6	0xbb6af6e8	-0.0035852734
7	0x3a5d5051	0.0008442449
8	0xbac478d2	-0.001498962
9	0x3b33b7d8	0.0027422812
10	0x3b35fba6	0.0027768402
11	0x381c7600	3.7303194e-05
12	0xb97ed02c	-0.00024300878
13	0xbaacbe72	-0.0013179316
14	0xbb9244e1	-0.0044637774
15	0xbabfdd3a	-0.0014638074
16	0x38b4f220	8.628168e-05
17	0x3b722563	0.0036948554
18	0x3b3a1375	0.0028392945
19	0xbb1160cc	-0.002218294
20	0x3b5f3a97	0.0034062022
21	0xbb70e295	-0.0036756147
22	0xbb9f2280	-0.0048564076
23	0x3ba136b6	0.004919852
24	0x3b550970	0.0032506846
25	0xbb4c6752	-0.0031189513
26	0xbb7fc1d2	-0.0039025438
27	0x3b33eda5	0.002745488
28	0x3aa52080	0.0012598187
29	0xbb7ab173	-0.003825274
30	0xbb81112f	-0.003938816
31	0xba2f53ab	-0.0006688188
32	0xbb2ffc2f	-0.0026853194
33	0x3ad6e988	0.0016396502
34	0xba873695	-0.0010315949
35	0x3aff663e	0.0019485427
36	0xbb4573ea	-0.0030128905
37	0x39b75a49	0.00034971748
38	0x3adc28e6	0.0016796857
39	0xbb4d4c0a	-0.003132584
40	0xbadb6ef2	-0.0016741438
41	0xbb2585f8	-0.0025256854
42	0xbabaae22	-0.001424257
43	0xbb75fc00	-0.0037534237
44	0x3b20241c	0.0024435585
45	0x3a329e5b	0.0006813758
46	0x3b6e3171	0.0036345387
47	0xba14ddba	-0.0005678792
48	0xbb41472c	-0.0029491885
49	0x3ac8f354	0.0015331306
50	0x39e1b418	0.00043049525
51	0xba83e77c	-0.0010063495
52	0x3b742707	0.0037254707
53	0x3b22f472	0.002486494
54	0xbb03d500	-0.0020115972
55	0x3aed4107	0.0018101045
56	0x3b71b41b	0.0036881033
57	0xbb3ec6ee	-0.002911027
58	0xbb658236	-0.0035020239
59	0xbb57aa73	-0.0032907992
60	0x3ab1802d	0.0013542228
61	0xbb756160	-0.0037442073
62	0x3b72a4bc	0.003702446
63	0x3b30c0fd	0.0026970499
64	0xbacf45b2	-0.0015813618
65	0xba2ffa1f	-0.0006712991
66	0x3b7c55fd	0.0038503401
67	0xbb8cae2e	-0.004293225
68	0xba99e7a8	-0.0011742013
69	0xbb03a7f4	-0.0020089122
70	0x3ae88332	0.0017739295
71	0x38adc612	8.286176e-05
72	0xb9706f7c	-0.00022929715
73	0xba4f697d	-0.00079121423
74	0xba5fcab5	-0.00085369806
75	0x3b920dc8	0.0044572093
76	0xba6400b4	-0.00086976145
77	0xba850482	-0.0010148438
78	0x3ad5b4e0	0.0016304515
79	0x3a035928	0.0005010539
80	0x3b97987f	0.0046263332
81	0xba71480e	-0.00092041574
82	0x3b070854	0.002060433
83	0x3b83fb2b	0.0040277443
84	0xbb8f5e22	-0.004375235
85	0x3b798427	0.0038073154
86	0xbb767989	-0.0037609062
87	0x3a6cb32c	0.0009029384
88	0xbadf91d8	-0.0017057015
89	0x3b66061b	0.0035098854
90	0xbb191260	-0.00233569
91	0xbb8595e0	-0.0040767044
92	0x3b8cafc8	0.0042934157
93	0x3aab12f3	0.0013051912
94	0x39fc514c	0.00048125756
95	0x3b7df543	0.0038750924
96	0x3b136791	0.002249215
97	0xbb97e062	-0.004634903
98	0xbb985fc2	-0.004650087
99	0x3ad2ce02	0.0016083124
100	0x3b2e24e5	0.0026572284
101	0x39b00fb3	0.00033581033
102	0x3aa0e85d	0.0012276281
103	0xba9dfbd3	-0.0012053199
104	0x3b77ab08	0.0037791152
105	0x3af61a10	0.0018776078
106	0xb97db1f5	-0.00024194254
107	0x3ae0a45c	0.0017138827
108	0x3b67468e	0.0035289857
109	0x3b346714	0.002752726
110	0xb9f5ebd3	-0.00046905744
111	0xbb756dff	-0.0037449596
112	0xb7adac80	-2.0703534e-05
113	0xbb326e6e	-0.0027226466
114	0x3b4506b5	0.0030063812
115	0xbacc4454	-0.0015584328
116	0x3b151c6e	0.002275254
117	0x3b920566	0.00445621
118	0xb9b02771	-0.00033598722
119	0x3b86bd34	0.0041119102
120	0xbb95c0e4	-0.0045701135
121	0x3abb1447	0.0014273011
122	0x3ac0d584	0.001471207
123	0x3b0053ad	0.0019581125
124	0xbaa75544	-0.00127665
125	0x3b835d6c	0.0040089395
126	0xb99c3e65	-0.00029801126
127	0xba91a033	-0.0011110365
