data/model_weights/cv_fold_2_model3_2.pt (torch, 707477 bytes, 29 tensors)

ablang_branch.0.weight f4 [256, 480]
00000000: 84ed 96bd 943a d8bc 3440 fa3b 5d17 4bbd
00000010: 7797 263d 8daf b9bd c32c 94bd 056e f1bd
00000020: 4034 af3c 8779 be3d ec15 b63c 389d 0dbe
00000030: 2544 99bc a6b9 943b 0683 25bd 524e 02be
00000040: 99e6 1d3d 52e2 2a3e 3af9 93bd 2ded 403d
00000050: f19e 1f3d c3a5 92bc e625 90ba 2d3c 22bd
00000060: 7216 6dbd 9804 393d cb54 9dbd a41d 85bd
00000070: aea2 b1bd 3785 503b aa7b e53d 8072 033e
00000080: e39b 233e a7a0 b53d 3c76 15be 898b 963d
00000090: 0f40 0e3d 48bc 163d bbb8 953d 4383 bebd
000000a0: 7500 d53d 861d 3e3d edd9 48bd de68 99bc
000000b0: 3377 d33d 0eb7 1ebd bdd5 c23d 539d f83c
000000c0: f167 e43d 2fd9 b73b 3054 853b ae39 85bd
000000d0: 86f1 e7bd 700e 753d 8a9f 9c3d 61ad 6e3d
000000e0: e97a b9bc 1126 043d f77d 403d ec7e 233d
000000f0: 4201 25bd 694b 6fbd a7f7 b13d 2620 a33d
00000100: 5430 5e3c 8cd5 62bd 9fe8 a83b 0dae 603c
00000110: 17aa 833b ac69 fb3c 4784 493d 1ba0 013d
00000120: 0873 3c3d dcf5 023d 470b aa3d 92df b5bd
00000130: 2988 80bd 11b9 a8bd b390 863c 1f5c c43c
00000140: b1f8 8a3d a73d ebbc 9401 2fbc bc9a b63c
00000150: f04e 2abe c4e8 7d3d e45a 00bd 538d 8d3d
00000160: 9adc c33d 29c2 453d d82b 1fbd 5d8d 7dbc
00000170: 2dd7 f2bc 9ece 993b 0fdc 89bc 2345 573d
00000180: 6e7b 0dbd ba10 35bc 644c aabd 7a95 0fbd
00000190: b494 653d cd44 0fbe 595d 7f3d c2f3 0a3d
000001a0: 433c b93c 6bef 9c3d e7c0 2a3d f5be 7e3d
000001b0: 83e8 b83d 8c03 17be 20a6 54bc ce64 7dbb
000001c0: d296 f03d 63b9 f03d 2c8e b33d b6b9 f3bd
000001d0: 5aea bcbd 982a da3b fc34 de3d 0a2c dabc
000001e0: 9b86 323d 3453 d4bc 0ddb 9038 77e6 1cbe
000001f0: 2b9e e4bc bff0 123d 918a e93c bf69 0bbe
00000200: 7f99 223d d46b 58bb 2bfc a53c 8cfe 84bd
00000210: 3550 c63c d3a0 dfbc d6a6 da3c fafe f4ba
00000220: a41e 703d d413 db3b 022d efbd 9a95 f83c
00000230: 7024 ea3d e51c 23bd e475 653d 7e65 57be
00000240: c7ba 4fbc b5e0 84bd 01b8 46bc 46df bc3c
00000250: b520 103e f761 09bd 861f e6bc 20c0 b7bc
00000260: 914f 3a3d a992 71bd 3b99 91bd cae0 acbd
00000270: 9183 e53c 1951 7abd f593 2bbd f73f 5d3d
00000280: 3be7 4cbd 4b4f b5bd b086 523c 1ccb d8ba
00000290: 0096 ca3c cd0f 36bc 51f5 8e3d 7698 433d
000002a0: 77a3 40bd f3b8 823d 7b1f 17bd 97c6 923c
000002b0: 6d34 b63c 972d cd3c bdbe 57bd 255d 4a3d
000002c0: 8dd0 4c3d d28c fe3c 5fc8 48bd 372e ab3c
000002d0: 49c4 b5bd 172c 97bd 6c09 5cbd b96e ebbb
000002e0: 2427 023e 09b4 9e3d fd8d 1dbc 2843 493c
000002f0: 5b83 7b3d 9889 bcbc 4a77 6a3a 5726 56bd
00000300: 1f61 a0bd 8bc0 febc 6ba0 003b 4b44 053e
00000310: e2fe 493e 081e 393e 401d 64bc e396 043d
00000320: 7fa5 96bc 9425 db3b e748 abba 9cbb b43d
00000330: 5a9f 3f3d 6052 85bc 297a 0ebd cf2f be3d
00000340: e88f 6c3d af43 923d 797c 813d c36f 8bbd
00000350: dd0e 21bd fc75 bfbd 284f bbbc 3079 f7bd
00000360: 8073 203d 9e58 7f3b b760 963c c634 efba
00000370: 1047 1c3d f9f3 8ebb 0fe4 843d 422a f3bc
00000380: db1b 0e3c 8c9d f4bc c2a8 d53c 7de5 c8bd
00000390: 84f9 d0bc 7e9e 033d ebf6 ea3c 39a9 debd
000003a0: 60a2 d73d 8e03 18bb 28a2 6e3c 1cf2 863c
000003b0: 77a0 5dbd 5a3b 10be c3db de3c 6361 c73d
000003c0: 0672 923c bac7 0bbe 6a49 27bd 7c24 5abd
000003d0: 4afd 20bd bc02 5abd 1433 4dbd 7317 9e3d
000003e0: 57ba c8bc 297f be3c 57f6 2c3d b46b 92bd
000003f0: 98b6 553d 6fda 173c baa7 243d f9e5 d7bd
-0.07369521 -0.02639512 0.007637048 -0.049582828 0.040671792 -0.09066687 -0.072351 -0.11788563
0.02138722 0.09300523 0.02222725 -0.13829505 -0.018709252 0.0045387326 -0.040408157 -0.1272519
0.038549993 0.16687897 -0.072252706 0.04710119 0.038969938 -0.017901307 -0.0010997623 -0.03960817
-0.057882734 0.045170397 -0.076821886 -0.06499794 -0.08673607 0.0031817683 0.11205228 0.12836647
0.15977435 0.08868533 -0.14595884 0.07350833 0.03472906 0.036800653 0.07310625 -0.0930238
0.10400478 0.046414874 -0.049035955 -0.018726762 0.1032547 -0.038748793 0.095134236 0.030348456
0.11152638 0.005610607 0.004068874 -0.06505142 -0.11325364 0.05982822 0.07647617 0.058270816
-0.022641616 0.032262865 0.04699513 0.039915964 -0.040284403 -0.058421526 0.08689814 0.07965116
0.013561327 -0.055379435 0.0051546837 0.013713372 0.004018079 0.030690037 0.049198415 0.03164683
0.04600814 0.03197275 0.08302932 -0.08880533 -0.062759705 -0.082384236 0.01642642 0.023969708
0.06785715 -0.028715922 -0.010681529 0.02229058 -0.16631675 0.06198956 -0.03133668 0.06911721
0.09563561 0.04828087 -0.038860172 -0.015475598 -0.02964362 0.00469382 -0.016828565 0.05255617
-0.03454154 -0.011051351 -0.083153516 -0.03505466 0.056050017 -0.13991089 0.062344883 0.03392387
0.022611743 0.07662853 0.041687872 0.06219383 0.09028723 -0.14747447 -0.01297906 -0.003866482
0.11747517 0.1175411 0.087673515 -0.11900656 -0.092243865 0.0066579096 0.1084995 -0.026632328
0.0435854 -0.02591858 6.9072565e-05 -0.1532229 -0.027907452 0.035874125 0.028508456 -0.13614558
0.039697167 -0.0033023255 0.020261845 -0.064938635 0.024208168 -0.027298367 0.026690882 -0.0018691712
0.05862297 0.0066857133 -0.116785064 0.030344773 0.11432731 -0.039822478 0.056020632 -0.2103481
-0.0126788085 -0.06488172 -0.012128831 0.023055684 0.14074977 -0.033540692 -0.028091203 -0.02243048
0.045486037 -0.058977757 -0.071093045 -0.084413126 0.028016837 -0.061112497 -0.04188915 0.05401608
-0.050025206 -0.088530146 0.012849495 -0.0016540023 0.024729729 -0.011112166 0.06980384 0.04775282
-0.047030892 0.063829325 -0.036895256 0.01791696 0.022241795 0.025046153 -0.052672137 0.049405236
0.050003577 0.031073008 -0.049019214 0.02089606 -0.08875329 -0.07381456 -0.053719923 -0.00718483
0.12710243 0.07749183 -0.009616372 0.012284078 0.061404567 -0.023014829 0.0008944167 -0.052282657
-0.078310244 -0.031097671 0.0019626867 0.13014333 0.19726136 0.18077862 -0.013922989 0.03237046
-0.018389462 0.0066878293 -0.0013067991 0.08824846 0.04678283 -0.016274631 -0.03478447 0.092864625
0.057754427 0.07141816 0.063225694 -0.06808426 -0.039320815 -0.093486756 -0.022864893 -0.120836616
0.03917265 0.0038962732 0.018356664 -0.0018249981 0.038153708 -0.00436258 0.06488811 -0.029683236
0.008673633 -0.02986028 0.026081447 -0.098093964 -0.025509603 0.03213357 0.028682193 -0.108721204
0.105290174 -0.0023195478 0.014565028 0.016472869 -0.05410811 -0.14085141 0.0272044 0.09735372
0.017876636 -0.13650408 -0.040841497 -0.05325745 -0.039304055 -0.053225264 -0.05009754 0.07719316
-0.024502916 0.023253994 0.042227115 -0.07149449 0.052176088 0.009268387 0.04019902 -0.10541911

ablang_branch.0.bias f4 [256]
00000000: 36c7 7fbb b091 b63b 8625 40bb d0ec d13b
00000010: c49f 073c 1bda 3b3c da04 293c b005 163b
00000020: 3db4 c93b 52e3 8d3c 7ae0 a63c 533b 9e3c
00000030: 2a4d 633a 28a7 a5bb 530a 8b3c 3dc3 683c
00000040: e296 f43b ccd5 033c 5fae 563a af23 bb3b
00000050: 0370 1a3c 0019 503c 41ae 283c e487 b23a
00000060: fdb6 9f3b 0a1c 003b f8e1 703b 5931 273c
00000070: 800d 8f3c 72fd 7c3c ea5d 103c c829 143c
00000080: 03cd 0dbb d0d1 c33b 55ea a23c 5d10 3c3c
00000090: dc08 283b 569d cc3b 4586 ed3b 483a 773b
000000a0: 8b19 823c 86c5 b0bb 5adf 273b 96fc 973c
000000b0: 0b2a 5dbb d288 633c 01bd 243c 3150 183c
000000c0: 0438 eebb ba62 7c3b 7e3c 603c b7f0 3d3c
000000d0: e93c 7d3c 25e6 483a 0c22 c53b 6d23 d9bb
000000e0: b213 bb3b d89d 633b 2b5c 9f3b d7a7 8337
000000f0: ee2c 103c 5dcd 193c 78f7 f2bb bb93 c43b
00000100: 0da1 443c f0f6 1dba dcc9 de3b d2e7 423a
00000110: 08d7 373b d7f7 113c 35cc 8b3b 956a 04bc
00000120: 097b b93c 1f2d aa3b f593 623b fa69 ac3b
00000130: b8ba 4c3c cba9 963b 1159 e0ba 1ac7 3bbb
00000140: 278e 38bc 6409 833b 30f0 8abb 72e1 0f3c
00000150: 705e feb8 13ed 393c a333 bb3b f451 5b3c
00000160: c917 123b 9b13 7b3b 964e c3bb 9cec ed3a
00000170: 07c1 863c 1349 993b 4235 013c a28f af3b
00000180: d845 9bbb 4697 783b c09e a03b 2d83 aebb
00000190: 9871 04bc 0d8f ffb9 0565 b4ba 68ee 953c
000001a0: d87d 18bb 0d0b c33b d94a 54bb 2b59 92ba
000001b0: cdb9 fdbb c0b4 ff3b 0ac6 a73c d9dc 76ba
000001c0: c49a 973c 6bf3 773b 40ad 8bba e636 953b
000001d0: 3968 bd3b aafc e2bb 8afa 63bb 6443 883c
000001e0: 07b0 de3a 472c b13b 6f64 b63b 34c5 703c
000001f0: 0c39 a13c c3ce 1cbc a18a 793c 46e5 a33b
00000200: bbb6 463c ceaa e93b 3d73 113c c3a0 183c
00000210: 089b f43b 002b 933c a11e 01ba d8e8 2c3b
00000220: edc4 6cbb a9f6 af3b 85d1 e6bb d91b a03b
00000230: 5cb3 26bb 9ea0 50bb 9ad7 273c efa9 5b3b
00000240: 03b6 39bb 45f3 473a 4fc0 083b 4e67 793c
00000250: fb47 1b3c 484d 21bb 7a06 343b c602 803c
00000260: 5ead 643c 15eb bc3a f968 cbbb fe11 84bb
00000270: 538e f03a 4f9d 01bc b83f b03b 337a 1f3b
00000280: 0f49 1c3c 9549 8a3b a64f 103c 4810 d9bb
00000290: ad6b a1ba e9ee 813b ac74 9b3a 6443 1d3c
000002a0: 06a4 723c 8d35 7ebb a860 133c a975 343c
000002b0: 182c 5a3c 45a3 ffba 4c8a 963a 24c0 163a
000002c0: 1539 473c 7fcc cfba 57b3 c23c fafb a83c
000002d0: 043f cd3b 1100 343b 8db4 ed3b 5df7 90bb
000002e0: 7113 063c 483d 513c 8cb6 bab9 2e1e 6a3b
000002f0: fe1c 873c 1430 b03b 7d72 db3b 7590 1c3b
00000300: 4427 443c cf17 293b 2683 ee3a da94 0f3c
00000310: e9b6 133c 2541 9c3b b994 a43c 9146 503c
00000320: b3d7 3e3c b687 1e3c 7fa1 3e3c 5724 89bb
00000330: bb3a 20bc 3d9c 17bb 2022 5abb b589 623c
00000340: da87 903c 11a1 853b 2c20 7a3c 815a 7b3c
00000350: d512 ad3b 09e8 8b3b 02ae c43a ff0e fe3b
00000360: dfe9 0bba b46b 283c 5647 e23b 2adc b33b
00000370: 6732 8a3c 1bb1 233c 18df ab3c cec0 d13b
00000380: 106f ea3a 472b 233c b8c8 5e3a 9ae2 c93b
00000390: e795 083c 1c50 d93b 2d68 dd3b 821d 33bb
000003a0: d339 3f3c 3549 f73b 4b85 383c b387 d6bb
000003b0: 97bd 023c 4d45 f93b 7665 383c 4006 553c
000003c0: 48e1 49bb caff 983c 3b53 053c 823f 1a3c
000003d0: d2d0 ba3b a5ee 343c ec80 a73c 81be b53b
000003e0: eec3 263b 1cf2 153c 5334 d43b 9774 163c
000003f0: 652e 2d3c edfb 323c 9151 b33c 5092 103c
-0.003902865 0.0055715665 -0.002931924 0.006406404 0.008277837 0.011465575 0.010316098 0.0022891574
0.0061555193 0.017320309 0.02037071 0.019315397 0.0008670861 -0.005055327 0.016972696 0.014206705
0.0074642757 0.008046579 0.00081894355 0.005711041 0.00942612 0.012701273 0.010295452 0.0013620821
0.004874109 0.0019547963 0.0036755782 0.0102046365 0.017462492 0.015441285 0.008811453 0.009043165
-0.002163709 0.0059759393 0.019887129 0.011478511 0.0025640046 0.006244342 0.007248672 0.0037723947
0.01588132 -0.0053946404 0.0025615306 0.01855306 -0.0033746983 0.013887601 0.010054828 0.009296463
-0.007269861 0.0038510994 0.013686297 0.011593035 0.015456417 0.0007663689 0.0060160216 -0.0066265375
0.005709135 0.0034731533 0.004863282 1.5694573e-05 0.008799775 0.009387341 -0.0074147545 0.005999056
0.012001288 -0.0006025871 0.006798966 0.00074350566 0.0028051753 0.008909187 0.0042662867 -0.008082052
0.022641676 0.005193367 0.0034573053 0.005261657 0.012495689 0.0045978776 -0.0017116388 -0.002865261
-0.0112643605 0.003998922 -0.0042400584 0.008781778 -0.00012129254 0.011348027 0.0057129427 0.013386238
0.002229201 0.0038311246 -0.005960296 0.001815218 0.016449464 0.0046779006 0.007886233 0.0053576985
-0.0047385506 0.0037931963 0.004901737 -0.005325696 -0.0080837235 -0.0004874397 -0.0013763016 0.018302158
-0.0023268368 0.005952245 -0.0032393245 -0.001116549 -0.0077430964 0.0078035295 0.020480175 -0.0009417064
0.018506415 0.0037834297 -0.0010656491 0.0045536635 0.0057802466 -0.0069270926 -0.0034786784 0.016633697
0.0016989716 0.0054068896 0.005566172 0.014695454 0.019680522 -0.00957078 0.015230806 0.0050016968
0.012128527 0.007130957 0.008877573 0.009315672 0.00746477 0.01796484 -0.00049255235 0.0026383903
-0.003612812 0.0053699804 -0.0070440196 0.004886132 -0.0025436496 -0.0031834017 0.0102442745 0.0033518036
-0.0028337247 0.00076274975 0.0020866578 0.015222384 0.009477611 -0.0024612714 0.002746968 0.015626322
0.01395735 0.0014413322 -0.006207582 -0.004030465 0.0018352963 -0.00791104 0.0053786896 0.002433431
0.009538903 0.0042201974 0.008808052 -0.0066242553 -0.0012315415 0.003965248 0.0011860332 0.009598587
0.014809614 -0.0038789243 0.008995213 0.0110143805 0.013316177 -0.0019503614 0.0011485307 0.0005750677
0.0121596055 -0.0015853791 0.023767157 0.020627964 0.0062636156 0.002746586 0.0072541893 -0.0044240193
0.008183346 0.012770958 -0.00035612693 0.0035723555 0.016493317 0.005376825 0.0066969977 0.0023889814
0.011972252 0.0025801545 0.0018197044 0.008763516 0.009015777 0.004768508 0.020090448 0.012712137
0.011648106 0.009675911 0.011635183 -0.0041852403 -0.009779627 -0.0023133897 -0.00332845 0.013826777
0.017642904 0.0040780385 0.015266459 0.015341402 0.005281786 0.004269604 0.0015005472 0.0077532525
-0.00053372787 0.010279585 0.0069054766 0.005488892 0.016869737 0.009990956 0.020980403 0.006401158
0.0017885882 0.009959049 0.00084985374 0.006161046 0.008336521 0.0066318642 0.0067568035 -0.002733082
0.011671501 0.0075465688 0.011262248 -0.0065469383 0.007979772 0.0076071383 0.011254659 0.013001978
-0.0030804444 0.018676657 0.0081375195 0.0094145555 0.005701163 0.011043225 0.020447217 0.0055463915
0.0025446373 0.009151962 0.006475964 0.009183071 0.010570143 0.010924322 0.02188948 0.008823946

ablang_branch.1.weight f4 [256]
00000000: 9c09 7d3f 337a 7e3f 4091 7e3f e3b4 7f3f
00000010: 4e90 823f 063e 803f 4aa3 833f e405 823f
00000020: 0903 7e3f e511 823f d27f 853f 7771 7e3f
00000030: 3b51 853f ea29 843f 52cd 803f 9163 833f
00000040: 66df 7d3f 623a 7e3f 9401 813f 254f 863f
00000050: 2aa6 7e3f c334 753f aa48 7b3f f8a2 813f
00000060: 54ac 803f 31e0 823f 33e6 7b3f 2495 803f
00000070: 2701 843f 91cb 7b3f 0798 803f c6fd 803f
00000080: 7b82 823f 3c4c 763f dc1e 873f a500 783f
00000090: 2b5d 813f b583 803f ca28 803f 0ec6 7f3f
000000a0: f8b7 873f 679d 7a3f d0ac 763f 8ba5 823f
000000b0: 02b9 7d3f ee28 823f f897 803f cdc3 7f3f
000000c0: a6ff 833f 17a8 7f3f 031d 803f 1495 823f
000000d0: 0048 7e3f 401c 7f3f 6d89 853f 5251 763f
000000e0: 7b81 813f f374 7e3f c20c 813f 7e57 823f
000000f0: a8b6 7b3f b5ae 7f3f e811 803f 76f4 853f
00000100: 21c0 7b3f 2c3a 7c3f 788d 813f b279 7f3f
00000110: 1868 803f f993 853f 8a1b 7f3f d9d3 833f
00000120: 1934 803f 316e 813f 8d39 823f 1c1d 7c3f
00000130: 26c3 7e3f 0e70 7e3f 60eb 7b3f 8ba9 7f3f
00000140: a9c8 843f 6082 813f 5b1a 873f 74cf 813f
00000150: f6ee 823f 43fc 813f b1b9 763f e56c 893f
00000160: 99d6 753f 32f0 773f 44ec 7d3f b440 803f
00000170: 73e4 833f 84d1 7a3f bd00 823f b54a 783f
00000180: 3352 903f 7f2f 833f 9945 823f 3a37 793f
00000190: ae8f 7a3f c912 7f3f 37b0 833f 84e6 823f
000001a0: ca93 793f 1a1d 873f f0af 803f 9bb0 833f
000001b0: 3aaf 833f 966c 7e3f 790f 853f 495e 773f
000001c0: ce99 7f3f 16ca 7b3f f162 7f3f 4e7c 7e3f
000001d0: e20d 853f a121 813f ff99 853f 8c12 803f
000001e0: 9976 7d3f 5557 7e3f 5445 813f dc6a 7f3f
000001f0: 0aaf 893f f120 783f 6556 843f 46d3 803f
00000200: 667b 7e3f 7ac7 823f 5c50 813f 1739 7e3f
00000210: 9234 853f 12cc 763f 2f84 7d3f a4db 833f
00000220: 4d15 7c3f bad7 833f 2060 843f b43c 7b3f
00000230: 6aba 793f cdbf 833f 4f75 823f 673e 7d3f
00000240: 84c5 763f 9b24 7b3f 1ea3 833f ad5d 7c3f
00000250: 6299 7f3f 0e03 883f e9e4 813f 6a1f 7f3f
00000260: 1270 7f3f 9b49 843f 1276 873f 1f1c 803f
00000270: dd8a 773f bb07 863f e892 7f3f 9f41 813f
00000280: 3864 813f 5156 803f 9729 783f ec7e 7d3f
00000290: 26e3 7a3f d84f 7b3f f189 813f bf00 7f3f
000002a0: 4c43 823f 42d5 823f 8177 803f 5614 803f
000002b0: cb85 813f 9e73 793f 2f22 853f 58b5 813f
000002c0: 395c 813f 8250 753f 274d 883f af21 833f
000002d0: 78f0 823f 0f6a 773f fba0 7a3f e273 833f
000002e0: 4784 7e3f 47f0 773f 3922 7e3f 4993 823f
000002f0: 5b99 7d3f 1f8c 803f ca36 823f 3e58 803f
00000300: 4820 7f3f 3640 803f 35ac 803f 38d2 803f
00000310: be17 823f 75ee 773f a13e 853f 256a 803f
00000320: 55d3 823f 985b 743f c60f 823f 61ac 793f
00000330: 6c9f 7a3f 8609 833f c26a 843f bde3 793f
00000340: 8320 803f c4d4 7f3f 697c 7f3f 53c8 873f
00000350: fa1c 823f 8b16 823f 4c49 7b3f ac9c 7f3f
00000360: b920 833f 0694 7e3f ffba 813f bbcc 813f
00000370: 7ea9 7e3f e9f0 833f 97be 843f 559b 823f
00000380: caee 7b3f 2225 7d3f 327b 753f 0019 773f
00000390: f1aa 823f 5325 823f a474 803f 9e20 833f
000003a0: f702 7c3f 478f 7c3f e41c 7e3f 395e 763f
000003b0: 43db 7f3f cc48 803f 120d 7f3f 8141 833f
000003c0: 20c7 803f 1bce 823f 2bc9 803f 790a 813f
000003d0: a3ce 7a3f 3557 773f 7108 793f 38bd 833f
000003e0: 1b2c 8c3f 5f68 893f 216b 7c3f fc19 7b3f
000003f0: e780 7d3f d35a 7c3f daea 7d3f 426d 823f
0.9884279 0.9940521 0.99440384 0.99885386 1.0200288 1.0018928 1.0284207 1.0158048
0.9922338 1.0161711 1.0429633 0.99391884 1.0415415 1.0325291 1.0062659 1.026476
0.99169004 0.99307835 1.0078607 1.0492903 0.99472296 0.95783633 0.9815775 1.0127859
1.005259 1.0224668 0.9839813 1.0045514 1.0312852 0.9835749 1.0046395 1.0077446
1.019607 0.96210074 1.0556293 0.96875983 1.0106558 1.0040194 1.0012448 0.9991158
1.0603018 0.97896427 0.9635744 1.020677 0.99110425 1.0168741 1.0046377 0.99908143
1.0312393 0.9986586 1.0008854 1.0201745 0.99328613 0.9965248 1.0432564 0.96217835
1.0117639 0.993972 1.0082018 1.018295 0.98325586 0.99875957 1.0005465 1.0465229
0.9834004 0.98526263 1.0121298 0.9979507 1.0031767 1.0435783 0.99651396 1.0299026
1.0015899 1.0111753 1.0173813 0.9848192 0.9951652 0.9938973 0.9840603 0.9986808
1.0373737 1.0117912 1.0554918 1.0141435 1.0229175 1.0155109 0.9637709 1.0736357
0.96030575 0.96850884 0.9918864 1.0019746 1.0304092 0.97975945 1.0156475 0.96988994
1.1275085 1.024887 1.017749 0.97349894 0.9787549 0.9963804 1.0288152 1.0226598
0.97491133 1.0555756 1.0053692 1.0288271 1.028785 0.9938444 1.0395347 0.9662824
0.9984406 0.98355234 0.9976035 0.99408424 1.0394862 1.0088388 1.0437621 1.000566
0.9900909 0.9935201 1.0099282 0.9977243 1.0756543 0.96925265 1.0338866 1.0064476
0.9940704 1.0217125 1.0102649 0.9930586 1.0406668 0.96405137 0.9902982 1.0301404
0.9847 1.030021 1.0341835 0.981395 0.9755007 1.0292908 1.019205 0.98923343
0.96395135 0.9810273 1.0284154 0.9858044 0.9984342 1.0625932 1.0147983 0.9965731
0.9978038 1.0334963 1.0582907 1.0008582 0.96696264 1.0471109 0.99833536 1.0098151
1.0108709 1.0026342 0.9693846 0.9902179 0.9800285 0.98168707 1.0120221 0.99610513
1.0176787 1.0221331 1.003647 1.0006206 1.0118955 0.9744204 1.0401057 1.0133467
1.0106269 0.9582597 1.0648545 1.0244654 1.0229635 0.9664621 0.97901887 1.026974
0.9942059 0.9685101 0.9927097 1.0201198 0.99062127 1.0042762 1.017297 1.0026929
0.9965863 1.0019596 1.0052553 1.0064154 1.0163496 0.9684823 1.0409738 1.0032393
1.0220743 0.9545226 1.0161064 0.97528654 0.9789951 1.0237281 1.034508 0.97613126
1.0009922 0.9993403 0.9979921 1.0608009 1.0165093 1.016313 0.9815872 0.9984844
1.0244361 0.99444616 1.0135192 1.0140604 0.99477375 1.0307895 1.0370663 1.0203654
0.9841124 0.98884785 0.95891106 0.9652252 1.0208417 1.016764 1.0035596 1.0244329
0.98442024 0.98656124 0.99262834 0.9623752 0.9994394 1.0022216 0.9962932 1.0254365
1.0060768 1.0219148 1.0061392 1.0081321 0.9797155 0.9661744 0.97278506 1.029212
1.095096 1.0734977 0.98600966 0.98086524 0.99024814 0.98576087 0.9918648 1.0189593

ablang_branch.1.bias f4 [256]
00000000: 9277 a2bb d8d3 393a a2cd f7bb 73fb 92ba
00000010: 637c f5bb d066 d93b 0095 a8b9 4e63 28bd
00000020: 7e39 6abb e8b5 963b 8830 eb3b f13b 983b
00000030: 858e 23bc db07 8fbb a361 f7bc 6583 bc3b
00000040: cbef ffba 3585 af3b 36f8 d6b9 dafc 9cbd
00000050: 6861 efbc fa63 01bc a0f3 04bb 0d0f 09bd
00000060: 44f2 89bb 2055 af3b 31a8 22bd a9d3 0c3b
00000070: 202d 243c 809c 62bc 31e9 5bbd f456 5aba
00000080: 429e 92bb a3b8 b7bc def2 3cbb 3e59 c8bb
00000090: d66e 3fba 7ede 2b3b 4665 303c 52b5 9739
000000a0: c967 e83a 25a0 acbc a4e5 2fbc 004c 843b
000000b0: 4afc a0bb 1c7c e03a 986b 20bb 575f df3b
000000c0: 30aa 28bd 071d 0bbc c55d 0abb 45c1 263b
000000d0: e925 2cbc 22a0 ddbc 3f25 cfbc 0aad 42bc
000000e0: 2a07 993b 56ce 4abd 1769 873b b037 e6bc
000000f0: 63b4 783b 9fe6 10bb 7d17 c3bc 3671 67bc
00000100: 1257 a2bb 0c71 92bc 4b98 c2bb 7bda 0cbb
00000110: ed9f 403b 4ccd 173c 2fa6 fe3a e1bb 2fbd
00000120: 7486 783c 5c9b 8938 f3d5 06bd 8a5e 33bb
00000130: 6275 af3b dd2b fcbc 46b5 1dbd a3ad c8bb
00000140: 5d28 8ebc ff85 d2bc 4785 39bb 524e 2abc
00000150: 5608 abba 5027 efba a439 ebbb fb91 b43a
00000160: 9ad0 d5bb cbbc 6dbc 8537 64bc d7f4 0bbc
00000170: a9ec e23a 6ad5 fabb b2dc b4bc 127e 22bd
00000180: 833d 84bb 8782 843b 8275 7abc 0448 81bc
00000190: 738a 76bc 8394 e4bb e3d9 70bb 6111 c23b
000001a0: c1e2 77bc 9ad9 f33b 357b 37bd 7032 bbb9
000001b0: c214 21bd 8622 39bd 07e0 093c 3c90 4bbc
000001c0: 2b75 843a df7a e9bb 71bd 07bd e1c3 cebb
000001d0: 55ff a3bb dbef 26bc 5fd6 a3ba 0a1f 93bb
000001e0: 2e31 0abc ea4b 993b 3697 aabb 4534 a03a
000001f0: bcb9 f8bb d888 e0bc 5840 983b 1389 bfbb
00000200: c25c b8b9 7978 0bbd 74c3 e8b9 6a5f 9cba
00000210: 579f 47bc 6050 f73b 6d04 1cbd e404 8c3b
00000220: d5aa d7bc b62a 553b 2c1e bebb fcca 1dbc
00000230: 8254 81bc 2ca5 51bd 20fd 24bc 9445 b2bb
00000240: 3a42 2abc 15bb adbb 2c6b 95bc 3f65 05bc
00000250: 7a71 aebb 2b01 7cbc eec8 f33a 6967 e73b
00000260: 06ef 8ebc 9496 5b3b 6be1 0abc d12b 6dbb
00000270: 1ce2 24bd ac0b 5fbd ccda b43b be17 013a
00000280: c336 afba a293 343b db34 a3bc dc1a d3bc
00000290: 1c46 bfbc 0eaf aabc c214 333a c8ca 57ba
000002a0: de4b 8fba 6555 06bd 3e4d 69bc d661 533a
000002b0: eff3 863a a00b 94bc 7010 533b 6ea2 f9bc
000002c0: 9c89 ad3b 5b3e 09bd 06b2 043c d4cb 183c
000002d0: 672e bebb d320 36bc 116c 98bc 4cc8 5bbd
000002e0: e9db cdbc 1f65 d7bc e0b1 01bc 524a 2c3b
000002f0: 75f4 c13b 5b0d 813b 65f0 c4bc 41c8 b5ba
00000300: 8283 b4bb 22c3 6c3a 283e 71bb 1fb3 523b
00000310: 18da 91bc 6809 1abc c692 a63b f7d3 acbc
00000320: c8b3 5fbd d872 cabb ea97 84bb 5de7 90bc
00000330: 124e 0ebd b10c 98ba 54c9 60bd 0a34 ccbb
00000340: 1beb e83b b280 92bc d61f bf3b 2b2a 21bc
00000350: ce1d af3b dc43 dabc 7606 e9bb fb31 a6bb
00000360: 5bf4 24b9 4c6d 8d38 dd76 e4bc d9e1 c238
00000370: 23a4 78bb 6706 21bd 2f34 a03b 088c dc3b
00000380: 9ff0 89bc 7d97 7d3b 2cf6 81bc fb10 a7bc
00000390: 716d eeba cf87 b3bb 28d1 b8ba 2a3c eeb9
000003a0: 7d86 ae3b e2e2 243b d7e5 4cbb 32ca 86bc
000003b0: 1520 e73a d806 42bc 56aa e23b 55d8 19bb
000003c0: 1176 94bb 3222 4c3b ff3a 8cbb a77d 6cba
000003d0: 7d77 9bbc 95ca c1bb d1e0 9bbc 8a13 373b
000003e0: 08bf 56ba 9ddb 58bc 541c 88ba 2f91 a3bc
000003f0: f7e1 ac3b 998d 1dbb 2cff f23b a781 02bb
-0.0049581015 0.0007088757 -0.007562355 -0.0011213854 -0.0074916347 0.0066345707 -0.0003215447 -0.04111033
-0.0035739834 0.0045993216 0.0071774162 0.0046458174 -0.00998271 -0.00436495 -0.030197924 0.005752968
-0.001952642 0.0053564557 -0.00041002192 -0.07665415 -0.029221252 -0.007897371 -0.0020286813 -0.03346162
-0.0042097885 0.005350724 -0.03971118 0.0021488464 0.010020524 -0.013831258 -0.053689186 -0.0008328997
-0.004474432 -0.022426909 -0.0028831284 -0.006114154 -0.00073025876 0.0026225145 0.010766333 0.00028936059
0.0017731126 -0.021072457 -0.010735903 0.00403738 -0.0049128877 0.0017126831 -0.0024478193 0.0068167853
-0.04117793 -0.008490807 -0.002111302 0.0025444787 -0.010507085 -0.027053896 -0.025286315 -0.011882076
0.0046700435 -0.049513184 0.0041324007 -0.028102726 0.0037949316 -0.0022110117 -0.023814911 -0.014126113
-0.0049542272 -0.01787617 -0.005938565 -0.002149253 0.0029392198 0.009265255 0.0019428189 -0.042903785
0.015168775 6.561607e-05 -0.03291888 -0.0027369582 0.0053545693 -0.030782634 -0.038502954 -0.0061242147
-0.017353231 -0.02569866 -0.00283082 -0.01039465 -0.0013048749 -0.0018245969 -0.007178502 0.0013776416
-0.0065251114 -0.014510344 -0.0139292525 -0.008542261 0.0017312962 -0.0076548355 -0.022077892 -0.03967101
-0.004035653 0.0040438804 -0.015286805 -0.01578141 -0.015047657 -0.006975712 -0.0036750964 0.005922482
-0.015129746 0.0074417116 -0.044795234 -0.00035704998 -0.039326437 -0.04519894 0.008415229 -0.012424525
0.001010572 -0.007125243 -0.03313965 -0.0063099717 -0.005004803 -0.010189022 -0.0012499801 -0.004489784
-0.008434577 0.004678239 -0.005206014 0.0012222609 -0.0075905006 -0.027409002 0.0046463422 -0.005845198
-0.00035164325 -0.03405044 -0.00044396112 -0.0011930291 -0.012183986 0.0075474232 -0.03809016 0.004273044
-0.026326576 0.0032526678 -0.0058019366 -0.009630915 -0.015787367 -0.05118291 -0.010070115 -0.0054404233
-0.010391766 -0.005301843 -0.01823958 -0.008141815 -0.005323586 -0.015381138 0.001859931 0.007061888
-0.01744796 0.00335065 -0.008476595 -0.0036189447 -0.040254697 -0.05445449 0.0055192467 0.00049244973
-0.0013367761 0.0027553816 -0.019922664 -0.025769643 -0.02334886 -0.020835426 0.0006831401 -0.0008231816
-0.0010932644 -0.032796282 -0.014239607 0.000806359 0.0010296087 -0.01807195 0.0032205842 -0.03047296
0.0052959453 -0.033506732 0.008099085 0.00932594 -0.0058038714 -0.011116224 -0.018606218 -0.053657815
-0.025129275 -0.026293335 -0.007915944 0.0026289416 0.005919034 0.0039383597 -0.02404041 -0.0013868884
-0.005508841 0.00090317626 -0.003681073 0.0032150222 -0.01780419 -0.009401657 0.0050834147 -0.021097166
-0.054614812 -0.006178241 -0.00404643 -0.017688448 -0.034742422 -0.0011600462 -0.0548795 -0.0062317895
0.007108105 -0.017883632 0.0058326526 -0.009836714 0.005344129 -0.026643686 -0.007111366 -0.005071876
-0.00015731288 6.743762e-05 -0.02788871 9.292708e-05 -0.003793963 -0.039312746 0.0048890333 0.00673056
-0.01683837 0.003869503 -0.015864454 -0.02039384 -0.0018190575 -0.005478836 -0.0014100419 -0.00045439723
0.005326091 0.0025159647 -0.0031264925 -0.016453836 0.0017633463 -0.011842452 0.0069172783 -0.0023474891
-0.004530676 0.0031148312 -0.004279494 -0.0009021409 -0.018977875 -0.0059140422 -0.0190281 0.002793523
-0.0008191918 -0.013235954 -0.0010384419 -0.01996669 0.0052759605 -0.0024040698 0.0074156728 -0.0019913705

ablang_branch.4.weight f4 [128, 256]
00000000: 3ef5 cebb 3caa c8bd 1e42 c83c 16a0 353d
00000010: ba0c 1bbd 35b1 9dbc de50 3e3c 2d7d 023b
00000020: 21ca 9abc dc59 24bd daaa d8bb 6ca3 293e
00000030: 5e08 72bd 46a3 3dbe 7966 0fbe 1e1d ffbc
00000040: 451a cc3d 7067 44be ad33 a73d 2c70 04bd
00000050: ade1 9bbd 401b 3e3d 1523 133a 7b6b 103d
00000060: ec07 fabd 7580 f53d 4fb1 41bd 0ac9 08bc
00000070: b83e 32be c997 9a3d d472 c93d 8f19 8b3c
00000080: 3fa6 d13d 02a6 2d3e f4ce cebd 3d1b b9bd
00000090: 1221 033b 4384 36bd 836b 67bc 1be6 9bbd
000000a0: f3bd 88bd ced8 d73d e3dd d53b 6bc5 14be
000000b0: 6d49 063a 6577 c9bd c340 b7bd 0403 d2bd
000000c0: 0e01 1abd 35a9 1abe ff22 77bb 838a fc3c
000000d0: ae0b e4bd d774 fc3a 884a 9e3d 7274 e23d
000000e0: a045 9abd 8493 1fbe 12a7 933c 391f 4cbd
000000f0: fcfe dd3c 6858 e83d 2835 c13d 3c6c 4cbd
00000100: 3d00 a43d 2f2f 293d 80d6 c2bd 7b66 f93d
00000110: 2763 a3bd 8c13 57bd c4c9 b23d df62 123c
00000120: 47fc 0fbc cb0c f43c bddb babd 6ac0 2dbd
00000130: 7ea3 df3d 2ac4 94bb c1ac 213e 7cc2 a5bd
00000140: 65dc f3bd 6ccf 3fbd 50f6 7d3c d1a1 90bd
00000150: 3df6 fe3b 0a4a 1fbe 31c4 ae3d d93a 5b3d
00000160: 692b adbd 1033 eeba 4b5b 043b 7e83 23be
00000170: 4368 01bd e84d f33c d8ad da3c 44ad c63a
00000180: 6e9f 00be 160c f03d af94 c83c d12d 523d
00000190: b3bc 633d c735 253d d489 f93d 85e9 263e
000001a0: 6b38 573d 03cf 033d b02d d13d 00a5 edbd
000001b0: d60f 99bd 87d5 093d 1e7f e73c 8229 a6ba
000001c0: b43e 3f3d 9181 8abd 9a0a e8bd 8d4a 713d
000001d0: 320d 26be 2b44 1bbe 4857 febd 0825 44be
000001e0: 7fea e23d fb88 5f3d f449 413d 34cc 99bc
000001f0: 597f a83d 6ba5 8a3d 4fe5 bcbd 9b39 b5bd
00000200: 5448 883d 47aa bfbd 20b6 763d 8295 1b3e
00000210: 6c29 063c a2b2 4f3d f91c 223d d563 b83d
00000220: aaf6 dabc 4bcc 613d 0c04 773d 0807 663a
00000230: 5b99 cc3c a66c b53d b028 963d c928 27bd
00000240: 4048 723d 2648 de3d 8cac 65bd d1f1 ac3d
00000250: 6569 ffbc b8ea 5c3d 3c34 df3d 1480 37be
00000260: 44a0 54bd 81a6 aa3c 7de6 7b3c de23 8b3c
00000270: dbc4 713e 96fb 003e e27a 513d c270 993d
00000280: 1743 51bc 16ad 97bc d5f0 193d 5e56 223e
00000290: 8e72 7bbc 5ee7 773b 6324 df3d e8d9 14be
000002a0: c6b0 f7bd 0919 10bd 325a 7c3c d37c 1fbd
000002b0: 2274 cfbd ef19 0ebe fc88 7d3d ac5d 03be
000002c0: da52 d53c c7d2 8b3d db38 f63c 8782 debd
000002d0: 7d72 d2bd 518d 57bc de33 dc3c 127d efbc
000002e0: 5c1b 75bd b4ac ac3c 38e5 823d b10e 93bd
000002f0: 66b3 3dbb 6851 123e 6a6d be3c 7b89 093e
00000300: 881d 76be ee6b e03d 10dc a7bc 8309 953d
00000310: 033c 88be 42ba 1cbe f807 8b3d 8a1e af3d
00000320: ad1d 693c ef60 b6bd f18b 303d 1d27 b93c
00000330: 7ecd fc3c b05c eb3d 6520 8cbc 3f25 dabd
00000340: 5438 3e3e b70d ed3c 3b4e d6bd b5d2 823c
00000350: 089a 263d e548 09bd 5bbe 86b9 5ce2 523d
00000360: cedd 0cbd 4355 233e cf34 373e 95c1 423d
00000370: 4213 2bbe 7f41 a0bd a01d ca3d bc67 1ebd
00000380: b891 eabc a5f2 223e 21f7 81bd b690 46be
00000390: 0778 46bd bea0 3fbd 9bc5 6e3d 34ca 22bc
000003a0: aa41 b23d 04e6 053d d448 893c 1f48 c6bc
000003b0: a9b8 a9bc e486 a5bd e589 99bd ec9c ccbd
000003c0: d50a 1f3e 5187 923d 14d7 7dbd 424f 79bd
000003d0: 427d 14bd cb48 d7bd 3dca b43d c0ae e43c
000003e0: f682 8bbd 6722 f1bd c718 55be fbdf d93d
000003f0: f669 12be 701c 7dbc f6e7 7ebd 6a02 b3bd
-0.0063158562 -0.09798095 0.02444559 0.044342123 -0.037853934 -0.019249538 0.01161596 0.0019911036
-0.01889521 -0.04012476 -0.006612164 0.16566247 -0.05909001 -0.18519315 -0.14003934 -0.031141814
0.09965948 -0.19180083 0.08164153 -0.032333538 -0.076114036 0.046412706 0.00056128326 0.03525875
-0.12208542 0.11987392 -0.047288235 -0.008348713 -0.17406738 0.07548482 0.09836355 0.01697996
0.10236787 0.16957858 -0.10098067 -0.090383984 0.0020008725 -0.04455973 -0.014124754 -0.076122485
-0.06676855 0.10539399 0.006526695 -0.14528434 0.00051226356 -0.09837226 -0.08947899 -0.102544814
-0.037598662 -0.1510361 -0.0037710068 0.030827766 -0.1113504 0.0019260895 0.077290595 0.110573664
-0.07532811 -0.15583616 0.018024001 -0.049834464 0.027099125 0.11344987 0.09433967 -0.049907908
0.08007858 0.041304763 -0.09513569 0.1217775 -0.07977896 -0.052508876 0.0872989 0.0089347055
-0.008788175 0.029791256 -0.09123943 -0.04241983 0.109198555 -0.004539986 0.15788557 -0.080937356
-0.11907271 -0.046828672 0.01550062 -0.07062114 0.0077808187 -0.15555587 0.08533514 0.05352292
-0.084555455 -0.0018173177 0.0020196016 -0.15968129 -0.031593572 0.029700235 0.026694223 0.0015157838
-0.12560818 0.11721055 0.02448496 0.051313225 0.05559988 0.04033449 0.12184492 0.16300018
0.05254404 0.032179844 0.10213792 -0.11603737 -0.074737236 0.0336509 0.028258856 -0.0012677165
0.046690658 -0.06762994 -0.11330147 0.058908988 -0.16215971 -0.15162723 -0.12418991 -0.19154751
0.11079883 0.054573994 0.047189668 -0.01877413 0.08227415 0.06769832 -0.09223425 -0.08848878
0.066544205 -0.0935865 0.06023228 0.15193751 0.008188587 0.050707467 0.03957841 0.090034164
-0.026728947 0.05512647 0.060306594 0.00087748514 0.02497547 0.08858614 0.07331979 -0.04081038
0.059150934 0.10853605 -0.056072757 0.0844456 -0.031178186 0.053934783 0.10898635 -0.17919952
-0.051910654 0.020831348 0.015374777 0.016984876 0.2361025 0.12595972 0.05114258 0.0749221
-0.012772343 -0.018515151 0.03758319 0.15853259 -0.015347136 0.0037827115 0.10895612 -0.1453625
-0.12094264 -0.035180125 0.015402364 -0.0389374 -0.101295725 -0.1387708 0.061898217 -0.12828702
0.026040483 0.06827312 0.030056408 -0.1086474 -0.10275743 -0.013156251 0.026880201 -0.029234443
-0.059840545 0.021078445 0.06391376 -0.071805365 -0.002894604 0.14288867 0.023245532 0.13431351
-0.24034703 0.10958086 -0.020490676 0.07277205 -0.26608285 -0.15305427 0.06788629 0.08550747
0.014228267 -0.08905207 0.04310221 0.022601658 0.030859705 0.11492288 -0.01710529 -0.106516354
0.18576175 0.028937204 -0.1046414 0.015969614 0.04067424 -0.033516783 -0.00025700298 0.051485404
-0.034391217 0.15950494 0.17891239 0.047547895 -0.16706565 -0.078249924 0.09868932 -0.038673148
-0.028633937 0.15912874 -0.06345964 -0.1939114 -0.04845431 -0.046784155 0.05829392 -0.009935904
0.08703931 0.032690063 0.01675836 -0.024204312 -0.020717936 -0.08082369 -0.074970044 -0.09990868
0.15531476 0.07154716 -0.061972693 -0.0608666 -0.036252268 -0.10511931 0.088276364 0.027915359
-0.06812088 -0.1177414 -0.20810233 0.10638424 -0.14298233 -0.015448675 -0.062232934 -0.08740695

ablang_branch.4.bias f4 [128]
00000000: 0207 cebb b1a4 dbbc bfc3 71bc fcab 1dba
00000010: df64 50bd bcff 8bbc fdac 8bbb 3f79 f93c
00000020: 1d1e 66bc d384 b03c 78a1 cb3b 9934 2bbd
00000030: 69a3 f13c fc5d 853b 4a2a 583c b680 1d3d
00000040: 456c d53c 5dac 3cbd a61e 93bb ff9a 8abc
00000050: 8980 aabc 16f0 173a 55a7 93bb 81ba 9e3b
00000060: 9438 4e3d f08a 1c3c bfb5 123d a364 a73c
00000070: 7545 6d3c 6e97 f6bc 9c46 2ebc b54b 4fbc
00000080: 3366 3dbd 6738 0fbc 03d5 2bbd 3b91 043c
00000090: 6ae1 813a d941 3cbd 7e84 f2bc 6cec 393c
000000a0: 459b 2fbc 7264 e5bc c61d 033c df10 963b
000000b0: e81e 483b 6880 cebc 467f 2c3c 3728 7a3c
000000c0: a900 f33b cb0a 0d3c c7dc fd3a 878e 533c
000000d0: 59c6 a13c 497b 7d3c cb9d e6bb e756 8c3c
000000e0: 2c96 52bd 658b 213c fb89 0e3c 2815 673c
000000f0: c7df 0fbd 5d1f 2cbc aeb2 3e3b b415 3cbb
00000100: 5fe1 cfbc a99d ea3c c839 1e3b 00d9 9ab9
00000110: 4f86 3ebd 34ac 93bb 03f5 223c 25f4 753c
00000120: 79a6 883b 7c92 783c 0b66 433c 4e7f e4bb
00000130: 1ed1 f2bc ad86 00bd 1891 38bc c68d 4e3c
00000140: a473 4a3c 4382 03bc 798c 903c 0f53 9bbb
00000150: 3711 b63b f987 cfbb 60cf da3c adcb 2bbd
00000160: 1fcf 26bc 1406 a5bb 1445 073a 3f54 253b
00000170: 3358 99bc 2fe0 6b3c 685b 3c3b 5861 28bd
00000180: 7d93 94bc 5638 0c3d d2a6 31bd d6f9 673c
00000190: d0c8 94bc efdd 343b 0b50 4bbc 3409 693c
000001a0: 1b1a 703b 1911 aabc d580 02bd 7b30 82bc
000001b0: 726c 993b 28a3 e5bc bd06 f03c 7dde fcbc
000001c0: 5c6a db3c a3f6 8b3a 5e10 e7bc cd4e 9a3c
000001d0: 19de 063b 9bdd dfbc 14fd 193c 2f53 a4bc
000001e0: 4985 243c 4f3d 38bc 428c 18bd d65a e6bc
000001f0: 4cc0 0cb9 59a7 64ba d065 4d3c c4f0 523b
-0.0062874565 -0.02681193 -0.014756142 -0.00060147024 -0.05087745 -0.017089717 -0.004262565 0.030453322
-0.0140452655 0.02154771 0.006214317 -0.041798208 0.029496865 0.0040700417 0.013193676 0.038452826
0.026052603 -0.046062816 -0.0044897376 -0.016919611 -0.020813243 0.00057959685 -0.0045060315 0.0048440103
0.050346926 0.00955461 0.035817858 0.02043373 0.014481892 -0.030101504 -0.010636952 -0.012652327
-0.046240043 -0.008741475 -0.04195119 0.008091266 0.0009909098 -0.045961235 -0.029604193 0.011347871
-0.0107181715 -0.028001998 0.008002704 0.004579648 0.0030536 -0.025207713 0.010528391 0.015268377
0.00741585 0.00860853 0.0019368165 0.012912399 0.0197479 0.015471288 -0.0070378534 0.017131282
-0.051412746 0.009859894 0.008699889 0.014104165 -0.03512552 -0.010505524 0.00290982 -0.002869946
-0.02537602 0.028639631 0.0024143327 -0.00029534847 -0.046514805 -0.004506612 0.009946111 0.015011822
0.0041702357 0.015171643 0.011926184 -0.0069731837 -0.02964073 -0.031378437 -0.011265062 0.012607044
0.012356672 -0.008026662 0.017645108 -0.004740126 0.0055562514 -0.006333348 0.026710212 -0.041942287
-0.010181217 -0.005036125 0.0005160135 0.0025227217 -0.018718814 0.014396711 0.0028741006 -0.04110846
-0.018136734 0.034233414 -0.043371983 0.014158687 -0.018162161 0.0027598103 -0.01240922 0.014223386
0.0036636654 -0.020760106 -0.031861145 -0.015892258 0.004682117 -0.0280319 0.029300088 -0.03086781
0.026784115 0.0010678362 -0.028206047 0.018836403 0.0020579158 -0.02732735 0.009398717 -0.020059196
0.010041543 -0.011245086 -0.037243135 -0.028119486 -0.00013423077 -0.00087224465 0.012536481 0.0032186965

ablang_branch.5.weight f4 [128]
00000000: 8d24 793f ba11 7f3f c7fe 783f 8e0b 7a3f
00000010: 859a 763f 2358 7b3f cb91 803f 0f63 743f
00000020: 8be6 7a3f 3a9c 823f 91ff 813f 3520 7e3f
00000030: 77db 803f 9473 813f 6bd9 843f 3bb4 823f
00000040: 9e7d 833f 1463 773f 1426 783f bcbc 793f
00000050: c82e 763f f4b0 7e3f b2c3 7e3f fd53 7c3f
00000060: 0f51 823f 0bca 7d3f 29a9 823f 0ecb 823f
00000070: b6b2 7b3f 0db2 763f ace9 7a3f 042b 783f
00000080: d0fb 823f 3733 813f 68e4 803f 9841 7f3f
00000090: 24fb 803f 7515 773f 9116 7d3f 8ef9 7a3f
000000a0: 95b1 7f3f 1cd5 793f c508 833f 5e58 7c3f
000000b0: faa1 793f 4cfa 773f 3ccd 7e3f 49ff 783f
000000c0: 297c 7b3f 956d 803f c14a 7c3f 3f11 823f
000000d0: 05cf 773f 8baf 7a3f 2eeb 7e3f 478b 823f
000000e0: ac86 803f 82f3 7e3f 7264 813f f0fb 803f
000000f0: 03b2 803f 44cf 7e3f abb3 7e3f fd6c 7f3f
00000100: b93d 753f 74f0 803f 693c 7e3f d02b 7a3f
00000110: cf17 7c3f 40a8 7c3f c608 7f3f 3d9a 803f
00000120: dc20 803f 5a37 813f 425a 7e3f 47bf 7b3f
00000130: 3442 803f 678d 7e3f 4961 7c3f af3c 813f
00000140: 2f31 813f 9d92 753f 69ac 823f d851 743f
00000150: c804 813f 7296 703f 1295 7f3f 455e 793f
00000160: 321b 7c3f e05d 793f 5a24 793f dc81 7b3f
00000170: 779d 743f f730 833f c1a4 7e3f fa24 803f
00000180: e94c 783f f017 843f ea53 7d3f 9ded 803f
00000190: f4af 783f 5d6f 7a3f ba88 7c3f 4850 823f
000001a0: 8fd5 7b3f 4661 803f ddf0 703f 82dc 763f
000001b0: 204a 7a3f bb30 783f 06b0 833f d400 793f
000001c0: 2446 843f 83db 7d3f fb54 763f 340a 7f3f
000001d0: bbb8 7c3f e34b 773f 8863 7b3f c371 7a3f
000001e0: 1390 803f dc21 7b3f bedd 753f 748f 7b3f
000001f0: 7639 823f a581 813f 12a2 813f 529c 7a3f
0.973214 0.99636424 0.9726376 0.9767388 0.9632953 0.9818136 1.0044492 0.9546365
0.9800803 1.0203927 1.0156118 0.99267894 1.0066975 1.0113397 1.0378851 1.0211252
1.027271 0.96635556 0.969331 0.9755361 0.9616513 0.9948876 0.9951736 0.98565656
1.0180987 0.9913642 1.0207874 1.0218217 0.98319566 0.96365434 0.98012805 0.96940637
1.0233097 1.0093755 1.0069704 0.99709463 1.0076642 0.96517116 0.9886256 0.9803704
0.99880344 0.97590804 1.0237051 0.9857234 0.9751278 0.968663 0.9953191 0.97264534
0.9823633 1.0033442 0.98551565 1.0161513 0.9680026 0.9792411 0.99577606 1.0198754
1.0041099 0.99590313 1.0108778 1.0076885 1.0054325 0.9953501 0.994929 0.9977568
0.95797306 1.007338 0.9931093 0.977231 0.9847383 0.9869423 0.9962276 1.004707
1.0010028 1.0095017 0.9935647 0.9833874 1.0020204 0.9943451 0.98585945 1.0096644
1.0093135 0.9592684 1.0208865 0.95437384 1.0079584 0.9397956 0.9983684 0.9740947
0.98478997 0.97408867 0.97321093 0.98245025 0.9555277 1.0249318 0.99470145 1.0011284
0.96992356 1.0319805 0.9895617 1.0072514 0.97143483 0.97826177 0.9864613 1.018075
0.9837274 1.0029685 0.9411753 0.9643022 0.97769356 0.96949357 1.0288093 0.9726689
1.0333905 0.99163073 0.9622342 0.99624944 0.98719376 0.9660017 0.9819875 0.97829837
1.0043968 0.9809854 0.96041477 0.9826577 1.0173786 1.0117689 1.0127585 0.97894776

ablang_branch.5.bias f4 [128]
00000000: 3a10 d4bb 28a0 c1bc 749a 3bbc 8cb5 973b
00000010: 1cc8 5cbd 7758 9ebc 2bf5 e5bb 3247 2f3d
00000020: c790 5bbc 86c7 cd3c 94be a9ba 25eb 0fbd
00000030: 42bb b03c b267 32bb dbe3 473c 3d67 263d
00000040: e4ae f63c d698 46bd 988c 23bc 3e04 8cbc
00000050: 5962 edbb 24d4 9739 951d d6bb 04c1 71b8
00000060: f7e5 403d e32e 353c 3714 353d 0ed7 c43c
00000070: 5125 543c 7298 09bd 90e0 6fbc 0014 01bc
00000080: 98c1 14bd e51f 74bb f697 21bd d48e 823b
00000090: 5eb8 35b9 2291 39bd d6ad 08bd 3af9 873c
000000a0: 81f5 0dbc 4870 08bc 7341 d33a 6292 7cbb
000000b0: 59b3 2fbb 0a92 e3bc eb2c 503c 71d3 993c
000000c0: 2344 4f3c 4af8 7d3c 2044 d13b 7ab9 963c
000000d0: 4573 5f3c ac3e 8d3c 7039 55bc 67d2 263c
000000e0: 32f6 e5bc 5262 3d3c a160 4f3c 8303 903c
000000f0: 7de4 10bd 6974 78bc cce8 d43b 4395 7b3b
00000100: c6f2 b8bc 4392 133d e8d2 8338 5ef2 0c3b
00000110: 9d8e 35bd bb8a 5ebc 9b92 a23c 1f84 a83c
00000120: af33 0e3c 0071 b63c ec0d 7f3c cdcd 04bb
00000130: 8337 f2bc 869c 03bd 308d 87bc 900d 103c
00000140: 9b81 833c e3fb a5bb 26b7 223c 33b6 3f3a
00000150: 443a 3d3a 8562 8fbb bdb7 ff3c bdf9 33bd
00000160: 1799 7dbc 4538 9ebb 0760 bdba feec a0b8
00000170: 8c4b 77bc 8b06 9f3c 4845 8b3b b629 2cbd
00000180: 2f89 0abc fb60 dc3c efbc 05bd 419c 963c
00000190: 924b 61bc 93f2 35bb 1daf 42bc d86d 4e3c
000001a0: 1e99 9239 b48f eabc d5a1 b9bc d76b 9bbc
000001b0: c44c d13a 4e0a c2bc 6b92 b13c b4a0 0dbd
000001c0: 8bd0 f93c d004 853b 60d7 08bd 0153 a93c
000001d0: 730c ee3b 5ae5 d8bc c888 2a3b f633 a1bc
000001e0: 80b8 dc3b 057f 26bc 5bcf 13bd b275 dbbc
000001f0: 4510 27bc 9e64 13bc 2565 633c 4fe1 623b
-0.006471661 -0.023635939 -0.011450399 0.0046297964 -0.053901777 -0.019329293 -0.0070177517 0.042792507
-0.013401217 0.025119554 -0.0012950473 -0.03513636 0.021573666 -0.0027222452 0.012200321 0.0406258
0.030112691 -0.0484856 -0.009982251 -0.017091867 -0.00724439 0.0002895902 -0.006534288 -5.7638637e-05
0.04709431 0.011058542 0.04420873 0.024028327 0.01294835 -0.03359265 -0.014640942 -0.0078783035
-0.036317438 -0.0037250456 -0.039451562 0.0039843116 -0.00017330187 -0.045304425 -0.033368908 0.016598333
-0.00866449 -0.008327551 0.0016117528 -0.00385394 -0.002680978 -0.027779598 0.012706022 0.018777581
0.012650522 0.015501091 0.006386295 0.018398989 0.013638322 0.017241798 -0.013014182 0.010182
-0.028071497 0.011559086 0.0126573155 0.0175798 -0.035374153 -0.015164473 0.006497478 0.0038388527
-0.0225767 0.036028158 6.285851e-05 0.0021506767 -0.04432546 -0.013582881 0.019845298 0.020570813
0.0086793145 0.02227068 0.015567284 -0.0020264268 -0.029567486 -0.032131694 -0.016546816 0.008792296
0.016053012 -0.0050654276 0.009931361 0.00073132216 0.000721846 -0.004375758 0.031215543 -0.04393934
-0.015478394 -0.004828485 -0.0014448174 -7.673538e-05 -0.015093695 0.0194123 0.0042502023 -0.042031966
-0.008455559 0.026901713 -0.032650884 0.018385055 -0.0137509275 -0.0027762994 -0.011882571 0.012599431
0.0002796137 -0.028632976 -0.022660175 -0.01897232 0.0015968313 -0.023686554 0.021676263 -0.034577087
0.030494949 0.0040594116 -0.033408523 0.020669462 0.0072646677 -0.02647655 0.002602147 -0.019678097
0.0067358613 -0.01016212 -0.03608642 -0.02678952 -0.01019675 -0.008996157 0.013879095 0.0034619158

ablang_branch.8.weight f4 [64, 128]
00000000: 2aab 18bd a671 ad3c 877d 163d e340 a73d
00000010: 43fb d6bd 2a2f 8ebd 59b7 18be c7bb 143e
00000020: 7dc8 53be abda df3c 9138 433e 128e 3e3d
00000030: f5ba 2f3e 0714 ac3d 8543 83bc 819e 2bbe
00000040: 9798 50bc 1f5d 5bbd 305f 6ebe ca81 0bbe
00000050: 5984 7d3e 32de 933e 4946 3b3e 87a2 50bb
00000060: 12e7 83bd 2d81 c8bd e315 a83d e5d9 0bbe
00000070: 7e1f 753e 7c2b 503e 1506 083e 5323 103e
00000080: 7eed de3d 55b4 4b3d c323 85be d0c3 463d
00000090: 3abb b03d 24e1 083c fb51 92bd 6b4e 973e
000000a0: b8a6 003e ad41 ed3c ec86 3d3d 5065 3d3e
000000b0: 2a7a 15be 0742 edbd 9b7a 553d c988 0d3c
000000c0: 4260 24be 1db9 7bbe 162d 6b3e 05b1 47be
000000d0: f12b 5dbc 16bc 573d 3a7e 61be 6621 503d
000000e0: 18c7 b53d 711b 4bbe 0a64 eebd 3423 3a3e
000000f0: e533 5d3e 5c38 063c 65ef 8c3d 5024 b03c
00000100: 7da9 843d 7137 0d3d 5617 30be 5f1b 16bd
00000110: d304 df3c f33a 7dbc eee9 a13d d1d8 22be
00000120: 0040 eb3c cb85 1bbd 0cb1 833d 1d34 12be
00000130: 7270 8bbd 6b56 5abd c362 133c 26f3 a3bc
00000140: 6357 09be f117 1e3e b74d 93bd fe6b 84be
00000150: 8b27 cebc d6b7 90bc 879d bfbd 50d8 3abb
00000160: 1344 7fbd 496b 8d3d 3d21 8abe 73af 583d
00000170: d4a7 a63c fc56 153e cb9f 8c3d fbb0 cbbd
00000180: e45f 3cbd 770b 68bd 11c3 b63c 23f7 953d
00000190: fce8 283d 38c4 8dbc 939f a03d 98fa 28be
000001a0: f320 213e 0251 e43c f1d8 40be 97bd 913d
000001b0: 4e26 d23d 0f66 e83d da21 cf3d dcee 1a3d
000001c0: 57fa 48bd 2027 573d 563d c53c c007 85be
000001d0: 3894 153e 811a 073d 5958 15bd fb96 1c3c
000001e0: d9ad dfbd 5e28 1bbe 62cf e5bd a9f9 bcbd
000001f0: ccde 543e 48f6 22bd 606c 533d 5eab 8a3c
00000200: 95a8 793d 84ba b93d 0dad 24be 47a8 033e
00000210: 9de6 f4bd ba22 ae3c 9cb4 283d 4962 b7bd
00000220: 8abd 5a3c 705e b13d 1738 bebd bb53 663e
00000230: dfa2 b9bd 90c7 c7bd 0ec3 73bd 7304 02be
00000240: e8a0 c4bd 7adf b03d 52ba 57bd 019d 0a3e
00000250: 66ae 4b3e 01d6 2ebd da1f bbbc ab27 32bd
00000260: 2fe8 9ebd 1798 d33b a0a1 72bd ed78 c43d
00000270: 6bfc 87bd 9041 00be 920c 9f3b 9888 e9bd
00000280: 03d4 0cbe deaf b3bd 099c 92bd 87e0 ecbd
00000290: cd1b 05bc ba9e 4d3e c90e 3c3d 3f96 ae3c
000002a0: 54f1 e13c da95 c63d aaa9 02be 0470 6abe
000002b0: eb0e 10bd 9b2c aa3d cc5c 7dbd 9680 023b
000002c0: c842 e1bb 877c fa3d 3853 1f3e 601e 15be
000002d0: f416 11bd 71d5 f93d 439a 88bd 3817 a5bd
000002e0: f8e4 1dbe f8b7 f2bd c2b4 f5bd f876 65be
000002f0: 5f4f b33e 3910 213e 47f4 81bd 1088 393c
00000300: cf3e b83d fe13 b93d cde7 d5bc 1fe3 bbbc
00000310: a015 cabd 97b2 03be f06d 953c 5f9d 453d
00000320: e093 02be 4cef 82bd ffbf e4bd 2f12 1b3e
00000330: 5ed8 a93d 914a 473e b042 a6bd e2b9 cb3c
00000340: 6ae6 36be 74ff de3d 545b 383b 49ce b3bd
00000350: 2f19 debd 9ec1 243e a8a5 e53d 623b b9bd
00000360: a99d c33d 5ce2 393e 43b8 a63b 8748 653e
00000370: 3c3d 96bd 8a7e a9bd 3f96 883e 7293 983d
00000380: 74b9 abbd f85f 44be 402f ee3a 01df 1abe
00000390: 4d4f ce3d b61c 6b3d b221 673e 48ee cf3d
000003a0: 0f72 af3c 4336 3cbd 3fc8 963d ecdd 273e
000003b0: 0651 0bbe 2984 1c3e e782 cfbb 44a0 b63d
000003c0: 6bcf 16be 49f5 f83b 4e5e 683d da23 c63b
000003d0: e46d df3c 0ddd c13d cf98 3ebe 6ee4 b9b9
000003e0: ce32 553e ba63 0f3e 4d15 883e 23ff 453e
000003f0: d46e 2cbe 418b 8ebc 2b77 083c 1daf f33c
-0.03727261 0.021172356 0.036740806 0.08166673 -0.10497143 -0.069425896 -0.14913692 0.14524756
-0.20681949 0.027325949 0.19064547 0.046522208 0.17161162 0.084022574 -0.016023407 -0.16759683
-0.012731693 -0.053555604 -0.23278499 -0.1362373 0.24757518 0.2888046 0.1828853 -0.0031835155
-0.064405575 -0.09790263 0.082072996 -0.13657339 0.23937795 0.20329088 0.1328357 0.14075975
0.10885142 0.049732525 -0.26003847 0.048526585 0.08629461 0.008354459 -0.07144543 0.29552016
0.12563598 0.02896198 0.04627125 0.18495679 -0.14597383 -0.11584859 0.05211888 0.008638569
-0.16052344 -0.24582334 0.22966418 -0.19501121 -0.013499246 0.052669607 -0.22020808 0.0508131
0.08875865 -0.19834687 -0.11640175 0.18177491 0.21601827 0.008192148 0.068815984 0.02150169
0.0647764 0.0344767 -0.17196402 -0.036647197 0.02722398 -0.015455949 0.07905947 -0.15903021
0.028717041 -0.03796939 0.064302534 -0.14277692 -0.068085566 -0.05330507 0.008995715 -0.020013403
-0.13412242 0.1543882 -0.07192557 -0.25863642 -0.02516534 -0.017665785 -0.09356218 -0.002851028
-0.06232078 0.06905229 -0.26978484 0.052901696 0.020343699 0.14583963 0.068664156 -0.09945866
-0.045989886 -0.05665156 0.022309812 0.07322528 0.041237816 -0.017305478 0.07842936 -0.16501844
0.15735225 0.027870659 -0.18832757 0.071162395 0.10261212 0.11347591 0.101138785 0.03782545
-0.049066868 0.052527547 0.024077099 -0.25982475 0.14607322 0.03298426 -0.036461208 0.009557481
-0.10921831 -0.15152118 -0.11221196 -0.092273064 0.20788115 -0.039785653 0.051617026 0.016927417
0.060951788 0.09068778 -0.16081639 0.12857161 -0.119580485 0.021256793 0.041187868 -0.08954293
0.013350854 0.08660591 -0.09288042 0.22492878 -0.09064268 -0.097548604 -0.05951219 -0.1269701
-0.09601003 0.08636375 -0.052667923 0.13536455 0.19890746 -0.04268456 -0.022842336 -0.04349486
-0.07759129 0.0064573395 -0.05923617 0.09593377 -0.06639942 -0.1252501 0.0048537934 -0.11403006
-0.13752751 -0.087737784 -0.071586676 -0.11566263 -0.008124304 0.2008008 0.045912538 0.021311877
0.027580895 0.09696551 -0.12760034 -0.22894293 -0.035170477 0.08309289 -0.061856076 0.001991307
-0.006874416 0.12230783 0.15559089 -0.14562368 -0.03542228 0.12198914 -0.06670048 -0.08061069
-0.15419376 -0.118514955 -0.119973674 -0.22408664 0.35021493 0.15728845 -0.0634542 0.011323944
0.08996355 0.09037016 -0.026111508 -0.022935448 -0.09867406 -0.12861095 0.018240899 0.048245784
-0.12751722 -0.063932985 -0.11169433 0.15143655 0.08293222 0.19462039 -0.081181884 0.02486891
-0.17861333 0.108885676 0.0028130608 -0.0877958 -0.10844647 0.16089484 0.11213237 -0.090445295
0.09551556 0.18152755 0.0050878837 0.22390948 -0.07335898 -0.082760885 0.2667713 0.07449998
-0.08384982 -0.19177234 0.001817204 -0.15124132 0.10073719 0.057400428 0.22571447 0.101528704
0.021416692 -0.045950186 0.07362413 0.1639325 -0.13605127 0.1528479 -0.0063327434 0.08917287
-0.14727561 0.0075975996 0.05673056 0.0060467543 0.02727408 0.0946599 -0.1861298 -0.00035456143
0.20820162 0.14002886 0.2657875 0.19335608 -0.16839153 -0.017400386 0.008329193 0.029746586

ablang_branch.8.bias f4 [64]
00000000: 1cee 95bc 8743 19bd e3b0 47bd ed96 183b
00000010: 0818 83bd fe80 063b 5f7d 1bbc ea07 70bb
00000020: 5668 92bc 033d 4f3d 164c a23c dce3 5bbd
00000030: 401f d63b ba76 c7bc afa4 083c 8057 c0bc
00000040: 4b13 b3bc 9072 b8bc 22a3 01bd f24e 84bd
00000050: 3d44 f43c ec44 f03c 40bf b7bc b242 14bd
00000060: 1835 b7bc de90 21bd 06e9 1bbd 9b5a 46bc
00000070: bc84 81bc c734 763c b74a f4bc 98f8 5b3c
00000080: 45b3 613d ef84 823d 6d9a e2bc e311 ffba
00000090: 72bb 42bd f05d 65bc f7c1 71b8 317c bb3c
000000a0: bb0c 773c b611 1d3d a7e2 f7bb 261b c83c
000000b0: 164e 163d 5764 43bc ecbc 1fbd 73cc 25bd
000000c0: 8a99 6ebc 696e e6bb 628f 39bb a8af 02bc
000000d0: 0a04 9b3c 1375 3bbd 0989 64bd e86f bd3c
000000e0: 29cf 533c d4aa ebbc ae38 5abc 0573 0a3d
000000f0: 3f8f 3dbd 6945 36bd 7088 063d da24 d2bc
-0.018302016 -0.037417915 -0.048752677 0.0023283318 -0.06401068 0.0020523663 -0.00949034 -0.003662581
-0.017872017 0.050595295 0.019811671 -0.0536841 0.006534487 -0.024348605 0.008340045 -0.023479223
-0.021859786 -0.022515565 -0.031649716 -0.0646037 0.029817695 0.02932974 -0.022430062 -0.036196418
-0.022364184 -0.039444797 -0.038064025 -0.012106563 -0.015810363 0.015027232 -0.029820783 0.013425969
0.055102605 0.06373011 -0.027661527 -0.0019460287 -0.047542043 -0.013999447 -5.763952e-05 0.022886368
0.015078719 0.03834697 -0.007564861 0.024427008 0.036695562 -0.011925778 -0.03899853 -0.04047818
-0.014562974 -0.007032205 -0.0028314223 -0.00797645 0.018922824 -0.045765948 -0.05579475 0.02312465
0.012927809 -0.02876798 -0.013319178 0.033801097 -0.04627919 -0.04449979 0.03284496 -0.025652338

ablang_branch.9.weight f4 [64]
00000000: 5570 743f 3926 7c3f 43ac 813f 600b 7f3f
00000010: 09b6 793f 3d12 8a3f 9bb8 793f a5e8 813f
00000020: 6c4a 7e3f a47f 893f 88fa 833f 382a 7f3f
00000030: 0582 823f 87e2 7e3f 5afd 7c3f f2db 733f
00000040: 3357 7a3f f696 763f e801 763f 47bb 7f3f
00000050: e4e8 7f3f 392d 893f d8c0 763f 8c7b 763f
00000060: 57c5 753f 5944 783f 9027 7a3f f955 713f
00000070: 78f0 793f 9aa3 813f 0daf 763f 1eef 823f
00000080: be53 8d3f 4f84 8c3f 9c91 7d3f c379 783f
00000090: 91b4 753f 8a4e 7b3f 519c 7a3f 702d 873f
000000a0: 8b58 823f 33e2 873f c638 813f 9cf0 8c3f
000000b0: df69 883f 4a3f 7a3f 16c3 783f 45a0 7a3f
000000c0: e27c 793f 4815 743f ba09 783f 2f77 7f3f
000000d0: 0982 853f 3475 7b3f fa49 7e3f 91c4 793f
000000e0: df7f 7a3f 8d5e 783f 9755 7c3f 9c8e 853f
000000f0: 8600 803f 65d4 7e3f cfdb 853f 6f9e 803f
0.95483905 0.98495823 1.0130695 0.9962673 0.9754339 1.0786816 0.9754731 1.0149122
0.9933231 1.0742078 1.0310831 0.99673796 1.0195929 0.99564403 0.98824084 0.95257485
0.97789305 0.963241 0.9609666 0.9989514 0.9996474 1.0716926 0.96388006 0.9628227
0.9600424 0.9697929 0.9771662 0.9427181 0.9763255 1.0128052 0.96360856 1.0229223
1.1041181 1.0977877 0.9905031 0.97060794 0.9597865 0.98166716 0.9789477 1.0560741
1.0183271 1.0615906 1.0095451 1.1010928 1.0657309 0.9775282 0.9717268 0.979008
0.9745618 0.9534497 0.9688984 0.99791235 1.0430309 0.9822571 0.9933163 0.9756556
0.97851366 0.97019273 0.985681 1.0434146 1.000016 0.9954284 1.0457705 1.004835
