data/model_weights/cv_fold_4_model4_3.pt (torch, 707477 bytes, 29 tensors)

ablang_branch.0.weight f4 [256, 480]
000000 31 b7 94 3d 66 50 8f bd be a1 0a 3d 1d 56 03 bc
       0.072615035 -0.06997757 0.033845656 -0.0080161365
000010 4d 5b d7 3b a2 88 85 3c 82 54 0d 3e bf 0b 9c bd
       0.006572163 0.016300503 0.13801768 -0.07619428
000020 6f 5b 06 bd 6c 36 a3 bc ce 7d a7 bd 45 a4 ba bc
       -0.03280204 -0.019923411 -0.08178292 -0.022783408
000030 85 01 89 3d 88 d6 b5 bb ed a0 85 bd 57 9e 0b 3e
       0.06689743 -0.0055492558 -0.06524835 0.1363462
000040 dd e3 05 bd 1f 77 69 bc 5d 03 da bd e6 68 00 3d
       -0.03268801 -0.014249592 -0.10645173 0.03135004
000050 9a 9a 02 be 60 8a 03 be 5e be 86 3d 06 c5 a8 3d
       -0.12754288 -0.12845755 0.065792784 0.08240704
000060 6a bd b6 3d 22 61 01 bd dd 01 79 3d b9 e5 00 3d
       0.089228466 -0.031586774 0.060792793 0.03146908
000070 aa 3f c9 bb 56 22 ea 3c 2b 6e e1 bd ec 54 62 3d
       -0.0061416226 0.028580826 -0.11007341 0.05525677
000080 52 a7 72 bc 84 72 ec bd 25 cd d6 3c 4e 9f 91 3c
       -0.0148104 -0.115452796 0.026220867 0.017776158
000090 28 13 40 bd 25 c8 d9 bc b1 03 af bc 6b 62 03 3e
       -0.04689327 -0.026584694 -0.021364065 0.12830512
0000a0 8f de a0 3b 11 31 29 bd 16 65 b2 bd 53 3d d8 bc
       0.0049093436 -0.04130656 -0.08710687 -0.02639643
0000b0 fb cf a1 bc 84 91 40 bd 46 ea c8 3b e2 f0 63 bd
       -0.019752493 -0.047013775 0.006131443 -0.055649646
0000c0 4e 1a a7 3d da 1e 3e 3d 17 b1 5e bd c5 eb 65 bd
       0.08159314 0.04641614 -0.054368105 -0.05613305
0000d0 03 11 38 3d 49 ee 13 bc 6c e8 3d bd 3b b7 a1 bd
       0.0449381 -0.00902898 -0.046364233 -0.078962766
0000e0 ef c8 3a 3d b3 c6 75 bd 57 01 9b bd a8 be a1 bd
       0.04560178 -0.060003947 -0.07568615 -0.07897693
0000f0 fe 66 08 bc 8f 10 a3 3c 05 e7 15 3d 4d 0e 59 bc
       -0.0083253365 0.019905357 0.03659727 -0.0132480385
000100 a3 a7 31 bd 19 c3 86 bb fa e7 1d 3d a0 ae 7f 3d
       -0.04337276 -0.004112613 0.03855131 0.062422395
000110 c8 09 31 bc 97 df d4 3d 7e 82 14 3e 4f 64 be bd
       -0.010805555 0.10394209 0.14502904 -0.09296476
000120 32 05 11 3d ac 23 43 3d 3f 20 d3 bb dc 8c 6b 3d
       0.035405345 0.04764144 -0.006443053 0.05750738
000130 f0 8a 5f 3d ae 37 b7 bc db a1 df 3c b9 dd e8 3a
       0.05457586 -0.022365417 0.027298858 0.0017766274
000140 37 1e 5c 3d c2 b5 f6 3d 71 69 97 bc da f4 c1 3d
       0.053739753 0.12046386 -0.018482896 0.0947053
000150 93 05 ba 3c 1f 69 01 3e 1b 7c 94 bd ec 2f 0d bd
       0.022707736 0.12637757 -0.07250234 -0.03446953
000160 09 31 42 bd 78 e6 7b bd a7 a1 e1 3d 6e 9f b1 3d
       -0.047410045 -0.06149909 0.11017161 0.08672987
000170 c7 aa 0b 3c f0 0d 70 3d 45 dd 44 3d 9c 17 41 bd
       0.008524603 0.05860704 0.04806258 -0.047141656
000180 28 12 89 bd b0 e2 4c bd f2 e5 b7 3c 2b c7 8c bc
       -0.06692916 -0.050020874 0.022448514 -0.017184814
000190 dd 87 31 3d 83 d8 46 bd b6 7d 02 3e 3d f9 e8 3c
       0.04334246 -0.048546325 0.12743267 0.028439159
0001a0 6b bc d4 bd 1c e0 16 bd 40 60 b2 bd cc 4b 4f 3d
       -0.103875004 -0.03683482 -0.087097645 0.050609395
0001b0 d1 f6 0f be 89 3b c5 bc ea 1c 2f bd f2 6e 92 bc
       -0.14058997 -0.02407624 -0.042752184 -0.017875168
0001c0 14 08 6a bd f1 d4 d6 3d 7f c8 93 3c a9 8d 9c 3d
       -0.05713661 0.10489834 0.01803994 0.07644207
0001d0 37 c5 8b bd 1a c5 b1 3d 23 f3 a6 bd e0 fe 0b 3d
       -0.06824725 0.08680172 -0.081518434 0.034178615
0001e0 03 1b 29 bd 59 da 36 bc 97 21 b4 bd 78 e9 34 bd
       -0.041285526 -0.011160457 -0.08795469 -0.044167966
0001f0 4f c1 a5 3d fb ac 71 3c 0e 91 36 bd b6 d3 1a bc
       0.08093511 0.014750714 -0.04457193 -0.00944989
000200 50 d3 7c bd 39 75 5d 3d a8 7c 7f bd e5 59 05 be
       -0.06172496 0.05406687 -0.06237474 -0.13022573
000210 59 7b a5 bc e3 dc 9f bd 72 64 cf 3b 23 82 9d bd
       -0.020200418 -0.07805803 0.0063291127 -0.07690837
000220 6a 59 09 3d 54 b5 07 3a 41 70 78 3d 1f ea 9a 3d
       0.033532538 0.00051768613 0.06065393 0.07564186
000230 37 13 7b bc 40 7b a8 3d d5 f4 81 3d 9e 0b 64 bd
       -0.015324405 0.08226633 0.06345526 -0.05567514
000240 16 3e 18 bd fe c4 ab 3d 62 de 12 3d 10 6b dd bd
       -0.037168585 0.08387183 0.035856612 -0.10811436
000250 84 ba 8a bd 23 ca fa bd 94 b5 d1 bd d6 10 4c 3d
       -0.06773856 -0.12245586 -0.102397114 0.049820744
000260 59 b7 a7 3d f4 d5 b0 bc 06 d4 ef 3d f1 99 8b bd
       0.08189268 -0.021586396 0.11710362 -0.06816471
000270 42 51 bd bd 54 47 4d bc a2 d2 ac 3c cc 72 9e 3c
       -0.09244014 -0.012529213 0.021096531 0.019341849
000280 46 20 e5 bd 9c 9c e0 3c b1 e0 95 3d 18 df 64 3d
       -0.11187796 0.027418427 0.07318247 0.05587682
000290 08 66 65 bd 02 ae b0 bc fb ab b7 bc 3e 3c b6 3b
       -0.056005508 -0.021567348 -0.022420874 0.0055613806
0002a0 6b b3 95 bb 24 21 a6 3c 9a e1 83 3b 6f 02 43 bd
       -0.0045685074 0.020279475 0.0040246965 -0.047609743
0002b0 c6 75 89 bd 92 8f 3a bd 5d 8a 31 3d 52 c8 52 3d
       -0.067119166 -0.045547076 0.043344844 0.05146057
0002c0 a0 91 99 bc a2 98 59 bd 71 1f 9d bd b5 c1 b0 3c
       -0.018746197 -0.053124078 -0.076720126 0.021576742
0002d0 19 4b ea 3d 1a 12 96 bc 58 19 8a bb 23 57 17 bd
       0.11440105 -0.018319178 -0.004214447 -0.036948334
0002e0 90 84 cf 3c 0f 34 30 3d 8e 83 cf 3d 5c 12 b8 3d
       0.025331765 0.043018397 0.10132514 0.08987877
0002f0 11 bc be bb 1e f3 f4 3d 87 fe bc 3d e0 bd c7 bc
       -0.005820759 0.119604334 0.09228235 -0.024382532
000300 07 67 60 3d 75 70 b4 bd e6 a2 72 3d de 35 8e bc
       0.054785755 -0.08810512 0.059237383 -0.01735967
000310 2e fd 25 3d d5 e6 64 bc 1c a0 bd bc 10 5f 85 3b
       0.040524654 -0.01397105 -0.023147635 0.00407017
000320 22 af ad 3d db 56 73 3d 4e 76 1f 3d 64 bd eb 3c
       0.084806696 0.059409004 0.038931184 0.028776832
000330 cf f2 87 bd 8f 0c fa 3c b5 cb 9b 3d 05 0e b8 bd
       -0.06638109 0.030523567 0.076072134 -0.08987049
000340 25 f2 fe bc 3e 3b ff 3b e3 06 c9 bc ce 5b 02 bd
       -0.031121323 0.0077890446 -0.024539417 -0.031825833
000350 88 f3 8d bc 66 31 4c bd 7f c2 99 3a 43 6d fd bc
       -0.017328039 -0.049851798 0.0011730938 -0.03093589
000360 c2 a3 a9 3d 38 ca e3 bb 9b b8 c6 3d e0 68 a3 3b
       0.082831874 -0.0069515966 0.097031794 0.0049868673
000370 4f b4 11 3e 0a 85 29 bd 54 41 bb bd 9c db 71 3a
       0.14228939 -0.04138664 -0.0914332 0.0009226145
000380 f8 ac 20 bc e4 a1 bd bd 71 4e 93 bd 16 e1 7c bd
       -0.009806864 -0.09259394 -0.07192696 -0.061738096
000390 7e 59 7b bb 05 d2 c2 3c 15 f1 c5 bc 1c 83 79 bd
       -0.0038352902 0.023781786 -0.024162808 -0.06091605
0003a0 49 f4 27 3d 50 f8 be bd e8 97 09 bd eb 04 5c 3d
       0.041004453 -0.093247056 -0.033592135 0.053715628
0003b0 bc 5e bb bd 3f 1d d6 bc 75 47 c2 3d ec e1 32 bd
       -0.091489285 -0.026136992 0.094862856 -0.043672487
0003c0 fa 35 b9 bc 6b 79 54 3d c5 ea 08 3e 79 0b c1 bc
       -0.022608746 0.051873606 0.13370807 -0.02356504
0003d0 b1 50 96 bd df 5f 26 bd c3 c6 ba bb f0 b9 fc 3c
       -0.073396094 -0.040618774 -0.005699964 0.03085038
0003e0 56 b1 e9 bc d7 8e c9 3c 18 ad 20 bd de ff 5e bb
       -0.028526943 0.024604244 -0.039227575 -0.003402702
0003f0 cc 9f d6 bc 4f 4a d7 bc 75 e5 83 bd fb 89 6d 3d
       -0.026199244 -0.02628055 -0.0644025 0.057992917

ablang_branch.0.bias f4 [256]
000000 df 3e 60 3a 4b bd ca bb c5 2d c5 bb 02 dc 2c bb
       0.00085542904 -0.0061871163 -0.006017419 -0.0026376252
000010 8c 82 9d 3b 54 eb 6d bb 88 42 f7 3a e8 9a 98 b9
       0.004806822 -0.0036303597 0.0018864432 -0.00029107113
000020 1d 10 95 bb 32 28 4a 3a 71 98 3f bc 2a 60 a9 3b
       -0.00454904 0.0007711678 -0.01169406 0.0051689344
000030 f2 ac 98 bb 69 1f 9c 3b d9 a4 02 bb b9 e8 e6 bb
       -0.0046592886 0.0047644866 -0.0019934683 -0.0070467857
000040 d7 6b 22 3c b8 69 af 39 84 3e 82 bb 8f ef 70 3c
       0.009913406 0.00033457368 -0.0039747376 0.014705553
000050 e4 0c ef 3b 3c df 90 bb 6b 2f b9 3b 30 ec ca 3b
       0.007295238 -0.004421143 0.0056514046 0.0061927065
000060 c6 ff 82 ba d1 f0 07 bb 92 51 0c bc 41 99 13 3c
       -0.0009994439 -0.0020742903 -0.00856437 0.009008707
000070 16 45 0d 3c 12 e5 0e 3b d8 91 02 bb 96 60 3a bb
       0.008622428 0.0021804017 -0.0019923355 -0.0028438917
000080 db 7d f2 3b b1 5f f5 bb a5 27 d3 3b b3 f8 16 3c
       0.007400257 -0.007488214 0.006443935 0.009214568
000090 aa 42 81 39 cc ac e7 bb 8d 42 ed bb 6e c6 62 bc
       0.00024654466 -0.0070701595 -0.0072405995 -0.013841255
0000a0 b3 31 d9 3a cc 03 45 bb 02 75 b0 3b ab 6f 06 bb
       0.0016570598 -0.0030062078 0.005385042 -0.0020513337
0000b0 d3 a3 92 3b 2e 3d ac ba e4 38 4d bb fd 38 d9 bb
       0.004475096 -0.0013140792 -0.0031314427 -0.006629108
0000c0 33 fb 9f 3a af d3 a8 bb 64 5f 9c bb df 28 d0 bb
       0.00122056 -0.005152188 -0.0047721136 -0.0063525285
0000d0 8e fc e0 bb 05 6c 9a 3b 34 42 35 3b a7 4e 3e 3c
       -0.0068660444 0.004712584 0.0027657868 0.011615432
0000e0 80 97 54 3a bc b0 08 bb 22 cc ab bb 63 93 99 3b
       0.00081097335 -0.0020857295 -0.0052428404 0.0046867593
0000f0 6a c5 f5 bb bf 15 57 ba 50 a9 65 3c e4 e3 27 bc
       -0.00750034 -0.00082048395 0.014017418 -0.010247204
000100 77 41 7d ba cd 90 30 bc 79 c3 c6 3b c9 85 f5 3b
       -0.0009660939 -0.010776711 0.0060657826 0.007492755
000110 d6 dc 92 ba 04 92 f8 bb 2a 8f b8 3b 2e f2 13 ba
       -0.001120473 -0.007585766 0.005632301 -0.00056436926
000120 ca f5 02 3b 96 1b d1 3b a4 3f 97 3b 67 07 5b 3c
       0.0019982927 0.0063814623 0.004615741 0.013368464
000130 6b 9d b3 3a 3b 1e f5 3b 3c e4 3e 3c e1 e5 2c 3b
       0.001370353 0.0074804104 0.011651095 0.0026382136
000140 a3 97 df ba 42 f4 11 3b 41 2a df 3a 10 65 01 bb
       -0.0017058741 0.0022270833 0.0017026142 -0.0019744076
000150 ab f8 92 3b ed 53 ab bb d5 70 2e bc 62 24 cc 3a
       0.00448521 -0.0052285106 -0.010647018 0.0015574808
000160 a3 77 ce ba 4e 17 a7 bb 07 d1 b1 3b bf cb 06 3c
       -0.0015752207 -0.0050992137 0.0054265293 0.008227288
000170 74 0f a0 bb 36 30 ba bb 41 74 2d 3c 25 5a 53 bb
       -0.0048846547 -0.0056820167 0.010586799 -0.0032249775
000180 d5 16 d6 3b cd e9 79 ba 78 bb 16 bc 0c b5 6f 3b
       0.0065334835 -0.0009533435 -0.0091999695 0.0036576418
000190 b2 10 ad bb 20 e7 a4 bb ed ca 06 bb 6a b5 12 bc
       -0.0052815313 -0.005032435 -0.002056773 -0.008954385
0001a0 d8 31 10 bc 69 bc a9 ba d5 5e 8f bb 11 6f 02 bc
       -0.008800946 -0.0012949827 -0.0043753185 -0.007961051
0001b0 3c 9c 19 3a c8 01 e0 39 03 76 7f bb ac 4f cf ba
       0.00058597676 0.00042725937 -0.0038980253 -0.0015816591
0001c0 9c f1 17 bb c1 a3 19 bc a3 2e 03 bc 7e ac 73 3a
       -0.0023184782 -0.009377421 -0.0080067245 0.00092954177
0001d0 a5 4c 7d 3b 6b d3 35 3c 02 75 64 3a a6 35 96 bb
       0.003865042 0.011097769 0.0008714945 -0.004584032
0001e0 37 bb c6 39 8c 5d e1 bb 55 ff d1 ba de 45 7a 3b
       0.0003790499 -0.0068776067 -0.001602153 0.0038188617
0001f0 78 36 53 3b 42 cc 38 3b 13 e9 b0 bb a6 55 85 3b
       0.003222851 0.002819792 -0.0053988784 0.004069048
000200 ec 9c e0 3b 0a 33 a6 3b 0f 52 6c 3b a1 57 31 3c
       0.006854644 0.0050720023 0.0036059653 0.010824115
000210 a7 98 9f bb 01 e7 ae 3b d5 cc e5 3b 1c ed 66 bb
       -0.0048704925 0.0053375964 0.0070129433 -0.0035236543
000220 48 ef b9 bb 2a 06 b4 39 cf 85 b9 3a 4a 4d e4 ba
       -0.0056742765 0.00034336868 0.0014154258 -0.0017418053
000230 ee 43 bd bb 9c 3c 97 3b 03 63 46 3b 51 ee 54 3b
       -0.00577592 0.0046153795 0.0030271418 0.003249068
000240 ff d4 19 3b 7d a3 62 bb 05 7c 32 3c 62 22 97 3a
       0.0023472903 -0.003458231 0.010893826 0.0011530633
000250 36 2e 33 bc a6 3f 8d 3b a4 3f 4e bb 17 2c bb 3a
       -0.0109363105 0.004310566 -0.0031471038 0.0014280108
000260 78 bc bf b9 46 78 c5 bb 04 b9 56 3b d7 cd 06 bc
       -0.0003657078 -0.0060263006 0.0032764086 -0.008227787
000270 b8 68 80 3a 20 88 2f bc ef bc f5 ba ae d5 64 bb
       0.0009796834 -0.010713607 -0.0018748323 -0.0034917402
000280 f9 41 c9 3b 99 53 73 39 3f 80 1c bb 6d 4c c3 ba
       0.0061418978 0.00023205428 -0.0023880152 -0.0014900096
000290 2f 67 ab ba a7 af e9 bb 29 02 e8 b9 38 9f bf bb
       -0.0013077016 -0.007131535 -0.00044252098 -0.005847838
0002a0 0d 17 8e bb 56 2f a3 bb ba b3 76 bb b5 8b 3e bc
       -0.004336244 -0.004980008 -0.0037643746 -0.011629988
0002b0 3b d3 35 3b 2d c4 c4 3b 33 55 38 bc 8d 9f e2 3b
       0.0027744311 0.0060048313 -0.011250782 0.0069159926
0002c0 5e 9d 62 3b e4 7d e6 bb dc 2a be 38 c6 ce 98 bb
       0.0034578661 -0.0070340503 9.067889e-05 -0.004663321
0002d0 3b 51 e8 bb 1b a6 bb bb 8b 9b af ba 3d d5 67 bb
       -0.0070897616 -0.0057265884 -0.0013397796 -0.0035374903
0002e0 93 b6 39 ba 20 a6 b4 bb e4 7b 65 bb 65 70 3f 3c
       -0.00070843956 -0.0055129677 -0.0035016472 0.011684512
0002f0 80 0a c5 3b dd b8 c1 bb 87 a8 2d 3c a0 b4 69 3b
       0.0060132146 -0.00591193 0.010599262 0.003566064
000300 97 44 98 bb f6 bc f7 bb bd cf 25 bb 61 77 de bb
       -0.0046468484 -0.0075603677 -0.0025300824 -0.0067891334
000310 da 9e 28 bc d6 15 05 3c ca 8d 85 39 f4 30 44 3a
       -0.010291779 0.008122882 0.00025473378 0.0007484101
000320 48 c5 45 ba 9b 70 49 bc 27 87 9b bb f6 24 2a b8
       -0.0007544351 -0.012294914 -0.004746336 -4.056558e-05
000330 08 be 0b 3c 9a 5c ce bb a8 00 78 3b 3f ba c4 bb
       0.008529194 -0.00629766 0.0037842188 -0.0060036476
000340 ec ad 48 3b b1 7e fd bb cb f7 e6 3b 19 67 97 3b
       0.0030621244 -0.00773605 0.007048582 0.0046204445
000350 9f 7f 13 3c ab d8 18 bb bd d2 fc ba b8 9e 82 3c
       0.009002595 -0.0023322504 -0.0019288879 0.015944824
000360 53 00 82 3b a5 03 bb bb 39 83 90 bb 62 ca 43 bb
       0.003967324 -0.0057072216 -0.004410174 -0.0029875268
000370 34 06 1c bc 06 9b 28 3c 05 94 76 bb 95 b0 e9 bb
       -0.009522963 0.010290867 -0.0037624848 -0.007131646
000380 b3 ce c0 39 ef 15 d7 39 0e b5 af bb 26 d2 20 bc
       0.00036775097 0.00041024337 -0.0053621596 -0.009815728
000390 18 53 af bb f9 76 1b bb ef 53 19 bb d2 20 e4 bb
       -0.0053504817 -0.0023722036 -0.0023395976 -0.0069619203
0003a0 e6 55 ab bb 69 c5 e1 bb 78 c2 9e 39 7d dc 0b bb
       -0.0052287458 -0.006889988 0.00030281 -0.0021341138
0003b0 83 76 57 bb a4 a8 25 3c af b8 9a bb 0b e9 99 3b
       -0.0032877035 0.010111008 -0.004721723 0.0046969703
0003c0 88 d4 4c bb 56 7e ac 39 9f 47 ba bb d0 05 82 3b
       -0.0031254608 0.00032900524 -0.0056848074 0.003967978
0003d0 10 93 0a bc 06 9d 89 3b 7e ee 54 bb 53 48 e0 bb
       -0.008457914 0.004199627 -0.0032490785 -0.006844559
0003e0 58 ba c4 3b 04 db 48 bc 12 13 e3 bb 5b bd 7e bb
       0.006003659 -0.012259249 -0.0069297636 -0.003887019
0003f0 89 26 94 bb 1e 22 e2 bb 0a 96 f8 3a 9f 72 4e bb
       -0.0045211953 -0.0069010397 0.0018965614 -0.0031501425

ablang_branch.1.weight f4 [256]
000000 ce 32 7f 3f a2 2b 80 3f a6 0b 80 3f b9 30 80 3f
       0.99686897 1.0013316 1.0003555 1.0014869
000010 85 4c 80 3f 67 f6 7e 3f 38 12 7f 3f e5 03 7f 3f
       1.0023352 0.9959473 0.99637175 0.9961532
000020 39 c3 7e 3f 9d f2 7e 3f c8 59 80 3f 3b 77 80 3f
       0.99516636 0.9958895 1.0027399 1.0036386
000030 0b 1b 7f 3f e8 5d 80 3f 3c 6d 7f 3f 1c 6b 80 3f
       0.9965064 1.0028658 0.99776053 1.0032687
000040 11 69 81 3f 36 8a 81 3f a5 b2 80 3f 78 8a 81 3f
       1.0110189 1.0120304 1.0054518 1.0120382
000050 ff c9 80 3f 30 c1 7e 3f 3a f0 7d 3f 48 92 80 3f
       1.0061644 0.9951353 0.9919468 1.0044641
000060 b8 4e 7f 3f 0a 3d 7f 3f a6 5f 80 3f ea 69 81 3f
       0.9972949 0.99702513 1.002919 1.0110447
000070 5c c1 80 3f cc 16 80 3f 52 bb 7e 3f 28 67 7f 3f
       1.0059009 1.0006957 0.9950458 0.9976678
000080 a3 ce 7e 3f 4b 04 82 3f 99 d4 80 3f a6 51 80 3f
       0.9953405 1.015756 1.006488 1.0024917
000090 fa 1a 80 3f 33 f9 7e 3f ef a8 7e 3f 30 12 81 3f
       1.0008233 0.99599 0.9947652 1.0083675
0000a0 00 dd 7e 3f ab 1a 7f 3f 1b 53 80 3f 77 51 7f 3f
       0.9955597 0.9965007 1.0025362 0.9973368
0000b0 17 c5 80 3f cd ed 7f 3f 2d 66 7f 3f e3 d7 7d 3f
       1.0060147 0.9997223 0.9976528 0.9915754
0000c0 6c 2e 7f 3f 64 04 7f 3f cd 5c 80 3f 50 53 7e 3f
       0.9968021 0.99616075 1.002832 0.99345875
0000d0 23 f2 7e 3f f7 0e 80 3f 0b 8e 7d 3f 5e cd 81 3f
       0.9958822 1.0004567 0.99044865 1.0140798
0000e0 c9 0b 80 3f 4f bb 7f 3f a9 0e 7e 3f 62 64 80 3f
       1.0003597 0.99895185 0.9924112 1.0030634
0000f0 c3 b3 7d 3f 80 6f 80 3f b5 80 81 3f 09 36 80 3f
       0.9910242 1.0034027 1.0117403 1.001649
000100 bd 15 80 3f ed 97 7e 3f ac 66 7e 3f f7 e6 80 3f
       1.0006634 0.9945057 0.99375415 1.0070485
000110 2f 06 80 3f 07 46 7e 3f dc 12 80 3f 34 e5 7f 3f
       1.0001887 0.99325603 1.0005755 0.9995911
000120 60 02 80 3f fe 84 80 3f 7e 8f 7f 3f 15 7c 81 3f
       1.0000725 1.0040586 0.99828327 1.0115992
000130 8e 99 7e 3f 9d de 80 3f f8 5c 81 3f 20 a8 7d 3f
       0.99453056 1.0067936 1.0106497 0.99084663
000140 3c d9 7e 3f f5 5b 80 3f d9 53 80 3f fe 68 7f 3f
       0.99550223 1.0028063 1.0025588 0.9976958
000150 e4 95 80 3f cb bc 7f 3f 53 c1 7e 3f 8b b8 7e 3f
       1.0045743 0.9989745 0.9951374 0.9950034
000160 99 e6 7e 3f 30 0d 81 3f a5 9d 80 3f ef bf 80 3f
       0.99570614 1.008215 1.0048109 1.0058573
000170 c9 57 7f 3f 4c d8 7f 3f f1 85 81 3f d5 a5 80 3f
       0.99743325 0.9993942 1.0119001 1.0050608
000180 bb 0a 7d 3f c5 8b 7f 3f e9 4c 7e 3f 19 03 7f 3f
       0.988445 0.99822646 0.99336106 0.996141
000190 46 60 7f 3f 0c 30 80 3f 1e df 7d 3f 2d 14 80 3f
       0.99756277 1.0014663 0.99168575 1.0006157
0001a0 28 71 80 3f ac 8f 7f 3f 83 34 80 3f 26 6e 7f 3f
       1.0034533 0.998286 1.0016025 0.9977745
0001b0 60 9d 7f 3f 3e 06 80 3f f3 6a 7e 3f 1a d2 7f 3f
       0.9984951 1.0001905 0.9938194 0.99929965
0001c0 b1 74 7d 3f 59 be 7d 3f cc 2e 80 3f 88 2d 80 3f
       0.9900618 0.9911857 1.0014281 1.0013895
0001d0 b2 06 7e 3f b9 33 81 3f db ba 7f 3f 1a 50 80 3f
       0.99228966 1.009391 0.99894494 1.0024445
0001e0 98 18 80 3f 83 be 7d 3f 1e c7 7f 3f 85 cb 7f 3f
       1.0007505 0.9911882 0.99913204 0.9991992
0001f0 1c 3c 80 3f f9 ac 80 3f a1 51 80 3f df 62 80 3f
       1.0018344 1.0052787 1.0024911 1.0030173
000200 75 e0 7f 3f 47 67 7d 3f 17 19 80 3f c5 25 81 3f
       0.9995187 0.98985714 1.0007657 1.0089651
000210 41 9e 80 3f b1 63 80 3f 62 2a 80 3f 93 45 80 3f
       1.0048295 1.0030423 1.0012934 1.0021232
000220 30 97 80 3f 89 67 7e 3f 45 65 80 3f 97 f2 7e 3f
       1.0046139 0.9937673 1.0030905 0.9958891
000230 ab ec 7f 3f 85 53 80 3f 4b c7 7f 3f 92 b6 7f 3f
       0.999705 1.0025488 0.9991347 0.99887955
000240 e8 39 7e 3f be 48 7f 3f bb 75 81 3f 5c 7e 7f 3f
       0.9930711 0.9972037 1.0114053 0.99802184
000250 7a 25 81 3f 2f 2f 80 3f 5a a0 7f 3f a6 94 7f 3f
       1.0089562 1.0014399 0.9985405 0.99836195
000260 64 51 7f 3f 7f 7f 7f 3f f4 27 80 3f 68 54 80 3f
       0.9973357 0.9980392 1.0012193 1.0025759
000270 b0 23 7e 3f 8d 2a 80 3f e2 50 7f 3f 3f fb 7f 3f
       0.99273205 1.0012985 0.9973279 0.99992746
000280 0e a0 80 3f f5 6e 7e 3f 71 40 7e 3f 2b dc 7e 3f
       1.0048845 0.99388057 0.9931708 0.995547
000290 7e bc 7f 3f e8 c3 80 3f 43 a0 7f 3f c7 6d 80 3f
       0.9989699 1.0059786 0.99853915 1.0033501
0002a0 60 46 7f 3f ae e8 7e 3f 91 0d 7f 3f 46 04 80 3f
       0.9971676 0.9957379 0.99630076 1.0001304
0002b0 7e 77 7f 3f 67 0c 80 3f 21 ca 7c 3f 4a 2b 80 3f
       0.99791706 1.0003785 0.98745924 1.0013211
0002c0 ac 3d 80 3f 75 e3 7e 3f 54 96 80 3f da f8 7e 3f
       1.0018821 0.9956582 1.0045877 0.9959847
0002d0 b8 05 7c 3f 1b 85 7e 3f 59 3f 7f 3f 05 f5 7f 3f
       0.98446226 0.9942185 0.99706036 0.99983245
0002e0 9b 38 7f 3f 2d 79 7f 3f 97 9d 7f 3f 07 ee 80 3f
       0.9969575 0.99794275 0.9984984 1.007264
0002f0 62 b1 80 3f 3a 31 80 3f c0 c3 81 3f 55 e0 7d 3f
       1.0054133 1.0015023 1.0137863 0.9917043
000300 e4 d6 7f 3f c8 c8 7f 3f e0 4d 80 3f 79 9d 7e 3f
       0.9993727 0.9991574 1.0023766 0.99459034
000310 d8 22 81 3f d3 30 7f 3f a9 25 80 3f f3 73 7f 3f
       1.0088758 0.99683875 1.0011493 0.997863
000320 f7 14 80 3f 35 87 80 3f 66 d6 80 3f 5c fe 7f 3f
       1.0006398 1.0041262 1.0065429 0.99997497
000330 99 e1 80 3f 64 51 7d 3f fb 56 80 3f c4 89 80 3f
       1.0068847 0.9895232 1.0026544 1.0042043
000340 9d 6b 80 3f 5a d4 80 3f cd b5 80 3f ca 4e 80 3f
       1.0032841 1.0064805 1.0055481 1.0024045
000350 d3 eb 80 3f 6a 07 80 3f 27 4b 7d 3f 3b de 80 3f
       1.0071968 1.0002263 0.989428 1.0067819
000360 f3 ed 7f 3f cb 60 7e 3f 64 0a 7f 3f d4 2c 80 3f
       0.99972457 0.99366444 0.9962523 1.001368
000370 d6 d0 7d 3f 1c 49 80 3f 8e e8 7c 3f d7 40 7f 3f
       0.99146783 1.0022311 0.9879235 0.9970831
000380 56 0e 80 3f b0 45 80 3f 61 1f 80 3f 39 8f 80 3f
       1.0004375 1.0021267 1.0009576 1.0043708
000390 b8 57 7e 3f b7 bc 7e 3f 46 b1 7e 3f 6b ec 7f 3f
       0.993526 0.99506706 0.9948925 0.9997012
0003a0 d5 b2 81 3f ea f4 7f 3f 67 bd 7f 3f f5 a0 7d 3f
       1.01327 0.99983084 0.9989838 0.99073726
0003b0 b3 20 7f 3f bd fd 80 3f be a5 7f 3f 3c f4 80 3f
       0.9965927 1.0077435 0.9986228 1.0074534
0003c0 e3 6f 7e 3f 96 36 80 3f 97 0f 7f 3f 95 36 80 3f
       0.99389476 1.0016658 0.99633163 1.0016657
0003d0 17 85 80 3f 57 0a 80 3f 73 6d 7e 3f de 38 7d 3f
       1.0040616 1.0003155 0.99385756 0.989149
0003e0 45 a1 80 3f 62 24 81 3f 2d 49 7f 3f af 48 7e 3f
       1.0049216 1.0089228 0.9972103 0.99329656
0003f0 fa a4 80 3f b3 18 81 3f 5f 8c 7f 3f 0b 33 7f 3f
       1.0050347 1.0085663 0.99823564 0.9968726

ablang_branch.1.bias f4 [256]
000000 f6 98 70 39 b7 7d c4 bb 9d 45 d7 bb 3b 23 14 bb
       0.00022945166 -0.0059964317 -0.006569578 -0.0022604007
000010 81 be af 3b a2 a0 8a bb fe c3 1f 3b ec 5e 84 ba
       0.005363286 -0.0042305747 0.0024378295 -0.001009909
000020 e6 35 a6 bb 84 50 90 3a 99 26 4c bb bc 51 87 3b
       -0.005072343 0.0011010324 -0.0031150936 0.0041296165
000030 2c 8b b7 bb 13 38 89 3b dc 06 ee ba f6 fa db bb
       -0.0056013074 0.004187593 -0.0018160003 -0.0067132665
000040 2a d2 1c 3c fd e5 b1 3a 00 71 bf bb bf c2 6a 3c
       0.009571591 0.001357257 -0.005842328 0.014328658
000050 bd 19 f0 3b bc c5 94 bb 34 ef a7 3b ce 52 b9 3b
       0.007327287 -0.0045401733 0.005124951 0.005655623
000060 a9 d6 1f bb c0 5a b1 ba 65 14 09 bc 27 e2 24 3c
       -0.0024389422 -0.0013531074 -0.008366679 0.010063685
000070 35 c4 ef 3b 72 f9 27 3b d4 b1 49 bb ab d0 91 bb
       0.007317091 0.0025630859 -0.003077616 -0.004449924
000080 0c cc c6 3b 82 0e 01 bc 41 23 df 3b 6c 45 22 3c
       0.0060668048 -0.007876994 0.0068096225 0.009904247
000090 22 2e 00 ba 9e 94 dd bb ef 76 05 bc 0f 7d 07 bc
       -0.0004889687 -0.0067621013 -0.008146032 -0.008269562
0000a0 dc b9 26 3b 17 84 61 bb b3 3f bb 3b 66 43 3b bb
       0.002544037 -0.0034411007 0.0057143806 -0.0028574108
0000b0 ef 2b ba 3b 92 67 44 3b b8 81 5d bb 00 13 df bb
       0.005681507 0.002996896 -0.0033799242 -0.006807685
0000c0 76 e7 67 3a 36 ce cb bb 44 6b 3f bb 7c 5d fa bb
       0.0008846441 -0.0062196506 -0.0029208222 -0.0076405387
0000d0 c8 95 02 bc 50 d6 7f 3b 0a b7 38 3b df c0 50 3c
       -0.007970281 0.0039037652 0.0028185272 0.012741297
0000e0 70 85 2d 3a 40 f1 cf ba 81 5c bd bb fe 8d 71 3b
       0.000661931 -0.0015864745 -0.0057788496 0.0036858316
0000f0 c9 92 f6 bb fc ca 15 ba b5 ba 72 3c 1b 8b 24 bc
       -0.0075248224 -0.0005714146 0.014815022 -0.010042931
000100 e6 8a cd b9 84 e4 29 bc 14 71 92 3b 9d b3 ee 3b
       -0.00039204134 -0.010369424 0.0044690464 0.007284595
000110 17 2a b4 ba a7 15 03 bc 63 4d c2 3b 3d 44 10 ba
       -0.0013745454 -0.008000768 0.0059296354 -0.00055033324
000120 a4 22 4b 3a 2c c9 ce 3b b6 96 75 3b 5b be 4e 3c
       0.00077489973 0.0063106027 0.0037473864 0.0126186265
000130 f7 3d bf 3a a5 d0 ed 3b 85 0c 46 3c 26 8e 09 3b
       0.001459061 0.0072575384 0.012087946 0.0020989268
000140 f6 73 11 bb 04 e4 a0 3a f2 1b 0f 3b 90 b3 ca ba
       -0.0022194362 0.0012274985 0.0021836725 -0.0015464891
000150 a4 a1 c3 3b ed a3 7c bb ca 4d 31 bc ab 30 1a 3a
       0.005970197 -0.0038549856 -0.010821769 0.0005881886
000160 c5 05 fa ba ad 64 94 bb 69 6e b6 3b d4 d2 f7 3b
       -0.0019075206 -0.004528603 0.005567361 0.0075629745
000170 f0 ed 96 bb 10 c3 b4 bb 73 52 20 3c c8 8e 8b bb
       -0.004606001 -0.0055164173 0.009785282 -0.004258964
000180 18 fb a6 3b 2e 05 02 ba b3 9b 17 bc 34 08 8b 3b
       0.0050958507 -0.0004959878 -0.00925343 0.0042429212
000190 c4 ac ce bb 0b 4d b9 bb da 13 24 bb d7 b9 01 bc
       -0.0063072164 -0.005654936 -0.0025036247 -0.007917843
0001a0 58 aa 18 bc 67 d5 42 bb 1f 94 80 bb e6 b7 ff bb
       -0.009317957 -0.0029729248 -0.0039239074 -0.007803905
0001b0 aa b8 d2 b9 5e 99 5f b8 9b ce 8a bb 3b 56 f4 ba
       -0.00040191907 -5.3310177e-05 -0.004236055 -0.0018641421
0001c0 d0 0c 76 bb 1a d6 16 bc 15 e2 33 bc 10 18 10 ba
       -0.0037544258 -0.009206319 -0.010979195 -0.00054967497
0001d0 d0 8b a7 3b 38 cc 24 3c 08 00 7f 39 d3 5c b0 bb
       0.0051131025 0.010058455 0.00024318707 -0.0053821593
0001e0 ab 51 e1 39 74 98 f5 bb 09 b6 8c b9 65 ac 34 3b
       0.00042976192 -0.0074949805 -0.00026838508 0.0027568575
0001f0 38 98 1b 3b 3d c5 43 3b c2 d4 90 bb 4a 5b 29 3b
       0.0023741852 0.0029872202 -0.004419894 0.0025841766
000200 f2 97 d3 3b 09 2d 64 3b b0 74 5a 3b 3f 4c 25 3c
       0.0064573223 0.0034816882 0.0033333711 0.010088979
000210 16 b7 90 bb 03 23 cd 3b fc 9f ba 3b c6 1d 84 bb
       -0.004416357 0.0062602772 0.005695341 -0.0040318696
000220 55 8c c3 bb 86 58 26 ba 31 02 d0 3a 5b 9d b5 ba
       -0.0059676566 -0.00063455885 0.0015869794 -0.00138561
000230 18 40 dc bb a3 a2 72 3b 12 92 2a 3b a3 06 50 3b
       -0.0067215078 0.0037023209 0.0026027006 0.0031742237
000240 ab 6a 9d 3a 11 21 60 bb 64 c8 39 3c 96 d3 8e 3a
       0.0012009939 -0.0034199397 0.011339281 0.0010896798
000250 66 fc 0b bc d3 95 70 3b 41 91 28 bb 4f 30 05 3a
       -0.008544063 0.0036710396 -0.0025721344 0.0005080746
000260 c3 3b 3e ba d9 fd 8d bb 4e ab 0c 3b f8 32 53 bb
       -0.000725683 -0.0043332395 0.002146441 -0.0032226425
000270 92 81 4a 39 01 d1 23 bc 6b 53 e7 ba f9 21 72 bb
       0.0001931249 -0.009998561 -0.0017648762 -0.0036946519
000280 2b f4 b4 3b b8 02 46 b9 78 e6 5c bb 6d 1d 04 bb
       0.005522271 -0.00018883764 -0.0033706706 -0.002015914
000290 45 78 b5 ba a5 b0 cb bb 92 14 44 ba 01 fe ac bb
       -0.0013845047 -0.006216126 -0.0007479872 -0.005279303
0002a0 5f 41 a1 bb 26 31 a0 bb e6 6a 63 bb a7 fd 36 bc
       -0.004921123 -0.0048886715 -0.0034701168 -0.011168874
0002b0 9a 84 e3 3a e1 af b8 3b 6e c5 36 bc 18 16 fb 3b
       0.0017358244 0.005636201 -0.011155469 0.007662546
0002c0 5e 04 46 3b 8b d2 f3 bb 72 16 91 3a ca af ac bb
       0.0030215005 -0.00744087 0.0011069311 -0.005269979
0002d0 19 77 fa bb d3 19 c1 bb 6f 93 9b ba 1e 1e 3a bb
       -0.007643592 -0.005892971 -0.00118695 -0.00283993
0002e0 2a 5b f3 b9 48 49 a2 bb 18 ee 01 bb f2 36 36 3c
       -0.00046416494 -0.0049525835 -0.0019825753 0.011121498
0002f0 9e 79 b2 3b 36 dc d9 bb 78 f2 32 3c 7c d9 97 3b
       0.005446627 -0.0066485656 0.010922067 0.0046340805
000300 6c ae c9 bb 8c ca 08 bc ae 10 66 bb ac 4d e5 bb
       -0.006154826 -0.008349072 -0.0035105157 -0.0069977846
000310 9d 24 0c bc 18 be ec 3b 67 4b 28 3a 4a fe 7b 3a
       -0.008553651 0.0072248094 0.0006419927 0.0009612782
000320 2d 16 a5 ba 01 54 7d bb 65 76 d8 bb 68 a3 22 ba
       -0.001259511 -0.0038654807 -0.0066059106 -0.0006204159
000330 26 00 04 3c bb 03 cf bb be 07 4d 3b 3f 27 a3 bb
       0.008056676 -0.0063175834 0.0031285132 -0.0049790437
000340 6c 6f 4b 3a 1a 60 08 bc d3 3f de 3b d5 2b a2 3b
       0.00077604386 -0.008323694 0.006782511 0.004949073
000350 b4 a7 19 3c 3a 8e f6 ba bc 40 81 ba 0d b7 82 3c
       0.009378362 -0.0018810697 -0.0009861211 0.015956426
000360 81 a3 5e 3b d8 88 bf bb 1b 3b 8d bb b1 a4 32 bb
       0.0033971968 -0.0058451705 -0.0043100244 -0.0027258808
000370 09 42 26 bc ce 2b 32 3c 43 e6 99 bb 68 2d f1 bb
       -0.01014758 0.010874702 -0.004696639 -0.007360149
000380 6b 6a c6 b9 02 2a a9 39 71 48 92 ba 8f 1e 08 bc
       -0.0003784479 0.0003226549 -0.0011160505 -0.008308067
000390 5c d0 a3 bb aa f3 e8 ba 33 54 1c bb ec 30 a4 bb
       -0.0049992036 -0.0017772813 -0.0023853898 -0.0050107148
0003a0 98 14 af bb 30 58 c2 bb a8 e6 f1 3a 0e be 36 bb
       -0.005343031 -0.005930923 0.0018455582 -0.0027884278
0003b0 e9 24 46 bb 80 3f 2b 3c 6d 46 b5 bb 13 be 92 3b
       -0.0030234403 0.010452151 -0.005532077 0.004478225
0003c0 27 27 42 bb 01 7e 8f 3a c5 bd b9 bb 44 6b 6f 3b
       -0.0029625387 0.0010947586 -0.0056683742 0.003653244
0003d0 05 b8 04 bc ad ab 52 3b fd e4 7b bb af 58 01 bc
       -0.008100514 0.0032145784 -0.0038436048 -0.007894679
0003e0 3b 10 ab 3b a3 ae 16 bc d6 5b f1 bb 30 b5 36 bb
       0.0052204407 -0.00919691 -0.007365684 -0.0027878992
0003f0 3c 7e a3 bb e5 5c 00 bc ea ef b3 3a c0 a8 67 bb
       -0.0049894135 -0.007834648 0.0013728116 -0.0035348386

ablang_branch.4.weight f4 [128, 256]
000000 b9 7c d9 bd 30 64 37 3d fa 66 52 3d 21 da c4 bd
       -0.10619492 0.04477328 0.051367737 -0.09611917
000010 6c 51 2e bd 64 a8 1d 3c 1f 0c e8 bc 70 db ac bd
       -0.04255812 0.009622667 -0.028326092 -0.08440292
000020 19 28 d7 bd 5c 07 fc 3c 8c 71 d8 bc aa 18 ed bd
       -0.10505695 0.030765228 -0.02642133 -0.1157697
000030 40 7a 51 3e ef 7e b2 3c 64 4a 81 3d d8 9b 02 bd
       0.20456791 0.021789042 0.06313017 -0.031886905
000040 ef 47 83 bd 11 49 12 bc 6e 27 b2 3d 83 c0 7e bd
       -0.064102046 -0.008928553 0.08698927 -0.062195312
000050 fb 5f dd bc 52 a3 37 3c 3a 28 4a be 15 32 17 bd
       -0.027023306 0.011208372 -0.19741908 -0.036912996
000060 da 6d 5b 3c 7b f5 a7 3d eb c9 a6 3d 12 4c 0a bc
       0.01339289 0.082011186 0.081439815 -0.008440988
000070 52 f2 57 bd 5d fa f8 bd e1 27 c3 bd 86 2c 6e bc
       -0.05272133 -0.12157128 -0.09529091 -0.014536982
000080 8a 31 cf 3b 9a af d4 3d 29 8d 76 bd e9 7f 96 bd
       0.006323044 0.10385056 -0.060193215 -0.07348616
000090 b3 f3 03 3e 42 51 5f 3d 6f 87 ab 3c 8d 8d 3b 3d
       0.12885933 0.054520853 0.020938603 0.04578929
0000a0 0d 86 e8 3c 20 bd 50 3c 7d b7 9a bd 09 2a 1b 3e
       0.028384233 0.012740403 -0.07554529 0.15152754
0000b0 99 ab 95 bd f6 1c 92 bd ae 99 7b 3d a9 94 97 bd
       -0.0730812 -0.0713443 0.061425857 -0.074014015
0000c0 1b 6e a6 bc 23 12 a8 3b b0 97 f8 3d 44 63 13 be
       -0.020316174 0.005129115 0.12138307 -0.14393336
0000d0 5f 0d ab 3c 6c ad d4 bc 3e f9 a2 bd 51 0e a3 bb
       0.0208804 -0.0259616 -0.079576954 -0.004976072
0000e0 6f 95 46 bd ae 65 33 bd 84 b4 fa bc 7b 32 a0 bb
       -0.048482355 -0.04379814 -0.030603655 -0.0048888302
0000f0 12 d4 ed bc a7 74 5f 3d 16 b2 0b bd 45 00 70 3d
       -0.029031787 0.054554608 -0.034105383 0.058594007
000100 c7 6b cb bd b8 d1 c7 bd fb 04 ef bb df 00 ae 3d
       -0.09932666 -0.097567976 -0.007294295 0.0849626
000110 39 9f ff 3c 0d 81 23 be 40 46 5e 3d e0 5d be 3c
       0.031203853 -0.15967198 0.054266214 0.023238122
000120 95 c8 c7 3c a4 88 d7 bc 83 f2 3c 3d df 14 8a 3d
       0.024387637 -0.026310273 0.046129715 0.06742262
000130 6a 5e 61 ba bb b1 fe 3d eb a5 d6 bc cc d8 9a bd
       -0.00085971376 0.12436243 -0.026202163 -0.07560882
000140 81 7a 15 be 44 44 ed bd 58 26 a4 bc e7 9c af bd
       -0.14597513 -0.11585286 -0.020037815 -0.085748486
000150 6c 17 45 bd 03 9c ac bd 7c 7f 98 bd 88 b2 00 3c
       -0.04811804 -0.084281944 -0.07446191 0.007855065
000160 bf 67 a0 bc 57 f0 de bd ba 45 6c ba d5 9a f4 bc
       -0.01958072 -0.10885685 -0.00090130756 -0.029858986
000170 08 a9 64 bd 76 79 32 3d cc 8b 0a 3d 76 22 c9 3d
       -0.055825263 0.043572865 0.033824727 0.09821026
000180 40 23 64 be d5 fa be 3c 6c 18 33 bd 0a 33 20 be
       -0.22279072 0.023312965 -0.043724462 -0.1564447
000190 e0 cb 85 3d 64 d1 fd 3d 3a c6 59 bd 6f e6 f6 3d
       0.06533027 0.12393454 -0.05316756 0.120556705
0001a0 2c 0a 54 3d 37 77 94 3d 1c e7 6a bc c3 be ec 3c
       0.051767513 0.07249301 -0.014337327 0.028899556
0001b0 23 99 a7 bc c6 a6 02 be 2e 2d 82 3d b2 c7 14 3a
       -0.020458763 -0.12758932 0.063562736 0.0005675509
0001c0 9d a0 23 3e d9 e7 26 3d 40 28 f0 bd f7 7a 07 3e
       0.15979238 0.04074845 -0.11726427 0.13230501
0001d0 1a f0 35 3d fd 06 6a 3e 6a 45 2d 3d d5 14 8a bd
       0.04441843 0.22854228 0.042302527 -0.06742255
0001e0 6d b9 8a bd 56 e5 c1 3d 91 ab 2e 3c fb 2a 07 3c
       -0.067736484 0.094675705 0.010661022 0.008249993
0001f0 68 87 20 3d fa c8 be bd 5b 05 f3 bb 08 0c 9a bd
       0.039191633 -0.09315677 -0.00741641 -0.07521826
000200 a6 72 26 bd b7 a4 ad bd 6c 96 dc bc 85 7e 85 bd
       -0.04063668 -0.084786825 -0.026927195 -0.06518272
000210 87 e7 83 3c de 51 1a be 99 44 57 3c 45 ff c6 bd
       0.016101612 -0.15070292 0.013138914 -0.097166575
000220 9c fc 71 bd fa 22 9a 3d 8e 7e fb 3d 10 46 87 3c
       -0.059078798 0.075262025 0.12279998 0.0165129
000230 f5 f3 e0 3d 1e 8f 9f be 39 f8 9d 3d 7b e4 9f bd
       0.10984031 -0.31163877 0.0771336 -0.07807251
000240 05 49 0c 3e 2c 6a fc 3d 70 eb e0 bd 95 82 65 3d
       0.1369973 0.12324938 -0.10982406 0.056032736
000250 71 d1 f7 bc c8 40 80 3d c3 15 1b 3e 0d c7 bd 3d
       -0.030251237 0.06262356 0.1514502 0.092664815
000260 8d d3 28 be 6d fb 46 bd e6 f5 b9 3d 62 bf c8 3b
       -0.1648695 -0.048579622 0.090801045 0.0061263302
000270 33 6f 3f be c4 93 a6 bd 37 35 73 3d a1 9d 3f bc
       -0.18694763 -0.08133653 0.05937692 -0.0116952965
000280 25 60 73 3c 4b af fa 3c 77 07 15 3e e6 5e 1e 3d
       0.014854466 0.030601164 0.14553629 0.03866472
000290 a6 9f 0a 3d 17 69 ba bc d5 ee 46 be 57 fd fa 3d
       0.03384366 -0.022755189 -0.19427045 0.12255352
0002a0 5b e7 c5 3b 3a 0e bc 3c a5 54 fc 3b c9 00 e1 3c
       0.0060395426 0.022956003 0.00770052 0.027466195
0002b0 75 1b a2 bd e3 a4 b5 bd 62 85 0f 3e 3a b2 c4 bd
       -0.07915393 -0.0886934 0.14015725 -0.096043065
0002c0 ac 79 4a bd cf b0 23 bd ad e5 a0 3c b2 08 97 3d
       -0.04943244 -0.03996354 0.019640768 0.073747054
0002d0 44 ed 0b 3e a2 3d 9e bd 0d 43 03 3e c6 1b 4a bd
       0.13664728 -0.07726599 0.12818547 -0.049342893
0002e0 cc 43 29 3d e3 23 c6 bd 62 68 ff 3d 64 8b 81 bd
       0.04132442 -0.096748136 0.12471081 -0.06325415
0002f0 39 ea 29 39 08 47 db bd 1d c6 ff bc a1 f8 25 3d
       0.0001620435 -0.107069075 -0.031222397 0.040520314
000300 fc 80 da bc c0 bc d8 3d 48 e0 b7 bd 44 65 0d 3e
       -0.026672833 0.10582876 -0.08978325 0.13808161
000310 89 7b 6f bd 89 62 b5 bd 51 7b b8 bc d9 92 1e be
       -0.05846742 -0.08856685 -0.02251974 -0.15485705
000320 34 4e 3e bc 76 92 0f 3d 7b 55 0e 3d 7d b0 4a 3d
       -0.011615325 0.035051785 0.03474949 0.04948472
000330 f4 e8 28 3e cf ea 25 be 2e 18 73 3d 5e 3f 23 bd
       0.16495115 -0.16202854 0.05934923 -0.039855354
000340 bc 13 c1 bc 3f 2d 85 bd 38 f8 bb bb 4a 43 30 bd
       -0.02356898 -0.06502771 -0.005736377 -0.04303292
000350 ca 37 e4 bd 4b 97 85 3d 8c ef 5b bd fb a2 4f 3d
       -0.111434534 0.065229975 -0.053695247 0.05069254
000360 13 c5 f7 3c 1e a0 e9 3a 3c c6 89 3b e3 b6 49 bc
       0.03024534 0.0017824208 0.0042045396 -0.01231167
000370 24 bb bb bb 9a 7c c4 3d bf 2b f4 bb 9e 25 8a bd
       -0.005729096 0.09594078 -0.007451504 -0.06745456
000380 eb fe 74 3d 28 fe 9c 3c ed a4 5f 3d fe b2 82 bd
       0.05981342 0.01916416 0.054600645 -0.06381796
000390 12 77 80 3d 59 a7 4d bd ab af 89 3d c2 de b1 bc
       0.06272711 -0.050208423 0.06722959 -0.021712665
0003a0 0b 2e 2d 3d b1 eb ae 3d ba 82 27 3d 0a e6 ae bc
       0.042280238 0.08541048 0.040896155 -0.021349926
0003b0 30 99 7d 3d 0f 04 86 bd 49 4b bb bd ec 37 c8 bd
       0.06191367 -0.06543743 -0.09145219 -0.09776291
0003c0 f8 68 0f bd ec c0 af 3d 97 6c 17 be 55 34 8a 3d
       -0.035012215 0.08581719 -0.14787517 0.06748263
0003d0 21 c0 cc 3c ca 36 f2 3c 00 49 c4 3c 4e 85 8b 3c
       0.024993958 0.029567141 0.02396059 0.017031338
0003e0 c5 25 2c bd 27 a8 b2 3d 4b 49 4e bd bd 38 a0 bd
       -0.042028207 0.08723479 -0.050362866 -0.07823322
0003f0 56 aa c4 3c 51 58 99 bb 68 48 7a 3d c4 c5 18 3e
       0.024007004 -0.0046797176 0.06110421 0.14919192

ablang_branch.4.bias f4 [128]
000000 01 8c 07 bc 8d da 0a bc c9 3f d9 bb bf 4c c8 bb
       -0.008273126 -0.008474958 -0.0066299182 -0.0061126645
000010 f2 f6 ca 3a ca ff 64 3b f5 e8 b4 3a e7 b8 ef 3b
       0.0015484972 0.0034942501 0.0013802337 0.0073157432
000020 0b c7 ad 3a b9 1a f3 3b cb 06 10 bc 80 ed ef bb
       0.0013258172 0.007418957 -0.008790682 -0.0073220134
000030 c3 c6 86 ba 97 10 a6 3b 0a 97 9b ba c5 4a c4 bb
       -0.0010282624 0.0050678956 -0.0011870575 -0.0059903585
000040 42 f7 95 bb 80 b8 a9 3b 3a dc 5b bc 54 ba 01 bb
       -0.0045765946 0.005179465 -0.013419205 -0.0019794898
000050 dd d1 19 bc 69 33 5d 3c 45 2a 62 bc 33 45 43 bc
       -0.009388414 0.013501027 -0.013804023 -0.011918354
000060 e0 28 03 bc 22 0a 3b 39 15 c0 9d 3c 8b cb 4f bc
       -0.008005351 0.00017837484 0.01925663 -0.012682806
000070 93 7a a9 bb cb 7c 36 bc 4e 96 67 3b 9c 19 8b bb
       -0.0051720827 -0.011138151 0.0035337391 -0.0042449962
000080 a8 e4 24 3c fc 1b 8a bc ce 38 ac b9 ca fa 1f bc
       0.0100642815 -0.016859047 -0.0003284872 -0.009764383
000090 9c 61 8c bc 1c a9 33 3b f8 bc 33 bc 25 83 73 bb
       -0.017136388 0.002741403 -0.010970347 -0.0037157026
0000a0 5e 2a f6 3b 7d 82 39 bc c7 c9 2e bc 30 ab 0a bb
       0.007512375 -0.011322615 -0.010668225 -0.0021159165
0000b0 5e e4 5c bb c8 47 2f 3c 6d 3d 35 bb e0 f4 6e ba
       -0.0033705453 0.010698266 -0.002765502 -0.0009115469
0000c0 e6 dc 6c 3c 4b e6 4c 3c 30 86 4c bc d1 57 9e 3a
       0.014456963 0.012506078 -0.012483165 0.0012080615
0000d0 2e 2c c9 bb 9f e3 be 3b a6 73 e9 bb 6f f0 df bb
       -0.0061393 0.0058254744 -0.007124382 -0.006834082
0000e0 12 79 83 b9 f2 12 11 bc 2b fb 4c 3c c9 00 78 bb
       -0.00025076472 -0.008854615 0.012511055 -0.0037842265
0000f0 f1 fb 15 bc 4c 12 f3 bb 94 26 1e bc 68 28 51 bc
       -0.009154306 -0.0074179526 -0.009652752 -0.012765981
000100 07 38 e6 3b 03 78 88 3c ae 28 69 3a 67 e3 88 39
       0.007025722 0.016658789 0.00088943064 0.0002610937
000110 42 8b 49 3c 7e f3 e5 ba 8b 2a 0e ba d5 c0 3c bc
       0.012301268 -0.001754388 -0.00054232095 -0.011520584
000120 fa d0 77 3c 95 11 22 bc 19 d7 7e ba 98 3d d9 bb
       0.0151255075 -0.009891887 -0.0009721383 -0.006629657
000130 db 1e ef bb 80 bb bc b9 c6 0a be b9 65 21 b0 bb
       -0.0072973794 -0.00035997853 -0.0003624765 -0.0053750747
000140 3f c3 a9 bb 56 fb 47 bc 65 b2 96 3b b3 61 b7 bb
       -0.005180746 -0.012205919 0.004598903 -0.0055963635
000150 bc 5a 80 bc 26 7a 64 3c f0 e4 e1 bb 09 2b 8d bb
       -0.015668266 0.013945138 -0.0068937466 -0.0043081087
000160 7f 5b ea ba 90 2c 28 3b 29 bf 3f 3b 09 a5 00 bc
       -0.0017880051 0.0025661327 0.0029258227 -0.007851847
000170 74 e2 03 bb 46 dc 2b bc 9e 4a 38 bb 06 71 56 3c
       -0.002012399 -0.010489529 -0.0028120647 0.01308847
000180 29 49 ec ba 5d ed 90 bc 45 af 9f bb 27 c4 6b 3c
       -0.0018027175 -0.017691309 -0.0048731887 0.014390028
000190 48 30 1b 3c c0 1a f7 3b c4 7e 19 ba 15 d8 17 bc
       0.00947196 0.0075410306 -0.00058553764 -0.009267827
0001a0 2c cb 01 3c bd 08 7f 3c 4e e6 89 b9 c2 fa 8d bb
       0.007921975 0.015566048 -0.00026302267 -0.004332871
0001b0 fb 68 85 3a 1d e7 5d 3b ae 9e 69 bb 0b 44 a9 3b
       0.0010178381 0.0033859678 -0.003564756 0.005165582
0001c0 d7 53 3f 3c 67 3e d2 bb 05 25 18 bc 09 4a 9e ba
       0.011677704 -0.0064161303 -0.00928617 -0.0012076508
0001d0 b9 6d 17 bc 68 6b bf 3c 13 7f e1 bb f0 d1 6c bc
       -0.0092424685 0.023366645 -0.0068816035 -0.01445435
0001e0 2b 61 7b bb b3 54 1e bc 46 f6 87 bb 46 6a a0 bb
       -0.0038357477 -0.009663749 -0.004149231 -0.0048954813
0001f0 7c 04 29 bb 1b ab 6c bc 22 86 63 3b 44 e7 e3 bb
       -0.0025790026 -0.014445092 0.00347174 -0.0069550592

ablang_branch.5.weight f4 [128]
000000 89 88 7d 3f b3 ea 7f 3f fe b9 7b 3f a2 69 7e 3f
       0.9903646 0.999675 0.98330677 0.9937993
000010 51 37 7f 3f 88 16 80 3f 97 e7 7e 3f 8e 1c 80 3f
       0.9969378 1.0006876 0.9957213 1.0008714
000020 35 09 7e 3f 3e 29 7f 3f 6c 6a 7f 3f d0 4c 80 3f
       0.992328 0.99672306 0.9977176 1.0023441
000030 43 f6 7e 3f 5b 9e 80 3f bd eb 7f 3f 4f d1 7d 3f
       0.99594516 1.0048326 0.99969083 0.99147505
000040 c3 38 7f 3f a2 8f 7f 3f 6a df 7e 3f 66 fe 7d 3f
       0.99695987 0.9982854 0.9955965 0.99216306
000050 6e 06 7e 3f 72 3a 81 3f c2 56 7f 3f 92 d2 7f 3f
       0.9922856 1.0095961 0.99741757 0.9993068
000060 c2 f8 7e 3f 0d 5a 7f 3f f5 eb 81 3f 22 c5 7b 3f
       0.99598324 0.9974678 1.0150133 0.98347676
000070 61 40 7d 3f 94 f6 7d 3f 1b 1e 7e 3f ec 54 80 3f
       0.9892636 0.99204373 0.9926469 1.0025916
000080 09 25 81 3f 0b eb 7e 3f 43 dc 7f 3f f1 f8 80 3f
       1.0089427 0.995774 0.9994547 1.0075971
000090 b4 9f 7e 3f 1b cb 7e 3f 34 4e 80 3f 4d 91 7e 3f
       0.9946244 0.99528664 1.0023866 0.9944046
0000a0 d0 73 7f 3f 1e 2b 7d 3f 79 16 80 3f e4 68 7f 3f
       0.9978609 0.98893917 1.0006858 0.99769425
0000b0 5c 26 7e 3f 5c 94 80 3f f3 cc 80 3f 46 94 7e 3f
       0.9927728 1.0045276 1.0062546 0.99445
0000c0 a7 03 81 3f 11 31 81 3f 79 56 7f 3f 4d a3 7d 3f
       1.007924 1.0093099 0.9974132 0.990773
0000d0 d3 5f 7e 3f 53 f5 7d 3f 58 15 7f 3f 66 c5 7e 3f
       0.99364966 0.9920246 0.9964194 0.99519956
0000e0 5c f5 7e 3f 8f 1b 80 3f 0b 56 81 3f e5 c9 7f 3f
       0.9959314 1.000841 1.0104383 0.9991744
0000f0 96 b3 7e 3f 08 89 7d 3f 3c 55 7e 3f 34 44 7f 3f
       0.99492776 0.9903722 0.9934881 0.99713445
000100 09 21 80 3f 64 66 81 3f e3 89 7d 3f 6e 37 80 3f
       1.0010082 1.0109372 0.99038523 1.0016916
000110 0d 03 81 3f ff 3c 7f 3f 5d 67 7c 3f 84 33 7f 3f
       1.0079056 0.9970245 0.9859522 0.9968798
000120 f7 52 81 3f 9c 58 7e 3f 21 31 7e 3f ef 19 7e 3f
       1.0103444 0.9935396 0.99293715 0.9925832
000130 68 d6 7e 3f b9 27 7f 3f b3 13 80 3f 47 1f 7d 3f
       0.9954591 0.99669987 1.0006012 0.9887585
000140 14 c1 7d 3f a5 87 7d 3f 59 fb 7f 3f a4 5d 80 3f
       0.9912274 0.990351 0.999929 1.0028577
000150 0c 5b 80 3f 6c bb 80 3f ad be 80 3f ce 50 7d 3f
       1.0027785 1.0057197 1.005819 0.98951423
000160 2e 99 7e 3f c0 2c 7d 3f 4e b8 7f 3f b2 1c 7d 3f
       0.99452484 0.9889641 0.998906 0.9887191
000170 66 4f 7f 3f e4 fc 80 3f 5d 5f 7e 3f e0 73 81 3f
       0.9973053 1.0077176 0.9936426 1.0113487
000180 c1 30 7d 3f 08 87 7e 3f fc 3e 7e 3f db 7c 81 3f
       0.9890252 0.9942479 0.99314857 1.0116228
000190 39 94 80 3f 74 66 80 3f 49 9d 80 3f 68 8a 7c 3f
       1.0045234 1.0031266 1.0048 0.9864869
0001a0 e4 d6 7f 3f 32 94 81 3f b6 c8 7e 3f 62 3a 7e 3f
       0.9993727 1.0123351 0.9952501 0.99307835
0001b0 f2 d6 7f 3f 38 cf 7f 3f 88 c5 7f 3f d5 cb 7f 3f
       0.99937356 0.99925566 0.99910784 0.999204
0001c0 d8 5d 81 3f aa 15 7e 3f c0 1f 7f 3f b8 38 7e 3f
       1.0106764 0.99251807 0.9965782 0.99305296
0001d0 18 b8 7f 3f 4a 3e 83 3f 6c 4a 7f 3f c7 e2 7c 3f
       0.9989028 1.0253384 0.99722934 0.98783535
0001e0 83 06 7d 3f 71 1c 7e 3f 14 2d 7e 3f 74 1c 80 3f
       0.9883806 0.9926215 0.99287534 1.0008683
0001f0 12 e6 7d 3f 55 f7 7c 3f e9 03 80 3f 57 b7 7e 3f
       0.99179184 0.988149 1.0001193 0.99498504

ablang_branch.5.bias f4 [128]
000000 56 53 04 bc 73 41 e0 bb 05 92 81 bb 54 fd 8f bb
       -0.008076509 -0.0068437397 -0.0039541745 -0.0043942127
000010 4d c4 40 3b f1 67 82 3b e9 dd d5 3a 0c 98 c4 3b
       0.002941388 0.003979676 0.0016316745 0.0059995707
000020 60 35 f3 3a 18 db eb 3b 01 bd 9a bb e8 ae 9f bb
       0.0018555336 0.007197749 -0.004722238 -0.0048731454
000030 0e 10 a8 ba cd b3 87 3b 4f a5 fd ba a0 d4 4b bb
       -0.0012822167 0.004141307 -0.0019351634 -0.0031102076
000040 c4 97 8b bb 21 25 8a 3b 3d db 53 bc 49 dd cf ba
       -0.004260035 0.004215852 -0.012930688 -0.0015858795
000050 33 e8 10 bc de b7 2d 3c 92 1c 43 bc 75 eb e6 bb
       -0.008844423 0.010602919 -0.011908667 -0.0070471116
000060 a6 7f 9b bb 34 a8 39 39 5b 66 9d 3c a4 2c 4b bc
       -0.0047454415 0.00017705635 0.019213846 -0.01240078
000070 0b 19 b7 bb 7e 87 00 bc 0f 2b 6a 3b 6e 95 b0 b8
       -0.005587702 -0.007844804 0.0035731231 -8.4201674e-05
000080 0f 81 1c 3c 8e 60 73 bc fa f1 eb b9 0d 79 cf bb
       0.009552254 -0.014854563 -0.0004500298 -0.006331569
000090 3e b1 94 bc ff ec 47 3b 8b 32 0c bc ec 5b 24 bb
       -0.018150922 0.003050625 -0.008556972 -0.0025079204
0000a0 37 67 f3 3b b2 e4 1b bc 02 56 d5 bb da de ff ba
       0.0074280757 -0.009514974 -0.006510497 -0.0019521371
0000b0 76 4f 2f bb 88 ca 2a 3c 2f ac 3c bb 88 31 ff b8
       -0.0026750243 0.010424264 -0.0028789153 -0.000121685734
0000c0 88 e1 67 3c 63 3a 3a 3c 7d 4f 41 bc c6 c4 49 3a
       0.014152892 0.01136646 -0.011798737 0.0007696863
0000d0 92 c8 b6 bb e6 1f dd 3b 8e d2 bf bb ac 65 e2 bb
       -0.005578109 0.0067481874 -0.0058539575 -0.006909093
0000e0 d1 cd 09 3b ed b1 b7 bb 46 2b 5b 3c c6 36 0a bb
       0.0021027217 -0.005605927 0.013377016 -0.0021089776
0000f0 f0 50 06 bc 20 cc ec bb 04 de 1c bc 82 16 4a bc
       -0.008198008 -0.007226482 -0.009574417 -0.012334468
000100 76 5b 13 3c 79 2a 82 3c 3c 27 a4 3a 79 d4 2c 3a
       0.008993974 0.015889393 0.00125239 0.000659294
000110 f2 6d 3f 3c 86 2c d5 ba 3e 82 c4 ba 55 3f 14 bc
       0.011683928 -0.0016263879 -0.0014992428 -0.009048303
000120 94 95 76 3c a2 ad 0e bc e5 cc 10 bb ea ed da bb
       0.015050311 -0.0087083895 -0.0022094783 -0.0066811936
000130 d1 3f e4 bb 8a a3 d8 b9 3e 95 b1 3a c2 e7 7f bb
       -0.0069656153 -0.00041320577 0.0013548506 -0.003904805
000140 10 03 b2 bb 76 b7 4e bc ce 56 99 3b af 8b 8e bb
       -0.005432494 -0.012616983 0.0046795374 -0.0043501477
000150 c9 71 5f bc 5a 2b 67 3c 50 c6 41 bb 1f 17 5e bb
       -0.013637968 0.014109457 -0.0029567666 -0.0033888293
000160 cb b9 02 bb 26 ce 5b 3b 66 9f 49 3b fd e9 f8 bb
       -0.0019947167 0.0033539622 0.0030765175 -0.007596253
000170 7d 27 15 bb b0 99 0f bc 57 cd 21 bb 9a dd 57 3c
       -0.0022759133 -0.008764669 -0.0024689042 0.0131753925
000180 58 2e 34 bb 78 30 37 bc 9e 1f 93 bb 3e a7 6e 3c
       -0.0027493443 -0.011180989 -0.004489853 0.014566241
000190 e6 73 14 3c 41 d0 06 3c 6a cc 4f 3b 6b c8 07 bc
       0.0090608355 0.008228363 0.0031707534 -0.008287529
0001a0 51 f9 04 3c 9c fc 7a 3c ca df ac ba 36 ea c8 ba
       0.008116082 0.015319016 -0.0013189253 -0.0015328589
0001b0 d2 79 e1 3a 7d 14 de 3a 10 8d 18 bb c6 70 7e 3b
       0.0017202443 0.0016943362 -0.002327744 0.0038824542
0001c0 3e 80 27 3c 06 fa 8d bb f5 0f 15 bc d7 a8 8b 3a
       0.010223446 -0.0043327836 -0.009098043 0.0010655177
0001d0 e9 7d 8b 3a da 04 c2 3c f2 7f 93 bb dc dd 67 bc
       0.0010642383 0.023683954 -0.0045013363 -0.0141520165
0001e0 bc 20 9c bb f3 89 15 bc 76 e5 25 bb da 0e ab bb
       -0.0047646444 -0.009127128 -0.0025313771 -0.0052202763
0001f0 b0 a3 4c bb 29 e8 67 bc 20 28 90 3b f6 a3 ee bb
       -0.0031225495 -0.014154472 0.0043993145 -0.0072827293
