data/model_weights/cv_fold_4_model3_3.pt (torch, 707477 bytes, 29 tensors)

ablang_branch.0.weight f4 [256, 480]
00000000: edea d23d f7c3 e93c 4a0c 68bc d2f0 b0bc
00000010: febc dabd 8fa6 bbbc 08d2 5ebd 64b8 fabd
00000020: 4f72 69bd b02f 99bc 51f5 26bc ed8a f9bc
00000030: 5f09 603c 7681 a7bd 0304 853d 04c6 ca3d
00000040: 8e83 1bbc 9c2d a53d 3911 843c 8d3f fe3c
00000050: 6dc9 dabc 8bad 13bd a988 6d3d 3efa 2dbc
00000060: 52be 753d 4373 4dbd e920 ca3d 4db3 a73b
00000070: df0b 58bd 9e1c eabb ac65 91bc fa4f f2bc
00000080: bdc3 283d 75a6 7f3d af59 78bc b327 c3bd
00000090: dc4e 29bd f036 3ebd c83f 1d3e de1f 76bd
000000a0: 7c23 b73d f8fc 16bd 8a91 86bd f085 ac3b
000000b0: 74e7 74bd 13dd e83c 5e53 5c3d d475 84bc
000000c0: 8297 52bc 2240 19bd c93d 8dbd f30a fdbb
000000d0: 03d0 963b b9dd 52bd d0cc 383d dc02 1abe
000000e0: 3e2b 97bc a136 fdbb 3459 ccbc f6c9 0ebe
000000f0: 0e46 12bd 7792 9bbd 8174 e63d 1d2b 03bd
00000100: 8338 9f3c 253e b3bd 3edc 33bd 377c 8e3d
00000110: 642a 323d 17e9 103d 8ab4 a83c b1d2 d83c
00000120: 680e e1bc 8856 66bd 83a8 ae3d c3a8 1339
00000130: 9dca 45bc b347 73bd 3edb 233c 7214 d63d
00000140: 1c7d 303d 38b8 a53c a707 2e3d bfea 95bc
00000150: f03a dbbc 63db 88bc 34eb b43d da31 443d
00000160: c708 cbbc d0df a9bc 4973 bfbd f6c6 e9bc
00000170: 80e3 99bd 5db8 a23c 82a6 24be 2ef2 753e
00000180: db14 1e3e 3a02 5d3d 1bdb ba3c a2da 87bb
00000190: 36bd 983d 2830 db3d 4ad7 3c3d 291e 17be
000001a0: 6a20 9fbc 662f 7dbd e61d 513c e1ff 41bc
000001b0: 2173 9ebc 07bc c53c 4f24 c73c 6ae2 673d
000001c0: 9050 48bd cc72 c0bc 06cf 823d 772a a03b
000001d0: 058e 2abd 53b6 cfbd b5cd 58bc e1cd d83c
000001e0: 35b7 e03c cb2a d1bb f891 603d 7e02 453c
000001f0: 9e47 8bbd 02cc 083c 3eb4 fd3d 88f1 71bc
00000200: f910 8cbd f0fb 043d a759 383d 17f6 4bbc
00000210: 015f bc3d 8698 fe3d b5aa 9ebc 8810 86bd
00000220: 0f7a 143e c98e 37bd 3bc3 6b3d 13d3 30bd
00000230: ad1e 9ebd 46d6 2e3d 016c 013e 19c4 0f3e
00000240: da0e 84bd 5641 c53d 3b5c 0fbe aa8b 953d
00000250: e862 acbd 2f8a 06be 8e8f a3bd 2bdb 5ebd
00000260: 3b75 93bc 0cc0 913c 377a ec3c 5108 e3bd
00000270: 69e2 8c3d 8529 80bb 1eeb b93d a17f 9a3d
00000280: 7640 01bd ed50 27ba 4d3a 9fbc 4b82 943d
00000290: 273f b63d 8c8a aa3d 289c 00bd 0531 11bd
000002a0: 5c9f 9bbd d2e9 ba3d 3ec4 173d 4d97 a0bd
000002b0: eb56 86bd 664d 9cbc 5ac6 5c3c 8737 4abd
000002c0: c4b3 9e3d 735a aabd 28a3 4abd 25c1 783c
000002d0: 56e0 7ebd 5ada 563d 8753 553d 1aee fd3d
000002e0: 536b d6bb 1676 0e3d 2d9a 8abd 1f78 27bd
000002f0: 13f2 6ebd b5aa d63c 6b18 b13c 2dd5 24bd
00000300: b7b4 32bd 3eb1 0dbe 1cac e63d 8291 da3c
00000310: ca3f 9d3b 33cc 0a3c 0973 233d 645a 363c
00000320: 9168 b6bb 72d1 023e ba9a 6f3d 96e2 bebd
00000330: b1a5 4e3d d1d0 d43d 5e06 f6bc 6018 51bc
00000340: 5105 243d 2416 8dbd 2364 87bd 24e3 0fbc
00000350: b8a3 febc 45d3 f1bd b8c0 49bd 7f5b 0b3d
00000360: a19d f9bc 555f 1e3d 2c5e f73b 9de3 75bd
00000370: 55fd 5b3d 1697 113e 7569 b3bb 6766 51bd
00000380: 5861 9a3d ac6b bc3c 263d dfbc 6d3f 14bd
00000390: c2ec c83d 677a c9bd 5f91 cfbd 7bf0 0f3d
000003a0: 3e2e 683c 39ad 1abd 0d45 06be cf0c 4abc
000003b0: 430e 7bbd dad2 43bb ed93 ffbb 2b5d 94bc
000003c0: d496 083e 282e c93d 8cba a03d cd41 09bc
000003d0: 979a 70bd 6c49 cdbd 8528 89bc b9ce dc3d
000003e0: fac1 3f3c 4b8e 85bd 1dee d6bd 40c1 e53a
000003f0: 29cc aabc 14bc d03c 5594 993c 1be6 afbb
0.10298715 0.028535826 -0.014163086 -0.021599207 -0.10680579 -0.02290657 -0.05439952 -0.12242201
-0.05699378 -0.018699497 -0.010190324 -0.030461753 0.013674109 -0.081789896 0.06494906 0.0990105
-0.009491814 0.0806534 0.016121494 0.031036163 -0.026707375 -0.036054175 0.057991657 -0.010618744
0.059995957 -0.05015875 0.09869558 0.00511781 -0.052745696 -0.0071445247 -0.017748676 -0.029579151
0.041202296 0.062414605 -0.015158101 -0.095290564 -0.04133497 -0.04643911 0.15356362 -0.060088985
0.08942315 -0.036862344 -0.06570728 0.00526499 -0.059791043 0.028425729 0.053790443 -0.016169466
-0.012853505 -0.037414677 -0.0689655 -0.0077222525 0.0046024336 -0.051480982 0.0451172 -0.15040153
-0.018453237 -0.0077274595 -0.02494488 -0.1394423 -0.03571134 -0.07596295 0.1125269 -0.032023538
0.019436127 -0.087520875 -0.04391121 0.06957286 0.043497458 0.03537854 0.0205939 0.026467653
-0.02747269 -0.056234866 0.08528235 0.00014081881 -0.012072233 -0.05939455 0.010001002 0.104531184
0.043088064 0.020229444 0.042487767 -0.018300412 -0.026761502 -0.016706174 0.08833924 0.047899105
-0.024784459 -0.020736605 -0.09348161 -0.028537255 -0.07514095 0.019863302 -0.16079143 0.24018165
0.15437643 0.0539572 0.022809556 -0.004145936 0.07457964 0.107025445 0.046103753 -0.14757599
-0.019424636 -0.06181278 0.012763476 -0.011840791 -0.019342007 0.02413751 0.024309305 0.05661241
-0.048904955 -0.02349224 0.06387143 0.0048878747 -0.041639347 -0.101421975 -0.013232638 0.026465358
0.02743111 -0.006383275 0.054826707 0.01202452 -0.06800769 0.0083494205 0.12387894 -0.014767058
-0.06839175 0.03246683 0.045007374 -0.012448809 0.09197808 0.12431435 -0.019368509 -0.06546122
0.14499687 -0.044813905 0.057559233 -0.043170046 -0.07720695 0.042684816 0.12638856 0.14039649
-0.06448145 0.096316025 -0.14000027 0.073020294 -0.08417302 -0.1313865 -0.07986365 -0.054408234
-0.018000236 0.01779177 0.02886687 -0.110855706 0.06879122 -0.0039111995 0.09078048 0.075438745
-0.031555615 -0.00063826033 -0.01943698 0.07251414 0.08898764 0.08327207 -0.031398922 -0.03544714
-0.07598755 0.09126629 0.037052386 -0.07841358 -0.06559547 -0.019079875 0.013475025 -0.04936936
0.07749131 -0.08318033 -0.049472004 0.015182768 -0.062225662 0.05245433 0.05208161 0.1239893
-0.0065435558 0.034780584 -0.06767688 -0.04088604 -0.05833633 0.026204446 0.021618089 -0.040242363
-0.043629374 -0.13837144 0.11263296 0.026680712 0.004798864 0.008471536 0.039904628 0.011129949
-0.0055666645 0.1277521 0.058497168 -0.093205616 0.050450984 0.10391391 -0.030032333 -0.012762159
0.040044133 -0.068889886 -0.066108964 -0.008782182 -0.031083927 -0.118078746 -0.049256057 0.034022804
-0.030470671 0.038665134 0.007549068 -0.060031522 0.053708393 0.14217791 -0.005475218 -0.05112305
0.07538098 0.02300056 -0.027250838 -0.0361933 0.09810783 -0.098377995 -0.10135149 0.03514145
0.014171181 -0.037762854 -0.13112278 -0.012332155 -0.061292898 -0.0029880316 -0.0077996165 -0.018110832
0.13338786 0.09823257 0.07848081 -0.008377505 -0.05874118 -0.1002377 -0.016742954 0.10781617
0.011703962 -0.06521281 -0.10494635 0.0017528906 -0.020849304 0.025480308 0.018747488 -0.005368007

ablang_branch.0.bias f4 [256]
00000000: 4222 79bb 222d 643c a39c c33b 571f 803b
00000010: 7a82 083c 8dc1 efba 4084 343a 03be daba
00000020: 4cac b93b 5558 5d3b 73fe 3b3b 43ca 0a3b
00000030: 2bf3 64ba c0d7 543b 3584 ebba 394b 1d3c
00000040: 01fa 0839 caf2 c13b e896 7a3c 7272 8f39
00000050: 73bc 0f3b e19a 193c c52a 593c f6c1 9a3a
00000060: f1b8 813b 158f cb3b c6c5 df39 d302 3d3c
00000070: 225a b13b f146 723b 98f6 5ebb bded a2ba
00000080: 7f9a 8f3b 0324 413b 164d f038 d1ef 113c
00000090: 5a52 c83a 200d 033c d8e3 f63b 9998 163c
000000a0: 552c 053c 5c5f 163c 79a1 4e3c 7739 713b
000000b0: 7e33 a73c e8c6 703c b999 853c 2ae9 58bb
000000c0: 70fe db3b de04 7e3b 3b5f 8c3b 24ef bd3b
000000d0: 31f2 233c 6fa0 9dba 5f5f 803a 037d 39bc
000000e0: 9cb3 abbb dd41 393c 9a6b 3f3a d377 553a
000000f0: 076e b9bb 6541 8fbb 96f6 093a 73af 07bc
00000100: 06da 783c bc70 073c 9b95 3d3c 60c1 34bc
00000110: aef4 bf3c fb7c f13b bd64 b13b 8ffb f23b
00000120: 6732 983c 7741 553c 2830 983c 793f 853c
00000130: 31b6 a73b 19ff 9abb a51f 0e3c 1c39 303c
00000140: 6fbb 0c3c cf03 543c f657 493a 47b8 4b3c
00000150: 8fdd 48bb a346 aa3c eca9 f63b 6b7b 6d3c
00000160: efc7 67ba 0711 9c3c 09ab 623c c4ea 4b3c
00000170: eda7 a73b 8c45 8e3b b95d 26ba 2f7d 813c
00000180: 3650 453c ca87 b0ba 9259 f73b 81e9 a1ba
00000190: 7c3f 003c c9a6 173c 486b b83c c977 4c3c
000001a0: 83ac 793c 8a4c 55ba ca7e 873c b4e7 a23b
000001b0: 3ea9 043b d097 963b c2fb 9f3c 3b62 1d3c
000001c0: de04 b03b 7d7b edbb 1df9 7cba d58c 98ba
000001d0: cf33 3d3b 545f b33b 177f 3b3c 3717 e23b
000001e0: ee5d de3b 23b2 753b 6be4 d03a 5b42 a0bb
000001f0: 1b92 c5bb bbf5 403b 3886 153c d25d 473b
00000200: 1444 76ba f261 833c 0174 8739 0c76 8f3b
00000210: 9a38 443b 6650 a63b ab88 c63b 697a e4bb
00000220: 426a 0c3c aed7 2a3b e278 963c 0687 b0bb
00000230: 205b f33a f615 2b3c f8b3 0dbb 486a e3ba
00000240: 1561 333c 0039 5cbc c057 a5b9 b058 4b3b
00000250: 843f 543c f591 0dbc 9d75 493c 43bd 143c
00000260: 54b5 3f3b 7330 cb3b c832 5a3c 348a f1ba
00000270: 0d82 5d3b e2eb 95bb 72ae 883b 3ac6 57bb
00000280: e52f 2a3c 382e c43c c547 813b e1fd 0f3c
00000290: cc4d 533b dc7f a83c 98d5 3f3c ac17 9b3b
000002a0: 5a4a de3a 5ab1 cf3b e9e4 23bb a5cb aa3c
000002b0: 52e7 de3b db3b 6d3c d4c4 533b 7fdc eb3a
000002c0: 8997 193b 8fd8 653b 4ff8 6f3c f3b0 b73a
000002d0: 589c 863b 6ca5 0bb9 9af2 0b3b 2b44 c73a
000002e0: 5b69 a73b aad4 073c 9b7d 04bc 6b6e 773c
000002f0: cc8a 703c 42f3 473c 471b a73c e36c 83bb
00000300: 459b 0aba d17d c93b af81 813b 9e2b f83b
00000310: 20a0 5139 8cd3 0dbb 1457 e13b 9758 4abc
00000320: 8840 593c c127 aa39 8fd0 643c 81aa 3bbb
00000330: d3e0 343c e8ab dc3a 6a80 583c f89d 1d3b
00000340: 4f1b 253b bd38 453b f4d6 113c 0016 163b
00000350: e2d7 863c 32f6 6b3c 6fca 8d3c a408 c6ba
00000360: 2a2e dab8 6411 1a3c dad6 f23b 139a 08bc
00000370: cc29 ccbb fa4a 133c 707a 3b3c fe94 b83b
00000380: f188 be3b 5a6f 2f3c 20ec 4f3c c0a0 323b
00000390: 234e 233b c3ac 3d3c 01bb 253c c492 6abb
000003a0: 6e51 87bb 7615 c53a e122 583a 1b39 763b
000003b0: 2adf 80bb bef0 b53c 18f3 33b9 ae91 9a3b
000003c0: da2f 793c 91c2 053c 4cb4 95ba 0810 1bba
000003d0: 18dd fc3a a6cd 043c c2c1 07bb 0079 b73b
000003e0: ff92 2e3b 5931 103c 562c 0dbb 96d7 26bb
000003f0: d75b 9dbb f819 c1bb f83d 653c 1409 e83a
-0.0038014804 0.013926776 0.0059696003 0.003909986 0.008331889 -0.0018291936 0.0006886162 -0.0016688708
0.0056662913 0.0033774574 0.00286856 0.0021177686 -0.00087337446 0.003247723 -0.0017968478 0.009600454
0.00013063104 0.0059188353 0.015294768 0.00027360354 0.0021932393 0.009375305 0.013254826 0.0011807072
0.0039588143 0.006212125 0.00042681227 0.011536318 0.005412356 0.0036968554 -0.0034021493 -0.0012430471
0.004382431 0.0029470928 0.0001145845 0.008907274 0.0015283332 0.007998735 0.0075344853 0.009191656
0.008128245 0.009178009 0.01261174 0.0036807933 0.020410296 0.01469586 0.016308652 -0.003309796
0.006713681 0.0038760225 0.0042838133 0.00579633 0.010006473 -0.0012025962 0.0009794048 -0.011321309
-0.005239917 0.011307207 0.00073021057 0.00081431604 -0.0056588682 -0.0043718093 0.00052628794 -0.008281576
0.0151887 0.008266624 0.011571313 -0.011032432 0.023432102 0.007369635 0.0054136203 0.007415242
0.018578721 0.013016096 0.01857765 0.016265618 0.0051181545 -0.004730117 0.008674537 0.010755803
0.0085896095 0.012940361 0.00076806487 0.012434072 -0.0030649637 0.020785635 0.0075275805 0.014494757
-0.0008841743 0.019051088 0.013834723 0.012446109 0.005116454 0.0043417867 -0.0006346363 0.015806763
0.01204305 -0.0013468203 0.0075485194 -0.0012352915 0.007827636 0.009256073 0.022512093 0.012479731
0.015238884 -0.00081367104 0.01653995 0.004971469 0.0020242478 0.004595734 0.019529227 0.0096059395
0.005371674 -0.007247387 -0.0009650158 -0.0011638651 0.0028869992 0.0054740105 0.011443875 0.00689974
0.0067860996 0.003749021 0.0015937214 -0.0048907227 -0.00602938 0.0029443342 0.0091262385 0.0030420911
-0.00093942997 0.016037915 0.00025835636 0.004378086 0.0029940964 0.005075502 0.0060587726 -0.0069726002
0.008570256 0.0026068497 0.018368188 -0.00538719 0.0018566586 0.010442248 -0.0021622162 -0.00173504
0.010948439 -0.013441324 -0.0003153663 0.0031028204 0.012954596 -0.008640756 0.012296108 0.009078327
0.0029252367 0.006200844 0.013317771 -0.0018428029 0.003379944 -0.0045752386 0.004171186 -0.0032924549
0.0103873955 0.02394782 0.003945323 0.008788557 0.0032242415 0.02056878 0.01170864 0.0047330465
0.0016959414 0.0063382806 -0.0025008267 0.020849058 0.006802478 0.014479603 0.0032313364 0.001799479
0.002343627 0.0035071706 0.014646604 0.0014014527 0.004107993 -0.00013317697 0.0021354319 0.0015202811
0.005108995 0.008290449 -0.008086587 0.015102009 0.014681529 0.012203993 0.020398749 -0.004010783
-0.0005287419 0.0061490317 0.003952227 0.007573559 0.00019991444 -0.0021640984 0.0068768356 -0.012350223
0.013260014 0.00032454546 0.01396574 -0.0028635564 0.01103993 0.00168359 0.01321421 0.0024050456
0.002519328 0.0030093633 0.0089013465 0.0022901297 0.016460363 0.014401959 0.017308442 -0.0015108776
-0.00010403649 0.00940356 0.007410866 -0.008337515 -0.0062305685 0.008990044 0.011442766 0.0056329956
0.0058146645 0.010707701 0.012690574 0.002725646 0.00249184 0.011576834 0.010115386 -0.0035793046
-0.00412958 0.0015036303 0.00082449435 0.0037570659 -0.003932853 0.022209521 -0.0001716133 0.0047170734
0.015209163 0.008164064 -0.001142153 -0.00059151696 0.0019291965 0.008105671 -0.0020714854 0.005599141
0.002663791 0.008800828 -0.002154132 -0.002545809 -0.004802208 -0.0058929883 0.013991825 0.0017702901

ablang_branch.1.weight f4 [256]
00000000: 1e5d 7a3f 9c2c 7c3f 87ca 863f e058 7a3f
00000010: d4c5 853f dd15 813f 38d5 7a3f d116 773f
00000020: 695a 7c3f b998 803f 8b30 773f f450 6d3f
00000030: 0a28 803f b247 7a3f 7528 7c3f 9017 893f
00000040: c02e 783f 2736 833f 158c 803f 21d8 7a3f
00000050: 4299 813f ad26 803f ffb1 7e3f 134e 7a3f
00000060: e178 803f 6dcc 823f f184 7a3f a65f 803f
00000070: 737b 7d3f e90f 7c3f 53ff 7b3f 3739 883f
00000080: 1812 773f 7f63 7f3f 1e0b 773f 2e69 883f
00000090: 24e0 7b3f ef42 7e3f d332 733f e5a0 7e3f
000000a0: 85f5 803f b68a 843f 2a79 803f 1207 833f
000000b0: 8586 803f 6646 7d3f 241e 803f a5f4 7d3f
000000c0: 7f7e 7d3f 7350 793f 3c85 803f 4abc 7e3f
000000d0: 6612 813f 5d4e 843f 312d 803f 020b 7a3f
000000e0: e376 853f 1b6e 763f 5f0a 7b3f e14c 7a3f
000000f0: e0f4 6f3f f40e 843f ec1d 763f fae0 7e3f
00000100: 4877 7e3f 4c84 753f afd0 803f 7612 733f
00000110: 7f1b 813f 0fd1 863f 0f8c 7e3f ba2f 813f
00000120: 89fb 813f 351e 7f3f db37 7c3f 6ef5 863f
00000130: 12e6 833f 4fcf 813f 21f4 7d3f 1a0a 813f
00000140: 2636 853f efa2 7d3f d423 833f f437 823f
00000150: df1e 833f a968 883f 64b5 7c3f c7a6 753f
00000160: af66 7f3f a7e4 853f 8554 8e3f e8f9 843f
00000170: 3b86 783f 680d 873f 5aa5 723f b318 833f
00000180: 3cb2 873f dbb5 893f c97c 7c3f df42 803f
00000190: 08a0 883f 373c 743f 8f58 7e3f ebaa 853f
000001a0: 90f4 883f 1e02 7d3f 6805 783f dd12 7c3f
000001b0: d249 7d3f 497e 813f b8df 7f3f fcdf 833f
000001c0: 2f56 823f e8cc 7c3f 951a 823f e7a4 6e3f
000001d0: 0bc1 7c3f bc07 803f 8d09 7c3f d305 7a3f
000001e0: 3697 7b3f 9c40 723f f6e6 773f 0826 823f
000001f0: ebfa 6f3f c8eb 7b3f bc49 773f ddf0 803f
00000200: 544f 773f 1c65 833f db7e 7e3f a538 763f
00000210: 9aae 863f 6540 7e3f fd94 823f 14f0 6f3f
00000220: fc52 793f 8052 793f 63a1 753f 84f3 7c3f
00000230: b434 803f ba47 863f f31c 7e3f 9f13 813f
00000240: 89c9 803f 9dde 753f efbe 7e3f c0c0 7a3f
00000250: f346 7e3f c83a 7d3f 263b 803f 6118 823f
00000260: bec1 793f 12d3 783f 6528 833f 5a27 7f3f
00000270: 415f 883f 0fdd 7a3f 3406 823f d881 813f
00000280: 539a 803f c668 803f d366 803f 0723 803f
00000290: 0670 783f 30a0 7f3f 22c7 763f 71ba 803f
000002a0: e195 7b3f e495 7d3f af7f 853f f319 7b3f
000002b0: 4885 7f3f ecba 773f 4f96 7e3f afdd 803f
000002c0: 9184 813f 5c34 783f 97b5 813f 10c5 823f
000002d0: f6d9 803f dac9 743f 1ea7 833f b382 743f
000002e0: 0947 783f b3e4 7a3f 4d5b 833f 1458 7c3f
000002f0: 9ddc 7d3f 8b2c 7a3f 2a9f 7c3f 556d 743f
00000300: 366b 723f 0314 763f 8d42 823f 88bb 813f
00000310: 128f 7f3f 48cc 6c3f e91e 7b3f 8e97 813f
00000320: 7eb5 863f f679 873f 5eaf 803f 4a60 813f
00000330: 157e 743f c6f9 833f f850 7d3f 897e 833f
00000340: 7115 843f 9f34 783f dca4 7f3f 6a11 813f
00000350: 51ca 843f bc26 823f 001d 883f 434b 7e3f
00000360: f7f7 833f c5b6 783f 46b7 7a3f bf14 863f
00000370: 4d9a 833f 2a8a 743f 5e41 863f 170a 713f
00000380: e80a 863f fd99 773f b950 813f e6d9 783f
00000390: 5a5f 7e3f 13c7 7b3f 71d3 743f 6329 823f
000003a0: 2421 843f ae7e 7a3f 5d15 7c3f 2a85 7e3f
000003b0: dcd0 753f 5c42 7b3f 843f 7c3f c9b9 6b3f
000003c0: 0da9 8b3f 98b0 7d3f 3f0c 853f 061c 843f
000003d0: b428 813f 1d35 823f af1e 7a3f 2240 7c3f
000003e0: 0452 833f a91d 7d3f a613 7f3f 60b4 793f
000003f0: a151 773f b55b 7a3f 9790 813f 5331 703f
0.97798336 0.9850557 1.0530556 0.9779186 1.0450997 1.0084797 0.97981596 0.9651919
0.98575455 1.0046607 0.96558446 0.9270165 1.0012219 0.9776565 0.9849923 1.0710316
0.96946335 1.0250901 1.004275 0.97986037 1.0124896 1.0011803 0.9949035 0.9777538
1.0036889 1.0218636 0.978591 1.002919 0.99016494 0.98461777 0.9843647 1.064246
0.96511984 0.99761194 0.9650134 1.0657098 0.98388886 0.9932088 0.94999427 0.99464256
1.0074927 1.0354831 1.0036976 1.0236533 1.0041052 0.98935544 1.0009198 0.9920142
0.9902114 0.9738838 1.004066 0.99506056 1.008374 1.0336415 1.0013791 0.97673047
1.0426906 0.9626176 0.980627 0.9777356 0.93733025 1.0317063 0.9613941 0.99562037
0.9940076 0.95904994 1.0063685 0.94950044 1.0086516 1.053255 0.9943246 1.009269
1.0154887 0.9965547 0.9852273 1.0543649 1.0304587 1.014139 0.99200636 1.0081208
1.040715 0.9907674 1.0245309 1.0173326 1.0243796 1.065694 0.9871428 0.9595761
0.9976606 1.0460404 1.1119543 1.0388765 0.9707982 1.0550966 0.94783556 1.0241913
1.0601268 1.0758623 0.9862791 1.0020407 1.0673838 0.9540438 0.9935388 1.0442785
1.0699635 0.98831356 0.9688325 0.98466283 0.98940766 1.0116664 0.9995074 1.030273
1.0182551 0.9875016 1.0164362 0.9322037 0.9873206 1.000236 0.98452073 0.9766514
0.98277605 0.94629836 0.96836793 1.0167856 0.93742245 0.9840665 0.96596885 1.0073506
0.9660542 1.0265231 0.99412316 0.9618018 1.0522034 0.9931701 1.0201718 0.93725705
0.9739225 0.9739151 0.9594938 0.98809075 1.0016084 1.0490639 0.99262923 1.0084113
1.0061504 0.96042806 0.9951009 0.97950363 0.9932701 0.9891782 1.0018051 1.016369
0.9756125 0.9719707 1.0246702 0.9966942 1.0654069 0.9799356 1.0158143 1.011775
1.0047096 1.0031974 1.003138 1.001069 0.97045934 0.998538 0.963976 1.0056897
0.9827557 0.9905684 1.0429591 0.9808647 0.99812746 0.96769595 0.994481 1.0067652
1.0118581 0.96954894 1.0133542 1.0216389 1.0066516 0.956205 1.0285375 0.9551193
0.9698339 0.9800522 1.0262238 0.98571897 0.99164754 0.9772422 0.98680365 0.9547933
0.9469484 0.96124285 1.017656 1.0135355 0.9982768 0.9249921 0.9809404 1.0124376
1.0524137 1.0584095 1.0053518 1.010751 0.95504886 1.03106 0.98951674 1.027299
1.0319043 0.96955293 0.9986093 1.0083439 1.0374242 1.0168071 1.063385 0.9933359
1.0310048 0.97153884 0.97935903 1.0475081 1.0281464 0.9552332 1.0488698 0.9415602
1.0472078 0.9671934 1.010276 0.97207487 0.99364245 0.9835064 0.95635134 1.016888
1.0322614 0.9784955 0.984701 0.9942194 0.9602182 0.9814813 0.9853442 0.9208036
1.0910965 0.99097586 1.0394362 1.0321052 1.0090547 1.0172459 0.9770307 0.9853536
1.0259404 0.9887338 0.99639356 0.97540855 0.9660893 0.97796184 1.012225 0.9382526

ablang_branch.1.bias f4 [256]
00000000: 2f59 58bc 2476 1b3c 3cf0 543b 91c9 08bc
00000010: aa87 48bd f5bc babc 2e27 37bc ce55 e2bc
00000020: 489f 60bb 0cee 13bc d35b e5bc 69e9 aebc
00000030: e8cd 20bc 76d1 10bc 4ef4 c0bc 1216 283c
00000040: 0b7d 40bc 52a2 42bd 14a4 85bb 6589 21bc
00000050: ad8a 53bc d73e 783b 83d3 cf3b a776 c6bc
00000060: ba16 10bd d18c 773b f735 06bd 9b92 8d3b
00000070: 8312 44bb b975 0abc 9e1c 01bd f56c 313b
00000080: eba5 30bd 56b2 ecbc 6bff ddbc 7685 943c
00000090: 640f d6bb 421f e2bc 5f48 13bc 656e 89bc
000000a0: de68 c4ba ac0b d53b 7dd8 873a 1f3c 22bd
000000b0: ee26 eb3b 6723 58bb 08e5 32bc c9f6 34bc
000000c0: e0b6 3fbc 2f96 31bd 752a a0b9 8ca3 9339
000000d0: 14d2 24bd 0aec 54bd acfb 15bc bd88 e7bc
000000e0: 7c69 c4bb d029 26b8 f30b e2bc 008a f2bb
000000f0: a30e 43bc 6aad fdbb 3902 c5bc 27e3 00bd
00000100: 122b 96ba 128d aabc 3f9f c2bc 80d4 febc
00000110: 0d0e 8d3c 1cc5 62bb 6570 6dbb ec3a d53a
00000120: 73bc 173c 72e5 233c 2240 1ebb 56ae 6a3c
00000130: 797b 60bd b145 83bc aea0 6cbb f4a2 d637
00000140: c573 4b3b 1b44 af3b 7f35 5fbd f146 7b3b
00000150: 1c7d 4ebd 5372 3dbb 73b8 35ba 857c 97bc
00000160: 7565 4dbd 78ba 803c 8ee6 723c 1da2 51bd
00000170: 8a06 18bc b66b 353b 64e0 a1bc 948b 533c
00000180: c410 f13b 369b 803b 2f99 ecbc 7a4f 4ebc
00000190: 9700 c63b becd 94bb aed4 4a3c 9cb7 443b
000001a0: c0d1 3c3b d528 a1bc 42a8 23bc 6cbe b33b
000001b0: ed21 02bd 29cb c8bc 0510 323c 0468 1dbc
000001c0: cde2 1fbd 97ac 4cbd 1360 abbb 8089 0bbd
000001d0: d164 5ebc 975d 7e3b 8ee7 22bb 60d7 a5bb
000001e0: 4387 82bc 75bf 99bc af4a dcbc 0bb0 b6bb
000001f0: 549f 8bbc 75bb 01bd 8d03 9bbb bc2d 99bb
00000200: 6e0f adbc 68a1 18bc 2498 88bc c348 8bbb
00000210: 535f 19bb 8577 88bc 18f9 e2bb bc7b 80bc
00000220: 1ace d3bc 0bd6 fabb cd39 1fbc 2456 cdbc
00000230: 1574 55bb e19b bd3b 736e 3cbc 984c 0abc
00000240: 5c9e 8dbc 1d4c bcbc 913d 39bd 1db9 12bd
00000250: 1709 9eb9 c8bd ccbc 2006 003b 382f 2d3b
00000260: 89af b8bc c742 3dbd 4830 ea3b 86d8 8dbb
00000270: 854f ff3a 815b 52bd 42dd 40bc 2060 eebc
00000280: 71f8 713b 7139 653c ce9c aa38 13d0 0cbb
00000290: 82c7 ddba 649a c23b b2f2 1cbd 7b1b daba
000002a0: 2ecb 84bc 44e6 7cbb adfe 4dbd 2097 bdb7
000002b0: be61 a1bc 3659 50bc 3521 023b b0ee d5bc
000002c0: 1593 61bb 8ca3 1dbc 08e0 143c 2a69 74bc
000002d0: 10fa 27bb 3113 ebbc a7ed 533a f55c eebc
000002e0: 35a1 1039 7a81 2cbc e76b ddbc 246a af3b
000002f0: a908 e0ba 1829 2fbd 451e a43b d866 20bc
00000300: 7c4e 8ebc d030 f3bb 8830 eebb ad85 3ebc
00000310: b3a6 24bc 978b afbc 089f a8bc 6d7f a8bc
00000320: 943b 1b3c d34d d0bc 7cc1 053c 9b59 0fbb
00000330: afd7 a3bc b700 32bd aa4c d73b dcb7 83bd
00000340: 27bd beba 1081 d5bc 1320 afbc bebc e0bb
00000350: 6b7d d1bc 8a0d 6d3a 2d8c c3bb d29a d5bb
00000360: a2aa 13bb bf9e e5bc 717e fabb 7254 30bd
00000370: 331f 03bc 3ccc 12bd b26f 983b 5289 c1bc
00000380: 582f 12b9 cc1e 7c3b 051e 113c 5faa 84bb
00000390: 6112 3bbd 9074 0abd 2ea7 a6bb 1852 91bc
000003a0: 6b41 89bb eb23 b2bb 6385 f7bb 7f71 f0bc
000003b0: 1d83 47bd 0605 1a3c c021 08bc fa8d b6bc
000003c0: dc11 363c 18cf 47bd 5c69 98bc 922a d4bb
000003d0: 5878 fbba c631 973b c3b0 63bc feee bbbc
000003e0: 6e9c 2bbc 9ebd 1cbd de89 d4bc e06d 85bc
000003f0: a69b 55bc 7503 7cbc 2b61 1a3c 19b6 b4bc
-0.013204857 0.009488616 0.0032491824 -0.008348838 -0.048957504 -0.02279518 -0.011178775 -0.027628805
-0.0034274627 -0.009028923 -0.027997887 -0.021351533 -0.009814717 -0.008839002 -0.023553994 0.010259168
-0.011748563 -0.047518082 -0.0040783975 -0.009859418 -0.012911481 0.0037879252 0.006342353 -0.0242265
-0.035177924 0.0037773142 -0.03276631 0.0043204552 -0.002991826 -0.008450919 -0.031521432 0.0027073
-0.04312698 -0.028893631 -0.027099332 0.018130045 -0.0065325964 -0.027602796 -0.008989423 -0.016776273
-0.0014984866 0.0065016355 0.0010364201 -0.039608117 0.0071762716 -0.0032980086 -0.010918863 -0.011045166
-0.011701316 -0.043356117 -0.0003054921 0.00028159877 -0.04023941 -0.051982917 -0.0091542415 -0.028263444
-0.00599402 -3.9616425e-05 -0.027593588 -0.007401705 -0.011905345 -0.00774162 -0.024048911 -0.03146663
-0.0011456928 -0.02081922 -0.023757575 -0.031107187 0.017218614 -0.003460235 -0.0036230322 0.001626817
0.009261238 0.0100034345 -0.0024147113 0.0143237915 -0.054805253 -0.016024442 -0.0036106515 2.5586669e-05
0.0031044346 0.005348695 -0.054494377 0.0038341845 -0.050412282 -0.0028907254 -0.0006932087 -0.018491993
-0.050145585 0.015713915 0.014825476 -0.051179994 -0.009278903 0.002768261 -0.019760318 0.012911696
0.007356735 0.0039247526 -0.028881637 -0.012592191 0.006042551 -0.004541128 0.012379808 0.0030016666
0.0028811544 -0.01967279 -0.009988846 0.0054853465 -0.031770635 -0.024510937 0.010868077 -0.009607319
-0.039034653 -0.049969282 -0.005229959 -0.034066677 -0.013573841 0.0038813108 -0.0024857256 -0.005061075
-0.015933638 -0.018768052 -0.02689108 -0.005575185 -0.017043747 -0.031672914 -0.004730648 -0.0046746414
-0.021125522 -0.009315826 -0.016674109 -0.004250617 -0.0023402765 -0.016658554 -0.006926667 -0.015684001
-0.025855113 -0.0076549104 -0.009718371 -0.02506549 -0.003257041 0.0057864045 -0.0115009425 -0.008441113
-0.017287426 -0.022985512 -0.04522473 -0.03582107 -0.0003014288 -0.024992839 0.00195349 0.002642585
-0.02254464 -0.046206262 0.007146869 -0.00432879 0.0019478655 -0.051356796 -0.011771502 -0.02909857
0.0036921764 0.013990746 8.135439e-05 -0.0021486327 -0.001692042 0.005938815 -0.03831739 -0.001664027
-0.016210165 -0.0038589397 -0.050291706 -2.2600929e-05 -0.019699927 -0.012716582 0.0019856219 -0.026114792
-0.0034419943 -0.009621512 0.009086616 -0.014917651 -0.0025631227 -0.028695675 0.0008084424 -0.02909706
0.00013792964 -0.0105289165 -0.02702899 0.005353229 -0.0017092425 -0.0427638 0.005008491 -0.009790145
-0.017371409 -0.0074215904 -0.007268969 -0.0116285505 -0.01004951 -0.021428866 -0.020583645 -0.020568574
0.009474654 -0.025427734 0.008163806 -0.0021873477 -0.020000307 -0.043457713 0.0065704184 -0.06431553
-0.0014552221 -0.026062518 -0.021377599 -0.0068584373 -0.0255725 0.000904285 -0.005967638 -0.0065187
-0.0022532125 -0.028029798 -0.0076444675 -0.043049283 -0.008003044 -0.035839304 0.004651987 -0.02362505
-0.00013941282 0.0038470505 0.008857255 -0.00404863 -0.045671824 -0.03380257 -0.0050858473 -0.01773934
-0.0041887066 -0.0054364107 -0.0075537427 -0.029350994 -0.048709024 0.009400612 -0.008308828 -0.022284497
0.011112656 -0.048781484 -0.018604927 -0.0064748013 -0.0019185646 0.0046140878 -0.013897124 -0.022941109
-0.010474307 -0.03826677 -0.025944646 -0.016287744 -0.013037598 -0.015381684 0.009422581 -0.022059487

ablang_branch.4.weight f4 [128, 256]
00000000: c7e2 82bd 2ecf 21be d27b 74bd 369c 92bd
00000010: e2d5 22be c3d7 5a3e f091 f8bd b8a5 3f3d
00000020: d241 d0bc 7f17 9e3c ae3a 813c d951 66bd
00000030: e726 ab3d 3ca0 d5bc c14f 7cbc 3d87 c7bc
00000040: b076 d43c 8fe8 743c fce9 8a3d 0604 f8bd
00000050: b65b ed3c 9b50 00b9 1ab6 b13d df2d 2cbd
00000060: 9ed9 d63b 5562 6f3e ff66 313d c57d e0bc
00000070: 7ece d0bd b416 7c3d e521 80bd 63dc 733e
00000080: 8e8a e1bd 3806 37bc 6caf c3bd cabb 1f3d
00000090: 3f21 803d 99b8 20bd 37b1 1b3d 8d53 9c3d
000000a0: 5170 953d ee61 89bc cf7d 723d e0b6 b93c
000000b0: ffa8 973c ecc2 7ebc 00db 1bbe 2cd3 15be
000000c0: 385a 373b 14d8 753d 0475 933e e90a f63d
000000d0: e858 893c c903 6dbd 7571 7c3d 750a 293d
000000e0: de7b 763d 4acf ccbd ac3e 013d bfd2 46bc
000000f0: 43b8 81bd d3d1 9bbc 010c eebd 4b1e 0e3d
00000100: a011 133d fd12 a4bd 2ce8 70bd fb55 a4bd
00000110: b0b6 373d dda6 9f3d 6f09 933d 6c26 723c
00000120: 8dd8 41bd a9c4 69be c777 04bd d44d 03be
00000130: 4110 593d 5954 403e eff0 cdbc 6a82 4dbd
00000140: b59c 47be 24b2 fcbd 39df 27be 3f0f af3d
00000150: 7306 a93d 4846 5dbd fe50 2e3d 13d8 66bd
00000160: 2930 b53c 1ca9 9bbd 5876 96bc 5d4c bd3d
00000170: c8ee 2b3e 3749 453e 18ea 0dbd 203f 5fbd
00000180: aaaa d2bd dc13 ed3d 50b7 2c3d acb8 143d
00000190: 1dc9 26be 7268 42be 49d9 2f3e f7ee 363d
000001a0: da72 3dbd abb5 623e c90e 15bd a8e0 013c
000001b0: 29da 033e 21cf 9cbd 762a 4e3c dc29 09be
000001c0: e426 353e e455 fbbc 64fd 713b c960 2fbd
000001d0: 2f4e f23d 572c fdbc d6f2 f2bd c529 4c3d
000001e0: dc74 043e 8627 dc3c a669 79bc e587 3b3c
000001f0: 5cfd d0bd 9d0c 24be a201 ee3c 70e8 13bd
00000200: ed90 bdbc 24df 0bbe aff5 043e 143e af3d
00000210: 491f 263c fe0e 82bd fb73 a13d 5e3b 053d
00000220: 0f91 a5bc 0b58 08bd eb65 903d a69a 8a3c
00000230: 60b9 5cbc a441 4ebd 6998 183d aaef c13d
00000240: 7a37 173c d2fc 08be ad74 ba3d 2238 383d
00000250: 2528 093d 725b 1abd 8785 033b 6ceb 413c
00000260: 4139 353e e4b6 b2bc 6b67 4d3d 9503 123d
00000270: c10e 4f3b 2bc2 f23c 1e69 89bb 1f05 54bb
00000280: bbeb f3bd e9aa b63d 20b4 d7bd 2ef5 ef3b
00000290: 617b 13be f988 b63d 7f88 04bc bd0b 1b3e
000002a0: 8136 37bd 3b74 3abd 1edd 4abe 75de 95bd
000002b0: 7285 193e 1849 553e 33cc d53d 6fc0 c23d
000002c0: bcab 06be ee90 c2bd fc90 73bd f4c2 62bd
000002d0: 38ee 3b3d dab4 193d 7c9c ad3d 89b0 dfbc
000002e0: a0f5 b13d de48 66bd 3d38 8e3c 6fa6 873d
000002f0: 237d f43d e307 f43d 6c22 bd3d 7ee1 ab3d
00000300: a1e4 87bd c881 123d 765d 00bd e5cf bfbb
00000310: c418 40bc c08d 80bc 21f8 193d b445 763d
00000320: 393f 0bbd 372e 9bbc fdcd 93be 6703 7a3c
00000330: a875 db3c 9745 25bd e4d9 303e 27c2 703d
00000340: e4c8 46bd b384 083d 45b4 92bc a46a 1f3c
00000350: 706b f5bc 2cb9 1bbe d128 403e ddbf eb3c
00000360: 8cc1 a1bc b9aa 423d 90cc c43c bdb2 703e
00000370: 4261 0a3e 43a6 553d b120 24bc ead2 1c3e
00000380: bddb 71bc 3891 f4bc 720c 093c efd9 3ebe
00000390: c431 a03d f35e 8b3d c049 7c3d 01ab d43b
000003a0: 7ad9 e1bd 27f0 a5bc f0b7 503d 6b02 d7bb
000003b0: 4229 053d c1cb 6cbd 6bcd 22ba a0c3 b63d
000003c0: 4790 0d3d 2a50 6f3c 50eb 193e bad1 533c
000003d0: 0d3b e13d 9486 52bd 44f1 d2bd f949 643d
000003e0: 4bbd f73d e709 3ebc d63c 41bd e8a7 263e
000003f0: 223f 3fba 2fad 533c f159 84bd c4a9 39bd
-0.063909106 -0.15801689 -0.059688397 -0.07158701 -0.15901902 0.21371369 -0.1213721 0.0467889
-0.02542201 0.019298313 0.015775051 -0.0562304 0.083570294 -0.026077382 -0.015399874 -0.024356479
0.0259355 0.014948024 0.0678291 -0.121101424 0.028974395 -0.00012237059 0.08677311 -0.042035934
0.0065567037 0.23377354 0.043311115 -0.027403722 -0.10195635 0.06154509 -0.06256465 0.2381454
-0.11012755 -0.011170916 -0.095549434 0.03899745 0.06256341 -0.039238546 0.038010802 0.076331235
0.07296813 -0.01677033 0.05920201 0.02267021 0.0185132 -0.015549403 -0.1522026 -0.14631337
0.0027977359 0.06002052 0.28800213 0.120138 0.016766027 -0.057864938 0.06163164 0.04126974
0.060176723 -0.10000475 0.03155391 -0.012135207 -0.06333973 -0.01902095 -0.11623383 0.03469686
0.03590548 -0.08011434 -0.058815166 -0.08024212 0.04485196 0.077954985 0.07179534 0.014779668
-0.04732566 -0.22828926 -0.03234079 -0.12822658 0.052994017 0.18782176 -0.0251393 -0.0501732
-0.19493373 -0.12338665 -0.16393746 0.0854783 0.08253183 -0.054022104 0.04255771 -0.05635841
0.022117691 -0.076006144 -0.018366978 0.09243081 0.16790307 0.1926621 -0.034647077 -0.05450356
-0.10286458 0.115760535 0.042167008 0.03630893 -0.16287656 -0.18985155 0.17172731 0.04466149
-0.04625211 0.22139613 -0.036391053 0.007927097 0.1287619 -0.07656694 0.012583366 -0.13394874
0.17690617 -0.030680604 0.0036924714 -0.04281691 0.118313186 -0.030904932 -0.118627235 0.049844522
0.12935203 0.026874315 -0.015222942 0.011445974 -0.102045745 -0.16020437 0.029053513 -0.03611034
-0.023140395 -0.1365934 0.12984346 0.08556762 0.010139295 -0.06350516 0.0788345 0.03252732
-0.02021077 -0.03328709 0.07050689 0.016919445 -0.013471931 -0.05035557 0.037254725 0.094695404
0.009229535 -0.13377693 0.091042854 0.044975407 0.03348555 -0.037684865 0.0020068602 0.011835914
0.17697622 -0.021815725 0.050147455 0.035647947 0.0031594487 0.029633602 -0.004193439 -0.0032351685
-0.119101964 0.08919317 -0.10532403 0.007322929 -0.14402534 0.08912844 -0.008089184 0.15141197
-0.044729713 -0.045521002 -0.19810912 -0.07317821 0.14992312 0.20828664 0.104393385 0.0950936
-0.13151449 -0.095002994 -0.05946444 -0.055361703 0.04588148 0.03752599 0.08477113 -0.027305858
0.086894274 -0.056221835 0.0173608 0.066235416 0.119379304 0.11915567 0.09235081 0.083926186
-0.066354044 0.0357683 -0.03133913 -0.0058536404 -0.011724655 -0.015692592 0.03759015 0.060125068
-0.03399584 -0.018942935 -0.28868094 0.0152596 0.026789501 -0.04034957 0.17270619 0.058778908
-0.048531428 0.033329677 -0.017908225 0.009730015 -0.029958457 -0.15207356 0.1876557 0.028778011
-0.01974561 0.047526095 0.024023324 0.23505683 0.13513663 0.052160513 -0.01001756 0.15314832
-0.014761862 -0.029854402 0.008364784 -0.18637823 0.07821992 0.068052195 0.06159377 0.006490112
-0.110278085 -0.020256115 0.050956666 -0.0065615675 0.03251005 -0.057811502 -0.0006210419 0.08924031
0.03456142 0.014606515 0.15031171 0.012928421 0.10997591 -0.051397875 -0.10299924 0.05573461
0.12096652 -0.011599041 -0.04717716 0.16274989 -0.00072954793 0.012919708 -0.064624675 -0.045327917

ablang_branch.4.bias f4 [128]
00000000: 7b9f b93a 1bbe 0fbd 7370 973d dc79 9f39
00000010: b578 2fbd c714 4b3c ff9b c8bc 9656 9cba
00000020: 1913 93bc 41d4 03bc a066 f63c 3339 36bd
00000030: 5489 2d3c 7a8f 1c3d 0f1f b63c 9b5b 8ebc
00000040: cda4 c33c f2cc 673a 162b 063d 69d9 02bd
00000050: 70e3 16bd 8848 bb3c 2d97 75bd 7970 14bc
00000060: 2866 a13c 5365 01bd b53b d0bc 6136 283c
00000070: 17f9 34bd 2d40 afbc 426b efbc f71f cabc
00000080: 225d 9c3c 63ba b9bc dc6f 963c 6542 583c
00000090: ddfe cfbc 79fd c73c 9180 163c 414b 45bd
000000a0: 8ce1 5dbc b387 18bd 3aae 58bc dc73 c1bc
000000b0: 3efb dfba 0910 233b 0f15 6fbc a672 763c
000000c0: d1b8 c4bc da3d 663c a8da 87bc f00c eabc
000000d0: 784f c9bc 40ca 84bb 3227 473d 8038 e83c
000000e0: bef8 fabc a932 2abc 2e10 4c3c 5597 1d3d
000000f0: f92f 21bd d1cd 433d ea3b b63c 2010 b2bb
00000100: c350 e2bc 0861 f53c 2809 00bc 0b40 0fbd
00000110: 88e2 20bc 6fee 203d 11c4 58bc 5cef 05bd
00000120: b525 a13c 27b9 10bd 06d0 e4bb cb6a 19bd
00000130: fbcd a138 65fe 033c b65f 7abc 5bbd abbb
00000140: 46d9 723c 2ac6 f2bc 5d62 b3bb f3fc abbc
00000150: a83f 30bc af12 9b3b a657 9abc fed4 11bd
00000160: e7b7 193c 5609 8fba 3dc3 1fbd d4ae 81bc
00000170: 1f99 febc 20f1 22bd 49f2 4abb 1f6b 1f3d
00000180: c39b a03c 4a12 35bc b53c eebc 806f dd3c
00000190: 18df 9dbc 873b 163d 8801 b8bc f0d3 13bd
000001a0: fc32 903c cdcd 97bb 69fe e8bb fa24 e6bc
000001b0: 6e01 13bd c6a7 783c 1079 19bd 0829 173d
000001c0: db4f 05bd 2ba3 073d d946 e73c 211f 13bd
000001d0: 0b1e 98bc 30e0 573d b626 ffbc 29e4 0dbc
000001e0: e105 adbc 2638 23bd 77ac 3f3d 6a8c 3abd
000001f0: 1d38 98bb 26c6 e1bc a7e2 b5bc e8df 2b3c
0.0014161909 -0.035093408 0.07394495 0.00030417636 -0.042839725 0.01239509 -0.024488447 -0.001192766
-0.017953442 -0.008046211 0.030078232 -0.044488143 0.010591824 0.038222767 0.022231607 -0.017377665
0.023882294 0.000884249 0.032755934 -0.03194562 -0.036837995 0.022861734 -0.059958626 -0.009060019
0.019702032 -0.03159077 -0.025419096 0.010266871 -0.044182863 -0.021392906 -0.02922595 -0.024673445
0.019087378 -0.022671884 0.018363886 0.013199423 -0.025390083 0.024412857 0.009185926 -0.04816747
-0.013542544 -0.037238788 -0.013225133 -0.023614816 -0.0017088426 0.0024881384 -0.014592423 0.015041983
-0.024013909 0.0140528325 -0.016583756 -0.028570622 -0.024574026 -0.0040524304 0.048621364 0.028347254
-0.030636188 -0.010388055 0.012455029 0.0384744 -0.03935239 0.047803704 0.022245366 -0.005434051
-0.0276264 0.029953495 -0.007814683 -0.034973186 -0.009819634 0.039289888 -0.01323034 -0.032698974
0.0196713 -0.035332825 -0.006982806 -0.03745536 7.715445e-05 0.008056258 -0.015281608 -0.005241079
0.01482231 -0.029635508 -0.0054743723 -0.020994639 -0.010757364 0.004732452 -0.018840622 -0.035603516
0.009382225 -0.0010912817 -0.039004553 -0.015830435 -0.031078873 -0.039780736 -0.0030967167 0.038920518
0.019605523 -0.011051724 -0.029081682 0.027030706 -0.019271418 0.036677863 -0.022461668 -0.03609079
0.017602436 -0.0046326877 -0.007110406 -0.028093804 -0.035890035 0.015176719 -0.03746897 0.036904365
-0.03254686 0.033114593 0.028232025 -0.03591836 -0.018569013 0.052704036 -0.031146389 -0.008660355
-0.021120967 -0.03984847 0.046795335 -0.045544066 -0.004645361 -0.027560305 -0.022202803 0.010490395

ablang_branch.5.weight f4 [128]
00000000: 124b 803f 163b 743f 9dd6 863f 2eb5 803f
00000010: b1a7 763f 7907 7d3f 7e65 7a3f 3ffc 763f
00000020: d94b 7a3f e58d 753f 81fb 833f 78c1 7e3f
00000030: e733 7d3f c139 823f c890 813f 6aac 683f
00000040: f167 813f c79f 7b3f eae8 7a3f ccdd 773f
00000050: 9af5 753f a732 803f 0946 813f cff6 7d3f
00000060: f9dd 803f a1ae 723f fc40 7a3f d423 823f
00000070: 57b4 7b3f 834e 743f 8e48 803f 0774 703f
00000080: 2ced 7d3f 237d 803f 2a60 803f a305 763f
00000090: 15aa 773f 6036 823f c97b 813f a6c7 803f
000000a0: dcb3 783f 6ecd 753f e389 823f 8871 7a3f
000000b0: 16d8 6f3f 7325 7c3f edd8 783f e541 833f
000000c0: d906 723f ca4c 823f a92c 803f e733 763f
000000d0: 0d98 793f df65 7e3f 36ef 823f 0ba1 803f
000000e0: 6045 7d3f 5e91 743f d9f8 833f 641f 823f
000000f0: ed44 753f d93a 843f 43e7 813f 9dd8 823f
00000100: e92e 723f e304 863f 57b2 773f 6d4c 793f
00000110: 39c6 753f e4c4 833f 5685 7c3f 7e9a 743f
00000120: 4b45 7e3f 2911 773f 5786 7b3f a83a 833f
00000130: e990 813f 9843 7b3f bc16 783f 4aaa 7c3f
00000140: 058d 813f d0ff 753f d744 803f 0b8b 7a3f
00000150: 2314 783f 8f8c 7f3f df53 7c3f cb68 703f
00000160: f2e9 813f 24c5 7c3f 4fc0 793f 6bfd 793f
00000170: 1aa6 743f 8f00 833f d534 7c3f 1f68 823f
00000180: 4236 813f 1583 7b3f a033 783f f7d6 823f
00000190: 4e79 7b3f e5a8 813f 741f 783f f90a 793f
000001a0: 3325 823f 4b01 7f3f 6252 753f 42d9 713f
000001b0: f23c 7c3f ce58 7f3f f725 763f c8df 813f
000001c0: 673a 793f dd6e 7f3f 35ee 7f3f f54e 7c3f
000001d0: 3c1e 803f a0b3 863f 929b 7d3f ccfa 7b3f
000001e0: 0b68 743f aa8c 823f 11db 813f 7617 7f3f
000001f0: 3079 813f 25aa 7d3f b1c5 813f 1360 7c3f
1.002291 0.9540266 1.0534245 1.0055292 0.96349627 0.9883953 0.97811115 0.96478647
0.97771984 0.9591964 1.0311128 0.9951396 0.9890732 1.0173875 1.0122309 0.90888083
1.0109845 0.98290676 0.9801165 0.9682281 0.96077883 1.0015458 1.0099498 0.99204725
1.0067741 0.9479771 0.9775541 1.0167184 0.9832205 0.954323 1.0022142 0.93927044
0.9919002 1.0038189 1.0029347 0.9610235 0.967439 1.0172844 1.0115901 1.0060928
0.97149444 0.96016586 1.019833 0.97829485 0.93689096 0.9849464 0.97206 1.0254484
0.945417 1.0179684 1.0013629 0.96172947 0.97497636 0.9937419 1.0229251 1.0049146
0.9893398 0.9553431 1.0310317 1.016583 0.958083 1.0330459 1.01487 1.0222355
0.9460283 1.0470241 0.967565 0.9738224 0.9600559 1.0294461 0.98640954 0.95548236
0.9932448 0.9651056 0.9825186 1.0252275 1.0122348 0.98150015 0.9690969 0.9869734
1.0121161 0.96093464 1.0021008 0.9786841 0.96905726 0.9982385 0.9856548 0.939099
1.014952 0.9873831 0.97559065 0.9765231 0.9556595 1.0234545 0.98518115 1.0188025
1.0094683 0.9824689 0.96953773 1.0221852 0.9823197 1.0129668 0.96922994 0.9728237
1.0167602 0.9961135 0.9582883 0.94472134 0.98530495 0.9974488 0.9615168 1.0146418
0.9735474 0.9977854 0.9997285 0.9855798 1.0009227 1.0523567 0.99065506 0.9842956
0.95471257 1.0199177 1.0144979 0.99645174 1.0115108 0.99087745 1.0138456 0.985841

ablang_branch.5.bias f4 [128]
00000000: 00db db3a d80f d5bc c82f 863d 5f6c 0b3c
00000010: 4afe 04bd c227 dc3b 0520 8abc de66 e53b
00000020: 7850 72bc 76f5 6f3b ccb9 033d 2687 32bd
00000030: 859c 0b3c 9bae 083d d5d0 ab3c 9336 96bc
00000040: 4fbc 8f3c bc10 bb39 9eda 193d a245 f8bc
00000050: a321 05bd e392 963c 8007 58bd 9816 8638
00000060: 0526 b83c bf81 cebc 891d bfbc c2a6 853c
00000070: ff1c 3abd a4d9 56bc 11ca 02bd f8a5 8dbc
00000080: d5e6 763c efd3 a3bc e8c5 823c 6d34 033c
00000090: 8f46 b0bc c46a 8f3c 2d7f 013c d044 12bd
000000a0: 37dd 4abc abcb efbc ac62 ae3a 5f33 76bc
000000b0: 5a5a d4ba b1fa c03b 9888 21bc da8e b73c
000000c0: bb11 94bc cae3 ae3c 0ffc 01bc 5261 c5bc
000000d0: 9a98 b4bc 18e2 aaba cfc1 2a3d ebaf e13c
000000e0: deca 92bc dc2b 03bc 878c be3c ea1b 133d
000000f0: 7174 0abd ee98 443d 401b b53c 66d4 f43a
00000100: 91e5 adbc 7cbd f13c 20b2 dabb 3a2e ecbc
00000110: d82e 9ebb 544a 203d 577b 40bc 5da0 edbc
00000120: 2df8 5f3c f000 04bd dce6 8abb 6051 2dbd
00000130: cf21 ea3b 8b31 0d3c 0c63 00bc 67c2 c4ba
00000140: b65c a73c 46b1 9fbc 1b27 06bb bede bfbc
00000150: 17af acbb ffef 033c 9ee6 71bc e86d 14bd
00000160: 7800 5e3c 7e98 73ba b863 0dbd 03e1 1fbc
00000170: f0f0 ddbc e7ec e4bc 2e21 5e39 a158 113d
00000180: d49b a93c 0886 69bc fc12 c0bc 6d38 c73c
00000190: bbfe dcbb 9d2c 163d 6640 5cbc 9c3d 0bbd
000001a0: 6a6c 8a3c be65 d33b 9977 d5bb 674c e2bc
000001b0: fa9b 17bd 72b0 903c eb3c 0abd fcc1 0d3d
000001c0: f05c 0bbd 2b9f fc3c 3b01 133d 00ad e2bc
000001d0: faf3 e3bc 2ee0 423d 55b8 dfbc a348 25bc
000001e0: 6c3b 80bc 4e4b e9bc 8d01 203d 248c 0bbd
000001f0: 78d4 fd3a eec7 b7bc 471c f5bb fb7a 833c
0.0016773641 -0.026008531 0.06552082 0.008509724 -0.03246907 0.0067186067 -0.016860971 0.007000788
-0.014789693 0.0036614812 0.03215961 -0.04358592 0.008521204 0.03336964 0.020973602 -0.01833657
0.017545847 0.00035679888 0.037562005 -0.030306641 -0.03250278 0.018380588 -0.052741528 6.393826e-05
0.022479067 -0.025208352 -0.023329513 0.016314868 -0.04543781 -0.013113413 -0.031930987 -0.017291054
0.015069683 -0.019998519 0.01596351 0.008008105 -0.02151802 0.017506965 0.007903856 -0.035710156
-0.012381843 -0.029271921 0.0013304553 -0.015026896 -0.0016201243 0.0058892597 -0.009859227 0.022406984
-0.01807486 0.021348853 -0.007933631 -0.024094258 -0.022045422 -0.0013037352 0.041688737 0.027549705
-0.017919 -0.008006062 0.023260368 0.035915293 -0.033802453 0.047997408 0.02210772 0.0018679022
-0.02122763 0.029509299 -0.006674066 -0.028830636 -0.0048273616 0.039133385 -0.0117481565 -0.029007131
0.01367001 -0.032227457 -0.0042389464 -0.042313933 0.0071451436 0.008617769 -0.007836115 -0.001501155
0.02042995 -0.01949371 -0.0020470086 -0.023421641 -0.005269896 0.008052825 -0.014764456 -0.036237627
0.013549916 -0.00092924375 -0.034518927 -0.009758237 -0.027092427 -0.027944995 0.0002118393 0.035484914
0.020704187 -0.014253147 -0.023446552 0.024318898 -0.0067442334 0.03666364 -0.013443088 -0.033994302
0.016897399 0.0064513376 -0.0065145013 -0.027624322 -0.037013985 0.01766226 -0.033749502 0.034608826
-0.03402418 0.030837616 0.035889845 -0.027670383 -0.027826298 0.047577076 -0.027309576 -0.010088119
-0.015653335 -0.02847829 0.03906398 -0.034069195 0.0019365689 -0.022434201 -0.0074801776 0.016049853

ablang_branch.8.weight f4 [64, 128]
00000000: c594 0ebe 57bd 81be 656c 363d 5995 8dba
00000010: e333 8f3d 0743 1e3e 8567 67bd 2464 de3d
00000020: 4483 4fbc 9756 8a3d d7f3 c0bc 33e7 0cbe
00000030: 9521 b33d 26ae 863d f37d 16bd a962 f63d
00000040: c273 45be fb9e b2bd 51b2 76bd ec0a 48bd
00000050: 3116 5f3d c305 a7bc 495d 0c3d 35e8 43be
00000060: 2e59 683d f297 6a3c a935 42bd 08a0 ae3d
00000070: fdd7 f2bc 9435 34be f080 a23d f84f 843e
00000080: 0bd7 873b 42bb 81bd ae34 263e fc4f 2cbe
00000090: 09b7 7dbd 1a95 1bbe 5bce 44bc 33b4 863d
000000a0: c039 83be 267a 3ebe 6dd2 efbd 16fc 7dbc
000000b0: c4cc cb3c 5412 8e3e f0df ad3c de79 6f3c
000000c0: d332 1d3d 53b6 673d a0a1 b03d 42ae 64be
000000d0: ec2b a53e 53b9 1f3c c8b0 21be 1d59 0cbd
000000e0: 71cb 10be a27a 26bd e49e 1bbd 33dc 953d
000000f0: b2cd 6ebd a60f ce3c ac75 d3bc 23ad 543c
00000100: eaea c6bd a3a0 a5bd fceb dd3b fb04 12be
00000110: 88df 343e 2ea8 693e 0147 b73d 4ae3 363e
00000120: 8a2a 57be 97d7 4ebc a2b8 173e 0568 e4bc
00000130: 7a8d 1abe f379 d5bd 19c5 1f3d 47c5 283d
00000140: 3154 60be 6814 283a 75c4 43bd 56a0 293e
00000150: 1b12 3fbc 609c 543d 57db 963e 8a8b 3e3e
00000160: 512d 18be 5b83 7bbd f809 303d aabb 573d
00000170: 4edb 9e3c d1ec c03c 647f 963c 1a47 b6bd
00000180: 844b 8d3d 15f5 823c a455 883e 98ae 453e
00000190: 3cb6 113e 2cdf c2bc f0d3 85bc c31c e83c
000001a0: 4607 4f3e 29d1 66bd 8c2f b73b 0115 433e
000001b0: 607e 143b b4d9 05bd 3b56 823c a4e0 d23d
000001c0: 3184 4e3e 16f4 2a3c f4e0 963d 8106 22be
000001d0: 8dd7 84be efb8 bd3d bd0e 093d 919a 31be
000001e0: 3586 143e 739d 36be a98f fabd 4bf8 4f3d
000001f0: d644 0bbb ebe3 2bbe 5ab1 4abe bebd 223b
00000200: 567d 63bb c816 4abe be80 b03d 0c37 3bbd
00000210: 058f 9b3d 2192 c53d bd4d 033e 9b54 b7bd
00000220: 6534 213e 2bbf ef3b ffcf ac3d ee00 a2bd
00000230: 092d 16bc 8704 d03c 89ad 0cbd 8d56 8ebd
00000240: 208f b53d 517c 04bd 3b76 6cbd 140c aa3b
00000250: c867 db3c a84c 15bd aaae 63be faf8 8d3c
00000260: 26e9 debc 2b91 38bd a751 5ebd 507a 313d
00000270: b5c7 bcbd c9e0 a6bd 9128 0dbe a560 42be
00000280: 960a 523d dec2 9bbc 3f35 79bd c219 973d
00000290: a17c 80bc 4092 983d 29c4 90bd 76d2 d0bd
000002a0: 77e4 b5bd 561f 203c 40b1 513d 4cac 61bd
000002b0: 68d0 ad3d 2834 5bbd f86f b9bc af94 dd3d
000002c0: e41b f03d 812c 633e 4d4c 9f3b e420 60bb
000002d0: 3ed1 443e 42ad 1dbd 92c9 9c3d 3dd1 33bd
000002e0: 145c f83d 4bc6 033e 2e19 be3d 21d6 293d
000002f0: 3f9c 2dbe 4744 cd3d 5406 383e 7405 2cbd
00000300: 2ffc 0cbe e512 743b c76d acbd 76f6 ffbc
00000310: 821d 18bd a04c 5f3a b6bd 643c 8294 6d3c
00000320: 5c8f 1d3e f1ac 833d 07f3 e1bd 14be a7bd
00000330: 9856 953d 69f7 3f3e c398 07bd 1f18 933d
00000340: e229 4f3e 0716 d63d 56f5 143d 213e b43c
00000350: 2d23 85bd 5e8c 99bc bece 443e e77c 0bbe
00000360: 5cff 903d afa1 cdbd c7fe 5a3e d44c c5bd
00000370: 9de9 e8bd 7735 c03c dd16 0abd 539d a03d
00000380: fec4 243e 6a12 30bc 9365 65bd c369 d73d
00000390: f2e7 a43d 41b0 823e 754d 823d 16ea c1bd
000003a0: 1114 b53c 385f 47bd 9703 aa3d 9f62 b03c
000003b0: 1cb4 8a3d f899 fcbd a1c8 fb3d c172 6c3d
000003c0: 4f50 31be 1da2 4d3e 95d4 7b3d 6483 eb3d
000003d0: 4ed4 2b3e a82d 89bc de10 c73d 38f4 52bc
000003e0: 3bf4 f6bd c67c ea3d 6f7d 0f3e df00 46bc
000003f0: 1846 44be b0b6 2cbe 5188 c3bd dcd6 9e3c
-0.13923939 -0.25339767 0.044536967 -0.0010801955 0.069923185 0.15455256 -0.05649521 0.10858944
-0.0126655735 0.06754797 -0.023553772 -0.1376007 0.0874664 0.06576185 -0.03674121 0.12030537
-0.1928244 -0.08721729 -0.06022865 -0.04883854 0.054464523 -0.02038849 0.03426865 -0.19131549
0.056725673 0.014318453 -0.047414456 0.08526617 -0.029644007 -0.17598563 0.07934749 0.2584226
0.004145508 -0.06334545 0.16231033 -0.16827387 -0.061942134 -0.15193596 -0.01201209 0.06577339
-0.25629997 -0.18601283 -0.117100574 -0.0155019965 0.024877913 0.27748358 0.021224946 0.014616458
0.038378548 0.056570362 0.086245775 -0.22332099 0.32260072 0.009748775 -0.15790093 -0.034264673
-0.14140107 -0.040644296 -0.037993327 0.0731739 -0.058301635 0.025153946 -0.025812946 0.012980732
-0.09712775 -0.0808728 0.0067725163 -0.14259712 0.17663395 0.22818062 0.0894909 0.17860141
-0.21012321 -0.012624643 0.14816526 -0.027881632 -0.15093032 -0.104236506 0.039006326 0.041203763
-0.21907116 0.0006411732 -0.047794778 0.1656507 -0.0116620315 0.051906943 0.29464218 0.18607917
-0.14861037 -0.061404567 0.042978257 0.052669205 0.019391682 0.023550423 0.018371291 -0.0890028
0.06899169 0.015986005 0.2662784 0.19304883 0.14229673 -0.023788057 -0.016336411 0.028334027
0.20217618 -0.056351814 0.005590385 0.19050981 0.0022658333 -0.03267832 0.015910259 0.10296753
0.20167615 0.010434171 0.07367125 -0.15822794 -0.25945702 0.09263789 0.03346132 -0.17344119
0.14504321 -0.178335 -0.12234432 0.0507739 -0.0021250746 -0.16786163 -0.19794217 0.0024832333
-0.0034712157 -0.19735253 0.086183056 -0.045706794 0.07595638 0.096470125 0.12822624 -0.08951684
0.15742643 0.00731649 0.084381096 -0.079103336 -0.009166011 0.025392784 -0.034345184 -0.06950102
0.088651896 -0.03234512 -0.05772994 0.005189428 0.026782885 -0.03645006 -0.22234598 0.017330635
-0.027210783 -0.045060318 -0.05427709 0.043329537 -0.092177786 -0.08148343 -0.13785006 -0.1898218
0.051279627 -0.019013818 -0.060841795 0.0737796 -0.015684428 0.0744977 -0.070686646 -0.10196392
-0.08881467 0.009773096 0.05119443 -0.055095956 0.08487016 -0.053516537 -0.022636399 0.10819375
0.1172407 0.22184946 0.0048613907 -0.0034199292 0.19220445 -0.03849531 0.07655634 -0.043900717
0.121269375 0.12868612 0.092821464 0.041463975 -0.16954134 0.100227885 0.17971164 -0.041997388
-0.13768075 0.0037242707 -0.08419376 -0.031245451 -0.037137516 0.0008518193 0.013961246 0.014500739
0.15386719 0.0642947 -0.11032682 -0.081905514 0.07291907 0.18746723 -0.03310467 0.07182335
0.20230821 0.1045342 0.036366783 0.022002282 -0.0650085 -0.01874369 0.19219491 -0.13621865
0.07079956 -0.10040604 0.21386252 -0.096337944 -0.11372683 0.023462994 -0.03371321 0.07842507
0.16090772 -0.010746578 -0.05600507 0.10518219 0.080520526 0.25525096 0.0636243 -0.094684765
0.022104295 -0.048674792 0.08301466 0.021531401 0.067726344 -0.12334055 0.12294126 0.057726625
-0.17315792 0.20081373 0.06148203 0.1149967 0.16780207 -0.016745403 0.09720014 -0.012875609
-0.12058302 0.1144958 0.14012693 -0.012085169 -0.19167364 -0.16866565 -0.09547485 0.019389562

ablang_branch.8.bias f4 [64]
00000000: 5ca1 c6ba afb5 fc3c 8581 373d 1865 c73c
00000010: 32c3 9ebd 47d4 23bc 72ed 2abd a02b 863d
00000020: f581 363c b65b 84bc 56ae 52bd 30e9 203c
00000030: 3474 963c c7cc b2bc 6aea 0dbc 9ab0 043d
00000040: b9ee 063c 8698 1c3d 3d50 fa3b 32cc 6e3d
00000050: dd44 afbb 7b13 40bd f48e 2b3d 4650 433c
00000060: 4b43 2abd d932 90bd 54c4 ba3c b1d8 4abe
00000070: 5a8b 0ebd 07c1 4dbc b757 9abd 3e68 27bc
00000080: fa5b 4abe f894 49be 4574 043d 6073 163c
00000090: ec09 a8bc c318 0f3b 323b e7bb 47c9 143d
000000a0: 86b6 8d3c 9c6f 66bc c69c 1cbe 1c70 d6bb
000000b0: 8245 a4bc 211b 293c a47e 553b 3f23 87bd
000000c0: ec88 c9bd 30ca ce3c d9d0 2cbd fd78 adbd
000000d0: 0322 ed3c 2d97 c3bc 2da8 743c 8f74 b3bd
000000e0: 27bd dabb 8aa2 42be 6e2c 0cbd 3999 c7bb
000000f0: 9a32 d23c e144 eabc b7af 9dbb dbce 54bb
-0.001515429 0.030848352 0.044801254 0.024340197 -0.07752074 -0.009999341 -0.04173035 0.065512896
0.011139383 -0.016157012 -0.05143579 0.009821221 0.018365957 -0.021826161 -0.008661846 0.032394983
0.008235627 0.038231395 0.0076389597 0.058300205 -0.0053487853 -0.046893578 0.041884378 0.011920994
-0.04156808 -0.070409484 0.022798695 -0.19809224 -0.034800865 -0.012558228 -0.075362615 -0.010217724
-0.19761649 -0.19685733 0.032337446 0.009182781 -0.020512544 0.0021834827 -0.007056617 0.036324766
0.017298948 -0.014064696 -0.1529418 -0.006544126 -0.020052675 0.010321409 0.0032576704 -0.065985195
-0.09840569 0.025242895 -0.04219136 -0.08470342 0.028946882 -0.023875797 0.014932674 -0.08762466
-0.0066753807 -0.19007316 -0.03422206 -0.0060912636 0.025658894 -0.028597297 -0.0048122066 -0.0032471928

ablang_branch.9.weight f4 [64]
00000000: 3858 6a3f f802 793f 5273 753f 3072 6f3f
00000010: c99a 7d3f 1cf1 763f 1704 713f 1ef2 763f
00000020: 89b5 703f c7ae 693f b855 753f b39c 7a3f
00000030: 70c7 6d3f 4e40 743f d6db 6e3f 3958 743f
00000040: 5a0a 703f 4d35 723f e627 693f 7c7e 743f
00000050: fbf0 6c3f 6467 693f f6d0 7b3f 2540 743f
00000060: d408 723f 0d2b 753f e983 6b3f e5bd 7d3f
00000070: e448 6e3f 220e 753f 2f7e 823f 99b0 733f
00000080: 9e32 863f 3087 813f e496 763f 5268 793f
00000090: bc0e 693f 2773 6b3f 6036 673f 4731 7c3f
000000a0: 3110 7c3f 9841 6f3f b9bd 7e3f f8a4 693f
000000b0: 61ed 713f 503a 6f3f 8249 703f 0036 7c3f
000000c0: ec95 743f 93f4 733f 9b32 663f cf60 7b3f
000000d0: e6f2 6d3f 1316 6c3f 828b 773f 16b4 7a3f
000000e0: 1bcb 713f 7990 703f c613 733f 38de 6d3f
000000f0: 00fd 743f 41e3 6e3f 90fd 743f bc97 703f
0.9154086 0.97270155 0.9587909 0.9353361 0.9906431 0.96461654 0.94146866 0.9646319
0.94027 0.91282314 0.9583392 0.97895354 0.9288244 0.9541062 0.93304193 0.9544712
0.93765795 0.9461258 0.91076505 0.955055 0.92555207 0.91173387 0.98365724 0.95410377
0.9454472 0.95768815 0.91998154 0.9911788 0.9307997 0.9572469 1.0194758 0.9519134
1.0484197 1.0119381 0.9632399 0.97424805 0.9103811 0.91972584 0.90317345 0.9851269
0.98462206 0.93459463 0.99508244 0.9126735 0.94502836 0.9344835 0.93862164 0.985199
0.9554126 0.95295066 0.8992097 0.98194593 0.9294876 0.9222118 0.9669725 0.9793104
0.9445054 0.9397045 0.94952047 0.92917204 0.9569855 0.9331551 0.95699406 0.9398153
