data/model_weights/cv_fold_3_model3_3.pt (torch, 707477 bytes, 29 tensors)

ablang_branch.0.weight f4 [256, 480]
00000000: adee 19bd a312 b3bd 0474 3bbd 4a46 44bd
00000010: 99b0 1dbd 882b 97bc d8c9 2e3d 7deb 07bd
00000020: 990b 28bd 6b22 ac3b 488d 1d3d 21bd 7cbd
00000030: ca8c 62bc b5ac 49bc 7b6b 7d3d edb5 de3d
00000040: 4bde 0fbc e85b c4bc 7397 a4bd 699b 503d
00000050: f7a0 523d fb9e 17bb 917e e4bd 9b07 3abd
00000060: 6e9c 88bd 91bc ffbb d27d ddbd 7c90 54bd
00000070: 65b2 d0bd 6d25 66bc 6ac5 1a3d a1d3 00bc
00000080: bece 5e3d b654 9a3d 5b54 21bd 0ed9 99bc
00000090: ebbd 063d bd31 ce3d 4f5d 96bd 4b40 a43d
000000a0: cf6f 98bd 748f 9b3d 9ce7 01be 7abf 96bd
000000b0: 9bca eabc 023e fa3d f0bf 61bd 1fbc 7cbd
000000c0: 6861 c53d 35bf 88bc 9d65 3e3c fd0f 89bd
000000d0: e40b 303d 8ead afbd 2f4c 44bd 2ddf 11bd
000000e0: bedd c7bc f962 153c 1d37 113d 8486 383d
000000f0: 1907 fabc 8f6c 93bc 60a0 daba bb16 203d
00000100: 572e 443d fd83 ef3c 4b85 393c e3d2 5c3d
00000110: 587e 823b 1be4 81bd 48c4 1e3d 22e8 9bbd
00000120: 9a7f 253c b634 cabc 434c 3bbd 43e0 d9bc
00000130: 995d b7bc 79ce 413d 6231 febd 0e1b a6bb
00000140: 63f2 5cbd 3130 8c3d 1857 7fbc 9361 acbd
00000150: 8628 513d 2cbe 023e 3e97 6ebd 7546 69bb
00000160: 7336 223d 2dfd 12bd 3c4a 3b3d e67d 8c3d
00000170: d896 843d 7b9a cdbc 617f 913d e027 5c3e
00000180: b192 123b 9a57 423b 7d53 2bbd 01a7 36bc
00000190: 30d0 253c 07fa 173d 8a8e 993d 94be 843d
000001a0: ca8d a43d f4b9 143e 5e8d 193e c3ed 35bb
000001b0: 9792 063d f5f5 82bd ac18 93bd 10c7 1e3e
000001c0: f648 263e a229 b53d 7558 b0bd 38ef 803d
000001d0: b256 c7ba 0765 32bc 8703 0938 c72b 073c
000001e0: 245f 6eba 5f0e 613d 3ef3 81bd a832 b9ba
000001f0: a53c cbbd 6b42 aabd ffac a7bc b5ba 063e
00000200: 2260 933b 35f6 313d 69fe 01bd 3be5 643d
00000210: 0a5e a53c 6300 bf3d b21f 61bd 7bb0 163d
00000220: ca74 e83c 8b5e 90bc 03ea 89bd f7c0 d33c
00000230: 26f7 4a3c 4444 a3bc 15d8 44bd f673 17bd
00000240: 521c ec3c 5f9e 293b fd13 a0bd 7a64 18bd
00000250: 1353 07bd d2f1 f63c d760 e63c 6d83 c23c
00000260: c245 6e3b 922c 92bd 35c0 2cbd 6d6a 6c3b
00000270: 4234 c4bd e5db d43c 76c2 abbc 1145 293c
00000280: 8120 59bd 120c ad3c a96c 933c dfbd 853c
00000290: e710 fd3d f374 ba3a 708a 8e3d e522 22bd
000002a0: cf3c 1fbd 9e45 75bd 4a01 6d3d 142a e3bb
000002b0: 4efc a53d 7609 c0bc 486e 91bd 5a38 fdbc
000002c0: 664a 893d 13f0 033d 9432 e23c cca4 36bd
000002d0: 204e 5fbd 9ecd 6cbc 9b67 3a3d 0b7f f9bd
000002e0: 3aa0 813c fb86 0f3d c66b 673d 50e5 76bd
000002f0: 32b3 e03d 2f98 b53c 8b64 ba3c a456 7e3c
00000300: a551 96bd db24 393d 7912 a43d aeb3 e23b
00000310: 62d4 48bd 8474 3a3b 4e5b 01be 3430 253d
00000320: 08b6 753d ff7a 0abd 247e 93bb 3bcd 97bb
00000330: 5b97 ad3c 6597 51bd e7ec 0f3e ddc4 473e
00000340: 9844 063d a263 9bbd 5c0f 873c e727 96ba
00000350: e266 313d 5fea c8bc 4da2 ff3d 3cb7 9abd
00000360: 3c57 e13b 84d6 d0bd c2cb 51bd e76e f8bc
00000370: 8067 a93c 775c 213d 2d0d bb3d d361 623d
00000380: fd6d 423d c230 88bc 9698 0b3e 099d 44bd
00000390: 6ee3 8c3d f881 5abc e18a d9bc 6768 9f3d
000003a0: 88f1 603c 375f 323d f1c2 ffba e7f8 1cbd
000003b0: 918d b83b 845b 533d 853e c23d 8145 df3d
000003c0: 0382 083d e737 09bd e776 6a3d d180 fcbc
000003d0: 589f 2a3c 6d0a 6a3c e2c8 833d 36d8 68bd
000003e0: 76e7 a23d 6a74 0dbe e7d0 4d3d 1a4b d3bb
000003f0: 6f19 18be 58f6 bcbd 2b6c 7f3b eebc 853c
-0.037581135 -0.08743789 -0.045764938 -0.047918595 -0.038498495 -0.018453375 0.042672962 -0.033183564
-0.041026685 0.0052531264 0.038464814 -0.061703805 -0.013827512 -0.012309243 0.06187008 0.10874543
-0.008781026 -0.023969606 -0.08036699 0.05092946 0.05142304 -0.0023135531 -0.11156953 -0.04541741
-0.066704616 -0.0078044613 -0.10815014 -0.051895604 -0.10190276 -0.014047009 0.037785925 -0.007862956
0.054396383 0.075356886 -0.03938709 -0.018780258 0.032895964 0.100680806 -0.07342016 0.080200754
-0.07443201 0.07595721 -0.12686008 -0.0736074 -0.028661063 0.12218858 -0.055114686 -0.061702844
0.096377194 -0.016692737 0.011620906 -0.06692503 0.04298009 -0.08578025 -0.047924217 -0.035613228
-0.024397727 0.009117835 0.03545295 0.04505016 -0.030520963 -0.0179961 -0.0016679876 0.039084177
0.047895756 0.029237742 0.011323283 0.053912055 0.0039823465 -0.06342336 0.038761407 -0.07612635
0.010101223 -0.024683338 -0.045727026 -0.026596194 -0.022383498 0.04731605 -0.12411763 -0.005069143
-0.053942095 0.06845129 -0.01558473 -0.08417048 0.051064037 0.12767857 -0.058249705 -0.0035594974
0.039602708 -0.03588598 0.045725092 0.06859951 0.06474084 -0.025098076 0.07104374 0.21499586
0.0022365267 0.0029654265 -0.041827668 -0.011148215 0.010120437 0.03710368 0.0749789 0.064816624
0.080348566 0.1452406 0.14995334 -0.0027760125 0.032854643 -0.06394569 -0.0718244 0.15505624
0.1623877 0.088458315 -0.08610622 0.06295627 -0.0015208332 -0.010888345 3.266663e-05 0.008250183
-0.00090931566 0.054945346 -0.06345223 -0.0014129477 -0.099236764 -0.083134495 -0.020468233 0.1315716
0.004497544 0.043447692 -0.031736765 0.055882674 0.020186443 0.09326246 -0.054961868 0.0367894
0.028376002 -0.017623207 -0.06734087 0.025848849 0.012388026 -0.019930013 -0.048057634 -0.036975823
0.028822098 0.002588175 -0.078163125 -0.037205197 -0.03303821 0.030144606 0.028122349 0.02374431
0.0036357497 -0.07137407 -0.04217549 0.0036074177 -0.0958028 0.02598376 -0.02096675 0.010331408
-0.053009514 0.02112392 0.01799615 0.01632589 0.123567395 0.0014225527 0.069599986 -0.03958406
-0.03887635 -0.059880845 0.057862557 -0.0069325063 0.08104764 -0.023442011 -0.071011126 -0.03091066
0.067036435 0.032211374 0.027612008 -0.044590756 -0.054517865 -0.01445332 0.045508962 -0.12182435
0.015823472 0.035040837 0.056499265 -0.060277283 0.10971679 0.022167293 0.02275302 0.015523586
-0.07339791 0.045201164 0.08011336 0.006918392 -0.04903067 0.0028450796 -0.12632486 0.040329173
0.05998805 -0.033808704 -0.004501121 -0.0046326197 0.021190336 -0.05116977 0.14055215 0.19508691
0.03278026 -0.07587363 0.016486816 -0.0011455984 0.043311007 -0.02452582 0.12482128 -0.075544804
0.006876854 -0.101971656 -0.05121971 -0.03032632 0.020679235 0.039394822 0.091333725 0.055269074
0.047468174 -0.016624812 0.13632426 -0.048001323 0.06879316 -0.013336651 -0.02655548 0.07783585
0.013729461 0.043547835 -0.0019513053 -0.03832331 0.0056321104 0.051600948 0.09484581 0.10901929
0.033327114 -0.03350058 0.0572423 -0.030823143 0.010413967 0.014284712 0.064348 -0.05684682
0.07954304 -0.1381394 0.050248053 -0.006448162 -0.14853452 -0.09226674 0.0038974385 0.01632544

ablang_branch.0.bias f4 [256]
00000000: 500f 21ba 2e0d 933b e459 f03b 1d33 8b3b
00000010: e5e9 9d3a 1143 4aba a1db 0a3b 3669 123b
00000020: d950 3b3c 0180 b23b 5d07 cd3b 06a1 33bb
00000030: 87d8 ec3b 09f2 9a3b 818f 103c 8e98 8f3b
00000040: dc42 9b3b 5e17 cc3b ae15 263c cacf 35bb
00000050: 2d3b 483b 4015 ddbb 16a3 3a3b ba0e d639
00000060: d6ad b93a 122d bf3b 68ec f83a f81a 81ba
00000070: 3d16 a93b 539c 883c 72c8 8b3b af17 0e3c
00000080: 9c6c c13b 19c1 cf3a 536c bf3b c151 6a3b
00000090: f800 483c 571b 973b da75 18bb fe0a 383b
000000a0: 3b5c f43b ccb9 f83a 9154 c83b c3da 0f3a
000000b0: 21ac 063b 6319 203c 1c5c 8b3a ce65 853a
000000c0: 35a7 ce3b 2563 c03b e191 06ba 5003 1f3b
000000d0: e6a9 043a 7a54 243c e17c ca3b 4ac8 153b
000000e0: 6671 273b 1a7e 8f3b 771d c73a 2fb8 903a
000000f0: b22e 303c 93a1 033c 9092 f7bb 23e8 2fbb
00000100: b836 05ba 7efc 0d3c 5449 f93a 254e 1d3c
00000110: 6efb 30bb 1b5c cb3b aa57 d6ba d6a1 a43b
00000120: ae0c 8938 c38c dbba 2d76 123c a869 a83a
00000130: 961a 213c bb9d 2e3c a857 a7bb 62e6 9bbb
00000140: 81a2 7a3b 50b5 d1bb 2831 68b9 a062 563c
00000150: ae6d 303c 1e71 03b9 c98b 053c b1d3 7d3b
00000160: 10a8 213c 89bb 2a3c 58f6 343b 6fda 5eb8
00000170: 3cda 6bba 0739 9b3b 679b a23b 3e97 c63b
00000180: 7379 063c c5ec 0e3c e863 c639 b72c 663b
00000190: 27df 9f3b 39b6 e43b 172f 0b3c 42c2 923a
000001a0: 8d3e 923b 4b09 1d3c 58ae c73a 02b1 c23b
000001b0: 2084 223b dbed 2f3c d04d 333c 8d03 af3b
000001c0: f834 df3a e83b a03b 9a3c 323c 403d 733b
000001d0: f02a 3abb 7cdf ed3b ddc8 bd3a aeb4 723b
000001e0: 2635 1a39 d718 4f3c 9bd2 0d3b 45f1 4ab9
000001f0: 71c9 86bb 7ce6 8b3b e471 0e3c 50a3 2c3b
00000200: 6421 9d3b 32a9 d33b 217f 6e3b b384 e83b
00000210: 43d7 753c 19da bcbb a991 acbb 6aca 123b
00000220: cc9f ab3a 852d 4fbb 5b60 183c 44cd 55bb
00000230: 850c 943c f5fc 013c 89db 8e3a f479 78b9
00000240: 7130 823a 4f47 4f3b 6415 c23b 9354 0d3c
00000250: 6da7 0b3c ed50 003c 4b99 b539 f64f 723b
00000260: 2983 c33b 2c74 e63b 9872 ea3b 5f47 ff3b
00000270: fc69 4a3a c638 25ba fa8f 493c 2870 c3ba
00000280: 5687 ae3a 80e6 a63b 82b6 273c 9d9e 153c
00000290: 4809 2a3c ae9c 0fbc ee83 1e3b ae86 9f3b
000002a0: 79be 40bb e2f0 1f3b c169 b33a dc3c 153c
000002b0: 000a 3d3b 692e c2b9 da09 093b 2103 0a3c
000002c0: 7027 9abb 626e a23a 9672 143c 0eff 483a
000002d0: afce 433b 0661 153c d1c5 843b 5dca a93b
000002e0: 1c4a 253a c386 5d3b 9fb7 ec3a cb12 de3b
000002f0: 0f44 3a3b c2c1 953b 1458 803b cbc7 92ba
00000300: a31e 183c 1df0 013c 2925 8d3b 3afb c83b
00000310: 9dda b93b 4e70 e13b ee58 743c 34d3 0b3b
00000320: 3cac d23b 29fc 063c 6833 403c c020 be3a
00000330: 0d66 d73a 7ab7 033c ba9a 113a 3f10 863b
00000340: c7fc 3c3c 4c16 573c 2e0b 623b 1d85 6d3b
00000350: a600 213b d631 cd3b 7cc4 283a 2843 d2ba
00000360: dd6f 2a3c bf4f 963a e886 b73b 0c18 3e3b
00000370: 648e bf3b fd35 6ebb a134 9bbb 50e6 9439
00000380: 3dec f13b d121 b93a 9760 023c 8ac7 5ebb
00000390: dcb0 02bb 2837 d43b 8895 263c 1641 12bb
000003a0: 72c4 c2b9 811e fdbb eda6 3b3c bc3b a43a
000003b0: 867c d23b 0427 e93b e067 ea3b 0699 8e3b
000003c0: 7bec 8a3a d1d0 063c c609 83bb 1b5e 56bb
000003d0: 6898 8d3b 3ba9 103c f44f 9b3b 0393 f13b
000003e0: a60a ac3a 9fa3 3a3a ef83 e739 e515 2e38
000003f0: 4c86 4e3a 7286 e6ba 0187 e53a 670d 883b
-0.00061439443 0.004487655 0.0073349345 0.0042480365 0.0012047855 -0.0007715682 0.0021188038 0.0022340543
0.01143285 0.005447388 0.0062569813 -0.002740921 0.0072279605 0.00472856 0.0088232765 0.0043821996
0.004738195 0.0062283715 0.010137005 -0.002774226 0.003055285 -0.006746918 0.0028478554 0.00040828233
0.0014166187 0.00583423 0.0018991353 -0.0009849956 0.0051601217 0.016676104 0.0042658383 0.008672639
0.00590284 0.0015850394 0.0058417707 0.0035754296 0.012207262 0.0046114135 -0.0023263604 0.0028082724
0.007457284 0.001897627 0.0061135967 0.0005487615 0.0020549374 0.009771678 0.0010632309 0.0010177435
0.0063065537 0.005871194 -0.0005133432 0.002426345 0.0005060717 0.010029906 0.0061794375 0.0022854977
0.0025549768 0.004379046 0.0015191276 0.0011041219 0.0107533205 0.008034128 -0.0075553134 -0.0026841245
-0.0005081701 0.008666156 0.0019019046 0.009601151 -0.0027005333 0.006206048 -0.001635303 0.005024175
6.535031e-05 -0.0016750324 0.008939308 0.0012848871 0.009832999 0.010657723 -0.005106885 -0.0047576884
0.0038243833 -0.006399788 -0.00022143556 0.0130850375 0.010768337 -0.00012535273 0.008151003 0.0038730914
0.009866729 0.010420688 0.0027612653 -5.3132357e-05 -0.0008997058 0.004737023 0.004962373 0.00606051
0.008207667 0.008723442 0.0003783994 0.0035121867 0.0048788968 0.0069797304 0.008495114 0.0011196809
0.004463023 0.009584735 0.0015234454 0.005941511 0.002479799 0.0107378615 0.010943845 0.0053409995
0.0017029336 0.004889954 0.010878706 0.0037115365 -0.002840694 0.0072593074 0.0014479418 0.0037033963
0.00014706384 0.0126402 0.0021640423 -0.00019354101 -0.004113369 0.0042694192 0.008694146 0.002634246
0.0047952402 0.0064593786 0.0036391693 0.007095897 0.015004936 -0.005763304 -0.0052663875 0.002239848
0.0013093888 -0.0031612825 0.009300317 -0.0032623569 0.018072376 0.007933845 0.0010899167 -0.00023696554
0.000993265 0.0031628197 0.00592296 0.008626121 0.008523804 0.007831794 0.00034637222 0.003697393
0.0059665632 0.0070328917 0.007154774 0.0077904905 0.00077214814 -0.00063027104 0.012302393 -0.0014910745
0.001331548 0.0050933957 0.010236384 0.009132055 0.010378189 -0.008765383 0.0024187523 0.00486835
-0.0029410406 0.0024405052 0.0013688133 0.009108748 0.0028845072 -0.00037037142 0.0020910413 0.008423598
-0.0047044083 0.0012392516 0.009060523 0.00076674006 0.0029877832 0.0091173705 0.004051902 0.0051815943
0.00063052936 0.0033802248 0.0018060094 0.0067771426 0.0028421914 0.004570217 0.0039167497 -0.0011198459
0.009284648 0.007930783 0.0043074084 0.006133464 0.0056718127 0.006879843 0.014913781 0.0021335604
0.0064292233 0.008238831 0.011731006 0.001450561 0.0016433612 0.00803935 0.0005554367 0.004091292
0.011534876 0.013127875 0.0034491527 0.0036242672 0.0024567037 0.0062620444 0.000643797 -0.0016041743
0.010402647 0.0011467858 0.005600799 0.0029006032 0.0058458317 -0.0036348097 -0.0047364985 0.00028400356
0.007382898 0.0014124458 0.007957599 -0.0033993446 -0.0019941842 0.0064763017 0.010167487 -0.0022316626
-0.00037148927 -0.0077245836 0.011453372 0.0012530009 0.0064235358 0.0071152467 0.007153496 0.004351738
0.0010599041 0.008228497 -0.003998968 -0.00327099 0.0043211468 0.00882941 0.0047397558 0.0073722615
0.0013125732 0.00071197184 0.00044158052 4.1505224e-05 0.0007878288 -0.0017587675 0.0017511548 0.0041519883

ablang_branch.1.weight f4 [256]
00000000: 4eea 7e3f eb1e 7f3f 9721 7e3f 34a2 813f
00000010: 2324 7f3f d4c4 803f fcc7 7b3f cad5 813f
00000020: c9b8 7f3f bbfe 823f 38f1 7a3f 8374 813f
00000030: 0144 833f 622f 7f3f e9a4 873f b955 803f
00000040: e450 833f bc69 7d3f 459d 7b3f 43f2 833f
00000050: 9ac2 7d3f 6eab 7d3f a632 823f 1162 803f
00000060: 8a37 823f 00cc 813f a9dd 823f 6ba8 7c3f
00000070: a4be 7f3f 24ab 843f 70ab 803f 02bf 7d3f
00000080: 4d75 803f b887 7e3f d265 813f 48e2 833f
00000090: f25d 813f a124 7c3f 920f 813f 011f 7f3f
000000a0: c731 7c3f 9d39 7e3f 6a37 813f c720 823f
000000b0: f143 7f3f b5cd 803f ea4c 813f 7764 7f3f
000000c0: cc25 823f 79f3 7f3f fe11 823f 399b 7e3f
000000d0: 2dd4 7c3f 2141 833f de3f 843f 6502 7d3f
000000e0: 1255 7f3f 9ab7 7f3f 191c 843f 63ce 7c3f
000000f0: d387 7f3f 1ca8 813f c1ce 7b3f 947b 843f
00000100: 9836 7e3f ddbf 813f 5d29 803f fc6e 7d3f
00000110: ceb2 7b3f a71a 7d3f fe53 843f 812b 803f
00000120: 0f2a 813f ab28 7e3f 143d 813f c757 803f
00000130: 3974 7f3f 3c9b 843f 102f 783f 204a 7d3f
00000140: ddc3 7e3f 2631 803f d46f 7c3f bda3 7d3f
00000150: 28fb 823f c8f4 7e3f 776f 813f bfd2 813f
00000160: 1b0c 803f 479f 853f aa18 7f3f 1696 7d3f
00000170: a20a 7e3f fecf 7f3f 6df3 7c3f 81d8 813f
00000180: fcfc 813f 176f 813f 875f 7f3f 8465 813f
00000190: 7693 803f 8b17 803f ad2d 813f e21e 813f
000001a0: 4216 7c3f 312a 893f 37af 7f3f 58fc 813f
000001b0: adc0 803f 35d4 7f3f 1932 803f fb07 813f
000001c0: 1e80 813f ac8c 7a3f 5326 813f fe18 7b3f
000001d0: 4eaa 7f3f 9d26 7f3f a653 7e3f fd4b 843f
000001e0: 73a2 7c3f 0cda 793f 3b8a 7c3f d34a 793f
000001f0: b39f 823f 532c 823f 84b2 7d3f 8197 7e3f
00000200: 69a0 7d3f 491e 823f 9057 803f abe0 7f3f
00000210: 4239 833f 62a6 7b3f 2fbe 853f 4f83 7b3f
00000220: d950 7d3f 7d93 7d3f 287f 813f 8bfb 7d3f
00000230: adee 823f d3e8 813f 9c1e 7e3f 7260 803f
00000240: 2c1b 7f3f 04ac 7e3f d6c8 803f 5628 833f
00000250: 9355 833f 4f32 803f 36f6 7d3f cde6 843f
00000260: 1bc4 873f 04c4 7d3f 3f7d 813f 0390 843f
00000270: 1baa 813f 46c9 833f e9c1 7f3f 6299 7a3f
00000280: fb42 7f3f fc71 7c3f 1a26 7c3f 1040 803f
00000290: 6db6 823f 1495 803f 8c67 7d3f 3741 7d3f
000002a0: a89b 7d3f 9a23 813f d702 813f 7224 843f
000002b0: 38eb 7c3f f507 813f e5ff 7c3f b1bb 7f3f
000002c0: 0997 7f3f 7dc5 803f 3975 7e3f 115b 813f
000002d0: f08a 813f 8e8f 7e3f b735 833f 0bfe 803f
000002e0: 6f23 823f bf7d 7d3f 1b3d 7c3f c711 843f
000002f0: 3a88 7e3f f95b 7d3f 6ec4 803f a1b5 813f
00000300: 0df7 7c3f 385c 853f c57c 803f c2da 803f
00000310: a36b 823f 05f3 763f 5a0b 813f bd0c 7d3f
00000320: 4011 7e3f 368b 803f 4820 813f 3c0c 803f
00000330: 055f 7e3f ef67 7f3f bb36 7e3f b354 853f
00000340: b02a 803f 5ed5 813f a795 7f3f b1cd 7e3f
00000350: c958 863f c8b5 813f 1c8e 813f 6350 803f
00000360: 4f8a 823f 072b 803f fab2 7f3f 5564 803f
00000370: d1e2 803f f729 813f 3b3e 7c3f f138 803f
00000380: 5d28 7d3f 14c7 7b3f beb5 7e3f 2b5a 7c3f
00000390: 2ff8 803f 50bc 803f 9e38 7f3f 20af 773f
000003a0: 5864 833f 8104 7b3f 4c10 813f c0b2 7d3f
000003b0: 8001 803f 01c2 823f 154f 7e3f 4a9f 803f
000003c0: c7ee 7a3f 5e97 803f 3f2d 7f3f 21ee 813f
000003d0: 71a6 7c3f 3152 7e3f a74c 813f 342f 813f
000003e0: 4ebb 823f 22ab 7f3f 080c 7e3f 5593 813f
000003f0: 576f 7c3f 2fb1 7c3f 0f0c 7c3f c9a2 813f
0.9957627 0.9965655 0.99270004 1.0127625 0.99664515 1.0060067 0.98352027 1.0143368
0.99891335 1.0233988 0.9802432 1.0113682 1.0255128 0.99681675 1.0597202 1.002616
1.0259061 0.9898946 0.9828685 1.0308307 0.99125063 0.99089706 1.0171707 1.0029927
1.0173199 1.0140381 1.0223895 0.98694485 0.9990027 1.0364728 1.0052319 0.9911958
1.0035797 0.9942584 1.0109198 1.030343 1.0106795 0.9849339 1.0082877 0.99656683
0.98513454 0.9930666 1.0095036 1.0166253 0.99713045 1.0062777 1.0101597 0.9976267
1.0167785 0.99980885 1.0161741 0.994556 0.98761255 1.0254251 1.0331991 0.9883178
0.9973918 0.9988953 1.0321075 0.9875242 0.99816626 1.0129428 0.98362356 1.0350213
0.99302053 1.0136677 1.0012623 0.98997474 0.9831971 0.98868793 1.0338132 1.0013276
1.009096 0.99280804 1.0096765 1.0026788 0.99786717 1.0359874 0.9694681 0.9894123
0.99517614 1.0014999 0.98608136 0.9907797 1.0232897 0.99592257 1.0112141 1.014244
1.0003694 1.0439233 0.9964701 0.9905714 0.99234974 0.99926746 0.9880894 1.0144197
1.015533 1.0112027 0.9975514 1.0109105 1.0045002 1.0007185 1.0092064 1.008755
0.9847146 1.0716001 0.9987673 1.0155134 1.00588 0.9993318 1.0015289 1.008056
1.0117223 0.978709 1.0089821 0.9808501 0.9986924 0.99668294 0.9934639 1.033569
0.9868538 0.9759834 0.9864842 0.973798 1.0204986 1.0169777 0.9910052 0.99449927
0.9907289 1.0165492 1.0026722 0.9995219 1.0251849 0.98300755 1.0448664 0.98247236
0.9895149 0.99053174 1.011693 0.9921195 1.0229088 1.0149177 0.99265456 1.0029433
0.99650836 0.99481225 1.006129 1.0246685 1.026049 1.0015353 0.99203813 1.0382935
1.0606722 0.9912722 1.0116347 1.0356449 1.0130037 1.0295799 0.9990526 0.97890294
0.9971158 0.98611426 0.9849564 1.001955 1.0211922 1.0045495 0.98986125 0.98927635
0.9906564 1.008899 1.0078992 1.0323622 0.98796415 1.0080553 0.98827964 0.9989577
0.99839836 1.0060269 0.9939762 1.0105916 1.0120525 0.994378 1.0250767 1.0077528
1.0167063 0.9902 0.9853074 1.0317925 0.99426615 0.98968464 1.0059946 1.0133554
0.9881447 1.0418768 1.0038077 1.006676 1.0189098 0.9646457 1.0081589 0.9884756
0.9924507 1.0042484 1.0087976 1.0003734 0.9936374 0.99767965 0.9930226 1.0416473
1.0013027 1.014324 0.99837726 0.9953261 1.0495845 1.01336 1.0121493 1.0024532
1.0198458 1.0013131 0.9988247 1.0030619 1.0069219 1.0090932 0.98532456 1.0017377
0.98889714 0.98350644 0.99496067 0.98575085 1.007574 1.0057468 0.99695766 0.96751595
1.0264997 0.9805375 1.0083098 0.99100876 1.0000458 1.0215455 0.9933942 1.0048611
0.98020595 1.0046194 0.99678415 1.0150796 0.9869147 0.99344164 1.0101517 1.009253
1.0213411 0.998705 0.9923711 1.0123087 0.9860739 0.9870786 0.984559 1.0127803

ablang_branch.1.bias f4 [256]
00000000: 4b75 09bc 0861 91bc 0682 bd3a 9f5e fcba
00000010: cf7c b2bb e011 83bb e146 51bc 9fcd ebbb
00000020: bd4c f3bb 14fd d63a 82ff 89bc 1b21 9cbc
00000030: fad8 e1bc 56b5 15bb 845d 68ba 0f75 a3ba
00000040: 0cf2 1aba 3439 acbc 77bc 89bc fdd3 79bc
00000050: 6ff2 33bc ded4 76bc 84ec 9bbc 7cc5 2abc
00000060: 40e8 a5bc 4f7b 563b f79d 33bc de2d edbb
00000070: 8635 f7bb db2c 36bb 31b5 72bb 9932 88bc
00000080: 4c04 3eba 179d f9ba 1a7f 9cbc cb82 67bb
00000090: bd8b cebb ad5a 92bb 3c02 65bb 18c0 02bc
000000a0: 28db 25b9 baeb 2bbc 72ae b4bb 9230 a7bc
000000b0: a6e8 4abb da21 c4bb 3c76 4fbc d45a 91bc
000000c0: ca76 4d3b 1a61 39ba 30c6 9ebb 3122 ecbc
000000d0: f8dc d6bb 2fb3 1a3c 7393 03bc 4d6f a7bb
000000e0: f71e 2fbb 6810 f5ba e3c0 a937 04f2 83bc
000000f0: 13f6 183c 3ff8 8a3b a532 8abc 5e24 f6bb
00000100: 52b8 fcbb 9cb4 06bc f351 25bb 4cc4 85ba
00000110: c7eb ebbb 06e7 55bc 13cb 1bbc a564 4bbc
00000120: ed66 59bc 7c33 21bc 4cf3 cebb 1635 61bb
00000130: c093 d8bb 43e0 bd3b 11d3 5dbc 788a 36bc
00000140: 49e1 21bc 2cd6 80bc c4ae d2bb ddcb 05bb
00000150: 2efd 153c f410 3abc 1c28 bdbb ff09 ffb9
00000160: 9320 96bc 70cc 87bc c9bf 6abb f185 8fbb
00000170: 41e9 f6bb adb5 90bc 7dbf 353a 2472 37bc
00000180: b8da 533a d640 c43a 592a 4dbb 1afc 183b
00000190: b6fd c0bb 6163 25bc 4033 dabb dbb5 9bbb
000001a0: 39f0 12bc e2c6 ffbb 5be9 2fbc 490e 2ebb
000001b0: fe0a dabb d8dd 10bc 2869 3bbc b137 e3ba
000001c0: 70a9 8ebb 786f 97bc 0b17 94bb 3340 3bbc
000001d0: 0f99 62bc fe53 93bc 494e 5bbb 14d3 9c3b
000001e0: a15e 33bc 94f1 1abc cc1c 81bb 1227 a4bb
000001f0: 7905 02bc 1ccd 74bc 0896 cdbc 8e44 07bc
00000200: 321e 2eba 6901 46bb 3daf 5ebb ca41 13bc
00000210: 8b52 72bc 15e5 8bbc e269 00bc bd4f 9dbb
00000220: f213 3eba a0dd 05bc 4d0b 68bc 7c05 14bc
00000230: 5a55 5a3a 6098 0e3b 125b beba 6ed9 45bc
00000240: 068f 22bc 6b89 9fbc f8db 153b 7119 f9ba
00000250: 3c9f a9bc ef72 fdba c977 1fbc dc84 9b3b
00000260: 3fc0 ffbb 3940 4139 4d86 693b e4c2 5fbc
00000270: 905f 30bb ae78 84bb 8adf d83b 226e 8cbc
00000280: 1eaa 07bc cdc2 f2bb 457c 133b 5e6f 54bb
00000290: 8883 57bb 6317 97bc 6554 8abc cbb7 37ba
000002a0: 5622 1dbc a276 d9bb 9e07 c6ba 8d68 183c
000002b0: 6673 6bbb 653a 8cbb cca7 a0bc a4cc 91ba
000002c0: 4496 26bc 6f2e d8bb 36ae 9a3b 6e0b 4cbb
000002d0: 54dd a0bb 9ba2 76bc ae6f 09bb 0e2a 46bc
000002e0: 2abf 9eba f3cf 3dba dc3e b9bb 2515 aabc
000002f0: b2c6 81bb caad c0bb 6cfa f2bb 896e d4bb
00000300: d867 123b 61dd 1c3a dc24 10bd 2e1c ee39
00000310: c503 04bd cadd 36bc cacd d43b 20e5 03bc
00000320: d6c2 93bc b219 11bc e76e 0bbc 082d 62b8
00000330: 0a31 2dbc e628 073b 8279 6dbc 91e0 f73b
00000340: 7184 8dbc 3b41 073c 67dd 44bc 88e2 d23a
00000350: a03c 0fbc bd3c 4c3b cbef f6bb 702f aabb
00000360: 83fc 123c c2d0 37bb 393d 19bb 1aa8 9a38
00000370: eaf5 9bbb 13e3 d7bb 8b3a 99bc 78f8 96bc
00000380: 80be b9bb 6b84 6fbb 569c b6bb 3892 2ebc
00000390: 20c5 13bc 776b 243b f01d 7bbc f2bd 15bc
000003a0: 9309 0ebc 2bb4 49bc 0410 e7bb 4908 a0bc
000003b0: 91fd f3ba b6e7 f9bc 3a70 53bb 1a3a a7bc
000003c0: e4a3 88bc e4e2 a3ba 3c5c d4bb 41b3 d7bc
000003d0: 94e1 9ab9 8c85 933a 6465 d8bc 6dc9 b6ba
000003e0: e45b e1bb f1b2 8fbb b3fa 9cbb 1e5d 1bbc
000003f0: 7f3e 48bc 2cf2 d8bb fbf1 02bc befd 893b
-0.008389781 -0.017746463 0.0014458306 -0.0019254274 -0.0054470073 -0.0039999336 -0.0127732465 -0.007196143
-0.0074249194 0.0016402327 -0.016845468 -0.019058755 -0.027569283 -0.002284368 -0.00088640326 -0.0012470799
-0.00059107016 -0.02102337 -0.0168135 -0.015248296 -0.010983094 -0.0150654 -0.019033678 -0.0104230605
-0.020252347 0.0032727306 -0.010962955 -0.007238134 -0.0075442223 -0.0027797732 -0.0037034268 -0.01662569
-0.0007248565 -0.0019044009 -0.019103575 -0.0035325761 -0.006303279 -0.004466376 -0.0034943959 -0.007980369
-0.00015817268 -0.010493213 -0.0055139596 -0.020408902 -0.0030961423 -0.0059854807 -0.012662467 -0.017743506
0.0031351321 -0.0007071659 -0.004845403 -0.028824897 -0.0065571032 0.009442135 -0.00803076 -0.0051097036
-0.0026721337 -0.0018696906 2.023619e-05 -0.016106613 0.009336012 0.004241019 -0.016869852 -0.0075116595
-0.0077124024 -0.008221772 -0.0025225847 -0.0010205596 -0.0071997377 -0.013055569 -0.009508866 -0.012414132
-0.013269168 -0.009838935 -0.0063156243 -0.0034363917 -0.00660941 0.0057945563 -0.013539092 -0.011141412
-0.009880372 -0.015727125 -0.006429525 -0.0020415701 0.009154601 -0.011356581 -0.0057726037 -0.00048644838
-0.01832608 -0.016576976 -0.003581988 -0.0043799807 -0.0075351303 -0.017664755 0.0006933136 -0.011196647
0.0008081603 0.0014972936 -0.0031305759 0.0023343624 -0.0058896197 -0.010094495 -0.0066589415 -0.0047519035
-0.008968406 -0.007805691 -0.010736789 -0.0026558808 -0.0066541424 -0.008841954 -0.011438645 -0.0017335323
-0.0043536946 -0.01848577 -0.0045193485 -0.0114288805 -0.013830437 -0.017984387 -0.003346341 0.0047859047
-0.010947854 -0.009457011 -0.0039402004 -0.0050095404 -0.007935875 -0.01494148 -0.025095955 -0.008256091
-0.00066420727 -0.0030213243 -0.0033978962 -0.008987853 -0.014790188 -0.017077008 -0.007837744 -0.0048007653
-0.0007250897 -0.008170515 -0.014162851 -0.009034511 0.00083287584 0.0021758303 -0.0014522991 -0.012075765
-0.009921795 -0.019474706 0.0022866707 -0.0019004775 -0.020705812 -0.0019336621 -0.009733149 0.0047460627
-0.0078049 0.00018429839 0.0035633028 -0.013657305 -0.0026912428 -0.0040427065 0.006618445 -0.01714236
-0.008280305 -0.007408476 0.002250449 -0.0032415013 -0.0032884795 -0.018443769 -0.016885946 -0.0007008283
-0.009590706 -0.0066364566 -0.0015108471 0.009302271 -0.0035926937 -0.004279422 -0.019611262 -0.001112361
-0.010167662 -0.006597332 0.0047204746 -0.0031134742 -0.004909197 -0.015053417 -0.0020971107 -0.012094988
-0.0012111415 -0.00072407647 -0.0056532454 -0.020762036 -0.003960454 -0.0058800923 -0.0074151065 -0.0064829034
0.0022339728 0.0005983916 -0.0351914 0.00045415893 -0.032230157 -0.011161277 0.0064942585 -0.008050233
-0.018037241 -0.008856224 -0.008510328 -5.3924537e-05 -0.010570774 0.0020623743 -0.014494302 0.007564612
-0.017275067 0.008255298 -0.012015677 0.001608924 -0.0087424815 0.0031164133 -0.00753591 -0.0051936433
0.008971336 -0.0028048013 -0.0023382439 7.3746036e-05 -0.00475954 -0.0065883487 -0.018704673 -0.018429026
-0.0056684613 -0.0036547433 -0.005572836 -0.010654978 -0.009019166 0.0025088468 -0.015326962 -0.009139525
-0.008669275 -0.012311022 -0.0070514698 -0.0195352 -0.0018614997 -0.030505996 -0.0032262937 -0.020413447
-0.016679712 -0.0012503532 -0.0064807218 -0.026330592 -0.00029541238 0.001125501 -0.026415534 -0.0013945528
-0.0068774093 -0.004385345 -0.004790628 -0.00948265 -0.0122219315 -0.006620666 -0.007992263 0.0042111566

ablang_branch.4.weight f4 [128, 256]
00000000: 5088 543e cabb 1d3d 1be0 993d 007b b4bd
00000010: 7c1c 8ebd d342 053d f074 8ebd b821 233e
00000020: df7a 0f3e f40b 3c3e 1d5a 34bb e078 343e
00000030: 3585 e13c 6df4 0f3e c8f0 37bb 5987 863c
00000040: f73f a1bd 6466 df3d fd50 573d 5761 bcbd
00000050: 3a19 d4bd b9e3 8bbd ce7e 8f3d 7fd4 19be
00000060: e6b3 61bd 5762 3cbe 1178 1e3e 6eca 01bd
00000070: c65c adbd 8b7b cc3c fa35 80bc 5903 5fbc
00000080: 3573 b8bd 3bed fe3c 3606 ab3d 9088 ee3c
00000090: fc78 a4bd 2c3e 8d3d 6197 5dbd 6b7b 383d
000000a0: 8c30 d0bc dc73 abbc 9d36 4e3d eac1 333d
000000b0: 9287 67bd 83f5 43bb 3e9b 243e ba20 1cbe
000000c0: 3e98 3ebe d45a 443e aab1 b8bd f2d4 65bb
000000d0: ba68 55bd 442d 6bbd fb8e 31bd 5b8b 38be
000000e0: 140a c9bc e32d fd3d 741e 2c3d 61d2 6abd
000000f0: 9a71 1ebe 1868 0cbd d7ea 11bc 5a06 c6bd
00000100: fc79 63bb 8a39 af3c 4b34 d4bd bded 1e3d
00000110: 887e 983d 386b 5f3d 0110 2abc a0d8 153c
00000120: dfbe bfbc 1cf3 e5bc c089 b5bd 99ca aa3d
00000130: 5f40 7e3d 9a25 50bd 9db7 38be ca75 d2bc
00000140: e5c5 64bd a353 bd3d d501 00bc d414 5dbc
00000150: 6f51 8b3d 47c0 9bbd 63e0 403e 6434 84bd
00000160: 90db 5a3d f735 973d b3fd a53d 8426 bbbd
00000170: c782 bdbd 4c9b 143e 4656 ddbd 611e 443c
00000180: 1d14 fa3b 5e0f ab3d d67f 2c3d 9d1a f83d
00000190: 8345 7bbd f673 1bbd 5d47 893d 3369 f13c
000001a0: 55d7 e8bd fe05 2b3d d473 7d3c e279 38bd
000001b0: e4ff 833d a977 b73d 913f 01be a3ac 2dbd
000001c0: 73e6 f73d dec3 b7bd de13 07bd 5a9b 843c
000001d0: 2f50 fc3d 872e eb3d 7af8 6ebd 37aa 2f3d
000001e0: 1229 fcbc 14c9 d73b 5818 04bd 8df7 36bd
000001f0: 8e40 0ebd f997 463c 2400 2cbd 1e9e bdbd
00000200: 9a2f 483d 3b5c ef3d 49e8 323c c097 4b3d
00000210: 081a 77bd de52 aabd b54c f63c ad92 e43c
00000220: 76e9 e7bd 02c3 1d3e f441 1bbb 306b 1c3d
00000230: 195a 933c 9b83 ce3d ec63 fabd 6107 acbd
00000240: 86ff 4b3a 7e46 993d 030e b5bd a653 70be
00000250: c25f 25bd f387 e7bd dfae 9fbc a8a4 08be
00000260: a8e2 11bd f730 5abd e9aa 12be 890c e2bd
00000270: 884e 413d 15af cebd 7ed2 e03b f5a0 073c
00000280: d38a a43d 617c 42be a1bd 093e e8b1 5dbd
00000290: eeea 8dbd d8a7 1dbc 04a7 73bd 59e2 7ebc
000002a0: 8bc1 243e aa0c 2bbc c76d a2bd 3364 cf3d
000002b0: 7b67 9e3d 2781 b93c b968 24be 9c25 08be
000002c0: a298 e7bd 10d5 f9bc cb2a edbc 66e1 3c3d
000002d0: ee3b 843d 9e56 68bd f92a 00bc b6b6 ccbd
000002e0: cf1e 023d 22d6 b8bd 3b18 76bc a1e9 b3bd
000002f0: f49e 85bd 7ade b23d 5f64 18bd 2b14 bfbc
00000300: 870f 233c 9f9a 3d3d e933 98bc 05fe 503c
00000310: 198a 803d 641b ca3b e7b9 e5bc 8820 6b3d
00000320: 9c6e bebd d09c cb3c 1fc6 873c fcc0 72bd
00000330: 978c a7bd b5ec a3bc afec 213c 7539 66bd
00000340: 62e8 003e 06be ab3d b88e a1bc b5b3 39bc
00000350: a85a ccbd 8107 b2bc 5973 abbd 4621 123d
00000360: d3b0 6dbd e002 99b9 5877 23be c52e c53c
00000370: 07e2 353d 0bb7 9fbd 7446 d4bb 429e ab3d
00000380: f6c7 0d3e fd1f cbbc efae cb3d ca4e 9abd
00000390: 84f4 4f3d 081d 28bd ccd2 88bd 0927 c73d
000003a0: 1530 b0bc 2acd 26be 8f7a a93d ba20 f4bc
000003b0: 4d29 22be a6d1 4dbd 88d0 4f3e c458 213d
000003c0: 0237 143e 5d49 e8bc 5ffb f3bd 6bbf e3bc
000003d0: 95be fa3b a987 8fbd 1c01 cf3d e5bb 99bc
000003e0: 1bbe ad3d fbbe 423d 9a0c 0dbe c58e 7cbd
000003f0: db91 3a3d 2f33 c73d a5b4 fb3c 8fec 19bd
0.20755124 0.038509168 0.07513448 -0.08812523 -0.06939027 0.03253443 -0.06955898 0.15930831
0.14011715 0.18363935 -0.0027519532 0.17624235 0.027529338 0.14058085 -0.00280671 0.01642196
-0.078735285 0.10908201 0.05256747 -0.091982536 -0.10356374 -0.06830544 0.07006608 -0.15022467
-0.055103205 -0.18396889 0.15475489 -0.031687193 -0.08464961 0.024961254 -0.015650738 -0.013611638
-0.09006349 0.03111898 0.08350794 0.029117852 -0.080308884 0.06896624 -0.054099444 0.045039576
-0.025413774 -0.02092927 0.050345052 0.043886103 -0.056525774 -0.0029900975 0.16074845 -0.15246859
-0.18612763 0.19175273 -0.09018262 -0.0035069552 -0.05210183 -0.057416216 -0.043349247 -0.1802191
-0.024540938 0.12362268 0.04202123 -0.05732954 -0.15473023 -0.03427896 -0.008906088 -0.0966918
-0.003471016 0.021389741 -0.103615366 0.038800944 0.07446009 0.05454561 -0.010379792 0.009145886
-0.023406444 -0.028070025 -0.08864164 0.08339424 0.062073108 -0.05081711 -0.18038793 -0.025690932
-0.05585279 0.09244468 -0.007812937 -0.013493735 0.068026416 -0.07605033 0.18835597 -0.06455305
0.053432047 0.0738334 0.0810503 -0.09138206 -0.092534594 0.14512366 -0.10807471 0.0119701335
0.007631792 0.083525404 0.0421141 0.12114451 -0.06134559 -0.037952386 0.067030646 0.029469108
-0.11369196 0.04175376 0.01546951 -0.04503811 0.06445292 0.0895837 -0.12621905 -0.042400967
0.121045016 -0.089729056 -0.03297793 0.016187359 0.12319981 0.11483484 -0.058342434 0.04288694
-0.030781303 0.0065852497 -0.03224978 -0.044669677 -0.034729533 0.012121194 -0.04199232 -0.09258674
0.04887352 0.116875134 0.010919639 0.049705267 -0.06032756 -0.08316587 0.030065874 0.027901972
-0.11323826 0.15406421 -0.0023690434 0.03818816 0.017987298 0.100836955 -0.1222609 -0.08399845
0.00077819114 0.074841484 -0.08840563 -0.2346941 -0.040374525 -0.11305227 -0.019492565 -0.13344061
-0.035616547 -0.053269353 -0.1432301 -0.11037547 0.047194034 -0.10091988 0.00686103 0.008278121
0.08034291 -0.1899276 0.13451244 -0.054124743 -0.06929575 -0.009622537 -0.05948545 -0.015556895
0.16089456 -0.010440031 -0.079310946 0.10126533 0.07734581 0.022644592 -0.16055574 -0.13295597
-0.11308409 -0.030497104 -0.02895107 0.046113394 0.06456743 -0.05672323 -0.0078227455 -0.09995787
0.031767663 -0.090252176 -0.015020425 -0.087847956 -0.065244585 0.0873384 -0.037205096 -0.023325047
0.0099524325 0.046290036 -0.01857944 0.0127558755 0.0627634 0.006167816 -0.028042747 0.05740407
-0.09298441 0.024855047 0.016573964 -0.059266075 -0.08181112 -0.020010332 0.00988309 -0.05620714
0.12588647 0.083858535 -0.019721374 -0.011334349 -0.09978229 -0.021732094 -0.0837161 0.035676263
-0.05802996 -0.00029184576 -0.15963495 0.024070153 0.04440501 -0.077985846 -0.006478125 0.08379795
0.1384581 -0.024795527 0.09945475 -0.07534559 0.050770298 -0.04104331 -0.06680831 0.09724242
-0.021507302 -0.16289201 0.08275329 -0.029800761 -0.15836067 -0.050248764 0.20294392 0.039391294
0.14474109 -0.028355295 -0.119131796 -0.027801236 0.0076521137 -0.07008297 0.101076335 -0.018766353
0.08483525 0.047545414 -0.13774338 -0.061659593 0.045549255 0.09726559 0.030725786 -0.037579115

ablang_branch.4.bias f4 [128]
00000000: 725f 8ebc 455c c83b 620c 2d3b b655 1b3c
00000010: d23c 573b 389f 85bc 60bb 583c ceb1 9dbc
00000020: acf3 edbb d433 423c cafd b2bb 5d43 febc
00000030: 1f0c b8bc e1d5 163d 7775 a43b 7e0b 6fbc
00000040: c923 943b 163e 013c 376a 72bd 6775 523c
00000050: f559 c1bc 9fe3 e8bb f421 85bb 7a31 d9bc
00000060: f1eb f1bc 7bd8 f3bc 5726 a9bc 4bc6 efbc
00000070: 4308 50bb 4135 393c f617 7bbc 4f44 adbc
00000080: 869f f53c 9848 d93b 23e6 33bc 9eb5 c0bc
00000090: 97e2 67bb e5e6 40bc 126d 67bc 0c3c f83b
000000a0: efa5 4bbc 4095 eebc 1336 cdba 64df bd3a
000000b0: 5e73 7d3b cc97 08bc eabd 333c 4a73 d43b
000000c0: 8235 903b 3dd5 02bc 5b3b 7d3c d00d 293c
000000d0: 13c4 843c b27e ea3c 9dc4 da3b b0b9 db3c
000000e0: 35c8 bdbc e0a5 efbb 78b0 0fbd b060 81bc
000000f0: db0b f73b 01d7 0d3b 4f97 a1bc 3657 e6bc
00000100: 446e a9bc b08d 733c a253 673c fb40 2c3c
00000110: b50d af3b 1917 903c 3444 09bb 1e19 08bb
00000120: 5496 89bc 5147 643b 96f4 b8ba bdb2 283c
00000130: e707 88bb 2a61 97bb 2dd4 d8bc bfbc 56bc
00000140: d0f0 a7bb 32de 8ebc 3a59 79bc 0102 923b
00000150: 052e 893c 8b3b 15bc 2008 e9bc 9800 a33b
00000160: 9284 2c3c 8c9d 0cbc de13 15bb a97f 053c
00000170: 0e4c c83b d220 90bb 8713 31bc 6290 b03c
00000180: 405c 2dbc e11a bfbc 08bd b9bc 1a3c 86bc
00000190: 88ae a5bc 3179 cf3b 6f75 1f3c 5b12 0ebc
000001a0: 700e bdbc d7be ccbc 45c7 17bd 3a1d 94bc
000001b0: 2c0d d3bc f6ad 4bbc 1393 9d3c 0ea5 463c
000001c0: b020 a63a 7d9e c73b 28e7 0b3d ee2a 89bc
000001d0: 94ae 133d f9cb 843b f8cd ddba d461 75bb
000001e0: 2a69 793c b953 64bc 5627 0b3d d78e 573c
000001f0: 9904 a4bc 74f7 193b 2acf 27bc 7a00 dbbb
-0.017379496 0.006114515 0.0026405086 0.009480884 0.0032842648 -0.016311273 0.013228267 -0.019249823
-0.007261714 0.011853177 -0.005462383 -0.03103798 -0.022466717 0.036825065 0.0050188857 -0.014590142
0.0045208675 0.007888338 -0.059183326 0.012845374 -0.023602465 -0.0071072127 -0.0040628854 -0.02651285
-0.029531451 -0.029766312 -0.020648165 -0.029269358 -0.0031743206 0.011304201 -0.015325537 -0.021150736
0.029983293 0.0066309683 -0.010980162 -0.023524102 -0.003538286 -0.0117738 -0.0141251255 0.0075755175
-0.012429698 -0.029123902 -0.0015656374 0.0014486131 0.00386735 -0.008336972 0.010970572 0.00648347
0.00440091 -0.00798541 0.015456046 0.010318235 0.016206777 0.028624866 0.00667627 0.026821941
-0.023166755 -0.007313475 -0.035080403 -0.015793175 0.007539255 0.0021643045 -0.01972547 -0.028117757
-0.020682462 0.014865324 0.014119061 0.010513539 0.00534221 0.017589139 -0.0020945193 -0.0020766924
-0.016795315 0.0034832547 -0.0014110978 0.010296521 -0.0041513327 -0.004619737 -0.02646836 -0.013106524
-0.0051251426 -0.017439935 -0.015219027 0.0044558053 0.016745577 -0.009108434 -0.028446257 0.004974436
0.010529654 -0.008582484 -0.0022747437 0.008148112 0.006112582 -0.0043984437 -0.010807878 0.021553222
-0.010581076 -0.023328247 -0.022673145 -0.01638608 -0.020224825 0.006331586 0.009732588 -0.0086713685
-0.023078173 -0.024993343 -0.037055273 -0.018080343 -0.025763117 -0.012431612 0.01923517 0.012124313
0.0012674537 0.0060918913 0.034155995 -0.016744103 0.036055163 0.0040526357 -0.0016922345 -0.0037442343
0.015222827 -0.013935977 0.03397306 0.013156614 -0.020021724 0.002349344 -0.010242263 -0.0066834064

ablang_branch.5.weight f4 [128]
00000000: 1f7b 7b3f a6ba 813f dcee 7e3f 4b9e 803f
00000010: 2771 7c3f c515 783f c765 7c3f a59c 7d3f
00000020: 8075 793f 8230 7c3f d28a 7b3f 0c7c 7a3f
00000030: b78b 7b3f 2bf9 843f f70f 7c3f 9b68 7d3f
00000040: 66c5 773f 8372 7e3f bfb6 7e3f 0058 7d3f
00000050: e92d 803f d23c 7e3f cd60 793f 5b57 803f
00000060: 4e56 823f 6430 7c3f f5b6 803f dfab 7a3f
00000070: 0248 7d3f fb97 803f d9c2 7f3f b9a9 7f3f
00000080: 5beb 823f 7706 813f 335b 793f 2957 753f
00000090: 8974 793f 9b08 7b3f e953 7d3f 6b5b 7f3f
000000a0: aeca 7a3f 5ad5 793f d3a4 7c3f 78d3 7e3f
000000b0: 64a2 813f ab06 7c3f aba9 7e3f 5d5b 803f
000000c0: 33e2 7e3f 3014 7e3f a142 7f3f 9669 7e3f
000000d0: 4d42 803f b3a5 813f 28cc 803f 0258 813f
000000e0: 7638 793f 9b60 7b3f 04fc 823f 3bf4 783f
000000f0: 56a7 7a3f d2ca 7d3f cd13 7c3f a00c 783f
00000100: 5f6b 783f ac4b 823f 96fc 813f 26a0 7d3f
00000110: 34f3 7e3f def6 813f 71ca 793f 8930 7f3f
00000120: c196 7a3f 9dd3 7d3f 2e1f 7d3f f648 813f
00000130: 11b5 7b3f 4057 7b3f e029 793f b6cf 7d3f
00000140: b396 7c3f 7b42 783f acef 783f 747b 7f3f
00000150: 7b04 823f 4fad 7d3f f948 7b3f adc8 7f3f
00000160: 42c7 813f 50ac 783f 51c6 7d3f fb64 803f
00000170: 599f 7e3f 5866 803f e7d6 7a3f 64ca 803f
00000180: 7286 7d3f 1a14 7e3f 015b 803f 1e8a 7a3f
00000190: 87dc 813f 92df 7f3f e76e 803f 03a6 763f
000001a0: ca8e 7f3f a75b 823f 1a81 7a3f 14b1 793f
000001b0: 723e 793f 3536 7d3f 1a47 823f 92e9 7f3f
000001c0: 3453 7b3f c65a 7d3f 7340 833f 25ff 803f
000001d0: 3e69 843f 9a2d 803f 0987 793f 9896 7f3f
000001e0: aebf 803f 19de 7b3f c839 843f a4de 803f
000001f0: db35 7a3f 2e68 7e3f cf40 7d3f 53d5 7b3f
0.9823474 1.0135086 0.9958322 1.0048307 0.98610157 0.9690822 0.985928 0.99067146
0.97444916 0.9851152 0.982587 0.9784553 0.9826006 1.038854 0.9846186 0.9898774
0.9678558 0.9939348 0.994976 0.989624 1.0014011 0.99311554 0.9741333 1.0026659
1.0182588 0.9851134 1.0055834 0.97918504 0.98938 1.0046381 0.9990669 0.9986835
1.0228075 1.0080098 0.97404784 0.9583612 0.97443444 0.98060006 0.9895616 0.9974887
0.97965515 0.97591174 0.98689 0.99541426 1.0127683 0.98447675 0.9947764 1.0027882
0.995639 0.99249554 0.9971104 0.9937986 1.0020233 1.0128692 1.0062304 1.0104983
0.9735178 0.98194283 1.0233159 0.97247666 0.97911584 0.99137604 0.98467714 0.96894264
0.97038835 1.0179343 1.0155208 0.9907249 0.9958985 1.0153463 0.97574526 0.99683434
0.9788628 0.9915102 0.988757 1.0100391 0.9832316 0.9818001 0.9732952 0.99145067
0.9866745 0.9697644 0.9724071 0.9979775 1.0157617 0.9909257 0.9815822 0.9991558
1.0138934 0.9713793 0.9913073 1.0030817 0.99461895 1.0031233 0.97984165 1.0061765
0.9903327 0.9924942 1.0027772 0.97867 1.0145425 0.99950516 1.0033845 0.96347064
0.99827254 1.018422 0.97853243 0.97535825 0.9736091 0.9891084 1.0177948 0.99965775
0.9817383 0.98966634 1.0254043 1.0077864 1.0344617 1.0013916 0.9747167 0.9983916
1.0058496 0.9838577 1.0330133 1.0067945 0.97738427 0.99377716 0.98927015 0.9837238

ablang_branch.5.bias f4 [128]
00000000: 6327 5dbc 5037 023c 27f7 c83b 71f4 f73b
00000010: dd3a 963b 9a35 8cbc a213 713c 7d60 02bc
00000020: f14c 8abb 65cf 4c3c 1d16 47bb 56b9 f6bc
00000030: 689a 9dbc 4730 093d a6ed be3b 6fef 04bc
00000040: 48e5 ff3b 1d97 a83b 19f4 4fbd 2826 5a3c
00000050: e7b7 a8bc 1ed9 96ba edfe 6c3a e9e4 4cbc
00000060: a223 b2bc 97e6 c6bc c7a7 8cbc 26b0 e1bc
00000070: 8b25 1fbb 690d 2b3c 54a8 0fbc 6f8f 7dbc
00000080: 35de 053d a16a e33b 9873 cbbb 81b8 85bc
00000090: 9e61 17bb e3cd dbbb aa0b 38bc d1de 083c
000000a0: 521c f3bb 42b6 bcbc 35cb 8a39 705d 4c3b
000000b0: da22 0f3c 426b cbbb 9bdb 193c 3f87 173c
000000c0: 9e4f 863b 6566 3ebb abf4 313c 7d97 2f3c
000000d0: 9a43 7f3c 481f f43c 73bd cc3b 8c3f d43c
000000e0: f257 a3bc f6df 91bb 7ed4 d6bc dd22 52bc
000000f0: 6c80 333c 6b17 d93a 0c37 86bc c48c babc
00000100: 5862 47bc 3dd1 433c 6e21 653c da1a 3c3c
00000110: ff9b 913b 9460 8e3c 50ee b33b 16c3 9cba
00000120: bbdf 73bc cc97 8d38 7b94 3d3b debc 383c
00000130: ce1b 75bb 95bb ddbb 47a1 b4bc 51fe 38bc
00000140: 94a4 b33a e6e6 83bc de18 dbbb 43fc a33b
00000150: c3dc 863c c20e e6bb 7ce5 c2bc 2697 0c3c
00000160: d567 483c 4b76 f6bb 5705 6e37 ab86 b43b
00000170: 2258 bf3b c9e1 b73a 9609 31bc 5723 9c3c
00000180: 1022 fbbb efff 8fbc ca43 15bc af00 67bc
00000190: 4b53 73bc 2e80 1a3c a784 233c f7b0 63bb
000001a0: a22b 8cbc 6f90 89bc 2231 e4bc 0f3b 0dbc
000001b0: 8a62 bcbc c3f0 62bb fc5f 943c c5f2 0e3c
000001c0: c23e 163b f190 e53b cc1f 073d cda7 22bc
000001d0: 91e5 ff3c b5cf af3b 29c0 c9b9 4289 f9ba
000001e0: c038 913c 227d 13bc c8be 0e3d 9d46 293c
000001f0: 5c56 97bc a1e1 3f3b 4304 27bc c409 c0bb
-0.01349816 0.007947758 0.0061329785 0.0075669815 0.004584654 -0.017115403 0.0147141535 -0.007957575
-0.004220598 0.012500619 -0.003037817 -0.030117672 -0.019238666 0.033493306 0.0058266697 -0.008113726
0.007809315 0.005144967 -0.0507699 0.013314761 -0.020595504 -0.0011508798 0.00090406724 -0.012505748
-0.021745507 -0.024279876 -0.017169846 -0.027549814 -0.0024283852 0.010440209 -0.00876816 -0.015476092
0.032682616 0.0069402014 -0.006208848 -0.01632333 -0.0023098956 -0.006707893 -0.01123325 0.008353905
-0.0074191475 -0.023036126 0.00026472812 0.0031183623 0.008736337 -0.0062078545 0.009390737 0.009248554
0.0040988466 -0.002905273 0.010861556 0.01071727 0.015580082 0.029800072 0.00624817 0.025909208
-0.019939397 -0.004451747 -0.026224371 -0.012825695 0.010955911 0.0016562765 -0.01638367 -0.0227722
-0.012169443 0.011951742 0.013985021 0.011481011 0.004443645 0.017380036 0.0054910555 -0.0011959996
-0.0148848845 6.751678e-05 0.0028927613 0.011275498 -0.0037400606 -0.0067667463 -0.02204956 -0.0112911025
0.0013705664 -0.016101312 -0.006686314 0.005004437 0.01646269 -0.0070208022 -0.023791067 0.0085809585
0.012231787 -0.007521426 1.4187149e-05 0.0055092177 0.0058393637 0.0014029081 -0.010805508 0.01905982
-0.0076639727 -0.017578093 -0.0091104 -0.014099284 -0.014851402 0.0094299745 0.009980357 -0.003474293
-0.01711065 -0.016792504 -0.02785546 -0.008620038 -0.022996206 -0.0034628368 0.018112175 0.008724873
0.002292559 0.0070058038 0.03298931 -0.009927702 0.031237395 0.005365337 -0.00038480878 -0.0019038098
0.017727256 -0.009002002 0.034849912 0.010331777 -0.018473797 0.0029278772 -0.010193887 -0.005860539

ablang_branch.8.weight f4 [64, 128]
00000000: 426b fd3d 77dc eb3b ef07 313d 5185 133d
00000010: a781 e53d eae0 ca3c 1cb4 14bd 6e7b 50be
00000020: 6cda 493d b0b3 9b3e b0ea 9fbd 022a 953e
00000030: a9d5 5ebd 8575 35be 676a faba 0c49 3f3d
00000040: 363e 2ebe 837f b43e 0f19 393d 5ab5 0e3e
00000050: dac0 89bd ecac b23d 178f 7dbc ce35 2e3e
00000060: e156 733d 96c0 ff3b efa8 b83c 8ec5 523c
00000070: 3209 1bbd f557 91bc ddd9 3dbd f7a1 873e
00000080: 77b0 10be c017 53bd 672f b43d aa87 683b
00000090: 8de9 ee3d 9d4a 853d c9fa d2bd be69 09bd
000000a0: 8eb5 1cbd 29c6 d43d 4121 01bc d147 30be
000000b0: 3913 6bbd 9d1e 5e3e 52e5 2cbe 32ba 143e
000000c0: f847 d7bd d6f0 83bd 70b6 993d bdda 4c3e
000000d0: 1c53 883d 46f7 1e3d c2f7 143e e53a 20be
000000e0: f714 67bd 97b2 c53c 99be fc3d 383f 1fbe
000000f0: d93f 243c 4b0b 09be 2aa1 e6bd 83d2 bdb9
00000100: 9ea1 873d 227f 513d 5769 6d3e b0e5 58bd
00000110: 723d 273e cbd5 bcbc 0694 62bd e6b7 3b3a
00000120: 331f a7be 9781 233d 2421 93bb c24d d23d
00000130: dc37 e13d 6c8e e63d a202 25bd 884d 9bbe
00000140: 9e09 b4bd 19a4 d0bd c5dd d0bd 16ae 203e
00000150: c88e 8dbc 1846 9fbd 08e0 cb3d c6e5 8ebd
00000160: 93e6 903d 7602 843d 7ebe b9bb 3abc 39bd
00000170: 187c c9bd f21f 3b3e 8b50 513e 130a 0fbe
00000180: 57df 5bbc 4dec 1f3d 1269 03be 2c67 17be
00000190: e366 c9bd 7e2f fcbd b861 71bd 66f0 463b
000001a0: 0f37 d4bc 08ac 1d3e 740d 65bd 54d0 a6bd
000001b0: fea9 3abd 56c2 54bd a5ba 413d f401 05be
000001c0: 0c2c 11bd 0cbe ae3c d1da 583e a4c3 18be
000001d0: f79f cf3d 2e11 933c 6de9 2f3d e4d3 25be
000001e0: b8f0 90bd 2ba4 9c3d 359e 36bd cc9f 453e
000001f0: 516c b8bc ba8f 34bd 3e8f 89bd 8a3a 90be
00000200: 511c e73c 2ba5 f33c dcf5 d1bb c8dc 22be
00000210: 5a4c 903d c9ef cd3d b6a0 72bd 142b 8b3c
00000220: 9e59 c63c 2867 593d 1e2e 32bd 2eaa 1ebe
00000230: ebb1 953a 2fa2 64be 8104 043e ca05 4ebe
00000240: 000b 45be b46e 5bbd d03e 57bd 843e abbc
00000250: df4f 853d bfc6 253e e645 27b8 f42c 14be
00000260: 7aef 503e b1b7 113e 339d d3bc 3ec8 61bd
00000270: 41e3 ae3d d24d 32be 0ed2 043e d1bd 17bc
00000280: 3aed 1ebc 8701 df3d d538 5d3d 6222 8fbc
00000290: b40a 3abe ce39 213d 661d a1bd 9187 f43c
000002a0: 5e24 99bc 6bf2 463d 0062 78bc a379 bb3c
000002b0: d272 1dbe 5f9a 92bd 38ad aa3d daa8 c33d
000002c0: 6bc3 f43d c0f7 ddbd 61bf 32be ad11 99bd
000002d0: d74f 5e3d e2c3 f8bd c79b 05be 2c03 f73d
000002e0: 7fc2 09bc ffa4 e5bc 901f 813e 7c34 6ebd
000002f0: 4f26 643e 41e3 79be 1062 023e c72a 043c
00000300: 4c7b 2dbe a2de 2b3d b32d 6bbd d2e2 243d
00000310: 4ea7 1c3d fb9b 8cbe ef8c 79be be1a f73c
00000320: 8798 3e3d b136 96be dcaf 943b 7a21 51be
00000330: e70d 10be 689c 373e 2ccf aebd 2d7d 693d
00000340: de02 1b3c 4353 503e 4b78 f23d f807 c0bd
00000350: ffe8 7f3c b3e0 dcbd c770 393e 87e8 cb3d
00000360: 040b 1ebe c7e7 94bd 2bdb b5be c01a 02be
00000370: a421 babd f395 103e c607 003f 5ddd ec3c
00000380: 5de9 4fbe 294b 293e e7ff 233e fb26 9f3c
00000390: 597e 7a3d 5b93 703e 98d4 173d 54de 1f3e
000003a0: 0c89 87bd be5b f33c 4b80 383c b810 723d
000003b0: cbee 0ebe 7c2d 18be 6656 4bbe 5714 413c
000003c0: 04b7 00be 7185 b4bc 6b25 08be 72b4 823d
000003d0: 4df2 9c3d d782 8bbc 99ae 49be 3596 f2bc
000003e0: 6d46 b1be 632a 91be 84f8 34be e62d 24bd
000003f0: 83ea de3d 2fb7 98bb 0e01 703d fae6 ab3d
0.123739734 0.0071979123 0.043220457 0.036015812 0.1120637 0.02476545 -0.03630458 -0.20359585
0.04928057 0.30410528 -0.07808435 0.29133612 -0.05440298 -0.17720611 -0.0019105197 0.046700522
-0.17015919 0.35253534 0.045189913 0.13936368 -0.06726237 0.087243885 -0.01547601 0.17012712
0.059409026 0.0078049405 0.022541491 0.0128644835 -0.037850566 -0.017742136 -0.04635035 0.26490757
-0.14129816 -0.05153632 0.08798104 0.0035481253 0.1166564 0.06508372 -0.1030174 -0.03354811
-0.03825908 0.103893586 -0.0078814635 -0.17214896 -0.05739138 0.21691366 -0.16884354 0.14524153
-0.10511774 -0.0644242 0.075055 0.20005317 0.06656477 0.038810037 0.14547637 -0.15647466
-0.056416478 0.02413301 0.12341041 -0.1555146 0.010024988 -0.13383214 -0.11261208 -0.00036205733
0.06622623 0.051146634 0.23184715 -0.052953422 0.16332033 -0.023051163 -0.055316947 0.0007160887
-0.3264099 0.03991851 -0.0044900347 0.102687374 0.109969825 0.112576336 -0.040285714 -0.3033259
-0.08790897 -0.10187549 -0.10198549 0.15691409 -0.017279997 -0.07777041 0.0995484 -0.069774196
0.070752285 0.06445782 -0.0056684604 -0.045345522 -0.09838122 0.18273905 0.20440881 -0.13968687
-0.013419948 0.039043713 -0.1283305 -0.1478545 -0.09834077 -0.12313746 -0.058931082 0.003035569
-0.02590516 0.15397656 -0.055921033 -0.08145204 -0.045572273 -0.051943146 0.04729714 -0.12989026
-0.035442397 0.021330856 0.21177222 -0.14918381 0.10137933 0.017952528 0.04294722 -0.16194111
-0.070771635 0.076485 -0.04458447 0.19299239 -0.022512587 -0.04408238 -0.067167744 -0.28169662
0.028211745 0.029741844 -0.0064074825 -0.15904534 0.07045813 0.10055501 -0.059235297 0.016988315
0.024212655 0.053076893 -0.043501012 -0.15494606 0.0011420822 -0.22327493 0.12892343 -0.20119396
-0.19242477 -0.05357237 -0.052550137 -0.020903833 0.06509375 0.16189097 -3.9881e-05 -0.14470273
0.20403853 0.14230229 -0.025831794 -0.055122606 0.08539439 -0.17412499 0.12970755 -0.009261564
-0.009700114 0.10888963 0.054009277 -0.01747245 -0.18168145 0.039361767 -0.078669354 0.0298498
-0.018694099 0.04857103 -0.015160084 0.02288515 -0.15375832 -0.0715835 0.0833382 0.0955369
0.119513355 -0.1083827 -0.17455818 -0.074740745 0.05427536 -0.12146737 -0.13047706 0.12061152
-0.008408188 -0.028032778 0.25219393 -0.05815552 0.22280239 -0.24403097 0.1273272 0.00806684
-0.16941565 0.041960366 -0.05741663 0.040255375 0.03824549 -0.27462754 -0.24370168 0.030164119
0.04653218 -0.293386 0.0045375656 -0.20422927 -0.14067803 0.17930758 -0.08535609 0.057004143
0.009461133 0.20344262 0.1183935 -0.0937652 0.015619515 -0.107850455 0.18109427 0.099564604
-0.1543389 -0.072707705 -0.35518774 -0.12705517 -0.09088448 0.14119701 0.5001186 0.028914148
-0.20303865 0.16532578 0.16015588 0.019427767 0.06115565 0.23493712 0.03706798 0.15612155
-0.066179365 0.029706832 0.011261056 0.059097975 -0.1395828 -0.14861101 -0.19857177 0.011784635
-0.12569815 -0.022036286 -0.13295524 0.063820735 0.07663403 -0.017030163 -0.1969551 -0.02961264
-0.34624043 -0.2835265 -0.17672926 -0.040082835 0.10884573 -0.004660509 0.058594756 0.08393665

ablang_branch.8.bias f4 [64]
00000000: 3e4d f7ba d7d3 47bd 67ef 4fbc 04cf 8e3c
00000010: b9f3 0fbe 2373 d53a 57c1 30bd 3f52 8ebd
00000020: 099e adbc 4d8e 1ebc 5383 92bd e577 b0bb
00000030: 9927 ae3c b458 d4bc fd43 ecbd f32d 35bd
00000040: c39a 7d3c 3129 d5bb bf9d e8bc 4c7a 6cbd
00000050: 5c43 653b 0c9f 823c 34df 253d f844 bd3a
00000060: 54ec 7dbd 8ccd a83c 1d58 683a f933 dabb
00000070: e081 76bc 2aaf 1a3c 6763 4c3c a21d 0a3b
00000080: edec a73c 8cb7 59bc 0fc3 8c3b a948 95bb
00000090: 1313 a2bd 28eb 80bd 88d2 b1bc 4eb6 2b3d
000000a0: 373c 24bc 21fd 7f3c 5907 acbd 9cbc b83c
000000b0: f190 bfbc a0b6 253a 282f c73a 6c8c 343c
000000c0: 91a5 333c c0ce 023c c13a 603c a224 bf3c
000000d0: 6313 25bd 24ca ab3c cb72 41bc 98ab 423c
000000e0: 0b30 fabd 776b ddbc 3fd7 6e3b a638 8e3c
000000f0: 533d efbc 7584 a6bb 59d3 423c f137 f7bc
-0.0018867624 -0.04878601 -0.012691355 0.017432697 -0.14057817 0.0016284924 -0.043153133 -0.06949281
-0.021193521 -0.009677482 -0.07153954 -0.0053853863 0.021259116 -0.025921203 -0.11536405 -0.044233274
0.015478793 -0.0065051545 -0.028395532 -0.05773382 0.0034982776 0.01594498 0.040496066 0.001444011
-0.06199296 0.020605825 0.00088632276 -0.0066590277 -0.015045613 0.009441176 0.012474871 0.0021074791
0.020498717 -0.01328839 0.0042957137 -0.004555781 -0.07913794 -0.062948525 -0.021706834 0.041921906
-0.010024122 0.0156243155 -0.08399839 0.022550873 -0.023384543 0.0006321464 0.0015196549 0.011019807
0.010964767 0.007983863 0.013685883 0.023332898 -0.04030169 0.020970412 -0.011807154 0.011881731
-0.12216195 -0.027028782 0.0036444215 0.017360996 -0.029204046 -0.005081708 0.0118912095 -0.030178042
