data/model_weights/cv_fold_2_model4_2.pt (torch, 707477 bytes, 29 tensors)

ablang_branch.0.weight f4 [256, 480]
0	0xbca80e26	-0.020514559
1	0xbdaff373	-0.08591356
2	0x3d8136d7	0.06309288
3	0xbd5b1048	-0.053482324
4	0xbdcc401b	-0.09973165
5	0xbc05e180	-0.008171439
6	0xbc175957	-0.009237609
7	0x3da6ed79	0.08150763
8	0x3aa0701a	0.001224044
9	0xbd9a80fe	-0.075441346
10	0xbd871309	-0.065954275
11	0x3dda3d6b	0.10656246
12	0xbccde4c0	-0.02513349
13	0x3ce7c99a	0.028294373
14	0x3c90ce35	0.017676452
15	0xbd37d78d	-0.0448833
16	0x3e073987	0.13205539
17	0x3e2a35d3	0.16622095
18	0x3d363215	0.044481356
19	0xbd3e42e0	-0.046450496
20	0x3d3e4726	0.04645457
21	0xbd0563a1	-0.032565717
22	0x3ced2291	0.028947147
23	0x3d831cd8	0.06401986
24	0xbcf079d4	-0.029354967
25	0xbcc7f21d	-0.02440744
26	0xbd5f2d75	-0.05448671
27	0x3c836e46	0.016043793
28	0x3cf177ed	0.02947613
29	0xbdc278c0	-0.094956875
30	0x3d2f1049	0.04274014
31	0xbb6997d1	-0.0035643468
32	0x3a1d28f8	0.00059951795
33	0x3da1c76f	0.07899367
34	0x3df4d14a	0.11953981
35	0x3d4cb979	0.049981568
36	0xbc9906ef	-0.018680064
37	0xbc1ab4b4	-0.009442497
38	0x3c9d90c1	0.019234063
39	0xbdeb1225	-0.1147807
40	0xbd3e2bc6	-0.046428464
41	0x3d33e0c6	0.043915533
42	0x3aaa5e06	0.0012997992
43	0x3dcfc186	0.101443335
44	0xbdae0873	-0.08497705
45	0xbbe2494f	-0.0069057117
46	0xbe075dde	-0.13219401
47	0xbd1cbb09	-0.038264308
48	0xbdcc328f	-0.09970581
49	0xbc332800	-0.01093483
50	0x3d955f59	0.07293577
51	0xbca257ea	-0.019817311
52	0x3d2080a5	0.039185185
53	0x3daae131	0.08343733
54	0x3d5cdaa6	0.053919457
55	0xbdaffb4b	-0.08592852
56	0xbd3177e4	-0.043327227
57	0xbcd60967	-0.02612753
58	0xbd917625	-0.071026124
59	0xbdfb1354	-0.12259546
60	0xbd22e49a	-0.039768793
61	0x3d6547dd	0.055976737
62	0x3c3fce6e	0.0117069315
63	0x3e3b884b	0.1831371
64	0x3e003c78	0.12523067
65	0xbd662454	-0.05618699
66	0x3d85bd54	0.06530252
67	0x3a833f59	0.0010013386
68	0x3d166cdb	0.036724906
69	0xbc8da06d	-0.017288411
70	0xbda5b937	-0.080919676
71	0xbdcc5491	-0.09977067
72	0xbe20434c	-0.15650672
73	0x3b8f563f	0.004374295
74	0x3de2cb4e	0.110739335
75	0x3d073dd1	0.033017937
76	0x3c832d41	0.01601279
77	0x3b9d84aa	0.0048070746
78	0x3dced6f4	0.10099593
79	0x3cf9089a	0.03039961
80	0xbe07906d	-0.13238688
81	0x3da390fe	0.079866394
82	0xbb216e75	-0.0024632488
83	0xbd99d03c	-0.07510421
84	0x3d174ab8	0.03693649
85	0xbd64e041	-0.055877928
86	0xbd9826f9	-0.074293084
87	0xbdae3d81	-0.08507825
88	0xbd2e025d	-0.042482723
89	0xbdaa3cd1	-0.08312381
90	0xbda4991c	-0.08037016
91	0xbd1d36fe	-0.038382523
92	0x3e0740d7	0.13208328
93	0x3dbef342	0.093237415
94	0x3d412769	0.047156725
95	0x3d2285e9	0.039678488
96	0x3d1d59ab	0.038415592
97	0x3d30c01c	0.04315196
98	0x3c2f599c	0.010702517
99	0x3d839cc5	0.06426386
100	0xbae1264a	-0.0017177549
101	0xbd796f44	-0.060897127
102	0x3dcc5e98	0.0997898
103	0x3e17bd7e	0.1481838
104	0x3d751374	0.059833005
105	0x3d914621	0.07093454
106	0x3cdb762a	0.026789743
107	0x3d500cb5	0.05079337
108	0x3b72e4c6	0.003706263
109	0x3d575294	0.052568987
110	0x3d0bcf45	0.034133215
111	0x3d196729	0.037451897
112	0xbd2b3330	-0.041796863
113	0xbd34b6ed	-0.044119764
114	0xbb441fc2	-0.0029926156
115	0xbdc166bf	-0.094434254
116	0xbe07043c	-0.13185209
117	0x3d7f5bfe	0.06234359
118	0x3cdd9c70	0.027052134
119	0xbd833422	-0.06406428
120	0x3d544151	0.051820103
121	0xbd8f25fd	-0.069896676
122	0xbc759df2	-0.01499127
123	0x3c5030a2	0.0127069075
124	0xbcab9f6c	-0.020950042
125	0x3bf87e39	0.0075834063
126	0x3baae612	0.005215415
127	0xbab3da3e	-0.0013721657
128	0xbd5a1e59	-0.053251598
129	0xbc6060ee	-0.013694985
130	0xbd92017c	-0.07129189
131	0x3d8852cc	0.06656417
132	0xbc1e0c92	-0.009646552
133	0xbe0260fc	-0.12732309
134	0x3d43827c	0.04773186
135	0x3d7eac04	0.062175766
136	0xbe117ca8	-0.14207709
137	0x3c5d1e16	0.013495943
138	0x3d1455b9	0.036214564
139	0x3ca87ac7	0.020566357
140	0x3c0c6370	0.00856863
141	0xbce74ca3	-0.028234785
142	0xbce9b9ee	-0.028531041
143	0xbbf3c8e1	-0.007439718
144	0xbd877bf1	-0.06615437
145	0xbd6f02ba	-0.05835221
146	0xbd6284fc	-0.055302605
147	0x3d553687	0.052053954
148	0x3c4610dd	0.012088981
149	0x3d15c3a1	0.03656352
150	0x3c8354d8	0.016031668
151	0x3c3388fd	0.0109579535
152	0x3db57dfe	0.08861922
153	0x3d4ef921	0.050530557
154	0x3d04f91f	0.032464143
155	0x3d2e054d	0.042485524
156	0x3c822be9	0.015890079
157	0x3d251538	0.04030344
158	0xbdc54f72	-0.096342936
159	0xbe49688d	-0.19668789
160	0x3d30b36f	0.04313987
161	0x3da43dc2	0.08019592
162	0xbdaf511f	-0.085603945
163	0x3c0034f7	0.007825128
164	0xbd6dbcc0	-0.058041334
165	0x3d5765c3	0.052587282
166	0x3e06f8ba	0.13180819
167	0xbd3828d1	-0.0449608
168	0xbc00a16e	-0.007850988
169	0x3d7c6aa8	0.061625153
170	0xbcf77616	-0.030207675
171	0xbd432108	-0.047638923
172	0xbc3ca278	-0.011513345
173	0x3d972376	0.073798105
174	0x3d7e7cd1	0.062130753
175	0x3c9972d4	0.018731512
176	0xbd3560d3	-0.044281792
177	0x3d9fffca	0.0781246
178	0x3cd2046c	0.025636874
179	0x3d155233	0.036455344
180	0x3c7a772f	0.015287205
181	0x3c98a4fb	0.018633356
182	0x3dbf0e6e	0.09328924
183	0xbd10dbaf	-0.035365757
184	0x3bb87edf	0.0056303586
185	0xbe1a30e8	-0.15057719
186	0xbd3763cf	-0.04477292
187	0xbd8dfabf	-0.06932592
188	0xbc9a23f1	-0.018815966
189	0x3bf6621a	0.007519019
190	0xbc9ac04a	-0.018890519
191	0xbc7c8a5d	-0.015413848
192	0xbc96b326	-0.018395972
193	0x3e1d44dc	0.15358299
194	0xbcb12ddc	-0.021628313
195	0x3df6c4bd	0.120492436
196	0xbd33622d	-0.0437948
197	0xbc6457f3	-0.013936984
198	0xbcd84811	-0.026401551
199	0xbdfd4265	-0.123661794
200	0xbd33f809	-0.043937717
201	0xbc6cc360	-0.014450878
202	0xbc6eba84	-0.014570836
203	0x3d943486	0.072365806
204	0xbcb2bb2f	-0.021817772
205	0xbde160a8	-0.11004764
206	0xbb4120a4	-0.0029468918
207	0x3d38840b	0.0450478
208	0x3d97c4bb	0.0741057
209	0xbd65b5e8	-0.056081682
210	0x3c200fc2	0.009769382
211	0x3da648ea	0.08119376
212	0x3d82bc6b	0.06383594
213	0xbd876e98	-0.06612891
214	0xbd0774bc	-0.03307031
215	0xbd2579b9	-0.040399287
216	0x3ca90b91	0.020635398
217	0x3df9fd7a	0.1220655
218	0xbc5b4fda	-0.013385737
219	0x3c37d149	0.011219331
220	0x3cef2669	0.02919312
221	0x3c8b0663	0.016970819
222	0x3d9726cb	0.07380446
223	0xbd681772	-0.056662984
224	0x3db8d901	0.09025765
225	0x3db7e2cd	0.08978806
226	0xbc485796	-0.012227913
227	0xbc891df4	-0.016737916
228	0x3cce0e3b	0.02515327
229	0xbdf89f51	-0.12139762
230	0x3d8fa464	0.07013777
231	0x3dc06b55	0.09395472
232	0xbb656982	-0.0035005515
233	0x3db13c8f	0.08654129
234	0x3bcee1bd	0.006313531
235	0x3c92ded6	0.017928522
236	0x3d07b631	0.033132736
237	0xbce98d05	-0.028509626
238	0xbd649472	-0.05580563
239	0x3cd3b679	0.025843846
240	0x3ca71f09	0.02040054
241	0xbd46c749	-0.048529897
242	0x3cfff853	0.03124634
243	0x3b3b5781	0.0028586092
244	0xbcabc37c	-0.020967238
245	0x3e34c3c8	0.1765281
246	0x3c3e7f55	0.011627038
247	0xbc8e5b98	-0.01737766
248	0xbb7b39a4	-0.0038333917
249	0xbd706097	-0.058685865
250	0xbd09e337	-0.033663955
251	0xbc9c1fe7	-0.019058181
252	0xbd8c9418	-0.06864184
253	0xbd16786c	-0.036735937
254	0xbdd3cb9f	-0.10341572
255	0x3b9e5a7f	0.0048325653

ablang_branch.0.bias f4 [256]
0	0x3bcaff09	0.0061949533
1	0x3b24d096	0.002514874
2	0x3bb003a3	0.0053715273
3	0x3c5449d5	0.012957056
4	0x3c14b377	0.009075991
5	0x3cc26c53	0.023733294
6	0x3bee20f6	0.007267113
7	0x3a2a7776	0.00065027864
8	0x3c1878df	0.009306162
9	0x3c2b9704	0.010473017
10	0xbbb23647	-0.0054385993
11	0x3c7556f1	0.014974342
12	0x3bef91ea	0.0073110955
13	0xbaaa9707	-0.001301498
14	0x3b26fa19	0.002547866
15	0xbb8299c4	-0.0039856154
16	0xba36dfc8	-0.0006976095
17	0xbb7152b1	-0.003682297
18	0x3c559d21	0.013037951
19	0x3c8b7c18	0.017026946
20	0x3b8f4857	0.0043726373
21	0x3bb8b786	0.005637112
22	0x3beaf3c4	0.0071701724
23	0xbb39a35d	-0.0028326132
24	0x3c7a5789	0.015279659
25	0x3c5c49a6	0.0134452935
26	0x3b8c2c38	0.004277732
27	0x39887759	0.00026028862
28	0x3b29b1f7	0.0025893429
29	0x3c98fc93	0.018675124
30	0x3b8206fe	0.0039681187
31	0x3ae60faf	0.0017552281
32	0x3c241cce	0.010016633
33	0x39808e26	0.0002451997
34	0x3c554316	0.013016483
35	0x3a4b83c8	0.00077634724
36	0x3bda9580	0.006670654
37	0xba2cd6ca	-0.00065932854
38	0x3bdea69b	0.0067947633
39	0x3c9809e4	0.018559404
40	0x3c43ac1f	0.011942892
41	0x3c61bf12	0.013778465
42	0x3c4c2a8f	0.012461319
43	0xbbf46707	-0.007458571
44	0x3b1809fb	0.0023199308
45	0x3c24113e	0.0100138765
46	0x3c92d6f2	0.01792476
47	0xbb2176f0	-0.0024637543
48	0x3c114482	0.008866431
49	0x3c94e430	0.018175215
50	0x3c044a4b	0.008074353
51	0x3ab3865c	0.0013696658
52	0x3c1d0e9e	0.009586005
53	0x3b19cf9f	0.00234697
54	0xba7404e4	-0.000930859
55	0x3c6f2f48	0.014598675
56	0xbb88c8d5	-0.0041743317
57	0x3b97a9ef	0.004628412
58	0x3b9098fc	0.0044127684
59	0x3c00621c	0.007835891
60	0x3b9f24da	0.004856688
61	0x3cb9170f	0.022594003
62	0x3bd3df44	0.0064658243
63	0x3bb9d7a6	0.0056714593
64	0x3a4da2ee	0.0007844408
65	0x3b0288ca	0.0019917958
66	0xbbf04dbc	-0.0073334854
67	0x3c8f4518	0.017489001
68	0x3c0793e5	0.008275007
69	0x3b805925	0.003916877
70	0x3b834c56	0.0040069027
71	0xbae96dab	-0.0017809173
72	0x3c6cbace	0.014448835
73	0x3c1ac7f5	0.0094470875
74	0x3b9685fe	0.00459361
75	0xbaff60b2	-0.0019483774
76	0x3c3b25e1	0.011422605
77	0x3bf3b398	0.0074371807
78	0xbba2ad89	-0.0049645347
79	0xbb9c143a	-0.0047631534
80	0x3bf8ab5b	0.0075887865
81	0xbc0ba7f4	-0.00852393
82	0x3c1b55d0	0.0094809085
83	0x3c331b98	0.010931872
84	0xbb8f4af7	-0.00437295
85	0x3bbfaf9d	0.005849792
86	0x3c8b42c5	0.016999612
87	0x3b610c8a	0.003433975
88	0x3c03d475	0.008046259
89	0x3aa027b1	0.001221886
90	0x3c025014	0.007953662
91	0xbb8df556	-0.004332225
92	0x3c4890b7	0.012241534
93	0x3cf0a269	0.029374318
94	0x3ae8e2f4	0.0017767833
95	0xbb15da5d	-0.002286575
96	0x3c1caa4f	0.009562089
97	0x3a9b2914	0.0011837804
98	0x3bc72ab9	0.006078091
99	0xba2f9207	-0.000669748
100	0xbbefce80	-0.007318318
101	0x3b141149	0.002259331
102	0xba51a081	-0.0007996634
103	0x3c80452e	0.015657987
104	0x3be4b8bd	0.0069800303
105	0xbc26924f	-0.010166719
106	0x3c3ea026	0.011634862
107	0x3b1d0475	0.0023958955
108	0x3bb52880	0.0055285096
109	0x3c250233	0.010071325
110	0x3b871be4	0.004123198
111	0x3aeb091d	0.0017931793
112	0x3c33d8b2	0.010976957
113	0x3c54ed7c	0.012996074
114	0x3afcb7d8	0.0019280864
115	0x3a45c3f5	0.00075441535
116	0xbb88f96b	-0.0041801236
117	0x3be73d32	0.0070568556
118	0xbbe11875	-0.0068693706
119	0x3c07bc90	0.008284703
120	0x3b265cb1	0.0025384838
121	0x3bddca60	0.0067685097
122	0x3a41379b	0.00073706516
123	0x3b614c83	0.003437788
124	0x3c43dbd4	0.011954267
125	0x3c52d38f	0.012867822
126	0xb9980072	-0.0002899203
127	0x3aeac287	0.0017910757
128	0xbb8dc397	-0.0043262946
129	0xbbdc6090	-0.0067253783
130	0x3c85966c	0.016307078
131	0x3c380295	0.011231084
132	0xbad2b6bf	-0.0016076191
133	0x3b1acdba	0.0023621158
134	0x3caf33e2	0.021387044
135	0x3b612c37	0.003435863
136	0x3c0b45e0	0.008500546
137	0x3b99e858	0.004696887
138	0x3b9a60f7	0.004711266
139	0x3b4f4f0d	0.0031632811
140	0x3c456d6e	0.012050016
141	0x3c6c48d9	0.014421665
142	0xb9969114	-0.0002871832
143	0x3c199e23	0.009376082
144	0x3c4aef56	0.012386164
145	0xbb62fc50	-0.0034635253
146	0x3cce54ea	0.025186975
147	0x3b951bb5	0.004550422
148	0x3aefa965	0.0018284736
149	0x3b91bee4	0.0044478048
150	0x3a8a8c19	0.0010570317
151	0xbc336ae6	-0.01095078
152	0x3ba276f9	0.0049580303
153	0x3b74ab92	0.003733371
154	0x3ad50088	0.0016250769
155	0xbbf12157	-0.0073587107
156	0x3c97f1df	0.01854795
157	0x3b3baba5	0.0028636244
158	0x3c485c49	0.012229034
159	0x3a8136fb	0.0009858304
160	0x3c5928cc	0.013254356
161	0x3b215250	0.0024615712
162	0xbb56fc0e	-0.0032804045
163	0x3c192ae5	0.009348606
164	0xbb4bbd78	-0.0031088274
165	0x3c7635b1	0.0150274495
166	0x3b71ba7f	0.0036884842
167	0x3c2d1c14	0.010565776
168	0x3c77a3a4	0.015114699
169	0x3cb6004a	0.022216935
170	0x3b875163	0.004129575
171	0xb9eb54df	-0.00044885927
172	0x3c047a8a	0.008085856
173	0x3be0ee30	0.0068643317
174	0x3c45539b	0.012043859
175	0x3bcbdfe2	0.0062217573
176	0x3b8abe19	0.004234087
177	0x3b6f46e3	0.0036510758
178	0xba588a38	-0.00082603423
179	0x3b0b3914	0.0021243738
180	0x3c2d621c	0.010582473
181	0x3c090984	0.008364085
182	0x3c2cbcc4	0.010543052
183	0x3c39b2e9	0.011334159
184	0x3c6f0a3c	0.014589842
185	0x3beb17e2	0.007174478
186	0xbbe7eeec	-0.0070780423
187	0x3c425041	0.011859954
188	0x3bf950cc	0.0076085087
189	0x3c0881d6	0.008331737
190	0x3c1e5d65	0.009665822
191	0x3c793f70	0.015212879
192	0x3c4bb17e	0.012432454
193	0xbb0f4eee	-0.0021867114
194	0x3c3a9e3b	0.011390264
195	0x3c8155ad	0.015787924
196	0xbaecb40a	-0.0018059027
197	0x3bd4c0d3	0.006492713
198	0xbaa311ea	-0.0012441252
199	0xba95981d	-0.0011413131
200	0x3c99178c	0.018687986
201	0x3b8f68de	0.004376515
202	0x3c6ff594	0.014645953
203	0x3b975052	0.004617729
204	0xbb8146fe	-0.0039452305
205	0x3c30092f	0.010744377
206	0x3ab6ddfc	0.0013951655
207	0x3b771bce	0.0037705782
208	0x3c9b2a5f	0.018941103
209	0x3bc6e386	0.0060696034
210	0x3b5feda6	0.003416875
211	0x3c7a5f9f	0.015281587
212	0x3c80d2f3	0.015725588
213	0xbae3382e	-0.0017335468
214	0x3ba26f82	0.0049571404
215	0x3c8975df	0.016779838
216	0xbbbc860f	-0.0057532857
217	0x3bd62472	0.0065351063
218	0x3c7e4cfe	0.015521286
219	0x3c28ed29	0.01031045
220	0x3b4fecb5	0.0031726782
221	0x3c045492	0.008076804
222	0x3c3153ed	0.010823232
223	0x3b60a2a9	0.003427664
224	0xbabc1f7e	-0.0014352647
225	0x3c1c34b9	0.009534054
226	0x3abb0751	0.0014269148
227	0x3c421e1a	0.011847997
228	0x3ce25822	0.027629916
229	0xbbab9464	-0.0052361954
230	0x385f20d0	5.3197902e-05
231	0x3b1a0948	0.0023504067
232	0x3c48fde9	0.012267568
233	0xbc34cb74	-0.011034835
234	0x3c1c3194	0.009533305
235	0x3c4291fb	0.011875625
236	0xb98be9ab	-0.00026686242
237	0x3bd46198	0.0064813606
238	0x39228f26	0.00015502851
239	0x3c86df1f	0.016463814
240	0x3c634caf	0.013873263
241	0xbc10ae03	-0.00883055
242	0x3b9ee1a5	0.0048486763
243	0x3c71ad2b	0.014750759
244	0xbc36c65a	-0.011155689
245	0x3bcca004	0.0062446613
246	0x3c3ccfeb	0.011524181
247	0x3bf1b8af	0.0073767523
248	0x3c6b2bb8	0.014353685
249	0x38fe008c	0.00012111766
250	0x3bc67930	0.006056927
251	0x3b804ed1	0.0039156456
252	0x3b7e23a9	0.003877858
253	0x3c1d0d91	0.009585754
254	0x3b1221c4	0.0022297958
255	0x3c81708b	0.015800735

ablang_branch.1.weight f4 [256]
0	0x3f7a99a9	0.97890717
1	0x3f810cc5	1.0082022
2	0x3f847544	1.0348287
3	0x3f894d06	1.0726631
4	0x3f81a597	1.0128659
5	0x3f81e88d	1.0149094
6	0x3f811a77	1.0086201
7	0x3f7a3cc2	0.9774896
8	0x3f85d696	1.0456111
9	0x3f8407e8	1.0314913
10	0x3f80a31f	1.0049781
11	0x3f713c1c	0.94232345
12	0x3f784f8a	0.96996367
13	0x3f8106bd	1.0080181
14	0x3f799f70	0.9750891
15	0x3f844acd	1.0335327
16	0x3f824390	1.0176868
17	0x3f7d6715	0.98985416
18	0x3f80a623	1.0050701
19	0x3f7b7232	0.98221123
20	0x3f7baff6	0.9831537
21	0x3f8838c0	1.0642319
22	0x3f80a308	1.0049753
23	0x3f80de94	1.0067925
24	0x3f7ed3e3	0.99542063
25	0x3f822bc4	1.0169606
26	0x3f7acbfe	0.9796752
27	0x3f7c7845	0.98621017
28	0x3f847b7f	1.0350188
29	0x3f88c707	1.0685738
30	0x3f73210c	0.949723
31	0x3f7a4d49	0.9777418
32	0x3f7fc3ea	0.99908316
33	0x3f7de797	0.99181503
34	0x3f88a509	1.0675365
35	0x3f76be10	0.9638376
36	0x3f83786c	1.0271125
37	0x3f7edef6	0.9955896
38	0x3f83f014	1.0307641
39	0x3f7bbb1b	0.98332375
40	0x3f89fec1	1.078087
41	0x3f74b128	0.9558282
42	0x3f75d848	0.96033144
43	0x3f78a77b	0.97130555
44	0x3f7e921b	0.9944169
45	0x3f784d72	0.9699317
46	0x3f78e72d	0.97227746
47	0x3f7c7da7	0.9862923
48	0x3f833676	1.0250995
49	0x3f7eb5df	0.99496263
50	0x3f85b47f	1.0445708
51	0x3f798c2e	0.9747952
52	0x3f87bde0	1.060482
53	0x3f827b0c	1.0193801
54	0x3f7bec26	0.9840721
55	0x3f8058e8	1.0027132
56	0x3f85a92b	1.0442251
57	0x3f814fed	1.0102516
58	0x3f86d7df	1.0534629
59	0x3f75da4b	0.96036214
60	0x3f7d8ac3	0.9903986
61	0x3f89f119	1.0776702
62	0x3f7c6718	0.9859481
63	0x3f78d524	0.97200227
64	0x3f7e7fc0	0.9941368
65	0x3f81d6c8	1.0143671
66	0x3f8ad463	1.0846065
67	0x3f72cb1b	0.94841164
68	0x3f78dd82	0.97212994
69	0x3f74c6dc	0.95615935
70	0x3f75b4ad	0.95978814
71	0x3f7cb691	0.98716074
72	0x3f6fe582	0.93709576
73	0x3f792fe0	0.97338676
74	0x3f7e536b	0.99346036
75	0x3f804e51	1.00239
76	0x3f764257	0.96194977
77	0x3f81fc6b	1.0155157
78	0x3f78eaaf	0.972331
79	0x3f762fd1	0.9616671
80	0x3f79b8ea	0.9754778
81	0x3f7d329f	0.98905367
82	0x3f8ab8ec	1.0837684
83	0x3f7a5978	0.9779277
84	0x3f80858a	1.0040753
85	0x3f84d00a	1.0375988
86	0x3f807b8e	1.0037706
87	0x3f802712	1.0011923
88	0x3f8b2f92	1.0873892
89	0x3f7ce6bc	0.9878957
90	0x3f7c9f9a	0.9868103
91	0x3f7f8c9e	0.9982394
92	0x3f7135cd	0.9422272
93	0x3f83a08e	1.0283372
94	0x3f82f56b	1.0231146
95	0x3f837c23	1.0272259
96	0x3f7f6595	0.99764377
97	0x3f825545	1.0182272
98	0x3f8066cf	1.0031375
99	0x3f8404bc	1.0313945
100	0x3f80211d	1.0010105
101	0x3f881603	1.0631717
102	0x3f6d8418	0.92779684
103	0x3f8201c0	1.0156784
104	0x3f7a2639	0.97714573
105	0x3f7bcff8	0.9836421
106	0x3f86d93d	1.0535046
107	0x3f7c258c	0.9849479
108	0x3f84abf5	1.0364977
109	0x3f819ffd	1.012695
110	0x3f7d9d18	0.9906783
111	0x3f71c9e0	0.9444866
112	0x3f8104ec	1.0079627
113	0x3f81a510	1.0128498
114	0x3f782bec	0.9694202
115	0x3f8a6d61	1.081463
116	0x3f895dde	1.0731771
117	0x3f7a3581	0.9773789
118	0x3f7927c3	0.97326297
119	0x3f7e11cd	0.9924591
120	0x3f7e9987	0.99453014
121	0x3f7a3f8c	0.97753215
122	0x3f72ca7d	0.9484022
123	0x3f78c97a	0.9718243
124	0x3f82cc85	1.0218664
125	0x3f85b0e8	1.0444613
126	0x3f79b240	0.9753761
127	0x3f781f26	0.9692253
128	0x3f716440	0.94293594
129	0x3f800398	1.0001097
130	0x3f7c4e51	0.98557
131	0x3f869e9a	1.0517151
132	0x3f7a4a19	0.97769314
133	0x3f7d7f03	0.9902193
134	0x3f72d086	0.9484943
135	0x3f736da4	0.95089173
136	0x3f84c173	1.0371536
137	0x3f83a1e7	1.0283784
138	0x3f80ed3d	1.0072399
139	0x3f83b693	1.0290092
140	0x3f7ecdb3	0.9953262
141	0x3f6f19d7	0.93398803
142	0x3f7e5f88	0.9936452
143	0x3f71865f	0.9434566
144	0x3f9024fe	1.1261289
145	0x3f83367d	1.0251004
146	0x3f82bd7e	1.0214078
147	0x3f8018b3	1.0007538
148	0x3f7a1d9b	0.97701424
149	0x3f7c5861	0.98572356
150	0x3f73ed19	0.9528366
151	0x3f7a701a	0.97827303
152	0x3f812de7	1.0092133
153	0x3f68fd15	0.9101117
154	0x3f8d84b8	1.1056128
155	0x3f76191c	0.96132064
156	0x3f70f339	0.9412113
157	0x3f82539b	1.0181764
158	0x3f825a89	1.0183879
159	0x3f726e4e	0.9469956
160	0x3f7c4e31	0.9855681
161	0x3f7a01b1	0.9765883
162	0x3f7b6686	0.98203313
163	0x3f854ade	1.0413473
164	0x3f7c0f5c	0.98460937
165	0x3f82650e	1.018709
166	0x3f7bcc6d	0.98358804
167	0x3f7a2269	0.97708756
168	0x3f7752f5	0.9661096
169	0x3f8b296d	1.0872017
170	0x3f80f451	1.007456
171	0x3f86cc32	1.0531065
172	0x3f815b7d	1.0106045
173	0x3f794864	0.97376084
174	0x3f7c729d	0.98612386
175	0x3f7f0426	0.99615705
176	0x3f7afc46	0.9804119
177	0x3f7ed2bf	0.99540323
178	0x3f82d7b4	1.0222077
179	0x3f7a4946	0.97768056
180	0x3f717810	0.94323826
181	0x3f7272a7	0.94706196
182	0x3f7e0057	0.9921927
183	0x3f89a81a	1.0754426
184	0x3f892c65	1.0716673
185	0x3f7a7443	0.9783365
186	0x3f8251b9	1.018119
187	0x3f7c6ba2	0.98601735
188	0x3f7beff4	0.98413014
189	0x3f76eaa3	0.9645178
190	0x3f80d6d9	1.0065566
191	0x3f8bab0c	1.0911574
192	0x3f7cebf6	0.9879755
193	0x3f7ba559	0.98299176
194	0x3f831d0a	1.0243237
195	0x3f6a41ff	0.9150695
196	0x3f7dae37	0.99093956
197	0x3f731347	0.9495129
198	0x3f885795	1.0651728
199	0x3f85d2e9	1.045499
200	0x3f80850b	1.0040601
201	0x3f7b334a	0.98125136
202	0x3f767764	0.96275926
203	0x3f79b549	0.97542244
204	0x3f7d02da	0.98832476
205	0x3f868681	1.0509797
206	0x3f7ce06b	0.98779935
207	0x3f7e1a67	0.99259037
208	0x3f7c289c	0.98499465
209	0x3f7ce9cd	0.9879425
210	0x3f833006	1.024903
211	0x3f823e39	1.0175239
212	0x3f7b9cf4	0.98286366
213	0x3f850176	1.0391071
214	0x3f7c9f1e	0.98680294
215	0x3f790d4e	0.97285926
216	0x3f80cebc	1.006309
217	0x3f77f779	0.9686199
218	0x3f89343f	1.0719069
219	0x3f74758e	0.95491874
220	0x3f880bfc	1.0628657
221	0x3f7b5457	0.9817557
222	0x3f83d7e2	1.0300257
223	0x3f7828a1	0.96936995
224	0x3f799848	0.9749799
225	0x3f7ec213	0.99514884
226	0x3f7e41f7	0.99319404
227	0x3f7d1bfa	0.98870814
228	0x3f8774cc	1.0582519
229	0x3f80d619	1.0065337
230	0x3f7ef794	0.99596524
231	0x3f7b0dbb	0.98067826
232	0x3f7ea297	0.9946684
233	0x3f7dc1cd	0.9912384
234	0x3f83fdc1	1.0311815
235	0x3f749364	0.955374
236	0x3f7c5f8f	0.9858331
237	0x3f72275f	0.94591326
238	0x3f73c927	0.9522881
239	0x3f7c001a	0.98437655
240	0x3f83d2df	1.0298728
241	0x3f8bd837	1.0925359
242	0x3f75bd97	0.95992416
243	0x3f7b3b9d	0.9813784
244	0x3f7f4846	0.99719656
245	0x3f75b772	0.9598304
246	0x3f7da89a	0.9908539
247	0x3f70b068	0.94019175
248	0x3f827bc2	1.0194018
249	0x3f8636af	1.0485438
250	0x3f781dc2	0.96920407
251	0x3f7dfd4d	0.9921463
252	0x3f75cf5f	0.9601955
253	0x3f83f9d3	1.0310615
254	0x3f849bbd	1.0360028
255	0x3f8b5062	1.0883906

ablang_branch.1.bias f4 [256]
0	0xbbd61802	-0.0065336237
1	0xbd013234	-0.031542018
2	0xbc0053d3	-0.007832485
3	0x3b54e971	0.0032487775
4	0x3bb0174e	0.005373872
5	0xbc518913	-0.012789029
6	0xbd2569ff	-0.04038429
7	0xbc97a875	-0.018512944
8	0xbb65027d	-0.003494411
9	0xbb47724e	-0.003043312
10	0xbc4d6028	-0.0125351325
11	0xbc3d46df	-0.0115525415
12	0xbb5acd4d	-0.003338653
13	0xbb5d9314	-0.003380959
14	0xbc303f47	-0.010757274
15	0xba3b2afa	-0.0007139888
16	0xbb5a5754	-0.0033316212
17	0xbc335bdb	-0.010947193
18	0xbac8388c	-0.0015275641
19	0x3a4c845e	0.00078017067
20	0xbc4a2694	-0.012338299
21	0x3b860fcc	0.0040912386
22	0xbbeee61d	-0.0072906152
23	0xba8433b6	-0.0010086212
24	0xbb921056	-0.004457514
25	0xbc779be7	-0.015112854
26	0xbb871399	-0.0041222093
27	0xbc172a39	-0.009226375
28	0x3b2b474a	0.002613502
29	0x3bb2fd11	0.005462297
30	0xbd59098a	-0.052987613
31	0xbc688171	-0.0141910175
32	0xbce911eb	-0.028450927
33	0xbafdf66c	-0.0019375808
34	0xbbd7a10b	-0.006580477
35	0xbcb19677	-0.021678193
36	0x3b1bb1fe	0.0023757215
37	0xbca21eb7	-0.019790037
38	0xbb98e737	-0.004666235
39	0x3c1052c0	0.008808792
40	0xbc9883e8	-0.018617585
41	0xbcdfb77e	-0.027309176
42	0xbc86d0b5	-0.016456941
43	0xbc824bab	-0.015905222
44	0xbbb63b89	-0.0055612964
45	0xbd615242	-0.055010088
46	0xbcc3eebb	-0.023917546
47	0xbc34c5a8	-0.011033453
48	0xbb7f1817	-0.003892427
49	0xbcdbc681	-0.026828052
50	0xbccbe6a1	-0.024890246
51	0xbc53b5cd	-0.012921763
52	0xbb0987e0	-0.0020985529
53	0x3a3d307e	0.0007217004
54	0xbcd0226d	-0.02540704
55	0x3b189267	0.0023280622
56	0xbc124535	-0.008927633
57	0x3aa9e283	0.0012961183
58	0xbcc4f42f	-0.024042217
59	0xbcd0686f	-0.025440423
60	0xbc581a15	-0.013189812
61	0xba191154	-0.0005839069
62	0xbd2a5650	-0.04158622
63	0xbc244627	-0.010026491
64	0xbb4406f9	-0.0029911383
65	0xbd26c34c	-0.040713593
66	0xbbafc7d7	-0.005364399
67	0xbc0628b5	-0.008188416
68	0xbbe2ad90	-0.006917663
69	0xbcbbb704	-0.022914417
70	0xbc5a41d1	-0.013321356
71	0xbc44f97a	-0.0120223705
72	0xbc774f4a	-0.015094588
73	0xbc7707a8	-0.015077509
74	0xbd290e7f	-0.04127359
75	0xbb2053f2	-0.0024464098
76	0xbbfd9c3b	-0.0077395714
77	0xbbfc8120	-0.0077058226
78	0xbcae8aeb	-0.021306476
79	0xbcd3917a	-0.025826205
80	0xba7cae48	-0.0009639007
81	0xbc931753	-0.017955458
82	0xbbf53ef5	-0.0074843117
83	0x3a80bb8f	0.0009821522
84	0xbd61ef23	-0.0551597
85	0xbcab4957	-0.020908995
86	0xbbe843de	-0.0070881685
87	0xbbe3befd	-0.006950258
88	0xbc1b5596	-0.0094808545
89	0xbcf325d9	-0.029681133
90	0xbb9d1bb8	-0.004794564
91	0xbd269db1	-0.04067773
92	0xbcb4765a	-0.02202909
93	0xbc5cbc75	-0.013472666
94	0xba4f2d7e	-0.0007903202
95	0xbd830361	-0.06397129
96	0xbd6a309e	-0.05717527
97	0x3ac9d0bb	0.001539729
98	0xbd5369b3	-0.051614475
99	0xbd07f942	-0.033196695
100	0xbc27fd56	-0.010253271
101	0xbc7db13d	-0.015484151
102	0xbd144456	-0.036197983
103	0x3a372a26	0.00069871766
104	0xbaf8478a	-0.0018942219
105	0xbcb11cbc	-0.021620147
106	0xb812f826	-3.504022e-05
107	0xbc24c3b4	-0.010056425
108	0x3bb8eb87	0.0056433114
109	0xba30aaa3	-0.0006739294
110	0x3ad1a091	0.0015993287
111	0xbcba7921	-0.022762837
112	0xbc5702c5	-0.013123219
113	0xbadf5ca5	-0.001704116
114	0xbcb82730	-0.022479624
115	0xbcef60db	-0.029220989
116	0x3a50d42f	0.0007966188
117	0xbc3a0bff	-0.011355399
118	0xbc5dd850	-0.013540342
119	0xbb20ad93	-0.002451752
120	0xbb78b9e3	-0.0037952594
121	0xbb6dcf92	-0.0036287052
122	0xbcb30f0a	-0.021857757
123	0xbc828138	-0.015930757
124	0x3a31c62d	0.00067815447
125	0x3952e3e0	0.0002011205
126	0xbcdafc23	-0.026731556
127	0xbc4114a8	-0.01178471
128	0xbc91a494	-0.017778672
129	0xbc0dd227	-0.008656061
130	0x3b44b141	0.0030012878
131	0xbc8ea1bc	-0.017411105
132	0xbc229c39	-0.009924942
133	0xbd2e5123	-0.042557847
134	0xbbc7d59b	-0.006098462
135	0xbd107224	-0.035265103
136	0xbc250a1d	-0.010073212
137	0xbcbbc3e8	-0.022920564
138	0xbd134a11	-0.035959307
139	0xba49ec2b	-0.0007702733
140	0xbd2861c5	-0.041108865
141	0xbc8acbb0	-0.016942829
142	0xbc0e7a7e	-0.008696197
143	0xbc62c480	-0.013840795
144	0xbc03deda	-0.008048737
145	0xbc056806	-0.008142477
146	0xbd524f22	-0.051345
147	0xbd929039	-0.071564145
148	0xbca0cc51	-0.019628676
149	0x3aa36714	0.0012466633
150	0xbcd305b6	-0.02575956
151	0xbcc837d6	-0.024440687
152	0x3a87d890	0.0010364223
153	0xbcca5e91	-0.024703296
154	0x3b876ae7	0.004132617
155	0xbc8d7e06	-0.017272007
156	0xbc21bb43	-0.009871307
157	0x3b2f331e	0.002673335
158	0xbba94056	-0.00516514
159	0xbd146dd1	-0.03623754
160	0x3aa22f0c	0.001237364
161	0xbd10fc80	-0.035397053
162	0xbc3e9cd5	-0.011634071
163	0xbd85be04	-0.06530383
164	0xbca447b9	-0.020053731
165	0xbb297705	-0.0025858295
166	0xbc88cc06	-0.016698848
167	0xbbf0b457	-0.007345717
168	0xbc803f88	-0.015655294
169	0x3c44573a	0.011983687
170	0xbbfc8aca	-0.0077069746
171	0x3ba1bd41	0.004935891
172	0xbb2a2a7b	-0.0025965262
173	0xbd8dd6fc	-0.06925771
174	0xbb08f86c	-0.0020900024
175	0xbcc3b4a6	-0.02388985
176	0xbb97fb5b	-0.004638118
177	0xbc093e01	-0.008376599
178	0x3a8a63d3	0.0010558314
179	0xbcef20c4	-0.029190429
180	0xbc4bfa31	-0.012449787
181	0xbc67b738	-0.014142804
182	0xbbf8cc09	-0.0075926823
183	0xbbc3ace7	-0.0059715393
184	0x3b41c40d	0.0029566318
185	0xbbd99f85	-0.0066413307
186	0xbd38af1c	-0.045088872
187	0xbc10f9b6	-0.008848598
188	0xbbc13797	-0.0058965194
189	0xbc74cb7f	-0.014941095
190	0xbb486663	-0.0030578605
191	0x3b0e9658	0.0021757092
192	0x3a45822e	0.0007534352
193	0xbd787f68	-0.06066838
194	0xbcc8fd22	-0.024534766
195	0xbd0e05c5	-0.03467347
196	0xbcb2e2ea	-0.021836717
197	0xbd340455	-0.043949444
198	0x3ae9c307	0.0017834612
199	0xbc852722	-0.016254012
200	0x3c0d9658	0.008641802
201	0xbcb827d2	-0.022479925
202	0xbc7bac85	-0.015360956
203	0xbc0aa5c6	-0.008462375
204	0xbc449a80	-0.011999726
205	0xbb84116f	-0.0040303986
206	0xbbed43a2	-0.0072407285
207	0xbb0fec8d	-0.0021961064
208	0x3bd5a875	0.006520326
209	0xbbd31946	-0.006442222
210	0xbc94f29b	-0.01818209
211	0x3b0d16ad	0.0021528408
212	0xbd57d822	-0.052696355
213	0x3a4d8eb0	0.00078413915
214	0xbccc329c	-0.024926476
215	0xbd187158	-0.037217468
216	0xbbc67303	-0.006056191
217	0xbca98b59	-0.020696329
218	0x3b2a3b0f	0.0025975143
219	0xbc2ceba5	-0.010554229
220	0xbcd3d851	-0.025859984
221	0xbd43233b	-0.04764102
222	0xbb2c536a	-0.0026294836
223	0xbc928097	-0.017883582
224	0xbc4d709e	-0.012539057
225	0x3a48dd7e	0.00076623994
226	0xba5849e6	-0.0008250758
227	0xbb070328	-0.0020601247
228	0xbca851df	-0.020546852
229	0xbaeb19d4	-0.0017936775
230	0x3b2eed13	0.00266916
231	0xbc37fe76	-0.011230102
232	0xbc2f6518	-0.010705255
233	0xbc15af37	-0.009136013
234	0xbaec3d6b	-0.0018023675
235	0xbc0d1727	-0.008611477
236	0xbc62b9f3	-0.013838279
237	0xbcf83e55	-0.03030316
238	0xbcee0d77	-0.029059155
239	0xbc9dcfa1	-0.019264044
240	0xb9fe705d	-0.00048530372
241	0xbbf30892	-0.007416793
242	0xbd42a96c	-0.047524855
243	0xbc082e91	-0.008311884
244	0xbc69b214	-0.014263649
245	0xbca23e25	-0.019805023
246	0xbc86ed27	-0.016470505
247	0xbc641a7e	-0.013922332
248	0x3b667ddf	0.003517024
249	0xbba7a8ca	-0.005116557
250	0xbc830904	-0.01599551
251	0xbd18644d	-0.03720503
252	0xbcbca733	-0.023028946
253	0xbb4a24c1	-0.003084466
254	0x3a1c1be2	0.00059550826
255	0x3acd5677	0.0015666027

ablang_branch.4.weight f4 [128, 256]
0	0x3dde6c47	0.10860496
1	0xbdae4b67	-0.085104756
2	0x3c300a4a	0.010744641
3	0xbe139f25	-0.14416178
4	0xbe31ebeb	-0.17375152
5	0xbd8faaab	-0.07014974
6	0x3c34f505	0.011044745
7	0x3e60fb7e	0.21970937
8	0xbd558e5c	-0.052137718
9	0xbe279989	-0.16367163
10	0xbd6d8a84	-0.057993427
11	0xbd2dbea0	-0.042418122
12	0x3becac4c	0.007222688
13	0xbd1764bc	-0.036961302
14	0x3ceed097	0.029152198
15	0x3d71203d	0.058868635
16	0x3dc921a5	0.0982087
17	0x3dc3c968	0.095598996
18	0x3c866361	0.01640481
19	0xbcd960d1	-0.026535423
20	0x3a485124	0.00076414854
21	0x3d6578fc	0.056023583
22	0x3d4a5302	0.04939557
23	0x3c434e41	0.011920513
24	0x3d4e4249	0.050356183
25	0xbe168ae6	-0.14701423
26	0x39b4c611	0.00034479846
27	0x3e378e2d	0.1792533
28	0x3d5eaf0a	0.05436615
29	0xbc577a1a	-0.01315167
30	0xbd22c164	-0.039735213
31	0x3c47dd86	0.012198811
32	0x3e3cc179	0.18433179
33	0x3e6605e5	0.22463186
34	0x3dc5dd46	0.09661345
35	0x3d817586	0.06321244
36	0x3e2fb05a	0.17157117
37	0x3d9ac6bc	0.07557437
38	0x3cac0d1b	0.021002343
39	0xbd197f43	-0.03747488
40	0x3e301367	0.17194901
41	0x3ca63056	0.02028672
42	0xbe19ced4	-0.15020305
43	0x3e12865f	0.14309071
44	0x3dafdcb6	0.08587019
45	0x3d13b718	0.036063284
46	0xbc2e78f0	-0.010648951
47	0x3e6a1409	0.22859205
48	0xbd8fae3d	-0.07015655
49	0xbd886f81	-0.06661893
50	0x3c2dba48	0.010603495
51	0x3d030e22	0.0319959
52	0x3d2af142	0.041733988
53	0x3d0704c7	0.03296354
54	0xbd421def	-0.04739183
55	0xbdd868a3	-0.10566833
56	0xbcac6ebb	-0.021048894
57	0x3e63e1ad	0.22254057
58	0x3de1039d	0.10987017
59	0xbdf7a989	-0.12092883
60	0xbcf4e46d	-0.029894078
61	0xbdb86a3e	-0.09004639
62	0xbc147de4	-0.009063218
63	0xbcabd799	-0.020976828
64	0x3baeb602	0.0053317556
65	0x3d1bea1e	0.03806507
66	0x3adfc036	0.0017070833
67	0xbb856f4c	-0.0040721055
68	0x3d910ebd	0.07082889
69	0x3e0e5bb8	0.13902175
70	0x3d4a5343	0.04939581
71	0x3d136771	0.03598732
72	0x3d6c6fd7	0.057723846
73	0xbd8a8ba7	-0.06764918
74	0x3d33d85a	0.0439075
75	0xbbe50476	-0.006989057
76	0x3dd070eb	0.101777874
77	0xbc95f109	-0.018303411
78	0xbc76736c	-0.015042167
79	0x3d9c4fa7	0.0763238
80	0x3da34b78	0.07973379
81	0x3d23bbb1	0.03997392
82	0x3e164c69	0.14677586
83	0xbcb58fd4	-0.02216331
84	0xbdd9bce9	-0.10631735
85	0x3bad55d0	0.0052897707
86	0x3cc69949	0.024243014
87	0x3dd811e6	0.10550289
88	0x3e05b22a	0.13056245
89	0xbde6e652	-0.11274399
90	0x3cf76020	0.030197203
91	0xbdbcf490	-0.09226334
92	0x3d091694	0.033468798
93	0x3d4e70e7	0.05040064
94	0xbd6db694	-0.05803545
95	0x3dc3e9d9	0.09566087
96	0xbd3dbe5b	-0.046324115
97	0x3da67cb3	0.08129253
98	0xbda34fdf	-0.079742186
99	0xbcdcaf7e	-0.02693915
100	0x3d20af96	0.03922995
101	0xbc2f0ca7	-0.010684169
102	0xbc0acd8c	-0.008471858
103	0x3db593d7	0.08866089
104	0xbd04b043	-0.03239466
105	0xbe46e8c7	-0.19424735
106	0x3dda053e	0.10645531
107	0xbde6a16c	-0.112612575
108	0x3db9c1f1	0.090701945
109	0xbcda69f9	-0.02666186
110	0x3b8cb4a8	0.004293997
111	0x3d250de2	0.040296443
112	0x3d16c748	0.036811143
113	0xbe33d518	-0.17561758
114	0xbd43985d	-0.047752727
115	0x3cea6066	0.02861042
116	0x3cd5216d	0.026016915
117	0x3ca0bf3c	0.019622438
118	0x3cb6bf70	0.022308081
119	0x3d85f9fd	0.06541822
120	0xbcb7567c	-0.022380106
121	0xbd415f4f	-0.047210034
122	0x3d6b05c5	0.05737855
123	0xbd158938	-0.036507815
124	0xbde6411e	-0.11242889
125	0xbde306f0	-0.110853076
126	0xbd6aa055	-0.05728181
127	0x399db1a9	0.0003007774
128	0x3dd5296a	0.1040829
129	0x3e7849a4	0.24246842
130	0x3cf8bd3a	0.030363668
131	0xbe263654	-0.16231662
132	0xbda8d709	-0.0824414
133	0xbd6137f1	-0.05498499
134	0xbc750b47	-0.014956302
135	0x3e685d3c	0.22691816
136	0x3c8d172f	0.017222969
137	0x3aa0b157	0.0012259883
138	0xbcc7842f	-0.024355022
139	0xbdb471f8	-0.088108
140	0x3dbd31f0	0.092380404
141	0x3d18ed40	0.037335634
142	0x3dffff1f	0.12499832
143	0xbdbc4d3e	-0.0919442
144	0xbd8aaba2	-0.067710176
145	0xbcc7cea5	-0.024390528
146	0xbe13d9b3	-0.14438514
147	0xbe79d14c	-0.24396247
148	0x3d1ba929	0.03800312
149	0xbcdcdbce	-0.02696028
150	0xbd561d08	-0.05227378
151	0xbd5ae2ca	-0.05343894
152	0x3d93ea79	0.072224565
153	0x3d569a1e	0.05239307
154	0xbcae3eea	-0.021270234
155	0x3dce42dd	0.10071347
156	0xbd73825b	-0.05945049
157	0x3db34cce	0.08754884
158	0x3cc0fcc9	0.023558037
159	0xbbae26ea	-0.0053146975
160	0xbd434642	-0.047674425
161	0x39155a47	0.00014243378
162	0x3d6c1bae	0.057643585
163	0x3cd6aaf7	0.02620457
164	0x3db71a11	0.08940519
165	0xbe76e3b0	-0.24110293
166	0xbbb677c9	-0.0055684787
167	0x3ddd1976	0.10795872
168	0x3d390f3a	0.045180537
169	0x3d14cfe1	0.03633106
170	0xbda0c7e7	-0.07850628
171	0x3e88bd3b	0.2670687
172	0xbd32d892	-0.04366357
173	0xbd094837	-0.033516135
174	0x3c894307	0.016755594
175	0xbd9be7aa	-0.07612546
176	0x3e211963	0.1573234
177	0xbde47828	-0.111557305
178	0x3dcc7490	0.0998317
179	0xbd1053c3	-0.03523613
180	0xbccdd006	-0.025123607
181	0x3dd32e42	0.10311557
182	0xbdc352a5	-0.095372476
183	0xbd4caf67	-0.049971964
184	0x3a2eb782	0.0006664918
185	0xbd138c07	-0.036022212
186	0xbe1681d1	-0.14697959
187	0x3c6efcbd	0.014586625
188	0x3d4db0d5	0.05021747
189	0xbde869a9	-0.11348278
190	0xbd586eac	-0.05283992
191	0x3e1cae59	0.15300883
192	0x3e0958d1	0.13412787
193	0x3d33f82d	0.04393785
194	0x3bfe8a93	0.007767984
195	0x3dfb71be	0.12277554
196	0x3ccbd195	0.02488021
197	0x3df4b65d	0.119488455
198	0x3d461824	0.048362866
199	0xbe6018ba	-0.21884432
200	0x3e4cf39c	0.20014805
201	0xbd4d5a0c	-0.050134704
202	0x3d078065	0.03308143
203	0x3dfad4f1	0.122476466
204	0x3bb9d3ec	0.005671015
205	0xbc30ff86	-0.010803109
206	0x3d23d287	0.039995696
207	0x3dd62da9	0.10457928
208	0x3d8fd348	0.070227206
209	0xbcc64495	-0.024202624
210	0xbd7857c7	-0.060630586
211	0x3d41b1f1	0.04728884
212	0x3ddb9dad	0.10723434
213	0x3ddcaa2c	0.10774645
214	0xbdfaeb81	-0.1225195
215	0xbc2e2eb1	-0.010631249
216	0x3da5f96a	0.081042126
217	0xbd68c793	-0.056830954
218	0xbc60b1da	-0.013714278
219	0x3e7b1075	0.24517997
220	0x3e1e9709	0.15487303
221	0xbd22f8a4	-0.039787903
222	0xbd71bf48	-0.05902031
223	0xbdb9dabc	-0.090749234
224	0xbd1c14aa	-0.038105644
225	0xbca1810f	-0.01971486
226	0xbda6281f	-0.08113121
227	0x3c281504	0.010258917
228	0x3d9a739c	0.07541582
229	0x3e0ebad7	0.13938461
230	0x3e2dc11d	0.16968198
231	0x3e0e0cdf	0.13872097
232	0xbaf5e356	-0.0018759768
233	0x3dd8f353	0.105932854
234	0xbd820a28	-0.063495934
235	0xbdfc0cdc	-0.1230714
236	0x3ce4894f	0.027897505
237	0x3e31e6c7	0.17373191
238	0xbe1368b3	-0.14395408
239	0x3ddfddde	0.1093099
240	0x3dacfff1	0.084472544
241	0x3d83f83d	0.06443832
242	0x3c4db78b	0.012555967
243	0xbcd73c4d	-0.02627387
244	0x3ca7023e	0.020386811
245	0xbb9ec8bb	-0.0048457063
246	0xbc6fb9b8	-0.014631681
247	0xbe5b8b55	-0.2143987
248	0x3cf26b9c	0.029592328
249	0x3e040dbd	0.12895866
250	0xbde4eff4	-0.1117858
251	0xbd354be8	-0.044261843
252	0x3d0a8d36	0.033826075
253	0xbe19d24f	-0.15021633
254	0x3d6d34aa	0.057911552
255	0xbe19b386	-0.15009889

ablang_branch.4.bias f4 [128]
0	0xbb764f1a	-0.003758377
1	0xbc92318a	-0.017845888
2	0xbc81ade5	-0.01582999
3	0xbb7d8b80	-0.0038687885
4	0xbbd129ed	-0.006383172
5	0x3bc52cd6	0.0060173078
6	0x3bbc5e36	0.0057485355
7	0x3cbf2404	0.023332603
8	0x3c95bfca	0.018279929
9	0xbc77c47d	-0.01512253
10	0xbccfdce4	-0.025373884
11	0x3a875b42	0.001032688
12	0x3ce53e49	0.027983801
13	0x3ce0c78f	0.027438907
14	0xbc83ba6c	-0.016080104
15	0xbc28b58c	-0.01029719
16	0x3b8c8f14	0.004289517
17	0xbc2d7f6c	-0.010589462
18	0xbbd33332	-0.006445312
19	0x3c9c61d6	0.01908962
20	0xb9389b76	-0.00017605521
21	0xbcdfd816	-0.027324717
22	0xbbb14a45	-0.005410465
23	0x3cce0a4a	0.02515139
24	0x3b9e7761	0.0048360084
25	0x3b0f3c3e	0.0021855976
26	0xbc87129b	-0.016488364
27	0x3c4adb45	0.0123813795
28	0x3c98c63e	0.018649217
29	0xbb0283c2	-0.001991496
30	0x3b6de222	0.0036298116
31	0x3bb6ace8	0.0055748112
32	0xbc851a6b	-0.016247949
33	0xb993fc72	-0.0002822611
34	0xbbd8691b	-0.0066043264
35	0x3c852374	0.016252257
36	0xbc3e4733	-0.011613655
37	0x3cb7a063	0.022415346
38	0x3c9825d2	0.018572722
39	0x3b7353f8	0.0037128907
40	0x3d1bd3ab	0.03804366
41	0x3c216bdc	0.009852376
42	0xbcfb09c2	-0.030644301
43	0x3b175ae1	0.002309494
44	0xbb9e8090	-0.004837103
45	0xbcb03c98	-0.021513268
46	0xbcb65bac	-0.02226051
47	0x3ba79188	0.005113784
48	0xbbc1d345	-0.005915078
49	0x3bd6f0c9	0.0065594655
50	0xbb9530f4	-0.004552955
51	0x3c887fed	0.016662562
52	0xbce2eff7	-0.027702315
53	0xbcfe3465	-0.031030843
54	0xbc74c82a	-0.014940301
55	0xbced037f	-0.028932331
56	0x3c7f965a	0.015599811
57	0xbc97dfaa	-0.018539269
58	0xbd608c0b	-0.054821055
59	0x3c90c699	0.017672824
60	0x3bff2dfd	0.0077874647
61	0xbb8f98c2	-0.004382224
62	0xbd18a70e	-0.03726869
63	0x3b4c26a0	0.0031150952
64	0xbc5636e4	-0.01307461
65	0x3c430547	0.011903114
66	0xbcb51ca3	-0.022108382
67	0x3c91c9e3	0.017796462
68	0x3b98bb9f	0.004661038
69	0xbb4fd9f5	-0.0031715606
70	0x3b91ed99	0.0044533727
71	0xbbc19277	-0.0059073525
72	0xbd6b0b97	-0.0573841
73	0x3b31e1ea	0.0027142712
74	0x3b7042ea	0.0036660978
75	0xbabecdc6	-0.0014557175
76	0x3be08920	0.006852284
77	0xbbe18788	-0.0068826117
78	0x3c5dd11b	0.013538624
79	0x3ae432f0	0.00174102
80	0xbce1831e	-0.027528342
81	0x39f89200	0.00047411025
82	0x3bbcb44e	0.0057587987
83	0x3bc665d4	0.0060546193
84	0xbaaca5d0	-0.0013171975
85	0x3ccd3243	0.02504838
86	0x3c54bd66	0.012984609
87	0xbc89c028	-0.01681526
88	0x3bf96fe8	0.007612217
89	0x3c4b081e	0.012392072
90	0x3c09d595	0.008412738
91	0x3ba82e4f	0.0051324735
92	0xbcbc9fa3	-0.02302534
93	0x3bf944d3	0.0076070814
94	0xbc970fcb	-0.018440148
95	0xbc7a21af	-0.01526682
96	0xbcd025e1	-0.025408687
97	0x3c8e5157	0.01737277
98	0xbafdde9a	-0.0019368709
99	0xbd08b3b8	-0.03337452
100	0xb9e11bbc	-0.00042936008
101	0xbcd34d4f	-0.0257937
102	0xbca5f4ba	-0.020258296
103	0xbcfd5009	-0.030921953
104	0x3d575c94	0.052578524
105	0xbb26e3c0	-0.002546534
106	0xbd13eced	-0.036114622
107	0x3d06aba6	0.03287854
108	0x3bf1fc1f	0.0073847915
109	0xbcd33c43	-0.025785571
110	0xbcf6b1ad	-0.03011402
111	0xbba93d30	-0.005164765
112	0x3c5f02d8	0.013611518
113	0x3ba4f2f8	0.005033847
114	0x3c8a40cf	0.016876606
115	0x3cc772f2	0.024346802
116	0x3c472d63	0.012156817
117	0xbcca98cc	-0.024731062
118	0xbc54165a	-0.012944782
119	0x3c2d0c02	0.010561945
120	0x3d040bb1	0.032237712
121	0x3c0516b0	0.008123085
122	0xbc17c031	-0.009262131
123	0xbc653bbf	-0.013991295
124	0xbb81082e	-0.0039377427
125	0x3c997a9a	0.018735219
126	0x3b3d2986	0.0028863861
127	0xba6c9556	-0.00090249383

ablang_branch.5.weight f4 [128]
0	0x3f7dde2a	0.9916712
1	0x3f7c0d95	0.98458225
2	0x3f798893	0.9747402
3	0x3f7bde13	0.98385733
4	0x3f7fe646	0.99960744
5	0x3f8161d1	1.0107976
6	0x3f836ebc	1.0268168
7	0x3f801940	1.0007706
8	0x3f80a0b8	1.0049047
9	0x3f78c950	0.9718218
10	0x3f7b3139	0.9812198
11	0x3f77e3aa	0.9683176
12	0x3f858e07	1.0433968
13	0x3f8314ed	1.0240761
14	0x3f7b63b3	0.98199004
15	0x3f74c1a3	0.95607966
16	0x3f806db2	1.0033476
17	0x3f77e616	0.9683546
18	0x3f857c4e	1.042856
19	0x3f81e025	1.0146528
20	0x3f804357	1.002055
21	0x3f72d2d0	0.94852924
22	0x3f7fa509	0.998612
23	0x3f803828	1.0017138
24	0x3f7ed547	0.99544185
25	0x3f7f52b6	0.9973558
26	0x3f75e52d	0.9605282
27	0x3f81491a	1.0100434
28	0x3f82f3a1	1.02306
29	0x3f7f8c47	0.9982342
30	0x3f81d0ae	1.0141809
31	0x3f7fecb2	0.99970543
32	0x3f725a5b	0.9466912
33	0x3f7cf96a	0.98818076
34	0x3f7aa012	0.979005
35	0x3f7eafde	0.994871
36	0x3f774b3d	0.9659918
37	0x3f845443	1.0338215
38	0x3f814ea7	1.0102128
39	0x3f7b634e	0.981984
40	0x3f83ede0	1.0306969
41	0x3f7d98a9	0.99061066
42	0x3f78b137	0.9714541
43	0x3f79c712	0.9756938
44	0x3f7ccc64	0.98749375
45	0x3f763e85	0.9618915
46	0x3f7ce044	0.987797
47	0x3f78ddb6	0.97213304
48	0x3f7ffd8d	0.9999626
49	0x3f7d91da	0.99050677
50	0x3f78659b	0.9703004
51	0x3f8034a3	1.0016063
52	0x3f7d7142	0.9900094
53	0x3f7c2336	0.9849123
54	0x3f7c0f4a	0.9846083
55	0x3f7add8b	0.979943
56	0x3f813228	1.0093431
57	0x3f79f752	0.97643006
58	0x3f837d4c	1.0272613
59	0x3f7dc4a5	0.9912818
60	0x3f82c475	1.0216204
61	0x3f81715e	1.0112722
62	0x3f7c67da	0.98595965
63	0x3f7ef9f4	0.9960015
64	0x3f7ad9e9	0.97988755
65	0x3f805ff1	1.0029279
66	0x3f81efe7	1.0151337
67	0x3f818839	1.0119697
68	0x3f81c9ee	1.0139749
69	0x3f80807c	1.003921
70	0x3f818627	1.0119065
71	0x3f81a44f	1.0128268
72	0x3f83f247	1.0308312
73	0x3f7ab88d	0.9793785
74	0x3f7f1651	0.9964343
75	0x3f807781	1.003647
76	0x3f7f1bdc	0.99651885
77	0x3f771bef	0.96527
78	0x3f80cb1f	1.0061988
79	0x3f811981	1.0085908
80	0x3f7b4a84	0.98160577
81	0x3f802b86	1.0013282
82	0x3f7c93ad	0.98662835
83	0x3f7963ac	0.9741771
84	0x3f8178a2	1.0114939
85	0x3f8574be	1.0426252
86	0x3f828e60	1.0199699
87	0x3f7ab20b	0.9792792
88	0x3f80db1e	1.0066869
89	0x3f80f73a	1.0075448
90	0x3f802cdc	1.001369
91	0x3f80c166	1.005902
92	0x3f7b6bda	0.98211443
93	0x3f805c36	1.002814
94	0x3f7c3575	0.9851907
95	0x3f7c7fec	0.98632693
96	0x3f7f5876	0.99744356
97	0x3f80e6b6	1.0070407
98	0x3f7cf9d8	0.9881873
99	0x3f79ada2	0.9753057
100	0x3f761114	0.9611981
101	0x3f7f309e	0.9968356
102	0x3f78ca73	0.97183913
103	0x3f7b0429	0.9805322
104	0x3f850249	1.0391322
105	0x3f7b7425	0.982241
106	0x3f7aff37	0.98045677
107	0x3f822fa6	1.0170791
108	0x3f7c8669	0.98642594
109	0x3f7fa1c2	0.998562
110	0x3f8554b7	1.0416478
111	0x3f758118	0.95900106
112	0x3f83166a	1.0241215
113	0x3f7f4316	0.9971174
114	0x3f80cb40	1.0062027
115	0x3f825a4c	1.0183806
116	0x3f7beee2	0.9841138
117	0x3f77b864	0.9676573
118	0x3f764da5	0.96212226
119	0x3f81e8b8	1.0149145
120	0x3f7f99e5	0.998442
121	0x3f7e9203	0.99441546
122	0x3f785f6f	0.9702062
123	0x3f7f8325	0.99809486
124	0x3f7a1ebe	0.9770316
125	0x3f808125	1.0039412
126	0x3f7d4406	0.9893192
127	0x3f7b65e4	0.9820235

ablang_branch.5.bias f4 [128]
0	0x398b1390	0.0002652672
1	0xbcf36849	-0.029712813
2	0xbc8fed2b	-0.017569145
3	0xbc568865	-0.013094042
4	0xbc5014d5	-0.012700279
5	0x375b1418	1.3058096e-05
6	0x3c336797	0.010949991
7	0x3cc97362	0.024591152
8	0x3c5ea13d	0.013588247
9	0xbca8c37d	-0.020601029
10	0xbcd60eb0	-0.02613005
11	0xbb9f5c7c	-0.00486332
12	0x3cdeb6bc	0.027186744
13	0x3ca13745	0.019679675
14	0xbc5a485f	-0.013322919
15	0xbc4d3cb6	-0.012526682
16	0x3ab2ab33	0.0013631344
17	0xbbe37c81	-0.0069423323
18	0xbadb3faf	-0.0016727353
19	0x3c3bce95	0.011462827
20	0xbbc34205	-0.005958798
21	0xbce7b478	-0.028284296
22	0xbbe7e053	-0.007076302
23	0x3c9b7122	0.018974844
24	0x3c132363	0.008980605
25	0x3b987a4f	0.004653252
26	0xbca17c0f	-0.019712476
27	0x3c309aa2	0.010779055
28	0x3c85a5ec	0.01631447
29	0xbab6e6bc	-0.0013954262
30	0x39e52936	0.00043708988
31	0x3b4273a9	0.002967099
32	0xbcbd125f	-0.02308005
33	0xbb303c54	-0.0026891427
34	0xbc4114f3	-0.01178478
35	0x3c23647b	0.009972687
36	0xbca1183c	-0.019664876
37	0x3c688916	0.01419284
38	0x3c80730d	0.01567986
39	0x3b31d0de	0.0027132551
40	0x3cea86f0	0.028628796
41	0x3bc0887b	0.0058756447
42	0xbd13c163	-0.0360731
43	0xbba6305c	-0.005071683
44	0xbbf391cb	-0.0074331514
45	0xbce41c40	-0.027845502
46	0xbcb27852	-0.021785889
47	0xbbac1fa1	-0.005252794
48	0xbbd326f8	-0.0064438544
49	0x3be61452	0.0070214653
50	0xbb787f15	-0.0037917544
51	0x3bb0f0b5	0.0053997883
52	0xbcf345a7	-0.029696299
53	0xbd084fe9	-0.033279333
54	0xbcafa85a	-0.021442581
55	0xbd1954a1	-0.037434224
56	0x3be0179e	0.006838753
57	0xbc9f3c12	-0.019437823
58	0xbd80e36d	-0.06293378
59	0x3c92f2de	0.017938074
60	0x3c5f92de	0.013645856
61	0xba3ed98e	-0.0007280343
62	0xbd2276a0	-0.03966391
63	0x3b24a550	0.0025122948
64	0xbc5ca35b	-0.013466681
65	0x3c02c7d2	0.007982211
66	0xbcc206bd	-0.023684854
67	0x3c924f14	0.017859973
68	0x3c0703da	0.008240664
69	0xbba69515	-0.00508369
70	0xbb627818	-0.0034556445
71	0xbb61c836	-0.003445161
72	0xbd89b7e6	-0.06724529
73	0x3a6a1b41	0.0008930453
74	0x3a3986a2	0.0007077252
75	0xbb8f055c	-0.0043646526
76	0x3b1a8335	0.002357674
77	0xbaed09c2	-0.0018084573
78	0x3b52f034	0.003218663
79	0xbbe04957	-0.0068446803
80	0xbd04feab	-0.032469433
81	0xb9817e08	-0.00024698698
82	0x3b3b6d0c	0.0028598933
83	0x39ce62e4	0.0003936506
84	0xbb94f66b	-0.004545977
85	0x3ccbd95f	0.024883924
86	0x3c5a8df6	0.01333951
87	0xbc86740f	-0.016412763
88	0x3c17d15d	0.009266225
89	0x3c4a7fdd	0.012359587
90	0x3b78b450	0.0037949272
91	0xbb6606c6	-0.0035099252
92	0xbcc4ef2b	-0.024039825
93	0x3b86314c	0.004095232
94	0xbc9fff96	-0.019531053
95	0xbc959830	-0.018261045
96	0xbd0253fd	-0.03181838
97	0x3c31b5b0	0.01084654
98	0xbb572ac3	-0.0032831884
99	0xbd1d6a85	-0.038431663
100	0xbb101848	-0.002198713
101	0xbcfdb493	-0.030969894
102	0xbcbb920d	-0.02289679
103	0xbd142e9b	-0.03617726
104	0x3d44c980	0.048043728
105	0xbbc4a0a8	-0.006000597
106	0xbd19c5c1	-0.03754211
107	0x3cfaacd1	0.030599983
108	0x3c041eda	0.008063996
109	0xbd0340bd	-0.03204416
110	0xbcd5cfbe	-0.026100036
111	0xbc4a65df	-0.0123533895
112	0x3c70a28d	0.014687193
113	0xbbbf258c	-0.0058333334
114	0x3c0047e7	0.007829643
115	0x3c92a4e0	0.017900884
116	0x3bc47892	0.0059958184
117	0xbcd98c96	-0.026556294
118	0xbc9df2fd	-0.019280905
119	0x3c8d9c36	0.017286401
120	0x3cca2d0e	0.024679687
121	0x3b1ca840	0.0023903996
122	0xbc953351	-0.018212946
123	0xbc743e7d	-0.0149074765
124	0xbc610367	-0.013733721
125	0x3c0de611	0.008660809
126	0x3b4266c8	0.0029663313
127	0xbb69dac0	-0.0035683364
