data/model_weights/cv_fold_4_model3_2.pt (torch, 707477 bytes, 29 tensors)

ablang_branch.0.weight f4 [256, 480]
0	0x3dc32b0a	0.095296934
1	0x3cc11f1b	0.023574403
2	0xbc30079a	-0.010744
3	0xbd1c5f2b	-0.038176697
4	0xbdcd11b9	-0.10013146
5	0xbcb4e4d1	-0.022081764
6	0xbd716c64	-0.05894126
7	0xbde67479	-0.11252684
8	0xbd3319fe	-0.04372596
9	0xbc226684	-0.009912137
10	0xbb9c334f	-0.0047668586
11	0xbc9a2ea8	-0.018821076
12	0x3c032c42	0.008006157
13	0xbdb1c217	-0.08679598
14	0x3db65a9c	0.08904001
15	0x3de6e4c3	0.112741016
16	0xbc2feec2	-0.010738077
17	0x3d984031	0.074341185
18	0x3cc6e5fd	0.024279589
19	0x3bb24b85	0.0054411315
20	0xbc930f47	-0.01795162
21	0xbd62e6aa	-0.05539576
22	0x3d83dcfc	0.06438634
23	0xbcb194e8	-0.02167745
24	0x3d84272e	0.064527854
25	0xbd7799d6	-0.060449444
26	0x3dc0c93b	0.09413382
27	0x3c3ad55f	0.011403411
28	0xbd425f46	-0.04745414
29	0x3c5c78b9	0.013456517
30	0xbc0a9b23	-0.008459839
31	0xbd0a3d45	-0.033749837
32	0x3d36f637	0.044668403
33	0x3d889ef5	0.06670944
34	0xbc47d889	-0.012197622
35	0xbdaf37e3	-0.085555814
36	0xbd06e671	-0.03293461
37	0xbd5b885b	-0.053596836
38	0x3e10c270	0.14136672
39	0xbd85592e	-0.0651115
40	0x3dab0cb4	0.08352032
41	0xbcf0f9cb	-0.029415986
42	0xbd4c043d	-0.04980873
43	0x3c0c8a4c	0.008577894
44	0xbd13840f	-0.036014613
45	0x3cf9e901	0.030506613
46	0x3d82f437	0.063942365
47	0xbd066f73	-0.03282113
48	0xbbc5fa48	-0.0060417987
49	0xbcf5137a	-0.029916514
50	0xbd77793a	-0.060418345
51	0xbcbefe31	-0.023314567
52	0xbb11ae9a	-0.0022229315
53	0xbd7f79d0	-0.06237203
54	0x3d3f08e0	0.046639323
55	0xbe0fb00a	-0.14031997
56	0x3958f790	0.0002069159
57	0xbcf2776a	-0.029597957
58	0xbcecaeb0	-0.028891891
59	0xbe1a9fc5	-0.1510001
60	0xbd0a8837	-0.03382131
61	0xbdaec656	-0.08533923
62	0x3dca1d67	0.09868889
63	0xbd005957	-0.0313352
64	0x3cade279	0.021226155
65	0xbdb2a87e	-0.087235436
66	0xbd0e9a49	-0.034815107
67	0x3d6d983e	0.058006518
68	0x3d940a03	0.07228472
69	0x3d03bd8c	0.032163188
70	0x3cd05a2f	0.025433628
71	0x3cd6dd23	0.026228493
72	0xbd0250e5	-0.03181543
73	0xbd615e50	-0.055021584
74	0x3d73f765	0.059562106
75	0x3b9bdeb0	0.004756771
76	0xbb095bcc	-0.0020959256
77	0xbd6b0acf	-0.057383355
78	0x3c70ae9c	0.014690068
79	0x3dc67a8b	0.09691342
80	0x3cbb030e	0.022828605
81	0x3c818f0c	0.01581528
82	0x3ce9d3fc	0.028543465
83	0xbc8cf7a0	-0.01720792
84	0xbd0f5486	-0.034992717
85	0xbbadd00d	-0.0053043426
86	0x3dc39267	0.095494084
87	0x3d42aee0	0.047530055
88	0xbceae3bf	-0.02867305
89	0xbc746857	-0.014917455
90	0xbdae0783	-0.084975265
91	0xbd25d653	-0.0404876
92	0xbd9eb1a5	-0.07748727
93	0x3bcd3117	0.0062619555
94	0xbe24c575	-0.16090949
95	0x3e7d5d08	0.2474252
96	0x3e270796	0.16311488
97	0x3cde48d9	0.027134346
98	0x3c93407c	0.017975084
99	0xb8cf0e38	-9.8731776e-05
100	0x3dabedf6	0.08394997
101	0x3df4748e	0.119362935
102	0x3d4dd32c	0.050250217
103	0xbe1f519a	-0.15558472
104	0xbd3b457c	-0.045720562
105	0xbd62535a	-0.05525527
106	0x3ca6bd2b	0.020353874
107	0xbcb6a3e7	-0.022294952
108	0xbc8ae4f9	-0.016954886
109	0x3ca95577	0.020670636
110	0x3c0a3ff4	0.008438099
111	0x3d3cd786	0.046103977
112	0xbd41da53	-0.04732735
113	0xbd39d811	-0.045372073
114	0x3d91e45b	0.071236335
115	0x3abd2852	0.0014431572
116	0xbd6e2418	-0.05813989
117	0xbddb7b30	-0.107168555
118	0xbb8443a2	-0.004036383
119	0x3c9c6e7b	0.01909565
120	0x3d000a69	0.031259928
121	0xbd1149cd	-0.035470773
122	0x3d3d180d	0.046165515
123	0x3b3a530c	0.0028430847
124	0xbda66ce8	-0.08126241
125	0x3c6ab643	0.014325681
126	0x3ddaccfe	0.106836304
127	0xbcc46756	-0.023975056
128	0xbd923098	-0.07138175
129	0x3cf874dc	0.03032916
130	0x3d510fe6	0.051040553
131	0xbc89df81	-0.016830208
132	0x3da5937e	0.080847725
133	0x3dd780ae	0.105225906
134	0xbce56bc1	-0.028005483
135	0xbd851f52	-0.065001145
136	0x3e184afc	0.14872354
137	0xbd03c3ce	-0.032169156
138	0x3d599356	0.053119026
139	0xbd3845ba	-0.04498837
140	0xbdb80336	-0.089849874
141	0x3d305b73	0.043055963
142	0x3de72d1b	0.112879
143	0x3e1b3dd3	0.15160303
144	0xbd808a97	-0.06276434
145	0x3db5b00f	0.08871471
146	0xbe1476a4	-0.14498383
147	0x3d7e6bf5	0.062114675
148	0xbd6478df	-0.055779334
149	0xbdec5a5c	-0.11540672
150	0xbdb09333	-0.08621826
151	0xbd3735ec	-0.04472916
152	0xbcb7c2d2	-0.022431765
153	0x3bc70225	0.0060732537
154	0x3ce17377	0.027520878
155	0xbdeaa0e2	-0.11456467
156	0x3d71bf90	0.05902058
157	0xbb9e39bb	-0.0048286594
158	0x3dbbff34	0.091795355
159	0x3d87aba6	0.06624536
160	0xbd2e244f	-0.042515095
161	0xbc9494cc	-0.018137358
162	0xbcad0b5f	-0.021123586
163	0x3d6d4c91	0.057934348
164	0x3dc796b3	0.097455405
165	0x3da30ad3	0.07961049
166	0xbd309205	-0.043108005
167	0xbd5d14a2	-0.053974755
168	0xbd72f19f	-0.05931246
169	0x3db33494	0.08750263
170	0x3cb5e886	0.022205602
171	0xbdaf5d82	-0.08562757
172	0xbd8b7ea1	-0.06811262
173	0xbc019ceb	-0.007910947
174	0x3b67aa33	0.003534925
175	0xbd7763b7	-0.06039783
176	0x3db6521c	0.0890238
177	0xbdb0d09c	-0.08633539
178	0xbd073267	-0.03300705
179	0x3ceeeee7	0.029166652
180	0xbd869c7f	-0.06572818
181	0x3cbd1c34	0.023084737
182	0x3d4cb40f	0.049976405
183	0x3e0a75b6	0.13521466
184	0xbcbda732	-0.023151014
185	0x3d27f1c5	0.041002054
186	0xbd931a74	-0.0718278
187	0xbd66e126	-0.056367062
188	0xbd0f3bec	-0.034969255
189	0x3c7ea0df	0.015541284
190	0x3bdae30f	0.0066798995
191	0xbd8d35ce	-0.06895028
192	0xbcf6e5ce	-0.030138876
193	0xbe225e40	-0.15856266
194	0x3df34526	0.118784234
195	0x3d459893	0.04824121
196	0x3c731f0b	0.014838944
197	0x3c8415d2	0.016123686
198	0x3d4f1ef7	0.05056664
199	0x3b87f334	0.004148865
200	0xbcb1b35e	-0.021691974
201	0x3defa4b3	0.11701336
202	0x3d9c6d9a	0.07638092
203	0xbdc7e1d3	-0.097598694
204	0x3d060316	0.032717787
205	0x3de0c33e	0.109747395
206	0xbd1f7fbc	-0.038940176
207	0xbca2ce65	-0.019873807
208	0x3cdc86c9	0.02691974
209	0xbd677868	-0.056511313
210	0xbd27221a	-0.040804006
211	0xbbe74485	-0.0070577287
212	0xbd3525ea	-0.04422561
213	0xbe073101	-0.13202287
214	0xbd3dc6b0	-0.04633206
215	0x3d2cd5e9	0.042196188
216	0xbd176a86	-0.036966823
217	0x3d3345a6	0.043767594
218	0x3c8dc7e5	0.017307231
219	0xbdac2972	-0.084063426
220	0x3d93d010	0.07217419
221	0x3e103bee	0.14085361
222	0x3c199df1	0.009376035
223	0xbd742fa1	-0.059615735
224	0x3d9c5af8	0.076345384
225	0x3d098976	0.03357836
226	0xbcd1bd8c	-0.025603078
227	0xb7137a44	-8.79035e-06
228	0x3dc3102c	0.09524569
229	0xbdc7614a	-0.09735353
230	0xbdbec2e8	-0.09314519
231	0x3d5c8f27	0.05384746
232	0x3c01b28b	0.007916103
233	0xbce14840	-0.027500272
234	0xbe112375	-0.14173682
235	0xbada8003	-0.001667023
236	0xbd715601	-0.05891991
237	0xbc48a3b8	-0.012246065
238	0xbca4761f	-0.020075856
239	0xbc533783	-0.012891653
240	0x3df314a9	0.11869175
241	0x3dcf0c3d	0.10109756
242	0x3da612fa	0.08109088
243	0xbbaea8d7	-0.005330186
244	0xbd7d6c7b	-0.061871033
245	0xbdbcc8ba	-0.09217973
246	0xbba2c72c	-0.004967591
247	0x3de6058c	0.11231527
248	0xbc4ae6b0	-0.012384102
249	0xbd6f18c8	-0.058373243
250	0xbdcad483	-0.09903815
251	0xbc8d8735	-0.017276386
252	0x3ac871ca	0.0015292701
253	0x3c9f84e4	0.019472547
254	0x3c5bdd47	0.013419456
255	0x3ce1e6f6	0.027575951

ablang_branch.0.bias f4 [256]
0	0x3b9fedbd	0.0048806355
1	0xbb077c78	-0.0020673554
2	0xbbd1f759	-0.00640766
3	0x3b87b1ba	0.0041410597
4	0x3b9ea4b6	0.0048414124
5	0xbb361a6f	-0.0027786752
6	0xbc2a81a2	-0.010406883
7	0xbbb1b64a	-0.005423342
8	0xbb039034	-0.0020074965
9	0xbb09a657	-0.0021003687
10	0x3af2d0fc	0.0018525417
11	0xba824bbf	-0.0009940787
12	0xbb06be36	-0.0020560152
13	0x3ab7d0b3	0.0014023989
14	0x3b48d73d	0.003064587
15	0x3b57a5ce	0.0032905224
16	0xbb0ef9b6	-0.002181632
17	0xbc39d96b	-0.01134334
18	0x3b858ffb	0.0040760017
19	0xbb95b776	-0.0045689894
20	0x3bc128a1	0.005894736
21	0x399fe7e6	0.0003049962
22	0x3c42cbc4	0.011889402
23	0xbc050ab4	-0.008120228
24	0xbb49bedd	-0.003078393
25	0x3ba15386	0.004923287
26	0x3b63c7d8	0.0034756567
27	0xbb335714	-0.0027365135
28	0x3bee8523	0.0072790547
29	0x3bb5f679	0.0055530635
30	0xbc0d731f	-0.008633404
31	0x3ca00192	0.019531999
32	0x3b7b29cc	0.0038324473
33	0xb9190ec1	-0.00014596713
34	0x38d405eb	0.0001011005
35	0x3c498bd2	0.012301402
36	0xbb554b68	-0.0032546166
37	0x3aa35798	0.0012462018
38	0xbb124b3f	-0.0022322682
39	0x3b29e8bb	0.0025926072
40	0x3b8e5318	0.0043434016
41	0x3a4e20df	0.00078631745
42	0x3a878822	0.0010340253
43	0x3b677374	0.0035316618
44	0x3adb316f	0.0016723106
45	0x3b5bcadc	0.0033537662
46	0x3b795daf	0.0038050225
47	0x399b6a65	0.00029643174
48	0x3c1ba525	0.009499823
49	0x3c34a75f	0.0110262325
50	0x3c1756aa	0.009236971
51	0x3b902c16	0.0043997867
52	0x3c2c7ebe	0.010528265
53	0x3c63676b	0.013879637
54	0x3c4d570b	0.01253296
55	0xbbb5261b	-0.005528224
56	0xbc085ace	-0.008322431
57	0xbbbcc38e	-0.0057606166
58	0xbc335598	-0.0109457
59	0xbc065642	-0.008199276
60	0xbaaca29c	-0.001317102
61	0x3a0cb82c	0.000536802
62	0x3b994e7f	0.004678547
63	0xbba7d1ed	-0.0051214607
64	0x3c0c53ad	0.008564872
65	0xbae3ced1	-0.0017380362
66	0x3b48099b	0.0030523303
67	0xbc2127f4	-0.009836186
68	0x3c49b965	0.012312268
69	0x3b609b27	0.0034272166
70	0x3a9ee6cb	0.0012123225
71	0x3bde7fb2	0.006790125
72	0x3b355f82	0.0027675335
73	0x3c1ce52f	0.009576126
74	0x395359f6	0.00020156041
75	0x3abb9e2d	0.0014314108
76	0x3bd739e6	0.0065681813
77	0xb9b3f8ad	-0.00034326818
78	0xba9f1ef9	-0.0012139968
79	0x3c1b9fe5	0.009498571
80	0x3b9f1eb2	0.004855954
81	0xbbd0cd29	-0.0063721132
82	0x3aa5a0db	0.001263644
83	0x3b80da98	0.0039323084
84	0xbc0446a1	-0.00807348
85	0xbb4f2c77	-0.0031612196
86	0xbb5f01ad	-0.0034028098
87	0xbb16c8ae	-0.0023007798
88	0x3ad0e8d7	0.0015938532
89	0x3c5a9636	0.013341477
90	0xbb15532d	-0.0022785172
91	0xb7c8f84a	-2.3957477e-05
92	0x3aeb9b7c	0.0017975415
93	0xbb1d00ac	-0.00239567
94	0xbb07e414	-0.002073531
95	0x3c2d6260	0.010582536
96	0x3b89222e	0.0041849827
97	0x3a23d6aa	0.0006249944
98	0x3afe640d	0.001940848
99	0x3bdc7219	0.0067274687
100	0xbc0198df	-0.007909982
101	0x3c08c6c1	0.008348168
102	0x3ca61d01	0.020277502
103	0x3b2608ef	0.0025334915
104	0x3c2bc183	0.0104831485
105	0xbbd2b63d	-0.006430416
106	0xbbd9dc51	-0.006648578
107	0x3c6382d4	0.013886172
108	0xbc00d1d4	-0.007862527
109	0xbb67a77c	-0.0035347631
110	0x3c297177	0.0103419935
111	0x3b7668dd	0.0037599124
112	0xbafa9c3c	-0.0019120048
113	0xbcc7ca61	-0.024388494
114	0x3be0eeab	0.006864389
115	0x3c4669c1	0.012110175
116	0x3b8de757	0.0043305564
117	0x39f4b87c	0.00046676758
118	0x3af75f6d	0.0018873044
119	0x3c0cafc1	0.008586825
120	0xbb8a8125	-0.004226821
121	0x3b1257eb	0.0022330235
122	0xbc642829	-0.013925591
123	0xbbd05636	-0.0063579334
124	0x3be04cbf	0.0068450863
125	0x3c2cb957	0.010542235
126	0x3b2e357b	0.002658217
127	0xbc4993ad	-0.012303275
128	0xbb815d5a	-0.003947896
129	0x3b9f4948	0.0048610307
130	0x3b78829e	0.003791965
131	0x3b85769c	0.004072977
132	0xbbbcb59e	-0.005758955
133	0x3c2aa423	0.01041511
134	0xbabc96fc	-0.0014388259
135	0xbc1dd646	-0.009633606
136	0x3b5bcf0b	0.0033540155
137	0x3be34163	0.006935285
138	0xbb084738	-0.0020794403
139	0xbbeb731f	-0.0071853544
140	0xbabd4e3e	-0.0014442874
141	0x3a4aaf4b	0.0007731809
142	0xbc34f9e9	-0.011045911
143	0x3c1d5763	0.009603354
144	0x3b1c3150	0.0023833103
145	0xbc8de2a1	-0.01731998
146	0xbba73c18	-0.0051035993
147	0x3bc0f9e1	0.005889163
148	0xbb764fd4	-0.0037584202
149	0xbc053a2e	-0.008131547
150	0xbb1a3432	-0.0023529646
151	0x3ba7bf62	0.00511925
152	0x3aa8ba49	0.00128729
153	0xbb7b00ea	-0.0038300105
154	0x3b7327f8	0.003710268
155	0x3c48abd6	0.012248
156	0x3b89c477	0.0042043286
157	0xbbac5af4	-0.005259866
158	0x3bc612e2	0.0060447315
159	0x3bf46226	0.0074579893
160	0x3b773a83	0.0037724085
161	0x3c7db802	0.015485765
162	0xbb3d90aa	-0.0028925338
163	0xbc2264eb	-0.009911756
164	0xba64f4a1	-0.00087339623
165	0xba56042a	-0.00081640726
166	0x3b5f56bb	0.0034078795
167	0x3bc4c35f	0.0060047354
168	0x3c986205	0.018601427
169	0x3aa08ec8	0.0012249583
170	0x3b9bf784	0.004759731
171	0xba62618c	-0.00086357514
172	0xbbce8ad4	-0.0063031707
173	0xbb60c320	-0.003429599
174	0x3c8096dd	0.015696937
175	0xbad39640	-0.00161428
176	0x3c596d1b	0.013270642
177	0x3c000295	0.007813116
178	0xbb1cf533	-0.002394986
179	0xbbc85885	-0.006114068
180	0x3bf84abc	0.0075772684
181	0xba203894	-0.00061119464
182	0xbbc10dc2	-0.0058915326
183	0xbafe4953	-0.0019400514
184	0x3ac01b8a	0.0014656645
185	0x3b4504cf	0.003006268
186	0x3aabae26	0.0013098165
187	0x39d0c92e	0.00039822742
188	0x3bd6d5d6	0.006556253
189	0x3a65bef9	0.0008764114
190	0x3c8a076e	0.016849246
191	0xbaa3fcc2	-0.0012511241
192	0xbb36247e	-0.0027792747
193	0xbb38dd1d	-0.0028207966
194	0xbb8991e5	-0.0041983
195	0xbbabfd2e	-0.005248687
196	0x3c8eeb56	0.017446201
197	0xbbe7e140	-0.0070764124
198	0x3bb9649e	0.0056577465
199	0xbc1cb65c	-0.009564962
200	0x3c32d4cb	0.010914992
201	0x3c1916a4	0.009343777
202	0xbbcd53f9	-0.006266114
203	0xbb797e38	-0.0038069617
204	0x3a3ae18d	0.00071289466
205	0xbc6f01cd	-0.014587832
206	0x3c274fca	0.010211894
207	0x3c643ce6	0.013930535
208	0x3bce73a8	0.0063004084
209	0x3b87d30a	0.004145031
210	0x3bb461f8	0.005504843
211	0x3b653c69	0.0034978634
212	0xbb5cd57e	-0.0033696587
213	0x3c68ac60	0.014201254
214	0x3c0ab06a	0.008464912
215	0xbabb019f	-0.0014267451
216	0xb929ce8f	-0.00016194045
217	0x3a1d21fa	0.00059941376
218	0x3acfaa47	0.0015843593
219	0x3ae08f83	0.0017132614
220	0xb9bf8fdb	-0.0003653754
221	0xbba3b0c5	-0.004995438
222	0xb958ee92	-0.0002068824
223	0x3b831e8e	0.004001445
224	0x3c6adfc2	0.014335575
225	0xbb88d57a	-0.004175839
226	0x3c5574dc	0.01302835
227	0xbb56379f	-0.0032686961
228	0xbacf4d20	-0.0015815832
229	0xbc1a0feb	-0.009403209
230	0xbb976293	-0.0046199053
231	0xbb2b305d	-0.0026121356
232	0xb89e5b5e	-7.5510456e-05
233	0xbc4f2bf3	-0.012644756
234	0x3bd933ad	0.0066284747
235	0x3b0223da	0.0019857795
236	0xbb9ffbd8	-0.004882317
237	0x3c519228	0.012791194
238	0xbc043a27	-0.008070505
239	0x3bc46c7f	0.005994379
240	0x3c8e3297	0.017358107
241	0x3c094fa1	0.008380801
242	0x3be8b848	0.007102046
243	0x39a90163	0.00032235225
244	0xbbaae42e	-0.0052151894
245	0xbb55b22e	-0.0032607424
246	0x3c719867	0.014745808
247	0xb92088eb	-0.00015309795
248	0x3c17a10e	0.009254707
249	0xba27bbdd	-0.0006398538
250	0xbbe5a6b5	-0.0070083984
251	0xbb972a85	-0.004613223
252	0xbad1a497	-0.0015994486
253	0x3b34cda5	0.0027588394
254	0xbb8c1570	-0.0042750165
255	0x3c1ad7aa	0.009450832

ablang_branch.1.weight f4 [256]
0	0x3f7e7b5d	0.9940699
1	0x3f7ec51a	0.99519503
2	0x3f7eb4c0	0.9949455
3	0x3f7b370a	0.9813086
4	0x3f7c5ae4	0.9857619
5	0x3f7b1372	0.98076546
6	0x3f7b5edd	0.98191625
7	0x3f7854a8	0.97004175
8	0x3f7c67f0	0.98596096
9	0x3f7e6811	0.9937754
10	0x3f7e9c1c	0.99456954
11	0x3f7ea5d5	0.9947179
12	0x3f80a63a	1.0050728
13	0x3f80cbc4	1.0062184
14	0x3f7f1710	0.99644566
15	0x3f823cc6	1.0174797
16	0x3f7d0da4	0.9884894
17	0x3f8374be	1.0270002
18	0x3f7d6672	0.98984444
19	0x3f7df64b	0.9920394
20	0x3f8105cf	1.0079898
21	0x3f7e9d1f	0.994585
22	0x3f806d39	1.0033332
23	0x3f804c79	1.0023338
24	0x3f7e0314	0.99223447
25	0x3f81386b	1.0095342
26	0x3f7e7da9	0.9941049
27	0x3f7f7e3e	0.99802005
28	0x3f7f9bbe	0.9984702
29	0x3f7f3903	0.9969637
30	0x3f7f912b	0.99830884
31	0x3f85586a	1.0417607
32	0x3f7b0979	0.9806133
33	0x3f7eddbb	0.99557084
34	0x3f7e439b	0.9932191
35	0x3f84b577	1.0367879
36	0x3f7dc144	0.99123025
37	0x3f7e3c4d	0.9931076
38	0x3f7f3ef0	0.9970541
39	0x3f7ec635	0.9952119
40	0x3f821197	1.0161618
41	0x3f825346	1.0181663
42	0x3f7bfc36	0.9843172
43	0x3f7da58c	0.9908073
44	0x3f7f6d9e	0.9977664
45	0x3f7a7ec1	0.9784966
46	0x3f7f3f15	0.9970563
47	0x3f81edda	1.0150712
48	0x3f7f0a7e	0.99625385
49	0x3f7d5542	0.9895822
50	0x3f81cfa1	1.0141488
51	0x3f7e6f43	0.9938852
52	0x3f7d5c6a	0.9896914
53	0x3f7ca2ec	0.986861
54	0x3f810600	1.0079956
55	0x3f7bfdf2	0.98434365
56	0x3f80561e	1.0026281
57	0x3f7b80b1	0.9824324
58	0x3f7f52b4	0.9973557
59	0x3f7da0ea	0.9907366
60	0x3f7d91e2	0.99050725
61	0x3f7f3620	0.99691963
62	0x3f81d294	1.0142388
63	0x3f8014ed	1.0006386
64	0x3f8030a4	1.0014844
65	0x3f80a50b	1.0050367
66	0x3f8176c8	1.0114374
67	0x3f7ee0ed	0.9956196
68	0x3f807c6f	1.0037974
69	0x3f7cc621	0.9873982
70	0x3f823e39	1.0175239
71	0x3f8064ee	1.0030801
72	0x3f805509	1.0025951
73	0x3f8003b9	1.0001136
74	0x3f7f87b3	0.99816436
75	0x3f831587	1.0240945
76	0x3f7eb339	0.9949222
77	0x3f7a61fe	0.97805774
78	0x3f8021f0	1.0010357
79	0x3f801feb	1.000974
80	0x3f844df8	1.0336294
81	0x3f7a5e72	0.9780036
82	0x3f81a0d5	1.0127207
83	0x3f800388	1.0001078
84	0x3f7dcbb2	0.9913894
85	0x3f818712	1.0119345
86	0x3f800f03	1.0004581
87	0x3f811a8d	1.0086228
88	0x3f7df7ce	0.99206245
89	0x3f8130c6	1.009301
90	0x3f859744	1.0436788
91	0x3f800f6c	1.0004706
92	0x3f7897fa	0.971069
93	0x3f7c167c	0.9847181
94	0x3f7d61c8	0.9897733
95	0x3f81aeb0	1.0131435
96	0x3f7feb3d	0.9996832
97	0x3f7e02ec	0.9922321
98	0x3f7d8cd7	0.9904303
99	0x3f7fab64	0.99870896
100	0x3f7f955c	0.9983728
101	0x3f809992	1.0046866
102	0x3f80eb39	1.0071784
103	0x3f7eb3a8	0.99492884
104	0x3f801855	1.0007426
105	0x3f8008ba	1.0002663
106	0x3f836b3a	1.0267098
107	0x3f82764c	1.0192351
108	0x3f810fe6	1.0082977
109	0x3f8186a9	1.011922
110	0x3f806f5d	1.0033985
111	0x3f80c5e8	1.0060396
112	0x3f7fa3b1	0.9985915
113	0x3f82dfe2	1.0224574
114	0x3f7f9326	0.99833906
115	0x3f7ea675	0.99472743
116	0x3f7f0f3b	0.99632615
117	0x3f7e9fe8	0.9946275
118	0x3f79cec3	0.9758112
119	0x3f7f3ffc	0.9970701
120	0x3f7b6233	0.98196715
121	0x3f7bf051	0.9841357
122	0x3f800684	1.0001988
123	0x3f7ca301	0.98686224
124	0x3f808d3d	1.0043103
125	0x3f7c940e	0.98663414
126	0x3f7e7ce9	0.9940935
127	0x3f7ba363	0.98296183
128	0x3f7ae9fc	0.9801328
129	0x3f81dc51	1.014536
130	0x3f7d129c	0.9885652
131	0x3f7cb60b	0.98715276
132	0x3f80d9bc	1.0066447
133	0x3f809478	1.0045309
134	0x3f81d850	1.0144138
135	0x3f7cef7b	0.9880292
136	0x3f80f1c6	1.0073783
137	0x3f7ebe9d	0.995096
138	0x3f81022d	1.0078789
139	0x3f7bf28e	0.98416984
140	0x3f8104b1	1.0079557
141	0x3f8083c8	1.0040216
142	0x3f81c7a7	1.0139054
143	0x3f8055b3	1.0026153
144	0x3f7fbc0f	0.9989633
145	0x3f7b8ad1	0.9825869
146	0x3f81082e	1.0080621
147	0x3f7bd9c0	0.98379135
148	0x3f7b80a9	0.98243195
149	0x3f7b3088	0.9812093
150	0x3f7be2a2	0.9839269
151	0x3f80dd8d	1.0067612
152	0x3f7c6b60	0.9860134
153	0x3f807981	1.003708
154	0x3f7d3e71	0.98923403
155	0x3f803b1b	1.0018038
156	0x3f82e220	1.0225258
157	0x3f7e2a90	0.99283695
158	0x3f7ef7db	0.9959695
159	0x3f816938	1.0110235
160	0x3f7f5b15	0.99748355
161	0x3f809de1	1.0048181
162	0x3f7f91fb	0.99832124
163	0x3f7cb446	0.98712575
164	0x3f802f5d	1.0014454
165	0x3f7cf45d	0.9881037
166	0x3f7fb9f6	0.9989313
167	0x3f7e84a9	0.99421173
168	0x3f8116b2	1.0085051
169	0x3f7e67a7	0.9937691
170	0x3f8009b1	1.0002958
171	0x3f7d8a13	0.9903881
172	0x3f7ffede	0.9999827
173	0x3f7f6581	0.9976426
174	0x3f827b19	1.0193816
175	0x3f814c77	1.010146
176	0x3f83a3a3	1.0284313
177	0x3f7d8517	0.99031204
178	0x3f7e32af	0.9929609
179	0x3f80d743	1.0065693
180	0x3f8238b6	1.0173557
181	0x3f7e6bb8	0.99383116
182	0x3f8244e1	1.017727
183	0x3f7b09de	0.9806193
184	0x3f79d523	0.97590846
185	0x3f81113a	1.0083382
186	0x3f7d4a6b	0.9894168
187	0x3f7fe27f	0.9995498
188	0x3f7d505f	0.9895076
189	0x3f7fd6d4	0.99937177
190	0x3f7eabe9	0.99481064
191	0x3f7aec66	0.98016965
192	0x3f7f9320	0.9983387
193	0x3f805442	1.0025713
194	0x3f7febd6	0.9996923
195	0x3f82e742	1.0226824
196	0x3f847615	1.0348536
197	0x3f7b0232	0.98050225
198	0x3f7f19f8	0.99649
199	0x3f7f4f50	0.99730396
200	0x3f800b55	1.0003458
201	0x3f8210d1	1.0161382
202	0x3f7c7c35	0.98627025
203	0x3f80fb11	1.0076619
204	0x3f7ca794	0.98693204
205	0x3f82a397	1.0206174
206	0x3f822f0c	1.0170608
207	0x3f82ca55	1.0217997
208	0x3f83a1b8	1.0283728
209	0x3f771214	0.9651196
210	0x3f7b09c2	0.98061764
211	0x3f7fc662	0.99912083
212	0x3f81d53b	1.0143198
213	0x3f802006	1.0009773
214	0x3f8417d4	1.0319772
215	0x3f7dd393	0.9915096
216	0x3f81bfe7	1.0136689
217	0x3f7fdd8c	0.9994743
218	0x3f7e4038	0.9931674
219	0x3f811cf1	1.0086957
220	0x3f81c880	1.0139313
221	0x3f7fa1af	0.99856085
222	0x3f7f08de	0.99622905
223	0x3f7b4536	0.9815248
224	0x3f842fa9	1.0327045
225	0x3f7ce4a0	0.98786354
226	0x3f8071bd	1.003471
227	0x3f7a86aa	0.9786173
228	0x3f7e97d9	0.9945045
229	0x3f828e75	1.0199724
230	0x3f7c0536	0.9844545
231	0x3f80b777	1.0055989
232	0x3f80606d	1.0029427
233	0x3f7cea9c	0.98795485
234	0x3f7cbdfc	0.98727393
235	0x3f7e216e	0.9926976
236	0x3f7b9322	0.9827138
237	0x3f80279c	1.0012088
238	0x3f7fe342	0.9995614
239	0x3f7cb309	0.98710686
240	0x3f85bac5	1.0447623
241	0x3f7fcaec	0.9991901
242	0x3f830ab0	1.0237637
243	0x3f808029	1.0039111
244	0x3f80fea0	1.0077705
245	0x3f807fa6	1.0038955
246	0x3f8126b1	1.0089933
247	0x3f7b60f2	0.981948
248	0x3f810dab	1.0082296
249	0x3f7ed1f7	0.9953913
250	0x3f7dfe06	0.99215734
251	0x3f7d2b95	0.98894626
252	0x3f7dc631	0.9913054
253	0x3f81aacf	1.0130252
254	0x3f7f3bb4	0.99700475
255	0x3f7b4745	0.98155624

ablang_branch.1.bias f4 [256]
0	0x3b507130	0.0031805746
1	0xbbbd4a32	-0.005776667
2	0xbbed1d7f	-0.007236182
3	0xbb505147	-0.0031786726
4	0xbbab9ca0	-0.005237177
5	0xbbf0bcc0	-0.0073467195
6	0xbc9b1e9e	-0.018935498
7	0xbc02ba51	-0.007978992
8	0xbbd7ca7f	-0.0065854187
9	0xbc2034e7	-0.009778238
10	0xbbbd90a7	-0.005785066
11	0xbc9199cf	-0.017773537
12	0xbba35344	-0.0049842913
13	0x3b5555c0	0.0032552332
14	0xbc2bdae7	-0.010489202
15	0x373f5288	1.1403703e-05
16	0xbc391569	-0.0112966085
17	0xbc67f53e	-0.014157591
18	0xbc30d43f	-0.010792791
19	0xbc75c441	-0.015000404
20	0x3c2c5be3	0.010519954
21	0xb9941745	-0.00028246097
22	0x3befd14c	0.0073186513
23	0xbc14056d	-0.009034497
24	0xbbca4da1	-0.006173805
25	0x3b7afa6d	0.0038296238
26	0x38e9213d	0.00011116497
27	0xbc128e8c	-0.008945119
28	0x3bc38058	0.0059662275
29	0x3a54b6f2	0.0008114419
30	0xbc2e7eb2	-0.010650324
31	0x3cafd525	0.02146394
32	0xbc5af3f1	-0.013363824
33	0xbc40e98d	-0.011774433
34	0xbc88a9d5	-0.016682545
35	0x3c74a935	0.01493292
36	0xbb59a648	-0.0033210684
37	0xbca454fe	-0.020060059
38	0xbc133daa	-0.00898687
39	0xbc0d86b8	-0.0086380765
40	0x3b87c17e	0.004142939
41	0xba69025e	-0.00088885974
42	0xbbb2d697	-0.00545771
43	0xbc043ece	-0.008071614
44	0xbc305f6d	-0.010764939
45	0xbbc7c9a5	-0.006097036
46	0xbc9e018d	-0.019287849
47	0xbb03f997	-0.002013778
48	0x3c11da34	0.008902121
49	0xba2eddad	-0.00066706055
50	0x3c14ca77	0.0090814745
51	0x39ef85de	0.0004568537
52	0x3b9ac1ae	0.0047227954
53	0xbac3adb5	-0.0014929088
54	0x3bc93c1f	0.0061412
55	0xbc01e00e	-0.007926954
56	0xbc679983	-0.014135721
57	0xbc6e248d	-0.014535082
58	0xbc7d8d54	-0.01547559
59	0xbc2bc557	-0.010484061
60	0xbb907735	-0.004408742
61	0xbc5af39c	-0.013363745
62	0x3a44c556	0.0007506212
63	0xbbd83417	-0.0065980065
64	0x3bc135af	0.005896292
65	0xbc8f47b9	-0.017490255
66	0xbcc7bddc	-0.024382524
67	0xbc865aa8	-0.01640065
68	0x3be4710e	0.006971485
69	0xbc4d9731	-0.012548254
70	0x39691f94	0.00022232375
71	0x3ab2ac02	0.0013631585
72	0x3b3820de	0.0028095762
73	0x3c12db96	0.008963486
74	0xbc42fe79	-0.011901491
75	0xba1c296a	-0.0005957099
76	0xbaf1458e	-0.001840757
77	0xbc965a01	-0.018353464
78	0xbc75abdc	-0.014994588
79	0x3bcbaa19	0.0062153456
80	0x3bc70814	0.006073961
81	0xbbbb2a56	-0.005711834
82	0xbcc81cd4	-0.024427809
83	0x3a33c849	0.0006858153
84	0xbc869775	-0.016429642
85	0xbce78d41	-0.028265597
86	0xbb91ae10	-0.0044457987
87	0xbc676397	-0.014122865
88	0xbc6a9089	-0.014316686
89	0x3c74a03c	0.014930781
90	0xb91b96bd	-0.00014838106
91	0xbc93a80b	-0.018024465
92	0xbbe9e0ab	-0.007137378
93	0xbc550485	-0.013001566
94	0xbb2f3d70	-0.00267395
95	0x3c05c3bc	0.0081643425
96	0xb91a4871	-0.00014713571
97	0xbb85a7cc	-0.004078841
98	0xbc09641f	-0.008385687
99	0x3bc8bc38	0.006125953
100	0xbbc3cbba	-0.005975214
101	0x3c447472	0.011990653
102	0x3cbf6c62	0.02336711
103	0xbbcfbf28	-0.0063399263
104	0x3c3f7b87	0.011687166
105	0xbcadfe37	-0.021239383
106	0xbcf904f3	-0.030397868
107	0x3c3d2904	0.011545423
108	0xbc2ffbea	-0.010741213
109	0xbb11a1fc	-0.0022221794
110	0x3c0f4bce	0.008746101
111	0xbc895e39	-0.016768562
112	0xbc5cef55	-0.013484796
113	0xbcedd6df	-0.029033123
114	0x3a6406ae	0.0008698505
115	0x3c941270	0.018075198
116	0x3a9e00ad	0.0012054645
117	0xbafe8fe6	-0.0019421547
118	0xbb62aa75	-0.0034586464
119	0x3bbe6c7a	0.0058112713
120	0xbc6ca9ca	-0.014444778
121	0xbbc87ab0	-0.006118141
122	0xbcac0e8e	-0.021003034
123	0xbc025d1a	-0.007956767
124	0x3b9d7769	0.0048054946
125	0x3bb66eb0	0.005567394
126	0x3b3ee9e2	0.0029131104
127	0xbc7c1907	-0.015386826
128	0xbc422791	-0.011850254
129	0xbc993e09	-0.018706338
130	0x3a79610d	0.0009513058
131	0xbb3d1b1b	-0.0028855267
132	0xbc272496	-0.010201594
133	0x3bbde22f	0.0057947855
134	0xbc4605d3	-0.01208635
135	0xbcaca296	-0.02107362
136	0xbc5e1b10	-0.013556257
137	0x3b84df59	0.0040549454
138	0xbc022f21	-0.007945807
139	0xbc89615f	-0.016770063
140	0x38a8bb95	8.045804e-05
141	0xbb91e396	-0.004452179
142	0xbcb60397	-0.022218509
143	0xbac9417e	-0.0015354601
144	0xbc6bf313	-0.014401215
145	0xbc9ac1d7	-0.018891258
146	0xbc74d1d6	-0.014942607
147	0xba91c986	-0.0011122681
148	0xbc2120a4	-0.009834442
149	0xbc604d37	-0.013690284
150	0xbba047fb	-0.0048913932
151	0x3b2633fd	0.0025360577
152	0xbbd5a2e0	-0.0065196604
153	0xbca2b82e	-0.019863214
154	0x3b4ad5c0	0.0030950159
155	0x3c28490c	0.010271322
156	0x3b6ea4b9	0.00364141
157	0xbc98c51d	-0.018648678
158	0x3bf14c22	0.007363812
159	0xbb4928dd	-0.0030694522
160	0x3b1b3a9c	0.0023686057
161	0x3c411a4c	0.011786055
162	0xbb520165	-0.0032044288
163	0xbc862064	-0.016372867
164	0xbb115336	-0.0022174842
165	0xbc2e2068	-0.010627843
166	0xbc38a26c	-0.011269193
167	0x3892ccde	6.999982e-05
168	0x3c6d7413	0.014493006
169	0xbba7f768	-0.0051259287
170	0x3b2e1340	0.0026561767
171	0xbc7dedd7	-0.0154986
172	0xbcaf75c3	-0.021418458
173	0xbcae0f5d	-0.02124756
174	0x3c9cb97e	0.019131418
175	0xbc54444b	-0.012955735
176	0x3c4bcdbf	0.01243919
177	0x3bcbced4	0.006219724
178	0x3a9198b8	0.0011108136
179	0xbc0ceb32	-0.008600997
180	0x3c17fecd	0.009277058
181	0xbc6fd531	-0.014638231
182	0xbc476a5b	-0.012171353
183	0xbc9021f8	-0.017594323
184	0x3bd41e86	0.0064733652
185	0xbc219ce9	-0.00986407
186	0xbc7dc2c7	-0.015488333
187	0x3b62faf4	0.0034634443
188	0xbb878a77	-0.0041363793
189	0xbc94b33f	-0.018151877
190	0x3c48cf85	0.012256508
191	0xbc57c7a1	-0.013170154
192	0xbcb4f56b	-0.02208968
193	0xbc35cb70	-0.011095867
194	0xbc0e0907	-0.0086691445
195	0xbca935df	-0.02065557
196	0x3ca615ac	0.020274006
197	0xbc9d3fa8	-0.019195393
198	0xbc4d689e	-0.01253715
199	0xbc3e517f	-0.01161611
200	0x3b49b05e	0.003077529
201	0x3c05b5f5	0.008161058
202	0xbbe2514e	-0.006906665
203	0xba815542	-0.0009867328
204	0xbc08fa2f	-0.00836043
205	0xbcc2c536	-0.023775678
206	0x3c204a2a	0.009783307
207	0xbc48d341	-0.012257398
208	0x3bd4ecb8	0.0064979456
209	0x3ab845b0	0.0014058854
210	0xbc443ea7	-0.011977828
211	0xbbb8deb6	-0.0056417836
212	0xbb4a993c	-0.0030914089
213	0x3c2039a8	0.009779371
214	0x3c3d932b	0.011570732
215	0xbb8fc1ea	-0.00438713
216	0xbb08369c	-0.0020784503
217	0xbc9c67b3	-0.019092416
218	0xbb89b8f6	-0.0042029573
219	0x3b36e6a5	0.002790847
220	0xbc00e293	-0.0078665195
221	0xbc53aa09	-0.0129189575
222	0xbbdaafde	-0.006673797
223	0xbb3aa922	-0.0028482159
224	0x3c91388c	0.017727159
225	0xbc8748df	-0.01651424
226	0x3c28bf9c	0.0102995895
227	0xbbb5e3c4	-0.0055508334
228	0xbb1ab7b7	-0.0023608038
229	0xbd05e887	-0.03269246
230	0xbbee2b40	-0.0072683394
231	0xbc92fffa	-0.017944325
232	0x3b8e5591	0.0043436964
233	0xbc88e86d	-0.016712392
234	0x3a413012	0.0007369529
235	0xbbb365af	-0.005474768
236	0xbc748328	-0.014923848
237	0x3b942be9	0.004521836
238	0xbc6b14de	-0.014348237
239	0x3a2257b5	0.0006192879
240	0x3c9e1e6e	0.01930162
241	0xbc31abf0	-0.010844216
242	0x3bf613b2	0.007509672
243	0xbba4358c	-0.005011266
244	0xbbf76da8	-0.007550914
245	0xbbc5ae22	-0.006032721
246	0x3c7d7f99	0.015472316
247	0xbc06e378	-0.008232944
248	0xb9b3b4cd	-0.00034276248
249	0xbc8a0bec	-0.016851388
250	0xbc728b39	-0.014803701
251	0xbc4ac891	-0.01237692
252	0xbc4fc74d	-0.012681794
253	0xbb7a67ed	-0.0038208917
254	0xbc09c929	-0.008409777
255	0x3bfedcc1	0.0077777808

ablang_branch.4.weight f4 [128, 256]
0	0xbd68d459	-0.056843136
1	0xbe3263a5	-0.17420824
2	0xbcc3cf11	-0.023902448
3	0xbd915992	-0.07097162
4	0xbe2aee9c	-0.16692585
5	0x3e78379f	0.24239968
6	0xbe0918f6	-0.13388428
7	0x3d012a26	0.031534337
8	0xbc317258	-0.010830484
9	0x3c0d1446	0.008610791
10	0xbd5af37d	-0.053454865
11	0xbd847b9b	-0.06468888
12	0x3d8f613d	0.070009686
13	0xbcedb50b	-0.029016992
14	0xbc417833	-0.011808443
15	0x3ca58c20	0.020208418
16	0x3c106ec9	0.008815476
17	0x3d3f9b34	0.046778873
18	0x3d9da85c	0.076981276
19	0xbe0e4876	-0.13894829
20	0x3d0cc9b1	0.034372035
21	0x3b2c6c26	0.0026309579
22	0x3d82f750	0.06394827
23	0xbc847e94	-0.016173638
24	0xbcfc4c17	-0.030798001
25	0x3e51572b	0.20443408
26	0x3d79e8c6	0.061013006
27	0x3b520c52	0.00320508
28	0xbdc4da7c	-0.09611985
29	0x3d8714ca	0.06595762
30	0xbd322466	-0.043491744
31	0x3e455877	0.19272028
32	0xbdbc5cb4	-0.09197369
33	0xbc66fc24	-0.014098201
34	0xbdc2e1e6	-0.09515743
35	0xbc40ea8b	-0.011774669
36	0x3d8d0573	0.06885805
37	0xbd05af79	-0.032638047
38	0xbc7a4b05	-0.015276675
39	0x3db2a6f2	0.087232485
40	0x3dbb0c3d	0.09133194
41	0xbc1e65c0	-0.009667814
42	0x3d3262a5	0.043551106
43	0xbb97a1e8	-0.004627455
44	0x3d284af7	0.041087117
45	0x3bb04ef0	0.005380504
46	0xbe19e561	-0.15028907
47	0xbe2a6868	-0.1664139
48	0x3d1df463	0.038563143
49	0x3d7ddc10	0.061977446
50	0x3e8a5f62	0.27025896
51	0x3e23dd6e	0.16002437
52	0x3a89e6ef	0.0010521094
53	0xbcf085a7	-0.029360605
54	0xbb8f2c7e	-0.0043693176
55	0x3d1d1aa0	0.03835547
56	0x3d1b1818	0.037864774
57	0xbdb51869	-0.088425465
58	0x3d294346	0.041323923
59	0xbc4d1f9e	-0.012519745
60	0xbda13299	-0.07870979
61	0xbd341706	-0.04396727
62	0xbdf14452	-0.11780609
63	0x3d1df0ae	0.03855961
64	0x3bd2d83d	0.006434469
65	0xbd8cb6dc	-0.06870815
66	0xbd456f77	-0.048202004
67	0xbdcd698c	-0.10029897
68	0x3cf10bff	0.029424665
69	0x3c609959	0.013708436
70	0x3dd0ad21	0.10189272
71	0xba9ad65e	-0.0011813154
72	0xbcd9bbc9	-0.0265788
73	0xbe5801fb	-0.21094505
74	0xbca9d2be	-0.020730373
75	0xbd847251	-0.064671166
76	0x3d3fad83	0.046796333
77	0x3e1d3c4b	0.15355031
78	0xbd4f6853	-0.0506366
79	0xbbc54768	-0.006020475
80	0xbe3bc93f	-0.18338488
81	0xbdb8042d	-0.089851715
82	0xbe411bde	-0.18858287
83	0x3d925192	0.071444646
84	0x3da045b9	0.078257985
85	0xbb03197f	-0.002000421
86	0x3d41b04f	0.04728728
87	0xbda8fcaf	-0.082513206
88	0x3d60d2b4	0.054888442
89	0xbd4868e2	-0.04892815
90	0x3c1163c1	0.008873881
91	0x3d8b29fd	0.06795118
92	0x3e2d4cb2	0.16923788
93	0x3dc70aaf	0.097188346
94	0xbcc1308b	-0.023582717
95	0xbcd6c039	-0.026214706
96	0xbd7db94b	-0.061944287
97	0x3d3e59de	0.046472423
98	0x3d74e280	0.05978632
99	0x3c034d5d	0.00801405
100	0xbdc6d3d7	-0.09708374
101	0xbe2d9f33	-0.16955261
102	0x3e317d3b	0.17332928
103	0x3dbfbe0e	0.09362422
104	0xbd29bf5b	-0.041442256
105	0x3e585387	0.21125613
106	0xbda51555	-0.080607094
107	0x3bc801ee	0.0061037457
108	0x3dd452ab	0.1036733
109	0xbda11c4c	-0.07866725
110	0x3c254701	0.010087729
111	0xbd8f45eb	-0.06995758
112	0x3e47f8bc	0.19528478
113	0xbd1407ca	-0.03614024
114	0xbc25c117	-0.010116837
115	0xbd0156e4	-0.031577006
116	0x3e10ecae	0.14152786
117	0xbc647cc7	-0.013945765
118	0xbdb95bcf	-0.09050714
119	0x3c4cae1c	0.012492683
120	0x3e0c25aa	0.13686243
121	0x3d483785	0.048881073
122	0xbb31ecc1	-0.0027149173
123	0x3b8b31dc	0.004247887
124	0xbdd78650	-0.10523665
125	0xbe1235d0	-0.1427834
126	0x3d111cb8	0.03542778
127	0xbcfa9257	-0.030587358
128	0x3c624c57	0.013812146
129	0xbdc19afe	-0.094533905
130	0x3e121275	0.14264853
131	0x3dbdd3ea	0.09268935
132	0x3ca7d537	0.020487411
133	0xbd8a2c11	-0.06746686
134	0x3d969191	0.07351983
135	0xbc513293	-0.0127684055
136	0xbce4f30c	-0.027947925
137	0xbd171678	-0.036886662
138	0x3d99a2b9	0.0750174
139	0x3ab6d39a	0.001394856
140	0x3b4a76e0	0.003089361
141	0xbcce9d9e	-0.025221642
142	0x3d2f0286	0.042727016
143	0x3da72d35	0.081629194
144	0x3c3897e7	0.011266685
145	0xbdefcd94	-0.11709133
146	0x3dbea54f	0.09308874
147	0x3d8c73d4	0.0685803
148	0x3b27fe07	0.002563359
149	0xbcbe7aa3	-0.023251837
150	0x3cd3693b	0.025807014
151	0x3d5fff0d	0.054686595
152	0x3e20a828	0.15689147
153	0xbd3d2e5b	-0.046186786
154	0x3d40dfaa	0.047088303
155	0x3b700c6e	0.0036628502
156	0xbd276119	-0.040864084
157	0x3d23b259	0.039965007
158	0x3ad36b17	0.0016129938
159	0xbcba93c4	-0.022775538
160	0xbdf8dd6a	-0.121516064
161	0x3dd2d9a8	0.10295421
162	0xbde89a98	-0.113576114
163	0xbc5915cb	-0.013249825
164	0xbdc75ce1	-0.09734512
165	0x3d5f1274	0.054460958
166	0xbcec7794	-0.028865613
167	0x3e080f4c	0.13287085
168	0xbd13cb1a	-0.036082365
169	0xbd8b9618	-0.068157375
170	0xbe432837	-0.1905831
171	0xbd879a3e	-0.06621216
172	0x3e063a73	0.13108234
173	0x3e3904d4	0.18068248
174	0x3dc23e90	0.09484589
175	0x3db82669	0.08991701
176	0xbe080e2b	-0.13286655
177	0xbe087e71	-0.13329484
178	0xbd8dd3ad	-0.069251396
179	0xbd5c70ce	-0.053818516
180	0x3d9172f4	0.07102004
181	0x3d13c605	0.036077518
182	0x3db983ef	0.090583675
183	0xbc20efbc	-0.009822782
184	0x3d04a1d3	0.03238089
185	0xbd2cb867	-0.042168047
186	0xbce1f63b	-0.027583232
187	0x3cd64207	0.026154531
188	0x3d8ffe81	0.07030965
189	0x3da5a158	0.080874145
190	0x3e0591f4	0.13043958
191	0x3d89f4cf	0.06736147
192	0xbdc803b5	-0.09766332
193	0x3d177f41	0.036986593
194	0xbd553ccf	-0.052059945
195	0x38905ca3	6.88371e-05
196	0xbc92b2a1	-0.017907443
197	0xbd601d79	-0.054715607
198	0x3d121266	0.035662077
199	0x3daba203	0.08380511
200	0xbc16c02c	-0.009201091
201	0xbcd1d165	-0.025612542
202	0xbe8823f2	-0.26589924
203	0xbc4389b6	-0.011934688
204	0x3d0031e6	0.031297587
205	0xbd1539c0	-0.036432028
206	0x3e15af82	0.14617732
207	0x3d7809ce	0.060556225
208	0xbda070b3	-0.07833996
209	0x3dda51b8	0.10660118
210	0x3c3c5902	0.0114958305
211	0xbbdcca00	-0.0067379475
212	0xbcf3268b	-0.029681465
213	0xbddddeb8	-0.10833496
214	0x3e2f821d	0.17139478
215	0x3c7854ac	0.015156906
216	0xbcc6f7e6	-0.024288129
217	0x3d8b6d5b	0.06807967
218	0x3c0f50b6	0.00874727
219	0x3e81c4ed	0.25345555
220	0x3dedf6f5	0.11619369
221	0x3d95a26e	0.07306372
222	0xbcdad429	-0.026712494
223	0x3e125ea9	0.14293922
224	0xbd885de3	-0.066585325
225	0xbd8e5d1b	-0.06951352
226	0x3c89f825	0.016841957
227	0xbe4ca2fe	-0.19984052
228	0x3da464be	0.080270275
229	0x3d561f92	0.0522762
230	0x3c9d49dd	0.01920026
231	0xbbfe9b41	-0.0077699726
232	0xbdfe237a	-0.1240911
233	0xbccfd17e	-0.025368448
234	0x3d202b7c	0.03910397
235	0x3c4ac28c	0.012375485
236	0x3d2e1460	0.0424999
237	0xbd78013b	-0.06054805
238	0xbc18c744	-0.009324852
239	0x3da3c05e	0.079956755
240	0x3cb820c5	0.022476563
241	0x3c8578ee	0.016293015
242	0x3e224a43	0.15848641
243	0x3c66c17d	0.014084217
244	0x3db8cb16	0.090231106
245	0xbd93e346	-0.07221083
246	0xbdb6590b	-0.08903702
247	0x3d7ceaa6	0.061747216
248	0x3dba9d6f	0.09112059
249	0x3b2bd3be	0.0026218737
250	0xbd92c579	-0.07166571
251	0x3e39e993	0.18155508
252	0xbd39a695	-0.04532488
253	0xbca6cda7	-0.020361735
254	0xbb884714	-0.004158864
255	0xbd1c62de	-0.038180225

ablang_branch.4.bias f4 [128]
0	0xbabbcd78	-0.0014328202
1	0xbc847bca	-0.016172308
2	0x3d39b99b	0.045343023
3	0xbc411fc4	-0.011787359
4	0xbbdd8a8d	-0.0067609013
5	0xbb394af5	-0.0028273438
6	0xbc8ba802	-0.017047886
7	0xbcd7a88a	-0.026325483
8	0xbc0396a1	-0.008031518
9	0x3b84be2a	0.0040509896
10	0x3ba5e8a8	0.005063135
11	0xbd186077	-0.03720137
12	0x3c8bce9c	0.017066292
13	0x3cfb5028	0.03067787
14	0x3d28687b	0.041115265
15	0xbca0cd03	-0.019629007
16	0x3ce32daa	0.027731735
17	0x3be50171	0.006988697
18	0x3c1884b3	0.009308982
19	0xbce94bb4	-0.02847848
20	0xbc9c464c	-0.019076489
21	0x3bdd3698	0.006750893
22	0xbcdf5154	-0.02726046
23	0xbbddf432	-0.006773495
24	0x3c3e7e69	0.011626818
25	0xbc8a179b	-0.01685696
26	0xbc589b97	-0.013220689
27	0xbb9eec1e	-0.0048499247
28	0xbc9e0189	-0.019287841
29	0xbcafdc15	-0.021467248
30	0xbb7aff77	-0.0038299242
31	0xbca301d3	-0.01989833
32	0x3bd914b0	0.0066247806
33	0xbc5eb6a9	-0.013593354
34	0x3c7cec61	0.0154372165
35	0x3bc16fc5	0.0059032165
36	0xbcd5b03d	-0.026085014
37	0x3c89e109	0.016830938
38	0xbc21c44b	-0.00987346
39	0xbba62c2d	-0.005071184
40	0xbc9040a7	-0.017608954
41	0xbc936ada	-0.017995287
42	0xbb551312	-0.0032512587
43	0xbc777e83	-0.015105846
44	0xbbcbb220	-0.0062163025
45	0xbc655a30	-0.013998553
46	0xbb49b1bb	-0.0030776102
47	0x3bfb8e5e	0.0076768836
48	0xbc5876c6	-0.013211912
49	0x3b8f46be	0.004372447
50	0xbc632c51	-0.013865546
51	0xbca5f88b	-0.020260116
52	0xba84bd6a	-0.001012725
53	0xbc581daa	-0.013190666
54	0x3d1a19ad	0.037622143
55	0xbbd86107	-0.0066033634
56	0xbd05ec9a	-0.032696344
57	0xbc805ac4	-0.01566828
58	0x3c8ba6d4	0.017047323
59	0x3c69ba65	0.014265631
60	0xbc3067dc	-0.0107669495
61	0x3ce76c1f	0.028249798
62	0x3c92a8c9	0.017902749
63	0x3bc1ac27	0.0059104147
64	0xbac0e1fb	-0.0014715785
65	0xbbb4eca2	-0.005521373
66	0xbb5e4538	-0.003391577
67	0xbc8410e7	-0.01612134
68	0xbbfc693b	-0.007702974
69	0xbb02a655	-0.0019935567
70	0x3b7a287f	0.003817111
71	0xbc8700ee	-0.016479935
72	0x3bf55afb	0.0074876524
73	0xbc1da435	-0.00962167
74	0x3cac82c6	0.021058451
75	0xbd26a096	-0.04068049
76	0x3c0e9cbd	0.0087043615
77	0x3caf7f16	0.021422904
78	0x3b079144	0.002068595
79	0xbb37fb93	-0.0028073534
80	0x3bbe3ae5	0.0058053606
81	0xbbe1da14	-0.006892452
82	0xbc1ad7df	-0.009450882
83	0x3cb9db2a	0.022687513
84	0x3c1da91f	0.009622841
85	0x3bc8a1a1	0.0061227833
86	0xbc2b47f8	-0.01045417
87	0xbcb4fbef	-0.022092788
88	0x3c3ae3f0	0.011406884
89	0xbc6d6143	-0.014488521
90	0xbc78eea4	-0.015193615
91	0xbc7ddaab	-0.015494029
92	0xb8533f78	-5.036543e-05
93	0xbcbf4dff	-0.023352621
94	0x3ac6aa9b	0.0015157046
95	0x3c947deb	0.018126449
96	0x3c836619	0.016039895
97	0xbbb54768	-0.005532194
98	0xbca18d8a	-0.019720811
99	0x3c6ad097	0.014331958
100	0xbc5b7b94	-0.013396163
101	0x3cfc2647	0.03077997
102	0xbcb3c577	-0.021944745
103	0xbc1efc48	-0.009703703
104	0x3c2d04ae	0.010560198
105	0xbc75ee9b	-0.015010501
106	0xbb2e5b9f	-0.0026604903
107	0x3b15fa92	0.0022884947
108	0xb9ff18c1	-0.00048655833
109	0xbbd5d20d	-0.006525284
110	0xbd21274c	-0.039344117
111	0x3c649412	0.013951318
112	0xbccf741a	-0.025323916
113	0x3b9f1727	0.004855055
114	0xbc14b418	-0.009076141
115	0xbc9850b4	-0.01859317
116	0x3aeaadba	0.0017904558
117	0x3cf77f36	0.030212026
118	0xba3f885a	-0.000730639
119	0xbc55663f	-0.013024866
120	0xbba39114	-0.00499166
121	0xbc0e7fbc	-0.008697446
122	0x3caf2291	0.021378787
123	0xbd0a53c0	-0.033771276
124	0x3c9908a3	0.018680876
125	0xbc982ec7	-0.018576993
126	0xbcbe6708	-0.023242489
127	0xbb196426	-0.002340564

ablang_branch.5.weight f4 [128]
0	0x3f7babb5	0.9830888
1	0x3f7d0492	0.988351
2	0x3f8461e5	1.0342375
3	0x3f7fcd3d	0.99922544
4	0x3f7cdda7	0.98775715
5	0x3f7f6456	0.99762475
6	0x3f7899e0	0.97109795
7	0x3f7cb109	0.98707634
8	0x3f7aab5d	0.9791773
9	0x3f7e21d4	0.9927037
10	0x3f80c93c	1.0061412
11	0x3f81096f	1.0081004
12	0x3f8091d1	1.00445
13	0x3f81ebf5	1.0150133
14	0x3f83e59e	1.0304449
15	0x3f7b7207	0.98220867
16	0x3f84cb1e	1.0374486
17	0x3f7df8c4	0.9920771
18	0x3f7f7be7	0.99798435
19	0x3f78f40f	0.97247404
20	0x3f7e0870	0.99231625
21	0x3f7e0936	0.99232805
22	0x3f79fc58	0.9765067
23	0x3f7a870c	0.97862315
24	0x3f7ea360	0.9946804
25	0x3f77d39a	0.96807253
26	0x3f7d17de	0.98864543
27	0x3f7efa24	0.99600434
28	0x3f7b1959	0.9808555
29	0x3f77ddd8	0.9682288
30	0x3f7f9466	0.99835813
31	0x3f74a05a	0.9555718
32	0x3f8040b5	1.0019747
33	0x3f7a7e9f	0.9784946
34	0x3f7e8dce	0.99435127
35	0x3f7c5d43	0.98579806
36	0x3f7be59b	0.98397225
37	0x3f8113fe	1.0084226
38	0x3f7c2578	0.9849467
39	0x3f7feaa7	0.99967426
40	0x3f7a86f4	0.9786217
41	0x3f7a67fe	0.9781493
42	0x3f81206d	1.008802
43	0x3f7cc95b	0.98744744
44	0x3f7b94c0	0.9827385
45	0x3f7bbb05	0.98332244
46	0x3f7da227	0.9907555
47	0x3f81d0d5	1.0141855
48	0x3f7c4286	0.98539007
49	0x3f80b914	1.0056481
50	0x3f7c36d9	0.9852119
51	0x3f7c126e	0.9846562
52	0x3f7ffead	0.9999798
53	0x3f7f5f9e	0.99755275
54	0x3f835850	1.0261326
55	0x3f7c11bc	0.9846456
56	0x3f82c059	1.021495
57	0x3f7b18f1	0.9808493
58	0x3f82d306	1.0220649
59	0x3f8090f3	1.0044235
60	0x3f78c6a0	0.9717808
61	0x3f842a04	1.0325322
62	0x3f7ec5de	0.9952067
63	0x3f80034d	1.0001007
64	0x3f7ad846	0.9798626
65	0x3f803215	1.0015284
66	0x3f791563	0.9729826
67	0x3f8074f5	1.0035692
68	0x3f79384a	0.97351515
69	0x3f7f38cc	0.9969604
70	0x3f804573	1.0021194
71	0x3f789168	0.9709687
72	0x3f7cb2f6	0.9871057
73	0x3f76f687	0.9646992
74	0x3f80c8d7	1.0061291
75	0x3f833e1c	1.0253329
76	0x3f801d19	1.000888
77	0x3f7f0a91	0.996255
78	0x3f79621b	0.9741532
79	0x3f7e3006	0.9929203
80	0x3f800252	1.0000708
81	0x3f78e6b1	0.9722701
82	0x3f7c493f	0.98549265
83	0x3f817404	1.011353
84	0x3f7699c4	0.9632838
85	0x3f805172	1.0024855
86	0x3f7e7f55	0.99413043
87	0x3f7c4753	0.9854633
88	0x3f7e9cc9	0.99457985
89	0x3f7c390a	0.98524535
90	0x3f7f00a0	0.9961033
91	0x3f7f40f5	0.9970849
92	0x3f7be143	0.983906
93	0x3f7e86f1	0.99424654
94	0x3f80689f	1.0031928
95	0x3f809fee	1.0048807
96	0x3f80e62d	1.0070244
97	0x3f7eb61b	0.9949662
98	0x3f7bad46	0.9831127
99	0x3f82df61	1.022442
100	0x3f7cc24c	0.98733974
101	0x3f828894	1.019793
102	0x3f7dff65	0.99217826
103	0x3f7c8154	0.9863484
104	0x3f7d6576	0.9898294
105	0x3f7db59e	0.9910525
106	0x3f7b459f	0.9815311
107	0x3f793b06	0.9735569
108	0x3f7f6914	0.9976971
109	0x3f7c84d7	0.986402
110	0x3f79961e	0.97494686
111	0x3f8221f1	1.0166608
112	0x3f7c5e79	0.98581654
113	0x3f7ce263	0.9878294
114	0x3f7f6ea0	0.99778175
115	0x3f785843	0.97009677
116	0x3f7e63f9	0.99371296
117	0x3f83caba	1.0296242
118	0x3f7dfba3	0.9921209
119	0x3f7db16c	0.9909885
120	0x3f7b45e3	0.98153514
121	0x3f7cdb9c	0.987726
122	0x3f818c63	1.0120968
123	0x3f7c5787	0.98571056
124	0x3f836f0b	1.0268263
125	0x3f7f397f	0.9969711
126	0x3f7cf2ec	0.9880817
127	0x3f7d7240	0.99002457

ablang_branch.5.bias f4 [128]
0	0xba6b2f50	-0.00089715887
1	0xbc386023	-0.0112533895
2	0x3d318baf	0.043346103
3	0xbc09efda	-0.0084190015
4	0xbb7264cb	-0.0036986347
5	0xbaf24063	-0.0018482324
6	0xbc80d979	-0.015728699
7	0xbca6b0f5	-0.020348052
8	0xbc024ffd	-0.007953641
9	0x3c11dee8	0.008903243
10	0x3bf518b5	0.007479752
11	0xbd03c506	-0.032170318
12	0x3c953eb7	0.018218381
13	0x3ce6e180	0.028183699
14	0x3d2c05d3	0.041997742
15	0xbc896631	-0.016772361
16	0x3cf928c1	0.03041494
17	0x3bf2c5dc	0.0074088406
18	0x3c27ee7c	0.01024973
19	0xbcde9146	-0.027168881
20	0xbc7a287a	-0.015268439
21	0x3bd6ffd6	0.0065612597
22	0xbcc87041	-0.02446759
23	0xbb96365e	-0.004584118
24	0x3c7285af	0.01480238
25	0xbc62cc2a	-0.013842622
26	0xbc1db3a9	-0.009625354
27	0xbad46ef2	-0.0016207381
28	0xbc7ab34d	-0.015301538
29	0xbc9b0942	-0.018925313
30	0xba2a0aa8	-0.0006486573
31	0xbc5788d9	-0.013155186
32	0x3bcc681d	0.006237997
33	0xbc53f95f	-0.012937873
34	0x3c823787	0.015895618
35	0x3b3cc781	0.0028805437
36	0xbcc58d50	-0.024115235
37	0x3c8a1b4f	0.016858725
38	0xbc09bb3b	-0.008406456
39	0xbb12598d	-0.0022331208
40	0xbcaa426f	-0.020783631
41	0xbc85c1c2	-0.016327742
42	0xb98398f0	-0.00025100214
43	0xbc0e463a	-0.0086837355
44	0xbbf331ef	-0.007421724
45	0xbc3fe5a4	-0.011712465
46	0x386d3083	5.6550383e-05
47	0x3c31632f	0.01082687
48	0xbc564436	-0.013077786
49	0x3bd5dc20	0.006526485
50	0xbc34e667	-0.01104126
51	0xbc8d3fa4	-0.01724226
52	0x3b466af6	0.0030276156
53	0xbc46dce7	-0.012137628
54	0x3d0a933a	0.033831812
55	0xbba97853	-0.0051718145
56	0xbcef3ece	-0.029204752
57	0xbc8923cb	-0.0167407
58	0x3c9ddd36	0.01927052
59	0x3c7310f6	0.014835587
60	0xbb70aff2	-0.0036725965
61	0x3cd3ac10	0.025838882
62	0x3c9b6324	0.018968172
63	0x3c1ea88d	0.00968374
64	0x3aed5d33	0.001810944
65	0xbbe58f93	-0.007005641
66	0xb91ed43c	-0.00015147118
67	0xbc65f57b	-0.014035578
68	0xbbf6e228	-0.007534284
69	0xba80e9aa	-0.0009835262
70	0x3bbfc985	0.0058528804
71	0xbc57cd33	-0.013171482
72	0x3b98a99a	0.00465889
73	0xbb409fe7	-0.0029392184
74	0x3cf706a7	0.03015454
75	0xbd2deb7a	-0.042460896
76	0x3c1d5000	0.009601593
77	0x3ca6adf2	0.020346615
78	0x3bf5c585	0.007500353
79	0xbbbb8581	-0.005722702
80	0x3be130b8	0.006872263
81	0xbb57624f	-0.0032864993
82	0xbbfb4dcf	-0.0076691876
83	0x3ccd2daa	0.025046188
84	0x3c77b782	0.015119435
85	0x3bf3a8bb	0.0074358857
86	0xbbf6a305	-0.0075267577
87	0xbc9e728a	-0.019341726
88	0x3c235784	0.009969596
89	0xbc3b3323	-0.011425766
90	0xbc4d7963	-0.012541148
91	0xbc2251d8	-0.009907208
92	0x3b4bc592	0.0031093103
93	0xbc86adf0	-0.016440362
94	0x3b4a3bd5	0.0030858417
95	0x3c9f6790	0.019458562
96	0x3c8c0d35	0.017096141
97	0xbb7c8fb0	-0.0038537793
98	0xbc9f6d04	-0.019461162
99	0x3c59ce94	0.013293881
100	0xbc585677	-0.013204209
101	0x3cfe5e46	0.031050812
102	0xbc9f2c7e	-0.019430395
103	0xbb78453d	-0.0037883066
104	0x3c358c57	0.011080823
105	0xbc542a5a	-0.0129495505
106	0x3b23d886	0.0025000884
107	0x3b98e1f8	0.0046656094
108	0x3b813bf8	0.0039439164
109	0xbbb9a8d4	-0.005665878
110	0xbd1ecaff	-0.03876781
111	0x3c737e09	0.014861592
112	0xbccf1032	-0.025276277
113	0x3b4cbf37	0.0031241903
114	0xbbb5b766	-0.0055455444
115	0xbc765bb5	-0.015036513
116	0x3b6370fa	0.003470479
117	0x3cc82b37	0.024434669
118	0x3adb65f4	0.0016738758
119	0xbc2b571d	-0.010457781
120	0xbb126a23	-0.0022341094
121	0xbbc01061	-0.0058613275
122	0x3ca54db0	0.020178646
123	0xbcd89990	-0.026440412
124	0x3cb614eb	0.022226771
125	0xbc7bd26d	-0.015369994
126	0xbc5b2c7e	-0.013377307
127	0xbb0bc130	-0.0021324866
