data/model_weights/cv_fold_1_model2_0.pt (torch, 686405 bytes, 27 tensors)

ablang_branch.0.weight f4 [256, 480]
0.03336544 0.04454766 -0.032134473 -0.07839128 0.08561409 -0.014095001 0.01996358 0.056766856
0.038780697 -0.044277806 -0.05499741 0.024026947 -0.14181152 -0.0060952753 0.08088562 -0.10716345
-0.011359818 0.08416448 0.038452636 -0.10947194 -0.04102399 0.02772056 -0.044371683 0.008564056
0.051553637 0.08700453 -0.0029876432 -0.047301527 -0.07741421 0.023331698 0.0340268 -0.044740427
-0.088097006 -0.038165875 -0.049819846 -0.10117056 0.011874417 -0.018876635 -0.0906356 0.047598895
0.09184307 -0.015715027 0.021805879 -0.017718038 0.080890626 -0.010682823 -0.12137151 0.026254892
-0.07814605 -0.057139937 -0.018958418 0.050506584 -0.04838361 0.12776288 0.03910291 0.033353824
-0.14412566 0.061743155 0.043340053 -0.06624392 0.03819475 -0.016259588 0.0955347 0.08639946
0.016481059 0.010828567 0.026072014 0.07809334 0.12393031 0.04757463 -0.06944231 0.08877465
-0.06768882 -0.05950863 -0.025468145 0.062484045 0.02826006 -0.04673457 0.002975053 -0.039926436
-0.03581378 -0.001446725 0.0030330915 0.087539054 0.039469205 -0.08285961 -0.034151707 -0.09248672
-0.056398053 0.04035966 0.044686973 0.06437996 0.06455791 -0.038812976 0.06585403 -0.06698577
-0.052659586 0.022353977 0.1025984 -0.115691 0.06576408 0.06531081 -0.030227901 0.02969653
-0.08387514 0.0009319985 0.07690341 -0.019177986 -0.026866429 0.10214765 -0.07917131 -0.04639766
-0.097043194 -0.015469059 0.018655568 0.06146911 0.14771686 -0.08482743 -0.048785057 -0.09643202
-0.021714732 -0.055260047 -0.02898425 -0.00914173 0.03639526 -0.021664849 -0.005307808 -0.015128314
-0.0388706 -0.0390469 0.04548717 0.105832145 -0.0287193 0.049441893 0.013134523 0.07789704
-0.018166393 -0.002719931 -0.007730941 0.096497916 0.11522083 -0.013164986 0.02803619 -0.022613358
0.0068791676 -0.035504036 0.005728414 -0.011608579 -0.05211267 0.09416309 -0.04173409 -0.0768775
0.07998559 0.130251 0.08720471 -0.16201289 0.094812 -0.0017032604 -0.05363734 0.006915706
0.057005104 -0.05953974 -0.13667756 0.058104157 -0.008030097 0.045169216 -0.0011820752 0.075209275
0.058299553 -0.10394675 0.009210849 -0.050438426 -0.049784172 0.020275854 -0.13830811 -0.03301709
0.14736296 -0.09206958 0.056097962 -0.08313724 0.0038103822 -0.019729303 0.07154492 0.03198908
-0.060827196 0.12453419 -0.0060578194 -0.07068236 -0.015865002 0.009277368 0.05762081 -0.11030234
-0.0929599 -0.04306277 -0.052157395 -0.11956828 0.0773341 -0.0633348 -0.029461393 0.015088712
-0.09910188 0.04269102 -0.015360507 -0.057298474 -0.06741713 0.035531867 0.014003859 -0.040493947
0.048332427 0.017421676 0.009771915 0.02313308 -0.014933162 0.0133384755 0.057657115 -0.09922224
-0.041497212 0.068119854 -0.06299126 0.061738707 -0.08173318 0.05503375 -0.05770087 0.10495049
-0.024510372 -0.010533455 -0.04903797 -0.015394681 0.0148539655 0.08163204 -0.16636364 -0.07926481
-0.11322875 0.017950876 0.01189709 -0.018699413 0.0030330364 -0.032399997 0.069234215 0.10501968
0.022707673 0.047535338 0.025581464 0.02645127 -0.015907353 0.06146624 0.05557046 -0.14293863
-0.059319638 0.08623041 0.08857385 0.078988776 0.08457106 0.03703667 0.08456114 -0.058330372
00000000: 33aa 083d 9b77 363d 709f 03bd 9b8b a0bd
00000010: 7156 af3d b8ee 66bc a98a a33c 5d84 683d
00000020: 82d8 1e3d a55c 35bd f744 61bd 29d4 c43c
00000030: 0a37 11be e0ba c7bb 5ca7 a53d 8378 dbbd
00000040: 881e 3abc 6d5e ac3d 8380 1d3d d332 e0bd
00000050: c508 28bd 3a16 e33c 15bf 35bd 4150 0c3c
00000060: e829 533d 6e2f b23d 56cc 43bb 3fbf 41bd
00000070: 578b 9ebd 1e22 bf3c b05f 0b3d bd41 37bd
00000080: 346c b4bd d253 1cbd e50f 4cbd 8332 cfbd
00000090: ea8c 423c 2ca3 9abc 289f b9bd 0ff7 423d
000000a0: 3818 bc3d cdbc 80bc 3ea2 b23c 6b25 91bc
000000b0: fca9 a53d 0207 2fbc a091 f8bd 8014 d73c
000000c0: 090b a0bd 910b 6abd af4e 9bbc fedf 4e3d
000000d0: e42d 46bd 46d4 023e 5f2a 203d 059e 083d
000000e0: ad95 13be 64e6 7c3d 5785 313d e4aa 87bd
000000f0: 1972 1c3d d432 85bc b2a7 c33d 33f2 b03d
00000100: 4903 873c 4d6a 313c fa94 d53c 67ef 9f3d
00000110: 2dcf fd3d 9ddd 423d c537 8ebd 7ccf b53d
00000120: 70a0 8abd 52bf 73bd 92a2 d0bc 45ef 7f3d
00000130: a481 e73c c06c 3fbd 1bf9 423b e789 23bd
00000140: 78b1 12bd 09a0 bdba d5c6 463b ad47 b33d
00000150: 76aa 213d 4db2 a9bd a9e2 0bbd ad69 bdbd
00000160: a501 67bd 2c50 253d b009 373d a4d9 833d
00000170: f036 843d 5bfa 1ebd 7ade 863d d62f 89bd
00000180: 94b1 57bd b01f b73c 1c1f d23d 67ef ecbd
00000190: 51af 863d adc1 853d 81a0 f7bc 2346 f33c
000001a0: bbc6 abbd 5c51 743a 897f 9d3d 271b 9dbc
000001b0: fc16 dcbc ca32 d13d 9124 a2bd 790b 3ebd
000001c0: 95be c6bd f071 7dbc 90d3 983c 09c7 7b3d
000001d0: 1743 173e 01ba adbd d7d2 47bd 277e c5bd
000001e0: 18e3 b1bc 5c58 62bd 6170 edbc 32c7 15bc
000001f0: 3213 153d 7b7a b1bc 1fed adbb bfdc 77bc
00000200: c736 1fbd a4ef 1fbd c150 3a3d 86be d83d
00000210: bd44 ebbc 9583 4a3d 2f32 573c 7c88 9f3d
00000220: b0d1 94bc df40 32bb d553 fdbb b3a0 c53d
00000230: e6f8 eb3d f4b1 57bc 27ac e53c a63f b9bc
00000240: a46a e13b ae6c 11bd 6bb5 bb3b e931 3ebc
00000250: 1874 55bd 94d8 c03d 5df1 2abd f371 9dbd
00000260: 7ccf a33d 8560 053e 6298 b23d b5e6 25be
00000270: cb2c c23d ef3f dfba d4b2 5bbd 269d e23b
00000280: 2f7e 693d f1df 73bd 34f5 0bbe a0fe 6d3d
00000290: ab90 03bc 5b03 393d ddef 9aba 5207 9a3d
000002a0: 83cb 6e3d 09e2 d4bd 1ae9 163c 8698 4ebd
000002b0: 7dea 4bbd 8c19 a63c a4a0 0dbe ee3c 07bd
000002c0: 51e6 163e fa8e bcbd fac6 653d db43 aabd
000002d0: 9bb7 793b 599f a1bc 2586 923d fb06 033d
000002e0: f025 79bd c80b ff3d ac80 c6bb eac1 90bd
000002f0: 52f7 81bc 1a00 183c cc03 6c3d 31e6 e1bd
00000300: c361 bebd 9662 30bd fea2 55bd 37e0 f4bd
00000310: 5761 9e3d adb5 81bd 0559 f1bc a536 773c
00000320: edf5 cabd c7dc 2e3d a3aa 7bbc ceb1 6abd
00000330: fe11 8abd dd89 113d 7170 653c fbdc 25bd
00000340: 39f8 453d e7b7 8e3c 621a 203c 9681 bd3c
00000350: 39aa 74bc 9f89 5a3c de29 6c3d 0835 cbbd
00000360: fbf8 29bd 6c82 8b3d 9001 81bd bae1 7c3d
00000370: ba63 a7bd 126b 613d bf57 6cbd 48f0 d63d
00000380: fac9 c8bc 8394 2cbc 0adc 48bd f939 7cbc
00000390: 0c5e 733c b32e a73d 3b5b 2abe 9755 a2bd
000003a0: 7ae4 e7bd b70d 933c 03ec 423c 832f 99bc
000003b0: e8c5 463b dcb5 04bd abca 8d3d 8f14 d73d
000003c0: 7105 ba3c 6ab4 423d 3890 d13c 55b0 d83c
000003d0: 2350 82bc 06c4 7b3d da9d 633d 815e 12be
000003e0: 26f9 72bd 9299 b03d 3566 b53d dec4 a13d
000003f0: 9833 ad3d c3b3 173d 642e ad3d d4eb 6ebd

ablang_branch.0.bias f4 [256]
-0.003255969 0.0038439133 0.0026700455 -0.0045077456 0.0055207107 0.015251177 0.003347921 0.011328116
0.00069291925 0.0025465398 -0.013957142 -0.019071154 -0.0050347797 -0.00038205527 -0.012228283 0.010990001
0.0044217105 -0.009682642 -0.007292326 -0.0063067097 0.0014856405 -0.018428016 -0.0073269214 0.00891667
-0.0077487095 -0.0052234377 0.0015489025 -0.0023430793 -0.015027735 -0.006459386 -0.001583911 -0.0065561263
-0.015027821 -0.002855173 -0.012991614 0.0030130153 -0.011295275 -0.010195587 -0.014136238 0.017136762
0.005620694 0.013494498 -0.0030794262 -0.008217956 0.0052546617 -0.008267887 0.012122744 -0.010737573
-0.006792362 0.00032446865 0.0066668736 -0.0073074033 0.003289835 -0.0033350512 0.0191969 0.008244832
0.009560194 -0.005278072 -0.005669057 -0.009079683 -0.005088975 -0.008427947 -0.0065314905 0.016497761
0.010623739 0.00017770268 0.0047720885 -0.009515601 -0.02372079 -0.009170475 0.00015718048 0.009026977
0.006202898 0.016720092 -0.01055075 -0.010415879 0.002674307 0.0013715018 -0.0034703594 -0.009254538
0.0024143357 -0.0072444687 0.0011162446 -0.012387788 1.8036812e-05 0.006049752 0.00834957 -0.007868902
-0.0009888252 -0.007787704 -0.0028106086 -0.0054362137 0.0028921433 -0.0056699244 -0.009854622 -0.016538812
-0.02640814 -0.008335102 -0.0041328315 0.007841475 -0.006669132 -0.0047258236 0.019859303 -0.0066813296
-0.0049952976 0.0032606453 -0.006473917 -0.013174143 0.0005006786 -0.01213359 -0.013711261 0.0079882555
-0.005767661 -0.00643768 0.008693228 -0.006468075 0.0018532082 -0.011760834 0.014526607 -0.006290608
0.008781325 0.0041013495 -0.009052726 -0.0052988147 -0.008227197 0.01643291 0.011234416 -0.021647396
-0.022188902 -0.012143027 -0.009994042 -0.005718269 -0.0069419 0.0023301414 -0.0054132654 0.005981274
-0.010054081 0.008986496 0.017044066 -0.011744422 -0.0137668755 -0.005233983 -0.010012278 -0.004856973
0.009730599 -0.011626235 0.00079736323 0.0055691306 0.004562527 0.014702555 -0.0038822608 -0.009789023
0.0077606468 -0.005422093 0.0013473545 -0.0071861926 -0.0070923236 0.005620552 0.006831862 -0.0021610763
5.608474e-05 0.014672275 0.0024574867 -0.007085665 -0.004428773 -0.0063957544 -0.0057029794 -0.008402103
-0.0049219714 -0.009227161 -0.0060438938 0.0006423084 -0.0049853204 -0.007743001 -0.010866642 -0.009719471
-0.0026473366 -0.005747276 -0.0018516344 -0.025128359 0.011224856 -0.008940801 -0.008354051 -0.006994687
-0.0099739535 -0.0125357155 -0.009900652 -0.021831663 -0.005842833 0.012062439 -0.013621787 -0.0028546194
0.00757715 -0.0061480007 0.019975314 0.0015408768 0.008614973 -0.011992429 -0.006423522 0.018082116
-3.7385897e-05 0.010855995 0.008630393 -0.002241291 -0.011582332 -0.0018166811 -0.012898732 -0.00441439
-0.0053752232 0.017324427 -0.00803519 -0.012565769 0.010874001 -0.01616111 0.0003534708 -0.008519895
0.0064664716 -0.009604287 -0.0014812979 0.001437846 0.009242114 -0.00818977 -0.02328816 -0.0036797284
0.0073915143 0.009129796 -0.0039225332 -0.0028941818 -0.004355964 -0.009330634 -0.0076601505 -0.00014695514
0.0035302418 -0.013686477 0.0213982 0.01864044 0.003599668 0.023557547 -0.0065659857 -0.0032271557
-0.0145280175 -0.0151937725 -0.0021590875 -0.0049952203 -0.0028014455 0.007366455 0.0035884434 0.01171273
-0.006851995 -0.0034743398 -0.0041320394 0.01571331 -0.0014671902 0.014671866 0.003659255 -0.0055679413
00000000: 1862 55bb 2aea 7b3b eefb 2e3b b6b5 93bb
00000010: 14e7 b43b 13e0 793c cb68 5b3b 9099 393c
00000020: 06a5 353a d9e3 263b 7fac 64bc 1c3b 9cbc
00000030: cbfa a4bb 974e c8b9 2359 48bc 680f 343c
00000040: ffe3 903b f2a3 1ebc 77f4 eebb 84a8 cebb
00000050: d3b9 c23a 5af6 96bc ac16 f0bb 3a17 123c
00000060: e3e8 fdbb 5f29 abbb 8b04 cb3a 598e 19bb
00000070: e436 76bc 42a9 d3bb 3c9b cfba c6d4 d6bb
00000080: 4037 76bc db1d 3bbb c7da 54bc 0276 453b
00000090: d10f 39bc 640b 27bc ae9b 67bc 6562 8c3c
000000a0: cc2d b83b 0718 5d3c 33d0 49bb 9ba4 06bc
000000b0: 4c2f ac3b 0876 07bc 799e 463c a5ec 2fbc
000000c0: 7692 debb 721d aa39 ca75 da3b f172 efbb
000000d0: 469a 573b e090 5abb d142 9d3c 5515 073c
000000e0: 5ca2 1c3c adf3 acbb 7fc3 b9bb f3c2 14bc
000000f0: 6bc1 a6bb 5f15 0abc 1d06 d6bb 5026 873c
00000100: 310f 2e3c b355 3a39 2e5f 9c3b 53e7 1bbc
00000110: 1a52 c2bc c33f 16bc d0d0 2439 e3e5 133c
00000120: ae41 cb3b 93f8 883c 0edd 2cbc 5da7 2abc
00000130: 6d43 2f3b f7c3 b33a f86e 63bb 59a0 17bc
00000140: d539 1e3b 0263 edbb f44e 923a 26f6 4abc
00000150: c24d 9737 ff3c c63b a3cc 083c 91ec 00bc
00000160: 789b 81ba ff2f ffbb 3032 38bb 4422 b2bb
00000170: 1d8a 3d3b c6ca b9bb 4875 21bc 677c 87bc
00000180: e255 d8bc f48f 08bc b46c 87bb 8879 003c
00000190: bc88 dabb 15db 9abb faaf a23c 0eef dabb
000001a0: 98af a3bb 8db0 553b 2723 d4bb 5cd8 57bc
000001b0: f93f 033a f7cb 46bc 32a5 60bc 2ce1 023c
000001c0: a6fe bcbb 2df3 d2bb 0a6e 0e3c 25f2 d3bb
000001d0: 59e7 f23a 83b0 40bc 0101 6e3c 7221 cebb
000001e0: 8cdf 0f3c 9d64 863b e351 14bc aea1 adbb
000001f0: 5ecb 06bc 4f9e 863c 8e10 383c e155 b1bc
00000200: 80c5 b5bc 8cf3 46bc 0dbe 23bc 5160 bbbb
00000210: e178 e3bb 49b5 183b c361 b1bb 90fe c33b
00000220: dfb9 24bc 193c 133c ff9f 8b3c ad6b 40bc
00000230: 768e 61bc d581 abbb 8a0a 24bc 3e27 9fbb
00000240: 176d 1f3c f77b 3ebc 2406 513a 417d b63b
00000250: 4081 953b fce2 703c 876d 7ebb 2362 20bc
00000260: 064d fe3b d0ab b1bb b799 b03a 277a ebbb
00000270: b966 e8bb 9c2c b83b d0dd df3b d8a0 0dbb
00000280: 883c 6b38 fb63 703c c90d 213b de2e e8bb
00000290: 3e1f 91bb 7a93 d1bb 0fe0 babb f9a8 09bc
000002a0: 7d48 a1bb 852d 17bc db0b c6bb 9660 283a
000002b0: e65b a3bb 00b9 fdbb 000a 32bc 6b3e 1fbc
000002c0: f07e 2dbb a553 bcbb 8ab2 f2ba fdd9 cdbc
000002d0: 75e8 373c 707c 12bc 6edf 08bc b033 e5bb
000002e0: cb69 23bc 9a62 4dbc 5836 22bc 51d8 b2bc
000002f0: 3c75 bfbb 89a1 453c ea2d 5fbc 9114 3bbb
00000300: be49 f83b 2b75 c9bb 45a3 a33c 3ff7 c93a
00000310: d125 0d3c e57b 44bc 687c d2bb f220 943c
00000320: cdce 1cb8 58dd 313c 7e66 0d3c a0e2 12bb
00000330: d2c3 3dbc b41d eeba 3455 53bc 96a6 90bb
00000340: a422 b0bb f5eb 8d3c 08a6 03bc a8e0 4dbc
00000350: de28 323c 4e64 84bc 0c52 b939 0897 0bbc
00000360: b2e4 d33b 4d5b 1dbc 1c28 c2ba 1b76 bc3a
00000370: 3c6c 173c 632e 06bc d0c6 bebc 9927 71bb
00000380: 8434 f23b 2495 153c 9888 80bb 50ac 3dbb
00000390: 79bc 8ebb 84df 18bc 0002 fbbb f817 1ab9
000003a0: a15b 673b 3f3d 60bc 474b af3c d6b3 983c
000003b0: 68e8 6b3b c2fb c03c 7b27 d7bb b07e 53bb
000003c0: ec06 6ebc 4def 78bc 7a7f 0dbb f2ae a3bb
000003d0: 7598 37bb 4e62 f13b 172c 6b3b c0e6 3f3c
000003e0: b386 e0bb c0b1 63bb 0f66 87bb 33b9 803c
000003f0: bc4e c0ba 4462 703c 1dd0 6f3b 4773 b6bb

ablang_branch.1.weight f4 [256]
0.98806834 0.9986609 1.0054381 0.99030155 0.97787577 1.0049007 0.9862306 1.0157076
0.9926322 0.99498373 0.99760616 1.0253792 0.99443316 0.9983658 0.9923725 1.005451
0.9865669 0.9884477 0.992209 0.99656916 0.99099636 1.0102023 0.98755413 0.9822576
0.99525785 0.99102086 0.9981607 0.98999196 1.0093703 0.9967411 0.99689305 0.99392503
1.0147709 0.9893079 0.9909973 0.99838483 1.003171 1.0065781 1.0010576 1.0095936
1.0011822 1.0007876 0.9922336 0.9928461 1.0045811 1.004307 0.996416 1.0050149
1.0024178 0.9877531 1.0013025 1.011767 1.0020461 1.007252 1.0103865 1.0037357
1.0107421 1.0039458 0.99541664 0.9973245 0.9885935 1.0037024 1.0072562 1.0219162
1.0093772 0.9924767 1.0017511 1.0016829 1.0207558 0.9913343 0.9895741 0.988998
0.99925554 1.0162871 1.0030767 0.99779993 0.9952131 0.99847966 0.99934536 0.9903582
0.99819577 1.0033498 0.9902863 1.0007173 0.99733543 1.0054152 1.0087924 0.9997854
0.98333603 1.0089169 0.9919432 1.0003461 0.98879427 0.9932476 0.9920141 1.0125687
1.0292807 1.0024586 0.9893048 1.0046418 0.98994714 1.0008297 1.0218978 0.988734
0.98603845 1.0025136 1.0018214 0.99359316 0.99081534 0.9979707 1.0098249 1.0086542
0.9891156 0.9799472 1.0055073 0.9818199 0.9968127 0.9922548 1.0047766 0.9910138
1.0041873 1.0004996 0.986193 0.9772478 0.9923508 1.0166231 1.0090446 1.0237483
1.027239 1.0062555 1.0074695 0.9876855 0.994318 0.9952063 0.99570084 0.9908434
0.99933845 1.002795 1.023427 1.0150421 0.99937874 0.9917365 0.9915737 0.9964466
1.0088009 1.0137311 0.9993032 1.0111666 1.004695 1.015451 0.9969622 1.0026077
1.0027783 0.99800473 1.000367 0.9911014 0.9951623 0.9997314 1.0012832 0.98963743
0.9954681 1.013611 0.9956195 0.9958169 0.98764753 0.9914716 0.99543214 0.9929423
0.9962075 0.99136215 1.0004765 1.006298 0.98472726 0.99301326 1.0060579 0.99917275
0.9949959 0.9913211 0.9920669 1.031121 1.0131762 0.99085224 0.9874677 1.000243
0.9903809 0.992474 0.98594475 1.0261428 1.0015124 1.0133125 0.9928433 0.9954084
1.0056716 0.98957187 1.0071763 1.0022913 1.0081106 1.001181 0.9853918 1.0178926
0.9860466 1.0095766 1.0050285 0.9850009 0.9878047 1.0012525 1.0152134 0.9963314
0.99250096 0.9933951 0.9925767 0.99701095 1.0169026 1.014116 0.997889 0.9972736
0.9996862 1.0060012 0.98283887 1.0006052 1.0117122 0.9927343 1.0215359 0.9897911
1.0029126 1.0067841 0.9930305 0.96765876 0.9889294 0.99472487 0.99771416 0.99912566
0.9905424 0.99821705 1.0233685 1.022582 0.98758376 1.0227704 0.98926985 0.99441457
1.0133089 1.015758 0.99516207 0.9822149 0.9773623 0.9978215 1.0012648 1.0012615
0.9890585 1.0031335 0.9931061 1.0103462 0.9958269 1.0080492 0.9973137 0.98950493
00000000: 0cf2 7c3f 3ea8 7f3f 32b2 803f 6784 7d3f
00000010: 1156 7a3f 96a0 803f 9c79 7c3f b502 823f
00000020: 251d 7e3f 41b7 7e3f 1e63 7f3f a03f 833f
00000030: 2c93 7e3f e794 7f3f 200c 7e3f 9eb2 803f
00000040: a68f 7c3f e90a 7d3f 6901 7e3f 281f 7f3f
00000050: f0b1 7d3f 4f4e 813f 59d0 7c3f 3c75 7b3f
00000060: 38c9 7e3f 8bb3 7d3f 7687 7f3f 1d70 7d3f
00000070: 0c33 813f 6d2a 7f3f 6234 7f3f df71 7e3f
00000080: 03e4 813f 4843 7d3f 00b2 7d3f 2696 7f3f
00000090: e867 803f 8dd7 803f a822 803f 5d3a 813f
000000a0: bd26 803f cf19 803f 0503 7e3f 292b 7e3f
000000b0: 1d96 803f 228d 803f 1e15 7f3f 54a4 803f
000000c0: 3a4f 803f 63dd 7c3f ae2a 803f 9581 813f
000000d0: 0c43 803f a2ed 803f 5854 813f 697a 803f
000000e0: ff5f 813f 4c81 803f a0d3 7e3f a950 7f3f
000000f0: 7714 7d3f 5279 803f c5ed 803f 26ce 823f
00000100: 4633 813f f412 7e3f 6139 803f 2537 803f
00000110: 20a8 823f 16c8 7d3f ba54 7d3f f92e 7d3f
00000120: 36cf 7f3f b215 823f d164 803f d16f 7f3f
00000130: 49c6 7e3f 5d9c 7f3f 19d5 7f3f 1d88 7d3f
00000140: c289 7f3f c46d 803f 6783 7d3f 8117 803f
00000150: 6051 7f3f 72b1 803f 1c20 813f f0f1 7f3f
00000160: e9bb 7b3f 3024 813f fdef 7d3f 570b 803f
00000170: 9f21 7d3f 7a45 7e3f a3f4 7d3f da9b 813f
00000180: 78bf 833f 9050 803f 1443 7d3f 1a98 803f
00000190: 2d6d 7d3f 301b 803f 8ccd 823f ac1d 7d3f
000001a0: 046d 7c3f 5e52 803f af3b 803f 1f5c 7e3f
000001b0: 13a6 7d3f 027b 7f3f f141 813f 951b 813f
000001c0: ae36 7d3f d2dd 7a3f 77b4 803f 8d58 7b3f
000001d0: 1e2f 7f3f 6904 7e3f 859c 803f 15b3 7d3f
000001e0: 3689 803f 5f10 803f 2577 7c3f e92c 7a3f
000001f0: b40a 7e3f b520 823f 6028 813f 2f0a 833f
00000200: 917c 833f fbcc 803f c3f4 803f f5d8 7c3f
00000210: a08b 7e3f d7c5 7e3f 40e6 7e3f eaa7 7d3f
00000220: a5d4 7f3f 965b 803f a8ff 823f e6ec 813f
00000230: 49d7 7f3f 71e2 7d3f c6d7 7d3f 2017 7f3f
00000240: 6320 813f f1c1 813f 56d2 7f3f e86d 813f
00000250: d999 803f 4cfa 813f ea38 7f3f 7355 803f
00000260: 0a5b 803f 3d7d 7f3f 070c 803f d2b8 7d3f
00000270: f5c2 7e3f 66ee 7f3f 0c2a 803f e158 7d3f
00000280: ffd6 7e3f 01be 813f ebe0 7e3f dbed 7e3f
00000290: 78d6 7c3f 15d1 7d3f a4d4 7e3f 7731 7e3f
000002a0: 7407 7f3f e9c9 7d3f 9d0f 803f 5fce 803f
000002b0: 1617 7c3f 1e36 7e3f 81c6 803f c9c9 7f3f
000002c0: 0db8 7e3f 38c7 7d3f 19f8 7d3f c6fb 833f
000002d0: c2af 813f 7ea8 7d3f afca 7c3f f607 803f
000002e0: 9a89 7d3f c712 7e3f e066 7c3f a658 833f
000002f0: 8f31 803f 39b4 813f fa2a 7e3f 16d3 7e3f
00000300: d9b9 803f 9554 7d3f 27eb 803f 154b 803f
00000310: c509 813f b326 803f a342 7c3f 4e4a 823f
00000320: 8d6d 7c3f ce39 813f c6a4 803f 0529 7c3f
00000330: c5e0 7c3f 0b29 803f 83f2 813f 930f 7f3f
00000340: 8b14 7e3f 244f 7e3f 8219 7e3f 1c3c 7f3f
00000350: dd29 823f 8ece 813f a775 7f3f 534d 7f3f
00000360: 6feb 7f3f a6c4 803f 549b 7b3f d513 803f
00000370: c97f 813f d623 7e3f b0c1 823f f362 7d3f
00000380: 715f 803f 4dde 803f 3f37 7e3f 7cb8 773f
00000390: 7a2a 7d3f 4aa6 7e3f 326a 7f3f b3c6 7f3f
000003a0: 3094 7d3f 278b 7f3f bdfd 823f f8e3 823f
000003b0: 4ad2 7c3f 24ea 823f ca40 7d3f f491 7e3f
000003c0: 1bb4 813f 5c04 823f f1c2 7e3f 7072 7b3f
000003d0: 6a34 7a3f 3b71 7f3f 7229 803f 5629 803f
000003e0: f032 7d3f ae66 803f 343c 7e3f 0653 813f
000003f0: 83ee 7e3f c207 813f f34f 7f3f 3250 7d3f

ablang_branch.1.bias f4 [256]
0.001887268 0.0056491797 0.0024518583 -0.0025809256 0.015137567 0.015858818 0.0027836054 0.0155466795
0.0075802878 0.0010717339 -0.015895354 -0.022570191 -0.004117459 -0.0022575834 -0.013567076 0.013044492
0.00513061 -0.0077666766 -0.00032478865 -0.0046576676 0.0036428752 -0.01644905 -0.0028561116 0.012331936
-0.006292513 -0.0033325185 0.0053082737 -0.0051005706 -0.011295711 -0.006394303 -0.004531213 -0.006767892
-0.015435828 0.00031479192 -0.012819193 0.0031631223 -0.011923035 -0.0092938235 -0.016038842 0.017421937
0.007703043 0.015317666 -0.004405355 -0.00900981 0.007855347 -0.009551904 0.011918851 -0.009578227
-0.005032276 0.00021034718 0.0051195114 -0.006616178 0.004121567 -0.002602901 0.02415803 0.007225473
0.011854821 -0.0018528812 -0.007321801 -0.009892221 0.0051416117 -0.0036501293 -0.004366652 0.017216368
0.010294114 -0.0027539302 0.0048916736 -0.010095196 -0.020526709 -0.011672257 -0.0016497243 0.01921683
0.014319796 0.01790527 -0.006600271 -0.009826222 0.0038342657 0.00466235 -0.0010466804 -0.0018172531
0.004325225 -0.0053417343 -0.0007226975 -0.012912797 0.0044597033 0.008692135 0.0107033625 -0.005834755
0.0012795547 -0.008009693 0.0025367502 -0.0025316344 -0.00048410395 -0.0066156154 -0.007814704 -0.015478983
-0.024579061 -0.008265461 -0.0031713087 0.010216846 -0.006109785 -0.00043734632 0.020648755 -0.007619604
-0.0029845675 0.0063846298 -0.0062761335 -0.015431524 0.0019862477 -0.011642211 -0.016523007 0.009452688
-0.0050375904 -0.0054604877 0.017052446 -0.0041014417 0.00039048283 -0.01035105 0.01659176 -0.0044941613
0.014982175 0.0071449066 -0.009463347 -0.0014899371 -0.00902549 0.019943746 0.012904831 -0.023572901
-0.023577174 -0.009042882 -0.010634839 -0.005642346 -0.0040832185 0.0029900318 -0.0051869024 0.009404528
-0.010228405 0.0074718054 0.014152945 -0.012878773 -0.015224188 -0.007249946 -0.013696451 -0.0073604384
0.011190511 -0.011314546 -0.00040833512 0.008728057 0.00876775 0.017997794 -0.0027796885 -0.007835691
0.00637789 -0.007823957 0.005657692 -0.006591786 -0.0038854063 0.007999085 0.007927771 -0.0019149974
0.0031761846 0.018284753 0.0026771144 0.00086433155 0.00048242015 -0.0026478334 -0.0057410756 -0.00834418
-0.0062108967 -0.008366642 -0.006489424 0.00014552713 -0.0058378614 -0.0051398035 -0.011532863 -0.008579149
-0.00078593503 -0.0049321232 -0.00044126005 -0.02875519 0.01388267 -0.0070536924 -0.006588265 -0.0028547605
-0.008659054 -0.0154632535 -0.011187347 -0.025174895 -0.005862004 0.015333921 -0.013974267 -0.0041098865
0.008962077 -0.004098605 0.024123807 0.0014476734 0.009814859 -0.0094502065 -0.0067990264 0.02075983
0.00076901785 0.012528685 0.010219372 0.00024173106 -0.009425744 0.004895705 -0.0155880945 0.0052746814
-0.00023813508 0.020040223 -0.010000209 -0.014648528 0.015966633 -0.014292029 0.00020873726 -0.010708637
0.005676479 -0.008777306 -0.00016562533 0.0008287463 0.010257448 -0.007107085 -0.020477142 -0.0024784836
0.0062222034 0.012051894 -0.0068904175 0.0026054073 -0.004700847 -0.006726683 -0.005353783 -0.0005451372
0.005633086 -0.016446557 0.024702335 0.022445375 0.0064280583 0.025970345 -0.0010105266 -0.0029147046
-0.012702841 -0.014712926 0.0012341422 -0.0013211775 0.0016951942 0.007333938 0.0061272397 0.0107608205
-0.0024517172 -0.0033497822 0.0005862573 0.015044145 -0.0019418063 0.015969003 0.0016888779 -0.002572696
00000000: 355e f73a c11c b93b 5baf 203b bf24 29bb
00000010: 8f03 783c 5aea 813c 266d 363b 80b7 7e3c
00000020: 1064 f83b 6c79 8c3a f936 82bc 1fe5 b8bc
00000030: c0eb 86bb f7f3 13bb 7148 5ebc 91b8 553c
00000040: ad1e a83b 9b7f febb 6548 aab9 599f 98bb
00000050: 4ebd 6e3b 28c0 86bc 9a2d 3bbb e30b 4a3c
00000060: 6d31 cebb 6266 5abb 07f1 ad3b b022 a7bb
00000070: a511 39bc 4d87 d1bb 927a 94bb 31c5 ddbb
00000080: 8ee6 7cbc a80a a539 9807 52bc 634c 4f3b
00000090: d558 43bc 1f45 18bc e463 83bc 73b8 8e3c
000000a0: cf69 fc3b f3f6 7a3c cc5a 90bb e29d 13bc
000000b0: b7b3 003c 977f 1cbc 4947 433c ffed 1cbc
000000c0: cae5 a4bb a490 5c39 93c1 a73b 86cc d8bb
000000d0: 360e 873b 6f95 2abb 10e7 c53c a9c3 ec3b
000000e0: b93a 423c 60dc f2ba b8eb efbb fb12 22bc
000000f0: f77a a83b 0237 6fbb 2216 8fbb 5709 8d3c
00000100: a5a8 283c 487b 34bb 554a a03b 5266 25bc
00000110: a127 a8bc ff3c 3fbc 903b d8ba 9d6c 9d3c
00000120: 949d 6a3c 13ae 923c 1647 d8bb 2afe 20bc
00000130: 4e48 7b3b a0c6 983b c430 89ba e530 eeba
00000140: 9eba 8d3b b709 afbb 6973 3dba 3290 53bc
00000150: b422 923b 7569 0e3c 285d 2f3c 7931 bfbb
00000160: bbb6 a73a 163b 03bc 9b3f 263b c7e9 25bb
00000170: 55cf fdb9 cec7 d8bb 3f09 00bc 8f9b 7dbc
00000180: 075a c9bc db6b 07bc bbd5 4fbb 8f64 273c
00000190: 9734 c8bb a14b e5b9 9427 a93c dfad f9bb
000001a0: bc98 43bb 2836 d13b 06a8 cdbb 81d4 7cbc
000001b0: b52b 023b f9be 3ebc 425b 87bc 72df 1a3c
000001c0: 5f12 a5bb e4ed b2bb 92b1 8b3c 6365 86bb
000001d0: b8b9 cc39 7397 29bc 71eb 873c c243 93bb
000001e0: cc77 753c d21f ea3b 270c 1bbc fe49 c3ba
000001f0: a6df 13bc 1161 a33c c96e 533c f51b c1bc
00000200: eb24 c1bc 9928 14bc bf3d 2ebc 6ee3 b8bb
00000210: 85cc 85bb 69f4 433b e4f6 a9bb 7315 1a3c
00000220: 0a95 27bc 0cd6 f43b c1e1 673c 7d01 53bc
00000230: df6e 79bc f490 edbb 1467 60bc d52f f1bb
00000240: 6858 373c a560 39bc d015 d6b9 2000 0f3c
00000250: 9ca6 0f3c 1c70 933c 6f2b 36bb 4561 00bc
00000260: 9efd d03b 0e30 00bc 2964 b93b e9ff d7bb
00000270: 4da2 7ebb 980e 033c 7be3 013c a600 fbba
00000280: 8927 503b e8c9 953c 8772 2f3b 4f94 623a
00000290: 56ed fc39 4687 2dbb a21f bcbb 07b6 08bc
000002a0: c784 cbbb 3d14 09bc 3ca5 d4bb a498 1839
000002b0: 884b bfbb cc6b a8bb 55f4 3cbc 8f8f 0cbc
000002c0: 3507 4eba a69d a1bb ec58 e7b9 0190 ebbc
000002d0: 2374 633c a922 e7bb 5fe2 d7bb ef16 3bbb
000002e0: b4de 0dbc 9659 7dbc 224b 37bc 953b cebc
000002f0: 0e16 c0bb 203b 7b3c 53f4 64bc 3aac 86bb
00000300: add5 123c 974d 86bb 4a9f c53c dcbf bd3a
00000310: 81ce 203c 0ad5 1abc 5eca debb 8510 aa3c
00000320: ea97 493a 1d45 4d3c 276f 273c 3079 7d39
00000330: 706e 1abc 266c a03b 3565 7fbc 3cd7 ac3b
00000340: e6b3 79b9 652b a43c ebd7 23bc 6100 70bc
00000350: 75cc 823c 1d29 6abc 7be0 5a39 4773 2fbc
00000360: c201 ba3b b1ce 0fbc b6ab 2db9 3940 593a
00000370: db0e 283c 8de2 e8bb aebf a7bc 0e6e 22bb
00000380: a0e3 cb3b 4f75 453c 03c9 e1bb 7bbf 2a3b
00000390: 9009 9abb 826b dcbb c96e afbb 8ae7 0eba
000003a0: c095 b83b eeba 86bc 8d5c ca3c 5ddf b73c
000003b0: 76a2 d23b c3bf d43c a573 84ba a104 3fbb
000003c0: 941f 50bc 7c0e 71bc f1c2 a13a 5c2b adba
000003d0: 4731 de3a 8851 f03b 03c7 c83b 274e 303c
000003e0: fdac 20bb 0588 5bbb 10af 193a b87b 763c
000003f0: 3584 feba 6dd1 823c 575d dd3a ad9a 28bb

ablang_branch.4.weight f4 [128, 256]
0.019196412 -0.1519732 0.06712857 0.06468015 0.06870496 -0.12460359 -0.1246232 0.017182017
-0.06244943 0.06398442 0.062689915 -0.047254156 0.008169299 0.08871935 0.071276136 9.0749e-05
-0.045367893 0.1590018 -0.1326954 -0.05020736 -0.02120654 -0.020383257 -0.00016155094 -0.061122064
0.1359149 0.13606283 0.14864516 -0.059723474 -0.17235753 -0.033524275 -0.10336141 0.063570894
0.0566936 0.097409934 -0.029635888 0.015580563 -0.012634528 0.044832855 -0.32197025 -0.027528528
-0.06353855 -0.1445313 -0.09757468 0.16927151 0.001602612 0.17410113 -0.053249385 0.0060828705
-0.004343926 0.05552508 0.13237089 0.026219554 0.18056683 0.058487926 0.031035181 0.07644572
-0.021213213 -0.033335257 0.20778821 -0.014853043 0.0753641 -0.04670288 -0.15016402 -0.002918032
0.048436582 0.11077023 -0.10617682 -0.07851825 0.035620395 -0.04330664 -0.009216862 0.0492231
0.0015410709 0.022121549 0.030859662 0.120660804 0.09916714 0.039683193 -0.23218608 0.11548111
0.14179045 -0.05259725 -0.08790575 -0.028607622 -0.14846525 0.04244062 -0.04802255 -0.11978103
-0.06253249 0.03374071 0.02915215 -0.101350166 0.19619104 0.067256555 -0.0637314 0.006741997
0.08899648 -0.062919855 -0.01247228 -0.042156305 -0.008796916 -0.037972823 -0.07331231 -0.01313798
-0.068018995 0.03960823 0.024280459 0.013328017 0.09359227 -0.13993245 0.0031832154 -0.05045492
0.015970247 0.12582967 -0.14370948 0.043272685 -0.17138717 0.06770602 0.028393002 0.02476139
0.12142165 0.05358509 -0.1301771 0.03198811 -0.021171693 -0.015809156 0.035879266 0.011563563
-0.025703881 -0.08931074 -0.008408735 0.103395276 0.06579966 -0.11178209 0.07867488 0.015623639
0.06420826 -0.045117605 -0.034625717 -0.03609742 -0.0802672 0.02258802 0.08545704 -0.092719875
-0.02290826 0.073117785 -0.076316945 -0.077860825 0.14421242 0.04756872 -0.010143706 -0.020233205
0.07851027 0.044376846 -0.10128411 -0.0663019 0.22246261 -0.042121362 -0.08434373 0.113672644
0.067499004 -0.08652725 -0.0582255 0.08221432 0.04315788 -0.07740656 0.06575276 -0.0281383
0.07232053 -0.10674183 0.0014484648 -0.013063402 -0.14479974 0.019795818 0.02881195 -0.05454182
-0.04166153 0.036429875 -0.092556626 -0.037535354 0.09307097 -0.05562028 0.12808266 0.07459002
0.2568887 -0.037058648 -0.028119724 0.19412489 -0.03290176 -0.024761299 -0.031595677 0.07991733
-0.0014067461 0.013400169 -0.009294483 0.13402389 -0.17324169 0.04160949 0.013700735 -0.0076809903
-0.004179241 -0.11576078 0.025080493 -0.03398045 0.0047328956 0.009945226 -0.059335873 0.11116693
0.012367755 -0.08265174 0.045652192 0.09993264 -0.024393547 -0.104520574 -0.0029277052 -0.13718621
0.05405484 0.022331627 -0.023616575 0.023355627 0.08888036 -0.10733021 -0.024934702 -0.0136350095
0.16577855 -0.032204706 0.2377134 0.017183308 -0.029509395 0.043166764 -0.058241934 0.0018048332
-0.029158458 -0.034604903 -0.11813982 0.02171535 -0.047066636 -0.17010722 0.0762688 -0.002017738
0.141845 -0.032901682 -0.105021104 0.019030808 -0.09025167 -0.061798897 -0.1692608 0.09057575
0.18226625 0.04532426 0.12396274 0.098091684 -0.04985227 -0.1089914 0.064993925 -0.05194632
00000000: cb41 9d3c dd9e 1bbe b47a 893d 0777 843d
00000010: 30b5 8c3d 2b30 ffbd 733a ffbd 4dc1 8c3c
00000020: f9ca 7fbd 430a 833d 9263 803d 938d 41bd
00000030: 86d8 053c 7eb2 b53d 39f9 913d 8050 be38
00000040: afd3 39bd 5ed1 223e 4ee1 07be 3ca6 4dbd
00000050: 56b9 adbc cafa a6bc 0066 29b9 215b 7abd
00000060: 472d 0b3e 0e54 0b3e 7036 183e 9aa0 74bd
00000070: 7e7e 30be c050 09bd 26af d3bd 7531 823d
00000080: 8c37 683d dc7e c73d f6c6 f2bc 9e45 7f3c
00000090: 0d01 4fbc a8a2 373d 49d9 a4be 8283 e1bc
000000a0: 8020 82bd 0300 14be 3cd5 c7bd 8355 2d3e
000000b0: bc0e d23a 9147 323e 071c 5abd d152 c73b
000000c0: 7e57 8ebb 446e 633d 3c8c 073e 64ca d63c
000000d0: 83e6 383e 0991 6f3d 7e3d fe3c 938f 9c3d
000000e0: 55c7 adbc 8d8a 08bd 6fc6 543e 2d5a 73bc
000000f0: 7e58 9a3d 854b 3fbd 99c4 19be 743c 3fbb
00000100: 7065 463d 81db e23d 3c73 d9bd 2dce a0bd
00000110: b1e6 113d 4e62 31bd 5202 17bc 299e 493d
00000120: c2fd c93a 4038 b53c 67cd fc3c 031d f73d
00000130: 2418 cb3d d88a 223d 30c2 6dbe 5c81 ec3d
00000140: 8431 113e 3770 57bd ee07 b4bd 885a eabc
00000150: 4607 18be 37d6 2d3d 4bb3 44bd c24f f5bd
00000160: 0911 80bd b333 0a3d 7dd0 ee3c ad90 cfbd
00000170: 4ee6 483e cebd 893d 9c85 82bd f8eb dc3b
00000180: c943 b63d 20dc 80bd 8958 4cbc 17ac 2cbd
00000190: f120 10bc 6489 1bbd c424 96bd af40 57bc
000001a0: 8b4d 8bbd 3d3c 223d d0e7 c63c c15d 5a3c
000001b0: 4ead bf3d 744a 0fbe 7e9d 503b d1a9 4ebd
000001c0: 09d4 823c 7ed9 003e 9428 13be b33e 313d
000001d0: 1e80 2fbe 74a9 8a3d 7198 e83c 66d8 ca3c
000001e0: eaab f83d 0a7c 5b3d 254d 05be f705 033d
000001f0: 4270 adbc 3482 81bc 23f6 123d 1975 3d3c
00000200: f290 d2bc 8de8 b6bd cac4 09bc e7c0 d33d
00000210: f9c1 863d 02ee e4bd 4c20 a13d 4bfa 7f3c
00000220: 9f7f 833d 3dcd 38bd b2d3 0dbd e3da 13bd
00000230: 2163 a4bd 830a b93c 1a04 af3d ebe3 bdbd
00000240: 1aaa bbbc c7be 953d 0f4c 9cbd 7f75 9fbd
00000250: 6cac 133e 6bd7 423d c931 26bc 1bc0 a5bc
00000260: fec9 a03d 7fc4 353d 0b6e cfbd 4ac9 87bd
00000270: 3dcd 633e 7387 2cbd 68bc acbd 34cd e83d
00000280: eb3c 8a3d 3335 b1bd dd7d 6ebd fb5f a83d
00000290: 51c6 303d 5587 9ebd 62a9 863d 4b82 e6bc
000002a0: c91c 943d 769b dabd 6ada bd3a e107 56bc
000002b0: 6246 14be d72a a23c 0a07 ec3c 3e67 5fbd
000002c0: 48a5 2abd 7e37 153d 548e bdbd acbe 19bd
000002d0: fe9b be3d 17d2 63bd 1a28 033e a7c2 983d
000002e0: ea86 833e cfca 17bd 565b e6bc adc8 463e
000002f0: ffc3 06bd 35d8 cabc 786a 01bd b2ab a33d
00000300: 9162 b8ba 628c 5b3c e347 18bc 8f3d 093e
00000310: 4566 31be b66e 2a3d 0c79 603c d1b0 fbbb
00000320: 04f2 88bb fd13 edbd 9b75 cd3c 162f 0bbd
00000330: 6816 9b3b 4df1 223c 2c0a 73bd 7dab e33d
00000340: 20a2 4a3c 5145 a9bd cbfd 3a3d 7ca9 cc3d
00000350: fad4 c7bc e20e d6bd bede 3fbb 8b7a 0cbe
00000360: 9c68 5d3d d1f0 b63c 8c77 c1bc 4d54 bf3c
00000370: e806 b63d f1cf dbbd dc43 ccbc 6065 5fbc
00000380: dac1 293e 15e9 03bd 246b 733e 02c4 8c3c
00000390: b0bd f1bc a2cf 303d 188f 6ebd 2790 ec3a
000003a0: b8dd eebc dfbd 0dbd 4af3 f1bd 64e4 b13c
000003b0: f2c8 40bd 9630 2ebe d132 9c3d 073c 04bb
000003c0: d13f 113e eac3 06bd 4e15 d7bd 7fe6 9b3c
000003d0: ded5 b8bd d720 7dbd b452 2dbe c77f b93d
000003e0: 01a4 3a3e eea5 393d 2de0 fd3d 4be4 c83d
000003f0: e531 4cbd e236 dfbd 891b 853d aac5 54bd

ablang_branch.4.bias f4 [128]
-0.0062566837 -0.019459058 -0.00077945844 0.008188046 -0.009737108 -0.006889741 -0.0021007285 -0.017015168
-0.014123669 -0.014540586 -0.007094894 0.022508997 0.0060512368 -0.009607388 0.002216831 -0.016952714
0.022506762 0.010855688 -0.0057304157 -0.0023471713 -0.002269424 0.008081237 0.01514954 0.0014811235
-0.011384161 -0.015203129 0.0008285127 0.009761389 0.00065176876 0.018272007 0.015259561 0.012264608
0.0027523544 0.03150217 -0.016464764 -0.009411481 -0.013413534 -0.0018700584 -0.0063725635 -0.009620725
0.0017919998 0.007693387 0.0127306115 -0.0019699219 0.02602244 -0.014412826 0.0035739506 -0.01011339
-0.0056501157 -0.013857383 0.015224797 -0.011231633 -0.0089341365 0.012569292 -0.0006071461 -0.016241306
-0.0015485381 0.01969655 9.138946e-05 -0.00827017 -0.016491855 0.0038230782 0.010877725 -0.010982048
-0.014589345 -0.016167495 -0.0060807704 -0.008686146 -0.0012682133 0.0010210993 0.0029414864 0.022251131
0.024535919 0.028251102 -0.0052710855 0.033141043 -0.0052709444 0.0022072038 -0.016698131 0.0134996185
-0.004133454 0.011612559 -0.016566275 -0.0067990273 -0.007996653 -0.008959342 0.0021568264 -0.0016885486
-0.020827143 -0.0045873113 -0.006376872 -0.0072600986 -0.009778993 -0.009020889 0.007892137 0.00089322147
-0.0028736775 -0.008440054 -0.00080684066 0.0054673026 0.013316258 0.0048773675 -0.005330363 -0.004710168
-0.006529959 -0.0131716095 -0.0120971985 -0.005067623 -0.0069898325 0.024039634 0.0156008 -0.005770529
-0.005104137 -0.0015104717 -0.018448694 0.00259138 -0.0023801802 -0.0032516397 0.0026076508 0.010946439
-0.0009994996 0.018107116 -0.008354221 -0.013997581 -0.0040664356 -0.0016110116 -0.0025538302 -0.002060563
00000000: de04 cdbb 9a68 9fbc 9254 4cba 2727 063c
00000010: 6488 1fbc 56c3 e1bb 60ac 09bb 6563 8bbc
00000020: f666 67bc a33b 6ebc 497c e8bb ca64 b83c
00000030: 7449 c63b 4e68 1dbc 4148 113b 6be0 8abc
00000040: 1a60 b83c 0edc 313c 36c6 bbbb 00d3 19bb
00000050: 9eba 14bb 2a67 043c c735 783c 4222 c23a
00000060: a284 3abc 8b16 79bc 8c30 593a 3cee 1f3c
00000070: 76db 2a3a 2daf 953c 3d03 7a3c 7ff1 483c
00000080: d860 343b 6b08 013d 1de1 86bc 9d32 1abc
00000090: 70c4 5bbc bf1c f5ba f0d0 d0bb 3fa0 1dbc
000000a0: 89e1 ea3a cf18 fc3b 0e94 503c ce19 01bb
000000b0: 032d d53c c623 6cbc f138 6a3b a2b2 25bc
000000c0: 9b24 b9bb 140a 63bc 6d71 793c e204 38bc
000000d0: 7c60 12bc 6fef 4d3c e328 1fba 7d0c 85bc
000000e0: 51f8 caba a95a a13c 58a8 bf38 9b7f 07bc
000000f0: ed19 87bc 9c8c 7a3b 7c38 323c 0cee 33bc
00000100: 2608 6fbc b271 84bc 3341 c7bb 5650 0ebc
00000110: 2d3a a6ba 68d6 853a f4c5 403b 0148 b63c
00000120: 8dff c83c db6e e73c 12b9 acbb e7be 073d
00000130: e3b7 acbb bca6 103b 85ca 88bc 812d 5d3c
00000140: ed71 87bb 9a42 3e3c ffb5 87bc 60ca debb
00000150: 6504 03bc 34ca 12bc 8b59 0d3b 4a52 ddba
00000160: af9d aabc 2851 96bb 14f5 d0bb 1fe6 edbb
00000170: 1238 20bc 5acc 13bc 064e 013c 1427 6a3a
00000180: 4f54 3cbb 2748 0abc 2982 53ba 0f27 b33b
00000190: 6f2c 5a3c 53d2 9f3b 53aa aebb c157 9abb
000001a0: 44f9 d5bb bccd 57bc 5433 46bc 4e0e a6bb
000001b0: f70a e5bb c4ee c43c 7f9a 7f3c b516 bdbb
000001c0: 9b40 a7bb 05fb c5ba b721 97bc 24d4 293b
000001d0: ccfc 1bbb 7619 55bb 1fe5 2a3b b158 333c
000001e0: a401 83ba 6055 943c 24e0 08bc 1c56 65bc
000001f0: bc3f 85bb 9428 d3ba 295e 27bb 830a 07bb

ablang_branch.5.weight f4 [128]
0.9871808 0.98466754 0.9749319 0.99630606 1.0109235 0.97360235 0.9834463 0.9926449
1.0050544 0.9979955 0.97367865 1.0190085 1.0066781 0.97911894 0.9983398 0.99060166
1.0216252 0.99045736 0.9963186 0.9950234 0.99170035 0.9876783 0.9877131 0.9842966
0.979378 0.98419875 1.0027649 0.985359 0.9737635 1.007829 1.0072318 1.0097189
1.0054735 1.031299 0.9926845 1.0167992 0.9843032 0.98896676 0.9877257 0.99023366
0.9957928 1.0096599 1.0063341 0.99759805 1.024986 0.9929664 0.99909234 0.98419994
0.99087775 0.997609 1.002038 0.98228997 0.99383056 1.0062271 0.9954667 0.97929186
0.9947368 1.0201204 0.99941075 0.98676616 0.9875877 0.97862244 0.9986307 1.0045563
0.992022 0.98870873 0.98694795 0.9620313 0.99111027 1.005647 0.9972041 1.015221
1.0297196 1.025454 0.99141836 1.0053831 0.98338705 0.978253 1.0096829 1.002846
0.9909708 1.0060443 0.98372495 1.0068629 0.9910352 0.9931096 1.0060012 0.9732241
0.9978472 1.000866 0.9911646 0.99495524 0.99102706 0.9849206 0.99467236 0.9976082
0.99358183 0.9946698 1.0032992 0.9977562 1.0105454 0.99699414 0.9881616 0.9891047
0.9875648 1.0078743 0.9914947 0.9924304 0.99719036 1.0175761 1.0119863 0.9813988
0.991704 0.9879851 0.9928917 0.9888984 1.0019025 0.9856374 0.9986083 1.008249
0.9980159 1.0137285 0.9915494 0.9859523 0.9995324 0.9974617 0.998587 0.9952147
00000000: e2b7 7c3f 2c13 7c3f 2395 793f ea0d 7f3f
00000010: f165 813f 013e 793f 23c3 7b3f fa1d 7e3f
00000020: 9fa5 803f a27c 7f3f 0143 793f df6e 823f
00000030: d4da 803f 8aa7 7a3f 3293 7f3f 1298 7d3f
00000040: 9dc4 823f 9d8e 7d3f bc0e 7f3f dbb9 7e3f
00000050: 13e0 7d3f 7cd8 7c3f c4da 7c3f ddfa 7b3f
00000060: 84b8 7a3f 73f4 7b3f 9a5a 803f 7d40 7c3f
00000070: 9148 793f 8a00 813f f9ec 803f 783e 813f
00000080: 5bb3 803f 9b01 843f 9220 7e3f 7a26 823f
00000090: 4bfb 7b3f ed2c 7d3f 97db 7c3f f47f 7d3f
000000a0: 47ec 7e3f 893c 813f 8ecf 803f 9662 7f3f
000000b0: be32 833f 0c33 7e3f 84c4 7f3f 87f4 7b3f
000000c0: 2aaa 7d3f 4e63 7f3f c842 803f 5b77 7b3f
000000d0: ae6b 7e3f 0dcc 803f e8d6 7e3f dfb2 7a3f
000000e0: 12a7 7e3f 4e93 823f 62d9 7f3f b59c 7c3f
000000f0: 8cd2 7c3f 0087 7a3f 43a6 7f3f 4d95 803f
00000100: 27f5 7d3f 041c 7d3f 9fa8 7c3f af47 763f
00000110: 67b9 7d3f 0ab9 803f c548 7f3f c3f2 813f
00000120: dacd 833f 1442 833f 98cd 7d3f 65b0 803f
00000130: 41bf 7b3f ca6e 7a3f 4a3d 813f 425d 803f
00000140: 43b0 7d3f 0fc6 803f 66d5 7b3f e2e0 803f
00000150: 7cb4 7d3f 6e3c 7e3f a6c4 803f 3725 793f
00000160: ea72 7f3f 611c 803f f7bc 7d3f 63b5 7e3f
00000170: f3b3 7d3f c223 7c3f d9a2 7e3f 4063 7f3f
00000180: 615b 7e3f aea2 7e3f 1c6c 803f f36c 7f3f
00000190: 8d59 813f 023b 7f3f 29f8 7c3f f735 7d3f
000001a0: 0cd1 7c3f 0602 813f 99d2 7d3f eb0f 7e3f
000001b0: de47 7f3f ef3f 823f c488 813f f43c 7b3f
000001c0: 50e0 7d3f 97ec 7c3f 272e 7e3f 7228 7d3f
000001d0: 573e 803f bc52 7c3f cba4 7f3f 4e0e 813f
000001e0: f87d 7f3f dbc1 813f 2ed6 7d3f 5f67 7c3f
000001f0: 5be1 7f3f a659 7f3f 66a3 7f3f 64c6 7e3f

ablang_branch.5.bias f4 [128]
-0.0077527463 -0.021852352 -0.0013579269 0.009348717 -0.012737474 -0.00626172 -0.0012983979 -0.019374106
-0.0154157095 -0.014867174 -0.0075341444 0.025411222 0.0065579037 -0.011070834 0.0013901404 -0.019144561
0.024400165 0.0130023565 -0.008257575 -0.0030453708 -0.004666725 0.01018357 0.022077462 0.0021038458
-0.012400986 -0.01643246 -0.0002598482 0.009024859 0.0013977097 0.019389298 0.014982658 0.015512336
0.0053053554 0.034618326 -0.020294078 -0.013115596 -0.017229134 1.9153218e-05 -0.007783832 -0.014581295
-0.00031465845 0.006500137 0.015732117 -0.0031644597 0.0284919 -0.015979545 0.0015945816 -0.011645618
-0.0059288763 -0.016140161 0.01325927 -0.013697787 -0.011366024 0.0114216255 -0.0015304672 -0.01677061
0.00087979704 0.021036934 0.0007664605 -0.01124693 -0.022110479 0.005032171 0.009543629 -0.011436174
-0.01490504 -0.016195524 -0.0076377224 -0.0070212996 -0.00027045282 0.00037495783 0.0027970052 0.022494353
0.02717309 0.028886821 -0.005979877 0.03417647 -0.004436586 0.0009983801 -0.018608667 0.012436167
-0.0036688366 0.01123315 -0.017483493 -0.010649547 -0.008081198 -0.007208875 -0.0035774577 -0.0006129266
-0.025763515 -0.007116467 -0.008318376 -0.0076008104 -0.010468734 -0.013255434 0.008821463 0.0009783948
-0.0035982833 -0.009648154 -0.0036528443 0.006671696 0.014840047 0.0043645687 -0.007016407 -0.007348139
-0.010401423 -0.016320461 -0.012647867 -0.0089977365 -0.009227673 0.023789246 0.017217398 -0.005661556
-0.005266517 -0.0020399597 -0.022664381 0.0039300905 -0.0056179585 -0.004901419 0.0015309014 0.01261878
-0.0036177502 0.018134186 -0.010197814 -0.015046527 -0.0069799935 4.701731e-05 -0.0028508538 -0.0042165187
00000000: c00a febb b403 b3bc 77fc b1ba 5c2b 193c
00000010: d7b0 50bc 1d2f cdbb 012f aaba 72b6 9ebc
00000020: 2c92 7cbc 7395 73bc fce0 f6bb 322b d03c
00000030: afe3 d63b 7162 35bc 5f35 b63a 0ed5 9cbc
00000040: dbe2 c73c d607 553c c84a 07bc d894 47bb
00000050: 54eb 98bb fdd8 263c cbdb b43c ade0 093b
00000060: 812d 4bbc 5e9d 86bc 3c3c 88b9 01dd 133c
00000070: 5b33 b73a 4ed6 9e3c d379 753c 7427 7e3c
00000080: 8cd8 ad3b f2cb 0d3d c43f a6bc cce2 56bc
00000090: 1d24 8dbc 39ab a037 840f ffbb 62e6 6ebc
000000a0: bef8 a4b9 1aff d43b a4e0 803c d362 4fbb
000000b0: d867 e93c 89e7 82bc 4801 d13a 43cd 3ebc
000000c0: 0547 c2bb 5f38 84bc 693d 593c af6c 60bc
000000d0: 8f38 3abc c521 3b3c f599 c8ba 8562 89bc
000000e0: 2ea2 663a a655 ac3c 4bec 483a 0b45 38bc
000000f0: 0921 b5bc e9e4 a43b e25c 1c3c ca5e 3bbc
00000100: 4534 74bc 7aac 84bc dc45 fabb ee12 e6bb
00000110: 90cb 8db9 fd95 c439 f64d 373b 1446 b83c
00000120: 1a9a de3c 0ea4 ec3c d8f2 c3bb a0fc 0b3d
00000130: c860 91bb 14dc 823a 3471 98bc 11c1 4b3c
00000140: dd70 70bb 3f0b 383c 8b39 8fbc 707b 2ebc
00000150: 0067 04bc 6d38 ecbb c873 6abb cfac 20ba
00000160: 020e d3bc 4131 e9bb cc49 08bc 3810 f9bb
00000170: 0e85 2bbc 522d 59bc e687 103c 7b3d 803a
00000180: 2dd1 6bbb 4a13 1ebc 8f64 6fbb 3e9e da3b
00000190: ab23 733c a804 8f3b e3e9 e5bb a8c8 f0bb
000001a0: bb6a 2abc 7db2 85bc 0039 4fbc 3e6b 13bc
000001b0: aa2f 17bc aae1 c23c 800b 8d3c 9384 b9bb
000001c0: bf92 acbb d8b0 05bb a7aa b9bc fdc7 803b
000001d0: da16 b8bb 159c a0bb 87a8 c83a 00bf 4e3c
000001e0: c717 6dbb 258e 943c bb14 27bc b585 76bc
000001f0: 6eb8 e4bb 7434 4538 64d5 3abb b92a 8abb

ablang_branch.8.weight f4 [64, 128]
-0.027031267 0.22442873 -0.059990775 0.018922642 0.09324386 -0.041002903 0.09219412 0.08822244
0.029330708 -0.11352778 -0.1193849 0.0016104481 0.012209716 0.2542683 0.17437135 0.043322805
0.08340808 -0.058695 -0.10558062 0.0060889325 0.051635046 -0.061510574 -0.0029576204 -0.15269285
-0.048489004 0.19180338 0.23007527 -0.15901904 -0.018423695 0.03703623 -0.022775164 -0.10423671
0.012746674 -0.14249383 -0.0275105 -0.017185204 0.06802596 0.14855641 0.10645082 -0.045329623
0.072917 0.059848104 -0.008420167 -0.05304588 -0.14004736 -0.023347013 0.038718272 0.07973223
-0.012669209 0.013612715 0.12491383 -0.12193012 0.03800459 -0.073521204 -0.17142642 -0.21506292
-0.037978876 0.018403541 -0.22025895 0.04999536 0.095015496 0.036963988 0.07403236 -0.14645046
-0.059565477 -0.05222817 0.24636817 0.015373826 0.019973243 -0.0662671 -0.029821614 -0.06752798
-0.0084561 -0.114216916 -0.036585532 -0.008131584 -0.08643746 0.18669459 -0.04838603 -0.21778922
-0.04178575 -0.28818768 0.053414267 -0.029071258 0.03677109 0.14224356 -0.08368133 0.01630999
0.069619164 -0.11356857 0.23829342 -0.041426666 0.038661834 -0.153161 -0.23818146 0.19058226
0.044957012 -0.029268906 -0.09865357 -0.21922858 -0.058404252 0.059309267 0.14116815 0.10409744
0.13129953 0.09339879 -0.10595769 0.18731073 0.10714739 0.07260283 -0.068168424 -0.16146514
0.29255143 -0.1634421 0.17059886 0.0821968 -0.037353452 0.18779749 0.18730226 -0.04041707
-0.026732614 -0.21461284 -0.14977482 0.11089232 0.12198846 0.15351334 -0.07587401 -0.056449413
-0.22673175 -0.0065253917 0.013542811 0.108742565 -0.057939716 -0.010086017 -0.2064828 -0.081992805
0.2306261 0.045437403 0.0060488535 -0.09697599 -0.1567593 -0.28997895 -0.18083256 -0.103243545
0.0349837 -0.062390365 0.06362094 -0.05556598 0.04238733 -0.010191757 0.013741656 -0.07040697
-0.06739924 0.01988429 -0.14476113 -0.15431285 -0.19259793 -0.05385588 0.06732599 -0.036672574
0.18257947 0.0047648107 0.14974163 -0.025354253 0.07862008 0.021795852 -0.048853077 0.12656888
-0.021227255 0.0351941 0.16717742 0.15409397 0.13007112 0.17242165 0.09256178 -0.0920246
-0.2153947 0.0887124 -0.15432821 -0.15877108 -0.0394257 0.10164425 -0.066536516 -0.077930495
-0.057570018 -0.18175253 -0.04846315 0.017371273 0.1271946 -0.040859275 -0.061651208 -0.036929917
0.19109896 -0.18028387 0.097181775 -0.115540035 0.05609058 -0.12584871 -0.09332956 0.044572614
-0.2043039 0.015578526 0.20152648 -0.09775703 0.1872851 0.08794246 -0.28814676 0.031941127
-0.078339696 0.14971001 0.066901505 0.111658275 -0.012123989 -0.080284335 0.07771464 0.39044243
0.21406807 0.12410448 0.061363466 0.0022243587 0.054722082 0.062209915 0.0792256 0.0402813
0.1955701 -0.012778904 -0.02027711 0.06761911 -0.12264572 0.11764361 -0.015335428 0.0051935683
0.029284593 -0.14116843 -0.26555318 0.019799905 0.042152468 -0.1299121 0.009323634 0.13031197
0.070303544 0.05984922 0.04927983 -0.25704604 0.25701416 0.03795245 -0.053304397 0.006151541
-0.059648775 0.1641964 0.033699468 0.060345057 -0.28882137 -0.20161931 0.10961538 -0.0041190498
00000000: ad70 ddbc a5d0 653e e3b8 75bd a803 9b3c
00000010: a3f6 be3d a9f2 27bd 45d0 bc3d f7ad b43d
00000020: f446 f03c 4181 e8bd 1280 f4bd ac15 d33a
00000030: 430b 483c 742f 823e 678e 323e 4173 313d
00000040: dbd1 aa3d 2b6a 70bd a73a d8bd ab85 c73b
00000050: 457f 533d 83f2 7bbd a3d4 41bb 845b 1cbe
00000060: 689c 46bd 1b68 443e da98 6b3e e3d5 22be
00000070: 4aed 96bc 4db3 173d fb92 babc 0e7a d5bd
00000080: 6dd7 503c e7e9 11be b35d e1bc fcc7 8cbc
00000090: 3251 8b3d 2c1f 183e e302 da3d 8eab 39bd
000000a0: 8255 953d 4923 753d bdf4 09bc a346 59bd
000000b0: 9368 0fbe 3c42 bfbc 0d97 1e3d a74a a33d
000000c0: 8492 4fbc dd07 5f3c d2d2 ff3d 80b6 f9bd
000000d0: b3aa 1b3d 4992 96bd 688a 2fbe 7439 5cbe
000000e0: bd8f 1bbd 06c3 963c 908b 61be efc7 4c3d
000000f0: 7c97 c23d 8d67 173d 479e 973d 1cf7 15be
00000100: eefa 73bd 35ed 55bd f047 7c3e 80e2 7b3c
00000110: ed9e a33c 0cb7 87bd 754c f4bc 1c4c 8abd
00000120: 748b 0abc 8fea e9bd b6da 15bd 563a 05bc
00000130: 1f06 b1bd de2c 3f3e 6e30 46bd 2304 5fbe
00000140: 8927 2bbd 568d 93be ebc8 5a3d d926 eebc
00000150: 489d 163d 4ca8 113e 1e61 abbd 879c 853c
00000160: 7e94 8e3d a396 e8bd 3103 743e 02af 29bd
00000170: df5b 1e3d 3dd6 1cbe d7e5 73be ff27 433e
00000180: d824 383d 58c5 efbc e20a cabd 757d 60be
00000190: 4c39 6fbd 46ee 723d 628e 103e 0a31 d53d
000001a0: 6273 063e dd47 bf3d 5800 d9bd 62ce 3f3e
000001b0: 1770 db3d cbb0 943d e39b 8bbd 1e57 25be
000001c0: 4dc9 953e 5e5d 27be 78b1 2e3e cc56 a83d
000001d0: efff 18bd fc4d 403e 2acc 3f3e 5f8c 25bd
000001e0: 5bfe dabc 78c3 5bbe 925e 19be 831b e33d
000001f0: 16d5 f93d 9a32 1d3e d563 9bbd 8037 67bd
00000200: 5e2c 68be f4d2 d5bb abe2 5d3c 6cb4 de3d
00000210: 3252 6dbd d23f 25bc 3a70 53be d8eb a7bd
00000220: 4029 6c3e 921c 3a3d 7635 c63b 599b c6bd
00000230: 8385 20be 1f78 94be 2c2c 39be 5a71 d3bd
00000240: 114b 0f3d 0a8d 7fbd b24b 823d 2799 63bd
00000250: 569e 2d3d 54fb 26bc af24 613c 8831 90bd
00000260: 9d08 8abd 61e4 a23c 433c 14be 3004 1ebe
00000270: 6438 45be fc97 5cbd 35e2 893d fb35 16bd
00000280: 1df6 3a3e 2122 9c3b df55 193e b9b3 cfbc
00000290: 9103 a13d 378d b23c 2a1a 48bd 469b 013e
000002a0: c8e4 adbc b027 103d 8f30 2b3e cfca 1d3e
000002b0: 5d31 053e 4d8f 303e 0891 bd3d 6577 bcbd
000002c0: 6e90 5cbe d9ae b53d 3708 1ebe e394 22be
000002d0: d87c 21bd dc2a d03d 4c44 88bd 069a 9fbd
000002e0: 8ace 6bbd 561d 3abe 4c81 46bd 334e 8e3c
000002f0: 4d3f 023e 0e5c 27bd fa85 7cbd d343 17bd
00000300: 72af 433e 569c 38be 3d07 c73d 41a0 ecbd
00000310: 3cbf 653d 7cde 00be 9123 bfbd c691 363d
00000320: 0b35 51be 133d 7f3c f55c 4e3e d634 c8bd
00000330: aac7 3f3e 2d1b b43d f987 93be b3d4 023d
00000340: 9070 a0bd 954d 193e a803 893d 18ad e43d
00000350: b2a3 46bc 1d6c a4bd da28 9f3d 12e8 c73e
00000360: a934 5b3e 7d2a fe3d 4258 7b3d 8cc6 113b
00000370: 4324 603d d3cf 7e3d 0841 a23d 01fe 243d
00000380: 8743 483e 9c5e 51bc 2f1c a6bc e37b 8a3d
00000390: ae2d fbbd 22ef f03d 7241 7bbc cf2e aa3b
000003a0: 3ee6 ef3c 758e 10be 96f6 87be 6933 a23c
000003b0: 11a8 2c3d ad07 05be 28c2 183c 8070 053e
000003c0: 4efb 8f3d 7524 753d a6d9 493d 8a9b 83be
000003d0: 5c97 833e 0774 1b3d b655 5abd de92 c93b
000003e0: 4652 74bd 1a23 283e 7408 0a3d 612c 773d
000003f0: 65e0 93be 4b75 4ebe 077e e03d 18f9 86bb

ablang_branch.8.bias f4 [64]
-0.018460983 -0.012577737 0.0016623304 -0.008483417 -0.022755787 -0.0072460407 -0.013846163 -0.0054817027
-0.004536773 -0.011577784 0.016498664 0.0030268824 -0.005688881 -0.0064027775 0.023997383 0.011870369
-0.021253569 -0.016159222 -0.0024426107 -0.009250631 -0.002163993 -0.017796144 -0.0028858362 0.015176496
0.0052703135 0.01132076 -0.0046589123 0.00446134 -0.009090548 0.0031647438 -0.00862514 -0.013817928
0.016377002 -0.01568511 -0.009042631 0.0036550367 -0.0034773005 0.020093486 0.009133298 -0.014875231
-0.0017047336 -0.00057268067 0.015148143 0.0013222399 -0.008772591 9.516587e-05 0.030123122 -0.014322193
-0.005933033 0.020963935 -0.010837137 0.006015545 0.009187922 0.0042983782 -0.02939649 0.0042735445
0.0057919007 4.0309522e-05 0.0053364895 0.030674513 0.017032744 -0.011410833 -0.009398391 0.022536378
00000000: 7d3b 97bc da12 4ebc 8de2 d93a 08fe 0abc
00000010: 586a babc 3270 edbb 04db 62bc db9f b3bb
00000020: 36a9 94bb bfb0 3dbc 3528 873c a95e 463b
00000030: cb69 babb 64ce d1bb 2996 c43c f07b 423c
00000040: f71b aebc 5860 84bc 3514 20bb f58f 17bc
00000050: c7d1 0dbb 38c9 91bc 4c20 3dbb d6a6 783c
00000060: 98b2 ac3b b57a 393c caa9 98bb 6f30 923b
00000070: 86f0 14bc 9767 4f3b 7650 0dbc 9764 62bc
00000080: 1029 863c 0f7e 80bc 8b27 14bc 5789 6f3b
00000090: 6ce3 63bb 189b a43c d4a3 153c 3eb7 73bc
000000a0: 5e71 dfba f31f 16ba eb2f 783c 024f ad3a
000000b0: eaba 0fbc ca93 c738 c4c4 f63c a2a7 6abc
000000c0: e369 c2bb 8fbc ab3c 3f8e 31bc 0d1e c53b
000000d0: f088 163c 69d9 8c3b e8d0 f0bc 1709 8c3b
000000e0: fcc9 bd3b 0512 2938 b8dd ae3b 1e49 fb3c
000000f0: 4188 8b3c 81f4 3abc b5fb 19bc 369e b83c
