data/model_weights/cv_fold_2_model2_1.pt (torch, 686405 bytes, 27 tensors)

ablang_branch.0.weight f4 [256, 480]
00000000: 09ab 28bd 2f42 0f3d beaf b83d 716f b4bc
00000010: bf29 4ebd 7003 5fbd 6c1e cdbd 5408 263d
00000020: 2dc0 e1bc 3b21 913d 5e27 6e3d bec6 cc3c
00000030: 4f0d da3d 0dd9 03be c1d4 9abd efe0 a9bd
00000040: f939 b13c d2da 283c 64b7 d8bc 69a8 8bbd
00000050: 7d21 4d3d c109 053d 7540 893d e3dc bebc
00000060: 421a d43d caa0 563c dfc4 13bd 6035 78bb
00000070: 0fe6 d63c d4e4 e23c d532 dfbd 448b a3bc
00000080: 9659 ef3c 7313 943d 7840 33bd e187 0b3d
00000090: a3f2 d5bc b5b7 8f3d 3322 823d 8837 33bd
000000a0: 4c09 fabc 1fcc 08bd c886 fa3b a0a9 5abd
000000b0: 1513 86bd 1e59 72bd 92d4 eabc 22b8 38bd
000000c0: 562b 9f3d 3a01 4b3d ad17 d6bd be1c a9bd
000000d0: 0455 43bd c620 1d3e b9c7 cc3d 9afc 09bc
000000e0: 23eb a1bd 606f 443d a99c a53c 4098 15bc
000000f0: 54bf 7d3d 47ae e5bc 5970 383c 3b27 d73d
00000100: 9cf2 633d 3ad4 d4bb 0508 47bd 26ef 1e3d
00000110: 0fd3 d3bb a79b 023e 2e05 18be 7c45 d43c
00000120: 3eab 00bd f895 8f3c 4eed 433e 21d2 f83c
00000130: 6861 09bd 499f 453c 3947 913d a585 083c
00000140: ac77 40bd 612b 5ebd 1088 0d3d d923 56bd
00000150: c43f d33d c194 c33d 2a17 57bd b1ae 7b3b
00000160: 2da2 cebc f1a1 65bd 4716 e53c 8d2f f43d
00000170: 153c babd 8e81 40bb fd10 553d ce30 cf3c
00000180: 30b2 e43c 0900 003d d7bf 1ebd 897d 0b3d
00000190: 91d3 b1bd ffcd 013d 87f2 4abd 02fd 5a3b
000001a0: 1dc4 04be 57fe ca3d a2c6 e2bb 3eda ab3c
000001b0: 28dc 5abc 0e9d 4ebc e83d 1b3d 8d52 97bc
000001c0: d72a 46bd 9489 3cbe 96fc a4bd aeaf 333d
000001d0: 54a6 d53d 7a52 a439 b0a1 27bd 1778 3dbb
000001e0: e1c5 093c 38cd 8a3c d860 023e fd3c c93c
000001f0: d48e b63c 5c60 e5bc 7545 78bb 8944 9bbd
00000200: ce19 0c3d 7f65 5abd ed07 803d 5014 b33d
00000210: e807 ad3b 7c5a 06be 4570 3a3e 4aa0 8bbc
00000220: f46a abbd 7102 62bc 2b4a 7abd 30fa 1cbb
00000230: 1a4f c8bd ddd8 573d 8e98 cc3c 1102 b1bd
00000240: 4369 10be 4b82 903d 7700 753c d384 e9bc
00000250: dcbf 343b 81fd 643c b821 fb3d 8543 163d
00000260: e58f 11be 03d8 6ebd 4990 a5bd 94d6 37bd
00000270: e373 1ebd 196c 7a3d 60f2 dabc aeb3 8a3b
00000280: e55d b9ba 6f9f 3fbd a80e 55bc 81f4 bcbd
00000290: 13df 70bd 652d e33d dc6d e1bd fc1a cdbd
000002a0: 6637 24bd 6990 103d fde1 d13b 650b 883d
000002b0: 84d8 6a3c 32f4 74bc 53cc 1a3d 0de9 b33d
000002c0: c6d3 babc 79eb b73c dac9 5abd 7162 303e
000002d0: 385c 12bc 3c8c bebb 89b5 9e3d 1926 3fbd
000002e0: d7a3 5dbd 4245 78bc bafb a1bd 73ea a53d
000002f0: e780 82bd f9c1 2a3d ff7d bf3b 9608 1e3d
00000300: 0d17 a33d 2eca d13c ec0f 4f3d 4920 b9bd
00000310: 9813 f7bc 5c3a ffbd e087 8ebd 7721 85bd
00000320: 255f d63c 6dc3 aabc 7cda 373c 6100 6c3b
00000330: 3c7a 263d cfd6 193d ed1f 2d3d 6f20 0abd
00000340: 3baf bf3c 6efc dfbd 312b 603d e27a 3a3d
00000350: 4244 7cbc d537 a339 3801 1b3e 7aef 28bd
00000360: fe7a 84bd ce7d 34bd 5274 cf3a c028 44bc
00000370: c672 873d 50a3 a73d 8b7c 98bc 0ad3 e13b
00000380: fb98 1dbd f00d 5abd 067b bbbc 09d3 e33c
00000390: 866f 2b3e 14f6 d13c ba61 37bd 752d cbbc
000003a0: ef1e da3d 92b1 e33c ab93 81bd 3850 903d
000003b0: 34ed 48bd 9f63 50bd 7442 0c3d 1816 d8bc
000003c0: b57a acbd 95f8 f23d 7909 253d fbba 7cbd
000003d0: 3639 f1bd d58a d73d 4f73 13bc 5493 cebc
000003e0: e8c9 2f3b c27a 053d f5fd 72bd 58e3 b53b
000003f0: 10ff b7b9 152f 163d 9ed4 643d d096 6d3d
-0.041178737 0.034975227 0.09017895 -0.022025796 -0.05033278 -0.054446638 -0.10015568 0.040535286
-0.027557457 0.07086416 0.058143012 0.024997111 0.1064707 -0.12875767 -0.07560111 -0.08294856
0.021634089 0.010306077 -0.026454635 -0.06819231 0.050080765 0.032480005 0.06701747 -0.023298686
0.10356571 0.013099859 -0.036076423 -0.003787361 0.026232747 0.027697004 -0.10898367 -0.019963868
0.029217523 0.07230272 -0.043762654 0.03406513 -0.026116675 0.07017461 0.06354179 -0.04375413
-0.030522011 -0.03339779 0.0076454617 -0.053384423 -0.06546608 -0.05916702 -0.028665815 -0.045097478
0.077719375 0.049561717 -0.104537345 -0.08257435 -0.0476885 0.15344533 0.099990316 -0.008422041
-0.07906177 0.047957778 0.020216303 -0.0091305375 0.061950043 -0.028037203 0.0112572545 0.105055295
0.055651292 -0.006495026 -0.048591632 0.03880229 -0.006464369 0.12754689 -0.14845726 0.025912039
-0.03141331 0.017527565 0.19133493 0.030373635 -0.03354016 0.012061902 0.07093663 0.008332645
-0.046989128 -0.054240588 0.034553587 -0.05228028 0.10314897 0.09549857 -0.052512325 0.0038403685
-0.025223816 -0.056062642 0.027964724 0.11923132 -0.09093491 -0.0029374096 0.052018154 0.025291827
0.027916998 0.031250034 -0.03875717 0.034055267 -0.08682931 0.031690594 -0.0495477 0.0033414965
-0.12965436 0.09911793 -0.0069206515 0.02097809 -0.013358153 -0.012610687 0.037900835 -0.01847198
-0.0483807 -0.18411857 -0.080559894 0.043868713 0.10432115 0.00031341967 -0.04092568 -0.002891069
0.008408994 0.016943559 0.12732255 0.024565214 0.022284903 -0.02800005 -0.0037883196 -0.075814314
0.034204297 -0.05331945 0.06251512 0.08744109 0.0052804835 -0.13120455 0.1820689 -0.017044205
-0.08370009 -0.013794527 -0.06110589 -0.0023952834 -0.097807124 0.05269705 0.024975087 -0.08642972
-0.14102654 0.070561014 0.014953724 -0.028505718 0.0027580177 0.013976456 0.12262291 0.036685485
-0.14215048 -0.058311474 -0.08084161 -0.044882372 -0.038684737 0.061138246 -0.026726902 0.0042328453
-0.0014142363 -0.046782907 -0.013003983 -0.09226323 -0.05880649 0.11092643 -0.11007282 -0.100149125
-0.040091895 0.03529397 0.0064051137 0.06642798 0.014333848 -0.014950799 0.037792515 0.08784685
-0.02280606 0.02245115 -0.053415157 0.17225052 -0.0089331195 -0.005815057 0.07749469 -0.046667192
-0.054111328 -0.015153231 -0.07909341 0.08101358 -0.063722424 0.041688893 0.0058438773 0.038582407
0.07963381 0.025609102 0.050552294 -0.09039361 -0.03016071 -0.12462303 -0.0695951 -0.065005235
0.026168415 -0.02084514 0.011221524 0.0036010968 0.040643916 0.037558373 0.042266775 -0.033722337
0.023398986 -0.10936819 0.05472869 0.045527346 -0.015397133 0.0003113138 0.15137184 -0.041244008
-0.064687714 -0.04406529 0.0015827513 -0.011972606 0.06613688 0.08185446 -0.018614074 0.006891613
-0.03847597 -0.053235948 -0.02288581 0.02781059 0.16741762 0.025630035 -0.044770934 -0.024801949
0.10650431 0.027794633 -0.063269936 0.070465505 -0.04905434 -0.050876256 0.034243062 -0.026377723
-0.08421842 0.118638195 0.040292237 -0.061701756 -0.1177849 0.10524527 -0.00899966 -0.025216736
0.0026823226 0.032587774 -0.059324224 0.005550783 -0.00035094516 0.036665995 0.05586683 0.058005154

ablang_branch.0.bias f4 [256]
00000000: 4366 e63b 6882 503c 66a3 a83b e249 2f3c
00000010: 80c1 eb3a 6f40 e63b e63f 1f3b f01d f33a
00000020: b34a f43a 9e54 333a 0921 ed3b f278 d33b
00000030: 138b 9fba b48a 643c ea8d b13a e8de 063c
00000040: a7a2 303b 87a8 c13b 3704 133b f1a2 8a3c
00000050: 99b8 523c 4564 363c 350b c33b 92d5 fe3b
00000060: e963 f93b 3475 8f3b a321 8c3b 81f0 a33a
00000070: 6c39 50ba 5cdb 133c 9280 b03a 6321 d13b
00000080: 7ab0 2f3c 771b a6bb bd2e c53b ae0f d03b
00000090: 58ea e83b 6b32 dc3b 250b d73b 304e fe3a
000000a0: 99eb 673b d030 d439 bb99 0f3c 9aaa f03b
000000b0: 4eb0 b13b 6334 a639 6318 0e3b f178 dc3a
000000c0: 66eb d43b 1745 773b 7c84 64bb ea26 eeb9
000000d0: 3564 773b 5946 b13b ee20 983b fd30 42bb
000000e0: d40b 953a 2d95 2d3c e727 583b ba93 e13b
000000f0: 5095 0c3a 7a23 2e3c 9ea8 183c c8b1 9a3a
00000100: 528f 8b3a 931d 853b a592 433b 2aac 873c
00000110: 940c 07bb aa0f d13a 9dfb c23b 7637 843a
00000120: 4662 1bba ddc3 163b ebfb 593b 52ae f53a
00000130: a32d 70bb 54b2 523c d918 9e3c 05ac 903b
00000140: 52de 933a 4470 fa3b 2955 493c 8eb7 223b
00000150: 1a94 593b 73a5 3abb 8af7 33bb b73b 3fba
00000160: 8d31 283c 8769 083c 76e4 ba3b b266 113c
00000170: 1857 c83a 2647 3b3c c669 f33b 9162 d33b
00000180: 98c1 423c cb29 fa3a 90b6 d03b dd15 913b
00000190: dd9a 3839 40f2 1f3c 0f0b 9b39 1af9 25bb
000001a0: 2a10 693b 7300 9f3b 84a3 763c e23d 6a3b
000001b0: 06b1 ac3b fa85 933b a906 253c 86c8 b53b
000001c0: ea47 9b3b c8ff a83b 4811 ddb9 84ac 9f3a
000001d0: 3cd4 443c c838 933b 2f47 6dba 7a80 de3b
000001e0: c56c 69ba db9f 7b3a 41f7 cd3a f040 b63b
000001f0: 08bd 363b bb9b 283b 25b6 143b 72e5 853b
00000200: 7bfb e53b 2e24 1ab9 5fb9 583b 91d8 ec3b
00000210: 0068 923b c0fb 4f3b 3d40 083c 6401 283c
00000220: d4b8 0f3b 1e58 cc3b 9ae8 293c 0071 ce3b
00000230: 994f 3e38 bc91 383b ec95 33b8 e506 9e3b
00000240: fa14 113c 3ecc 213c 7030 c83b 8bb8 0e3c
00000250: 118d be3b 1047 71bb f7a6 513b 172d 0d3c
00000260: 696f 683b 7004 2d3c 8d6e 013c e6c3 e639
00000270: c72f 593b 8e59 77bb 6b1c 023c 5955 e73b
00000280: 96cb d3ba 6123 f03b 6dd4 503b 8a37 bbb9
00000290: 970f 773c e254 6e3b ac22 e737 5117 b0bb
000002a0: bc39 4c3c cee4 db3a c44e 763a e521 db3b
000002b0: 40f6 e63b 8951 2e3b ac5b 373c 201c 24bb
000002c0: bb15 623a df64 6dba 29a7 873a f773 5e3b
000002d0: db9c 1d3c 5189 873b 75e4 8bbb 7fe7 873a
000002e0: 62b1 b73b 97f8 483b 0a18 753b 7c46 ae3b
000002f0: 4f05 823b ec7c 323b b8e4 c43b 7e40 1a3c
00000300: 615c 323b 127a b23a ca17 923b 3690 7b3c
00000310: 9290 bbbb 777b e7ba 4499 e139 c690 f63b
00000320: eab6 e938 87ae 923b 06e3 063c 35e7 1c3c
00000330: 7fdc cb3b c67b 8e3b c334 533b efd5 033a
00000340: 75f7 bb39 a8b4 d7ba dd6b 3f3c faae 903b
00000350: 3664 ea3b 8c6b 143b 27d0 f3ba 9c91 40bb
00000360: 3ade a93a ca7e 1a3b 81c1 aa3b 31e8 79ba
00000370: e56a 403c 2eda 1c3a ae5a 7cbb 8603 8b3b
00000380: bc35 bb3b 16ad 473b 3a26 61bb 7ca8 09ba
00000390: 2163 ae3b 399e 6a3b bd0a 0d3c 93c5 c23b
000003a0: 18f5 6f3c aa75 123c 5c3f 823c 1023 03bb
000003b0: f60e fa3a 6c34 b23b f149 c7ba 9a18 70bb
000003c0: 40cd dfb7 9314 b93a ff14 c3bb 29a6 3c39
000003d0: 3bb8 ec3a 8a7a 273c 436e 8f3b b932 743a
000003e0: 7094 8c3c 98f5 393c e489 feb8 e090 373c
000003f0: 3011 9c3b 7b76 58ba c6d0 713c fd88 393b
0.0070312335 0.012726404 0.0051464317 0.010698767 0.0017986745 0.007026724 0.002429956 0.0018548351
0.0018637985 0.0006840917 0.007236604 0.006453627 -0.0012172185 0.013949085 0.0013546322 0.008231856
0.0026952417 0.0059099826 0.0022432932 0.0169234 0.012861394 0.011132305 0.0059522637 0.0077769244
0.007610787 0.0043779854 0.0042764707 0.0012507589 -0.0007943127 0.009024467 0.0013466051 0.006382154
0.010723228 -0.005069192 0.0060175345 0.0063495254 0.007108014 0.0067198775 0.006562608 0.0019401964
0.003538823 0.0004047216 0.00876468 0.007344556 0.0054226285 0.00031701018 0.0021682016 0.0016820711
0.0064977882 0.003773039 -0.0034869006 -0.0004542389 0.0037748937 0.0054099974 0.0046425974 -0.002963125
0.0011371323 0.010594648 0.0032982768 0.0068840655 0.00053628255 0.010628575 0.009317545 0.001180225
0.0010647571 0.0040623634 0.0029842046 0.016561586 -0.0020606862 0.0015950103 0.005950405 0.001008733
-0.00059274246 0.0023004927 0.0033261727 0.0018743968 -0.0036648295 0.0128599 0.019298958 0.0044150376
0.0011281467 0.0076427776 0.01228837 0.0024828645 0.0033199848 -0.0028479963 -0.0027460777 -0.000729497
0.01026572 0.008325941 0.005703504 0.008874582 0.0015284745 0.011430537 0.0074283807 0.006450959
0.011886977 0.0019085942 0.0063694194 0.004427655 0.00017605298 0.009762347 0.00029572143 -0.0025325478
0.0035562613 0.0048523485 0.015053634 0.0035742451 0.0052701263 0.0045020552 0.010072389 0.005547586
0.0047387974 0.0051574446 -0.0004216528 0.0012182151 0.012013491 0.004492853 -0.00090514397 0.006790218
-0.00089044526 0.00095987105 0.0015713946 0.0055619404 0.0027883667 0.0025727588 0.0022691574 0.00408619
0.007018504 -0.00014700062 0.0033069474 0.007227965 0.004467964 0.0031735748 0.008316097 0.010254238
0.0021930235 0.0062360903 0.010370398 0.0063000917 4.537366e-05 0.0028163036 -4.281655e-05 0.0048225992
0.008855099 0.009875355 0.00610929 0.008710991 0.0058151563 -0.0036816038 0.0031990388 0.008616707
0.0035466796 0.01056014 0.0078998925 0.00044014974 0.003314005 -0.0037742588 0.007941346 0.007059735
-0.0016158696 0.0073284362 0.0031864897 -0.000357088 0.0150794005 0.0036366512 2.7553491e-05 -0.0053738733
0.012464937 0.0016776563 0.0009395892 0.00668739 0.0070483983 0.0026598892 0.01119129 -0.0025041178
0.0008624454 -0.00090558635 0.00103495 0.0033943632 0.009619917 0.0041362424 -0.0042691776 0.0010368674
0.0056058625 0.003066575 0.0037398362 0.005318461 0.003967918 0.0027235104 0.0060087107 0.00941479
0.0027215707 0.0013616702 0.0044584023 0.015354207 -0.0057240212 -0.0017660697 0.00043029536 0.0075245826
0.00011144376 0.0044763717 0.008232838 0.009576608 0.0062213535 0.004348251 0.0032227493 0.0005029132
0.0003585179 -0.0016457038 0.011683431 0.00441539 0.0071530594 0.002264711 -0.0018601463 -0.0029383665
0.0012959905 0.0023574107 0.0052110557 -0.00095331954 0.011744236 0.0005983439 -0.0038506198 0.0042423634
0.0057131927 0.0030468157 -0.003435506 -0.00052512414 0.0053218757 0.0035799874 0.008608517 0.005943963
0.014645837 0.008939186 0.015899353 -0.0020009913 0.0019077945 0.005438378 -0.0015204531 -0.0036635757
-2.6679249e-05 0.0014120511 -0.0059534307 0.00017990977 0.0018060276 0.010222087 0.004377158 0.00093154196
0.017160624 0.011350058 -0.00012137348 0.0112039745 0.004762791 -0.0008257401 0.014759248 0.002831041

ablang_branch.1.weight f4 [256]
00000000: f21f 813f 1dff 813f 00c5 803f adcb 7c3f
00000010: 622c 803f 4466 7b3f accf 7e3f ae0e 7e3f
00000020: 3fce 7d3f b55f 7d3f 0a09 803f c3a7 803f
00000030: 0039 803f 5b1a 803f f4e6 823f 9277 7f3f
00000040: ee18 823f 189b 7f3f cc54 813f 4d1c 793f
00000050: 5fd8 823f 77ab 7e3f 5760 803f 4e5f 803f
00000060: a3ba 853f 15ea 823f ff0d 7e3f 0bca 803f
00000070: 6645 803f ad8a 803f 5678 803f 6374 7f3f
00000080: 45fa 803f 3136 7b3f 990b 813f bfc3 7e3f
00000090: 53ea 833f f3bd 813f 66b6 853f 3bae 7e3f
000000a0: db29 803f 4b2d 7e3f 67eb 793f eb4a 7c3f
000000b0: 2f0b 803f 0b41 7d3f 8c1a 843f 1226 7c3f
000000c0: 8dcd 7f3f 6180 813f 22b0 813f d3af 7d3f
000000d0: b77a 853f 9cc6 7c3f 20f7 823f 704d 813f
000000e0: 8437 7d3f d896 843f bf9d 823f 7772 803f
000000f0: 5032 7f3f 7c15 7c3f 6cff 7f3f 0ebf 7e3f
00000100: afa1 803f 23a0 823f 9ec5 7e3f 9e30 823f
00000110: 3372 7e3f 151b 783f b53a 823f c044 823f
00000120: 065d 7e3f bf7f 7b3f b0d4 813f 024b 7b3f
00000130: cb74 833f 76f7 853f 0ade 813f 73c9 803f
00000140: 4d53 7d3f 3e37 833f 28aa 803f fa23 803f
00000150: 0be7 853f e0e4 7b3f ef0b 7f3f b4a3 803f
00000160: 80f0 813f 99e5 813f a559 7d3f a084 7c3f
00000170: f6d8 823f 3a9a 7d3f fe45 823f 5c95 843f
00000180: 1206 7a3f 5591 7e3f 584d 803f 1d9e 803f
00000190: 51a4 7b3f 9d72 7e3f d625 813f 0ade 7f3f
000001a0: e511 813f 5a3a 7c3f 9300 813f e131 7c3f
000001b0: d58f 793f 4814 853f 6cf5 7a3f 4ebb 7f3f
000001c0: 526e 7f3f 63cc 863f 3edf 823f 21a5 813f
000001d0: dd8f 7e3f 436a 7c3f 79cc 853f 428a 7f3f
000001e0: 565c 7e3f cfbb 7e3f 5ac4 783f 2a55 7f3f
000001f0: 31da 7f3f a33c 813f c885 853f afe2 7d3f
00000200: 9242 843f 9db4 793f bda9 813f 1773 853f
00000210: 7da0 7f3f e7a6 7f3f 5577 813f 4dc8 7f3f
00000220: b6b3 7b3f b460 833f ee04 843f 16b6 7c3f
00000230: 8470 7e3f 5855 7d3f ef20 823f 67d8 7b3f
00000240: 449e 7a3f b8d3 7d3f 320b 813f ed18 833f
00000250: 485d 783f 2075 783f 0bbe 803f 42a4 863f
00000260: 0218 7d3f ae77 813f 3f68 833f 075b 7d3f
00000270: b53e 783f aa42 7c3f a385 7c3f 643c 843f
00000280: 631a 803f c7c4 7d3f 0b88 813f bc39 813f
00000290: 0df2 803f 78ad 7d3f 6006 883f 4d0a 7d3f
000002a0: 1615 7f3f e01f 803f b80a 813f 8c62 7b3f
000002b0: 745d 7d3f 8c47 793f 0906 863f acb4 873f
000002c0: 625a 7a3f e205 803f d313 853f da58 843f
000002d0: 2c1b 803f d80d 843f a616 7b3f e0c7 823f
000002e0: 16e5 843f 0c70 803f f504 813f fd91 813f
000002f0: 2f89 7f3f 06b2 7f3f 4201 813f b4c4 7c3f
00000300: cb3c 7f3f 6c12 803f ead6 833f 1d5c 833f
00000310: 966e 7e3f 8fd1 7f3f ec94 813f 8376 7f3f
00000320: 1e52 823f 7805 823f 3c32 803f b0c1 7d3f
00000330: bf6a 783f c043 7e3f fae7 7f3f a066 7f3f
00000340: 03b0 813f 68ba 813f 1d0a 7f3f effe 823f
00000350: 22cc 803f 720c 7a3f b7f8 833f 1d0f 883f
00000360: e07d 833f 02e7 7b3f 6d56 813f 9fa6 7e3f
00000370: 25a2 883f 195f 793f b294 813f 4d5f 813f
00000380: 1132 7f3f 2e21 7e3f d458 763f bd8a 803f
00000390: b2a9 7f3f ce98 7a3f 71c8 803f 0e41 873f
000003a0: 1e49 833f 0dc2 7d3f f4ce 7d3f 1a20 7f3f
000003b0: e1cf 803f da8c 803f 5197 793f 4284 823f
000003c0: b20e 863f 92a7 803f a550 7d3f bdd9 7a3f
000003d0: d6f2 803f 1e7e 823f 2f69 7f3f 608b 7f3f
000003e0: 7ccb 853f 521c 823f 643b 7f3f 2949 813f
000003f0: a90c 7e3f 1c06 833f f22a 783f a956 7c3f
1.0087874 1.0155979 1.006012 0.98748285 1.0013545 0.9820292 0.9953563 0.9924115
0.9914283 0.9897416 1.0002759 1.0051197 1.0017395 1.0008043 1.0226731 0.99791825
1.0163858 0.9984603 1.0104003 0.9730881 1.0222281 0.99480385 1.00294 1.0029085
1.0447582 1.0227686 0.99240106 1.0061659 1.0021179 1.004232 1.0036724 0.9978697
1.0076376 0.98129565 1.0081664 0.99517435 1.0305885 1.0136093 1.0446289 0.99484605
1.0012773 0.9928786 0.9762482 0.98551816 1.0003413 0.9892737 1.0320601 0.9849559
0.9992302 1.0117303 1.0131876 0.9909641 1.0428075 0.98740554 1.0231667 1.0101757
0.98912835 1.0358534 1.020439 1.0034932 0.99686146 0.9847028 0.9999912 0.99510276
1.0049342 1.020512 0.9952029 1.0171087 0.99393004 0.96916324 1.0174166 1.0177231
0.9936069 0.982418 1.0143032 0.9816133 1.0270017 1.0466144 1.0145886 1.0061477
0.9895523 1.0251234 1.0051928 1.0010979 1.0461134 0.9839611 0.99627584 1.0049958
1.015152 1.0148193 0.9896491 0.9863987 1.0222461 0.99063456 1.017761 1.0358081
0.9766551 0.9944051 1.0023603 1.0048252 0.982976 0.99393636 1.0089672 0.9994818
1.0083586 0.9852654 1.00783 0.9851361 0.97485095 1.0396814 0.98030734 0.9989518
0.9977771 1.0531124 1.0224378 1.0128518 0.9943827 0.9859964 1.0453025 0.9982034
0.99359643 0.99505323 0.9717461 0.99739325 0.9994231 1.009663 1.0431452 0.99174017
1.0332816 0.9754122 1.0129925 1.0425748 0.9985426 0.9986405 1.0114542 0.9991501
0.9832109 1.0263886 1.0314004 0.9871534 0.99390435 0.9895835 1.01663 0.9837708
0.97897744 0.9915118 1.0081542 1.0241982 0.97017336 0.9705372 1.0057997 1.0518878
0.9886476 1.0114648 1.0266188 0.9896702 0.96970683 0.9853922 0.98641413 1.033093
1.0008053 0.99128383 1.0119642 1.0095744 1.0073868 0.9909282 1.0626945 0.9884384
0.9964155 1.0009727 1.0081396 0.98197246 0.98970723 0.97374797 1.0470592 1.0602012
0.97794163 1.0001795 1.0396675 1.0339615 1.0008292 1.0316725 0.98081434 1.0217247
1.0382411 1.0034194 1.0079638 1.0122677 0.998187 0.9988102 1.0078509 0.98737645
0.9970214 1.0005622 1.0299962 1.0262486 0.9938749 0.99929136 1.0123572 0.9979021
1.018131 1.0157919 1.001533 0.9912367 0.9703788 0.9932213 0.99963343 0.9976597
1.013184 1.0135012 0.99624807 1.023405 1.0062296 0.9767524 1.0310277 1.0629612
1.0272789 0.98399365 1.01045 0.99472994 1.0674483 0.9741073 1.0123503 1.0107208
0.9968577 0.9926938 0.9622929 1.004234 0.9986831 0.9788941 1.006117 1.0566728
1.0256689 0.99124223 0.9914391 0.9965836 1.006344 1.0042984 0.97496516 1.0196612
1.0473235 1.0051138 0.9895118 0.9798849 1.0074108 1.0194738 0.9976987 0.99822044
1.0452724 1.0164893 0.997 1.0100452 0.9923807 1.023624 0.9694053 0.9856973

ablang_branch.1.bias f4 [256]
00000000: 7cb8 593b 4c2d 093b 01ad 41bb 09d3 34bc
00000010: 413e 95bc c620 d0bb dcef 77bb 4b57 b9bc
00000020: 637e f6bb b0c6 2abc 71a8 09bc d8dc ddbc
00000030: f4f3 b8bb f041 96b9 0209 55bc 88d9 85bc
00000040: e9b2 16bb bedf ae3a 8623 4fbc 3e8d 42bc
00000050: 8fc6 8fba 0fe4 953b 5198 a7bc 4345 6d3b
00000060: 2307 51bb 3ebe eab9 d4b5 f4bb 9086 22bb
00000070: 5b36 a0bb 8599 8ebb 5905 87bb 8e8b d53a
00000080: 2042 793b 232e 68bc 0beb 053b 0887 68bc
00000090: 09de b03a 2b17 563b 92ed 2b3b 6d31 20bc
000000a0: 7a0c 0ebd 42a2 a8bb 1981 02bc 6a3d 1abb
000000b0: f935 1abb 4c49 a1bb b302 1dbc 4ffd 47bc
000000c0: ac80 d6bb 31b7 63bb 46da ecbb 5b65 e0bb
000000d0: f68b bc3a 19e1 51bc 1fe4 33bb 9623 9fbc
000000e0: e6ff debb 7d74 963a effb 10bc 0e26 143b
000000f0: 60d8 eabb 38d3 9abc 68d1 9bbc 1633 48bc
00000100: 47d6 62bb 1c15 a139 d605 86ba a7de 88bb
00000110: 41c1 64bc 89c1 95bc f237 04bd 7417 68bc
00000120: 7f83 1ebc 4caa cbbb a2bb 4138 4d7d e3bb
00000130: 2518 94bb 45f5 2abb 83f9 183c acc3 2bbc
00000140: 0596 04bc eaa0 0fbc d4ec bfbc 969f 48bb
00000150: d28f a238 9fe9 c1bb fc4a fcbb 61ea 24bc
00000160: edca e93b b5da a63a bb55 5abc c71c ebbb
00000170: 43c6 73bc d98f 913b 74c1 97bb 8978 8cbc
00000180: 0829 51bc 08ec 56bb f8dc fb3a f3c3 deb8
00000190: 8447 9bbc f482 c73b 05fc d6bb c6b3 1dbc
000001a0: a5b2 f2b9 bb43 6fbb 17ce 9dbc a15c c0bb
000001b0: 535e dfbc 28f5 5b3a 4eea e8bb bc61 bfba
000001c0: 16ad 0139 a764 f3bb bf8e 2ebc 03ad 26bc
000001d0: 4273 96bc f451 bcbb 40c5 8439 71a9 28bb
000001e0: a94c e2bb e85a 6fbb a42b c5bb 1ba4 d3bb
000001f0: 0a99 a0bb a2a9 d13a 8f1f 8ebc b9ef 06bc
00000200: 5993 c93b 0470 e9bb bf76 50bb 1f88 643a
00000210: a43a 0cbc 6565 10bb e3f6 81bb 1a3c 653a
00000220: 5ed7 1bbc 329f f0bc cd65 9cbb cb65 5dbc
00000230: eac1 ccbb 5d5e 20bc 4eee bcbb 4965 9bbc
00000240: 5cda a83a 2448 c3bb 4f69 91bc b744 2a3b
00000250: 2fc2 c1bb 6375 73bc cb5e 53bb cbbe fdbb
00000260: 68a6 89bb 2bec 5fbb 1294 8dbb f390 f5bb
00000270: 5c8a 37bc 4de4 36bc 9e02 e1ba 7d03 35bc
00000280: ad88 a3bb 8066 3a3b ba61 9bbc c5ea 80bc
00000290: 9eeb 3e3b 7868 28b9 6d08 f5bb 2a15 0abc
000002a0: d565 1cbc 44a8 84bb dec4 f9bb 12f1 a03a
000002b0: 0771 04bd d051 6dbc 4012 90bb 4aa6 efbb
000002c0: 5632 86bc 8fcc 66bc dae7 2abb ce38 0db9
000002d0: eba1 4e3b 0e33 c9ba 8fbe 3bbc ca9c bfbc
000002e0: 38c0 27bb 0ba1 1bbc e1ee 6ebc 087f 30bc
000002f0: 32e6 9fbc 85c4 17bc 777c f83a 5ba6 cf3b
00000300: b862 74bb c777 dfbc 03c0 8cbb c876 d3bc
00000310: 2d24 36bc 4a7e f6bb fb5b 7dbb 21cd 1a3b
00000320: 31df 82bb bda6 12bb 8ece b8bc 7cd4 c13b
00000330: a11f 64bc 077b 11bc 85ed b4bb df93 bdbb
00000340: 4a30 eaba bd5e a5bb 805e a4bc e24d e2bb
00000350: 5b34 93bb 2c7a 86bc a906 d1bb 99b6 41bb
00000360: 7990 94bb e035 e9ba 517d 62bb e1b8 4abc
00000370: 7329 c3bb 0114 bfbb 783f 11bd 0cda a1bb
00000380: d9ff 053b 92ac a5bb 8dd3 7dbc a7a7 d6bc
00000390: 247e 8abc 16a1 12bc d3aa 68bc 344a d9b8
000003a0: 9399 38bc a38e dd3b 6039 e7bb 940e 84bb
000003b0: b48c d2ba 5a84 dbbc 825c e7bc 0d57 29bc
000003c0: 1f0e 9ebb 4b65 81bb 78dd 14bc 5f4c fcbb
000003d0: 3a1c b9ba 970c 67bc ff8a 233a dfd1 8aba
000003e0: 9ce5 0c39 c56d 45bc 7fc0 f7bb 0218 92bc
000003f0: 37b8 02bb be39 10bc 0ed5 8abc de8e 35bc
0.0033221534 0.002093154 -0.0029552581 -0.011036643 -0.018218162 -0.006351563 -0.0037832176 -0.022624632
-0.0075223907 -0.010423347 -0.008401976 -0.027082846 -0.005644316 -0.00028659357 -0.013002636 -0.016339079
-0.0022994822 0.0013341827 -0.012642747 -0.011874495 -0.0010969209 0.004574306 -0.020458372 0.0036204613
-0.0031895123 -0.000447737 -0.0074679647 -0.0024799444 -0.004889292 -0.004351797 -0.0041205105 0.0016292201
0.0038033798 -0.014171156 0.0020434286 -0.01419235 0.0013493906 0.0032667618 0.0026234132 -0.009777409
-0.034679867 -0.0051462958 -0.00796535 -0.002353514 -0.0023530705 -0.0049220677 -0.009583163 -0.01220639
-0.0065461006 -0.0034746642 -0.0072281687 -0.00684802 0.0014384973 -0.012810015 -0.0027449203 -0.019426148
-0.006805408 0.0011478808 -0.008849128 0.002260569 -0.007166907 -0.018899545 -0.019020751 -0.012219211
-0.0034612583 0.0003072404 -0.0010225128 -0.004176933 -0.013962091 -0.018280761 -0.032279916 -0.014165748
-0.009674906 -0.0062153693 4.6189532e-05 -0.0069424273 -0.00451948 -0.0026086133 0.009336832 -0.0104836635
-0.008092408 -0.008766392 -0.023428358 -0.0030612699 7.7515506e-05 -0.0059177424 -0.0076993685 -0.010065646
0.0071347863 0.0012729975 -0.013326104 -0.0071750614 -0.014878812 0.004442197 -0.0046312157 -0.01714732
-0.01276613 -0.0032794494 0.0019215634 -0.00010622283 -0.018955 0.006088609 -0.006560805 -0.009625381
-0.00046290937 -0.0036508876 -0.01926331 -0.005870417 -0.027266657 0.0008390718 -0.0071080094 -0.0014601271
0.00012366878 -0.00742777 -0.0106541505 -0.010173085 -0.018365506 -0.0057470743 0.00025323965 -0.002573576
-0.0069061113 -0.003652269 -0.0060171653 -0.006458772 -0.004901056 0.0015995989 -0.017349033 -0.008235865
0.0061515984 -0.007123949 -0.003180906 0.00087177934 -0.008558903 -0.0022033092 -0.003966199 0.00087446126
-0.009511797 -0.029372785 -0.004772878 -0.013513039 -0.0062487023 -0.009788123 -0.005765713 -0.018969195
0.0012882459 -0.0059595276 -0.01775041 0.0025980899 -0.005913041 -0.01485953 -0.0032252546 -0.0077436916
-0.0042007454 -0.0034167867 -0.00432063 -0.007494086 -0.011202421 -0.01116283 -0.0017166918 -0.011048195
-0.0049906583 0.0028442442 -0.018967498 -0.015736947 0.0029132138 -0.00016060646 -0.007477811 -0.0084278975
-0.009545763 -0.004048379 -0.0076223454 0.0012278876 -0.032334354 -0.014484838 -0.004396707 -0.0073135244
-0.016381424 -0.0140868565 -0.0026078136 -0.00013467969 0.0031529616 -0.0015350298 -0.011459007 -0.023390193
-0.002559675 -0.009498845 -0.01458332 -0.010772474 -0.019518945 -0.0092631625 0.0018957992 0.00633697
-0.0037290286 -0.027278794 -0.0042953505 -0.025813475 -0.011117023 -0.007522379 -0.003865956 0.0023620802
-0.0039938916 -0.0022377216 -0.02255943 0.0059152227 -0.013923557 -0.00887943 -0.0055214786 -0.00578545
-0.0017867174 -0.005046694 -0.020064592 -0.006906257 -0.0044923252 -0.016415678 -0.006378968 -0.00295583
-0.004533824 -0.0017792545 -0.0034559558 -0.01237318 -0.005955869 -0.005831242 -0.03546092 -0.0049393233
0.0020446687 -0.0050559724 -0.015492332 -0.02620299 -0.016905852 -0.008949539 -0.014200884 -0.00010361188
-0.011267084 0.0067613884 -0.0070564 -0.004030058 -0.0016063661 -0.026796509 -0.028242353 -0.010335696
-0.0048234607 -0.0039488426 -0.009086005 -0.007699534 -0.0014122792 -0.014102123 0.00062386686 -0.0010591111
0.00013436977 -0.012050097 -0.007560789 -0.017833713 -0.0019946226 -0.008802829 -0.016947296 -0.0110814255

ablang_branch.4.weight f4 [128, 256]
00000000: 8900 aabd 8b54 6abd 0c5d 173c cfa0 a6bc
00000010: 8b57 8fbd 8696 5dbd c7c7 e0bb 67d5 a43d
00000020: 6141 19be 702b b23d fe76 263d 0b0d 133d
00000030: 59a3 7ebd bbed 4a3e 17b6 efbd b675 d3bd
00000040: 6937 39bc 3e7c 91bd ee21 4ebd 658e 843b
00000050: 448b 81bb 7eb6 81bc 2b8b 2ebd 745f f9bd
00000060: 5d6e 2abd 9365 04bd c79f 483d 04a5 e13d
00000070: 55bf b63c 456a 033c ec61 c13d 61ff cfbd
00000080: 0ff8 913d e265 163e 4e62 17bd f025 1abe
00000090: ecf5 f53d 31ef 5b3d c7c9 7e3c dc14 a0bd
000000a0: f4ff d83c ac8a c43d ab8f 433c 7384 923d
000000b0: 600a e9bb b94f 9dbd ee34 88bd 1403 633e
000000c0: 6f7e 5a3d 7d1c 073e 4ae6 96bc a7b7 c0bc
000000d0: 6e8e d3bd f978 efbd 0a7c 6d3a 7523 49bd
000000e0: 10d2 103e 9a74 e3bb b964 19bd 0a8e a23d
000000f0: ca28 003e 9889 3dbc 21fd 80bd 4937 ecbd
00000100: 5167 eebd e5ce 4a3d 0ad6 75be bc92 61bd
00000110: 1dd6 55bd 63bb ffbd 4bad c0bd c2de 443e
00000120: f628 99bd 599c 003e 00c9 3a3c ff35 b93d
00000130: e02b 41be dda1 003e 0d71 09bd 1d17 4dbd
00000140: de91 0b3d c401 fd3d 7e41 f6bc 64ba 0ebe
00000150: 1d54 913d f30e eabd 94ee 39be d351 ee3d
00000160: c62e 0c3e ae05 e23c 0732 53bd a3f2 bd3d
00000170: 361d a2bc 28c0 713b ba9d 5a3d 9398 b2bc
00000180: 28cc c63d b114 253d d6fb 113e 493c 783d
00000190: db81 7a3d 973a 24be 07f9 2e3e 8e10 363c
000001a0: 5dc5 d53d fbc4 b23d bc3c c03d 1861 723e
000001b0: 3182 013e a4f7 973d 928e 0dbc 27ee 4d3d
000001c0: a46d 1fbe 194e fcbd 6be8 c7bb 4c67 50bd
000001d0: 3a52 56bd 1016 8d39 a130 c0bd f73a 0abc
000001e0: 4b3f 8ebd c38f a0bc a9fb 543e 5b38 1c3e
000001f0: 0799 39bd 6177 8abd eb2f f93c e973 363d
00000200: 5780 65be f975 293e 698d 3fbd deaa 613d
00000210: 1b3e 9d3d 33f7 8cbd b935 0cbd 33b5 ee3b
00000220: 9635 e1bd f723 0b3e 211e cdbd 3604 0d3d
00000230: 505d 933c f93b 893d 012e d43d 9130 acbc
00000240: 465b f0bc 9565 b8bd 81de e23d 0796 503d
00000250: e7bb 15be 13e8 823c 10ad f0bc 9cf3 563d
00000260: 9938 3abd 06b0 903d 920b 23bd 9c84 dfbd
00000270: 23cd b2bd 2c7a 3e3c 2fd6 4b3d a1cd e43d
00000280: 115a 0cbe d2bf 8d3d 4b3a a0bc 7b1c d6bd
00000290: fb9a e03d 9c17 6d3d 720b a83d 8fc1 5abd
000002a0: 2129 cdbd 42be bc3d 8c15 d43d 9b42 63bd
000002b0: 1a34 64bd 7b26 8a3c 5462 433e 6310 12bd
000002c0: 14f1 7ebd 0ab7 5a3d 2352 99bc 6b67 463e
000002d0: eb03 573d c574 3fbd ec66 443d 23fe dfbc
000002e0: b6f6 f8bd 6793 3fbd 4270 023e b1d9 883d
000002f0: d102 1a3d a6ba 8ebd c70d f13d 1766 ec3d
00000300: c8d6 213c 4962 753c 9a57 d0bd 0299 f3b9
00000310: e3e8 b7bd 31bd 02be 61cf a3bc 9654 193e
00000320: 7bc3 213c 9872 733b 194a 3d3c 2232 763d
00000330: 36ec 9fbd 9210 0f3d f330 be3d 4b39 bcbc
00000340: 9370 0dbd 1fc6 2d3e 6aa2 45bd 8dc8 a83d
00000350: 37d6 fd3d a3a5 83bd c6f5 56be e8de 783c
00000360: 8f87 cebd 2bbf fb3d bbd8 ab3c 6ca2 3c3d
00000370: cd23 0a3d 71ef d1bd ef8f 8cbd fc65 d73c
00000380: 7c45 cf3c 4ef8 06be 7840 333d 9136 f73c
00000390: 9d4d 98bd b294 983c dd61 13bc 9e13 02be
000003a0: 61a8 ac3d c812 d7bc 1a58 9dbd bddd d9bc
000003b0: 7005 bdbd 2fc7 003e 6303 d03d 09ef 243d
000003c0: a6dd b3bd c9d7 ddbc 2f2a a13d b4b9 69be
000003d0: 1b7d 00bd 0d42 b5bd 285f 4c3c 8829 e03c
000003e0: 55ac 52be ecbf ba3d cfa1 573d b962 b73c
000003f0: 9251 d2bc 03e2 a43d 16e1 c63d 16c5 d1bc
-0.08300883 -0.057209533 0.009238493 -0.020340351 -0.06999119 -0.05409863 -0.006859753 0.08048516
-0.14966346 0.08699691 0.040640824 0.03590111 -0.0621675 0.1981725 -0.11704653 -0.10325186
-0.011304715 -0.071037754 -0.050325327 0.004045295 -0.0039533693 -0.01583409 -0.04261319 -0.12176409
-0.041609157 -0.03232343 0.0489805 0.11017802 0.022308031 0.008020942 0.09442505 -0.101561315
0.071273915 0.14687303 -0.036958985 -0.15053535 0.120097965 0.053694908 0.015551037 -0.078164786
0.026489235 0.09596762 0.011936109 0.07154169 -0.0071118325 -0.076812215 -0.066507205 0.22169143
0.053343233 0.13194461 -0.018420357 -0.023525072 -0.10329901 -0.116929956 0.0009059316 -0.04910608
0.14142632 -0.00694139 -0.037449572 0.07937248 0.1251556 -0.011568449 -0.062982805 -0.11533982
-0.116408 0.049513716 -0.2400743 -0.055071577 -0.052206147 -0.12486913 -0.09408053 0.192256
-0.07478516 0.12559642 0.011400461 0.09043502 -0.18864393 0.12561746 -0.03355508 -0.05007087
0.034074657 0.123538524 -0.030060526 -0.1393829 0.070961215 -0.114286326 -0.18157417 0.116367005
0.13689718 0.027590599 -0.05156138 0.09274795 -0.01978932 0.0036888216 0.053373076 -0.021801269
0.097069085 0.040302936 0.14256224 0.060604367 0.061158996 -0.16037975 0.17087184 0.011112345
0.10438035 0.08728977 0.09386584 0.23669851 0.1264732 0.074202806 -0.008639948 0.050275948
-0.15569168 -0.123195834 -0.0061007044 -0.05087976 -0.05232451 0.00026910054 -0.09384275 -0.00843691
-0.06945666 -0.0195998 0.20799126 0.15255873 -0.045311954 -0.06761051 0.030418357 0.044544134
-0.22412239 0.16548909 -0.04676572 0.055094592 0.07677861 -0.06883087 -0.03423092 0.007284784
-0.10996549 0.13587938 -0.10015512 0.034427844 0.01798883 0.06700892 0.10360337 -0.021019252
-0.029340398 -0.0900375 0.110775955 0.050924327 -0.1462246 0.015979802 -0.029379398 0.052478418
-0.045464132 0.07064824 -0.039805956 -0.10913965 -0.08730533 0.011625808 0.04976481 0.11172033
-0.13706233 0.069213524 -0.019559046 -0.10454651 0.1096706 0.057883844 0.08205308 -0.053407248
-0.1001761 0.09215976 0.10355672 -0.05548344 -0.05571375 0.016864052 0.19080478 -0.03566016
-0.06224163 0.053397216 -0.018715924 0.19375388 0.05249397 -0.04674222 0.047949716 -0.027342862
-0.121564314 -0.046771433 0.12738135 0.06682146 0.037600342 -0.06969194 0.11770206 0.115429096
0.009877868 0.014977046 -0.10172959 -0.00046462571 -0.089799665 -0.12767483 -0.019996347 0.14973673
0.009873266 0.003714716 0.011553311 0.060106404 -0.078087255 0.034927912 0.0928668 -0.022976538
-0.034531187 0.16970108 -0.048250593 0.08241377 0.12394374 -0.06428077 -0.20992193 0.015189864
-0.100844495 0.12292322 0.020977369 0.046053335 0.03372555 -0.10250748 -0.06863391 0.026293747
0.025301687 -0.13180658 0.043762654 0.030177386 -0.074366786 0.018625591 -0.0089955 -0.12702796
0.08430553 -0.026254073 -0.0768282 -0.02659499 -0.09229553 0.12575983 0.10156896 0.040267024
-0.087825105 -0.027080433 0.07869374 -0.22824746 -0.03136931 -0.08850489 0.012473859 0.027363554
-0.20573552 0.091186374 0.052644547 0.022385942 -0.025673661 0.08050921 0.097109005 -0.025606673

ablang_branch.4.bias f4 [128]
00000000: 8179 1e3c d8eb 2a3c 17d5 e7bc f400 d13b
00000010: b2e1 c63b 4545 093b 8c87 b7bc 04d1 e63c
00000020: 16c7 78bc 1c64 e5bc 25e8 943b 2366 723c
00000030: 4a44 0fba c429 623b 1333 e0bb d4aa ecbc
00000040: d421 adbb d7c6 1bbb cb0b 43bb 1826 ae3b
00000050: 0b02 5e3b d4ae e23c 320f 0abd 96e1 343b
00000060: 7f49 6a3b 757d f3bb 067e 56bc fecd 3dbc
00000070: 2dc0 95bc d1ed 33bc 631d 123d f8fc 06bd
00000080: 8ff3 153b e8a7 a9bc 5be7 403c d080 df3b
00000090: 4676 8c3b fd80 513c 582f fa3b fbed 473c
000000a0: 276d 22bc f555 80bc b9a8 573c 52a2 f7bc
000000b0: 0868 383c 165a 30bc 451c b83c 8747 9a3b
000000c0: 90c9 47ba c872 4b3c d58e e7bb 5d67 86bc
000000d0: 6450 383b 7c31 133c bc65 043c b25c b2ba
000000e0: f58c 1cbc 02ef abbb af78 0c3c 4de2 a6bc
000000f0: 5ed6 093d 0bc2 95bb 0f56 803d dca1 24bc
00000100: 98a4 5aba 54f1 e03b 1069 6c3c c370 e9bb
00000110: d041 c3bc cd87 323c 87b8 b4bc e499 e2bc
00000120: eaf8 2e3c fb88 9abb f434 313b 4803 173c
00000130: 82c7 29bc 61c1 f1bc 17fa 25bd a0b7 7237
00000140: 2e10 25bd da18 1fbc 6b09 4fb9 b0ca c439
00000150: 8058 e73b 2e0f 32bc 9974 4dbc 1765 8a3c
00000160: dec3 80bc 3200 08bc 76d4 80bb 3674 91bc
00000170: cfc0 57bc 7ee1 64b9 6247 14bc 2b00 ec3c
00000180: 3172 cfbc 7d1f e2bc ef5b bc3b a3d1 8f3c
00000190: 7ecb e038 4261 8f3c 2f25 e83a 1b18 a93c
000001a0: a9e1 853c 0a76 e2bc eb8f 95bc 1881 43bc
000001b0: 9285 d7bc 50cc 8339 b561 38bc ef1e c9bb
000001c0: d29e 893b 7220 94bc 7e08 abbc 13ae c73a
000001d0: 580b 043c 4122 d63b 9ff7 c53c 5bff 32bc
000001e0: 4e60 043b 7df1 0eba a39d f5bc a9ee 2fbd
000001f0: b9b8 26bd 550e 43bc 76af acbc 02e9 7ebc
0.0096725235 0.010432206 -0.028299851 0.0063782874 0.0060693854 0.002094583 -0.022403501 0.028175838
-0.015184185 -0.028001837 0.0045442753 0.014794859 -0.0005465193 0.0034509758 -0.006842026 -0.028890051
-0.0052835736 -0.002376964 -0.0029761668 0.0053145997 0.003387573 0.027671255 -0.033705898 0.002760028
0.0035749373 -0.007430727 -0.01309157 -0.011584757 -0.018280113 -0.010981993 0.035672557 -0.032956094
0.0022880768 -0.020709947 0.011773909 0.0068207756 0.00428656 0.012787101 0.0076350383 0.012202735
-0.009913719 -0.015665988 0.013162785 -0.030228768 0.011255272 -0.010763666 0.022474417 0.0047082338
-0.0007621283 0.012417503 -0.0070665875 -0.01640671 0.0028124088 0.008983966 0.008080896 -0.0013607948
-0.009555091 -0.005246998 0.008573695 -0.02037158 0.033651702 -0.004570251 0.062664144 -0.010048356
-0.00083405664 0.006864706 0.014429346 -0.007124038 -0.023835093 0.010896635 -0.022060646 -0.027661271
0.010679463 -0.0047160364 0.002703962 0.009217091 -0.010362508 -0.029511156 -0.040521707 1.4467078e-05
-0.040298633 -0.009710515 -0.00019744567 0.00037535047 0.0070601106 -0.010867877 -0.012540006 0.016893907
-0.015718397 -0.008300828 -0.0039315773 -0.017755609 -0.013168528 -0.00021827777 -0.009050222 0.028808674
-0.025323005 -0.027602905 0.005748264 0.017556017 0.00010719056 0.01750243 0.0017711277 0.020641377
0.016342955 -0.027644176 -0.018257102 -0.011932634 -0.026308808 0.00025138492 -0.011253764 -0.006137721
0.004199841 -0.018081877 -0.020878073 0.0015234373 0.008059345 0.006534845 0.024165927 -0.010925139
0.0020199004 -0.00054528547 -0.029982394 -0.042952213 -0.04070351 -0.0119052725 -0.02107976 -0.015558483

ablang_branch.5.weight f4 [128]
00000000: be15 7e3f b9db 7f3f 02fd 7b3f 2071 803f
00000010: 924f 803f cc6c 7b3f 526c 773f 9ef7 823f
00000020: e26f 7b3f f85b 813f 3a71 7e3f eddb 813f
00000030: c254 803f 5224 7d3f 9f19 803f fffc 7a3f
00000040: 5bfe 803f 12ef 7b3f ccfa 813f 0447 853f
00000050: cf95 7d3f 6e6b 823f 6694 803f ed6a 803f
00000060: 7c0d 7a3f f0e7 7e3f bf3b 7c3f 888c 783f
00000070: 33e4 7b3f e871 7a3f be78 823f 2289 7c3f
00000080: 48da 803f 49cd 7e3f 49bf 803f 7b1f 7f3f
00000090: b33f 7d3f 6331 823f 3c4a 7f3f 86c8 7c3f
000000a0: 6605 7b3f 79f5 793f 20e0 7d3f aee3 783f
000000b0: 8c95 7e3f 9b16 7b3f 9419 803f 151b 813f
000000c0: 23c1 7a3f 400c 803f ec6c 813f 6cbd 773f
000000d0: aff8 823f de43 7d3f caef 813f 3e0a 7c3f
000000e0: 8cb0 7a3f 12c0 7f3f f457 7f3f a839 813f
000000f0: 97fa 823f da42 7a3f 8c4b 873f 1ca1 793f
00000100: 37a1 7e3f ccef 7f3f ce61 813f d47c 7e3f
00000110: c31b 803f 535b 7d3f be81 7e3f ac94 813f
00000120: 8e66 7d3f 2689 7d3f 6e2c 7b3f efa7 7e3f
00000130: 3c10 7a3f b15d 7e3f 1279 783f c24f 7a3f
00000140: a89f 763f 7fbb 7f3f 25d5 813f 1d95 803f
00000150: f9f6 7e3f 08dd 7a3f 992e 7d3f 0750 803f
00000160: 92df 743f 7310 7d3f bfd6 813f 3b07 793f
00000170: ee9d 813f dac6 7e3f 5641 7d3f 2f95 803f
00000180: 9361 773f 42c7 733f 6b2f 813f debd 813f
00000190: c405 7a3f e78c 7f3f 6b81 7e3f 8ee5 7e3f
000001a0: d6ef 813f 3de6 783f 3481 7b3f e7b2 7e3f
000001b0: ed7d 783f e7d7 803f 541d 803f a7a8 7d3f
000001c0: 574f 7e3f 8108 793f b30d 7b3f 3525 7c3f
000001d0: 0caa 7a3f 6163 7f3f 730b 813f b8f7 7c3f
000001e0: 876f 7a3f e0d4 7e3f 9d92 7c3f 3f74 803f
000001f0: 2d77 833f 034e 783f bbbf 763f cf59 783f
0.99251926 0.99944645 0.98432934 1.0034523 1.0024283 0.98212886 0.9664966 1.0231817
0.98217595 1.0106192 0.9939152 1.0145241 1.0025866 0.98883545 1.0007819 0.9804229
1.0077623 0.9841167 1.0154662 1.0412297 0.99056715 1.0189035 1.0045288 1.0032631
0.97676826 0.9957266 0.98528665 0.97089434 0.9839508 0.9783006 1.0193098 0.9864675
1.0066614 0.9953199 1.0058376 0.9965741 0.9892532 1.0171322 0.9972265 0.98743474
0.9805511 0.97640187 0.9917011 0.9722241 0.9944694 0.9808137 1.0007806 1.008639
0.97950953 1.0003738 1.0111365 0.9677341 1.0232142 0.9893168 1.0151303 0.9845313
0.9792564 0.9990245 0.9974358 1.009572 1.0232724 0.9775826 1.056993 0.9751146
0.99464744 0.99975276 1.0107973 0.9940922 1.0008472 0.98967475 0.9941672 1.0123496
0.9898461 0.99037397 0.9811467 0.99474996 0.9768102 0.9936171 0.9705974 0.9777795
0.96337366 0.9989547 1.0143172 1.0045506 0.995956 0.97993517 0.9889923 1.0024422
0.9565364 0.98853225 1.014366 0.9727666 1.0126321 0.99522173 0.9892782 1.0045527
0.9663326 0.9522592 1.0092596 1.0136068 0.9766505 0.99824375 0.99416226 0.9956902
1.0151317 0.97226316 0.98244023 0.99491733 0.9706715 1.0065888 1.000895 0.9908547
0.99339813 0.972786 0.9806778 0.98494273 0.9791572 0.99761015 1.0081619 0.9881549
0.9782643 0.9954357 0.98661214 1.0035475 1.0270745 0.96994036 0.9638631 0.9701204

ablang_branch.5.bias f4 [128]
00000000: 8ecd 283c 53fa e53b 1d43 01bd 85b1 8c3b
00000010: 47cf 193c a4be a43a d5de c8bc 14fa c23c
00000020: 6688 6abc eb76 d9bc ed52 823b a726 103c
00000030: eb72 cfb9 c7e6 21bb 5ad8 04bc ce69 e4bc
00000040: 55de 2dba f56c 76bb dae1 b83b bf61 113c
00000050: 8345 2eba bb3f d43c ab60 04bd b551 1d39
00000060: d6c1 723a 16bd efbb c190 fdbb 1c85 39bc
00000070: 27d2 a7bc 946a 63bc 8274 023d 20e9 09bd
00000080: 5205 6d3b 2860 88bc 0a8e 013c 3778 a53b
00000090: 3c37 933b 00c1 393c cca4 9b3b 043e 3b3c
000000a0: fc44 f8bb 1855 82bc 54a7 0b3c 6e95 01bd
000000b0: 66a3 103c 005d a4bb e2e5 8d3c d860 c13b
000000c0: 1540 a6ba 7712 073c d83f 67bc b019 83bc
000000d0: 840b af3a 23d4 dd3b 8524 cd3b c3ce 9aba
000000e0: ff72 20bc 5070 b6bb 8334 ee3b d924 80bc
000000f0: 0c77 0d3d 7f9f 9dbb fa23 6a3d 76dd 28bc
00000100: fe9e b2bb 0d02 f03b 01f3 403c bd83 8dbb
00000110: 0ec6 b7bc 9eb6 103c dd2a b3bc bc69 b3bc
00000120: f16e 113c b2a1 acbb 619e 663b 03d0 013c
00000130: f01a 15bc abf0 fcbc b8d6 1ebd fd18 f6ba
00000140: de9a 28bd 5fdb 7abb 9978 933b 7c59 643a
00000150: ce08 103c fbfd 54bc e791 5abc 22f3 483c
00000160: 232e 47bc ed03 1dbc 6aa1 6bba 04b7 9dbc
00000170: b9ae 40bc aaf0 9eba 45a3 26bc c8ab c23c
00000180: dcca d6bc 5746 d7bc 2f27 f43b 5fab 233c
00000190: 7257 103b c279 6c3c 052b 9c3a 9cf5 823c
000001a0: c2f7 843c 46fb ebbc eb25 b0bc e397 5ebc
000001b0: 24f5 dfbc b170 63bb b933 2bbc 90a3 cdbb
000001c0: f3d5 cd3a 6152 84bc 68fe 9ebc 9aa4 22ba
000001d0: 8050 9a3a db4b 943b 4cc5 a23c da5d 55bc
000001e0: 5653 643b 8356 55bb 008a d8bc a4e1 d4bc
000001f0: 90d1 21bd 8a8b 30bc fbcc acbc 87b0 9bbc
0.010302914 0.0070183664 -0.031558145 0.004293623 0.009387798 0.0012569022 -0.024520317 0.023800887
-0.0143147465 -0.026545962 0.0039771707 0.008798278 -0.00039567737 -0.0024704204 -0.008108223 -0.027882483
-0.00066325563 -0.0037601565 0.005642158 0.008873402 -0.00066479313 0.025909295 -0.032318752 0.00015003125
0.0009260451 -0.007316242 -0.0077382033 -0.01132324 -0.02048595 -0.013880391 0.03184939 -0.03366959
0.0036166501 -0.016647413 0.0079074 0.005049731 0.0044926684 0.011337519 0.00474987 0.01142836
-0.007576583 -0.015909716 0.008523781 -0.031636648 0.00882802 -0.0050159693 0.01732153 0.0059014373
-0.0012683893 0.008244148 -0.014114343 -0.01600346 0.0013354872 0.0067696734 0.006260457 -0.0011810887
-0.009793042 -0.005567588 0.0072694435 -0.01564257 0.03453736 -0.004810273 0.057163216 -0.010306707
-0.0054510823 0.007324463 0.011776687 -0.004318683 -0.022433307 0.008832602 -0.021871025 -0.021901004
0.008876548 -0.005268299 0.0035189616 0.007923129 -0.009100661 -0.030876478 -0.03877899 -0.0018775758
-0.041163318 -0.0038277728 0.0045004603 0.0008710844 0.008791162 -0.013000007 -0.01334045 0.012264999
-0.012156996 -0.0095834555 -0.0008988591 -0.019252308 -0.011760407 -0.0012126167 -0.010170762 0.023763552
-0.026219778 -0.026278658 0.00745096 0.0099895885 0.0022024778 0.014433326 0.0011914676 0.015986256
0.016231421 -0.02880634 -0.021502456 -0.013586017 -0.027338572 -0.003470462 -0.010449343 -0.0062756017
0.0015704021 -0.016152563 -0.01940842 -0.0006204337 0.0011773258 0.0045256442 0.01986947 -0.013022864
0.003483971 -0.0032552786 -0.026432991 -0.0259865 -0.039506495 -0.010775456 -0.021093836 -0.019005073

ablang_branch.8.weight f4 [64, 128]
00000000: ec69 853d a0f2 07bd 5a9d e03d c223 ffbd
00000010: 3bd1 843d 85b6 9d3c 9691 f83c b307 4ebe
00000020: 7796 49be e31f d9bd 9e75 30bd c4a1 023a
00000030: d0f5 bfbd 8d78 52bd 8bd6 cebd 061b d43d
00000040: 5d0b a9bd 4b66 963d 018f 4f3d 7b89 bcbc
00000050: 4581 35bd e18d 253d 27b8 a8bd 431a e5bd
00000060: 7931 0dbe 4142 b6bd 622a 913e f001 373d
00000070: 7f64 163e 3128 5a3d 2c85 02be b0b8 efbd
00000080: 032c e3bd e8b0 91bd b1dd 063e 2f52 88be
00000090: 25da e63d 33dd 88bd 0fa4 3f3d a569 35be
000000a0: a8ed 9bbb 24ff 41bd 769f dabd f991 7c3d
000000b0: c55d aabd c357 f6bd bbf1 3a3d 5eda bebd
000000c0: 51a2 0e3e 140b 14be 6b43 25bc 3590 d23d
000000d0: 6821 a4bc aaa0 1a3e 93a1 543d 2444 2f3e
000000e0: 5269 39be c30b 333c a1fd 8a3e b378 70bd
000000f0: ebbc 25be e5c8 593e 9755 05be 5395 6fbd
00000100: 871c 1a3d 284f c33a 05cd 10be b4ea 5ebd
00000110: 8522 d33d d0a7 cd3d 89f7 45bd 4621 cdbd
00000120: ec3d 05be 556b b73c d8aa 3b3e 0e1b dbbc
00000130: b6c5 1c3b 64c5 25be 34ac b33e 4657 b3bd
00000140: 91fb 8c3e be0f c3bd d85c 243e c197 07be
00000150: 05c7 24be f39d a8bd 668f bf3d 63f3 933c
00000160: a3f6 7d3e c12a 8e3d 45c3 f4bd 07ec 0abe
00000170: e54f 0e3d 7ae1 4abe f5c9 15bd 3cdc 23be
00000180: 21dc 3b3e 3898 ef3d 358b 143e 8963 8f3e
00000190: 92b0 34be a057 833c e07f 46bd 7c54 48be
000001a0: 273a 93bd 06ae 233e bc5c f2bc 1d6b 3c3d
000001b0: 93cd 813e d524 733e c20d 673d fd10 c7bd
000001c0: 7c81 87be 50aa 3abd d11c 983c 6be4 0c3d
000001d0: ecee 6abd 3efb cf3d 0eba 95bc 785b 23be
000001e0: cb1e d2bc e5d4 5ebd 7a7b 403e b7a6 dabd
000001f0: 65e9 053c e0be 41bb 3d28 2f3e 974b 903e
00000200: f879 703d 5c7a fb3d 8749 b23c 1b1b 803d
00000210: f00a 4abd e414 9fbc 97ba 863d c23a 19bc
00000220: 48aa 853d 69a6 803e c76b 93bd 1d89 623e
00000230: 2f25 8d3d d1b5 babd c091 933d 3dbd 893c
00000240: b024 83bd 00d2 94bd 2971 bebc f657 cdbc
00000250: 2cb1 c7bd 1c13 cc3d e358 3a3e b2b1 433e
00000260: 9cbd 11be ec42 213c 215e 473d 7089 1cbd
00000270: 7701 f63b 75d4 37be 4388 f9bc eed5 3bbc
00000280: 9f98 3ebd 9db5 883d cf51 7bbd 3eb4 553e
00000290: 28fd c0bd f972 963d 18c7 ba3d acd0 b1bd
000002a0: c4a1 fc3d 65cc 4e3e ffb6 073e 066c 7b3c
000002b0: d821 a53d 8654 63be cdea c93c 1616 333d
000002c0: eb67 763c ef6c 3fbe 7539 79be c4b0 123c
000002d0: a739 bf3d 7c3e 863d a752 a7bd d80a 44bd
000002e0: 31de 0ebb 05d9 87bd 7f62 663e d731 b43c
000002f0: 8ca1 4b3e 3be6 a9bd ea9a 873e ead5 e6bd
00000300: c18c 4a3e bbae 083e d28a 68be 4cb4 f6bc
00000310: c996 9cbd d346 953c 43c0 163d adee 58bc
00000320: 1fd6 60be d9c3 863d ae0e 98bd 3c7a ffbd
00000330: 9863 f33d 6bf9 36bd 8eee a33c 6e4f 823e
00000340: c35c d6bd fc3a 98bc c21c 3ebe c76c 7d3e
00000350: 46ba 823c 23be 34be f8cf 043e 49ba 6cbc
00000360: bdcb 563d fb0e d03c 3b9d 70be 2fe5 2f3e
00000370: 24c0 cc3c fbf8 d83d 9db9 e83d 8c98 353e
00000380: 23b9 94bd 9207 cebd dd02 7fbd da8c 003d
00000390: 0224 f2bc c4f4 b2bc 5043 3db9 e033 8fbc
000003a0: f331 82bd d1b3 0dbd b7bd 03bd 5df3 6b3d
000003b0: 1d82 b8bd 605a 8c3d beb3 18bd d267 d3bc
000003c0: c8cf 073e d57d 18be f0bc b2bd f879 1d3e
000003d0: 3e1f c23c 0513 133e 82ca 8c3d 7e9c 043e
000003e0: 77fc 0a3c ee6d 7d3e 56eb a8bd a1d6 ae3d
000003f0: b2ed 3d3d 365b 9cbc 1047 4bbc cbcd 0b3e
0.065143436 -0.03319037 0.109675124 -0.12457992 0.0648522 0.019252071 0.030342858 -0.20120125
-0.19686304 -0.10601785 -0.04308092 0.00049832114 -0.09373057 -0.051384497 -0.100995146 0.10356717
-0.082541205 0.073437296 0.05067349 -0.023014775 -0.044312734 0.04041851 -0.08238249 -0.1118665
-0.13788404 -0.08899356 0.28352648 0.044679582 0.14686774 0.053260986 -0.12746114 -0.11705148
-0.11092379 -0.0711382 0.13170506 -0.266252 0.112720765 -0.066828154 0.046787318 -0.17716081
-0.0047585554 -0.04736246 -0.10674946 0.061662648 -0.08318666 -0.12028458 0.04564069 -0.09318994
0.13929106 -0.14457351 -0.0100868745 0.102814116 -0.02003546 0.15100351 0.0519119 0.17115837
-0.18106583 0.010928097 0.27146628 -0.058708858 -0.16185348 0.21268041 -0.13020931 -0.058492016
0.037624862 0.001490091 -0.14140709 -0.05442305 0.103093185 0.10041773 -0.04833177 -0.10016112
-0.13011903 0.022390047 0.1832689 -0.0267463 0.0023921556 -0.1618858 0.35092318 -0.087568805
0.2753568 -0.09524487 0.16051042 -0.13241483 -0.16091545 -0.082332514 0.09353523 0.018060392
0.24801116 0.069417484 -0.11951307 -0.135666 0.034744162 -0.19812575 -0.036569554 -0.16001981
0.18345691 0.11698955 0.14506228 0.28005627 -0.17645481 0.016032994 -0.048461795 -0.19563478
-0.07188826 0.15984353 -0.029585235 0.04600059 0.25352153 0.23744519 0.056409605 -0.09720037
-0.26465976 -0.04557258 0.018568428 0.034397524 -0.05735676 0.101553425 -0.018277194 -0.15952861
-0.025649449 -0.05440225 0.18797103 -0.106763296 0.008173321 -0.0029563233 0.17105193 0.2818267
0.05871007 0.122791976 0.021763576 0.0625517 -0.049326837 -0.019419141 0.06578558 -0.009352388
0.06526619 0.2512696 -0.07198291 0.22122617 0.06891858 -0.0911671 0.07205534 0.016813869
-0.06403482 -0.07266617 -0.023247318 -0.025066357 -0.0975059 0.09964582 0.1819797 0.19110754
-0.14232486 0.009842616 0.048673753 -0.038217008 0.007507499 -0.1795214 -0.030460482 -0.011464579
-0.04653227 0.06675265 -0.061357316 0.20869538 -0.09423286 0.07346148 0.09120005 -0.08682379
0.12335542 0.20195158 0.13253401 0.015345579 0.08063096 -0.22200212 0.024648095 0.043722235
0.015039424 -0.18693899 -0.24338324 0.008953277 0.09337168 0.06554887 -0.081700616 -0.047861904
-0.0021799917 -0.0663319 0.22498511 0.021996422 0.19885844 -0.08295866 0.26485378 -0.112712696
0.19780256 0.13347904 -0.22709206 -0.03011527 -0.076459475 0.018222248 0.03680445 -0.0132404985
-0.2195668 0.06580324 -0.07424675 -0.12474486 0.118842304 -0.044671457 0.020011213 0.25451225
-0.10466912 -0.018582813 -0.18565658 0.24748527 0.015957963 -0.17650656 0.12969959 -0.014448711
0.052440394 0.025397768 -0.23497479 0.1717727 0.024993964 0.10594364 0.11363528 0.17733973
-0.072618745 -0.10060038 -0.06225859 0.031384327 -0.029558185 -0.021845229 -0.0001804952 -0.01748079
-0.06357183 -0.034595314 -0.032163348 0.057605136 -0.09009192 0.06853175 -0.03728079 -0.025806341
0.13262856 -0.14891751 -0.08727443 0.15378559 0.023696538 0.14362724 0.06874563 0.12950322
0.008483044 0.24748966 -0.08248012 0.08537031 0.046369262 -0.019086462 -0.012407079 0.13652723

ablang_branch.8.bias f4 [64]
00000000: 6e28 a8bc 407d c33c cfae 8bbd bd1a 853c
00000010: fd04 fbbc 7d38 253d 1789 bf3b 0049 2dbb
00000020: db79 84bb d85f 38bd 15d4 3dbd 6c18 0dbc
00000030: b025 9e3c 5164 353d 77c8 983c dc02 c6bc
00000040: f66e 133a 8866 b7bc d4f8 9ebb 8498 29bd
00000050: 39d3 78bc aefe e6bc c111 e03b 03fd 9db8
00000060: 9733 103d 63b1 3f3d 0e7e e6bc 8db9 e2bc
00000070: ac18 b1ba 7bee 52bd daef a1bc c520 8a3a
00000080: 8c3a b6bc e371 8b3a 50b0 99ba 765d b53c
00000090: e005 93bb 0613 783c 8c49 52bb 14e2 58bd
000000a0: 1904 95bb 6ee9 79bb 7261 ad3a 8b92 b53b
000000b0: 2a25 b53c 4217 053b 947a 37bd 176e a53c
000000c0: cdd5 2ebd a0ea 59bc 19e1 08bd 02d2 1abc
000000d0: 0c08 55bd e1b2 89bb ab9c afbd 68db fdbc
000000e0: eeb3 27bc baa4 003c 73a7 60bd 18bb c1bc
000000f0: d082 4bbd 5052 723c 767d 8a3c cb13 fb3c
-0.02052709 0.023863435 -0.068204515 0.016248101 -0.030642027 0.040337075 0.0058452 -0.0026441216
-0.0040428466 -0.04501328 -0.046344835 -0.00861178 0.01930508 0.044285122 0.018650277 -0.024171285
0.00056241394 -0.022387758 -0.00485144 -0.041405216 -0.015187078 -0.028197613 0.006838054 -7.5334705e-05
0.03520545 0.04680003 -0.02813628 -0.027676368 -0.0013511381 -0.051496964 -0.01976769 0.001053833
-0.022244714 0.0010638799 -0.0011725519 0.022139292 -0.0044867843 0.015141254 -0.0032087294 -0.05294998
-0.0045476076 -0.003813352 0.0013227894 0.005541151 0.022112448 0.0020308052 -0.044794634 0.020194096
-0.042684365 -0.013300568 -0.033417795 -0.009449484 -0.052009627 -0.004202232 -0.08574804 -0.03098841
-0.01023577 0.007851774 -0.054847192 -0.023648784 -0.0496853 0.014790133 0.016905528 0.030649086
