data/model_weights/cv_fold_2_model4_0.pt (torch, 707477 bytes, 29 tensors)

ablang_branch.0.weight f4 [256, 480]
-0.037491582 -0.06549757 0.13431458 7.650869e-05 -0.09840769 -0.009430713 -0.0083908085 0.032295354
-0.009518206 -0.08555863 -0.059763465 0.105628 -0.047254104 0.036065176 0.06354516 -0.042506363
0.10970837 0.14103167 0.036221214 -0.030075258 0.027967006 -0.022980256 0.0063286745 0.05717372
-0.017081007 -0.030354202 -0.056759696 0.029470509 0.020948255 -0.080325626 0.023403447 0.0026990229
-0.00033730274 0.080291644 0.10503397 0.057742823 0.0052859657 -0.009263204 0.033488117 -0.10962383
-0.052547652 0.051643677 -0.0050083715 0.10103116 -0.06089825 -0.008069739 -0.14076094 -0.034094237
-0.09933083 -0.010728485 0.06593484 -0.0067804367 0.023676276 0.08562721 0.057550587 -0.098196365
-0.061315272 -0.026419202 -0.06931853 -0.082576476 -0.03931984 0.05099659 0.027628433 0.17293379
0.1133298 -0.02594185 0.08868335 -0.035160914 0.023526875 -0.02250872 -0.0491733 -0.097095214
-0.14200029 0.006680673 0.113781996 0.0024500438 0.008303432 0.0025391844 0.117659576 0.058661524
-0.11618027 0.07131228 -0.005813751 -0.09145539 0.04178489 -0.060457833 -0.07246878 -0.06937323
-0.02719262 -0.055409748 -0.14510915 -0.029797148 0.14271691 0.07197867 0.03620728 0.015742095
0.022762785 0.043928806 0.021911975 0.06452729 0.0045312685 -0.06353584 0.096143775 0.1604865
-0.0022133419 0.06946897 0.009812761 0.053592384 0.023020182 0.054125868 -0.015063483 -0.0026413545
-0.04609032 -0.1012724 -0.0026533534 -0.09739387 -0.1253931 0.07208817 0.033376057 -0.064464316
0.046674587 -0.08803461 -0.048478305 -0.00566899 -0.012182342 0.006167516 0.023752782 0.0037247995
-0.045707665 -0.020677123 -0.08501051 0.084199816 -0.0112508 -0.11370039 0.04500814 0.07432519
-0.12522411 0.064506225 0.094480336 0.007813553 0.013941586 -0.023989758 -0.04886618 -0.0036186846
-0.013338805 -0.07449057 -0.05344312 0.04613747 0.027916772 0.047263462 0.00450364 0.02674852
0.08817597 0.05280516 0.033068094 0.035509694 0.00052233145 0.031818684 -0.093233235 -0.20678376
0.05497217 0.071433 -0.087154515 0.0070033865 -0.048464708 0.059659187 0.11278354 -0.03128299
-0.02407575 0.051318076 -0.012653308 -0.04347186 -0.017503936 0.07677526 0.05592167 0.028424604
-0.06846105 0.07455152 0.016380373 0.02853922 0.025640698 -0.008018085 0.1117492 -0.05251736
-0.000937642 -0.15608749 -0.03650098 -0.04973757 -0.031109579 0.037668742 -0.028404407 -0.025470367
-0.02056001 0.2017542 -0.019397613 0.10922243 -0.03923813 0.032456134 -0.035935048 -0.1277431
-0.04779708 -0.033096246 -0.029693818 0.06832643 -0.0062741507 -0.10263676 -0.008824346 0.033278655
0.10884617 -0.05032704 -0.0058438997 0.056453537 0.07336894 -0.06342267 -0.056282878 -0.07242955
0.028825233 0.12164872 -0.023921197 0.012292048 0.019818949 -0.002409075 0.111428656 -0.053987835
0.07220199 0.09301455 -0.005313807 -0.0051540644 0.014396658 -0.10358084 0.07049846 0.07863918
0.0054579633 0.06552514 0.054373104 0.02275847 0.007597823 -0.0384277 -0.07724646 0.024490384
-0.009310572 -0.057732146 0.032898992 0.014763575 -0.027862752 0.12747543 0.008262396 -0.009505529
-0.028070265 -0.060857598 -0.06437341 -0.015788248 -0.06614324 -0.045413833 -0.08693521 0.019371312
00000000: c690 19bd 9723 86bd c389 093e 4a73 a038
00000010: f989 c9bd 4783 1abc 9a79 09bc 2248 043d
00000020: 40f2 1bbc 5d39 afbd 89ca 74bd 7e53 d83d
00000030: 858d 41bd 14b9 133d f723 823d 271b 2ebd
00000040: c8ae e03d 9b6a 103e b25c 143d 6360 f6bc
00000050: 101b e53c 1741 bcbc c560 cf3b fe2e 6a3d
00000060: 78ed 8bbc 60a9 f8bc db7c 68bd 236c f13c
00000070: ad9b ab3c c381 a4bd 96b8 bf3c 17e2 303b
00000080: 02d8 b0b9 f26f a43d 0d1c d73d bd83 6c3d
00000090: e535 ad3b b2c4 17bc d62a 093d 7582 e0bd
000000a0: 353c 57bd 5288 533d 441d a4bb 6de9 ce3d
000000b0: 7270 79bd f036 04bc a323 10be 66a6 0bbd
000000c0: f66d cbbd 87c6 2fbc d808 873d 6d2e debb
000000d0: c0f4 c13c 525d af3d 2aba 6b3d 2d1b c9bd
000000e0: b925 7bbd 156d d8bc e0f6 8dbd db1d a9bd
000000f0: d70d 21bd cde1 503d 0655 e23c 8e15 313e
00000100: 7419 e83d 0184 d4bc 9e9f b53d e404 10bd
00000110: 6fbb c03c 3564 b8bc f169 49bd dbd9 c6bd
00000120: 8668 11be 8ce9 da3b 8906 e93d ea90 203b
00000130: 1e0b 083c 7268 263b 81f7 f03d 1147 703d
00000140: ecef edbd 2c0c 923d 4781 bebb f74c bbbd
00000150: a226 2b3d a2a2 77bd 836a 94bd 8d13 8ebd
00000160: 0fc3 debc 55f5 62bd 7e97 14be 2619 f4bc
00000170: 6224 123e 8e69 933d 164e 143d 91f5 803c
00000180: 0579 ba3c b1ee 333d be80 b33c e226 843d
00000190: 097b 943b 141f 82bd 07e7 c43d 9356 243e
000001a0: b70d 11bb bf45 8e3d b4c5 203c b083 5b3d
000001b0: d294 bc3c 16b3 5d3d d4cc 76bc 931a 2dbb
000001c0: 34c9 3cbd e767 cfbd e2e3 2dbb 7076 c7bd
000001d0: 0c67 00be f6a2 933d 55b5 083d de05 84bd
000001e0: da2d 3f3d 7d4b b4bd 3091 46bd efc2 b9bb
000001f0: 7298 47bc e018 ca3b 3295 c23c c41b 743b
00000200: f637 3bbd 1263 a9bc fe19 aebd f470 ac3d
00000210: 4755 38bc c0db e8bd 755a 383d ce37 983d
00000220: c03a 00be d71b 843d e87e c13d 6b04 003c
00000230: 406b 643c 2b86 c4bc e727 48bd 7427 6dbb
00000240: 018b 5abc 838e 98bd 2ce7 5abd a5fa 3c3d
00000250: b7b1 e43c 5597 413d 4593 933b b61f db3c
00000260: 9a95 b43d 394a 583d 6972 073d 9d72 113d
00000270: 12ed 083a 4f54 023d 11f1 bebd 1fbf 53be
00000280: 802a 613d 774b 923d 117e b2bd aa7c e53b
00000290: ee82 46bd 315d 743d 0efb e63d 9822 00bd
000002a0: 823a c5bc e732 523d d24f 4fbc 8d0f 32bd
000002b0: 6a64 8fbc 593c 9d3d 1f0e 653d b7da e83c
000002c0: 4f35 8cbd 78ae 983d 2230 863c 15cb e93c
000002d0: 710c d23c 495e 03bc c4dc e43d 711c 57bd
000002e0: 17cc 75ba 66d5 1fbe 0d82 15bd 9fb9 4bbd
000002f0: 84d9 febc 8a4a 1a3d 5cb0 e8bc 3ba7 d0bc
00000300: 776d a8bc a798 4e3e bee7 9ebc 02b0 df3d
00000310: 29b8 20bd b9f0 043d a130 13bd 16cf 02be
00000320: dfc6 43bd ee8f 07bd 7340 f3bc baee 8b3d
00000330: 6497 cdbb 3933 d2bd fd93 10bc 334f 083d
00000340: beea de3d ba23 4ebd 2f7e bfbb d33b 673d
00000350: 7442 963d bfe3 81bd e088 66bd f255 94bd
00000360: e522 ec3c f722 f93d 63f6 c3bc 9664 493c
00000370: 595b a23c 92e1 1dbb b534 e43d 5922 5dbd
00000380: a3de 933d 6a7e be3d 721f aebb 6de3 a8bb
00000390: f6df 6b3c 3122 d4bd 7f61 903d 940d a13d
000003a0: b7d8 b23b 0b32 863d 55b6 5e3d f96f ba3c
000003b0: 29f7 f83b 5d66 1dbd 6433 9ebd 0fa0 c83c
000003c0: 5f8b 18bc 8b78 6cbd 18c1 063d ece2 713c
000003d0: 6d40 e4bc eb88 023e 005f 073c 14bd 1bbc
000003e0: 9df3 e5bc d145 79bd 35d6 83bd 5b56 81bc
000003f0: 1b76 87bd db03 3abd 160b b2bd 96b0 9e3c

ablang_branch.0.bias f4 [256]
0.0002583309 0.0055762525 0.007569542 0.009833306 0.0031481814 0.0036989804 0.012441527 0.0029621024
0.008209043 0.0009823792 0.00076985086 0.012727644 0.0026014436 -0.0023978944 -0.0011938673 -0.0027794612
0.0074589388 -0.0016525332 0.011255955 0.008141887 -0.0017002937 0.00908605 0.0018405756 -0.00077698875
-0.0025752261 0.01304234 0.00448869 -0.0013499882 6.807594e-05 0.018031891 -0.00069713866 5.0658033e-05
0.0055895797 -0.0028010118 0.004402219 0.0030225208 0.0029333064 -0.00097335037 0.008203983 0.008313203
0.012212912 0.011113076 0.0072540855 -0.0015977802 0.008596277 0.008791875 0.015077155 -0.002970781
0.008598211 0.010486369 -0.00519949 -0.0014038029 0.010309528 0.0032408382 -0.0007129283 0.0051638265
0.00012157242 0.0008445232 0.005194111 0.012083062 0.0019007346 0.019372877 0.012499867 0.013888593
0.005163664 0.015345295 -0.00040926007 0.004260847 0.0031400232 0.001418815 -0.0024139085 0.006027767
0.0009800653 0.009568866 0.004958567 -0.0063993544 0.006699556 0.0057480684 0.009358687 0.00072010444
0.006470719 -0.0015914586 0.0076278728 0.0002362082 0.01601847 0.004498788 0.00794538 0.0065460186
0.008110286 0.0008612827 0.009045643 0.00033326048 0.0135516245 0.007237742 0.012806768 0.0037164437
0.011338082 0.0041203597 0.0042926148 0.007257723 -0.004173029 0.0022487594 0.0067637144 0.00992867
0.0011951854 0.0042436463 0.0057779094 0.013395102 0.005936877 -0.0043026754 0.013691068 0.010974767
0.008694289 0.0136156315 0.009875795 0.010214111 0.007672252 5.283529e-05 -0.0019108582 0.015108179
0.0012490929 -0.0057729054 -0.006233404 0.002234619 0.0039070956 0.008589674 0.022203756 0.00070308184
-0.0014857608 0.008024012 0.0098558385 0.008053605 0.00022021082 -0.00011813441 0.010213015 0.0013343223
0.0019897642 0.012993053 0.002775718 0.010125783 0.009334717 0.013707726 -0.003558726 0.0026774143
0.00930333 -0.0037603145 -0.0029158173 0.014281252 -0.0020222247 0.0016595973 0.007626733 -0.005258304
0.0029223268 0.00394176 0.005494954 -0.008985614 0.010411787 0.0046101925 0.0029733425 0.004723696
-0.0021475288 0.002486577 0.008031725 0.0035791341 0.0013714937 0.015360901 -0.004929874 0.0066366135
0.006722289 0.011095059 -0.0029196842 0.012513389 0.0037639984 0.004735854 0.00060335675 0.0073416675
0.00653088 0.0010252157 0.005658887 0.010328542 0.012570431 -0.00011500192 0.0071495683 0.006899828
-0.00038481082 -0.0006981133 -0.00085493893 -0.0005741396 0.0017606245 0.0107985 -0.0008967616 0.0023162726
-0.0013928824 0.00619615 0.0067398697 0.0064165196 0.00018069005 0.007845525 0.0039804284 -0.00064222247
0.012589096 0.017579366 0.0082016755 0.004461727 0.015603126 0.011285512 -0.0049309414 0.0031234291
0.00042078807 0.0071426206 0.00015762093 0.0023421003 0.00588578 0.00030756416 0.0040245475 0.011425879
-0.00489456 0.009415485 0.01405775 0.005495003 0.0060592415 0.010074898 0.010720349 0.01227749
-0.0015180898 0.010142041 0.008197946 0.0023007889 0.010080968 -0.00036454876 -0.002906486 0.005417096
0.005108017 -0.0065133325 0.008967048 0.004323761 0.0060869143 0.0009670372 0.011126185 0.005568239
0.0031241155 -0.0019314114 0.0042210086 0.010165946 -0.0046343994 0.008339436 -0.0042768195 -0.000876203
0.007318912 0.010226523 0.0067415205 0.017056888 -0.0044276803 -0.004378514 0.0019327617 0.015596539
00000000: 9670 8739 ffb8 b63b ec09 f83b e01b 213c
00000010: b851 4e3b 986a 723b 8cd7 4b3c d51f 423b
00000020: 397f 063c 2dc3 803a d1cf 493a 9c87 503c
00000030: fb7c 2a3b fe25 1dbb 8a7b 9cba 9f27 36bb
00000040: 1d6a f43b d099 d8ba e66a 383c 8d65 053c
00000050: 64dc deba a8dd 143c 783f f13a d5ae 4bba
00000060: 20c5 28bb 8aaf 553c dc15 933b 16f2 b0ba
00000070: fec3 8e38 9eb7 933c 2fc0 36ba a679 5438
00000080: cb28 b73b 2e91 37bb 7d40 903b 7c15 463b
00000090: b73c 403b 7028 7fba 006a 063c 1a34 083c
000000a0: aa18 483c 9e13 363c aeb3 ed3b 9b6c d1ba
000000b0: 66d7 0c3c cc0b 103c 2c06 773c 6fb1 42bb
000000c0: 83df 0c3c 05cf 2b3c 7c60 aabb cfff b7ba
000000d0: 4be9 283c 3e64 543b cfe3 3aba 5135 a93b
000000e0: b2f4 fe38 fe62 5d3a 5c33 aa3b 09f8 453c
000000f0: 1222 f93a deb3 9e3c 3ecc 4c3c fb8c 633c
00000100: f433 a93b d56a 7b3c f591 d6b9 939e 8b3b
00000110: d9c8 4d3b 88f7 b93a aa32 1ebb 9384 c53b
00000120: 8975 803a bcc6 1c3c 7a7b a23b adb1 d1bb
00000130: f387 db3b 4b5a bc3b 2e55 193c 64c5 3c3a
00000140: 5308 d43b 7d98 d0ba 3cf3 f93b a8ae 7739
00000150: 2b39 833c 926a 933b 572d 023c fc7f d63b
00000160: 01e1 043c b4c7 613a 2d34 143c 77b9 ae39
00000170: a207 5e3c 952a ed3b 7ad3 513c 948f 733b
00000180: 5dc3 393c 1504 873b 10a9 8c3b 31d2 ed3b
00000190: e8bd 88bb ec5f 133b 26a2 dd3b dcab 223c
000001a0: c4a7 9c3a 490e 8b3b 9e54 bd3b 2177 5b3c
000001b0: 228a c23b 75fd 8cbb 8050 603c 82cf 333c
000001c0: 7e72 0e3c 1914 5f3c 16ce 213c 1659 273c
000001d0: 8467 fb3b 769b 5d38 c375 faba 4c88 773c
000001e0: 9ab8 a33a a42a bdbb 9541 ccbb b072 123b
000001f0: 1807 803b b4bb 0c3c a7e4 b53c 064f 383a
00000200: dcbd c2ba 2577 033c 627a 213c 45f3 033c
00000210: 64e8 6639 eebe f7b8 7d54 273c 6de4 ae3a
00000220: b466 023b d0e0 543c d2e8 353b 9de6 253c
00000230: a4f0 183c 5f96 603c 8439 69bb 8f77 2f3b
00000240: ff6c 183c 9c6f 76bb 4c17 3fbb eafb 693c
00000250: 4d87 04bb d886 d93a ace9 f93b da4d acbb
00000260: 8284 3f3b e129 813b 040f b43b 6638 13bc
00000270: 3396 2a3c 1911 973b 69dc 423b 3cc9 9a3b
00000280: 8ebd 0cbb d7f5 223b 7f97 033c e88f 6a3b
00000290: b1c3 b33a 4aac 7b3c c88a a1bb f377 d93b
000002a0: a646 dc3b 0dc8 353c 2c58 3fbb f504 4d3c
000002b0: 6aad 763b 392f 9b3b 962a 1e3a 5f92 f03b
000002c0: fe00 d63b 8860 863a 2f6e b93b 0c39 293c
000002d0: 36f4 4d3c 302d f1b8 ed46 ea3b f417 e23b
000002e0: 6fc0 c9b9 9701 37ba fb1d 60ba db81 16ba
000002f0: c1c4 e63a 31ec 303c a714 6bba 9bcc 173b
00000300: 6191 b6ba 1309 cb3b 20da dc3b ab41 d23b
00000310: 9e77 3d39 848a 003c 416e 823b d25a 28ba
00000320: 7f42 4e3c 9a02 903c 5260 063c ae33 923b
00000330: 41a4 7f3c dee6 383c bc93 a1bb 72b2 4c3b
00000340: 389d dc39 a50c ea3b 0c47 2539 ec7d 193b
00000350: 80dd c03b 9040 a139 5ae0 833b 9c33 3b3c
00000360: 8c62 a0bb 6843 1a3c 7a52 663c 6d0f b43b
00000370: 9a8c c63b 2f11 253c 67a4 2f3c 8727 493c
00000380: a4fa c6ba ce2a 263c ad50 063c d5c8 163b
00000390: a52a 253c e820 bfb9 be7a 3ebb e581 b13b
000003a0: 2761 a73b cb6d d5bb 86ea 123c 56ae 8d3b
000003b0: bd74 c73b c580 7d3a 9a4a 363c c675 b63b
000003c0: f6bd 4c3b 6a27 fdba 6350 8a3b 118f 263c
000003d0: 29dc 97bb 21a2 083c 9024 8cbb fdb0 65ba
000003e0: 7cd3 ef3b 258d 273c f9e7 dc3b e3ba 8b3c
000003f0: 1316 91bb a379 8fbb b954 fd3a a088 7f3c

ablang_branch.1.weight f4 [256]
0.9857343 0.97289544 1.013567 1.0346547 0.96623886 1.0368265 1.0129726 0.9760864
1.0684825 0.99374616 1.0009471 0.9874156 1.0338567 0.9752559 0.9951219 1.0003135
0.999743 0.9763813 1.0370157 0.97989064 1.0004729 1.0393108 1.0076169 0.9730748
1.0023671 1.0247582 0.9847813 0.98682916 1.0297601 1.058171 0.9888954 1.0204097
1.0764595 1.0139178 1.0213846 0.9825462 0.9941435 0.99085736 1.0293835 0.99318004
0.98745316 1.0032892 0.9891306 0.98716444 1.0005201 0.9902866 1.046303 1.0037737
1.0091622 1.047634 1.1038926 0.98508835 1.0179561 0.97283643 0.96947694 0.98283476
0.9875534 1.0021421 0.97848946 0.99941707 0.96867895 1.0538375 1.018389 1.0213014
1.002718 1.0617534 1.0326321 0.9730432 1.0020863 0.9941043 0.9764903 1.0033264
1.0027591 0.9899887 0.97824836 0.98825455 1.0267831 0.9995024 1.0189573 1.0140066
0.9648425 0.99943525 1.0106277 0.9939794 0.9639563 1.0013587 0.97909445 1.0449246
0.9733369 1.0312865 1.0340664 0.9882432 1.0739795 1.003299 0.9872167 1.0042113
0.9751982 1.027874 1.0560251 0.97119457 0.99249446 1.0213386 0.9887732 1.0154955
1.0217718 1.0067695 1.0377302 1.0171286 1.0414182 0.9894842 0.96611506 1.0132836
0.9862655 1.0616688 0.986167 1.101792 1.0130615 0.97671896 1.0005293 1.0123014
1.0001504 0.99765974 0.9936985 0.9692249 1.0063446 1.0145558 1.0921303 1.0206028
0.9918107 1.014426 0.9872199 0.9814914 1.0040668 0.96164054 0.98517764 1.0037997
1.0229988 0.98847556 0.99815845 0.9987252 1.0427319 1.0227195 1.0499687 0.99173945
1.0369256 1.0207368 1.0150104 1.0178125 0.9953363 0.99036545 1.0200539 0.9823623
0.9918236 0.99754465 1.0407584 0.9791999 0.9812492 0.9592194 0.98584414 1.0204386
0.9667061 0.9963934 1.0418022 0.9742457 0.9954874 1.017435 1.0184702 0.9934581
1.0373737 0.99491453 0.98305357 1.006888 1.0056027 1.0326517 0.9778603 0.9987914
0.97468543 0.98488 0.9576026 0.9839912 1.0092907 0.98571265 1.001418 1.0338098
0.9897036 0.9937356 1.0965996 1.0125968 0.9682941 0.99523455 1.0008698 1.0442427
0.9778877 1.0018287 0.9646354 0.9772386 0.9854512 0.97420985 1.066605 1.026882
0.9929633 1.0347264 0.9587196 0.98766637 0.9508105 1.0184264 0.98234475 0.9678944
1.0353528 0.9807313 1.045205 1.0629121 0.9920392 1.0290312 0.9884747 1.046918
1.0229592 0.96257097 1.0035547 0.97473204 1.0095526 0.97204757 1.0166813 0.9924397
1.0350378 1.0214046 0.9793232 0.99492913 0.9763586 0.95487905 0.9940055 0.9754462
0.99991876 0.99218017 1.0295027 0.9743234 1.0112004 0.9897131 0.97396296 1.0045896
0.97935635 1.0439727 1.0468454 0.9723753 0.9893417 0.99804616 0.9696462 0.9707218
0.9726535 1.012645 1.0107697 1.0303249 0.95426065 0.99396354 1.0163014 1.0051031
00000000: 1559 7c3f ad0f 793f 90bc 813f 916f 843f
00000010: 6e5b 773f bbb6 843f 16a9 813f cce0 793f
00000020: 09c4 883f 2666 7e3f 091f 803f 45c7 7c3f
00000030: 6b55 843f 5faa 793f 4fc0 7e3f 460a 803f
00000040: 28ef 7f3f 20f4 793f eebc 843f 1dda 7a3f
00000050: 7f0f 803f 2308 853f 97f9 803f 6e1b 793f
00000060: 914d 803f 472b 833f a11a 7c3f d6a0 7c3f
00000070: 2ecf 833f 2672 873f 4028 7d3f c99c 823f
00000080: 6dc9 893f 0fc8 813f bbbc 823f 2688 7b3f
00000090: 3080 7e3f d4a8 7d3f d7c2 833f 0c41 7e3f
000000a0: bbc9 7c3f c86b 803f aa37 7d3f cfb6 7c3f
000000b0: 0b11 803f 6c83 7d3f 42ed 853f a87b 803f
000000c0: 3a2c 813f df18 863f 5a4c 8d3f c02e 7c3f
000000d0: 634c 823f cf0b 793f a42f 783f 0f9b 7b3f
000000e0: 4dd0 7c3f 3146 803f 497e 7a3f ccd9 7f3f
000000f0: 58fb 773f 26e4 863f 925a 823f 01ba 823f
00000100: 1059 803f 89e7 873f 4a2d 843f 5c19 793f
00000110: 5d44 803f 9f7d 7e3f 45fb 793f 006d 803f
00000120: 695a 803f e66f 7d3f 7c6e 7a3f 40fe 7c3f
00000130: a16d 833f 64df 7f3f 316d 823f f8ca 813f
00000140: ebff 763f fdda 7f3f 405c 813f 6f75 7e3f
00000150: d7c5 763f 862c 803f efa5 7a3f 17c0 853f
00000160: 9b2c 793f 3201 843f 4a5c 843f 82fd 7c3f
00000170: 2978 893f 1a6c 803f 3cba 7c3f ff89 803f
00000180: 97a6 793f 6091 833f d52b 873f 35a0 783f
00000190: 1e14 7e3f 39bb 823f 3e20 7d3f c2fb 813f
000001a0: 6bc9 823f d3dd 803f 58d4 843f 4531 823f
000001b0: 314d 853f d64e 7d3f 5153 773f 47b3 813f
000001c0: e57b 7c3f c3e4 873f 7175 7c3f 8507 8d3f
000001d0: 00ac 813f 410a 7a3f 5811 803f 1893 813f
000001e0: ee04 803f a166 7f3f 0663 7e3f 1f1f 783f
000001f0: e6cf 803f f7dc 813f edca 8b3f 1da3 823f
00000200: 4ee7 7d3f b6d8 813f 72ba 7c3f 0543 7b3f
00000210: 4385 803f 132e 763f 9a34 7c3f 827c 803f
00000220: a0f1 823f bc0c 7d3f 5087 7f3f 74ac 7f3f
00000230: 3d78 853f 79e8 823f 6065 863f a3e2 7d3f
00000240: fab9 843f 81a7 823f dceb 813f ae47 823f
00000250: 5cce 7e3f 9788 7d3f 2091 823f 187c 7b3f
00000260: 27e8 7d3f 165f 7f3f 9237 853f d8ac 7a3f
00000270: 2633 7b3f 678f 753f 4860 7c3f bb9d 823f
00000280: 0d7a 773f a313 7f3f c659 853f 2b68 793f
00000290: 43d8 7e3f 4f3b 823f 3b5d 823f 4553 7e3f
000002a0: a9c8 843f b8b2 7e3f 66a9 7b3f b5e1 803f
000002b0: 97b7 803f ee2d 843f 0d55 7a3f cbb0 7f3f
000002c0: fc84 793f 1821 7c3f 7225 753f d9e6 7b3f
000002d0: 7030 813f aa57 7c3f 772e 803f e153 843f
000002e0: 375d 7d3f 7565 7e3f 605d 8c3f c69c 813f
000002f0: 1fe2 773f b1c7 7e3f 801c 803f bfa9 853f
00000300: d956 7a3f ec3b 803f 58f2 763f 4f2c 7a3f
00000310: 8846 7c3f d165 793f 8386 883f df70 833f
00000320: d832 7e3f ea71 843f a66e 753f b4d7 7c3f
00000330: 5168 733f cc5b 823f f27a 7b3f edc7 773f
00000340: 7186 843f 3511 7b3f 47c9 853f 810d 883f
00000350: 48f6 7d3f 4bb7 833f ae0c 7d3f 6901 863f
00000360: 54f0 823f 0d6b 763f 7b74 803f 0a88 793f
00000370: 0539 813f 1cd8 783f 9d22 823f 8710 7e3f
00000380: 1e7c 843f 63bd 823f edb4 7a3f adb3 7e3f
00000390: a3f2 793f f472 743f 2577 7e3f d8b6 793f
000003a0: adfa 7f3f 85ff 7d3f bfc6 833f 426d 793f
000003b0: 046f 813f d65d 7d3f a355 793f 6496 803f
000003c0: 19b7 7a3f e6a0 853f 08ff 853f 96ed 783f
000003d0: 7f45 7d3f f47f 7f3f bc3a 783f 3981 783f
000003e0: d2ff 783f 5a9e 813f e760 813f b0e1 833f
000003f0: 6d4a 743f 6574 7e3f 2a16 823f 38a7 803f

ablang_branch.1.bias f4 [256]
-0.001972016 -0.00049460743 0.0017382724 0.0042365734 -0.009359463 -0.03758047 0.0019328205 -0.01071911
0.005167731 -0.0042550946 -0.0023208144 0.0005599993 0.000687636 -0.018845448 -0.009689287 -0.014994738
0.004557274 -0.0081681525 0.0025698098 -0.007554696 -0.004979254 0.007354891 -0.0001610149 -0.01881808
-0.0051780296 0.0067579336 -0.012630482 -0.005625655 -0.0045952615 0.0112648625 -0.012428977 -0.0047094575
-0.0040572328 -0.0040517924 -0.028477255 -0.023261286 -0.03149899 -0.0031749734 0.008990245 0.003129106
0.0055078985 -0.014847564 5.95187e-05 -0.0056307195 0.006920429 -0.028725157 -0.00072485895 -0.0064113503
0.0037049127 -0.0053703752 -0.0042243567 -0.006817416 0.0037894645 -0.025156323 -0.018408624 -0.004450529
-0.016432287 -0.012521699 -0.02399522 -0.019138684 -0.018414102 0.006576729 0.0053458507 -0.0448199
-0.014512233 -0.0005421735 -0.004080479 -0.011355889 -0.0088129435 -0.0012389455 -0.02326616 -0.0015709833
0.0008727022 -0.035264254 -0.02583792 -0.016543536 0.0023656902 -0.00224469 -0.00022801774 -0.005132145
-0.016540345 -0.0077004684 -0.010355522 -0.015621659 -0.013819553 -0.027210666 -0.004947196 0.0036196816
-0.019620284 0.00055716385 -0.007421181 -0.0044760494 0.005097757 -0.04375611 0.0017439448 -0.0017600531
-0.02289524 -6.7377274e-05 0.0064614383 -0.0075975526 -0.014235719 -0.06053971 0.0022413295 0.00058573426
-0.00010218314 -0.0037237722 0.0043374607 0.0038469695 0.0010844884 -0.010713281 -0.0025390622 -0.0005297241
-0.005514605 -0.0023899944 -0.005298504 -0.019286243 0.0021981748 -0.018240245 -0.0023772877 0.0068508796
-0.0010087912 -0.0062506655 -0.034100812 -0.035954613 -0.00013478368 0.0033874495 0.0069907773 -0.001212385
-0.0037198646 -0.0038893123 -0.04696086 -0.004915772 -0.0024722416 -0.015576113 -0.009069607 -0.0034338883
-0.007404993 -0.017385427 -0.047540337 -0.0017261237 -0.0485702 -0.03604797 -0.012424569 -0.0055727456
0.0019403168 -0.0065478594 -0.0348589 -0.055940427 -0.0069380053 -0.0041815294 -0.050496645 -0.012308956
-0.005475569 -0.015560128 0.00096271234 -0.016472643 -0.00022967241 -0.016100109 -0.005288703 -0.0034781112
-0.0134512605 -0.009721373 -0.023455683 -0.035427533 -0.0112447655 0.005659261 -0.017631333 1.4962621e-05
-0.059252564 0.008778091 -0.0046966467 -0.03211143 -0.00066928816 -0.014292694 -0.010458729 -0.00033384303
-0.0042691585 -0.004504142 -0.019060252 0.001828658 0.006823573 -0.0042292774 -0.0017499411 -0.00040303406
-0.012226992 -0.0076069953 -0.0044023334 0.00065042457 -0.025115527 0.0012700554 -0.0022952997 -0.04604179
-0.009333099 -0.0052879923 -0.002700308 -0.03338562 -0.010377889 -0.024869913 0.0024566364 -0.040288117
-0.0081522865 0.0065520643 -0.015978247 -0.010241703 3.9389684e-05 0.004833493 -0.012789123 -0.0062359627
-0.03971445 -0.0024853097 0.0011065884 0.0066408454 -0.032143757 -0.0051125996 -0.012343043 0.006261527
-0.00607648 -0.006543333 0.0045824703 -0.022915417 0.0053880247 -0.0037536374 0.005682333 0.0064129233
-0.0049743857 -0.04785718 -0.002828669 -0.0038261279 -0.011480242 -0.01647806 -0.0036613652 -0.024159933
-0.005066924 -0.011121605 0.008757694 -0.021152958 0.0030734912 -0.010645764 0.00023503127 0.0063321777
-0.0050574173 -0.004599958 -0.0067024566 -0.012247741 -0.010456601 -0.00041159315 -0.016799392 -0.023793438
-0.022778654 1.4630321e-05 0.0017561777 0.0023989256 -0.02043042 -0.03750116 -0.0011802964 -0.02516315
00000000: f03c 01bb 8ba8 01ba bed6 e33a f4d2 8a3b
00000010: 6f58 19bc fbed 19bd b256 fd3a 359f 2fbc
00000020: 1256 a93b 526e 8bbb ce18 18bb ebcc 123a
00000030: 7942 343a c561 9abc d1bf 1ebc 7dac 75bc
00000040: 2f55 953b b7d3 05bc 416a 283b 628d f7bb
00000050: 0329 a3bb 4c01 f13b 1cd6 28b9 6028 9abc
00000060: 76ac a9bb a871 dd3b 15f0 4ebc 6a57 b8bb
00000070: d993 96bb 4290 383c e8a2 4bbc cb51 9abb
00000080: 89f2 84bb e6c4 84bb 2249 e9bc 748e bebc
00000090: 1605 01bd 3713 50bb d24b 133c b011 4d3b
000000a0: 9a7b b43b 3243 73bc b8a3 7938 e681 b8bb
000000b0: c4c4 e23b 0551 ebbc 7604 3eba 4e16 d2bb
000000c0: 1fce 723b f9f9 afbb 796c 8abb a164 dfbb
000000d0: aa58 783b a214 cebc afcd 96bc bed5 91bb
000000e0: 019d 86bc d027 4dbc a091 c4bc bbc8 9cbc
000000f0: 2cd9 96bc 9a81 d73b 3f2c af3b 1295 37bd
00000100: b8c4 6dbc a620 0eba 8ab5 85bb 0d0e 3abc
00000110: 2a64 10bc 1d64 a2ba ad98 bebc 74e9 cdba
00000120: 0ec6 643a 4071 10bd 0caa d3bc 4f86 87bc
00000130: b209 1b3b a61b 13bb 0c18 6fb9 8d2b a8bb
00000140: 9e7f 87bc 3654 fcbb 35aa 29bc fdf1 7fbc
00000150: 686b 62bc e7e8 debc 171c a2bb 2e38 6d3b
00000160: b8ba a0bc a20e 123a 612d f3bb d3ab 92bb
00000170: 160b a73b 9b39 33bd 1495 e43a 95b1 e6ba
00000180: cc8e bbbc e64c 8db8 79ba d33b e4f4 f8bb
00000190: ef3c 69bc 7df8 77bd 45e3 123b f68b 193a
000001a0: 284b d6b8 880a 74bb 4221 8e3b 701d 7c3b
000001b0: 6425 8e3a c286 2fbc 6566 26bb 2fdd 0aba
000001c0: dcb3 b4bb 74a1 1cbb 139f adbb 2ffe 9dbc
000001d0: 410f 103b 916c 95bc 45cc 1bbb 587d e03b
000001e0: 6a39 84ba 62d2 ccbb 4bad 0bbd 2545 13bd
000001f0: b854 0db9 f9ff 5d3b e412 e53b e4e8 9eba
00000200: f9c8 73bb d5e3 7ebb 085a 40bd 7c14 a1bb
00000210: 5505 22bb f432 7fbc b098 14bc 160b 61bb
00000220: 95a5 f2bb e26b 8ebc a8b9 42bd 1a3f e2ba
00000230: 8cf1 46bd 09a7 13bd 6b90 4bbc 949b b6bb
00000240: 3a52 fe3a 6d8f d6bb 35c8 0ebd ca21 65bd
00000250: 3558 e3bb 3605 89bb 92d5 4ebd 81ab 49bc
00000260: 676c b3bb e8ef 7ebc 885e 7c3a a3f1 86bc
00000270: 38d4 70b9 60e4 83bc db4c adbb 06f1 63bb
00000280: ad62 5cbc 6546 1fbc 2226 c0bc 761c 11bd
00000290: f73b 38bc 5271 b93b 966f 90bc f807 7b37
000002a0: d1b2 72bd fbd1 0f3c 54e6 99bb 4687 03bd
000002b0: 2b73 2fba e72b 6abc 175b 2bbc a707 afb9
000002c0: 4ce4 8bbb 7b97 93bb 3f24 9cbc 95af ef3a
000002d0: 4798 df3b c095 8abb 485e e5ba 514e d3b9
000002e0: b953 48bc 1a44 f9bb 7341 90bb 4181 2a3a
000002f0: 14bf cdbc fd77 a63a bd6c 16bb 5196 3cbd
00000300: dbe9 18bc e546 adbb a7f7 30bb 5cbf 08bd
00000310: 0508 2abc fdbb cbbc 85ff 203b 2705 25bd
00000320: 2b91 05bc b3b2 d63b d0e4 82bc d1cc 27bc
00000330: 5a36 2538 4762 9e3b 7889 51bc 0c57 ccbb
00000340: 9eab 22bd 94e0 22bb f20a 913a 739b d93b
00000350: 2ca9 03bd 9887 a7bb 7a3a 4abc 7f2d cd3b
00000360: 351d c7bb 7569 d6bb 8c28 963b 1db9 bbbc
00000370: 078e b03b 96ff 75bb dd32 ba3b 8023 d23b
00000380: 2c00 a3bb e405 44bd 3161 39bb c6bf 7abb
00000390: a017 3cbc fffc 86bc 84f3 6fbb 0deb c5bc
000003a0: 7008 a6bb 6437 36bc 6e7c 0f3c f848 adbc
000003b0: a06c 493b 926b 2ebc ba72 7639 287e cf3b
000003c0: b1b8 a5bb 3fbb 96bb 48a0 dbbb c0aa 48bc
000003d0: 2a52 2bbc 19cb d7b9 e19e 89bc 75ea c2bc
000003e0: 4d9a babc c074 7537 8c2f e63a 4b37 1d3b
000003f0: b25d a7bc d19a 19bd 2db4 9aba f322 cebc

ablang_branch.4.weight f4 [128, 256]
0.08004498 -0.12539092 -0.011055517 -0.13370399 -0.19530754 -0.034149796 0.0043417565 0.24387614
-0.060332384 -0.13887866 -0.0686749 -0.039708357 -0.03910042 -0.026462335 0.018521154 0.049402513
0.05411525 0.09885896 -0.009313487 -0.055058654 0.017161945 0.009590667 0.017770728 0.0022976531
0.07776109 -0.15714507 0.020949218 0.17751198 0.04294004 -0.026309652 -0.053026576 0.048809923
0.14715366 0.24249533 0.045172177 0.046751622 0.1406003 0.06748541 0.054476384 -0.07040594
0.11503995 0.067236684 -0.18025748 0.11269765 -0.011302368 0.03790451 0.018299177 0.19020103
-0.06480024 0.00585075 -0.04545535 0.03684203 -0.018612208 0.038101405 -0.037822373 -0.06123684
-0.04637296 0.19108815 0.09440319 -0.13587685 -0.03600896 -0.05099633 -0.014098954 -0.045192845
0.03071477 0.030226724 -0.048872624 0.0053045764 0.09535731 0.1429602 0.028297178 0.025919113
0.10158317 -0.04218683 0.07859458 -0.012354636 0.14503257 -0.0020404248 -0.0393379 0.053755384
0.06882964 0.0382797 0.13888271 0.0130243115 -0.10782894 0.05750259 -0.0028783057 0.059384633
0.023521269 -0.0870505 -0.0032774454 -0.05555709 -0.019845184 0.052727204 -0.038043175 0.12964903
-0.080661766 0.08742865 -0.094972365 -0.105334155 0.05178743 0.06893083 -0.025466477 0.121819876
-0.012100211 -0.18698144 0.08516842 -0.115506895 0.07523771 -0.0071013365 0.030981544 0.030912364
0.11785438 -0.18002631 -0.07710463 0.01513369 0.0032712366 0.036611103 0.015945574 0.03169205
0.00850462 -0.00736916 0.080687344 -0.032202434 -0.105067335 -0.10413903 -0.09653301 0.019238066
0.08316008 0.21701866 0.03907104 -0.10903172 -0.11134184 -0.037858143 -0.013892535 0.23008731
0.022560716 0.03732336 -0.029293492 -0.06971465 0.11094868 0.052870717 0.06919598 -0.07407919
-0.04515458 -0.009924205 -0.09718166 -0.2476064 0.051813673 -0.03197534 -0.026578417 -0.055507187
0.058463033 0.052592568 -0.0050137592 0.08621503 -0.046593495 0.07575013 0.043231748 -0.004795721
-0.02039255 0.0017420554 0.024318598 0.008891948 0.09079092 -0.23922987 -0.043771457 0.11376298
0.058698438 0.085651144 -0.079739265 0.22436228 -0.089358725 -0.016414002 0.0051976023 -0.14026822
0.15384911 -0.12199623 0.0708374 -0.05582776 -0.08393739 0.083884686 -0.10710306 -0.011789226
0.044496454 0.010654174 -0.19112386 0.05849735 0.024924083 -0.11843693 -0.066736 0.094832286
0.18521762 0.124455 -0.002454986 0.13064042 0.020907672 0.13579184 0.066355936 -0.18229921
0.22824226 -0.071691364 0.03600302 0.10609058 0.029473037 0.018370617 0.0672944 0.071956165
0.069286086 -0.0458581 -0.08608934 0.017794164 0.10977067 0.12673034 -0.0924778 -0.053243574
0.10001149 -0.06879606 -0.1149361 0.20469068 0.10893845 -0.05269181 -0.04744182 -0.08691375
-0.047227334 -0.008997328 -0.088306785 0.023678571 0.056935854 0.12336759 0.15936907 0.073365554
0.01911783 0.10458928 -0.09311846 -0.12692326 0.038696792 0.19707459 -0.15161861 0.10188057
0.12682952 0.051943522 0.0334185 -0.015315994 0.0078087253 -0.041070346 0.06271931 -0.21512222
0.03803331 0.08115549 -0.113590114 -0.04790613 0.048964847 -0.17489369 0.04169157 -0.12225125
00000000: 9fee a33d 7a66 00be 3322 35bc b3e9 08be
00000010: b3fe 47be a8e0 0bbd 4b45 8e3b abba 793e
00000020: 171f 77bd 3536 0ebe 6da5 8cbd 3ba5 22bd
00000030: c327 20bd 8ac7 d8bc adb9 973c 4a5a 4a3d
00000040: f4a7 5d3d 9176 ca3d 9997 18bc 2f85 61bd
00000050: 3597 8c3c 2c22 1d3c eb93 913c 3994 163b
00000060: 3541 9f3d a3ea 20be b29d ab3c b3c5 353e
00000070: e5e1 2f3d 5787 d7bc 6532 59bd eaec 473d
00000080: 73af 163e b250 783e 7606 393d a17e 3f3d
00000090: 86f9 0f3e ca35 8a3d a122 5f3d fd30 90bd
000000a0: 119a eb3d 63b3 893d 6b95 38be 07ce e63d
000000b0: 912d 39bc c241 1b3d 28e8 953c 0fc4 423e
000000c0: fdb5 84bd a6b7 bf3b 642f 3abd abe7 163d
000000d0: a178 98bc 3810 1c3d a2eb 1abd 7bd3 7abd
000000e0: 93f1 3dbd 9dac 433e 7656 c13d 4d23 0bbe
000000f0: 227e 13bd 87e1 50bd 4dff 66bc 221c 39bd
00000100: 8b9d fb3c 099e f73c a92e 48bd 03d2 ad3b
00000110: b14a c33d 2964 123e 7ccf e73c 5254 d43c
00000120: d60a d03d 19cc 2cbd 32f6 a03d 196b 4abc
00000130: 6b83 143e a6b8 05bb c720 21bd 9b2e 5c3d
00000140: 8ef6 8c3d 2dcb 1c3d 4537 0e3e ec63 553c
00000150: 6bd5 dcbd d687 6b3d f5a1 3cbb 4d3d 733d
00000160: adaf c03c 8847 b2bd 69ca 56bb d58f 63bd
00000170: 5e92 a2bc 7bf8 573d 29d3 1bbd b7c2 043e
00000180: ff31 a5bd cb0d b33d df80 c2bd 6fb9 d7bd
00000190: 0e1f 543d 9b2b 8d3d 139f d0bc b37c f93d
000001a0: f73f 46bc 1078 3fbe c86c ae3d e18e ecbd
000001b0: 3a16 9a3d 54b2 e8bb 02cd fd3c ed3b fd3c
000001c0: a35d f13d d158 38be 08e9 9dbd 4cf3 773c
000001d0: 3e62 563b 86f5 153d 4ba0 823c 86cf 013d
000001e0: f656 0b3c ff78 f1bb 683f a53d b3e6 03bd
000001f0: 8b2d d7bd d846 d5bd 19b3 c5bd 2699 9d3c
00000200: d54f aa3d 243a 5e3e f408 203d 064c dfbd
00000210: 3107 e4bd 2411 1bbd 849d 63bc 029c 6b3e
00000220: 40d1 b83c 61e0 183d e8f8 efbc 8ec6 8ebd
00000230: 1039 e33d f78e 583d 9fb6 8d3d d5b6 97bd
00000240: 02f4 38bd 2299 22bc 2e07 c7bd 888c 7dbe
00000250: 933a 543d 93f8 02bd fbba d9bc 815b 63bd
00000260: ef76 6f3d 4e6b 573d 764a a4bb 8191 b03d
00000270: d2d8 3ebd e222 9b3d c613 313d 6c25 9dbb
00000280: 470e a7bc ae55 e43a cc37 c73c 88af 113c
00000290: 97f0 b93d adf8 74be b349 33bd 91fc e83d
000002a0: c66d 703d de69 af3d 574e a3bd 3abf 653e
000002b0: b501 b7bd a876 86bc a650 aa3b 79a2 0fbe
000002c0: 9f8a 1d3e 29d9 f9bd 3313 913d a6ab 64bd
000002d0: 5ee7 abbd bccb ab3d d958 dbbd 9927 41bc
000002e0: ea41 363d d88e 2e3c f9b5 43be eb9a 6f3d
000002f0: 972d cc3c 108f f2bd e2ac 88bd 6e37 c23d
00000300: b0a9 3d3e 43e2 fe3d d5e3 20bb 9ac6 053e
00000310: 9146 ab3c 040d 0b3e 9fe5 873d a5ac 3abe
00000320: 57b8 693e ecd2 92bd e777 133d 0546 d93d
00000330: 7071 f13c fa7d 963c a5d1 893d c15d 933d
00000340: dde5 8d3d b4d5 3bbd 9c4f b0bd 11c5 913c
00000350: 72cf e03d 99c5 013e 0065 bdbd ef15 5abd
00000360: d3d2 cc3d f3e4 8cbd 9e63 ebbd 6f9a 513e
00000370: 1f1b df3d 5ed3 57bd 5b52 42bd d6ff b1bd
00000380: 7371 41bd 8769 13bc 30da b4bd 90f9 c13c
00000390: 9235 693d 26a8 fc3d a531 233e ae40 963d
000003a0: ff9c 9c3c e832 d63d e4b4 bebd 2cf8 01be
000003b0: 8780 1e3d eccd 493e e941 1bbe c3a6 d03d
000003c0: 99df 013e bbc2 543d d6e1 083d efef 7abc
000003d0: 56e0 ff3b 6139 28bd fb72 803d 0049 5cbe
000003e0: d1c8 1b3d d934 a63d efa1 e8bd 3839 44bd
000003f0: 5d8f 483d 5517 33be c8c4 2a3d dd5e fabd

ablang_branch.4.bias f4 [128]
-0.00726406 -0.008676219 -0.009574256 0.0009342168 0.0011096554 0.021401793 -0.012291811 -0.020168751
-0.019955406 0.019237274 -0.0016091728 -0.006760777 0.014533749 -0.013535269 0.0034159997 -0.021887362
0.00662696 -0.006387914 0.0036352256 0.0070543992 0.007858719 0.008555597 -0.0009352909 -0.011306453
-0.009737072 -0.0052956287 0.019396333 0.016543275 0.014497714 -0.006220384 -0.004222945 -0.0037808577
0.0136542125 -0.010591802 -0.005901987 0.006188421 -0.009597329 0.008533107 0.0007695457 0.0012558438
0.01673959 0.0049320552 0.02968392 0.0035969785 -0.0034626257 -0.013635547 -0.0026705645 0.0022971737
-0.012708553 0.017432364 0.00661035 0.017315382 0.011371179 0.007120157 0.0020197872 -0.0026432246
-0.013597332 -0.0073485794 -0.017483769 0.007172778 0.005696573 -0.026306566 -0.024748625 0.0038208312
-0.01038485 0.0025264348 -0.007962933 -0.007624684 -0.017816426 -0.016630562 0.013530517 -0.0007463339
-0.014055743 0.006831815 -0.036343526 -0.010765181 -0.009121111 0.012617464 -0.0023664844 -0.009927383
0.0015918198 0.012511939 0.016429113 0.016190508 0.00076059945 0.019049611 -0.005379404 0.01138976
-0.0084566325 0.0008620473 -0.020028012 0.0061630807 -0.0038739545 -0.00010069918 0.01503417 -0.00092593534
0.004804347 -0.026464395 0.011067057 -0.016693056 0.039798066 -0.00923022 -0.019342037 -0.0009327365
-0.0072975545 -0.0011777303 0.0145381605 -0.0168672 -0.017394116 -0.007969682 -0.039573427 0.00077213557
0.0072653997 -0.040639795 -0.0068528457 0.0032038637 0.035215527 -0.02313621 0.0036570192 -0.009011417
0.034430515 -0.024744222 0.011396786 -0.033235136 -0.01741217 0.0019023949 0.01927121 -0.03336795
00000000: 5a07 eebb b326 0ebc 57dd 1cbc 3ae6 743a
00000010: db71 913a d052 af3c 9863 49bc f038 a5bc
00000020: 8579 a3bc 7d97 9d3c e1ea d2ba 8289 ddbb
00000030: f61e 6e3c 08c3 5dbc f7de 5f3b 204d b3bc
00000040: f826 d93b b551 d1bb f73c 6e3b 9728 e73b
00000050: dbc1 003c c62c 0c3c 4f2e 75ba b33e 39bc
00000060: 3d88 1fbc f486 adbb 0fe5 9e3c c385 873c
00000070: d287 6d3c 5dd4 cbbb a160 8abb 44c8 77bb
00000080: ebb5 5f3c 3d89 2dbc 7565 c1bb 3dc8 ca3b
00000090: 1e3e 1dbc 72ce 0b3c 56bb 493a 209b a43a
000000a0: 7721 893c 149d a13b b12b f33c 49bb 6b3b
000000b0: 38ed 62bb a167 5fbc a304 2fbb 2e8c 163b
000000c0: 8937 50bc 51ce 8e3c a39b d83b fdd8 8d3c
000000d0: 2e4e 3a3c 3550 e93b 685e 043b f339 2dbb
000000e0: 58c7 5ebc 5acc f0bb 1f3a 8fbc 9f09 eb3b
000000f0: 51aa ba3b de80 d7bc a1bd cabc e966 7a3b
00000100: 3825 2abc 8b92 253b f676 02bc 7cd8 f9bb
00000110: c1f3 91bc d13c 88bc 1aaf 5d3c 9fa5 43ba
00000120: 0f4a 66bc 6bdd df3b f3dc 14bd 7160 30bc
00000130: b670 15bc 7bb9 4e3c 0517 1bbb 76a6 22bc
00000140: 9ca4 d03a e0fe 4c3c 5996 863c f5a1 843c
00000150: f762 473a ee0d 9c3c b645 b0bb 1e9c 3a3c
00000160: b08d 0abc 04fb 613a c911 a4bc abf3 c93b
00000170: 2ce2 7dbb 762e d3b8 e151 763c 78ba 72ba
00000180: c96d 9d3b dccb d8bc 9a52 353c e0bf 88bc
00000190: 4c03 233d 593a 17bc 3173 9ebc e382 74ba
000001a0: 5320 efbb 125e 9aba 7731 6e3c 152d 8abc
000001b0: 1b7e 8ebc 4593 02bc bf17 22bd 2469 4a3a
000001c0: 9712 ee3b ea75 26bd d68d e0bb eaf7 513b
000001d0: 283e 103d 2688 bdbc 9aaa 6f3b 9fa4 13bc
000001e0: 0307 0d3d 65b4 cabc 96b9 3a3c 9121 08bd
000001f0: f8a3 8ebc c859 f93a a8de 9d3c d5ac 08bd

ablang_branch.5.weight f4 [128]
0.9984254 0.9981353 0.97235185 1.0090417 0.99915385 1.018038 0.9707344 0.98336935
0.9698989 1.0151149 0.98756903 0.9891003 1.0142456 0.9763024 0.99142045 0.9927334
1.0033633 0.9811771 0.98738563 0.995262 0.98670167 0.9993158 1.0045508 0.97960776
0.9933383 0.96817213 1.0222563 1.0070686 1.0084435 0.9925992 0.9942804 0.9809477
1.0124322 0.9800279 1.0049031 0.9911098 0.985851 1.0006776 1.0062443 0.9985956
1.0068406 1.0173843 1.0174118 1.017149 0.9906779 0.95740384 0.9898573 0.9930411
0.9982861 1.0110365 1.0153656 0.9993073 1.004705 0.9942511 1.0065312 0.995813
0.9969718 0.9894904 1.000967 1.018054 1.0093559 0.9830886 0.9641576 0.97563004
1.0061396 1.0053983 0.98336613 0.97565615 0.9915203 0.98988855 1.004395 0.9914259
0.9893021 1.0301611 0.9994122 1.0185987 0.97575736 0.9795927 0.99009484 0.9876748
1.0313215 1.0183103 1.0019151 1.0108541 1.0222013 1.0243766 0.97962606 1.0255176
0.9813561 0.9863167 0.9552902 1.0147922 1.0129175 0.9799607 1.0071617 1.0017264
0.9862155 0.9743455 0.9952888 0.9584302 1.021967 0.9845406 1.0250069 1.0010592
0.99955523 0.987029 1.0061808 1.0022886 1.0083029 0.9965213 0.97647965 1.0110832
0.99224216 1.011012 1.003505 0.987164 1.0049927 0.9749382 1.0293165 1.0139703
1.0404224 0.98173666 1.0194683 0.96931535 0.99066085 0.9945371 1.0028096 0.9771049
00000000: cf98 7f3f cc85 7f3f 0dec 783f 4728 813f
00000010: 8cc8 7f3f 124f 823f 0d82 783f 18be 7b3f
00000020: 4b4b 783f 49ef 813f 53d1 7c3f ad35 7d3f
00000030: cdd2 813f f4ee 793f bbcd 7d3f c723 7e3f
00000040: 356e 803f 6c2e 7b3f 4ec5 7c3f 7ec9 7e3f
00000050: 7b98 7c3f 29d3 7f3f 1f95 803f 93c7 7a3f
00000060: 6b4b 7e3f 21da 773f 4bd9 823f a0e7 803f
00000070: ad14 813f fb1a 7e3f 2989 7e3f 631f 7b3f
00000080: 6197 813f 1ce3 7a3f aaa0 803f 5fb9 7d3f
00000090: bb60 7c3f 3416 803f 9dcc 803f f6a3 7f3f
000000a0: 27e0 803f a639 823f 8d3a 823f f031 823f
000000b0: 119d 7d3f 6b18 753f 4a67 7d3f f137 7e3f
000000c0: ae8f 7f3f a569 813f 80f7 813f 9ad2 7f3f
000000d0: 2c9a 803f 3d87 7e3f 04d6 803f 9aed 7e3f
000000e0: 8b39 7f3f 3e4f 7d3f b01f 803f 984f 823f
000000f0: 9332 813f b2ab 7b3f 08d3 763f e4c2 793f
00000100: 2fc9 803f e4b0 803f e2bd 7b3f 9ac4 793f
00000110: 46d4 7d3f 5669 7d3f 0490 803f 16ce 7d3f
00000120: e742 7d3f 52dc 833f 7ad9 7f3f 7161 823f
00000130: 3ccb 793f 96c6 7a3f db76 7d3f 41d8 7c3f
00000140: 5802 843f fe57 823f c13e 803f ab63 813f
00000150: 7ed7 823f c61e 833f c6c8 7a3f 2944 833f
00000160: 273a 7b3f 407f 7c3f e68d 743f b6e4 813f
00000170: 48a7 813f b4de 7a3f adea 803f 9238 803f
00000180: 9e78 7c3f b56e 793f 3fcb 7e3f ae5b 753f
00000190: d1cf 823f da0a 7c3f 6d33 833f b522 803f
000001a0: dae2 7f3f efad 7c3f 88ca 803f fe4a 803f
000001b0: 1210 813f 051c 7f3f 92fa 793f 2d6b 813f
000001c0: 9503 7e3f d768 813f da72 803f c8b6 7c3f
000001d0: 9aa3 803f 8d95 793f a5c0 833f c7c9 813f
000001e0: 902c 853f 1853 7b3f f07d 823f 0d25 783f
000001f0: f39b 7d3f fc99 7e3f 115c 803f 8c23 7a3f

ablang_branch.5.bias f4 [128]
-0.0051060356 -0.006185601 -0.012387243 0.003855264 -0.0031445378 0.02007897 -0.010445699 -0.017658604
-0.018388232 0.013368233 0.0009481695 -0.004567297 0.013235564 -0.011926169 0.00711164 -0.019574858
0.004989207 -0.005154081 0.00518373 0.0043011913 0.010130426 0.004821051 0.00048250455 -0.0095839035
-0.006726273 -0.008310466 0.016716411 0.014375854 0.009678643 -0.0020234294 -0.006087648 -0.003931902
0.011826004 -0.008965102 -0.0068914653 0.0019801678 -0.009427139 0.0018919079 0.00055104675 0.00036939915
0.013584498 0.008082603 0.031581644 0.0032020784 -0.00635635 -0.011379159 -0.0003291962 0.0015245822
-0.008031963 0.019863673 0.0040565548 0.018837694 0.013898041 0.0063564666 0.0064820256 -0.0034200447
-0.014959482 -0.0115337 -0.018067729 0.0052477797 0.006821614 -0.027819235 -0.022851266 -0.0013007286
-0.010724322 0.0010556336 -0.008613663 -0.0064928094 -0.01697985 -0.021299224 0.010238988 0.00076847256
-0.008194294 0.009727727 -0.031251274 -0.012155023 -0.008414023 0.015305845 -0.0017092493 -0.01258363
0.003999321 0.009481409 0.016659543 0.016377356 0.0019457035 0.017674113 -0.004088751 0.008574181
-0.011621175 -0.0023075566 -0.021160794 0.00629487 -0.008942632 -0.0031441806 0.011845855 -0.0037741517
0.005061712 -0.025641933 0.0112318555 -0.018359175 0.03695108 -0.0094426 -0.018142981 0.00023372029
-0.013416547 -0.0001248279 0.011387962 -0.017292466 -0.009528236 -0.005638526 -0.043194063 -0.0039354092
0.0070743887 -0.043266904 -0.010693829 3.1745312e-05 0.033837214 -0.025154008 0.0074457456 -0.008312936
0.028182514 -0.022495685 0.01326869 -0.0309633 -0.018095428 -0.0004072509 0.019165019 -0.037622534
00000000: 8850 a7bb 95b0 cabb ddf3 4abc 99a8 7c3b
00000010: 9714 4ebb a77c a43c 7024 2bbc c7a8 90bc
00000020: eba2 96bc 6f06 5b3c 948e 783a 44a9 95bb
00000030: fbd9 583c fa65 43bc c308 e93b 745b a0bc
00000040: 807c a33b 91e3 a8bb 47dc a93b 02f1 8c3b
00000050: 16fa 253c e8f9 9d3b aaf8 fc39 ce05 1dbc
00000060: 1168 dcbb 9f28 08bc dbf0 883c b488 6b3c
00000070: 2c93 1e3c 839b 04bb e57a c7bb 2fd7 80bb
00000080: dbc1 413c 5de2 12bc cdd1 e1bb b4c5 013b
00000090: 4974 1abc e5f9 f73a 1f74 103a eaab c139
000000a0: 8491 5e3c e56c 043c c15b 013d f6d9 513b
000000b0: ee48 d0bb a76f 3abc f797 acb9 7dd4 c73a
000000c0: 7f98 03bc 24b9 a23c d9ec 843b 8251 9a3c
000000d0: 9cb4 633c e849 d03b 2c67 d43b d422 60bb
000000e0: 9d18 75bc d8f7 3cbc c602 94bc 91f5 ab3b
000000f0: d987 df3b 2ae5 e3bc 9432 bbbc 367d aaba
00000100: 11b5 2fbc 305d 8a3a 5220 0dbc a2c1 d4bb
00000110: 5419 8bbc b67b aebc 6ec1 273c 5273 493a
00000120: 5c41 06bc 0b61 1f3c 5601 00bd dd25 47bc
00000130: f8da 09bc 5ec5 7a3c e408 e0ba 922b 4ebc
00000140: bc0c 833b e957 1b3c 9879 883c ce29 863c
00000150: fa06 ff3a 4dc9 903c eefa 85bb b97a 0c3c
00000160: be66 3ebc 603a 17bb 6759 adbc 3245 ce3b
00000170: 1e84 12bc 990e 4ebb 1e15 423c c257 77bb
00000180: b8dc a53b 080f d2bc d105 383c fb65 96bc
00000190: 045a 173d 23b5 1abc 97a0 94bc d012 7539
000001a0: 14d1 5bbc 3ce4 02b9 9394 3a3c eea8 8dbc
000001b0: 521c 1cbc 62c3 b8bb 42ec 30bd 9bf4 80bb
000001c0: 46d0 e73b a338 31bd 2b35 2fbc 4526 0538
000001d0: e498 0a3d c70f cebc 71fb f33b fb32 08bc
000001e0: 04df e63c df48 b8bc eb64 593c bfa6 fdbc
000001f0: dd3c 94bc 4a84 d5b9 f5ff 9c3c 161a 1abd

ablang_branch.8.weight f4 [64, 128]
0.24908358 0.043078203 -0.032575022 -0.033835698 -0.09561878 -0.2061558 0.19286048 0.14565717
-0.06760245 -0.017556455 0.07263069 -0.045275703 0.12718712 0.06475378 0.17416209 0.13371764
-4.0026138e-05 0.027718533 -0.04256124 -0.06148511 0.008485917 -0.13565785 0.21532793 0.17386185
-0.19057554 -0.03857266 -0.13436691 0.1780223 -0.033845007 0.07532026 0.10436985 -0.048220936
0.09918186 0.059049018 0.042827908 -0.09843823 0.02039737 -0.023396913 -0.092835404 -0.30147198
0.1060753 4.37102e-05 0.1829151 0.20854102 -0.02061414 -0.11631147 0.3913901 0.16994879
0.006334699 -0.0421627 -0.052805785 -0.14834341 0.18147884 -0.21444635 0.096863635 -0.05056507
0.1955099 0.0093661565 0.20802958 -0.08218147 0.065699026 0.03251709 -0.15975852 0.0014575626
-0.115425736 -0.03597628 -0.022077225 -0.13323969 0.027177457 0.037933838 0.09364858 0.20972586
-0.06288465 0.064217135 -0.09306857 -0.086047284 -0.27416918 0.10697286 0.061906293 -0.14962266
0.005161353 0.020654123 -0.019816501 0.07282409 0.093337946 0.0956885 -0.18633829 0.060778067
-0.0389166 -0.11574664 -0.12334668 -0.060119674 -0.008124362 0.02233843 0.17855419 -0.11868835
0.054312844 -0.05121112 -0.08413902 0.05831743 -0.15638204 0.08466171 -0.13937289 -0.011617518
-0.13773233 0.13555767 -0.15381613 0.16311224 0.07167871 0.018537605 -0.049430076 -0.17386435
0.21436806 -0.065976806 -0.044070244 -0.12949151 0.20212011 0.16915593 0.1553099 0.005791615
-0.13352968 -0.0736586 -0.03563728 0.15096463 0.03808357 0.043898452 0.0693201 -0.04217678
0.27097455 -0.03203521 -0.20802023 0.06912491 -0.09863071 0.099523716 -0.026077403 -0.09857759
-0.109258786 0.1349503 0.018707387 0.084235266 0.07403854 0.10294966 0.13945767 0.023461409
0.020549122 -0.044276334 -0.006144237 0.06713707 0.06410799 0.005596594 0.05604818 0.3094325
-0.11093703 -0.07945519 0.12298792 0.20426731 -0.094385505 0.11698011 -0.0046859845 0.064247236
0.20234045 0.12796086 0.0699222 -0.05355896 -0.07177676 0.03459259 0.028667198 -0.10738265
-0.2825444 0.13774562 0.038438454 0.09463629 0.15390252 -0.0508315 -0.11256495 0.2170712
-0.12008422 -0.0463546 -0.19699903 -0.07893879 0.013052986 0.0317692 -0.15238327 -0.03485687
0.18641494 -0.059475217 -0.031330146 -0.0056620417 0.15293881 -0.004576706 0.20726348 -0.006262344
-0.0005608816 0.0020248124 0.008949164 0.049518898 0.014654053 0.03774874 -0.14871413 -0.13921733
0.024729986 -0.018982226 0.2500357 0.03933728 0.12094009 -0.15733717 0.24619979 0.15054573
0.039566908 0.13771805 0.15752713 0.050573796 0.15190308 0.103362046 0.028123798 0.010025922
0.09804246 0.032076124 -0.103690505 0.24118905 -0.07243017 0.031705026 -0.08792345 -0.042364147
-0.0016220298 0.07141749 -0.16242215 -0.0024406852 0.01707849 -0.012871784 -0.118866295 -0.15389608
0.19065988 -0.088615306 0.015780233 0.018181395 -0.10980652 0.11580946 0.25120863 0.072374664
0.30782902 0.13832697 0.17667772 0.04868525 0.08720161 0.06201034 0.03595069 0.012056168
-0.010458385 0.06019603 0.14390792 0.002295869 -0.041674726 0.123606965 0.062168807 0.08132192
00000000: c40f 7f3e c572 303d 636d 05bd 4d97 0abd
00000010: c7d3 c3bd 821a 53be 387d 453e 2727 153e
00000020: 2773 8abd 8ed2 8fbc 66bf 943d 0473 39bd
00000030: 573d 023e a19d 843d 8c57 323e 47ed 083e
00000040: bde1 27b8 fa11 e33c b254 2ebd d0d7 7bbd
00000050: 8408 0b3c e4e9 0abe ed7e 5c3e d708 323e
00000060: 3c26 43be 5efe 1dbd 7b97 09be 7a4b 363e
00000070: 10a1 0abd 8241 9a3d dcbf d53d 5183 45bd
00000080: dc1f cb3d 62dd 713d 516c 2f3d fc99 c9bd
00000090: 6318 a73c e2aa bfbc 7d20 bebd 895a 9abe
000000a0: 023e d93d 7855 3738 194e 3b3e c78b 553e
000000b0: fcde a8bc b534 eebd 4864 c83e 0e07 2e3e
000000c0: 4f93 cf3b ccb2 2cbd e14a 58bd 56e7 17be
000000d0: 97d5 393e d397 5bbe 7160 c63d 521d 4fbd
000000e0: bf33 483e 8274 193c b505 553e c24e a8bd
000000f0: 368d 863d a430 053d bd97 23be af0b bf3a
00000100: 5464 ecbd dd5b 13bd 4cdb b4bc fc6f 08be
00000110: 42a3 de3c 8360 1b3d d4ca bf3d 60c2 563e
00000120: abc9 80bd 4684 833d bc9a bebd 8f39 b0bd
00000130: e75f 8cbe 9614 db3d 7491 7d3d af36 19be
00000140: 9120 a93b d632 a93c 3756 a2bc cc24 953d
00000150: f727 bf3d 55f8 c33d 77cf 3ebe 6cf2 783d
00000160: 0367 1fbd 930c edbd 2f9d fcbd 0c40 76bd
00000170: 0b1c 05bc 15ff b63c e9d6 363e e112 f3bd
00000180: 2577 5e3d c0c2 51bd 1451 acbd 42de 6e3d
00000190: 9d22 20be 1e63 ad3d c4b7 0ebe 6757 3ebc
000001a0: b409 0dbe a1cf 0a3e fa81 1dbe e506 273e
000001b0: 4acc 923d 2ddc 973c 3177 4abd 7f09 32be
000001c0: 4d83 5b3e d91e 87bd 0083 34bd 6c99 04be
000001d0: 93f8 4e3e 3637 2d3e 8f09 1f3e 97c7 bd3b
000001e0: 01bc 08be 52da 96bd 66f8 11bd 7996 1a3e
000001f0: 84fd 1b3d ddce 333d b2f7 8d3d 8fc1 2cbd
00000200: 2dbd 8a3e 5a37 03bd 4103 55be 5c91 8d3d
00000210: e6fe c9bd 17d3 cb3d 47a0 d5bc 0ce3 c9bd
00000220: 12c3 dfbd 6930 0a3e 3c40 993c 8a83 ac3d
00000230: 85a1 973d 45d7 d23d fecd 0e3e 2432 c03c
00000240: a256 a83c 1a5b 35bd 9855 c9bb 297f 893d
00000250: 0d4b 833d a263 b73b c792 653d f06d 9e3e
00000260: f432 e3bd 67b9 a2bd 17e1 fb3d 732b 513e
00000270: 304d c1bd 4593 ef3d e38c 99bb 0e94 833d
00000280: 5632 4f3e 2c08 033e 5f33 8f3d a460 5bbd
00000290: b2ff 92bd f6b0 0d3d 79d7 ea3c 6feb dbbd
000002a0: a9a9 90be 300d 0d3e a471 1d3d acd0 c13d
000002b0: 9f98 1d3e b134 50bd 7488 e6bd ea47 5e3e
000002c0: b7ee f5bd 52de 3dbd 1dba 49be a9aa a1bd
000002d0: 31dc 553c 6c20 023d 5c0a 1cbe 14c6 0ebd
000002e0: 8fe3 3e3e 499c 73bd 0a54 00bd a688 b9bb
000002f0: fe9b 1c3e 31f8 95bb e13c 543e 5934 cdbb
00000300: 2108 13ba b7b2 043b 849f 123c 54d4 4a3d
00000310: 8e17 703c 6c9e 1a3d 8448 18be fd8e 0ebe
00000320: 8a96 ca3c 9d80 9bbc ae04 803e 2120 213d
00000330: 70af f73d ff1c 21be cc1b 7c3e a928 1a3e
00000340: e910 223d f605 0d3e cb4e 213e 7826 4f3d
00000350: 7b8c 1b3e 7baf d33d e163 e63c c443 243c
00000360: 7cca c83d 4162 033d b05b d4bd 43fa 763e
00000370: 4556 94bd 21dd 013d 3611 b4bd 0786 2dbd
00000380: 4a9a d4ba 5543 923d fe51 26be e7f3 1fbb
00000390: 31e8 8b3c 2de4 52bc 2c70 f3bd ef96 1dbe
000003a0: 583c 433e f17b b5bd 8c45 813c 26f1 943c
000003b0: 3ee2 e0bd 832d ed3d 6b9e 803e 2b39 943d
000003c0: c49b 9d3e 96a5 0d3e 01eb 343e 2f6a 473d
000003d0: c296 b23d 8efe 7d3d 0841 133d 3c87 453c
000003e0: a559 2bbc 1d90 763d 995c 133e 4a76 163b
000003f0: 1eb3 2abd a625 fd3d b8a4 7e3d 1b8c a63d

ablang_branch.8.bias f4 [64]
0.023396224 -0.020100543 0.003156067 -0.0011746931 0.01489187 -0.010988751 0.013359884 -0.002495036
-0.047737796 0.016690582 -0.01731003 0.004248234 -0.0066590295 0.016063632 -0.005730973 -0.009690899
-0.031143934 -0.013156027 -0.0121298535 -0.025264798 -0.004369826 0.0049904766 -0.011190395 0.01023842
0.001679377 -0.014303271 0.028020512 0.002837273 -0.00079498714 0.0055429693 -0.039130177 0.015770802
0.010748637 0.007810869 0.013257241 -0.01437408 -0.012327346 -0.00240293 0.007355943 0.004551081
0.019937351 0.028332414 0.010898803 0.014194706 -0.0013788902 -0.027607154 -0.0086486535 0.02028327
-0.013409283 0.0014648613 0.009893341 -0.04462495 -0.030557137 -0.010713739 -0.026267968 -0.010340532
0.006013416 -0.0034321724 -0.034479305 -0.028462926 0.01017247 -0.03676258 -0.027953943 0.015602267
00000000: 70a9 bf3c e5a9 a4bc 05d6 4e3b 29f8 99ba
00000010: 08fd 733c 2a0a 34bc 6ae3 5a3c c283 23bb
00000020: b588 43bd b0ba 883c c4cd 8dbc c534 8b3b
00000030: fd33 dabb e197 833c e3ca bbbb 94c6 1ebc
00000040: 9021 ffbc 608c 57bc 4bbc 46bc 1ff8 cebc
00000050: c230 8fbb 2787 a33b eb57 37bc 0cbf 273c
00000060: 8b1e dc3a 4458 6abc 468b e53c 8bf1 393b
00000070: af66 50ba cca1 b53b f746 20bd c531 813c
00000080: 0d1b 303c 51f2 ff3b e634 593c 4381 6bbc
00000090: a3f8 49bc 7a7a 1dbb 1f0a f13b 3c21 953b
000000a0: a853 a33c 6119 e83c e590 323c ea90 683c
000000b0: e1bb b4ba 6628 e2bc 15b3 0dbc 1a29 a63c
000000c0: 9cb2 5bbc 9700 c03a ae17 223c a7c8 36bd
000000d0: f652 fabc ae88 2fbc ec2f d7bc 566b 29bc
000000e0: 310c c53b 4cee 60bb 2c3a 0dbd 152b e9bc
000000f0: 6eaa 263c 5c94 16bd abff e4bc a7a0 7f3c

ablang_branch.9.weight f4 [64]
1.0238327 0.9794835 1.0102586 0.9955719 0.9966213 0.99973744 1.0148911 0.97409606
0.9669368 0.9957911 0.97329706 1.0142051 0.971476 0.9930201 0.97970325 0.9875566
0.96264416 0.9715827 0.9630627 0.976078 0.9535935 1.0138249 0.9891357 0.993848
0.983086 0.9682868 1.0008918 0.99606806 0.9785167 1.0014988 0.9971515 1.0022829
0.9982467 1.0042634 1.0060859 0.96049595 0.96770775 0.9764233 1.0108317 0.9881404
0.9992122 0.9907346 1.0153499 1.014101 1.0140018 0.988076 0.9921509 1.0245056
0.9752505 0.9929548 0.9910808 1.0078404 0.9918722 0.9586731 0.96022636 0.9798699
0.99000597 0.97592944 0.9930281 0.97828764 0.9911735 0.9901595 0.9864078 1.0157977
00000000: f30c 833f 6ebf 7a3f 2750 813f cddd 7e3f
00000010: 9322 7f3f cbee 7f3f f4e7 813f 5c5e 793f
00000020: 2c89 773f 2aec 7e3f ff29 793f 79d1 813f
00000030: a7b2 783f 9136 7e3f d5cd 7a3f 82d0 7c3f
00000040: d96f 763f a5b9 783f 478b 763f 3fe0 793f
00000050: b41e 743f 04c5 813f ff37 7d3f d36c 7e3f
00000060: 86ab 7b3f a5e1 773f 391d 803f 51fe 7e3f
00000070: 1280 7a3f 1d31 803f 5245 7f3f ce4a 803f
00000080: 198d 7f3f b48b 803f 6cc7 803f 10e3 753f
00000090: b2bb 773f e1f6 793f ef62 813f c5f6 7c3f
000000a0: 5fcc 7f3f c8a0 7d3f fcf6 813f 10ce 813f
000000b0: d0ca 813f 8cf2 7c3f 9afd 7d3f 0023 833f
000000c0: 04aa 793f 4932 7e3f 79b7 7d3f ea00 813f
000000d0: 56eb 7d3f 9a6b 753f 65d1 753f c1d8 7a3f
000000e0: 0871 7d3f 83d6 793f 1737 7e3f 0f71 7a3f
000000f0: 8cbd 7d3f 187b 7d3f 3985 7c3f a905 823f
