data/model_weights/cv_fold_2_model3_0.pt (torch, 707477 bytes, 29 tensors)

ablang_branch.0.weight f4 [256, 480]
0	0xbd50a118	-0.05093488
1	0xbad39e34	-0.0016145171
2	0xbce0ea4d	-0.027455473
3	0xbc67a1b4	-0.014137674
4	0x3cdd4c99	0.027014064
5	0xbdf57952	-0.11986031
6	0xbdb24a7e	-0.087056145
7	0x3cb66f25	0.022269795
8	0xbc2230ce	-0.009899331
9	0x3e19c7c3	0.1501761
10	0x3d4fdd41	0.050748114
11	0xbe089506	-0.13338098
12	0x3c937871	0.018001767
13	0xbbd6a6b7	-0.0065506357
14	0xbdaff0c0	-0.08590841
15	0xbe134dbe	-0.14385125
16	0xbc4ff970	-0.012693748
17	0x3e6f46db	0.23366873
18	0xbd8ca8e6	-0.06868152
19	0xbcb8e862	-0.022571746
20	0x3a95c213	0.0011425636
21	0xbd0c272b	-0.03421704
22	0x3d0b3a50	0.033991158
23	0xbc5f8b95	-0.013644119
24	0xbd93b73e	-0.07212685
25	0x3d8c40f9	0.0684833
26	0xbd9a94ab	-0.075478874
27	0xbd874ac0	-0.06606054
28	0xbd5cc7b1	-0.053901378
29	0xbd18dd1f	-0.037320253
30	0x3deedaa9	0.116628
31	0x3e161981	0.14658166
32	0x3e2d26bb	0.16909306
33	0x3db7835d	0.089606024
34	0xbdc1e912	-0.09468283
35	0x3d46fa6a	0.048578657
36	0xbd2dea7d	-0.042459954
37	0x3d83cb1b	0.06435224
38	0x3d8ab505	0.06772808
39	0xbd9d5da6	-0.07683878
40	0x3df9aaf6	0.12190811
41	0x3cf72b0b	0.030171892
42	0xbd833509	-0.064066
43	0xbd16e35a	-0.036837913
44	0x3d63f279	0.05565116
45	0xbcb0a4c9	-0.02156295
46	0x3ce995a1	0.028513731
47	0x3ceca4f5	0.028887251
48	0x3d85ed33	0.06539383
49	0x3a0e360a	0.00054249226
50	0x3b64ef5d	0.003493271
51	0xbdbb7fd1	-0.091552384
52	0xbdcf835c	-0.10132477
53	0x3d763f06	0.060118698
54	0x3db7716c	0.089571804
55	0x3d91f14c	0.07126102
56	0xbd2187ba	-0.03943608
57	0x3cd55b43	0.026044494
58	0x3d0c1f3e	0.034209482
59	0x3da6cacf	0.081441514
60	0xbd88eb82	-0.066855446
61	0xbd3ec79a	-0.046577074
62	0x3e2479b6	0.16062054
63	0x3de39862	0.11113049
64	0x3d4c1407	0.049823787
65	0xbdc9f93b	-0.0986199
66	0xbc9a3bd6	-0.01882736
67	0x3dc09899	0.09404106
68	0x3bd79dbd	0.006580083
69	0x3de9fbb2	0.1142496
70	0x3c5e3f94	0.013564963
71	0x3cea1654	0.0285751
72	0x3c654ef0	0.013995871
73	0x3d3be4ce	0.045872502
74	0x3e0bb088	0.1364156
75	0xbd65af1f	-0.05607521
76	0xbcf6b836	-0.030117135
77	0xbdafbcb3	-0.085809134
78	0xbbf392e4	-0.007433282
79	0x3be72bd6	0.007054786
80	0x3df3db05	0.11907009
81	0xbd32a412	-0.0436135
82	0x3c8be46f	0.017076699
83	0x3cdb37c8	0.026759997
84	0xbe2a7154	-0.16644794
85	0x3d4eb73e	0.050467722
86	0xbcff09e8	-0.031132653
87	0x3d584f62	0.05281008
88	0x3d78f476	0.06078001
89	0xbc432631	-0.011910961
90	0xbd20b8b5	-0.03923865
91	0xbd04f643	-0.032461416
92	0x3c01149b	0.007878448
93	0x3cd73d57	0.026274366
94	0xbbedf68e	-0.0072620576
95	0x3dac384a	0.08409174
96	0xbbc13b0e	-0.0058969324
97	0x3be62966	0.007023978
98	0xbde87cb9	-0.11351914
99	0xbc8a0814	-0.016849555
100	0x3d4664c3	0.048435938
101	0xbdf2b348	-0.118506014
102	0x3d554837	0.052070823
103	0x3b1f81f6	0.0024338937
104	0xbc56bffe	-0.013107298
105	0x3d95ad9e	0.073085055
106	0x3da58d76	0.08083622
107	0x3ca953e1	0.02066988
108	0x3d41be81	0.04730082
109	0xbdabfed5	-0.08398215
110	0xbcd2b90f	-0.025723008
111	0x3d87c876	0.06630032
112	0x3e054e35	0.13018115
113	0x3e2b6d62	0.16740945
114	0x3ddf7c39	0.109123655
115	0xbd061467	-0.0327343
116	0xbdd94554	-0.106089264
117	0xb9e46c9b	-0.00043568466
118	0x3db37673	0.08762827
119	0xbcc77941	-0.02434981
120	0x3d65cd6a	0.0561041
121	0x3c2ef009	0.010677346
122	0x3d6f6cf3	0.05845351
123	0xbe02f748	-0.12789643
124	0x3aa9a08c	0.0012941523
125	0x3d65baa4	0.056086197
126	0x3c9563cd	0.018236065
127	0xbe0e6a40	-0.13907719
128	0x3d0a777c	0.033805355
129	0x3d12dd86	0.035855792
130	0x3d0ba652	0.034094162
131	0xbd791b33	-0.060816955
132	0x3c334b64	0.0109432675
133	0xbcc74b82	-0.024327997
134	0x3cfcd625	0.03086383
135	0x3b6becce	0.00359993
136	0x3cfdf438	0.031000242
137	0xbdced85a	-0.100998595
138	0xbe08bcb5	-0.13353236
139	0x3d80b997	0.062853985
140	0x3dbcb0f3	0.09213438
141	0xbd17a8ce	-0.03702622
142	0x3da008dd	0.078141905
143	0xbe616faf	-0.2201526
144	0xbe107105	-0.14105614
145	0x3dae2257	0.085026436
146	0xbca22088	-0.019790903
147	0x3ca2b6f1	0.019862624
148	0x3c20d2fa	0.009815926
149	0xbd18b8bb	-0.037285548
150	0x3d3e56eb	0.04646961
151	0xbd6762f9	-0.056490872
152	0x3d348dbd	0.044080485
153	0xbd42cb6c	-0.04755728
154	0xbdc4c8a2	-0.0960858
155	0xbc03d1df	-0.008045643
156	0x3d020067	0.031738665
157	0xbc2575aa	-0.010098854
158	0xbd6163bd	-0.05502676
159	0x3d8b7c26	0.06810789
160	0xbd5c0ec4	-0.05372502
161	0xbda1fde1	-0.07909752
162	0x3d51140c	0.05104451
163	0xbc809ca5	-0.015699694
164	0x3cc8573b	0.024455657
165	0xbb37f46a	-0.0028069266
166	0x3dffa0ce	0.12481843
167	0x3dd7bc1b	0.10533925
168	0xbccb932a	-0.024850447
169	0x3cfcd623	0.030863827
170	0xbd9bdda7	-0.07610636
171	0xbacbd628	-0.0015551494
172	0x3c808843	0.015689975
173	0x3cffe91f	0.03123909
174	0xbd3ec289	-0.046572242
175	0x3cfd05bc	0.030886523
176	0x3d2aeb59	0.04172835
177	0x3d3622e5	0.04446687
178	0xbd65b0f1	-0.056076948
179	0x3cf91a5d	0.030408079
180	0xbdb29880	-0.08720493
181	0xbd0c3eb2	-0.03423948
182	0xbda28c17	-0.07936876
183	0x3c48f583	0.012265566
184	0x3e089396	0.1333755
185	0x3d96099c	0.073260516
186	0xbc9f1466	-0.019418906
187	0xbcdf4476	-0.027254324
188	0x3d57c5cb	0.052678864
189	0xbce21509	-0.027597921
190	0xbb90f466	-0.004423666
191	0xbcaf24c1	-0.02137983
192	0xbd9df74f	-0.07713186
193	0xbd3e8e4c	-0.046522424
194	0xbc8aabb5	-0.01692758
195	0x3e09002a	0.13378969
196	0x3e407705	0.18795402
197	0x3db6c7b7	0.08924811
198	0xbcd1cc0f	-0.025609998
199	0x3c8829c1	0.016621472
200	0xbcd47b60	-0.025937736
201	0x3ca0c5ec	0.019625627
202	0xbc98fc14	-0.018674888
203	0x3d758b1b	0.059947114
204	0x3d69f124	0.057114735
205	0xbb102696	-0.0021995655
206	0xbce1e1cf	-0.027573494
207	0x3dd523de	0.10407232
208	0x3d838749	0.06422288
209	0x3d0bf798	0.03417167
210	0xbc0c5cab	-0.008567016
211	0xbd8b3a61	-0.06798244
212	0xbd817f6e	-0.063231334
213	0xbdacb8e3	-0.08433702
214	0x3c98922e	0.018624391
215	0xbdc3f209	-0.09567649
216	0x3c4ca86c	0.012491327
217	0x3c8571c0	0.016289592
218	0x3d3988e7	0.045296576
219	0x3d0acb59	0.033885334
220	0x3d0d4ef3	0.03449912
221	0x3c76c856	0.015062412
222	0x3c94131a	0.018075515
223	0xbd280c1e	-0.04102718
224	0x3d2f9cfc	0.04287432
225	0xbd155d90	-0.03646618
226	0x3c613d53	0.013747531
227	0xbe0a6a47	-0.13517104
228	0x3c4466a8	0.011987366
229	0xbc754e5f	-0.014972298
230	0x3d405457	0.046955433
231	0xbdf1cc80	-0.118065834
232	0x3dab87c3	0.08375504
233	0xbcf5681d	-0.029956872
234	0xbdb518b1	-0.088426
235	0x3c8f1591	0.017466338
236	0xbd6ee243	-0.05832125
237	0xbdf0a4b8	-0.117501676
238	0x3d97a54a	0.07404573
239	0x3e034508	0.12819302
240	0x3d8995d4	0.067180306
241	0xbdca9aac	-0.098927826
242	0xbd3bc117	-0.04583844
243	0xbd5a7446	-0.053333543
244	0xbd0d3eb1	-0.034483615
245	0xbcfcc742	-0.030856732
246	0xbca44092	-0.02005032
247	0x3d766df0	0.06016344
248	0x3bf31ad4	0.0074189696
249	0x3cea59df	0.028607307
250	0x3d0e161b	0.03468905
251	0xbd1b168e	-0.037863307
252	0xbc9dd008	-0.019264236
253	0xbd14818d	-0.03625636
254	0x3c95eff7	0.0183029
255	0xbe351cd0	-0.17686772

ablang_branch.0.bias f4 [256]
0	0x3bca76e1	0.0061787223
1	0x3c070185	0.008240108
2	0x3b7e44a6	0.0038798242
3	0xbbac1f41	-0.005252749
4	0x3c077684	0.008268002
5	0x3c93e94c	0.01805558
6	0x3b80ef69	0.00393479
7	0x3b9f1867	0.004855204
8	0x390fd699	0.00013717487
9	0x3bc3789a	0.0059653046
10	0x3ca62b58	0.02028434
11	0x3c14071f	0.009034901
12	0x3ab5bf57	0.0013866228
13	0xb9ade5c6	-0.00033168326
14	0x3b7a7f54	0.0038222866
15	0x3c2d5f6b	0.010581831
16	0x3bddf78a	0.0067738937
17	0x3bcfcb04	0.00634134
18	0x3c4513f8	0.012028687
19	0x3c3a404e	0.0113678705
20	0x3c276af3	0.01021837
21	0x3b7a942e	0.0038235295
22	0x3be14e61	0.0068757986
23	0x3ce65d5b	0.028120687
24	0xbb51f2b9	-0.0032035543
25	0x3c5430ea	0.012951115
26	0x39deab4a	0.0004247076
27	0x3bb2e287	0.005459133
28	0x3c12a02c	0.008949321
29	0x3c9ea4af	0.019365637
30	0x3bfdc1f7	0.0077440697
31	0x3c5fc417	0.013657591
32	0xbadcc954	-0.0016844668
33	0x3c4534c4	0.012036506
34	0x3c5f180d	0.013616574
35	0x3cd5eb66	0.026113223
36	0x3a8d5b82	0.0010784718
37	0x3bf1250e	0.0073591536
38	0x3c1f2ba7	0.009714997
39	0x3b7b8c94	0.0038383352
40	0x3c960981	0.018315079
41	0x3af55764	0.0018718061
42	0xb9b89a3e	-0.00035210134
43	0x3bfe16e9	0.007754196
44	0x3c04fc5f	0.008116811
45	0xba656709	-0.000875101
46	0x3c9c0039	0.019043075
47	0x3c2f095c	0.010683384
48	0x3c2ae745	0.0104311155
49	0x3be62411	0.0070233424
50	0x3cb591b9	0.022164213
51	0x3be2fd04	0.0069271345
52	0x3c8a6edd	0.016898567
53	0x385fd1e7	5.336283e-05
54	0x3be97f40	0.007125765
55	0x3afa469c	0.001909453
56	0x3b4d24ae	0.003130238
57	0x3c1c00de	0.009521691
58	0x3b8d8a01	0.00431943
59	0xba1ecc18	-0.0006057634
60	0x3c98bb3b	0.018643966
61	0x3b28c9cd	0.0025755048
62	0x3c59f747	0.013303584
63	0xb92301e3	-0.00015545594
64	0x3bf51be0	0.0074801296
65	0xbb5b3c66	-0.0033452748
66	0x3bb01726	0.0053738533
67	0x3bc135e6	0.005896318
68	0xbaa69610	-0.0012709517
69	0x39c6d2d2	0.00037922576
70	0x3ae6b405	0.0017601257
71	0xbaae5e21	-0.0013303199
72	0x3be76cb4	0.007062519
73	0xbb31620c	-0.0027066497
74	0x3b8a5177	0.004221137
75	0x3b8d04da	0.004303557
76	0x3acb97c0	0.0015532896
77	0x3cb59eea	0.022170503
78	0x3bd90489	0.006622855
79	0x3c69689a	0.01424613
80	0x3a816e42	0.0009874778
81	0x3c9f54c4	0.0194496
82	0x3c0d9d37	0.00864344
83	0x3be7356f	0.0070559303
84	0x3ba9d27c	0.0051825624
85	0xb9a4a181	-0.00031400847
86	0x3c8d5068	0.017250255
87	0x3c49ff3f	0.012328922
88	0xbb722217	-0.0036946589
89	0x3bf9c5ee	0.007622472
90	0x3b23a28a	0.0024968707
91	0x3b36eef2	0.0027913419
92	0x3c0437ec	0.008069973
93	0x3ba22681	0.0049484377
94	0x3b4a03ee	0.0030825096
95	0x3c55573f	0.013021289
96	0x3c860b0b	0.016362688
97	0x3b86b90c	0.004111415
98	0x3c2495c4	0.0100454725
99	0xbb175a28	-0.0023094509
100	0x3c52ab87	0.012858278
101	0x3bd47dde	0.006484731
102	0xbb11cd98	-0.0022247788
103	0x3b317339	0.0027076735
104	0x3c39e105	0.011345153
105	0x3b86bdaf	0.0041119675
106	0x3c03ba7b	0.008040066
107	0xba31afa8	-0.0006778189
108	0xba207d5d	-0.0006122196
109	0x3c5cfb6c	0.013487678
110	0x3c8d66fe	0.017261025
111	0x3b7b7be2	0.00383734
112	0x3c90123a	0.017586816
113	0x3bd887c1	0.00660798
114	0x3b95d83e	0.004572897
115	0x3b2c65f4	0.0026305886
116	0x3c532bdf	0.012888878
117	0xb9889220	-0.00026048813
118	0x3b83baef	0.004020087
119	0x3c407bcc	0.0117482655
120	0x3c89005e	0.016723808
121	0x3c00c4e8	0.007859446
122	0x3c5d566a	0.013509372
123	0x3c73de3e	0.01488453
124	0x3ca669c9	0.020314114
125	0x3c2a7711	0.010404364
126	0x3c6ba335	0.014382173
127	0x3ac1e93c	0.0014794241
128	0x3a3df3cc	0.00072461064
129	0x3ca800a0	0.02050811
130	0x3b969072	0.004594856
131	0x3a5fc503	0.0008536132
132	0x3c938fe2	0.018012945
133	0x3c92963a	0.0178939
134	0x3b1e4f65	0.002415621
135	0xbac71210	-0.0015187878
136	0x3b5c9555	0.0033658345
137	0x3c4deaba	0.01256817
138	0x3a838aa7	0.0010035828
139	0x3a8e415f	0.0010853222
140	0x3b892862	0.004185722
141	0x3c7ef2c7	0.015560812
142	0x3b496a5f	0.0030733568
143	0x3c5fd1b4	0.013660837
144	0xb7313f18	-1.0564712e-05
145	0x3c3832ad	0.011242551
146	0x3c060fca	0.008182475
147	0x3b243407	0.0025055425
148	0x3c7151a0	0.014728934
149	0xbbe701ba	-0.0070497664
150	0x3aebd5dd	0.0017992813
151	0x3b2bf2c1	0.0026237222
152	0x3c45212f	0.012031837
153	0x3c209869	0.009801962
154	0x39c55262	0.00037636148
155	0xb92731ac	-0.00015944865
156	0x3beecb0f	0.00728739
157	0x3c0b97fc	0.008520123
158	0x3c0982ce	0.008393003
159	0x3ae0e031	0.0017156658
160	0x3c8c8a5c	0.017155819
161	0x3c405eaa	0.01174132
162	0x3b4bab26	0.0031077354
163	0x3c08c547	0.008347816
164	0x3b9f3932	0.004859113
165	0x3c52dc2b	0.012869875
166	0x3ad587fb	0.0016291136
167	0x3a82e7e1	0.0009987318
168	0x3c8eca1a	0.017430354
169	0x3b3c2109	0.0028706214
170	0x3a899597	0.0010496852
171	0x3c4addb1	0.012381957
172	0x3b574556	0.0032847724
173	0xba301ad4	-0.0006717865
174	0x3b0f7c5b	0.002189419
175	0x3abf6b47	0.0014604115
176	0xbb3844f6	-0.0028117276
177	0xbadbc123	-0.0016765933
178	0x3c482eea	0.012218216
179	0x3b8bff18	0.004272353
180	0x3b1bda8e	0.0023781392
181	0x3b0d9b8c	0.0021607606
182	0x3bed1c14	0.007236013
183	0x3be62e70	0.0070245788
184	0x3b8f624c	0.0043757316
185	0x3c387a79	0.0112596685
186	0x3b66611a	0.0035153092
187	0xb893335a	-7.019071e-05
188	0x3c6c5e51	0.014426784
189	0x3bcb6182	0.006206692
190	0x3c1cb09b	0.00956359
191	0x3bc48563	0.0059973462
192	0x3c41f888	0.01183904
193	0x3b4dd8f7	0.0031409839
194	0x3ba3778a	0.0049886154
195	0x3bada448	0.005299125
196	0x3b3af22a	0.0028525689
197	0x3b9f777e	0.0048665395
198	0x3c5558f4	0.013021696
199	0x3c42b32b	0.011883537
200	0x3c9791f1	0.018502207
201	0x3c1d4815	0.009599705
202	0x3ba97466	0.0051713465
203	0x3ab2a771	0.0013630224
204	0xbb42ddbd	-0.0029734217
205	0x3b2ab20d	0.0026046068
206	0xbab60b67	-0.0013888896
207	0x3b9d9a01	0.0048096185
208	0x3c6add51	0.0143349925
209	0x3bb40921	0.0054942523
210	0x3cc3302f	0.023826687
211	0x3c33b98f	0.010969534
212	0x39b0cb18	0.00033720653
213	0x3c192934	0.0093482025
214	0x3bb87efe	0.005630373
215	0x3bcb869d	0.0062111155
216	0x3b822743	0.0039719655
217	0x3b435d72	0.0029810336
218	0x3bcc7075	0.006238992
219	0x3bd417c0	0.006472558
220	0x3ccf358f	0.025294093
221	0x3c79e85e	0.015253155
222	0x3be3bca6	0.006949979
223	0x3b92d5f6	0.0044810725
224	0x3c19416d	0.009353978
225	0x3b8ecd4b	0.004357969
226	0xbba94f28	-0.005166907
227	0x3bd30148	0.0064393617
228	0x3c69d721	0.014272482
229	0x3c702884	0.014658097
230	0xbb6ead83	-0.003641934
231	0x3b701452	0.0036633206
232	0x3beb45cf	0.0071799527
233	0x3b85d3f5	0.004084105
234	0x3bef0d65	0.007295298
235	0xbbc7808c	-0.006088322
236	0x3b535345	0.0032245677
237	0x3c5ff9f9	0.013670438
238	0x3b01acbe	0.00197868
239	0x3bfa37ee	0.007636062
240	0x3b119367	0.0022213103
241	0x3c2a68d3	0.010400969
242	0x3bd3d5c1	0.0064646904
243	0xbbbf24f0	-0.0058332607
244	0x3bc698ec	0.00606071
245	0x3bd7a0fe	0.006580471
246	0x3c80d041	0.015724303
247	0x3be429c3	0.006962986
248	0x3c214067	0.009842015
249	0x3bdc17b8	0.0067166947
250	0x3c3962f5	0.011315097
251	0x3a8b26a7	0.0010616378
252	0x3c139e34	0.0090098865
253	0x3c81aced	0.015829528
254	0x3c5e87bf	0.013582169
255	0x3c6b798e	0.014372243

ablang_branch.1.weight f4 [256]
0	0x3f75f5eb	0.96078366
1	0x3f7edb0b	0.99552983
2	0x3f80ae1f	1.0053138
3	0x3f848cc8	1.0355463
4	0x3f7d3ad6	0.989179
5	0x3f84043f	1.0313796
6	0x3f8636b4	1.0485444
7	0x3f78e490	0.9722376
8	0x3f78047e	0.96881855
9	0x3f73140e	0.94952476
10	0x3f846d90	1.0345936
11	0x3f7dea7e	0.9918593
12	0x3f7d0977	0.9884257
13	0x3f7a6cd2	0.97822297
14	0x3f6ef4f7	0.93342537
15	0x3f7c9928	0.986712
16	0x3f851390	1.0396595
17	0x3f806d8f	1.0033435
18	0x3f7798b2	0.9671737
19	0x3f80ea38	1.0071478
20	0x3f830d25	1.0238386
21	0x3f75daff	0.96037287
22	0x3f7b55d5	0.98177844
23	0x3f7e2356	0.9927267
24	0x3f7c9e15	0.98678714
25	0x3f811aef	1.0086344
26	0x3f781e34	0.96921086
27	0x3f7bb93b	0.98329514
28	0x3f7961c2	0.9741479
29	0x3f6fdb00	0.9369354
30	0x3f7e2dc3	0.99288577
31	0x3f843353	1.0328163
32	0x3f7886d0	0.9708071
33	0x3f823619	1.0172759
34	0x3f8594e8	1.0436068
35	0x3f816f1d	1.0112034
36	0x3f7e9a65	0.9945434
37	0x3f819b14	1.0125451
38	0x3f86ad0f	1.0521563
39	0x3f8096a0	1.0045967
40	0x3f89a846	1.0754478
41	0x3f7c29df	0.9850139
42	0x3f861f84	1.0478368
43	0x3f84a171	1.0361768
44	0x3f7f91dd	0.99831945
45	0x3f755db9	0.95846134
46	0x3f88599e	1.0652349
47	0x3f84ec26	1.0384567
48	0x3f786aff	0.97038263
49	0x3f80f694	1.007525
50	0x3f88b682	1.0680697
51	0x3f85893a	1.0432503
52	0x3f7c699a	0.98598635
53	0x3f7a5e8b	0.9780051
54	0x3f808f30	1.0043697
55	0x3f79ef5f	0.97630876
56	0x3f833013	1.0249046
57	0x3f7bfd22	0.98433125
58	0x3f7deb73	0.9918739
59	0x3f7eff94	0.9960873
60	0x3f865f13	1.0497764
61	0x3f82a8f5	1.0207812
62	0x3f7ff627	0.99984974
63	0x3f7e2b32	0.9928466
64	0x3f7a9828	0.9788842
65	0x3f6f9102	0.9358064
66	0x3f76582e	0.962283
67	0x3f74a277	0.955604
68	0x3f8662f5	1.0498949
69	0x3f834dc8	1.0258112
70	0x3f822fda	1.0170853
71	0x3f8e4294	1.1114068
72	0x3f794e1a	0.973848
73	0x3f771f81	0.96532446
74	0x3f7b59c0	0.9818382
75	0x3f810101	1.0078431
76	0x3f7c5f58	0.98582983
77	0x3f854c0e	1.0413835
78	0x3f8557e6	1.041745
79	0x3f8473dd	1.0347859
80	0x3f825831	1.0183164
81	0x3f814afc	1.0101008
82	0x3f839599	1.0280029
83	0x3f80f94e	1.0076082
84	0x3f7d6736	0.9898561
85	0x3f78d97d	0.9720686
86	0x3f7be227	0.98391956
87	0x3f815691	1.0104543
88	0x3f77355b	0.9656579
89	0x3f84b7c5	1.0368582
90	0x3f7ed66e	0.99545944
91	0x3f76df15	0.96434146
92	0x3f78b0e8	0.9714494
93	0x3f81a521	1.0128518
94	0x3f7ccf40	0.9875374
95	0x3f844c40	1.033577
96	0x3f7dc273	0.9912483
97	0x3f81b407	1.0133065
98	0x3f83b6f3	1.0290207
99	0x3f80530c	1.0025344
100	0x3f7b1f3c	0.98094535
101	0x3f76c5ed	0.9639576
102	0x3f7c7201	0.98611456
103	0x3f838a52	1.0276587
104	0x3f7d93e7	0.99053806
105	0x3f7b50d0	0.98170185
106	0x3f80e867	1.0070924
107	0x3f7dc98b	0.99135655
108	0x3f8d0827	1.1018113
109	0x3f73e571	0.95271975
110	0x3f88b890	1.0681324
111	0x3f6b0a66	0.9181274
112	0x3f87056b	1.0548528
113	0x3f75ffc8	0.96093416
114	0x3f72de45	0.94870406
115	0x3f779a25	0.9671958
116	0x3f829e83	1.0204624
117	0x3f76cee8	0.96409464
118	0x3f847451	1.0347997
119	0x3f720c41	0.9454995
120	0x3f7ad9e3	0.9798872
121	0x3f7736b9	0.96567875
122	0x3f7e29cd	0.9928253
123	0x3f7e8d6c	0.9943454
124	0x3f86729c	1.0503726
125	0x3f7a4b02	0.977707
126	0x3f859fba	1.043937
127	0x3f75a38a	0.95952666
128	0x3f81102f	1.0083064
129	0x3f7ff61b	0.999849
130	0x3f76b51c	0.963701
131	0x3f7cbf64	0.9872954
132	0x3f84380a	1.0329602
133	0x3f8cafee	1.099119
134	0x3f780c35	0.96893626
135	0x3f82e413	1.0225853
136	0x3f78ec85	0.972359
137	0x3f743d05	0.9540561
138	0x3f865207	1.0493783
139	0x3f820a67	1.0159425
140	0x3f7cade3	0.9870283
141	0x3f7b2949	0.9810987
142	0x3f7910ce	0.97291267
143	0x3f7fbfee	0.99902236
144	0x3f80f4d3	1.0074714
145	0x3f84911e	1.0356786
146	0x3f81c923	1.0139507
147	0x3f816326	1.0108383
148	0x3f827fe6	1.0195282
149	0x3f75d67a	0.9603039
150	0x3f7c5a9a	0.98575747
151	0x3f808073	1.00392
152	0x3f7d6a03	0.98989886
153	0x3f7f4e0a	0.99728453
154	0x3f753721	0.95787245
155	0x3f7f4d46	0.99727285
156	0x3f73b581	0.9519883
157	0x3f768b9a	0.96306765
158	0x3f819e4e	1.0126436
159	0x3f7f9d8d	0.9984978
160	0x3f858773	1.0431961
161	0x3f7c5fd6	0.98583734
162	0x3f778cd8	0.96699286
163	0x3f7af1cd	0.9802521
164	0x3f77faaa	0.9686686
165	0x3f7e60ac	0.9936626
166	0x3f763ad2	0.961835
167	0x3f7e5ba1	0.99358565
168	0x3f815731	1.0104734
169	0x3f7cfa50	0.98819447
170	0x3f78f37d	0.97246534
171	0x3f7e330f	0.9929666
172	0x3f7bfcb4	0.9843247
173	0x3f80aa29	1.0051929
174	0x3f7cea95	0.98795444
175	0x3f7f4847	0.9971966
176	0x3f6ec279	0.9326549
177	0x3f83492d	1.0256706
178	0x3f78aac0	0.97135544
179	0x3f7943d3	0.97369117
180	0x3f7a7166	0.9782928
181	0x3f7ce534	0.98787236
182	0x3f8139ee	1.0095804
183	0x3f7c420d	0.98538285
184	0x3f99ba47	1.2009972
185	0x3f773bc8	0.96575594
186	0x3f759023	0.9592306
187	0x3f713241	0.94217306
188	0x3f79fc48	0.97650576
189	0x3f79e220	0.97610664
190	0x3f827ed4	1.0194955
191	0x3f7fedbe	0.9997214
192	0x3f808c40	1.0042801
193	0x3f78f9b9	0.97256047
194	0x3f81425d	1.0098377
195	0x3f80cb1f	1.0061988
196	0x3f7f4728	0.9971795
197	0x3f82a0ab	1.0205282
198	0x3f792dff	0.9733581
199	0x3f80964d	1.0045868
200	0x3f7257be	0.94665134
201	0x3f87b6ec	1.0602698
202	0x3f864ba4	1.0491834
203	0x3f80a734	1.0051026
204	0x3f8048c1	1.0022203
205	0x3f80f63c	1.0075145
206	0x3f917514	1.1363854
207	0x3f77dd05	0.96821624
208	0x3f8526d4	1.0402474
209	0x3f85b576	1.0446002
210	0x3f84ca25	1.037419
211	0x3f750d8c	0.95723796
212	0x3f83d3e7	1.0299042
213	0x3f81d3f3	1.0142807
214	0x3f82ca6f	1.0218028
215	0x3f6ee53a	0.9331852
216	0x3f7d47a8	0.98937464
217	0x3f804264	1.0020261
218	0x3f7a1397	0.9768614
219	0x3f862224	1.0479169
220	0x3f84d118	1.037631
221	0x3f754d5a	0.95821154
222	0x3f7e572a	0.9935175
223	0x3f81f467	1.0152711
224	0x3f812a1f	1.0090979
225	0x3f79e2d3	0.9761173
226	0x3f726dba	0.9469868
227	0x3f80dd8c	1.0067611
228	0x3f80a3a0	1.0049934
229	0x3f8b807f	1.0898589
230	0x3f8148e0	1.0100365
231	0x3f820f30	1.0160885
232	0x3f7e2e68	0.9928956
233	0x3f7bdf2c	0.9838741
234	0x3f869950	1.0515537
235	0x3f7e13d5	0.9924901
236	0x3f76d300	0.9641571
237	0x3f82b202	1.0210574
238	0x3f81f20c	1.0151992
239	0x3f7a1c4b	0.9769942
240	0x3f928061	1.1445428
241	0x3f741d57	0.9535727
242	0x3f6eed3b	0.93330735
243	0x3f79b435	0.975406
244	0x3f72f00e	0.94897544
245	0x3f81bd76	1.0135944
246	0x3f76e0c4	0.96436715
247	0x3f820fb5	1.0161043
248	0x3f832685	1.024613
249	0x3f8505c6	1.0392387
250	0x3f81dfae	1.0146387
251	0x3f7ffc37	0.99994224
252	0x3f76d54c	0.96419215
253	0x3f7cdc2b	0.9877345
254	0x3f7c8284	0.9863665
255	0x3f898761	1.0744439

ablang_branch.1.bias f4 [256]
0	0xbc05f89c	-0.008176949
1	0xbb295ffd	-0.0025844567
2	0xbd205d12	-0.03915126
3	0xbb6db63f	-0.0036271957
4	0xbc9acbc3	-0.01889599
5	0xbbec4011	-0.0072097857
6	0xbcd25f68	-0.025680259
7	0xbcc99ebc	-0.024611823
8	0xbca5eb8e	-0.020253923
9	0xbca3de00	-0.020003319
10	0x3c1c8cdb	0.009555067
11	0xbc53c05c	-0.01292428
12	0xbd383981	-0.044976715
13	0xbc9cb47a	-0.019129027
14	0xbd1eaa64	-0.038736716
15	0xbb597634	-0.0033182027
16	0x3b771169	0.0037699586
17	0xbb50549d	-0.0031788715
18	0xbb2847ec	-0.0025677634
19	0xbd8af234	-0.06784478
20	0xbbdd9c10	-0.006762989
21	0xbcb131b8	-0.021630153
22	0xbbd99fb2	-0.0066413516
23	0xbbb16dd4	-0.005414704
24	0xbc5e0b6b	-0.013552527
25	0x3b861941	0.004092366
26	0xbc92573f	-0.017863868
27	0xbc6abfe2	-0.014327975
28	0xba09bf0a	-0.00052546023
29	0xbcb21834	-0.021740057
30	0xbcbd0315	-0.023072759
31	0x3bc647fc	0.0060510617
32	0xbc98bbfa	-0.018644322
33	0x3a368308	0.0006962274
34	0xbcc07174	-0.023491599
35	0x3bc8f374	0.0061325375
36	0xbbfd308c	-0.0077267345
37	0x3b3b0c6c	0.002854134
38	0x3b6fa056	0.0036564074
39	0xbb4f7746	-0.0031656786
40	0x3b02ab11	0.001993839
41	0xbbbc582c	-0.0057478156
42	0xbc104df4	-0.008807648
43	0xbd853a52	-0.06505264
44	0xbb0d0f54	-0.002152403
45	0xbc3fbbbb	-0.011702473
46	0xbc54345d	-0.0129519375
47	0xbd4018a2	-0.04689849
48	0xbb9b6b32	-0.0047430033
49	0xbd4a4e87	-0.049391296
50	0x3a8906cd	0.0010454297
51	0x3bcb2d9a	0.0062005045
52	0xbc63a68e	-0.01389469
53	0xbc4dec98	-0.012568615
54	0x3b0cb8bb	0.0021472413
55	0xbc822cbf	-0.015890477
56	0xbb8208e1	-0.0039683436
57	0x3984de71	0.00025342734
58	0xba404c9e	-0.00073356356
59	0xbc2b37dd	-0.010450331
60	0x3bc634b0	0.0060487613
61	0xbb202286	-0.002443464
62	0x3c05f3d6	0.008175811
63	0xbc8bb51a	-0.01705413
64	0xbce6826b	-0.02813836
65	0xbd10fd83	-0.035398018
66	0xbc8e1a33	-0.017346477
67	0xbc8a3c5a	-0.016874481
68	0xbbc05bc3	-0.005870314
69	0xbbcc8a54	-0.006242076
70	0xbb5a032e	-0.0033266055
71	0xbad3532d	-0.0016122811
72	0xbb03b2c1	-0.002009556
73	0xbc638dc6	-0.013888782
74	0xbd348dab	-0.044080418
75	0xbbd0a797	-0.0063676345
76	0xbbcff7fd	-0.006346701
77	0x3ac15afa	0.0014751845
78	0xbb634528	-0.0034678672
79	0xbd1640ca	-0.03668288
80	0xbc7aeb3a	-0.015314871
81	0x3c13645b	0.008996095
82	0x3b5e1de5	0.003389233
83	0xbb04aa9e	-0.0020243297
84	0xbb21ec8d	-0.0024707646
85	0xbc224134	-0.009903241
86	0xbc8f90a9	-0.017525034
87	0x3bb2697f	0.005444705
88	0xbcd279f4	-0.025692917
89	0x3b62b8b6	0.003459496
90	0xb84269b6	-4.6351655e-05
91	0xbc581ca8	-0.013190426
92	0xbd6bf79e	-0.057609193
93	0xbd0a6d12	-0.033795424
94	0xbc83adfb	-0.016074171
95	0xbb9d8b04	-0.0048078317
96	0xbba6c5b6	-0.005089487
97	0xba8fede1	-0.0010980928
98	0xbba7b655	-0.005118171
99	0xbc091fc5	-0.008369391
100	0xbbe581d7	-0.0070040035
101	0xbcd5b864	-0.0260889
102	0xbd15e7c6	-0.03659799
103	0xbd197834	-0.03746815
104	0xbd0aa272	-0.033846326
105	0xbcb237dc	-0.021755151
106	0xbc23e3e4	-0.010003064
107	0xbbbd3f2d	-0.0057753534
108	0xbc6b4bc5	-0.014361327
109	0xbd4c9ece	-0.049956135
110	0x3b89b7a3	0.0042027994
111	0xbcfb5e3b	-0.030684581
112	0x3a10d0f6	0.00055243017
113	0xba90fea9	-0.0011062223
114	0xbcced9c7	-0.025250329
115	0xbd2f0c0a	-0.04273609
116	0x3b7039d1	0.0036655555
117	0xbd728b66	-0.059214972
118	0xbb2e0d9c	-0.0026558405
119	0xbc88e28e	-0.016709592
120	0xbcbd65f3	-0.023119902
121	0xbc8cc566	-0.01718397
122	0xbc2fe2bd	-0.010735211
123	0x3bc9cb35	0.0061582574
124	0x3bca8f8c	0.006181663
125	0xbbc3a5f6	-0.005970712
126	0xbb8d4485	-0.0043111467
127	0xbd030594	-0.03198774
128	0xbbf6f29e	-0.0075362464
129	0x3a814104	0.0009861295
130	0xbccab5ff	-0.024744986
131	0xbbd42a8d	-0.006474799
132	0xbd2b4f6f	-0.0418238
133	0x39319efe	0.00016939265
134	0xbcfcc453	-0.030855333
135	0xbb9ed893	-0.004847595
136	0xbd05902a	-0.03260819
137	0xbc65126d	-0.013981444
138	0xbbbc573a	-0.005747703
139	0xba826baf	-0.0009950305
140	0xbc276811	-0.010217682
141	0xbb33b01c	-0.0027418202
142	0xbd3205c9	-0.04346255
143	0x3ba1b77c	0.004935203
144	0xbb834e7d	-0.0040071593
145	0xbb2865f8	-0.0025695544
146	0xbb2e1cdc	-0.0026567494
147	0xbd4f4091	-0.050598685
148	0x3c03a71b	0.0080354465
149	0xbcf5efd4	-0.030021586
150	0xbc528a7b	-0.012850399
151	0x3b314e9b	0.002705491
152	0xbc93a23e	-0.018021699
153	0xb96a4d25	-0.00022344718
154	0xbc809ce0	-0.015699804
155	0xbbef06c1	-0.0072945063
156	0xbc866ad2	-0.016408358
157	0xbbd520a9	-0.0065041375
158	0x3b9198ad	0.004443249
159	0xbba238f5	-0.0049506375
160	0x3ac232d2	0.0014816171
161	0xbb38deac	-0.0028208895
162	0xbcfb0ede	-0.030646738
163	0xbd05e66b	-0.032690447
164	0xbcb4a6dd	-0.022052223
165	0xbbe800ce	-0.007080174
166	0xbce81151	-0.02832857
167	0xba8f8f36	-0.0010952714
168	0xbc6ac159	-0.014328324
169	0xbc53fc6f	-0.012938603
170	0xbd16635e	-0.036715858
171	0xbbed5833	-0.00724318
172	0xbb9b38be	-0.004736989
173	0xbb371cf4	-0.0027940841
174	0xbc2fe2be	-0.010735212
175	0xbc4d1b1b	-0.0125186695
176	0xbca505a7	-0.020144297
177	0xbc7f979b	-0.01560011
178	0xbd26eb61	-0.04075182
179	0xbc118e53	-0.00888403
180	0xbcfa4b13	-0.030553376
181	0xbbf237f5	-0.0073919245
182	0x3a4744db	0.0007601508
183	0xbd1be718	-0.038062185
184	0xba52722c	-0.0008027877
185	0xbd4bb9a5	-0.04973759
186	0xbc2f439f	-0.0106972745
187	0xbcc1b3ae	-0.023645248
188	0x3a8bdb40	0.00106702
189	0xbcb296a5	-0.021800349
190	0xb9c5dc20	-0.00037738774
191	0x3aab9648	0.0013091052
192	0xbce6fe90	-0.028197557
193	0xbcb6870e	-0.022281196
194	0xbd101e63	-0.03518523
195	0xbaf270ef	-0.0018496792
196	0xbd7a70cc	-0.061142728
197	0xb9412d0c	-0.00018422696
198	0xbc8223ca	-0.015886206
199	0x3a6e3122	0.0009086301
200	0xbcb289f4	-0.021794297
201	0x3b5bab49	0.0033518842
202	0xbdb74ab6	-0.08949797
203	0xbaf6c7e8	-0.0018827887
204	0xbc289696	-0.010289809
205	0xbbefe288	-0.007320706
206	0xbc692f2c	-0.014232438
207	0xbd2fd6a4	-0.042929307
208	0x3b9e98c3	0.004839988
209	0xbc161f81	-0.009162785
210	0x3c0f161a	0.008733297
211	0xbcf83f01	-0.03030348
212	0xbb84dae2	-0.004054413
213	0x3bee827b	0.007278738
214	0x3a5a476c	0.0008326683
215	0xbd0fd3d1	-0.035114113
216	0xbbb28ce3	-0.005448924
217	0xbd762304	-0.060091987
218	0xbc598a3f	-0.013277589
219	0x3b9b1b3d	0.0047334717
220	0xbc0386e5	-0.008027767
221	0xbd16fa04	-0.036859527
222	0xbd2e4909	-0.04255012
223	0x3b2af5c6	0.0026086434
224	0xbc9a838e	-0.018861558
225	0xbc7c98d2	-0.015417295
226	0xbcf3776d	-0.029720033
227	0xbd1e524f	-0.038652714
228	0x3b980502	0.004639269
229	0x3ba5a742	0.005055339
230	0xbcc6b56a	-0.024256427
231	0xbb24c2bf	-0.0025140492
232	0xbc3da00a	-0.011573801
233	0xbbfda0bf	-0.0077401097
234	0xba8f3bd4	-0.0010927864
235	0xbc15a195	-0.009132762
236	0xbd4ecd01	-0.050488476
237	0x3b1f560a	0.0024312758
238	0xbbbfb5b2	-0.005850517
239	0xbcdf990c	-0.027294658
240	0xbae2ad85	-0.0017294144
241	0xbcc266e8	-0.02373071
242	0xbcf9d416	-0.030496638
243	0xbd252dc2	-0.04032684
244	0xbcbfb57f	-0.023401974
245	0xbd0126cc	-0.03153114
246	0xbd18f397	-0.03734168
247	0xbb08712a	-0.0020819404
248	0x3b1f10f7	0.0024271586
249	0xbb3918b0	-0.0028243475
250	0x3c22fe03	0.009948256
251	0xbd719cd0	-0.05898744
252	0xbc67eeca	-0.014156053
253	0xbcb4997b	-0.022045841
254	0xbc5c02a9	-0.013428369
255	0x3a5f1d35	0.0008511127

ablang_branch.4.weight f4 [128, 256]
0	0x3d4bfbe0	0.049800754
1	0xbdf75180	-0.12076092
2	0x3b7b41ae	0.0038338709
3	0x3c25b89d	0.010114816
4	0xbca838e9	-0.02053495
5	0x3cdf308e	0.027244832
6	0x3c1e6131	0.009666727
7	0x3c026f5d	0.007961121
8	0xbce630f5	-0.028099516
9	0xbcfb8bb5	-0.030706266
10	0xbd76c3f5	-0.060245473
11	0x3e24fb34	0.16111451
12	0xbcf735fe	-0.030177113
13	0xbe404443	-0.1877604
14	0xbe1c6cd3	-0.15275888
15	0xbc32b07a	-0.010906333
16	0x3da601ad	0.081057884
17	0xbe49102b	-0.19635074
18	0x3d2cb16c	0.04216139
19	0xbd91a306	-0.071111724
20	0xbdc72a75	-0.09724895
21	0x3c260c73	0.010134804
22	0xbaf07c3a	-0.0018347569
23	0x3d013da7	0.031552937
24	0xbe0aa855	-0.13540776
25	0x3da64dbe	0.08120297
26	0xbd9e1720	-0.077192545
27	0xbc2aaf00	-0.0104177
28	0xbe165820	-0.14682055
29	0x3d29b896	0.0414358
30	0x3d816ee9	0.063199826
31	0x3d5c1c57	0.053737964
32	0x3dc1ad1a	0.09456845
33	0x3e0c1836	0.1368111
34	0xbd4ea3f9	-0.050449345
35	0xbdfbacb1	-0.12288798
36	0xbd048f99	-0.032363508
37	0xbd45c75f	-0.04828584
38	0xbc1d05ee	-0.009583933
39	0xbd43c414	-0.047794417
40	0x3b4b4a42	0.0031019603
41	0x3dbe6b36	0.092977926
42	0x3cf1076f	0.02942249
43	0xbdc89707	-0.09794431
44	0x3c630a96	0.013857504
45	0xbd8ce064	-0.068787366
46	0xbce2d3c7	-0.027688874
47	0xbdd1cc99	-0.10244102
48	0x3ba72684	0.005101027
49	0xbe097a47	-0.13425551
50	0x3d961393	0.07327952
51	0x3c9f97e7	0.019481612
52	0xbdac21e9	-0.08404905
53	0x3cb13cab	0.021635374
54	0x3ddf2246	0.10895209
55	0x3df6eca8	0.12056857
56	0xbd79cbf6	-0.060985528
57	0xbe55b271	-0.20868851
58	0x3c161be9	0.009161928
59	0xbd966945	-0.07344297
60	0x3ca7ef08	0.020499721
61	0x3dd7ebc5	0.10543016
62	0x3daa6139	0.08319325
63	0xbdbd58b0	-0.092454314
64	0x3de8db1f	0.11369919
65	0x3d237c7b	0.039913636
66	0xbd6bc58f	-0.057561453
67	0x3e2ca6f2	0.1686056
68	0xbdce5d73	-0.10076418
69	0xbd345c6b	-0.04403345
70	0x3d6f8ce1	0.058483962
71	0x3d68c75e	0.056830756
72	0x3c15b213	0.0091366945
73	0x3d1488ac	0.036263153
74	0xbdc14c71	-0.09438408
75	0xbd3739dc	-0.044732913
76	0x3e04f513	0.12984113
77	0x3d2399c0	0.03994155
78	0x3e0813fd	0.13288875
79	0xbd6b0c6e	-0.0573849
80	0xbe08d030	-0.13360667
81	0xbd55a817	-0.052162256
82	0xbb131364	-0.0022441978
83	0xbd4a95ee	-0.04945939
84	0xbd16741b	-0.03673182
85	0xbe12296b	-0.14273612
86	0x3dea8285	0.11450676
87	0x3b80f32f	0.0039352397
88	0xbdbcbf6c	-0.09216198
89	0x3c7ac894	0.015306611
90	0xbce8a520	-0.02839905
91	0xbdda34a2	-0.1065457
92	0xbc2bb97d	-0.010481236
93	0xbc895a36	-0.016766649
94	0x3d23f87a	0.040031888
95	0x3c285244	0.01027352
96	0xbd9978e5	-0.07493762
97	0x3da44293	0.080205105
98	0x3d8ed918	0.06975001
99	0x3d07d58c	0.03316264
100	0x3bfd5c9b	0.0077319867
101	0x3d76e995	0.060281355
102	0x3db69293	0.089146756
103	0x3e4189b1	0.18900181
104	0x3d8c876b	0.068617664
105	0x3d6a8492	0.057255335
106	0x3dd6b152	0.1048304
107	0xbe2d480b	-0.16922013
108	0xbdb82c7e	-0.08992861
109	0x3caacbbf	0.020849107
110	0x3db111f5	0.08646003
111	0xbbdbd27b	-0.006708441
112	0x3d602f5f	0.054732677
113	0xbd6c57db	-0.057700973
114	0xbdfd0e02	-0.123561874
115	0x3cdb0993	0.026737964
116	0xbdcbfaf8	-0.09959978
117	0xbe41b52e	-0.18916771
118	0xbe201966	-0.15634689
119	0xbe3e56e3	-0.18587832
120	0x3de22696	0.11042516
121	0x3d9f2212	0.0777017
122	0x3debfebd	0.11523197
123	0xbca844f4	-0.020540692
124	0x3c376c57	0.011195264
125	0x3c0a42b6	0.008438757
126	0xbc2014c1	-0.009770573
127	0xbd91c0da	-0.07116862
128	0x3ddb90b2	0.10720958
129	0xbe0fa72c	-0.14028615
130	0x3df0cfac	0.1175836
131	0x3e132bc7	0.14372168
132	0xbd153aba	-0.03643296
133	0x3ddbf6f5	0.10740463
134	0x3d3a4bd0	0.045482457
135	0x3d81ae8b	0.063321196
136	0x3b675e96	0.003530418
137	0x3d2d828e	0.042360835
138	0x3cab9d73	0.020949101
139	0x3bd8258b	0.0065962723
140	0x3cb66867	0.02226658
141	0x3d8ea802	0.06965639
142	0x3d16b73e	0.036795847
143	0xbc058487	-0.008149273
144	0x3d4c9428	0.04994598
145	0x3e18f1d9	0.14936008
146	0xbce67460	-0.028131664
147	0x3dc997e3	0.09843423
148	0xbd21ecc2	-0.03953243
149	0x3dbc4a02	0.09193803
150	0x3dd33123	0.103121065
151	0xbe27475c	-0.16335815
152	0xbd81c5d5	-0.063365616
153	0xbb6bd770	-0.0035986565
154	0xbc6f68e5	-0.014612411
155	0x3ab07488	0.0013462463
156	0x3e5e8148	0.21729004
157	0x3de59c74	0.11211482
158	0x3d18098d	0.037118483
159	0x3b71aa3e	0.0036875154
160	0xbc98e4f9	-0.01866387
161	0xbd00a633	-0.0314085
162	0x3ce7b2dc	0.028283529
163	0x3e20f8b9	0.1571988
164	0xbc96569e	-0.01835185
165	0xbca24c7a	-0.019811857
166	0x3de7efbc	0.113250226
167	0xbe12ea3a	-0.14347163
168	0xbd95c040	-0.073120594
169	0xbd261fd3	-0.040557694
170	0x3c7ecdfa	0.015552038
171	0x3c613101	0.013744594
172	0xbda3ea60	-0.08003688
173	0xbe147eda	-0.14501515
174	0x3d706a3b	0.05869506
175	0xbe25f49a	-0.1620659
176	0x3d6906d3	0.056891274
177	0x3da3f2e9	0.08005316
178	0xbab55e6e	-0.0013837346
179	0xbd395199	-0.045243833
180	0xbdab05a2	-0.08350684
181	0xbc6053a8	-0.01369182
182	0x3d36aec3	0.04460026
183	0xbceea8e2	-0.029133264
184	0xbd577aae	-0.05260723
185	0x3d4c21b3	0.049836826
186	0x3d38bbdd	0.045101035
187	0xbdca9066	-0.09890823
188	0xbd37ae19	-0.044843767
189	0x3e03f545	0.12886532
190	0xbce175d0	-0.027521998
191	0x3ddf49ec	0.10902771
192	0xbe64560a	-0.22298446
193	0x3d84c814	0.064834744
194	0xbd112c68	-0.03544274
195	0x3d7ceb15	0.06174763
196	0xbe8ae38a	-0.27126724
197	0xbe1e467b	-0.15456574
198	0x3db25f10	0.08709538
199	0x3d760e0b	0.060071986
200	0x3cd623f8	0.026140198
201	0xbd83a634	-0.06428185
202	0x3cb6e7b2	0.022327278
203	0x3cc6b90e	0.024258163
204	0x3c0fa9e8	0.008768536
205	0x3ddba1e9	0.10724241
206	0xba811854	-0.0009849169
207	0xbde0cb6d	-0.109763004
208	0x3e49c116	0.19702563
209	0x3d36cd47	0.04462936
210	0xbda54a54	-0.080708176
211	0xbcfb8f26	-0.030707907
212	0x3c54821c	0.012970474
213	0xbc8b7432	-0.01702318
214	0x3c55d0ba	0.013050253
215	0x3d5eed7a	0.054425694
216	0xbd46c7e1	-0.048530463
217	0x3e674a42	0.22586921
218	0x3e342e2e	0.17595741
219	0x3d2b713c	0.041856036
220	0xbddee292	-0.108830586
221	0xbd8ed741	-0.0697465
222	0x3e078b7c	0.13236803
223	0xbd992e01	-0.07479478
224	0xbca10aa8	-0.019658402
225	0x3e033441	0.12812902
226	0xbd04f10d	-0.032456446
227	0xbe5639f7	-0.2092055
228	0xbd63505f	-0.05549657
229	0xbd7c376e	-0.0615763
230	0x3d9cad41	0.07650233
231	0xbd037079	-0.032089684
232	0x3da93bd2	0.08263363
233	0x3d5c597b	0.053796273
234	0x3c4e0510	0.012574449
235	0xbc9ef954	-0.019405998
236	0xbc897042	-0.016777162
237	0xbd948635	-0.072521605
238	0xbd852418	-0.06501025
239	0xbd672756	-0.056433998
240	0x3e0394c8	0.12849724
241	0x3db6e526	0.08930425
242	0xbcbc9bb2	-0.02302346
243	0xbdbed468	-0.09317857
244	0xbda4dce1	-0.08049942
245	0xbd6284a0	-0.055302262
246	0x3de6aa81	0.1126299
247	0x3c871d61	0.016493501
248	0x3be73edd	0.0070570544
249	0xbde78b8c	-0.11305913
250	0xbe576d44	-0.21037775
251	0x3d6b58fd	0.057457913
252	0xbe197d58	-0.14989221
253	0xbc2b84a1	-0.010468633
254	0xbc9b3a5e	-0.01894873
255	0xbd653fd1	-0.055969063

ablang_branch.4.bias f4 [128]
0	0xbc183206	-0.00928927
1	0xb9dd245a	-0.0004217949
2	0xbbde8d92	-0.006791779
3	0x3c5313ea	0.012883166
4	0xbda30c4a	-0.07961328
5	0xbc0a7f39	-0.008453184
6	0xbc2162c4	-0.009850208
7	0x3c73feb7	0.014892272
8	0x3af1e962	0.0018456394
9	0x3bd005aa	0.0063483315
10	0x3c48fb6e	0.012266977
11	0xbca9ed77	-0.020743115
12	0xbcb222e1	-0.021745147
13	0xbbbd39ae	-0.005774698
14	0x3d507107	0.05088904
15	0x3cd8d514	0.026468791
16	0xbc9fe2d2	-0.019517336
17	0x395a3d4c	0.00020812935
18	0x3acb886a	0.0015528325
19	0xbd29dac1	-0.041468386
20	0xbcb0d56c	-0.021586142
21	0xbd264fe3	-0.04060353
22	0xbc1ced20	-0.009578019
23	0x3c149537	0.009068779
24	0x3c3406e2	0.010987969
25	0x3d514c7a	0.051098324
26	0x3d09cdb6	0.033643447
27	0xba0711ee	-0.0005152513
28	0x3be99689	0.007128541
29	0xbcfbfbe5	-0.030759761
30	0xbc18114b	-0.009281467
31	0x3c9e25dd	0.019305164
32	0xbcf2929a	-0.02961092
33	0xbcc2b3e4	-0.02376742
34	0xbd3097f2	-0.043113656
35	0x3c9a282e	0.018817987
36	0x3b82a88f	0.003987379
37	0xbcf7afb5	-0.03023515
38	0x3c0aea6c	0.008478742
39	0xbc773584	-0.015088443
40	0xbb5e8561	-0.0033954012
41	0xbcbde24c	-0.023179196
42	0xbcc033f2	-0.02346227
43	0xbccc2151	-0.02491823
44	0xba944453	-0.0011311866
45	0xbc4fca7c	-0.012682553
46	0x3c849bd4	0.016187586
47	0xbb0f19ab	-0.0021835368
48	0x3c35cb90	0.011095896
49	0xbad7281b	-0.0016415151
50	0x3caacb4b	0.02084889
51	0x3befc2f8	0.0073169433
52	0xbc8708fa	-0.016483773
53	0x3bd016f5	0.006350393
54	0xbc28777b	-0.010282393
55	0x3c20805a	0.009796226
56	0xbd5eaa20	-0.054361463
57	0x3ac728dc	0.0015194672
58	0x3c3bcafe	0.011461971
59	0x3d6b74c7	0.057484414
60	0xbd19b6da	-0.037527896
61	0x3a4ec4ad	0.00078875833
62	0x3ca5cb59	0.020238565
63	0xbd5e8f4a	-0.05433587
64	0xbccaa608	-0.024737373
65	0x3cee86af	0.029116957
66	0xbbdefb60	-0.0068048686
67	0x3c57e323	0.013176712
68	0xbd0f1ab7	-0.034937587
69	0xb9541d23	-0.0002022875
70	0x3c4ee942	0.012628855
71	0x3cdf120c	0.027230285
72	0xbca361c0	-0.019944072
73	0xbcd9023f	-0.026490329
74	0xbc3e2144	-0.011604611
75	0x3c7d9367	0.015477038
76	0xbd06ae8e	-0.032881312
77	0x3c7382ad	0.0148626985
78	0xbd151e33	-0.036405753
79	0x3bdd31ec	0.006750336
80	0x3cd6239a	0.026140023
81	0x3cb79429	0.022409515
82	0xbc0bdd11	-0.008536593
83	0xbb1e19c9	-0.0024124256
84	0x3b94b452	0.0045380974
85	0xbca28b10	-0.0198417
86	0x3ca4faa1	0.02013904
87	0xbb0ef938	-0.0021816026
88	0x3ca540ab	0.020172438
89	0x3c7c40a4	0.015396271
90	0x3c1fb2b1	0.009747193
91	0x3c67bc07	0.01414395
92	0xba7dfc5d	-0.0009688789
93	0x3bf0257a	0.0073286863
94	0xbc7aab0f	-0.015299573
95	0xbd03f162	-0.032212622
96	0xbc10d227	-0.008839167
97	0x3d1ea527	0.03873172
98	0x3c7863ca	0.01516051
99	0xbbc527be	-0.0060167005
100	0xbd469cf9	-0.048489545
101	0x3ccdb8fa	0.025112618
102	0xbc21cf04	-0.0098760165
103	0xbd02e5df	-0.031957503
104	0x3bfd41fb	0.0077288128
105	0xbc855213	-0.016274488
106	0xbc6a7b49	-0.01431162
107	0xbd1cfd0d	-0.038327266
108	0x3b233d1c	0.002490825
109	0xbc2cc21d	-0.010544327
110	0x3bfd60bd	0.0077324794
111	0xbcb66164	-0.022263236
112	0x3b9f23ce	0.004856563
113	0xbcf08d4c	-0.02936425
114	0xbd4a827c	-0.049440846
115	0x3bbcd56b	0.005762746
116	0xbb12934a	-0.0022365623
117	0x3bb5bbb5	0.005546058
118	0x3c71dbf0	0.01476191
119	0x3ba2bbca	0.004966234
120	0x3c2d4671	0.010575877
121	0xbb469236	-0.003029955
122	0xbc57c66b	-0.013169865
123	0xbd1d6a1e	-0.03843128
124	0xbcae058a	-0.021242876
125	0xbd0cfbc7	-0.0344198
126	0x3b20c3d0	0.0024530776
127	0xbcafcd58	-0.02146022

ablang_branch.5.weight f4 [128]
0	0x3f761508	0.9612584
1	0x3f79cef7	0.9758143
2	0x3f8034ef	1.0016154
3	0x3f70ad58	0.940145
4	0x3f80d2b6	1.0064304
5	0x3f761189	0.96120507
6	0x3f7afe90	0.9804468
7	0x3f75a942	0.9596139
8	0x3f7bc225	0.98343116
9	0x3f7bce44	0.9836161
10	0x3f803286	1.0015419
11	0x3f7a4d09	0.97773796
12	0x3f79aed1	0.97532374
13	0x3f814480	1.009903
14	0x3f8679ac	1.0505881
15	0x3f84be99	1.0370666
16	0x3f7d9e6c	0.9906986
17	0x3f7a4ff6	0.9777826
18	0x3f854693	1.0412163
19	0x3f769853	0.9632618
20	0x3f793c10	0.97357273
21	0x3f7dee11	0.99191386
22	0x3f813e2b	1.0097097
23	0x3f81011f	1.0078467
24	0x3f78b54e	0.9715165
25	0x3f838787	1.0275735
26	0x3f7fcaf8	0.9991908
27	0x3f7fce70	0.99924374
28	0x3f7e8468	0.99420786
29	0x3f78e3df	0.97222704
30	0x3f7cd255	0.9875844
31	0x3f7b0755	0.9805806
32	0x3f7d58b8	0.989635
33	0x3f7c49c3	0.9855005
34	0x3f80c7b0	1.006094
35	0x3f7c6958	0.9859824
36	0x3f7c7510	0.98616123
37	0x3f7d4cae	0.9894513
38	0x3f808580	1.0040741
39	0x3f7bca00	0.983551
40	0x3f816ae0	1.0110741
41	0x3f74cbb9	0.95623356
42	0x3f7187e8	0.94348
43	0x3f7c4e77	0.9855723
44	0x3f792e94	0.973367
45	0x3f79d134	0.97584844
46	0x3f823584	1.0172582
47	0x3f783921	0.9696217
48	0x3f7f119c	0.99636245
49	0x3f811570	1.0084667
50	0x3f7c7368	0.98613596
51	0x3f7afe1e	0.98044
52	0x3f7c933a	0.9866215
53	0x3f79a6dd	0.9752024
54	0x3f7bebef	0.9840688
55	0x3f7d94a4	0.9905493
56	0x3f7ba080	0.9829178
57	0x3f7ce267	0.9878296
58	0x3f7b8962	0.98256505
59	0x3f84fc3e	1.0389478
60	0x3f7819f6	0.96914613
61	0x3f8169d5	1.0110422
62	0x3f806836	1.0031803
63	0x3f7c81bc	0.9863546
64	0x3f7d2400	0.98883057
65	0x3f7fc0ef	0.9990377
66	0x3f7e9111	0.99440104
67	0x3f812c84	1.009171
68	0x3f7fe512	0.9995891
69	0x3f7c7090	0.98609257
70	0x3f7d3bd6	0.9891943
71	0x3f83248d	1.024553
72	0x3f7b6fe5	0.9821761
73	0x3f7a40f1	0.9775534
74	0x3f7b86fc	0.98252845
75	0x3f813ed4	1.0097299
76	0x3f77053e	0.96492374
77	0x3f81ae96	1.0131404
78	0x3f752d18	0.9577193
79	0x3f7a2425	0.977114
80	0x3f81a423	1.0128216
81	0x3f7e2e7d	0.99289685
82	0x3f760fa6	0.9611763
83	0x3f788759	0.97081524
84	0x3f822af6	1.0169361
85	0x3f7a0bea	0.9767443
86	0x3f828cfc	1.0199275
87	0x3f7eea2f	0.99576086
88	0x3f83de11	1.0302144
89	0x3f7ccbf5	0.98748714
90	0x3f7aefcf	0.9802217
91	0x3f7d2c80	0.98896027
92	0x3f7bf5b9	0.9842182
93	0x3f79b467	0.975409
94	0x3f77e5c1	0.9683495
95	0x3f7790fe	0.96705616
96	0x3f7e550d	0.9934853
97	0x3f84955f	1.0358084
98	0x3f83208c	1.0244308
99	0x3f7aad52	0.97920716
100	0x3f833904	1.0251775
101	0x3f7c9a7e	0.98673236
102	0x3f789a5f	0.9711055
103	0x3f6eaf32	0.93236077
104	0x3f80549a	1.0025818
105	0x3f7918de	0.9730357
106	0x3f70a585	0.9400256
107	0x3f76ba5f	0.9637813
108	0x3f7c1e18	0.9848342
109	0x3f7a6079	0.97803456
110	0x3f801075	1.0005022
111	0x3f7ab087	0.9792561
112	0x3f80aa5f	1.0051993
113	0x3f7c3145	0.9851268
114	0x3f6f113a	0.9338566
115	0x3f825490	1.0182056
116	0x3f80a121	1.0049173
117	0x3f7ade6c	0.9799564
118	0x3f80dbd0	1.0067081
119	0x3f787301	0.9705048
120	0x3f7d8743	0.9903452
121	0x3f7736d4	0.96568036
122	0x3f7ad9cf	0.979886
123	0x3f757d9b	0.95894784
124	0x3f82320f	1.0171527
125	0x3f74c08a	0.9560629
126	0x3f78cc3b	0.9718663
127	0x3f810279	1.007888

ablang_branch.5.bias f4 [128]
0	0xbc5e8729	-0.013582029
1	0xbbc7e223	-0.0060999556
2	0xbc1324da	-0.008980954
3	0x3c6de327	0.014519489
4	0xbda5c757	-0.08094662
5	0xbbdac0e2	-0.0066758255
6	0xbc61eb56	-0.013789019
7	0x3d0d9d8c	0.034574077
8	0x3b289bbe	0.0025727595
9	0x3bcf8c32	0.0063338513
10	0x3b9a5fdc	0.0047111344
11	0xbcaee7a6	-0.021350693
12	0xbc9e34ea	-0.01931234
13	0xbc7b1779	-0.015325421
14	0x3d41b710	0.047293723
15	0x3c968232	0.018372629
16	0xbc9223d2	-0.017839346
17	0xbbcca6d2	-0.0062454725
18	0x3bc07248	0.0058729984
19	0xbd2b7e04	-0.041868225
20	0xbc50fb87	-0.012755281
21	0xbcfe603a	-0.031051744
22	0xbb974ecb	-0.004617547
23	0xbb87ad7c	-0.004140554
24	0x3c0b8461	0.008515448
25	0x3d24ff13	0.04028232
26	0x3cdce79e	0.026965912
27	0x3b0f7805	0.0021891606
28	0x3b8cd13d	0.004297404
29	0xbd23768c	-0.039907977
30	0xbbe615ec	-0.0070216563
31	0x3c7e8487	0.015534527
32	0xbc47b5ca	-0.012189338
33	0xbcc21510	-0.023691684
34	0xbd2ce774	-0.04221292
35	0x3c2ce2bd	0.0105521055
36	0x3b16404a	0.0022926503
37	0xbcb1e8e7	-0.021717502
38	0x39cffa86	0.0003966877
39	0xbc374c7a	-0.011187667
40	0xbc0f663a	-0.0087524
41	0xbcac15e2	-0.021006528
42	0xbcf33d3d	-0.029692287
43	0xbd03f518	-0.03221616
44	0xb824b471	-3.9268696e-05
45	0xbc8f5ead	-0.0175012
46	0x3c9232b4	0.017846443
47	0xbb68212a	-0.0035420158
48	0x3bc69c24	0.006061094
49	0x3b55f772	0.003264871
50	0x3c76239b	0.015023137
51	0x3c2ef1ea	0.010677794
52	0xbc8f1386	-0.017465364
53	0x3c47aa9b	0.012186672
54	0xbc6b8fc7	-0.014377541
55	0x3bb2ec7c	0.00546032
56	0xbce19677	-0.027537568
57	0x3ae1adf3	0.0017217979
58	0x3bd8bd45	0.0066143596
59	0x3d504b61	0.050853137
60	0xbd0c4231	-0.034242813
61	0xbc2c1950	-0.010504082
62	0x3cb1a920	0.02168709
63	0xbd24d2b6	-0.040240012
64	0xbce902f4	-0.028443791
65	0x3ca66125	0.020309994
66	0xbc387544	-0.011258427
67	0x3c5c91af	0.013462468
68	0xbd0b8f63	-0.03407229
69	0xbb66a1d1	-0.0035191665
70	0x3cac8a61	0.021062078
71	0x3cef4346	0.029206883
72	0xbc3b80dd	-0.011444298
73	0xbccdaa14	-0.025105514
74	0x3b660601	0.0035098793
75	0x3c842586	0.016131174
76	0xbd115e85	-0.03549053
77	0x3c035afb	0.008017297
78	0xbd0444a2	-0.032292016
79	0x3c04ef0d	0.008113635
80	0x3d01c6ff	0.031683918
81	0x3c9a4156	0.018829983
82	0xbc4285d5	-0.011872728
83	0xba14b366	-0.00056724844
84	0xbae5cb60	-0.0017531924
85	0xbc50f4fc	-0.012753721
86	0x3cc2cd8a	0.02377965
87	0xbb745148	-0.0037279893
88	0x3c80aff5	0.015708903
89	0x3c7e7fbf	0.015533387
90	0xb9c1e7b7	-0.0003698447
91	0x3c0be492	0.008538382
92	0xbc1d796b	-0.009611468
93	0x3bd0c810	0.0063715056
94	0xbc3fc734	-0.011705209
95	0xbd16ca1e	-0.036813848
96	0xbbd88368	-0.0066074617
97	0x3d1f5e87	0.038908508
98	0x3bcfed5f	0.0063454355
99	0xbc2bf119	-0.010494494
100	0xbd50f994	-0.051019266
101	0x3c8e8bee	0.017400708
102	0xbbaf1c14	-0.0053439233
103	0xbd0d17e1	-0.0344466
104	0x3c0e0bbf	0.008669793
105	0xbc753379	-0.014965885
106	0xbb92dc58	-0.0044818334
107	0xbd1ec566	-0.038762473
108	0x3bc7286d	0.006077817
109	0xbc3453e6	-0.011006331
110	0x3b1cbaf1	0.0023915137
111	0xbcef1d98	-0.029188916
112	0x3c174cf5	0.009234657
113	0xbcbf6183	-0.023361927
114	0xbd353628	-0.0442411
115	0x3bf58eab	0.007493814
116	0x3a7d9a56	0.0009674182
117	0x3ba70100	0.0050965548
118	0x3c6f0dd2	0.014590697
119	0x3b275868	0.0025534872
120	0x3c206c42	0.009791436
121	0xbbb08cab	-0.0053878627
122	0xbc854483	-0.01626802
123	0xbd391df2	-0.045194574
124	0xbd04e6e6	-0.032446764
125	0xbd015d6e	-0.031583242
126	0x3afdd90a	0.0019367051
127	0xbc805ce1	-0.015669288
