data/model_weights/cv_fold_2_model5_0.pt (torch, 685157 bytes, 23 tensors)

ablang_branch.0.weight f4 [256, 480]
-0.090626374 0.0058740354 0.057877526 0.049018163 0.07115398 -0.11603339 0.08928617 0.041949075
-0.044906024 0.029569844 0.037417192 -0.045798726 0.017037284 -0.039372437 -0.032566316 -0.015360553
0.08603127 0.050630134 -0.045051616 -0.13254687 0.07252771 0.034726456 -0.01966142 0.039626963
0.16179086 -0.042922445 -0.065107964 -0.07580656 -0.06584166 -0.1274342 -0.05742445 -0.0669821
0.0877547 0.02349508 -0.06526075 -0.014268552 0.008516031 0.027697679 0.064084165 0.06395535
0.06707151 -0.009867769 0.013378454 0.018821273 0.11096464 0.12344746 0.0062083425 0.023778742
-0.034358382 0.04141825 0.028123623 -0.030682154 0.18592747 0.059482843 -0.032841414 0.07000095
0.0015602693 -0.023791347 -0.024487428 -0.09006604 0.025908206 0.12700315 -0.06619456 0.040851325
0.06316953 0.08224153 -0.008334411 -0.08573436 0.0378206 -0.025976963 -0.027366767 -0.0021186993
0.070797585 0.0053038243 0.0019987323 -0.030699685 0.018168543 0.06396857 0.011733267 0.0060644136
0.10842997 0.007203079 0.0011786674 0.050210267 0.03087521 0.0389567 0.03486745 0.09607776
-0.048056122 -0.16848877 -0.033775013 -0.108950965 0.023763029 -0.04750422 0.06858095 0.11262961
0.13146506 -0.07040186 0.04329592 0.072216734 0.012068982 -0.032618977 0.00914363 0.022958081
-0.03365434 0.01398897 -0.044067487 0.1308169 0.054311797 0.07950883 -0.06424818 -0.015892338
0.051657163 -0.059174392 -0.059638016 0.007591812 0.032498065 -0.21001314 -0.09001341 -0.035177696
-0.032932267 -0.0009373566 -0.016681558 -0.042724855 -0.0064375964 0.04873764 0.0051251655 -0.02567035
-0.065852135 -0.025927264 0.0024741725 0.059001006 0.053808965 0.090502664 -0.10110682 -0.04099879
0.15501991 0.057441816 0.009766798 -0.01332742 -0.0005041894 0.13871062 -0.060440436 -0.064364396
-0.01882643 0.046813224 -0.003043227 -0.030466933 -0.046121113 0.009020386 -0.14619382 -0.051988717
-0.047243346 -0.039839208 0.021270862 -0.07189842 0.053261224 -0.07647249 0.08130208 -0.073345274
0.051839877 -0.09667146 -0.011375382 -0.020861534 0.05795789 -0.022105427 0.10781032 -0.08586144
0.014620263 -0.1033193 -0.059427142 0.00085593975 0.050902482 -0.019340448 0.0016289263 0.18789984
0.0344786 0.06322664 0.048865765 -0.10853784 0.0001775217 0.05109533 -0.03295953 0.06360023
0.017792247 -0.10025372 -0.040550236 0.0022295879 -0.068804905 0.14855863 0.023148911 0.10322264
0.06028466 0.032753352 0.041692965 0.10098799 0.03256537 -0.054481152 -0.10114441 -0.08905087
0.049176935 0.06698435 -0.029499631 0.113568075 0.07218396 0.025652852 -0.025872258 -0.015663661
0.099129856 0.0077548637 -0.045240708 0.09242152 -0.06418604 0.018049616 0.015464894 0.0147072375
-0.012273882 0.02621488 0.016270526 -0.087139174 -0.02215315 -0.028892944 -0.1172266 0.10112032
-0.08804936 -0.027362213 -0.05191569 0.063677795 0.07928051 0.01121486 -0.052670322 0.055959053
0.021130407 -0.011239209 -0.031307053 -0.068675466 -0.0028401862 0.019282276 -0.09800522 -0.003850899
0.08719982 -0.08126244 0.03377629 -0.038364526 -0.06763436 0.08712125 -0.10031381 -0.028849438
0.07883075 -0.04706894 -0.06310404 0.0006866336 0.026008658 0.06690296 -0.030073227 0.059526157
00000000: 529a b9bd fb7a c03b fc10 6d3d 45c7 483d
00000010: 2eb9 913d eaa2 edbd abdb b63d cbd2 2b3d
00000020: 61ef 37bd 753c f23c c542 193d 7297 3bbd
00000030: c691 8b3c fe44 21bd 4264 05bd d4aa 7bbc
00000040: 2a31 b03d 8b61 4f3d 0b88 38bd 5eba 07be
00000050: 6889 943d 543d 0e3d fc10 a1bc e24f 223d
00000060: 81ac 253e 72cf 2fbd 5357 85bd 7840 9bbd
00000070: fed7 86bd 1c7e 02be e635 6bbd e92d 89bd
00000080: bcb8 b33d c178 c03c 6ea7 85bd a5c6 69bc
00000090: d386 0b3c 3ee6 e23c 8f3e 833d 06fb 823d
000000a0: ca5c 893d 6cac 21bc 4e31 5b3c 122f 9a3c
000000b0: 6e41 e33d 06d2 fc3d 5a6f cb3b a3cb c23c
000000c0: 60bb 0cbd 2fa6 293d 8363 e63c 2459 fbbc
000000d0: c563 3e3e 48a4 733d b884 06bd a85c 8f3d
000000e0: f381 cc3a 12e6 c2bc dc99 c8bc 8b74 b8bd
000000f0: 723d d43c 1d0d 023e 0391 87bd b853 273d
00000100: 075f 813d 3f6e a83d 0e8d 08bc 7f95 afbd
00000110: c6e9 1a3d a4cd d4bc 4530 e0bc e0d9 0abb
00000120: 53fe 903d b4cb ad3b 2afd 023b e87d fbbc
00000130: 32d6 943c f401 833d e43c 403c fdb7 c63b
00000140: 8810 de3d ce07 ec3b 847d 9a3a 48a9 4d3d
00000150: 02ee fc3c 1091 1f3d 2cd1 0e3d 6bc4 c43d
00000160: 7fd6 44bd 5288 2cbe ab57 0abd af21 dfbd
00000170: afaa c23c c993 42bd 2b74 8c3d 5aaa e63d
00000180: c79e 063e da2e 90bd 1057 313d 5ee6 933d
00000190: fbbc 453c 7a9b 05bd 2acf 153c 9612 bc3c
000001a0: 22d9 09bd fe31 653c 1c80 34bd def4 053e
000001b0: 0c76 5e3d 87d5 a23d 8d94 83bd a630 82bc
000001c0: 7696 533d d960 72bd fe46 74bd bcc4 f83b
000001d0: b11c 053d af0d 57be f358 b8bd 7d16 10bd
000001e0: fce3 06bd f0b8 75ba c3a7 88bc 4200 2fbd
000001f0: 79f2 d2bb 1fa1 473d 01f1 a73b a04a d2bc
00000200: 7cdd 86bd 6a65 d4bc ba25 223b 0aab 713d
00000210: ca66 5c3d 7659 b93d 1811 cfbd 59ee 27bd
00000220: 8abd 1e3e 1c48 6b3d eb04 203c 405b 5abc
00000230: 942b 04ba 280a 0e3e 6490 77bd 7bd1 83bd
00000240: e339 9abc 39bf 3f3d e070 47bb ca95 f9bc
00000250: 7ee9 3cbd 3eca 133c d5b3 15be 1ff2 54bd
00000260: 3d82 41bd 702e 23bd 3b40 ae3c 7b3f 93bd
00000270: 7128 5a3d 9c9d 9cbd b481 a63d 0c36 96bd
00000280: 0d56 543d b0fb c5bd cf5f 3abc cfe5 aabc
00000290: 4165 6d3d 7116 b5bc a8cb dc3d 1fd8 afbd
000002a0: d489 6f3c 1299 d3bd e069 73bd 2561 603a
000002b0: 1f7f 503d dc6f 9ebc b281 d53a d168 403e
000002c0: 6f39 0d3d f87c 813d 7827 483d 1649 debd
000002d0: 1e25 3a39 5649 513d 9200 07bd d640 823d
000002e0: 0cc1 913c d351 cdbd 0118 26bd 471e 123b
000002f0: 96e9 8cbd c11f 183e c9a2 bd3c 6466 d33d
00000300: 0ced 763d 6128 063d 3ec6 2a3d cbd2 ce3d
00000310: 4463 053d a127 5fbd cd24 cfbd 4d60 b6bd
00000320: c16d 493d 172f 893d 36a9 f1bc 6196 e83d
00000330: 2fd5 933d ee25 d23c 0ff2 d3bc 1451 80bc
00000340: 9804 cb3d 831c fe3b 524e 39bd 7e47 bd3d
00000350: f873 83bd cadc 933c 7760 7d3c a0f6 703c
00000360: 6418 49bc 97c0 d63c c449 853c 0676 b2bd
00000370: 867a b5bc e5b0 ecbc 8014 f0bd 2c18 cf3d
00000380: 3953 b4bd b826 e0bc 8ca5 54bd 8169 823d
00000390: d25d a23d 88be 373c d6bc 57bd 5235 653d
000003a0: ad19 ad3c a924 38bc d33b 00bd b9a5 8cbd
000003b0: 6b22 3abb ddf5 9d3c f6b6 c8bd 5d5f 7cbb
000003c0: d295 b23d ec6c a6bd 0259 0a3d 1f24 1dbd
000003d0: e283 8abd a06c b23d 5471 cdbd a855 ecbc
000003e0: 0472 a13d 5ccb 40bd b13c 81bd 33ff 333a
000003f0: 1c10 d53c 6b04 893d 215c f6bc b3d1 733d

ablang_branch.0.bias f4 [256]
-0.0016431336 0.0015653097 0.0024814396 0.0037045458 0.009513565 0.00769195 0.0018402484 0.005851344
0.008889105 -0.0013827193 -0.0011344774 0.00230505 0.006944389 0.0046952716 -0.0026315874 0.010331422
0.005753132 0.0049357647 0.007818638 0.0062373253 0.009825442 0.004308976 0.0008823272 0.00011096697
0.0070472066 0.0077144173 0.0020603493 0.0017477844 -0.00015548275 0.009561095 -0.0023321756 0.0034644015
0.001869277 0.0032639888 0.0032786254 0.0012658946 -0.0027048723 0.0038422178 -0.0009422465 0.0027395403
-0.00089825346 0.009882214 0.005298412 0.005117664 -0.00050978566 0.0039631175 -0.00040243595 -0.0030182695
0.0034109575 0.0003342161 0.010053699 -0.0009314287 0.0015080743 -0.000863309 0.0019794991 0.008825645
-0.0022964547 0.008179192 0.0011064671 -0.0041438215 0.004794919 -0.0035093713 0.004801511 -0.0001963374
0.0053767767 0.0049494277 -0.0041991225 -0.0007668488 0.011168491 0.0062016835 0.0048089293 0.0031539188
0.006703652 -7.917773e-05 0.00018450961 0.004709802 0.0026404033 0.0007281968 -8.789523e-05 0.006303765
0.004532528 0.00010303884 0.0074868496 -0.0024622122 0.0006662328 0.00045538842 -0.003694057 0.0022143992
0.00985159 0.002712344 0.0025861925 0.007342871 0.009240776 0.003463538 -0.00015359852 0.005249257
0.0012229779 0.003613595 0.0056535164 0.0019606694 0.0071976455 0.0067396658 -0.0010641894 0.0005364717
0.0031411971 0.00064840406 0.0058888807 -0.00041040417 0.0054664128 -0.0030070154 0.0033960394 0.0072565554
0.0047105164 0.0065168133 0.0051718066 0.0008988386 0.0017285169 -0.0019011104 -0.005740052 -1.4586065e-05
0.0040242095 0.010766512 0.0036703378 0.007188203 0.0019202394 -0.0023028483 0.0098819705 0.0025576083
0.007463537 0.005098817 -0.005120833 -0.00093031174 0.006637982 0.0035163537 -0.00057494396 0.0019951786
0.003218624 0.0066304486 0.0040523927 0.004581656 0.0024856424 -0.0046788026 0.0014064495 0.00018807207
-0.00013377033 0.005873016 0.0074696215 0.005143229 0.0029942174 0.0053252815 0.002331865 -0.0046351654
0.0006743792 0.0049139224 -0.0023915675 0.0009156993 0.0045040445 0.00831812 0.0053668227 0.00472561
0.008200181 -0.0030940096 -0.0053045014 0.0020977084 0.0014422655 0.0069822324 -0.0067318473 -0.001470556
0.0038451385 -0.0013409192 0.00059487927 0.0046827006 0.007927479 -0.0027493043 0.00038156737 -0.00018864655
0.0024389708 0.005342113 0.003755011 0.0061160913 0.010528283 -0.00034444744 -0.000998165 0.008078054
0.0041526626 0.00020526128 0.008307265 0.008159809 -0.0012583523 0.0030140372 0.0043533817 0.005111276
0.005715285 0.000694021 -0.0020157257 0.009429203 0.00672752 0.006719689 -0.0008804982 0.009837414
0.0021991946 0.003723331 0.0023934357 0.007463534 0.002403848 0.0020846701 0.0017729708 0.004242913
-2.7746588e-05 -0.00068032433 0.004694323 0.004795396 -0.0033363388 -0.0027179995 -0.0020309233 0.009366748
0.0027236494 0.0044816323 0.0029757188 0.007811978 0.0034051912 0.008514518 0.00954927 -0.0002331684
0.0027415354 0.0016569216 0.0061330255 -0.0001036796 0.0054147462 -0.0099095395 0.002674357 0.0075411764
0.010135133 0.0042211087 0.014798947 0.0012624821 0.0046632267 0.00042550918 0.00022060474 0.004854773
0.0066723726 0.0013355816 0.0008296108 0.005711625 -0.0011169501 0.003020928 0.010068434 0.005853747
-0.0017839179 -0.0018675668 -0.0033864768 0.005863288 -0.00018055431 0.0024927075 -0.0016392001 2.2893579e-05
00000000: 6a5e d7ba 142b cd3a a69f 223b f7c7 723b
00000010: c9de 1b3c c10c fc3b 7d34 f13a a2bc bf3b
00000020: 9ca3 113c 5c3c b5ba bfb2 94ba 5210 173b
00000030: c28d e33b cbda 993b b676 2cbb 2045 293c
00000040: c584 bc3b 32bc a13b bf19 003c 7a62 cc3b
00000050: e4fa 203c 4f32 8d3b fa4b 673a f0b6 e838
00000060: 41ec e63b 39c9 fc3b ed06 073b ea15 e53a
00000070: 1509 23b9 24a6 1c3c 6ad7 18bb 030b 633b
00000080: 8702 f53a a5e8 553b 35de 563b 60ec a53a
00000090: 3a44 31bb b8cd 7b3b 1801 77ba dc89 333b
000000a0: c578 6bba 02e9 213c 4d9e ad3b 14b2 a73b
000000b0: 23a3 05ba 0add 813b 0afe d2b9 29ce 45bb
000000c0: 5f8a 5f3b ba39 af39 45b8 243c 1f2b 74ba
000000d0: 94aa c53a b04f 62ba 7cba 013b 7099 103c
000000e0: 1e80 16bb 0502 063c e006 913a e5c8 87bb
000000f0: b21e 9d3b 7bfd 65bb fe55 9d3b ebdf 4db9
00000100: ac2f b03b cf2e a23b cb98 89bb 5a06 49ba
00000110: 0cfc 363c 7e37 cb3b 3994 9d3b fab1 4e3b
00000120: 4faa db3b 380c a6b8 ec78 4139 af54 9a3b
00000130: 9e0a 2d3b 76e4 3e3a 6454 b8b8 d08f ce3b
00000140: 9a85 943b 8e16 d838 3f54 f53b 115d 21bb
00000150: 20a6 2e3a 33c1 ee39 fe17 72bb 741f 113b
00000160: 9068 213c 95c1 313b 1c7d 293b 779c f03b
00000170: a066 173c 86fc 623b 4a0f 21b9 f601 ac3b
00000180: 544c a03a 10d2 6c3b 2241 b93b 937e 003b
00000190: 3ada eb3b 6ad8 dc3b 457c 8bba 02a2 0c3a
000001a0: 8bdc 4d3b a9f9 293a 83f7 c03b 842b d7b9
000001b0: 981f b33b 5911 45bb 1690 5e3b 66c8 ed3b
000001c0: ad5a 9a3b fe8a d53b 4278 a93b 0aa0 6b3a
000001d0: 678f e23a ae2e f9ba 0c17 bcbb acb6 74b7
000001e0: 84dd 833b 0666 303c 0d8a 703b 048b eb3b
000001f0: 8bb0 fb3a 62eb 16bb fde7 213c 8c9d 273b
00000200: b090 f43b fa13 a73b a9cc a7bb 2ae0 73ba
00000210: 6e83 d93b a072 663b d6b7 16ba 8bc1 023b
00000220: 8def 523b 3c44 d93b efc9 843b b721 963b
00000230: 29e6 223b a450 99bb 9d58 b83a 3635 4539
00000240: b344 0cb9 6e72 c03b bac3 f43b 8888 a83b
00000250: a23a 443b b37f ae3b 34d2 183b 96e2 97bb
00000260: d2c8 303a f804 a13b d8bb 1cbb 8a0b 703a
00000270: aa96 933b b948 083c 2cdc af3b 4ad9 9a3b
00000280: 0d5a 063c dec4 4abb 62d1 adbb b579 093b
00000290: 660a bd3a 36cb e43b d496 dcbb acbf c0ba
000002a0: b8fe 7b3b c8c1 afba acf1 1b3a 5771 993b
000002b0: 42e2 013c ac2d 34bb 1b0d c839 6ccf 45b9
000002c0: 24d7 1f3b e40c af3b a116 763b 7e69 c83b
000002d0: d27e 2c3c f496 b4b9 dcd4 82ba d059 043c
000002e0: 0f13 883b 683b 5739 321b 083c b8b0 053c
000002f0: 4cef a4ba 2787 453b d0a6 8e3b 7e7c a73b
00000300: 4947 bb3b f6ee 353a 441a 04bb f27c 1a3c
00000310: 8772 dc3b d630 dc3b 3cd1 66ba 1b2d 213c
00000320: 5d20 103b 2103 743b 30db 1c3b a990 f43b
00000330: e189 1d3b f69e 083b 0763 e83a 2208 8b3b
00000340: 58c1 e8b7 cb57 32ba d6d2 993b b222 9d3b
00000350: 7aa6 5abb 7720 32bb 3d19 05bb fd76 193c
00000360: 417f 323b a8da 923b 4704 433b 9ffb ff3b
00000370: a129 5f3b 7a80 0b3c 8b74 1c3c aa7e 74b9
00000380: 55ab 333b 102d d93a 8cf7 c83b 906e d9b8
00000390: 2f6e b13b 9f5b 22bc 4444 2f3b f91b f73b
000003a0: d40d 263c 3a51 8a3b 4877 723c df79 a53a
000003b0: fbcd 983b e016 df39 2252 6739 ca14 9f3b
000003c0: eba3 da3b af0e af3a 3d7a 593a 9528 bb3b
000003d0: a066 92ba c3fa 453b 13f6 243c cad0 bf3b
000003e0: 5ad2 e9ba 25c9 f4ba a7ef 5dbb d320 c03b
000003f0: 2e53 3db9 b15c 233b 6eda d6ba 960b c037

ablang_branch.1.weight f4 [256]
0.99214226 1.0157746 1.0028546 0.99837834 1.0105814 1.0127329 1.0228751 1.0055716
1.0125765 0.9926811 0.9984655 0.9971608 1.0014778 0.99994165 1.0178366 0.99017704
1.0144717 1.0113267 1.0155299 1.0087259 0.9966527 1.0135968 1.0114267 1.0281318
1.0115308 1.0128151 0.98922384 0.9971479 0.9792235 1.001742 1.0011759 1.0229678
1.0039705 1.0162529 0.9947606 0.98613644 0.9894996 1.0010186 0.9911793 1.0073943
1.0237083 0.99617326 1.0020527 0.9959804 1.0027719 0.98788804 1.0002247 0.99631625
1.0084907 0.982437 1.0083219 0.9953822 1.0029767 0.9915992 0.9971198 1.0181023
0.9999702 1.0201966 0.9999178 1.0007099 1.0047148 0.98215014 0.99930936 0.9888045
1.0063998 1.0054972 0.98627025 0.9942032 1.0147575 1.0103731 0.9913794 1.0080112
0.9895606 1.01402 0.98939246 0.99432063 0.9965428 0.9957755 1.0102202 0.97907335
1.002995 1.0143052 1.0039775 0.999425 1.0019068 1.0017604 0.9886955 0.99814045
1.0142157 1.0021513 0.9930079 1.012859 1.0062191 0.99431884 0.9835297 1.0237136
1.0064964 1.017681 1.0127971 1.0024117 1.0022113 1.0135801 0.9980745 1.007083
0.9987589 1.002651 1.0045215 1.0129496 1.0046039 0.9965801 0.99718165 0.98795915
1.0029527 0.9957647 0.99537873 1.0097922 1.004853 1.0000558 0.99046606 1.0092851
1.0034525 1.0180345 1.01149 1.0125164 1.0241346 0.999192 0.9968821 1.0126382
1.019495 1.0089623 1.0098968 1.0003574 1.0367932 1.0033898 1.0036794 0.99663705
0.9971902 1.0113798 0.99845207 0.9852058 0.99112916 0.97903776 1.0018632 1.0120299
0.99450547 1.0029341 1.0008056 0.99475026 0.97375065 1.0081502 0.9914374 0.98852813
0.9953148 0.9974808 1.000162 1.0071126 1.0003698 1.0072845 1.0126079 1.0014622
1.0172517 1.0080206 1.0005137 1.0045955 1.0091443 1.0081872 0.9935807 1.003188
1.0022385 1.0035963 0.9890259 1.0177265 1.0038291 0.9916428 1.0012419 0.9975552
1.000368 1.0227013 1.0076413 1.005576 1.0113529 0.99358106 0.9948781 0.98610955
1.005764 1.0076898 1.0095531 1.0085096 0.98421526 1.0267442 1.0016198 1.001343
1.0047468 0.9972882 1.0084404 1.0112386 1.003246 0.99686027 0.9875252 1.0063199
0.9975198 1.0071925 1.0226961 1.0232208 0.9931006 0.99713904 1.0052015 0.99852365
0.99326056 1.0144315 0.9923031 1.0005147 0.9941197 1.0004209 0.9970619 0.9928183
0.9941075 0.99668723 1.041867 1.0182064 0.9966816 1.0172783 1.018983 0.9918176
0.9993569 0.9825698 0.9883529 0.9868408 1.00475 0.99196607 0.9883336 1.0037552
1.0156065 1.0031815 1.0045277 1.0106618 1.0163213 1.0040549 1.0174097 1.0141983
1.0009371 1.0081224 1.0067214 1.0006741 1.0037491 1.0083845 1.005185 1.0099396
0.9758754 1.0018415 0.98570025 0.9959929 0.990341 0.9954029 0.99744916 1.0031437
00000000: 09fd 7d3f e704 823f 8a5d 803f b995 7f3f
00000010: bb5a 813f 3ba1 813f 92ed 823f 92b6 803f
00000020: 1b9c 813f 5920 7e3f 6f9b 7f3f ee45 7f3f
00000030: 6d30 803f 2dfc 7f3f 7848 823f 3e7c 7d3f
00000040: 35da 813f 2773 813f e2fc 813f ee1d 813f
00000050: a224 7f3f 8abd 813f 6e76 813f d399 833f
00000060: d779 813f eda3 813f c63d 7d3f 1645 7f3f
00000070: 64ae 7a3f 1539 803f 8826 803f 9cf0 823f
00000080: 1b82 803f 9314 823f a1a8 7e3f 7073 7c3f
00000090: d94f 7d3f 6121 803f edbd 7d3f 4cf2 803f
000000a0: e008 833f 3605 7f3f 4343 803f 92f8 7e3f
000000b0: d45a 803f 3be6 7c3f 5d07 803f 950e 7f3f
000000c0: 3916 813f fe80 7b3f b110 813f 5ed1 7e3f
000000d0: 8a61 803f 72d9 7d3f 3e43 7f3f 2d51 823f
000000e0: 0cfe 7f3f cd95 823f 9dfa 7f3f 4317 803f
000000f0: 7f9a 803f 316e 7b3f bdd2 7f3f 4b22 7d3f
00000100: b5d1 803f 22b4 803f 357c 7c3f 1a84 7e3f
00000110: 93e3 813f e853 813f 0acb 7d3f 8306 813f
00000120: d853 7d3f 68cb 813f d348 7d3f cc8b 7e3f
00000130: 6e1d 7f3f 25eb 7e3f e54e 813f 8da4 7a3f
00000140: 2462 803f c1d4 813f 5682 803f 51da 7f3f
00000150: 7b3e 803f af39 803f 261b 7d3f 2286 7f3f
00000160: d2d1 813f 7e46 803f c435 7e3f 5da5 813f
00000170: cacb 803f ae8b 7e3f 9ac8 7b3f 0c09 833f
00000180: e0d4 803f 5f43 823f 56a3 813f 074f 803f
00000190: 7648 803f febc 813f cf81 7f3f 19e8 803f
000001a0: aaae 7f3f de56 803f 2994 803f 55a8 813f
000001b0: dc96 803f e01f 7f3f 4c47 7f3f e4ea 7c3f
000001c0: c160 803f 6fea 7e3f 24d1 7e3f df40 813f
000001d0: 069f 803f d401 803f 2f8f 7d3f 4130 813f
000001e0: 2271 803f f44e 823f 8178 813f 239a 813f
000001f0: d816 833f 0ccb 7f3f aa33 7f3f 219e 813f
00000200: d07e 823f ad25 813f 4c44 813f b60b 803f
00000210: a4b5 843f 146f 803f 9178 803f 9b23 7f3f
00000220: db47 7f3f e574 813f 8e9a 7f3f 7336 7c3f
00000230: a4ba 7d3f 38a2 7a3f 0e3d 803f 328a 813f
00000240: e997 7e3f 2560 803f 661a 803f f4a7 7e3f
00000250: b947 793f 110b 813f d7ce 7d3f 2e10 7d3f
00000260: f3cc 7e3f e75a 7f3f 4f05 803f 11e9 803f
00000270: 1e0c 803f b3ee 803f 239d 813f ea2f 803f
00000280: 4e35 823f d206 813f d510 803f 9696 803f
00000290: a42b 813f 470c 813f 4e5b 7e3f 7768 803f
000002a0: 5a49 803f d875 803f cd30 7d3f dd44 823f
000002b0: 797d 803f 4ddc 7d3f b228 803f c75f 7f3f
000002c0: 0f0c 803f e0e7 823f 64fa 803f b7b6 803f
000002d0: 0374 813f 545b 7e3f 55b0 7e3f ad71 7c3f
000002e0: e0bc 803f fbfb 803f 0939 813f d816 813f
000002f0: 88f5 7b3f 5b6c 833f 1435 803f 022c 803f
00000300: 8b9b 803f 484e 7f3f 9314 813f 4470 813f
00000310: 5d6a 803f 3c32 7f3f 74ce 7c3f 17cf 803f
00000320: 755d 7f3f afeb 803f b5e7 823f e6f8 823f
00000330: d73b 7e3f 8144 7f3f 71aa 803f 3f9f 7f3f
00000340: 5346 7e3f e4d8 813f 9307 7e3f de10 803f
00000350: a17e 7e3f cb0d 803f 733f 7f3f 5729 7e3f
00000360: d47d 7e3f e526 7f3f e65b 853f 9654 823f
00000370: 8626 7f3f 2d36 823f 096e 823f c2e7 7d3f
00000380: dbd5 7f3f b289 7b3f b204 7d3f 99a1 7c3f
00000390: a69b 803f 7df1 7d3f 6e03 7d3f 0d7b 803f
000003a0: 65ff 813f 4068 803f 5d94 803f 5e5d 813f
000003b0: d116 823f df84 803f 7b3a 823f 40d1 813f
000003c0: b51e 803f 280a 813f 3fdc 803f 1716 803f
000003d0: da7a 803f be12 813f e7a9 803f b345 813f
000003e0: f8d2 793f 583c 803f da56 7c3f 64f9 7e3f
000003f0: fd86 7d3f b9d2 7e3f d458 7f3f 0367 803f

ablang_branch.1.bias f4 [256]
-0.0034713468 -0.017127264 0.0008468168 -0.0011553443 -0.011532879 -0.00261812 -0.0024664938 0.0012818862
0.00014346708 -0.0052359337 -0.003887907 -0.0013072086 -0.00071376964 0.00016517927 -0.022621358 0.00978326
-0.014188323 0.0030173056 0.0020858403 0.0017000013 0.0060954443 0.0020847574 -0.0007674862 -0.029187307
-0.00023206291 -0.006936853 -0.010452709 -0.0026964396 -0.013499977 0.00832279 -0.0055006943 0.0007441972
0.00052858616 0.0004095982 -0.0020968767 -0.0043051117 -0.005630239 -0.0011363532 -0.0038613905 0.00050754717
-0.00025750813 0.006930253 -0.015855368 -0.0042997664 -0.0018536544 -0.005153399 -0.0028332483 -0.008575344
-0.015159584 -0.008933422 -0.0064467937 -0.004579749 -0.00045060806 -0.008770188 -0.005370077 -0.0019193288
-0.0059144236 0.005376041 -0.0038900985 -0.0069109183 -0.0012318621 -0.010108601 -0.0021464932 -0.0038865595
-0.0047583096 0.0016675909 -0.01616234 -0.0040798327 0.005508415 0.0033667588 -0.0019984092 -0.011477158
-0.0005025669 -0.00034883872 -0.008280042 -0.00066976284 -0.00101632 -0.0037400268 -0.00075923576 -0.0046235663
-0.0011927604 -0.0013248664 -0.00094281795 -0.005513666 -0.0012037235 -0.0047455477 -0.0062283073 -0.0015371833
0.009055126 -0.0011187483 -0.01096457 -0.006491608 -0.004890973 -0.0005500815 -0.0047435896 -0.021083139
-0.020289132 0.0022395917 -0.015123433 -0.013357962 -0.004814605 0.0013646962 -0.0037953851 -0.010738384
-0.0166901 -0.0030047405 -0.008578325 -0.00016322729 0.0018611051 -0.0049890885 -0.0004184963 -0.013444121
-0.01275944 -0.0017134513 -0.00039859733 -0.001298335 -0.009797112 -0.008135908 -0.009890429 -0.0032783502
0.00023759007 0.0035217348 -0.016427277 0.00593594 -0.0073647494 -0.019855632 -0.01373941 -0.016360655
-0.013897283 -0.01842284 -0.0061289137 -0.0032503319 -0.0011014318 0.0033435982 -0.0032292583 -0.0017850045
-0.0038659521 0.0011763031 0.00071248726 -0.002418321 -0.0009034544 -0.009841626 -0.0025935082 -0.0017515622
-0.0031388267 -0.005639912 0.0010924916 -0.015122583 -0.008106585 0.0024512673 -0.002820104 -0.016764231
-0.004447628 0.0008507941 -0.0126168365 -0.0022449172 0.00040367234 -0.020023638 -0.021015342 -0.00040100567
0.003728014 -0.004348854 -0.013713354 -0.000841716 -0.015430628 -0.011579238 -0.009470702 -0.019253116
0.00016265686 -0.0036608267 -0.0054341215 0.0028348619 -0.010607496 -0.0052342624 -0.0053183795 -0.005461634
-0.0018936341 -0.0037100567 -0.006797009 -0.001708033 0.004060118 -0.012280194 -0.003351992 -0.0072831945
0.0007878813 -0.00078613835 -0.015960533 -0.0025765756 -0.005620132 -0.025867933 -0.0011933069 -0.00076690206
0.0011106754 0.0012901439 -0.0060586487 0.0055869357 0.001392729 -0.0037523913 -0.003151161 -0.0082206465
-0.001372233 -0.0007752516 -0.00014063156 0.004597566 -0.0059023285 -0.005574854 -0.0009781148 -0.00029134747
-0.004525359 -0.003362121 -0.0022370405 0.0012183527 -0.00753073 -0.0045759343 -0.00549824 -0.0026364739
-0.0061933585 0.00063213665 -0.014156524 0.0026896293 -0.007717855 -0.015408997 0.005184544 -0.0050525973
-0.017427968 -0.0062171444 -0.006048478 -0.004520087 0.0007137103 -0.01775589 0.00032413632 0.004748587
-0.0016537041 0.0007223562 0.007003421 -0.004309927 -0.014135412 -0.0006399498 -0.0018166126 0.0019922585
0.0036053064 -0.00047102087 -0.017781291 0.0014426162 -0.010618435 0.0020497208 0.00816633 -0.01711636
-0.00967071 -0.012683379 -0.014521146 -0.007410109 -0.007190186 -0.0014147523 -0.004338001 -0.0049148025
00000000: 897f 63bb 7a4e 8cbc eafc 5d3a ec6e 97ba
00000010: 67f4 3cbc c494 2bbb e6a4 21bb f704 a83a
00000020: a76f 1639 3292 abbb 41cc 7ebb a456 abba
00000030: 451c 3bba f933 2d39 6d50 b9bc f749 203c
00000040: 2476 68bc fdbd 453b 98b2 083b 94d2 de3a
00000050: 4bbc c73b 6da0 083b 2131 49ba 381a efbc
00000060: ea55 73b9 8a4e e3bb d741 2bbc c0b6 30bb
00000070: 022f 5dbc 505c 083c 2b3f b4bb 3b16 433a
00000080: d190 0a3a 57bf d639 c16b 09bb e511 8dbb
00000090: de7d b8bb b0f1 94ba 620f 7dbb ea0c 053a
000000a0: 2802 87b9 2d17 e33b 1ee3 81bc 0ee5 8cbb
000000b0: 52f6 f2ba d8dd a8bb 05ae 39bb 9a7f 0cbc
000000c0: e75f 78bc 7d5d 12bc a03f d3bb b811 96bb
000000d0: 973f ecb9 d6b0 0fbc 79f7 afbb fd91 fbba
000000e0: c8cd c1bb 8029 b03b 06f1 7ebb fc74 e2bb
000000f0: 6f76 a1ba 8c9e 25bc 2eac 0cbb a6b5 7ebb
00000100: 98eb 9bbb 1193 da3a e266 84bc 1eb0 85bb
00000110: ef7f b43b d7a4 5c3b bef7 02bb b10a 3cbc
00000120: b2be 03ba 57e4 b6b9 03a9 07bc 0693 2fba
00000130: 0a36 85ba 3d1b 75bb 7307 47ba 4981 97bb
00000140: 6656 9cba 24a7 adba 7127 77ba fcab b4bb
00000150: 42c6 9dba 8a80 9bbb d416 ccbb 507b c9ba
00000160: f45b 143c f7a2 92ba bda4 33bc 8eb7 d4bb
00000170: 7544 a0bb 5833 10ba 1d70 9bbb 8cb6 acbc
00000180: 6535 a6bc 1dc6 123b 47c8 77bc 5adb 5abc
00000190: d6c3 9dbb 9bdf b23a ffbb 78bb 0cf0 2fbc
000001a0: adb9 88bc 2eeb 44bb 1a8c 0cbc fe27 2bb9
000001b0: 53f0 f33a 827b a3bb 9f69 dbb9 bb44 5cbc
000001c0: f80c 51bc e395 e0ba d4fa d0b9 e52c aaba
000001d0: 1184 20bc 794c 05bc 770b 22bc 97d9 56bb
000001e0: 9921 7939 e8cc 663b 7f92 86bc 4682 c23b
000001f0: ff53 f1bb 47a8 a2bc 431b 61bc c806 86bc
00000200: 6eb1 63bc 7feb 96bc 0ed5 c8bb 8503 55bb
00000210: eb5d 90ba 4520 5b3b f7a1 53bb d0f6 e9ba
00000220: ea5b 7dbb 2f2e 9a3a 36c6 3a3a b27c 1ebb
00000230: ccd5 6cba c53e 21bc d9f7 29bb ad94 e5ba
00000240: c6b4 4dbb 03cf b8bb ef31 8f3a b6c4 77bc
00000250: 7bd1 04bc 71a5 203b 7ed1 38bb 2455 89bc
00000260: 68bd 91bb d307 5f3a d9b6 4ebc 761f 13bb
00000270: fca3 d339 9d08 a4bc 5e28 acbc 123e d2b9
00000280: b251 743b d580 8ebb faad 60bc 9ba6 5cba
00000290: bfd0 7cbc d8b6 3dbc 012b 1bbc b6b8 9dbc
000002a0: de8e 2a39 7bea 6fbb b710 b2bb 17c9 393b
000002b0: 10cb 2dbc 2d84 abbb cd45 aebb 82f7 b2bb
000002c0: d133 f8ba 6c24 73bb 72b9 debb 14e0 dfba
000002d0: bd0a 853b de32 49bc 18ad 5bbb dda7 eebb
000002e0: d289 4e3a da14 4eba aabf 82bc c4db 28bb
000002f0: 1629 b8bb fde8 d3bc bc68 9cba ed09 49ba
00000300: 1594 913a 0c1a a93a a187 c6bb 9d12 b73b
00000310: 3b8c b63a aeea 75bb b583 4ebb e4af 06bc
00000320: 80dc b3ba 413a 4bba 7f76 13b9 2ea7 963b
00000330: 5268 c1bb 44ad b6bb 1634 80ba ffbf 98b9
00000340: 7649 94bb 0857 5cbb 509b 12bb 22b1 9f3a
00000350: 58c4 f6bb b8f1 95bb 942a b4bb b1c8 2cbb
00000360: a8f1 cabb f9b5 253a c4f0 67bc 7e44 303b
00000370: 0fe6 fcbb 0576 7cbc 1be3 a93b 4290 a5bb
00000380: 19c5 8ebc 30b9 cbbb 5032 c6bb 3d1d 94bb
00000390: 4a18 3b3a cd74 91bc d7f0 a939 099a 9b3b
000003a0: 1ac1 d8ba 815c 3d3a f47c e53b 4a3a 8dbb
000003b0: 3798 67bc 4ec2 27ba 671b eeba 8d90 023b
000003c0: 0147 6c3b 5af3 f6b9 12aa 91bc 2b16 bd3a
000003d0: f2f8 2dbc 9c54 063b 12cc 053c 9c37 8cbc
000003e0: e671 1ebc f3cd 4fbc 1aea 6dbc 80d0 f2bb
000003f0: a79b ebbb 366f b9ba ca25 8ebb 5a0c a1bb

ablang_branch.4.weight f4 [128, 256]
-0.03166565 -0.11840505 0.05445989 0.037228215 -0.05922565 -0.12531044 0.0002982462 0.07611758
-0.100223824 -0.041986905 -0.042220555 -0.09171462 -0.076473236 0.08734678 0.010354607 -0.15873474
-0.072439656 -0.03947422 -0.051421903 0.027308904 -0.02115193 -0.004846065 0.02489874 0.004933293
-0.03164967 -0.037600722 -0.09362997 -0.03522838 -0.022273421 -0.027837457 -0.106512815 -0.003871824
-0.08523321 0.056579653 -0.0691818 -0.025476499 0.015090026 0.06500812 0.13935603 -0.003675179
0.09349435 -0.012792015 -0.042073328 -0.015085482 -0.029283982 -0.08614507 -0.16302958 0.03100231
-0.049351063 -0.05695101 0.0131194545 -0.014123886 0.057476323 0.15390937 0.13316855 0.004194792
0.03313147 -0.010601783 -0.068737194 -0.07361236 0.13346434 0.10980464 -0.027797967 -0.03842644
0.044543892 0.12509719 0.091400005 -0.038514927 0.033526853 -0.02986247 0.0831973 0.035625715
-0.054136075 -0.011201408 -0.044912126 -0.03194615 0.13130677 0.20301957 0.022921674 0.019119592
0.19438387 -0.19372267 -0.08690717 -0.016127896 0.16323349 0.040793616 0.025842994 0.0074918233
-0.07633596 -0.0067253304 -0.14376828 0.09079462 -0.03818196 -0.010267669 -0.001046134 -0.080676146
-0.04498271 -0.030536976 -0.01883393 -0.10980568 0.08691792 -0.21434881 -0.012342452 -0.07041031
0.06291744 -0.097627714 -0.0058646267 -0.18051675 -0.032749172 0.02287607 -0.0067501115 0.024103625
0.0003440573 0.16052732 0.20098181 0.08384466 -0.05110657 -0.16316135 -0.063181624 0.111139335
0.032293916 0.060782753 0.03861315 0.083443716 0.06321536 -0.08148158 0.18776928 -0.013808884
0.00023531735 0.04667949 0.022147657 0.07893386 -0.06238726 -0.1499115 0.10401005 -0.009016512
-0.046783384 0.02917957 -0.02162177 -0.0483835 0.077676274 0.10500628 0.08019627 -0.10652989
-0.06310046 0.13352714 0.14669792 -0.18866763 -0.03140309 -0.061265837 0.06091946 -0.04912769
0.005304645 0.14166388 0.10650364 -0.00082996563 -0.09300638 0.009828885 -0.033742562 0.057935867
-0.15532301 0.012877497 -0.056854606 -0.11746422 -0.06464966 -0.093554154 0.068478346 0.05718405
0.027570255 -0.006534102 0.11551777 0.119020596 0.007526657 -0.014883508 -0.0058807093 -0.0029823883
-0.025850136 0.026565926 -0.01600952 -0.007629779 0.08581895 0.2024157 -0.028401027 -0.095374994
-0.12681729 -0.051446225 0.015614054 -0.08194599 -0.07212713 -0.018923935 -0.16544138 -0.17481942
0.06589182 0.06565891 0.0334671 0.1935265 0.1367797 0.1692243 0.0039441213 0.049255744
-0.10722115 -0.005023535 -0.00574283 -0.077972755 0.026092391 -0.12081715 -0.0018266153 -0.073688954
0.085496806 -0.12569277 -0.008953782 0.011030321 -0.022758096 0.09150977 -0.0682985 0.036320042
-0.015132555 -0.07375368 -0.15107536 -0.1303899 -0.031921837 0.20237035 -0.07182206 -0.029760519
0.0192191 -0.07125244 -0.016230041 0.13496469 0.04517859 0.04032385 0.029745998 -0.041232698
-0.05140614 -0.032269575 0.02679493 -0.044435084 -0.079569116 0.04973368 -0.012808085 -0.140954
-0.041568264 -0.031988047 0.115016215 0.03583791 0.14264743 0.017782925 -0.018243594 -0.09983677
-0.035482466 0.0603764 -0.10809605 -0.09716004 -0.053261902 -0.04142688 -0.022631854 -0.0705521
00000000: d7b3 01bd 597e f2bd 5511 5f3d 9d7c 183d
00000010: 9896 72bd 6151 00be ed5d 9c39 89e3 9b3d
00000020: 2642 cdbd 76fa 2bbd 76ef 2cbd e0d4 bbbd
00000030: 009e 9cbd dee2 b23d 5fa6 293c 5c8b 22be
00000040: 3e5b 94bd b8af 21bd c69f 52bd ecb6 df3c
00000050: d046 adbc bdcb 9ebb 71f8 cb3c 76a7 a13b
00000060: 16a3 01bd 3703 1abd 12c1 bfbd a24b 10bd
00000070: c076 b6bc 610b e4bc 6423 dabd 6dbe 7dbb
00000080: c08e aebd 11c0 673d 30af 8dbd 17b4 d0bc
00000090: 283c 773c fa22 853d 59b3 0e3e 46db 70bb
000000a0: f779 bf3d 9a95 51bc 1555 2cbd 1929 77bc
000000b0: f6e4 efbc d46c b0bd 3af1 26be 8ef8 fd3c
000000c0: 5724 4abd 7645 69bd fbf2 563c df67 67bc
000000d0: 4b6c 6b3d 6b9a 1d3e 565d 083e 7774 893b
000000e0: ddb4 073d 1ab3 2dbc 16c6 8cbd 14c2 96bd
000000f0: e0aa 083e 41e1 e03d 90b8 e3bc 0b65 1dbd
00000100: a873 363d 7a19 003e ed2f bb3d d4c1 1dbd
00000110: 7453 093d 24a2 f4bc 5963 aa3d 45ec 113d
00000120: cabd 5dbd 1c86 37bc c7f5 37bd f7d9 02bd
00000130: 4875 063e 5de4 4f3e 3cc6 bb3c b1a0 9c3c
00000140: 910c 473e 3c5f 46be 63fc b1bd a61e 84bc
00000150: ae26 273e 3517 273d b0b4 d33c f87d f53b
00000160: 0756 9cbd 2960 dcbb fe37 13be 88f2 b93d
00000170: b064 1cbd ba39 28bc 6f1e 89ba 8939 a5bd
00000180: ca3f 38bd ae28 fabc 9d49 9abc cde1 e0bd
00000190: 0602 b23d 417e 5bbe ff37 4abc 4833 90bd
000001a0: dcda 803d 0af1 c7bd 0e2c c0bb 62d9 38be
000001b0: ff23 06bd 9966 bb3c 0a30 ddbb f774 c53c
000001c0: 9762 b439 4661 243e 2dce 4d3e c0b6 ab3d
000001d0: 1f55 51bd c513 27be 5e65 81bd 059d e33d
000001e0: a046 043d 56f7 783d d328 1e3d 8ae4 aa3d
000001f0: 0e77 813d d1df a6bd 9746 403e a83e 62bc
00000200: 85bf 7639 fe32 3f3d 016f b53c 13a8 a13d
00000210: c989 7fbd 6682 19be 3903 d53d feb9 13bc
00000220: ef9f 3fbd fe09 ef3c 2320 b1bc c72d 46bd
00000230: bd14 9f3d 880d d73d f13d a43d 582c dabd
00000240: d03a 81bd 57bb 083e fb37 163e 1632 41be
00000250: 87a0 00bd e3f1 7abd af86 793d 1e3a 49bd
00000260: 96d2 ad3b 5610 113e 951e da3d 0d92 59ba
00000270: 217a bebd 5509 213c a435 0abd 294e 6d3d
00000280: ff0c 1fbe 23fc 523c 60e0 68bd 1591 f0bd
00000290: 0a67 84bd 5299 bfbd 603e 8c3d d339 6a3d
000002a0: 04db e13c 051c d6bb 9594 ec3d 12c1 f33d
000002b0: 2da2 f63b f5d9 73bc f7b2 c0bb 2c74 43bb
000002c0: aac3 d3bc c9a0 d93c 6626 83bc 3a03 fabb
000002d0: d8c1 af3d 1046 4f3e 45a9 e8bc f753 c3bd
000002e0: 64dc 01be 47b9 52bd 17d2 7f3c 4dd3 a7bd
000002f0: 64b7 93bd 5e06 9bbc 7769 29be dd03 33be
00000300: 4af2 863d 2e78 863d cc14 093d d02b 463e
00000310: fa0f 0c3e 2349 2d3e b03d 813b 64c0 493d
00000320: c396 dbbd 779c a4bb 5a2e bcbb 2eb0 9fbd
00000330: b6bf d53c fb6e f7bd 0a6b efba 3cea 96bd
00000340: f318 af3d 9bb5 00be e2b2 12bc 85b8 343c
00000350: 306f babc 7969 bb3d 15e0 8bbd 53c4 143d
00000360: 89ee 77bc 2b0c 97bd 80b3 1abe ee84 05be
00000370: 79c0 02bd 2c3a 4f3e 7217 93bd 55cc f3bc
00000380: 6071 9d3c cdec 91bd ddf4 84bc 2f34 0a3e
00000390: 2f0d 393d 9f2a 253d e1ad f33c 9ee3 28bd
000003a0: 3f8f 52bd 1a2d 04bd 0b81 db3c 9001 36bd
000003b0: 22f5 a2bd 8bb5 4b3d 01d9 51bc 3f56 10be
000003c0: 7c43 2abd e605 03bd 9f8d eb3d c6ca 123d
000003d0: 2b12 123e 7fad 913c 9773 95bc 3877 ccbd
000003e0: 1056 11bd 3e4d 773d 7661 ddbd d8fb c6bd
000003f0: 2729 5abd 3baf 29bd 7066 b9bc 9f7d 90bd

ablang_branch.4.bias f4 [128]
0.0033599767 -0.013173694 -0.012756371 -0.0025006705 -0.0093147075 0.012268797 -0.013506579 -0.025484439
-0.0034654597 -0.003490583 -0.010421106 0.0027817122 -0.021088146 0.0051018223 0.00040950777 0.008973857
-0.0054145125 0.012666558 -0.009057117 0.0070320354 0.0035927652 -0.012446425 -0.007490225 0.014954914
-0.0054306486 0.003414451 0.012878695 -0.0028039683 -0.02827154 -0.008173872 -0.00437004 -0.00062900764
0.008657112 -0.0067193545 0.0021128743 0.004543598 -0.0003217715 0.0049354746 0.0022281923 -0.0017702406
-0.00968915 0.009308654 -0.0068879733 0.014495824 0.016591748 -0.025617413 -0.005775952 -0.0033064936
0.000499458 -0.008894683 -0.001278107 -0.024384076 -0.0023132544 -0.0013305745 0.0019009497 -0.001785687
0.010196024 0.022405569 -0.017546806 0.003987256 -0.0026535662 -0.0009932519 -0.004057874 -0.0044035474
0.004575704 -0.011342279 -0.0017174598 -0.011864859 -0.01135958 -0.008547096 0.006891157 -0.0024951093
0.0019423785 0.005788089 -0.007945836 -0.0019821178 0.007041598 -0.005971724 -0.0049461224 0.0035860308
-0.01450649 -0.00357083 -0.005034456 -0.0040178867 -0.0032733977 -0.021349618 -0.0011179897 0.0008448375
0.00024339584 -0.009457007 0.0075081605 0.008818093 0.0037054047 0.0013804738 0.01481242 -0.0036691215
0.005238053 0.003679912 -0.00014628956 0.0026413042 -0.010471714 -0.0026279488 0.0015786854 -0.0008700096
0.008008889 -0.0061408 0.0069654393 -0.014820135 0.006961173 -0.01885677 -0.009647985 -0.0017552411
-0.013664352 -0.017919488 0.023964342 -0.004620098 0.0063685444 -0.02278691 0.007265552 0.0012610474
-0.006367171 0.0006173298 -0.005629919 -0.0010263851 -0.015192023 -0.011031853 -0.0033354945 0.0017113972
00000000: 0e33 5c3b 7ad6 57bc 1900 51bc 4ae2 23bb
00000010: b79c 18bc 1003 493c b34a 5dbc bec4 d0bc
00000020: c41c 63bb 44c2 64bb 49bd 2abc 634d 363b
00000030: 0cc1 acbc 302d a73b 34b3 d639 1607 133c
00000040: 396c b1bb 6587 4f3c 4d64 14bc fd6c e63b
00000050: 9974 6b3b 17ec 4bbc 9070 f5bb 7505 753c
00000060: 95f3 b1bb fbc4 5f3b 2901 533c c8c2 37bb
00000070: b799 e7bc b4eb 05bc 8d32 8fbb fde3 24ba
00000080: 8fd6 0d3c 082e dcbb 2678 0a3b 76e2 943b
00000090: 71b3 a8b9 c3b9 a13b dd06 123b 6b07 e8ba
000000a0: 3ebf 1ebc 5383 183c 82b4 e1bb e57f 6d3c
000000b0: 6beb 873c 9cdb d1bc 3244 bdbb c2b1 58bb
000000c0: 0fee 023a 01bb 11bc 2886 a7ba 1dc1 c7bc
000000d0: f899 17bb ac66 aeba 4a29 f93a b70d eaba
000000e0: 390d 273c e28b b73c 52be 8fbc 87a7 823b
000000f0: 74e7 2dbb 0130 82ba eaf7 84bb a24b 90bb
00000100: caef 953b f7d4 39bc 631c e1ba d364 42bc
00000110: 881d 3abc 1e09 0cbc 37cf e13b fd84 23bb
00000120: 6897 fe3a 02aa bd3b 402f 02bc 6be6 01bb
00000130: 35bd e63b 74ae c3bb 1513 a2bb 9d03 6b3b
00000140: a1ac 6dbc 9604 6abb 14f8 a4bb 7aa8 83bb
00000150: 8086 56bb 65e5 aebc 8289 92ba 1678 5d3a
00000160: 1338 7f39 90f1 1abc 0407 f63b c379 103c
00000170: 60d6 723b 04f1 b43a cbaf 723c a575 70bb
00000180: f9a3 ab3b ae2a 713b 4e65 19b9 bb19 2d3b
00000190: 8d91 2bbc aa39 2cbb e4eb ce3a 5b11 64ba
000001a0: b737 033c c438 c9bb 573e e43b 27d0 72bc
000001b0: 8d1a e43b 8379 9abc 9512 1ebc 1e10 e6ba
000001c0: 72e0 5fbc e4cb 92bc de50 c43c 3164 97bb
000001d0: 39af d03b 9dab babc de13 ee3b bb49 a53a
000001e0: b4a3 d0bb 4dd4 213a 2f7b b8bb c587 86ba
000001f0: f6e7 78bc f2be 34bc 5098 5abb f650 e03a

ablang_branch.5.weight f4 [128]
0.98923856 1.0073184 1.0004925 0.99933 1.0052922 1.0090327 1.006061 1.0112987
0.9697911 0.9978506 0.9820208 0.97569174 0.9827988 1.00277 1.0046147 0.985375
0.98874277 1.0074658 0.99162215 1.0110147 1.0026098 0.9910401 0.99779373 1.0186195
0.98891276 0.9919016 0.9989013 0.99559903 0.9931179 0.99041724 0.9775368 0.99168557
0.9763269 0.99641365 0.98362553 0.97411144 1.0005203 1.0045329 1.0044309 0.9897678
0.98179644 0.9894465 0.98985815 1.0259203 1.0247492 1.0103595 0.9801762 0.99809796
1.0021489 0.98796296 0.99660945 0.9946148 0.9809258 0.96534467 0.99326026 1.003368
0.9998107 1.0235229 0.9908318 0.996161 1.0239407 1.0034367 0.9985081 0.9898976
1.0006227 1.0009018 0.99401814 0.9874622 0.992098 0.9813002 0.9879578 0.99258107
0.99235314 1.0113356 0.9923317 0.9865749 1.007215 0.983181 0.9957982 0.98762524
0.9720978 0.9941702 0.98788667 0.9927184 1.0014971 0.9807681 1.0003151 0.99721193
0.98217 0.9871542 1.0097969 1.0072993 0.99827546 0.97507733 1.0234351 0.9905657
0.9887217 0.9928882 0.99923146 0.9928529 0.98158014 1.0028443 0.9911862 1.0108109
0.9932624 1.0116445 1.0027804 0.9884802 1.0154663 0.9887228 0.9891239 0.99178135
1.006248 0.9974216 1.0399773 0.99363965 0.99298435 0.9892526 1.00513 0.9950186
0.995412 0.99679977 0.9851434 0.99014425 0.9909388 1.0035903 0.97808504 0.98963284
00000000: bd3e 7d3f cfef 803f 2310 803f 17d4 7f3f
00000010: 6aad 803f fc27 813f 9bc6 803f 3c72 813f
00000020: 3b44 783f 2373 7f3f b765 7b3f efc6 793f
00000030: b498 7b3f c45a 803f 3797 803f 8941 7c3f
00000040: 3f1e 7d3f a4f4 803f f3da 7d3f ee68 813f
00000050: 8555 803f ceb4 7d3f 696f 7f3f 2062 823f
00000060: 6329 7d3f 43ed 7d3f ffb7 7f3f 94df 7e3f
00000070: fa3c 7e3f fc8b 7d3f da3f 7a3f 1bdf 7d3f
00000080: 8ff0 793f f714 7f3f e2ce 7b3f 5e5f 793f
00000090: 0d11 803f 8994 803f 3191 803f 6c61 7d3f
000000a0: 0357 7b3f 5e4c 7d3f 5867 7d3f 5b51 833f
000000b0: fb2a 833f 7653 813f d4ec 7a3f 5983 7f3f
000000c0: 6a46 803f 24eb 7c3f cc21 7f3f 139f 7e3f
000000d0: f41d 7b3f d420 773f 4e46 7e3f 5d6e 803f
000000e0: 98f3 7f3f cc02 833f 27a7 7d3f 6804 7f3f
000000f0: 7d10 833f 9d70 803f 3a9e 7f3f ee69 7d3f
00000100: 6814 803f 8d1d 803f f977 7e3f 53ca 7c3f
00000110: 22fa 7d3f 7d36 7b3f cdea 7c3f cb19 7e3f
00000120: db0a 7e3f 7273 813f 7309 7e3f 2c90 7c3f
00000130: 6cec 803f c0b1 7b3f a1ec 7e3f 02d5 7c3f
00000140: 67db 783f f081 7e3f 24e6 7c3f cb22 7e3f
00000150: 0f31 803f 9e13 7b3f 530a 803f 4849 7f3f
00000160: 7e6f 7b3f 23b6 7c3f 0641 813f 2fef 803f
00000170: fb8e 7f3f ab9e 793f ecff 823f b795 7d3f
00000180: de1c 7d3f ec2d 7e3f a2cd 7f3f 9c2b 7e3f
00000190: d648 7b3f 345d 803f 61be 7d3f 4062 813f
000001a0: 7246 7e3f 917d 813f 1c5b 803f 0a0d 7d3f
000001b0: cdfa 813f f01c 7d3f 3937 7d3f 62e5 7d3f
000001c0: bccc 803f 0657 7f3f fa1d 853f 2b5f 7e3f
000001d0: 3934 7e3f a93f 7d3f 1aa8 803f 8ab9 7e3f
000001e0: 52d3 7e3f 452e 7f3f 5c32 7c3f 187a 7d3f
000001f0: 2aae 7d3f a675 803f c863 7a3f 9458 7d3f

ablang_branch.5.bias f4 [128]
0.004161197 -0.010574744 -0.015252674 -0.0034551225 -0.013468165 0.012764353 -0.012965285 -0.02546369
-0.0047724396 -0.002442682 -0.009842016 0.004320027 -0.022561591 0.0073909448 0.00089136575 0.01478968
-0.004720115 0.011085205 -0.009824695 0.00616335 0.0025458448 -0.013257928 -0.008766228 0.015428946
-0.005262609 0.0033242356 0.015636733 -0.004002515 -0.024762433 -0.0073939147 -0.003606422 -0.00063891633
0.010899141 -0.0034694923 0.00035790753 0.008883559 -0.0011833487 0.0037328685 0.0007476277 -0.002180907
-0.010654258 0.008132576 -0.009178293 0.018601455 0.017875327 -0.017809313 0.0019273971 -0.0035157085
0.00087018916 -0.008192718 -0.0019302964 -0.022342721 -0.0003168365 0.00031586125 0.0024253323 -0.0006185424
0.009921602 0.02520014 -0.018871093 0.004289812 -0.0023343938 -0.0032369772 -0.0042760666 -0.0092765065
0.0067962757 -0.014543384 -0.0029135055 -0.014663854 -0.0049825944 -0.008662722 0.0143099995 -0.0035691357
0.007283123 0.006002004 -0.0031136896 -0.00398179 0.006996783 -0.0053569186 -0.0053695375 0.0045391098
-0.012872308 -0.0041391193 0.00024570758 -0.0036113586 -0.0061168727 -0.02276374 0.00071987737 0.0008901728
0.0019281978 -0.006799594 0.006416904 0.008914551 0.0032354388 0.0072697084 0.018607851 -0.0039957813
0.0075487397 0.003657347 0.00036659953 0.0010449054 -0.0114104245 -0.001991981 0.0040860707 -0.0004419867
0.008383322 -0.008632598 0.0059835454 -0.01731393 0.008983705 -0.015801048 -0.010735621 -0.0023793166
-0.01287374 -0.019054262 0.027923599 -0.0066800015 0.010158685 -0.014127494 0.0070189512 0.0028125057
-0.008422283 0.0014518843 -0.0023011158 0.0005821405 -0.016518312 -0.010677176 -0.007968932 0.0022949171
00000000: a75a 883b b141 2dbc 5ae6 79bc 566f 62bb
00000010: 94a9 5cbc 9421 513c 596c 54bc 3a99 d0bc
00000020: 2062 9cbb 6715 20bb 6840 21bc 038f 8d3b
00000030: 16d3 b8bc bd2f f23b 8baa 693a 6a50 723c
00000040: 32ab 9abb b89e 353c c2f7 20bc edf5 c93b
00000050: 30d8 263b c837 59bc 3aa0 0fbc b1c9 7c3c
00000060: f771 acbb 6bdb 593b 9b18 803c 8827 83bb
00000070: 96da cabc a748 f2bb b959 6cbb f37c 27ba
00000080: 5092 323c 6c60 63bb 89a5 bb39 598c 113c
00000090: 981a 9bba 24a3 743b 72fc 433a 8ced 0ebb
000000a0: 328f 2ebc 7f3e 053c 8d60 16bc 1462 983c
000000b0: 476f 923c d6e4 91bc b7a0 fc3a cd67 66bb
000000c0: 681d 643a c03a 06bc 0002 fdba 1508 b7bc
000000d0: 131d a6b9 2e9a a539 53f2 1e3b ae25 22ba
000000e0: 378e 223c 8670 ce3c 8d97 9abc 8d91 8c3b
000000f0: a1fc 18bb 7723 54bb 3f1e 8cbb 7dfc 17bc
00000100: 4bb3 de3b 6047 6ebc 83f0 3ebb a940 70bc
00000110: 0845 a3bb 17ee 0dbc 7d74 6a3c 29e8 69bb
00000120: 44a7 ee3b 75ac c43b 0b0f 4cbb ad79 82bb
00000130: 4545 e53b 1789 afbb f2f2 afbb d0bc 943b
00000140: 5fe6 52bc 73a1 87bb 50d2 8039 8bac 6cbb
00000150: 0c70 c8bb 067b babc 27b6 3c3a 7c5a 693a
00000160: 95bb fc3a 21cf debb e444 d23b 560e 123c
00000170: a809 543b bc36 ee3b 7e6f 983c 0bef 82bb
00000180: 6b5b f73b 1ab0 6f3b 2834 c039 35f5 883a
00000190: caf2 3abc e58b 02bb 72e4 853b 73ba e7b9
000001a0: 335a 093c be6f 0dbc 9e11 c43b f1d5 8dbc
000001b0: 6430 133c 3371 81bc 75e4 2fbc 4fee 1bbb
000001c0: 61ec 52bc af17 9cbc 08c0 e43c eae3 dabb
000001d0: 9d70 263c 0177 67bc 3bff e53b 0452 383b
000001e0: 9efd 09bc 274d be3a 51ce 16bb ca9a 183a
000001f0: 6951 87bc 52ef 2ebc 2090 02bc 5266 163b

ablang_branch.7.weight f4 [64, 128]
-0.027329806 -0.19454452 -0.16579448 0.25023058 -0.18120702 0.07019637 -0.013902529 -0.01923732
-0.23065634 0.10482024 -0.022810051 0.066536784 0.016932216 0.1070742 0.026338097 0.14545287
-0.3761994 0.097455285 0.29452518 0.035593934 0.05777535 0.008104265 -0.18646199 0.16039917
0.031533085 -0.068708934 0.092443004 0.09839055 0.16848856 0.074330136 0.2519322 -0.023369623
0.16939813 0.09763958 0.026391348 0.0027679761 -0.12534857 0.020072486 0.14917706 0.046245504
-0.060564995 -0.14062251 -0.29368305 -0.056900557 0.10045355 -0.23746064 -0.099152565 -0.05358562
0.17467985 0.028386869 -0.060730625 -0.28773654 -0.08745388 0.13582453 -0.054497097 -0.085286744
-0.026732087 -0.29492763 0.086844094 0.24566294 -0.029621731 0.043463644 0.044550397 0.064380914
-0.009461148 -0.13022816 0.20139877 0.064731255 -0.10165774 0.22610047 0.12820342 0.17430897
0.06716122 -0.013138929 -0.18567999 0.045592308 0.17242296 -0.198629 0.11597036 -0.18787752
-0.058280967 -0.24064124 0.01575381 -0.069115095 0.03491963 0.13555391 0.12099383 0.09616582
0.09424091 -0.0013358397 0.08516652 0.02533132 -0.07404338 0.08116518 -0.14971872 -0.25574788
0.08280702 -0.024748042 -0.18269989 0.10233288 0.10417615 0.06105504 -0.14805935 0.2418106
0.15096161 -0.16762358 0.039810404 0.14579459 -0.008092504 -0.048235692 0.031114426 0.07043801
0.12678605 0.097521484 -0.020471055 -0.17097047 0.0045307167 -0.24775651 -0.31491533 -0.119454935
0.114847675 0.08500993 -0.09678555 -0.09177534 -0.08407776 -0.02568225 -0.019615743 -0.09013569
-0.21132186 0.05652539 -0.07380808 0.011849189 0.011833445 0.14238831 -0.078578606 0.11231839
-0.01382281 -0.009848231 -0.01479611 -0.03069617 -0.066698715 -0.16358326 -0.2624122 0.00831696
0.053578906 -0.16536602 0.022684554 -0.07391917 -0.011216124 -0.028563619 0.07673567 -0.05820384
0.024562025 -0.13840319 -0.007236145 -0.013901346 -0.1773797 0.06631341 0.11738842 -0.004201381
0.028391335 -0.074555054 -0.061312925 0.049780883 0.029495083 -0.107376635 -0.07348108 0.019295359
0.13035275 -0.07926077 -0.21582341 -0.03661959 -0.23374118 0.080705136 0.16912006 0.060019504
0.03476512 -0.03316948 0.2335072 0.00023103821 0.22979082 0.06819642 -0.15323405 0.11801438
0.080254704 0.106900945 0.19326372 0.2629655 -0.039525717 0.37691537 -0.049922287 0.007917967
0.113925464 0.002334503 0.04618892 0.10713229 0.09771606 -0.009214341 -0.008664539 0.0029053094
0.06777479 -0.08896506 -0.015938705 0.10071324 -0.010632367 0.039739817 -0.32093042 -0.066363536
-0.06829733 0.06319022 0.0025385031 0.17304775 -0.07636871 -0.003986687 -0.06318617 0.13276331
0.019670758 -0.1200485 -0.049015984 -0.061685022 0.0018588768 -0.116633296 -0.05563732 0.037423145
-0.08884939 -0.062099233 0.062277976 0.010362713 0.025792459 0.18599454 -0.038356893 -0.13859063
0.1340423 0.071462914 -0.10850785 0.23554035 0.15506113 0.02555949 0.065977186 0.12728415
0.014751659 0.16078097 -0.062491152 -0.18057752 0.08415831 -0.015930379 -0.0971507 0.013075483
0.13142897 0.026319385 0.02668638 0.06076671 -0.021006947 0.09630933 0.10081052 0.3033955
00000000: c2e2 dfbc ae36 47be 07c6 29be 391e 803e
00000010: 558e 39be 1dc3 8f3d 6fc7 63bc 9697 9dbc
00000020: 2d31 6cbe feab d63d 25dc babc 7044 883d
00000030: 6eb5 8a3c b849 db3d fec2 d73c 99f1 143e
00000040: 359d c0be a396 c73d 01cc 963e f2ca 113d
00000050: d8a5 6c3d c0c7 043c e4ef 3ebe ae3f 243e
00000060: d628 013d 45b7 8cbd c252 bd3d fc80 c93d
00000070: 4488 2c3e 663a 983d 42fd 803e a771 bfbc
00000080: b476 2d3e 43f7 c73d ab32 d83c ef66 353b
00000090: 605b 00be 0e6f a43c dfc1 183e ed6b 3d3d
000000a0: 0013 78bd 59ff 0fbe a05d 96be 8f10 69bd
000000b0: 97ba cd3d e228 73be 8010 cbbd 987c 5bbd
000000c0: 46df 323e 948b e83c adc0 78bd 3452 93be
000000d0: 051b b3bd 9615 0b3e 5938 5fbd d1aa aebd
000000e0: 40fd dabc c100 97be 51db b13d 118f 7b3e
000000f0: 46a9 f2bc ef06 323d 7a7a 363d 24da 833d
00000100: ee02 1bbc 885a 05be 7b3b 4e3e d291 843d
00000110: ef31 d0bd e286 673e c247 033e 0d7e 323e
00000120: d28b 893d aa44 57bc e522 3ebe 00bf 3a3d
00000130: a58f 303e 6765 4bbe de81 ed3d f762 40be
00000140: 06b8 6ebd a86a 76be 220e 813c 378c 8dbd
00000150: e307 0f3d a5ce 0a3e 9dcb f73d 96f2 c43d
00000160: 6101 c13d 5817 afba c96b ae3d a183 cf3c
00000170: 0ea4 97bd ee39 a63d dd4f 19be 63f1 82be
00000180: ba96 a93d 68bc cabc ae15 3bbe e793 d13d
00000190: 4e5a d53d da14 7a3d df9c 17be 339d 773e
000001a0: ae95 1a3e 84a5 2bbe 3c10 233d 2d4b 153e
000001b0: 6c96 04bc ca92 45bd aee3 fe3c ce41 903d
000001c0: 34d4 013e 58b9 c73d eab2 a7bc e212 2fbe
000001d0: 6876 943b e2b3 7dbe 953c a1be caa4 f4bd
000001e0: 4235 eb3d b019 ae3d 8137 c6bd b6f4 bbbd
000001f0: f630 acbd 9563 d2bc 32b1 a0bc 1099 b8bd
00000200: c264 58be 2b87 673d b128 97bd 1a23 423c
00000210: 11e1 413c 3ece 113e d2ed a0bd 2f07 e63d
00000220: 1179 62bc 7a5a 21bc 626b 72bc 8976 fbbc
00000230: 5699 88bd 5f82 27be e45a 86be dc43 083c
00000240: 8e75 5b3d b655 29be f5d4 b93c ef62 97bd
00000250: d5c3 37bc 40fe e9bc 9727 9d3d 2667 6ebd
00000260: 4d36 c93c 91b9 0dbe 2f1d edbb 79c2 63bc
00000270: 06a3 35be 53cf 873d 5769 f03d bdab 89bb
00000280: f294 e83c 52b0 98bd 4323 7bbd 0ae7 4b3d
00000290: ac9f f13c 48e8 dbbd 407d 96bd 4d11 9e3c
000002a0: 317b 053e 7853 a2bd d000 5dbe 6cfe 15bd
000002b0: d959 6fbe bc48 a53d cf2d 2d3e 03d7 753d
000002c0: df65 0e3d b8dc 07bd 831c 6f3e d942 7239
000002d0: 494e 6b3e 91aa 8b3d 63e9 1cbe 86b1 f13d
000002e0: 945c a43d e2ee da3d ede6 453e 6aa3 863e
000002f0: b8e5 21bd 0dfb c03e 507b 4cbd 5cba 013c
00000300: c151 e93d 76fe 183b 9830 3d3d 2d68 db3d
00000310: 5c1f c83d bff7 16bc b6f5 0dbc 0167 3e3b
00000320: 82cd 8a3d 5033 b6bd e391 82bc be42 ce3d
00000330: 6133 2ebc 38c6 223d fe50 a4be 9be9 87bd
00000340: 78df 8bbd e069 813d 045d 263b 6e33 313e
00000350: 3367 9cbd c1a2 82bb c067 81bd 1bf3 073e
00000360: 9224 a13c fddb f5bd fcc4 48bd 6fa9 7cbd
00000370: 8ea5 f33a 70dd eebd f5e3 63bd 0349 193d
00000380: abf6 b5bd c45b 7ebd 3117 7f3d 5ec8 293c
00000390: b54a d33c 5a75 3e3e 1e1c 1dbd b4ea 0dbe
000003a0: 6242 093e 265b 923d 5d39 debd 7d31 713e
000003b0: 58c8 1e3e 2362 d13c 0c1f 873d c756 023e
000003c0: f1b0 713c c4a3 243e b9f6 7fbd 50e9 38be
000003d0: 315b ac3d 6d80 82bc f2f6 c6bd 8d3a 563c
000003e0: 5195 063e c09b d73c 659d da3c 84e6 783d
000003f0: c316 acbc d33d c53d bf75 ce3d a856 9b3e

ablang_branch.7.bias f4 [64]
-0.0046695927 0.0074429354 0.022100652 -0.0032492534 0.0033771326 -0.015089558 0.0019598491 -0.013370634
-0.0052047363 0.004470647 -0.019192483 2.3475703e-05 0.009549206 0.004607622 -0.015111783 0.0105280075
-0.0048688482 0.006866771 -0.014314906 -0.020604648 -0.0028164522 0.00024895123 -0.019803233 -0.0059913583
0.027181113 0.009715458 0.0013975165 0.0078009223 0.019558877 -0.014545238 0.020203017 -0.00030712495
-0.009539684 -0.0052444576 -0.014568521 0.0151304705 -0.0029642845 -0.0037835608 -0.0006297005 0.011682615
-0.006253857 0.0040230714 -0.017816078 -0.0012361917 0.0055939537 0.009736139 0.002172063 -0.0058930083
-0.0062723733 0.009672935 0.012951981 -0.008336633 0.019701194 0.0062198164 -0.027072197 -0.016175147
0.0017443192 -0.0027341624 0.0028005957 0.0013198314 0.018307772 -0.00315797 0.017368589 0.012365114
00000000: 6203 99bb dee3 f33b 6d0c b53c 6df1 54bb
00000010: e252 5d3b 323a 77bc d070 003b 8110 5bbc
00000020: 7e8c aabb 817e 923b 8e39 9dbc b0ed c437
00000030: 4674 1c3c 89fb 963b 6997 77bc aa7d 2c3c
00000040: dc8a 9fbb a602 e13b 1189 6abc 14cb a8bc
00000050: 3a94 38bb ab85 8239 643a a2bc 2853 c4bb
00000060: edaa de3c 962d 1f3c df2c b73a e19e ff3b
00000070: f039 a03c 264f 6ebc cc80 a53c 9d05 a1b9
00000080: 564c 1cbc b3d9 abbb ceb0 6ebc cbe5 773c
00000090: 7144 42bb 9ef5 77bb 7c12 25ba 7068 3f3c
000000a0: 28ed ccbb f8d3 833b 06f3 91bc b607 a2ba
000000b0: 7c4d b73b 5484 1f3c 2c59 0e3b 231a c1bb
000000c0: 7b88 cdbb 3b7b 1e3c 8c34 543c 6096 08bc
000000d0: 6664 a13c 9acf cb3b 83c6 ddbc be81 84bc
000000e0: a4a1 e43a a22f 33bb 338a 373b 31fe ac3a
000000f0: 2efa 953c f2f5 4ebb 9248 8e3c 0c97 4a3c
