data/model_weights/cv_fold_3_model2_0.pt (torch, 686405 bytes, 27 tensors)

ablang_branch.0.weight f4 [256, 480]
000000 9a 6b e4 bd b6 b9 8e 3d 82 0c 11 3e bf b6 bb bd
       -0.11153336 0.06969015 0.14164928 -0.091657154
000010 44 b2 1a bd da fe 4d be cc 29 b4 bd ec 0a aa 3d
       -0.037767664 -0.2011675 -0.087970346 0.083028644
000020 5e af c1 bc f3 41 24 be 0d 9d 4b bd e1 cd ab 3d
       -0.023643192 -0.16040783 -0.049710322 0.08388878
000030 eb f3 08 be d7 53 c0 bb ec f5 87 bc 62 8e 0f bd
       -0.13374297 -0.0058693695 -0.016596757 -0.035047896
000040 4b 5f a8 3d 1e 37 06 3d 2b 59 8a 3c 09 91 86 bd
       0.08221301 0.032767408 0.016888222 -0.06570632
000050 97 f5 f8 bc dc d5 00 bd cd bb 1f bd 66 52 9a bd
       -0.030390544 -0.031453952 -0.03899746 -0.075352475
000060 52 e3 41 3d 36 1a dd bd 3f 48 2b bd 3a 6c e4 bc
       0.04733593 -0.10796015 -0.041816946 -0.027883638
000070 a8 4f 02 3c af 7c d4 3d 7f b6 89 3d 16 55 88 bd
       0.007953562 0.10375344 0.067242615 -0.06656854
000080 16 eb d0 bb b8 c0 ab 3c 0f 6c 5d be c7 0d d1 3c
       -0.0063756807 0.020965919 -0.21623252 0.025519265
000090 0e 2c af 3d de 9f 23 be d2 67 17 bc 13 80 cb bd
       0.08553325 -0.15978953 -0.009241061 -0.099365376
0000a0 27 57 dc 3d 8f a4 39 ba 07 65 93 3d 84 23 65 3d
       0.107588105 -0.0007081711 0.07197004 0.055942073
0000b0 8a 1b 10 bd f2 de 2c 3d 00 7e 3a bd 25 aa 56 3d
       -0.035182513 0.042204805 -0.04553032 0.052408356
0000c0 f8 84 78 3b 1f f5 45 be 21 1d 72 bd 55 93 3c 3d
       0.0037921052 -0.19331788 -0.05910981 0.046038944
0000d0 39 b3 fd bc 63 33 90 3c 2e 4e 1e bd 4e b7 e4 3d
       -0.03096925 0.017602628 -0.038648777 0.11167775
0000e0 6a 1c 2c 3b ad b7 c8 3b e1 d2 82 3d 1e c3 cc 3d
       0.0026262053 0.0061254115 0.06387878 0.09998153
0000f0 b0 f8 50 3d d4 1f 18 3e 77 e5 de bc 65 7c 81 3b
       0.051018417 0.14855891 -0.027209027 0.0039515966
000100 34 24 e2 bb 2d 5a b5 3d 44 e2 a8 bc 6c 02 2d 3e
       -0.0069012884 0.0885509 -0.020615704 0.16895455
000110 17 25 65 bd 77 a1 e2 bd a8 1a 84 bd 7c cb 0a be
       -0.055943575 -0.11065953 -0.06450397 -0.13554186
000120 71 b8 04 be 47 e9 1a 3d 48 88 f7 bc 3f f1 95 bd
       -0.12960984 0.037820127 -0.030216351 -0.07321405
000130 1f 0b c5 bc 02 c4 2a 3d 7b 8f 12 3d e3 72 27 3d
       -0.024053155 0.041690834 0.035781365 0.04088105
000140 7f 04 09 bc d2 cc a4 3c 36 ba b2 bd 34 fa df bd
       -0.008362888 0.020117197 -0.08726923 -0.10936394
000150 c7 0a 7e bd 3f 21 22 be d2 42 e3 bc 4f 61 d5 bb
       -0.062021997 -0.15832995 -0.027741823 -0.006511844
000160 23 33 30 3b 34 a6 bd 3b 7e a2 08 3e 81 3e 3a bd
       0.0026885949 0.005787635 0.13343236 -0.045469765
000170 22 2f 3c 3d 31 d9 9c 3b e0 e2 ad bd 3f 03 eb 3c
       0.045943387 0.0047866334 -0.084905386 0.028688071
000180 6b c7 95 3d a5 c0 f5 bd ff 57 14 3c e7 12 18 bc
       0.073134266 -0.11999635 0.009054183 -0.00928185
000190 60 6e 9b bd 1a ac 86 bc 37 2d 1e 3d 09 fe d0 3d
       -0.07589412 -0.016439486 0.03861734 0.10204703
0001a0 e6 28 80 3d 52 4c 46 bd 7e d0 78 bc 55 72 be bd
       0.06257801 -0.04841263 -0.015186427 -0.09299151
0001b0 f9 ec 01 3d d5 69 d9 3d 5e 88 89 bb 17 cb 79 3d
       0.031720135 0.10615889 -0.0041971644 0.060984697
0001c0 c9 2b 1c bd 2f 54 10 be b5 6e 7b 3c bf 32 c8 bc
       -0.038127694 -0.14094613 0.015346219 -0.02443826
0001d0 97 e5 88 3d a9 9b c0 bc e2 a4 de 3d 4c 95 84 bc
       0.06684416 -0.023511725 0.10871293 -0.016184472
0001e0 dd 36 2b bc fb bd a5 3d ad e8 c3 bd 9b f9 fd bd
       -0.010450092 0.080928765 -0.09565864 -0.12401124
0001f0 21 9c 0c be bc a2 86 3c 49 33 64 bc d3 d5 20 bd
       -0.13731433 0.01643502 -0.013928243 -0.03926642
000200 67 5e 01 bd c5 f6 1f 3b 79 96 3b 3d 85 20 67 3d
       -0.03158417 0.002440856 0.0457978 0.056427497
000210 b5 ec ba bd 75 0c c3 bc c4 29 eb 3d 74 4f d1 bb
       -0.091271795 -0.02380965 0.114825755 -0.0063876454
000220 d1 dc a0 bd c6 44 b2 3d 5b fe 4a bd 16 08 9d bd
       -0.078546174 0.08704524 -0.04955898 -0.07667558
000230 73 7a 4c 3d 13 8c 7b 3c ca 07 9b 3d 6d 37 49 bd
       0.049921464 0.0153532205 0.07569845 -0.049125124
000240 02 45 0e 3c 7d c5 b0 bd fa 4a 59 3d 3d d8 25 be
       0.008683445 -0.08631418 0.05305002 -0.1619577
000250 20 30 d9 bc b5 60 cb 3d 18 49 99 3c ae 98 88 bd
       -0.026512206 0.09930555 0.018711612 -0.06669746
000260 21 7f a8 bd d4 28 31 3d 66 96 06 bd 35 19 ec 3d
       -0.08227373 0.043251827 -0.032858275 0.11528245
000270 89 68 af 3b b6 c5 07 bd 51 37 1f 3d b3 aa ee bb
       0.0053530377 -0.033147536 0.038871113 -0.0072835325
000280 41 99 84 3c f6 a5 6e 3c 8a 27 93 bc 07 1b 29 bd
       0.016186358 0.014565935 -0.01796319 -0.04128554
000290 d3 fc 46 bd 40 bc 1c bd 58 76 52 bc 79 dd 34 bd
       -0.048580956 -0.038265467 -0.012845598 -0.044156525
0002a0 7a 4e 8e bd c1 59 29 3b 3b 10 cb 3c 98 ab 3c 3e
       -0.06948562 0.002584085 0.024788013 0.18424833
0002b0 db 61 2a 3c dc 31 c2 3d 38 70 a0 3c 93 ee bb bc
       0.010399307 0.09482166 0.01958476 -0.02294091
0002c0 8b dc 47 3c 38 ec b9 bd 7c 47 93 3d ec d0 56 3c
       0.012198578 -0.09078258 0.07191369 0.013111334
0002d0 e8 e2 81 bd da 9a 36 bd 9e 1e e6 3c e7 63 4c bd
       -0.06342107 -0.04458127 0.028090771 -0.04989996
0002e0 f8 80 b7 3c b1 bd 99 bc 17 92 42 3d 46 0e f9 3d
       0.022400364 -0.01876721 0.047502603 0.121609256
0002f0 bb 80 92 bd c4 ba 23 bd 6f 28 b7 bc a6 50 94 3d
       -0.0715346 -0.039973035 -0.022358147 0.07241945
000300 87 3f 1a bd 85 54 07 bc a0 cf 5f 3c 13 dd 69 3d
       -0.03765824 -0.008259897 0.0136603415 0.0570956
000310 e8 bd 56 3c b2 c5 01 3e 02 99 c2 3d da 54 8e 3c
       0.013106801 0.12673071 0.0950184 0.017374445
000320 55 1f 96 bc 5b 20 24 3e f5 db 1b bd 52 b1 27 bd
       -0.018325487 0.16027968 -0.038051564 -0.04094059
000330 99 81 98 3d fb 49 10 bd 72 46 aa bb ba 84 99 bd
       0.07446594 -0.035226803 -0.005196386 -0.07496019
000340 eb 95 07 bd 63 c5 ee 3d 7d a4 20 bd e0 f1 e3 3d
       -0.033101957 0.11658742 -0.03921937 0.11130118
000350 e9 b9 c2 bc 4c 7b b8 3c 0f 9f c5 bd 02 23 c4 3d
       -0.02377029 0.02251973 -0.09649479 0.0957699
000360 4b e0 08 3d 2d 9d da bd 94 43 95 3c 2d 4e 3c bd
       0.033417027 -0.1067451 0.0182207 -0.04597299
000370 6c 25 82 bd dd 1f 96 3d de de ed 3c 20 91 43 bc
       -0.06354794 0.07330296 0.029036935 -0.011936456
000380 d5 17 58 3d 11 62 cc 3d 70 32 aa 3d fb 92 02 be
       0.052757103 0.09979642 0.083104014 -0.12751381
000390 f8 a1 58 bd ab 41 00 3d 89 03 e4 3b e6 fb be bd
       -0.05288884 0.031312626 0.0069584292 -0.093253896
0003a0 6e 55 ac bd a2 23 2e be ae b3 11 3d 21 b0 8d 3d
       -0.08414732 -0.1700578 0.035571747 0.069183595
0003b0 dc 07 c9 bc ee 37 71 3d 19 f9 b7 bd 77 fb b4 3d
       -0.02453988 0.05889123 -0.089830585 0.088370256
0003c0 14 b3 54 bc d8 b2 bb bb 08 6d b8 3d b2 15 de 3a
       -0.012982149 -0.005728107 0.09005171 0.0016943722
0003d0 f0 51 85 bd 55 39 61 bd 2b fb e2 3c 3b 51 0c 3e
       -0.06509769 -0.054986317 0.027707657 0.13702862
0003e0 e8 6f b7 3c 9c 5f 96 bd 9e 0d e5 bc 3e a9 b1 bd
       0.022392228 -0.07342455 -0.027960595 -0.086748585
0003f0 89 97 9a 3c 25 91 67 bd 8a 9f ba bd 53 ec 1b 3e
       0.018871086 -0.056534905 -0.09112461 0.1522687

ablang_branch.0.bias f4 [256]
000000 39 fa 93 3b 71 3c 9a 3b 77 5f ae 3b 44 26 90 3c
       0.004515913 0.004706912 0.005321439 0.017596371
000010 e3 6d 29 3c 9c ed 21 3c 5c 7b 26 3c f7 92 52 3c
       0.01034114 0.009883311 0.010161247 0.012852422
000020 0b f8 51 3b d6 0d e4 3a 36 f2 ea 3a 7f 83 d4 3b
       0.0032038714 0.0017399143 0.0017924968 0.006485402
000030 a0 21 a2 ba 9e 89 a7 3b df 4a 7c 3c df ba 2b ba
       -0.001236964 0.005112841 0.01539871 -0.0006550978
000040 1d 4c 69 3a 44 ba 67 bb 59 f9 69 3b 89 3b 99 3b
       0.00088995864 -0.0035358826 0.0035701601 0.0046762866
000050 a6 cb b6 3b df 34 97 bb 89 e5 b4 b9 c3 99 0b 3c
       0.005578476 -0.004614457 -0.00034503292 0.008520546
000060 e0 92 61 ba de fb b8 bb 7e 5c 6d 3b 4b 8a 88 bb
       -0.0008604955 -0.0056452593 0.003621846 -0.0041668764
000070 a4 a0 79 3b ee 16 96 bb 50 55 cc bb 6c 2e 86 3c
       0.0038090134 -0.00458037 -0.006235756 0.016379558
000080 4f f9 0c 3c d8 82 bc 3b 49 5d 08 3c 6c 47 d5 39
       0.008604362 0.0057529025 0.008323022 0.0004067974
000090 76 75 bf 3b 84 23 28 3b ae 14 41 3c 48 13 6a 3c
       0.00584286 0.0025655935 0.011784716 0.014286824
0000a0 dd 72 d5 3b 51 d0 7a 3b 58 ac d9 3b d3 b0 64 3c
       0.006513937 0.003827114 0.0066428594 0.013958174
0000b0 dd 5d 92 bb ef 46 8c 3a c4 e0 5c 3b 5d 0d 0c 3a
       -0.004466756 0.0010702292 0.0033703307 0.00053425675
0000c0 e9 e8 96 3b 6a d9 41 bb 20 17 33 3c 27 9d 82 3a
       0.004605402 -0.0029579052 0.010930806 0.0009965048
0000d0 89 ee ce 3a e3 25 b9 3a 97 53 e4 3a 0c 9b 0b 3c
       0.0015787642 0.0014125671 0.0017419931 0.008520853
0000e0 08 f0 b8 3b f7 2c c3 bb 41 d2 2e 3b 84 06 3d 3c
       0.0056438483 -0.005956288 0.0026675614 0.011537198
0000f0 70 73 c5 3b 4d d3 31 bb 2b 32 47 3a 7f 62 51 3c
       0.006025724 -0.0027134002 0.0007598723 0.012779831
000100 4f de 3b 3c b3 42 48 3b ee 0e e4 3b a8 f0 2d 3c
       0.011466577 0.0030557334 0.0069597876 0.010616459
000110 d3 d4 cb 3b 6f ed 9b 3b 39 ae 5d 3a f0 d7 80 3b
       0.006220439 0.004758529 0.0008456442 0.0039319918
000120 f5 e1 55 3c 96 fe f8 3b 17 90 7f 3b 85 90 8e 38
       0.013054361 0.0075987084 0.0038995796 6.7980065e-05
000130 4f 5e 95 3b 76 d4 6a 3c aa 7f 0e 3c c4 d7 a9 3a
       0.0045583616 0.014332881 0.00869743 0.001295798
000140 aa b7 3f bb 7f ae 07 3b 8c b0 db 3a 36 0c 3c 3c
       -0.002925376 0.0020703373 0.0016760989 0.011477521
000150 d8 91 7e 38 90 a3 ae b7 04 1a af ba b8 e8 54 bb
       6.0694147e-05 -2.0818581e-05 -0.0013359194 -0.0032487344
000160 fb 8e 15 3b c4 27 92 3b b1 0c ac 3b 70 31 46 b7
       0.0022820819 0.004460307 0.0052505364 -1.181323e-05
000170 9d 89 23 3b bc 05 17 3b 47 70 f3 3b 18 f8 ca 3b
       0.002495385 0.002304419 0.007429156 0.006194126
000180 55 e1 82 bb 60 b5 1d 3c 60 6e d6 3b ce 7b 90 ba
       -0.003994147 0.009625763 0.0065439194 -0.0011023225
000190 98 ec 28 3c 8c 01 67 3a 84 60 51 3c 11 8c 98 3b
       0.010310315 0.0008812181 0.012779359 0.004655369
0001a0 36 d0 87 3b 4d 9f 33 3b a1 94 12 3c 36 62 77 3a
       0.0041446937 0.0027408183 0.008946569 0.0009436937
0001b0 3c 79 db ba ac c8 7c bb a7 91 15 3c 9c 25 1b 3a
       -0.0016744505 -0.0038571758 0.0091289645 0.0005918385
0001c0 6e d2 c4 3b ca 6a dc 3b 48 4d 79 39 59 6a 93 3b
       0.0060065305 0.0067265974 0.0002377528 0.0044987616
0001d0 9d ef 84 ba ec bb 76 bb e3 4b 02 bb 13 3b 67 3b
       -0.0010142211 -0.0037648631 -0.0019881658 0.0035283014
0001e0 cd bf 89 3c ed 4c 3b 3c 34 50 34 3b 2f bd c4 3b
       0.01681509 0.011431915 0.0027513625 0.0060039978
0001f0 9a 22 a2 3b b4 29 db ba 63 2d 63 bb 90 87 18 3b
       0.0049479725 -0.0016720803 -0.0034664504 0.002327416
000200 54 0e 4f 3a 33 6b d5 3b 7b 5c 55 3b cf 45 ff 3b
       0.00078985584 0.0065130233 0.0032556343 0.0077903043
000210 32 9e 97 3b d8 84 7c b9 0e 6b dd 3b 76 b0 8f 3b
       0.0046270126 -0.00024082081 0.0067571467 0.0043850495
000220 65 c9 18 3c cb a0 f4 3b 72 d5 14 3c 23 86 bc 3a
       0.00932536 0.007465457 0.009084092 0.0014383238
000230 ce 6c 2d 3c 44 cd 86 bb e4 f3 ed 3a e1 99 d9 3a
       0.010585023 -0.004113825 0.001815435 0.0016601646
000240 c0 a8 ad 3b ff 33 85 3c a9 9e fd 3b e5 c3 7f 3c
       0.0052996576 0.016260145 0.007739861 0.01561067
000250 a1 c3 58 3b cd f2 0c 3c f6 4f 2f bb a8 60 29 3c
       0.0033075588 0.00860281 -0.0026750541 0.010337986
000260 01 d8 72 bb cc 4b 05 3c 89 36 6a 3b b2 9d b6 37
       -0.0037055018 0.008135747 0.0035738072 2.1769523e-05
000270 db 90 e4 3b df d5 e3 bb 8e 3b 83 3a 65 c8 02 3c
       0.006975276 -0.0069529857 0.0010012256 0.007982348
000280 2f 30 a3 3b 88 a9 a5 3b b4 6c 2d bb 10 fb 13 3c
       0.004980109 0.00505561 -0.0026462497 0.009032026
000290 97 55 7b 3c 7a b6 59 3b 60 52 29 3c 69 9c 67 bb
       0.01534023 0.0033220337 0.010334581 -0.003534103
0002a0 d9 23 fd 3b e4 9d dc bb a6 1a 28 bb 3c f4 0d 3c
       0.0077252206 -0.006732689 -0.002565065 0.008664187
0002b0 c3 d7 0f 3c da f5 d1 3b 7d 07 73 ba f6 85 3a 3b
       0.008779469 0.0064074816 -0.000927083 0.0028461195
0002c0 ca 78 33 b9 1e 07 e3 ba 56 a7 4c 3a 3f 76 1f bb
       -0.00017115768 -0.0017320847 0.00078069174 -0.0024331955
0002d0 64 82 d9 3b 2f 75 40 3c 5a ee 0c 3c 06 61 fc 3b
       0.006637858 0.011746689 0.008601749 0.007701996
0002e0 4b c9 c2 3b e5 27 04 3c ce 93 a4 3b 69 32 48 3c
       0.005944406 0.008066152 0.0050225025 0.01221905
0002f0 01 a9 0d 3c d9 9f ce 3b ed f3 da 3b 4f 55 49 3c
       0.008646251 0.0063056764 0.0066819103 0.012288406
000300 08 e1 c9 3a d7 45 3a 3b 09 3e 2b bb b4 44 9e 3b
       0.0015402148 0.0028422975 -0.0026129505 0.0048299674
000310 6d a6 70 3c cf f8 1d 3b c8 4d 6d 3a 3d 06 95 3b
       0.0146881165 0.00241046 0.0009052423 0.004547863
000320 51 50 56 3b 6d 04 91 3a 31 7e 2c 3c 0a e6 a3 3b
       0.003270168 0.0011063941 0.010528133 0.005001788
000330 48 37 42 3c 7f 79 4d 3c 2d 99 cb 3b a0 d0 a4 3a
       0.011854 0.012541174 0.0062133283 0.0012574382
000340 6c 3b 5b 39 5b 9d 0b 3c a6 f4 b8 3b 72 aa 16 3c
       0.00020907604 0.008521403 0.0056443987 0.009195911
000350 2a 64 3e 3b a1 44 65 3b 73 8d 30 3b 83 2e e1 3a
       0.0029051402 0.0034983533 0.002693978 0.0017179999
000360 29 3b df 3b f7 90 a1 3b 18 6e ca 3b 95 30 14 3a
       0.0068124724 0.0049306112 0.006177675 0.0005652991
000370 40 fb fd 3b 76 90 fd 3a a9 a1 0a 3c e2 fb ff 3b
       0.0077508986 0.0019345421 0.008461394 0.007812009
000380 49 2a d6 3b ff 7b 1e 3b 1c 5c 8b 3b 26 95 19 3b
       0.0065358025 0.0024182794 0.0042529237 0.0023434847
000390 d3 a9 28 ba 75 c3 58 ba 93 8b 2c ba f5 79 02 3c
       -0.0006433997 -0.00082688715 -0.00065820775 0.007963647
0003a0 d9 49 7f 3c 29 30 a4 3b 6f 37 ad 3b ee 57 13 3c
       0.0155815715 0.005010624 0.005286149 0.008993132
0003b0 3c d1 e3 b8 df 93 dd 3b 30 af 2d 3c 8a cf cd 3b
       -0.000108631764 0.0067620124 0.01060085 0.006280844
0003c0 a9 d7 30 3c f8 ee 8f 3b 5e 67 25 3c bc 2a a2 bb
       0.010793605 0.004392501 0.010095445 -0.004948942
0003d0 a5 ac 23 b9 c1 2c 09 3c 3b 1a 75 3b b7 91 46 3c
       -0.00015609206 0.008372487 0.0037399668 0.012119702
0003e0 3f ae af 3b dc af 2e 3c 70 82 46 3b da 31 84 3b
       0.005361348 0.010662045 0.003029015 0.004034263
0003f0 6b a6 23 3a 03 82 fe 3a c8 1b 29 bb 0a 5d 26 3b
       0.0006242755 0.0019417409 -0.0025803912 0.0025385045

ablang_branch.1.weight f4 [256]
000000 e4 49 85 3f ab 4e 7a 3f 68 b7 7d 3f 8f 09 84 3f
       1.0413175 0.9777629 0.9910798 1.0315417
000010 8d 7e 81 3f d6 b6 80 3f 72 e4 81 3f 63 4b 7c 3f
       1.0116745 1.0055797 1.0147841 0.9855253
000020 51 1f 88 3f 87 2a 83 3f b9 88 82 3f 35 8c 7c 3f
       1.0634557 1.0247353 1.0197974 0.9865144
000030 75 95 78 3f 68 ea 7f 3f 7c cc 73 3f 58 85 82 3f
       0.97103053 0.9996705 0.95233893 1.0196943
000040 52 5c 81 3f 4e da 83 3f c3 51 7e 3f 7c 02 7c 3f
       1.0106299 1.0300996 0.9934351 0.9844129
000050 38 c8 80 3f dc 0c 83 3f f1 6f 7c 3f b5 3e 7e 3f
       1.0061102 1.0238299 0.9860831 0.99314433
000060 7d a5 86 3f e3 f6 81 3f 80 1d 81 3f 51 14 86 3f
       1.0519253 1.0153469 1.0087128 1.047495
000070 05 54 81 3f 15 a3 7b 3f 01 10 79 3f ec 6d 7a 3f
       1.0103766 0.9829572 0.97290045 0.9782398
000080 d1 5a 82 3f 82 07 7d 3f 61 f1 81 3f e8 f5 83 3f
       1.0183965 0.9883958 1.0151788 1.030942
000090 68 32 79 3f 76 17 80 3f 55 8c 7e 3f 04 2f 7d 3f
       0.9734254 1.000716 0.9943288 0.98899865
0000a0 86 c0 84 3f 68 cd 7a 3f ed 74 81 3f a8 b9 7e 3f
       1.0371253 0.97969675 1.0113808 0.9950204
0000b0 d4 1c 7a 3f 0f e5 83 3f 2a e3 7a 3f 9a 97 80 3f
       0.9770024 1.0304278 0.98002875 1.0046265
0000c0 cf ea 85 3f 1e 46 73 3f 18 3d 82 3f 10 c5 7c 3f
       1.0462283 0.95028865 1.0174894 0.98738194
0000d0 c7 d4 7d 3f 57 88 81 3f 01 03 79 3f 4d ca 85 3f
       0.991528 1.0119733 0.9727021 1.0452362
0000e0 2e 2c 7b 3f 62 eb 80 3f 0d be 7a 3f 68 0d 8d 3f
       0.9811429 1.0071833 0.97946244 1.1019716
0000f0 bd c1 81 3f 4b 93 80 3f 06 2c 7f 3f 4f a9 84 3f
       1.0137249 1.004495 0.9967655 1.0364169
000100 b0 5c 8e 3f 1c d8 80 3f 61 6c 84 3f 65 6c 86 3f
       1.1122036 1.0065951 1.0345575 1.0501829
000110 df 28 79 3f 94 fe 83 3f 89 51 7e 3f 96 07 7e 3f
       0.9732799 1.0312066 0.9934316 0.99230325
000120 78 72 89 3f ef 9a 80 3f d2 de 7e 3f b3 5c 7f 3f
       1.0738058 1.0047282 0.99558747 0.9975082
000130 46 16 77 3f 4d 57 7b 3f 73 c7 7a 3f 0a c4 7b 3f
       0.9651836 0.98180085 0.97960585 0.98346007
000140 c3 d1 7f 3f d6 d3 81 3f 62 86 7f 3f 0c 9f 7d 3f
       0.99929446 1.0142772 0.99814427 0.9907081
000150 0e a6 7c 3f ba e0 81 3f d2 d6 7c 3f 83 01 7a 3f
       0.9869088 1.0146706 0.9876529 0.97658557
000160 fa a8 7a 3f 84 94 7b 3f bc d6 77 3f fd 69 81 3f
       0.9791409 0.9827349 0.96812034 1.011047
000170 11 13 79 3f 77 26 84 3f 71 2f 84 3f 88 f1 7e 3f
       0.9729472 1.0324239 1.0326978 0.995873
000180 b4 7e 83 3f a8 5f 8b 3f ba 3c 7c 3f dd 2a 82 3f
       1.0273042 1.0888567 0.9853016 1.0169331
000190 8a e9 84 3f f3 71 83 3f a0 08 81 3f 62 83 80 3f
       1.038377 1.026915 1.0080757 1.0040095
0001a0 7e 17 7f 3f ed e0 7c 3f 7a 50 81 3f e6 36 7b 3f
       0.9964522 0.9878071 1.0102684 0.98130643
0001b0 ca 23 78 3f 8f ba 7a 3f 6b 7b 7d 3f cb f2 7a 3f
       0.9692961 0.97940916 0.99016446 0.9802672
0001c0 5b 02 81 3f a3 94 7f 3f e5 17 84 3f 99 4b 8a 3f
       1.0078844 0.99836177 1.0319792 1.080432
0001d0 d1 b9 82 3f 65 0b 7b 3f 4d 6c 7a 3f a5 de 75 3f
       1.0212957 0.9806426 0.97821504 0.96042854
0001e0 5c 12 81 3f f8 e5 85 3f c1 03 7b 3f da f7 82 3f
       1.0083728 1.0460806 0.98052603 1.0231888
0001f0 cc 70 7c 3f 91 98 79 3f 72 2c 82 3f a9 01 7a 3f
       0.98609614 0.9749842 1.0169814 0.97658783
000200 08 3d 85 3f 08 bd 83 3f cd cf 87 3f 63 c3 85 3f
       1.040925 1.0292063 1.0610291 1.0450252
000210 4d a1 7d 3f 61 5e 7a 3f 29 29 84 3f 08 c4 83 3f
       0.9907425 0.9780026 1.0325061 1.0294199
000220 05 ad 81 3f 59 81 6e 3f 7c ac 7d 3f c3 b4 85 3f
       1.0130926 0.9316612 0.99091315 1.0445789
000230 87 bf 82 3f 38 64 83 3f 07 40 78 3f f1 51 7b 3f
       1.02147 1.0264959 0.969727 0.9817191
000240 78 5f 7b 3f 58 3d 8e 3f 3c fd 7a 3f 5c a1 78 3f
       0.9819255 1.1112471 0.98042655 0.97121215
000250 a0 34 7d 3f 24 37 81 3f f4 01 82 3f 0a b4 87 3f
       0.98908424 1.0094953 1.0156846 1.0601819
000260 c2 81 7e 3f 40 52 87 3f 59 09 7a 3f 91 91 80 3f
       0.99416745 1.0571976 0.97670513 1.0044423
000270 23 91 81 3f 46 2a 7b 3f 46 93 7c 3f c5 66 7a 3f
       1.0122417 0.9811138 0.9866222 0.97813064
000280 55 5e 80 3f 6f a5 86 3f 6c 33 83 3f 8f ac 7c 3f
       1.0028788 1.0519236 1.0250068 0.98700804
000290 63 38 8a 3f 1f 5d 78 3f 8d c5 7d 3f d1 8a 7f 3f
       1.0798458 0.9701709 0.99129564 0.9982119
0002a0 6f b8 8c 3f d3 85 7b 3f 81 a8 76 3f 6e ee 79 3f
       1.0993785 0.98251075 0.96350867 0.9762944
0002b0 40 c3 7f 3f 32 6f 80 3f 07 ee 7d 3f 7d e3 81 3f
       0.999073 1.0033934 0.99191326 1.0147549
0002c0 58 4b 83 3f 6d ef 7f 3f 0f 5d 82 3f e7 8e 80 3f
       1.0257368 0.9997471 1.0184649 1.004361
0002d0 36 3c 7d 3f af a3 78 3f 28 2e 84 3f f6 b2 86 3f
       0.9892 0.9712476 1.0326586 1.0523365
0002e0 06 5a 75 3f 5d 60 78 3f 67 55 80 3f bd 3c 87 3f
       0.9584049 0.9702204 1.0026063 1.0565411
0002f0 47 8e 7d 3f 74 e3 80 3f 2e bb 7f 3f 16 f6 82 3f
       0.99045223 1.0069413 0.9989499 1.023135
000300 68 ec 83 3f 13 da 7b 3f 64 37 7f 3f 9e 28 7d 3f
       1.030652 0.9837963 0.99693894 0.988901
000310 4e 7f 7d 3f 68 4d 70 3f 4e 10 7f 3f 01 a4 81 3f
       0.99022377 0.9386811 0.99634254 1.0128175
000320 26 9c 82 3f c4 eb 85 3f f6 a1 7b 3f 8a ff 7e 3f
       1.0203903 1.0462575 0.9829401 0.9960867
000330 99 c8 7a 3f a2 27 75 3f fd 5e 7b 3f 89 49 7b 3f
       0.9796234 0.957636 0.98191816 0.9815908
000340 68 ad 77 3f e1 1e 80 3f cf f5 83 3f ec 0f 81 3f
       0.9674897 1.0009423 1.030939 1.0082984
000350 75 a0 7a 3f 71 a5 7a 3f b1 5d 8b 3f 36 f3 84 3f
       0.9790109 0.97908694 1.0887967 1.0386722
000360 29 e6 78 3f 9c 68 7e 3f 3d 16 80 3f 06 fb 73 3f
       0.97226197 0.9937837 1.0006787 0.95304906
000370 f0 52 79 3f c1 11 84 3f c3 77 84 3f d5 eb 7e 3f
       0.9739218 1.0317918 1.0349048 0.995786
000380 ce 5e 80 3f 25 8a 82 3f 13 2e 7b 3f 75 83 7b 3f
       1.0028932 1.0198408 0.9811718 0.9824746
000390 83 cd 7a 3f 72 3e 79 3f de ca 89 3f 42 54 82 3f
       0.97969836 0.9736091 1.0765035 1.0181963
0003a0 d7 f5 88 3f dd dc 80 3f 74 02 7f 3f c1 bc 80 3f
       1.0700024 1.0067402 0.9961312 1.0057603
0003b0 3d 7a 7d 3f 5b 45 83 3f 89 62 7b 3f 66 fe 81 3f
       0.99014646 1.0255541 0.9819723 1.0155761
0003c0 c8 3c 82 3f 9f 0a 77 3f dd 97 83 3f 4d 6e 81 3f
       1.0174799 0.9650058 1.028072 1.0111786
0003d0 64 41 7b 3f 97 67 88 3f b8 80 7b 3f c9 e9 7d 3f
       0.98146653 1.0656613 0.98243284 0.9918485
0003e0 0a 42 7a 3f 7f 34 80 3f f6 d2 7a 3f e2 ae 78 3f
       0.9775702 1.001602 0.9797815 0.9714185
0003f0 ed 11 7d 3f e1 f5 7b 3f 5a 05 7d 3f 29 a9 7c 3f
       0.9885548 0.98422056 0.9883629 0.9869562

ablang_branch.1.bias f4 [256]
000000 b5 1c 67 ba 45 de 0c bd b6 af c2 bc c7 12 e1 bb
       -0.00088162284 -0.03439166 -0.023765426 -0.0068686935
000010 f4 28 eb 3b 60 81 7e bc 3e c9 97 bc 0b 16 44 3b
       0.007176513 -0.015533775 -0.018528577 0.0029920365
000020 9a 2c b1 ba 5a af 92 bc aa ad ac bc 1e a5 13 bd
       -0.0013517321 -0.01790588 -0.021078903 -0.03604614
000030 0f 3b 9b bc 1c 38 24 ba 42 0a 32 bc 64 d9 3b bc
       -0.01894906 -0.00062644645 -0.010866703 -0.011465404
000040 b2 86 0f bc ca 61 3d bc 81 7d ed bc f7 85 d3 bb
       -0.008760141 -0.011558959 -0.028990509 -0.006455179
000050 c2 75 57 bc 18 e5 3c bd ce 70 5e ba da 09 a6 bc
       -0.013150634 -0.04611692 -0.0008485437 -0.02026837
000060 d0 0b 63 bd 53 da e0 bc cd 3c 81 b9 d4 1e 4f bd
       -0.055431187 -0.027447855 -0.00024650097 -0.05056651
000070 71 16 94 bb 73 9e 72 bc 5a 18 b9 bc 1e f5 87 bb
       -0.004519277 -0.014808285 -0.02259462 -0.0041490933
000080 f7 d1 b2 bb 44 79 29 bb 47 8e 37 bd 38 23 b5 3a
       -0.0054571587 -0.0025859633 -0.04481342 0.00138197
000090 42 aa 74 bb 6a e3 f6 ba 3a 06 0b bc 29 5f 6e bc
       -0.0037332927 -0.0018836085 -0.008485371 -0.014549055
0000a0 09 a6 a3 bb 7f 39 3e bc ee 83 bc bb 24 7a 26 bc
       -0.004994158 -0.011610388 -0.005753032 -0.0101609565
0000b0 18 46 3a bd 5f a7 61 bc 31 28 e1 bc 62 ef 4e bc
       -0.045477003 -0.013772815 -0.027484985 -0.0126303155
0000c0 fc 44 30 bd 54 87 c4 bc a5 2f c6 bc e5 4b 78 bb
       -0.04303454 -0.02399031 -0.02419264 -0.0037887034
0000d0 d4 a4 22 bc 41 e0 78 bc d1 24 aa bc 35 79 08 ba
       -0.009926993 -0.015190185 -0.020769509 -0.00052060495
0000e0 06 30 e1 bb 7f 29 e3 bc 0b 53 74 bc f8 24 37 3c
       -0.00687218 -0.027729748 -0.014912377 0.011178248
0000f0 81 ac 5d bb fe e1 01 bc f7 bc 84 bc 80 9c 0b 3c
       -0.0033824744 -0.007927416 -0.016203387 0.008521199
000100 d8 e4 47 3c 96 67 d1 bb b1 39 55 bd 12 13 d3 3b
       0.012200557 -0.0063905222 -0.052056972 0.0064414823
000110 9d 12 8f 3a da f8 09 3b 9c a8 f9 bb 27 af 1b bc
       0.0010915581 0.0021052868 -0.0076189768 -0.009502209
000120 f8 3c 47 3c de 74 36 bb 82 75 15 bc 0d ae 0c bc
       0.012160532 -0.0027840654 -0.009122254 -0.008586419
000130 7c fb d9 bc a3 3f ec bb 1e b5 d3 bc 83 b1 07 bc
       -0.026609175 -0.0072097345 -0.0258432 -0.008282068
000140 51 15 a2 bc 17 36 ae bb a2 20 1c bb fe de 9a bb
       -0.019785555 -0.0053165066 -0.0023823162 -0.00472629
000150 cd 4d 96 bc d5 57 ca bb b0 5e bf bc 56 ea 30 bc
       -0.018347645 -0.006175021 -0.02336058 -0.010798058
000160 e1 43 c4 bb e8 15 bf bb d6 f6 24 bb f5 a0 30 bd
       -0.005989537 -0.005831469 -0.002517154 -0.04312225
000170 97 fe b2 bc 2c 56 5a bb ad 59 2a 3c 3c 9b d8 3a
       -0.021849914 -0.0033315523 0.010397357 0.0016525756
000180 6b ae b2 bb 4a 76 6b 3b cc 13 ad bc 53 77 3c bc
       -0.005452921 0.003592866 -0.021127604 -0.0115030585
000190 a1 81 be bc 08 df 3b bc 7b 74 9b bc 9a 1b 44 bd
       -0.023255171 -0.011466749 -0.01897644 -0.047877885
0001a0 04 6e 10 3b 3a c5 52 bc c5 2a 10 bc 74 3a b5 bb
       0.002203823 -0.012864405 -0.00879926 -0.00553065
0001b0 ef 4f 4b bc 4b bb fc bb 69 26 5d bb 4d f9 0f bc
       -0.012409194 -0.0077127567 -0.0033744818 -0.008787465
0001c0 48 8f aa bb a1 b6 77 bc cc 65 c2 ba 9d 6b 05 3b
       -0.0052050687 -0.015119226 -0.0014831363 0.0020358332
0001d0 57 14 1b bb 68 bc ae bc 9e f7 97 bc 78 9f 99 bc
       -0.0023663247 -0.021330073 -0.01855069 -0.018752798
0001e0 68 0c 0f bc b8 da 64 bb cc eb 00 bd 0d 0d c3 3b
       -0.008730985 -0.0034920406 -0.031474873 0.0059524835
0001f0 b2 ae 66 bc 01 e4 5c bc 53 a8 92 bc e9 86 18 bc
       -0.014079737 -0.013482095 -0.017902529 -0.009309509
000200 25 54 dc bc c0 37 0d bc dc 4c d0 ba d6 ea 87 b9
       -0.026895592 -0.008619249 -0.0015892047 -0.00025924173
000210 b2 8e 8b bb 09 52 d6 bb 17 1f e1 bc d2 c5 31 3b
       -0.004258954 -0.006540541 -0.027480645 0.0027125967
000220 78 83 19 3b 94 b2 b7 bc 26 9a 17 ba 31 03 4f bc
       0.0023424309 -0.02242402 -0.0005783163 -0.012635038
000230 b6 eb 2f 3c 23 29 a2 bb dc 1c 0d bd 98 c7 05 bc
       0.01073735 -0.0049487515 -0.03445135 -0.008165263
000240 28 4b 94 bc b1 08 8d 3c 9d b4 a0 bc e7 56 b1 bc
       -0.018102244 0.017216058 -0.019617373 -0.021647884
000250 2e d8 52 bc 18 ce 70 3a 21 ff ea bb 79 f9 ee bc
       -0.012868924 0.0009185984 -0.007171527 -0.029171692
000260 42 4e 8a bb 12 16 04 bc e0 91 23 bb b7 82 e8 bb
       -0.004220755 -0.008061903 -0.0024958774 -0.0070956605
000270 ea 65 89 b7 3b 84 65 bc 4f 86 bc bc bb a9 a7 39
       -1.637913e-05 -0.014008577 -0.023013262 0.0003197918
000280 ff 92 b8 bb af 0d 35 bd 20 99 dc bb 79 a4 0e bb
       -0.0056327577 -0.044202503 -0.006732121 -0.0021765514
000290 c7 45 77 3c 6f 17 a1 bb a9 8b 41 3b 6d ee 55 bc
       0.01509232 -0.0049161236 0.0029532707 -0.013057333
0002a0 ac 1c 8c bb fd 18 b9 bc d5 86 86 bc ea 2c c5 bc
       -0.004275879 -0.022594923 -0.016421715 -0.024069268
0002b0 0d aa 1f bb f4 8d 5a bb 90 df 25 bd 27 15 c1 bc
       -0.0024362833 -0.003334877 -0.04049641 -0.023569657
0002c0 a5 29 00 bc d4 03 42 bc 58 ab 01 bc 6e a9 7e bb
       -0.007822429 -0.011841733 -0.007914387 -0.0038858312
0002d0 d5 d1 b2 bb 89 3e b2 bc d1 99 01 3c e3 64 8d 3b
       -0.005457143 -0.021758335 0.007910208 0.004315005
0002e0 9a 1d aa bc 01 b7 87 bb 71 5e f3 bc e2 db e4 b9
       -0.020766068 -0.004141689 -0.02970812 -0.00043651374
0002f0 d0 e0 2c bd 34 4a 6e b9 40 c8 b1 bc 0f d3 dd bb
       -0.042206585 -0.00022725092 -0.021701932 -0.006769545
000300 bf 83 ae bb 85 c0 8c bc 21 7f a8 bc 7e d3 1e ba
       -0.005325764 -0.017181644 -0.020568432 -0.00060587365
000310 54 5e 0e bb d8 78 f7 bc 7a 68 a8 b9 f4 2e be bb
       -0.0021723704 -0.03020899 -0.00032121298 -0.005803937
000320 99 46 83 bc f4 4c 05 bd 18 ae 90 bc 1c eb 94 bc
       -0.016024875 -0.03254409 -0.01766114 -0.018178515
000330 ca 13 98 ba 8a 47 8b bc 32 14 20 bc e2 af 1b bc
       -0.0011602577 -0.017001886 -0.00977044 -0.009502383
000340 23 bf 06 bc 96 67 89 bc 81 4e 90 bc 4d ec b2 bc
       -0.0082242815 -0.016773026 -0.017615559 -0.021841193
000350 da e2 70 bc 1e 68 04 bc 5c 76 8a 3b 72 3c ae bc
       -0.014702523 -0.008081464 0.0042255353 -0.021269057
000360 9a 82 a7 ba 79 e8 77 bc b0 f4 f5 3a eb 18 1c bd
       -0.0012780011 -0.015131109 0.0018764939 -0.0381097
000370 47 cb 75 bc 69 bc e4 bb 0e 61 56 bc 54 11 3f bc
       -0.015002078 -0.006980468 -0.013084663 -0.011661846
000380 f9 5b a3 bc a0 34 27 bd ba 6a 0d bc 2d 64 31 bc
       -0.019941317 -0.04082167 -0.008631403 -0.010827106
000390 eb bb 88 bc df f5 06 bd 8a 9d 19 bc f0 b8 a7 3a
       -0.016691169 -0.032949325 -0.009375939 0.0012796205
0003a0 e8 3e 27 3c 0c b9 13 bc 9b 57 2f bd 6a 70 88 bc
       0.010207869 -0.009016287 -0.042808156 -0.016655166
0003b0 f9 c2 15 bc be 10 30 bd d0 54 b9 3b e6 87 88 bc
       -0.009140723 -0.042984717 0.0056558624 -0.016666364
0003c0 29 23 cb ba 2e a9 f9 bb 88 78 f0 ba 0e 2e 5a bc
       -0.001549815 -0.0076190447 -0.0018346468 -0.013316644
0003d0 53 0c a6 bc e0 f5 df 3b e6 d2 bf bc 6a 60 f8 3a
       -0.020269549 0.0068347305 -0.023415994 0.0018949632
0003e0 5c 33 94 bc 1e 6e d1 3b fb 51 95 bc 7d c6 90 bb
       -0.018090896 0.006391301 -0.018227568 -0.004418193
0003f0 d2 ee b1 bc 00 31 02 bc c9 10 4a bc fd 0b b1 bb
       -0.021720324 -0.007946253 -0.012333103 -0.0054030404

ablang_branch.4.weight f4 [128, 256]
000000 bf 31 01 3e c7 e4 57 3d 56 6c 5a 3d 30 a7 09 bd
       0.12616633 0.052708413 0.053325973 -0.033606708
000010 39 03 c5 bd c1 4f ef bd 0e 65 f2 bd 42 4a e7 bc
       -0.09619755 -0.11685134 -0.11835681 -0.028233651
000020 7d 3e b9 3d f7 b5 c4 bc 68 08 9b 3c f4 4f a4 3d
       0.09045122 -0.024012549 0.018924907 0.08023062
000030 80 47 86 bd 13 16 10 be e3 74 dd 3c 1f 10 8b 3d
       -0.06556606 -0.1407092 0.027033275 0.06790184
000040 1e 2a f7 3c 1e a6 6b bd aa ee f0 bd eb e6 1f be
       0.03017145 -0.05753147 -0.117642716 -0.15615432
000050 f6 23 d0 3c dc b2 29 3d 6d ac d4 bc 2a 89 44 bd
       0.025407773 0.04143034 -0.025961125 -0.047982372
000060 9b 9a 84 3d c6 25 42 3c 25 c4 b6 bd 1b c4 45 3d
       0.06474801 0.011849826 -0.0892413 0.048282724
000070 fa e7 28 3c 04 ff 02 be 15 fd 71 bd e7 cb b7 3d
       0.010309214 -0.12792593 -0.05907925 0.08974438
000080 75 32 a9 3d 05 b8 28 bd 63 81 d8 bc c8 1e 16 bd
       0.08261577 -0.04119112 -0.026428884 -0.03665045
000090 37 e3 a2 bd 18 6c ff 3c 99 5d a8 bd 40 f8 99 bc
       -0.07953494 0.031179473 -0.08220977 -0.018795133
0000a0 bd da 19 be e2 6e 36 3e 97 90 61 3d 56 65 c0 3b
       -0.15024848 0.17815736 0.055069532 0.005871455
0000b0 6e 58 45 3e 8a c2 5e bd 35 c0 ff 3d 8e e2 8b 3d
       0.19272014 -0.054384746 0.124878325 0.06830321
0000c0 2e aa 96 3d 14 69 06 3d e4 aa f4 3c 1b 11 e9 bd
       0.07356678 0.032815054 0.029866643 -0.11380216
0000d0 cd fc 12 bc ec a9 26 3e 33 c8 04 3d 2e 3e 1b bb
       -0.008971405 0.16275758 0.032417487 -0.0023688185
0000e0 cc e2 a4 3c a4 e2 6d 3c b5 cf 0c be 7e 87 0f 3c
       0.020127676 0.014519367 -0.13751109 0.008760331
0000f0 42 20 d0 bd 65 de 70 bc 0b 6a b6 3b 3e 09 1c bc
       -0.10162403 -0.0147014605 0.0055668405 -0.009523688
000100 59 aa f9 bd 8c 13 a8 bc 6f a1 39 be 8d 9f 66 bd
       -0.12190694 -0.020517133 -0.18127988 -0.056304503
000110 e5 a6 f6 3b 62 33 b3 3c aa 16 77 3e d9 3c 17 3d
       0.0075272196 0.021875087 0.2412974 0.036923263
000120 4e 60 24 3c b1 cf 91 bd 82 fb a8 bd a0 8f af bd
       0.010032726 -0.07119692 -0.08251096 -0.08572316
000130 a6 76 e5 3d b3 6e 39 bc aa b1 c7 bd b9 f3 b0 3c
       0.11204271 -0.011317897 -0.097506836 0.021600591
000140 9b f4 07 be a5 e5 9a bc 11 88 47 bd bd e7 a4 bd
       -0.13276903 -0.018908331 -0.048713747 -0.08052013
000150 f9 50 f3 bb c7 2e ff 3c 3a 29 f6 bd 49 65 21 3d
       -0.007425424 0.031150235 -0.12019582 0.039403234
000160 f5 66 a0 3d d2 dd 24 3c e5 9f 3e bd e1 56 9d bc
       0.078321375 0.010062652 -0.046539206 -0.019206466
000170 26 70 8a bd d9 e6 c2 3c ca da 10 bd 78 82 c8 bd
       -0.06759672 0.023791717 -0.035364904 -0.0979051
000180 65 bc fa 3d 77 40 f9 bd b8 c1 9c 3c 08 31 73 bd
       0.12242965 -0.12170499 0.019135341 -0.05937293
000190 b5 b3 c6 bd 17 87 bb 3d d8 bb 72 bc 78 5e 5b bd
       -0.09702245 0.09156626 -0.014815293 -0.05355689
0001a0 1c 32 0f be 5f 04 cb 3d ed a4 2f 3e 29 e2 c1 bc
       -0.13983959 0.09912943 0.17152758 -0.023667412
0001b0 22 40 0d be 26 d9 45 3e 52 3c 9c 3c de a7 51 3e
       -0.13793996 0.19321117 0.019071732 0.20474193
0001c0 64 99 4c bb 87 43 b2 bc bc 3e f0 bd 49 b1 62 bd
       -0.0031219358 -0.021760715 -0.11730716 -0.055344854
0001d0 54 37 c1 3d b4 8e 85 bd 90 1a 06 3d bb c7 3d bd
       0.09434381 -0.06521359 0.032740176 -0.046333056
0001e0 da 94 fe 3d 13 20 be bc 82 90 63 bd b6 2c 82 bd
       0.12430735 -0.023208654 -0.055557735 -0.06356184
0001f0 32 0a f2 3d cb ca 2a bd 7b 80 ac 3d f7 79 6f bd
       0.11818351 -0.041697305 0.08422943 -0.058465924
000200 09 c1 5f 3d 2d 65 81 3d 91 e2 48 bb e6 9c 20 3e
       0.054627452 0.06318126 -0.0030652622 0.15684852
000210 31 c5 69 bd b7 bf 49 bb fb 53 38 3c a7 92 d7 3c
       -0.057072822 -0.0030784437 0.011250491 0.026315046
000220 d4 5c 2f be 0e 28 a4 3d 60 e9 6b bd 8d 17 9c bd
       -0.17125255 0.08015452 -0.05759561 -0.076216795
000230 aa 44 63 bd bb 42 36 be 9f 69 a8 bd be c0 dd 3d
       -0.055485405 -0.17798893 -0.082232706 0.10827778
000240 96 8e 7d bd 48 80 e7 3d 9a a3 0d be 75 e4 ab 3b
       -0.06190356 0.113037646 -0.1383194 0.00524574
000250 dc 5b 81 bc 04 b1 a0 3c 00 4b 80 bd a4 db f4 bc
       -0.015790872 0.019615658 -0.06264305 -0.029889889
000260 38 e4 b0 bc 8f 37 b9 bd 46 9d 9b bd f2 01 83 bd
       -0.021593198 -0.090438 -0.07598357 -0.063968554
000270 d6 da bc 3c ce 54 2a 3e 8a bf 47 3e 52 75 24 bc
       0.023053568 0.16633913 0.1950666 -0.010037737
000280 73 34 c7 bc a0 d7 01 be ac 31 ca bc 86 4e eb bd
       -0.024317002 -0.1267991 -0.024681889 -0.114895865
000290 7e 05 0e bd 07 80 b1 3b 82 65 42 bd af b5 ce 3b
       -0.034673207 0.0054168734 -0.047460087 0.0063082795
0002a0 9f 3b f2 3c 50 dc db 3d 65 e7 e2 3c b8 47 08 bd
       0.029569445 0.10735381 0.027698228 -0.03327152
0002b0 81 9a 36 3d 0d 96 cb 3c b8 e4 72 be 79 64 58 bd
       0.04458094 0.024851823 -0.23720062 -0.052830193
0002c0 4f 24 7b bd bb b0 20 bd 1f 54 af 3d 3e d6 c3 bb
       -0.061313923 -0.039231043 0.08560967 -0.0059764674
0002d0 a8 89 09 be 82 57 66 3d 68 18 36 bd e1 24 69 3d
       -0.13431418 0.056235798 -0.04445687 0.056919936
0002e0 1a a9 66 3b ce 47 85 bd 9f 0b 1c 3d d9 56 d1 bc
       0.0035196007 -0.06507836 0.03809702 -0.025554108
0002f0 a1 9c d3 bc 62 4f e1 3d 3d 1b 84 3d 07 2a eb bd
       -0.025831522 0.11001469 0.06450508 -0.114826255
000300 6f f7 70 3c be 8b 9c bd 1c 61 f0 3c fb cd 08 3c
       0.01470743 -0.07643841 0.02934318 0.008349891
000310 21 2f 81 3c 74 9b 0f be 44 65 12 bd 83 1c 2a bc
       0.015769543 -0.14024144 -0.035741106 -0.010382774
000320 81 8f bf bd 0e c5 a4 3d 46 42 0a 3e 9c 8a 9e 3d
       -0.09353543 0.08045398 0.13501844 0.077412814
000330 af 13 03 3c 1b 73 36 bd 3f 25 01 3e 6e 49 6e be
       0.008000298 -0.044543367 0.12611865 -0.23270199
000340 27 cd 79 bd 24 54 74 3d 18 0a ac bd 1f 91 83 bc
       -0.060986664 0.059650555 -0.08400363 -0.01606041
000350 52 5b a6 bc 7c d6 62 3d 07 16 da 3c 7f 4b 9d 3d
       -0.020307217 0.05538033 0.026621832 0.07680415
000360 01 19 e0 3c 9d bf c8 bc f7 cc f6 bb 56 77 62 3d
       0.027355673 -0.02450543 -0.007531758 0.05528959
000370 ca 62 8a 3c 44 7e ea bd 62 d4 3d 3c 87 2d 66 bd
       0.01689281 -0.114498645 0.011586281 -0.056195762
000380 f5 4e 83 be 2d b2 60 3b 71 41 e1 bd ab a0 36 3c
       -0.25646177 0.0034285889 -0.1099881 0.011146705
000390 09 b6 e6 bd 3b 6b 43 3c 9c 2b 07 3d 94 7d d7 3b
       -0.11265189 0.011927421 0.033000574 0.0065762494
0003a0 c0 bf 1e 38 c1 e4 6c bd 59 67 2e bd 51 df d7 3c
       3.7848717e-05 -0.057835344 -0.04257903 0.026351603
0003b0 fa 27 61 3c 02 a3 b9 bd 7a aa c1 bd c2 30 7f bd
       0.013742441 -0.090642944 -0.09456344 -0.06230236
0003c0 e6 7d 6c bd b8 a1 82 3c f3 33 2d 3e 94 88 df 3b
       -0.057737254 0.015946254 0.16914348 0.0068217013
0003d0 b8 11 23 3e c9 f6 58 3c 86 bc c9 bd 10 10 6e bd
       0.15924728 0.013242432 -0.09850411 -0.058120787
0003e0 dd 83 19 bd 54 ad 7d bd 2d 3e cb bc d0 6a 39 bd
       -0.03747927 -0.061932877 -0.024809921 -0.04526788
0003f0 d4 9a 02 3e d5 d8 a7 3d 68 68 6b 3e c6 c8 53 bd
       0.12754375 0.08195654 0.22989047 -0.051705144

ablang_branch.4.bias f4 [128]
000000 c7 9d e6 bc 20 15 23 bc dd fe 25 bd f0 b5 cc ba
       -0.028151406 -0.009953767 -0.04052626 -0.0015618186
000010 1f fa d1 bb 1f 91 76 3c dd d5 f4 3c 80 c9 1a bd
       -0.0064079906 0.015049248 0.029887134 -0.03778982
000020 a2 96 50 3d d2 6c d2 3b b9 0a 4c bc 99 1e 4f bd
       0.050924905 0.006421664 -0.012453728 -0.05056629
000030 c8 ea 5f 3c 6c 57 8c bd d0 3c 03 3c fd 3e ed 3c
       0.013666816 -0.06852612 0.008010104 0.0289607
000040 40 38 bf 3b 11 94 76 bc df e6 fc 3c a7 1e 2e 3d
       0.005835563 -0.01504995 0.030871807 0.0425097
000050 84 9c 1e 3c 16 a8 58 bc 59 e0 bf 3b 16 c1 c4 3c
       0.009680871 -0.013223669 0.0058556017 0.024017852
000060 85 0b df bc 8b 70 0b bd 3c cf ff 3b 8e 33 9c 3c
       -0.027227173 -0.034042876 0.0078066867 0.019067552
000070 89 0f 25 bd 50 a7 8f bc 0a 0f 9e bc 1b 2b 4c 3c
       -0.04029802 -0.017535836 -0.01929428 0.012461449
000080 67 2e b0 3c 25 cb 26 bd 0c 5e a7 3b 6d c8 76 bd
       0.021506501 -0.040721077 0.005107647 -0.060249735
000090 35 fa b3 bb 20 e0 5d bc 2a 86 53 bc b8 e7 09 bd
       -0.0054924735 -0.013542205 -0.012910405 -0.03366825
0000a0 1c 0c 18 bd 74 1e b5 3c 05 5b 05 bd 20 39 84 bc
       -0.037120923 0.022109248 -0.032557506 -0.01614052
0000b0 f5 84 9a bc 45 ae 78 bc e5 30 99 bc c7 65 a1 bc
       -0.018862227 -0.015178268 -0.018700073 -0.019701852
0000c0 76 a2 7f bd 6a 7c 05 bc 67 a5 31 3d 81 bb 4c 3c
       -0.062410794 -0.008147338 0.04337063 0.012495876
0000d0 d8 9a d2 bc 29 c1 46 bc 7d 1a f9 bc 9f 10 1d bb
       -0.0257086 -0.012131014 -0.030408138 -0.0023966206
0000e0 89 92 40 bd 2b af 6a bc 55 3b fa bc c2 e3 05 b9
       -0.047014747 -0.01432399 -0.03054587 -0.00012768715
0000f0 4f 45 90 bc 05 89 b4 3b 80 19 1b bd e3 9b c3 bc
       -0.017611174 0.005509498 -0.037866116 -0.023878044
000100 7e 9e 1f bc 49 b4 e4 bc 53 1c 00 bc f1 fb 9d bc
       -0.009742377 -0.027917998 -0.007819253 -0.019285174
000110 73 31 63 3c 2b 17 f4 bc 30 3e a6 3b 89 73 9f bc
       0.01386677 -0.029796204 0.0050733313 -0.019464271
000120 fd 7d b7 3b 6b e7 e6 3a e9 2f 96 bb 43 00 06 3d
       0.005599736 0.0017616575 -0.004583348 0.032715093
000130 6f 5b b3 bc ad a8 d4 bc 09 74 1d bc 36 8b a6 bb
       -0.021894185 -0.025959337 -0.0096101845 -0.005082513
000140 a9 8c 57 3c 7d e0 1f bd d4 27 f0 3b 72 92 3c 3b
       0.013156095 -0.039032448 0.0073289666 0.0028773812
000150 1c f8 28 bc 56 96 4c 3c bf 12 b1 bc 32 f1 2d bc
       -0.01031306 0.012487015 -0.021615384 -0.0106165875
000160 c8 2b 42 bd 1c ac f1 bb a9 c4 8d bc c4 93 15 3b
       -0.047405034 -0.0073752534 -0.017305689 0.002282367
000170 98 af 2b b8 ff 73 e1 bc 97 75 8c bc e3 a8 4e 3d
       -4.093311e-05 -0.027521132 -0.017145915 0.05045403
000180 52 05 c8 3a 25 1f 4b bc 0f c8 dd 3b cb e9 e8 bb
       0.0015260375 -0.012397562 0.0067682336 -0.0071079484
000190 c4 31 51 bc 35 cd 90 3c 3f d6 9f 3c 6c 95 0b 3b
       -0.012768213 0.017675975 0.01951134 0.002129878
0001a0 cd ab 30 3d 74 12 9b bc 35 a9 b5 39 56 ea c9 bc
       0.043132592 -0.018929698 0.0003464908 -0.024647873
0001b0 c2 c0 b6 bc 26 fb c4 3c a7 ed b8 bc 96 84 8b 3d
       -0.022308711 0.024045538 -0.022574259 0.06812398
0001c0 1a 7f 66 ba a9 b9 c5 bc da 18 2e 3c b3 63 9a bc
       -0.00087927433 -0.024136381 0.010626042 -0.018846368
0001d0 2c da 4f bd 6b ee b8 3c 63 01 7a bc e6 aa e1 3c
       -0.050745174 0.022574624 -0.01525912 0.027547311
0001e0 2b 21 ee bc e0 38 2e 3c a3 27 94 ba e7 87 f7 bc
       -0.02906855 0.010633677 -0.0011303317 -0.03021617
0001f0 b5 57 aa 3c 6b 79 2e bd 5a 13 65 bb 97 d8 a4 3c
       0.020793775 -0.042596262 -0.0034954161 0.02012281

ablang_branch.5.weight f4 [128]
000000 f7 30 79 3f 0e 8e 76 3f bb 27 7b 3f b2 87 7c 3f
       0.9734034 0.9631051 0.981075 0.98644555
000010 f2 ed 7a 3f c2 f8 7e 3f 1d e7 80 3f e7 39 7a 3f
       0.98019326 0.99598324 1.007053 0.977446
000020 30 be 83 3f 87 b8 7e 3f 1b 38 77 3f 2f 1b 78 3f
       1.0292416 0.99500316 0.96569985 0.9691648
000030 b1 4c 80 3f af 66 82 3f 11 ed 84 3f 97 4c 81 3f
       1.0023404 1.0187587 1.0384847 1.0101498
000040 b9 67 80 3f c1 1a 7b 3f 04 e5 84 3f 80 1d 83 3f
       1.0031654 0.980877 1.038239 1.0243378
000050 2c c1 86 3f e8 06 76 3f 5b 1e 81 3f 1f 6e 82 3f
       1.0527701 0.9610429 1.0087389 1.0189856
000060 8c 67 78 3f a4 5c 79 3f d4 0f 7a 3f ce 09 82 3f
       0.97033 0.97406983 0.976804 1.0159242
000070 75 38 76 3f 13 60 7a 3f 31 ce 79 3f 4f 03 83 3f
       0.96179897 0.9780285 0.9758025 1.0235385
000080 e2 25 82 3f 6b 64 77 3f fd a2 80 3f a3 51 7b 3f
       1.0167811 0.966376 1.004974 0.9817144
000090 9c 70 74 3f 1b 5c 7d 3f 93 69 7a 3f 42 51 80 3f
       0.9548433 0.98968667 0.97817343 1.0024798
0000a0 06 f5 7a 3f 19 b8 7e 3f d6 5e 76 3f 9b 0b 75 3f
       0.98030126 0.9949966 0.9623846 0.95720834
0000b0 98 50 80 3f 1c 67 75 3f b1 0d 76 3f 39 d0 71 3f
       1.0024595 0.9586046 0.9611464 0.9445835
0000c0 65 ba 79 3f 2f 14 77 3f 1f 0b 81 3f 07 fc 7e 3f
       0.9755004 0.9651517 1.0081519 0.99603313
0000d0 7f b7 74 3f 8e eb 7b 3f 45 8d 76 3f 9d b5 7a 3f
       0.9559249 0.984063 0.9630931 0.9793337
0000e0 b0 f7 80 3f 49 3f 80 3f 3a ba 7b 3f e2 70 82 3f
       1.0075588 1.0019313 0.98331034 1.0190699
0000f0 ef ee 6f 3f f3 33 7a 3f ab 46 7c 3f 55 2d 7b 3f
       0.9372396 0.9773552 0.9854533 0.98116046
000100 e6 48 75 3f 0d 49 79 3f 92 95 78 3f 97 3c 81 3f
       0.9581436 0.9737709 0.97103226 1.0096616
000110 82 c5 83 3f f7 f2 81 3f fd d7 81 3f 1e 0c 7b 3f
       1.029465 1.0152272 1.0144039 0.98065364
000120 46 72 7d 3f 95 13 7e 3f 99 b2 7f 3f ec c5 84 3f
       0.9900249 0.9924863 0.99881893 1.0372901
000130 2b b0 7b 3f 3e ff 76 3f 70 7a 77 3f c5 3f 7e 3f
       0.98315686 0.9648322 0.966712 0.99316055
000140 b2 61 7d 3f 43 2c 7a 3f 8c c4 7a 3f 7b 52 7c 3f
       0.98977196 0.9772379 0.97956157 0.98563355
000150 8c 8a 78 3f 1f de 81 3f 2f c5 70 3f c6 b0 72 3f
       0.97086406 1.0145911 0.9405088 0.94800985
000160 66 de 7a 3f 11 66 82 3f df 63 7b 3f 9f 80 82 3f
       0.97995603 1.0187398 0.98199266 1.0195502
000170 34 af 7e 3f 40 d2 79 3f d1 d1 7b 3f ea 56 85 3f
       0.9948609 0.9758644 0.9836703 1.0417149
000180 6d c1 7d 3f d4 0e 7a 3f 34 63 7b 3f 65 ad 7a 3f
       0.9912327 0.97678876 0.98198247 0.9792083
000190 09 23 7e 3f 1f 05 80 3f f0 57 7c 3f 70 dc 79 3f
       0.9927221 1.0001563 0.9857168 0.97601986
0001a0 59 34 81 3f 46 8f 7c 3f 2f 19 7d 3f b2 96 77 3f
       1.00941 0.9865612 0.9886655 0.9671432
0001b0 a8 77 78 3f 0c 5a 84 3f 93 73 7a 3f 24 88 88 3f
       0.9705758 1.033998 0.978326 1.0666547
0001c0 6a 5b 7b 3f 59 bb 7b 3f 44 d0 7b 3f 03 58 7c 3f
       0.9818636 0.98332745 0.98364663 0.98571795
0001d0 ad 31 75 3f 57 52 84 3f 0c 7d 79 3f 7e 63 80 3f
       0.95778924 1.0337628 0.9745643 1.0030363
0001e0 70 df 76 3f 8a 79 80 3f 3f 9c 7b 3f b3 9f 78 3f
       0.9643469 1.0037091 0.9828529 0.9711868
0001f0 73 cf 84 3f 85 0b 79 3f 67 1b 80 3f c3 7f 80 3f
       1.0375808 0.972832 1.0008363 1.003899

ablang_branch.5.bias f4 [128]
000000 d0 7d 83 bc ea 54 83 bb 08 3a 7c bc 05 e5 dc 3b
       -0.016051203 -0.0040079253 -0.015394695 0.0067411684
000010 a4 83 f0 3a 9d 16 03 3c 1a b1 e0 3c 94 28 8b bc
       0.0018349779 0.008000997 0.027428199 -0.016987123
000020 ef 73 3c 3d 61 90 e8 3b 3a 36 36 bc da 4f 0d bd
       0.046009 0.0070972894 -0.011121327 -0.03449998
000030 7c ef 14 3c 46 de 1b bd 22 cc 07 3c c3 ee d5 3c
       0.009090301 -0.038053773 0.008288415 0.026114827
000040 49 cd 59 3b 0a 00 4c bc e1 46 02 3d a2 f1 30 3d
       0.0033233932 -0.012451181 0.031805877 0.04319919
000050 08 5f 88 3c d8 09 47 bc 9d f2 b3 ba b1 a6 c5 3c
       0.016646877 -0.012148343 -0.0013728921 0.024127336
000060 60 ad 0a bc 75 fc b6 bc 62 2c 91 3b 3e e8 b2 3c
       -0.008464187 -0.022337178 0.0044303397 0.021839257
000070 89 3e e0 bc d3 0d 81 bc 3a ef bb bc b9 10 95 3c
       -0.02737357 -0.015753662 -0.02294122 0.01819645
000080 25 df d9 3c ef 80 1e bd f8 eb e0 3b 15 ee 23 bd
       0.026595661 -0.03869718 0.006864067 -0.040021975
000090 e0 96 aa bb a8 70 83 bb 18 3c 13 b9 f7 45 c0 bc
       -0.005205974 -0.0040112324 -0.00014041399 -0.023470862
0000a0 40 2d bb bc bd 31 aa 3c 6e 23 ca bc 8c 80 44 bc
       -0.022848725 0.02077567 -0.024675097 -0.011993539
0000b0 5f 1d 6f bc 63 a8 53 bc b5 d7 5e bc c1 d5 28 bc
       -0.014594405 -0.0129185645 -0.013601233 -0.010304869
0000c0 d4 df 54 bd 34 65 8e 3b 44 a5 31 3d 6a 0f 78 3c
       -0.05197127 0.0043455604 0.0433705 0.015140394
0000d0 3d 5a c2 bc 34 9d 72 b8 a9 42 62 bc 92 7c fd 3a
       -0.02372467 -5.7843703e-05 -0.013809838 0.0019339493
0000e0 4a 3c 31 bd 2e 2d 93 39 90 29 45 3c b3 0f bd 3b
       -0.043270387 0.00028071686 0.012033835 0.0057696938
0000f0 dd 41 86 bc 95 11 8d 3b 4a 64 14 bd 7d 37 86 bc
       -0.016388828 0.0043050745 -0.036228456 -0.01638388
000100 07 7e 21 bc 1e 5d d3 bc dc c6 43 bb 7a e7 c7 bb
       -0.009856707 -0.025801238 -0.0029873168 -0.006100592
000110 74 3f 9a 3c 80 22 b6 bc 34 97 30 3b e4 47 03 bc
       0.018829085 -0.022233248 0.0026945593 -0.0080127455
000120 0b d6 f9 3b e4 b7 fb 38 7c ed 68 bb ab 8d 0a 3d
       0.007624393 0.00012002865 -0.0035541942 0.03382651
000130 8c ad 9c bc 99 45 b1 bc c4 1f f6 bb ad 42 3e bb
       -0.019125722 -0.021639632 -0.007511111 -0.002903144
000140 f2 d1 45 3c 58 56 eb bc 14 1b fa 3b 8a b3 0c 3c
       0.012073981 -0.028727695 0.0076326225 0.008587727
000150 c6 c4 63 bb 97 5d ef 3c 06 cf a5 bb 80 e2 f3 bb
       -0.0034754737 0.029219432 -0.0050600795 -0.0074427724
000160 10 59 9c bc 98 d3 ee 3a 90 0a 54 bc fd f7 d3 3b
       -0.019085437 0.0018221019 -0.012941971 0.0064687715
000170 33 d3 10 3b 7d d3 f5 bb c2 f1 f3 bb c5 f4 56 3d
       0.002209854 -0.007502018 -0.0074445913 0.052479524
000180 03 57 9b 3b 9d ad 81 bc c5 69 a3 3b 96 f9 b2 bb
       0.004740597 -0.015829856 0.004986974 -0.005461882
000190 2c bd 07 bc 3f 4a a3 3c d2 fc ae 3c e2 90 be 3b
       -0.008284848 0.019932864 0.021360788 0.005815611
0001a0 a1 27 2d 3d 32 3b 5e bc ca 1e 75 bb 6c 68 48 bc
       0.04227412 -0.013563918 -0.0037402385 -0.012231927
0001b0 f0 24 e3 b7 db 81 ac 3c 40 7b 98 bc b7 9a 84 3d
       -2.707771e-05 0.021058014 -0.018613458 0.06474822
0001c0 fd f2 81 3b 2c 1a 16 bc e5 b4 81 3c 8d 7b 5b 3b
       0.003965734 -0.009161513 0.015833328 0.003349039
0001d0 70 c9 d6 bc 86 39 cd 3c 90 3f 8a bc dd fe f8 3c
       -0.0262191 0.025051843 -0.016876012 0.030394966
0001e0 c5 04 98 bc 6c c3 32 3c ff 6a 37 3b 94 cf 84 bc
       -0.018556962 0.01091085 0.0027987359 -0.016212262
0001f0 c2 16 dd 3c b7 d7 f4 bc 65 03 f3 ba 77 3c a2 3c
       0.02698839 -0.029888017 -0.001854044 0.019804223
