data/model_weights/cv_fold_3_model3_0.pt (torch, 707477 bytes, 29 tensors)

ablang_branch.0.weight f4 [256, 480]
0	0xbd1ec0de	-0.03875815
1	0xbd6470d0	-0.05577165
2	0xbd4a3df2	-0.049375482
3	0xbdb553a1	-0.088538416
4	0xbd005666	-0.031332396
5	0xbd1a9856	-0.037742935
6	0x3d190cdd	0.037365783
7	0xbd7a272e	-0.06107252
8	0xbd58b953	-0.052911114
9	0x3cab25ec	0.020892106
10	0x3d53c63f	0.051702734
11	0xbd666802	-0.056251533
12	0xbd4491d3	-0.04799063
13	0xbb38f11b	-0.0028219882
14	0x3d2f5051	0.042801205
15	0x3e08ed88	0.13371861
16	0xbcf16d01	-0.029470922
17	0xbd07849e	-0.033085458
18	0xbda0dee2	-0.078550115
19	0x3d7300e2	0.059327014
20	0x3d2f50f9	0.04280183
21	0xbceb23d1	-0.028703602
22	0xbde27b1a	-0.11058636
23	0xbd270fd0	-0.040786564
24	0xbd8a03ca	-0.06739004
25	0xbc8540c2	-0.01626623
26	0xbde5c269	-0.112187214
27	0xbd35f6df	-0.044424888
28	0xbdd7a57f	-0.10529613
29	0xbb429674	-0.0029691728
30	0x3d0a8a1a	0.03382311
31	0xbc3367f7	-0.01095008
32	0x3d7a815f	0.061158534
33	0x3d88aa90	0.06673157
34	0xbd87f102	-0.066377655
35	0xbbf89e03	-0.007587196
36	0x3d2e7d14	0.042599753
37	0x3dceb5bf	0.10093259
38	0xbd8c74ea	-0.06858237
39	0x3d9ade95	0.075619854
40	0xbda45df2	-0.08025731
41	0x3dc0511e	0.09390472
42	0xbe012947	-0.12613402
43	0xbd9abe78	-0.0755586
44	0x3bfc294b	0.007695352
45	0x3dd7138f	0.105017774
46	0xbd60bb3e	-0.054866068
47	0xbda4299e	-0.0801575
48	0x3ded55f4	0.1158866
49	0xbc56d595	-0.013112445
50	0x3c5d1b09	0.013495215
51	0xbda2e70a	-0.079542235
52	0x3d2f0acd	0.04273491
53	0xbdb14945	-0.08656553
54	0xbcf5d265	-0.03000755
55	0xbc898066	-0.016784858
56	0xbccbe8c7	-0.02489127
57	0x3c5509e1	0.013002844
58	0x3d271d61	0.040799502
59	0x3d4d2f5f	0.050094005
60	0xbd089f19	-0.033354852
61	0xbc8b7907	-0.017025484
62	0xbd0476f8	-0.03234002
63	0x3d130262	0.035890944
64	0x3d3c521d	0.045976747
65	0x3d2ad333	0.04170532
66	0x3c85e3e6	0.016344022
67	0x3da9cbab	0.082908
68	0xbbc6c61e	-0.006066098
69	0xbd9ebe8f	-0.0775119
70	0x3d118ed4	0.035536602
71	0xbd9ebafb	-0.077505074
72	0x3baea154	0.0053292904
73	0xbcdd7aed	-0.027036155
74	0xbd4d1644	-0.050070062
75	0xbce2607c	-0.027633898
76	0xbc99715e	-0.018730816
77	0x3d4d9b17	0.050196733
78	0xbe04be52	-0.12963226
79	0xbae9f069	-0.0017848137
80	0xbd16aa5d	-0.036783565
81	0x3d901b9c	0.07036516
82	0xbcdc0629	-0.026858406
83	0xbdb484a1	-0.088143595
84	0x3d1bd116	0.038041197
85	0x3dfc4471	0.12317742
86	0xbd8309e9	-0.063983746
87	0x3b2535c8	0.0025209058
88	0x3d38b19a	0.04509125
89	0xbca6adca	-0.020346541
90	0x3d6a2341	0.057162527
91	0x3d5301a1	0.051515225
92	0x3d82d521	0.06388307
93	0x3bfaa3b8	0.0076489113
94	0x3d991950	0.07475531
95	0x3e63aa83	0.22233014
96	0x3c4c16d2	0.012456613
97	0xbc587d3a	-0.01321345
98	0xbd24fd97	-0.040280905
99	0xbc5067bb	-0.012720044
100	0x3c2b3537	0.010449699
101	0x3d0d82db	0.03454862
102	0x3da0f7be	0.07859753
103	0x3d98e29c	0.07465097
104	0x3da00e00	0.0781517
105	0x3e17b438	0.14814842
106	0x3e298d7d	0.1655788
107	0xbce550af	-0.027992574
108	0x3d54d1ba	0.051957823
109	0xbd52f638	-0.051504344
110	0xbdc2755d	-0.094950415
111	0x3e16b03e	0.14715669
112	0x3e2829bc	0.1642217
113	0x3d33cb80	0.043895245
114	0xbda872e4	-0.08225039
115	0x3d3fa5e7	0.046789076
116	0xba8b0e4c	-0.0010609119
117	0xbbe13255	-0.006872455
118	0xbb44d91a	-0.003003663
119	0x3c27d8a5	0.010244523
120	0x3980e4d8	0.00024584564
121	0x3d77eaaa	0.060526527
122	0xbd4431f0	-0.047899187
123	0x3affca97	0.0019515333
124	0xbdd87a80	-0.1057024
125	0xbdb84c5b	-0.08998939
126	0xbcde9936	-0.027172666
127	0x3e0099fd	0.12558742
128	0x3aed65c9	0.0018111999
129	0x3d3eaa86	0.046549343
130	0xbd142b2d	-0.036173988
131	0x3d462717	0.048377123
132	0x3be18bbc	0.0068831127
133	0x3db1e863	0.086869024
134	0xbd6c322a	-0.057665028
135	0x3c4f9cd9	0.012671673
136	0x3d61e445	0.055149335
137	0xbd16caa8	-0.03681436
138	0xbd628990	-0.05530697
139	0x3cb636a8	0.022242859
140	0x3b0503fc	0.0020296564
141	0xbd583101	-0.05278111
142	0xbd409330	-0.04701537
143	0xbd0c967b	-0.034323197
144	0x3c071863	0.00824556
145	0x3bd0d1d3	0.0063726692
146	0xbd966737	-0.073439054
147	0xbd2cfe83	-0.04223491
148	0xbd166542	-0.03671766
149	0x3ceef02d	0.02916726
150	0x3d556e21	0.05210698
151	0xbb3a1e8e	-0.002839956
152	0xbbf422aa	-0.0074504213
153	0xbd727ee5	-0.059203047
154	0xbd240b82	-0.040050037
155	0xbb6bcc79	-0.003598003
156	0xbdba9cc1	-0.0911193
157	0x3cca5afd	0.02470159
158	0xbd0d6f9f	-0.03453028
159	0x3c5f0d3e	0.013613997
160	0xbd689f21	-0.056792382
161	0x3cb99c05	0.022657404
162	0x3cba56e6	0.022746515
163	0x3c3d2f2c	0.011546891
164	0x3e045e0c	0.12926501
165	0x3be9ffaa	0.0071410732
166	0x3d8afb6d	0.06786237
167	0xbd62aa0e	-0.055337958
168	0xbd2b13c8	-0.04176691
169	0xbd1d06f4	-0.03833671
170	0x3d71bc1c	0.059017286
171	0xbb784b1e	-0.003788657
172	0x3da669d2	0.081256524
173	0xbcb17969	-0.021664338
174	0xbd9d4268	-0.076786816
175	0xbcca19b2	-0.024670456
176	0x3d953f05	0.07287411
177	0x3d480c8b	0.048840087
178	0x3cb5950e	0.022165801
179	0xbd18e368	-0.037326247
180	0xbd29767e	-0.04137277
181	0xbc217d92	-0.009856598
182	0x3d5b639f	0.053561803
183	0xbe03cde2	-0.12871507
184	0x3d2e09c8	0.042489797
185	0x3d275da8	0.040860802
186	0x3d51df14	0.051238135
187	0xbd3cf036	-0.04612752
188	0x3df6a6d1	0.120435365
189	0x3cca0fb1	0.024665685
190	0x3ce4ba14	0.02792076
191	0x3d16d40a	0.03682331
192	0xbd9357e3	-0.071944974
193	0x3d06cf91	0.032912795
194	0x3d97a37a	0.074042276
195	0x3cabd230	0.020974249
196	0xbd59a542	-0.053136118
197	0xbbbe2ee6	-0.0058039306
198	0xbdc007b6	-0.09376471
199	0x3d3da499	0.04629955
200	0x3dadab02	0.08479883
201	0xbc89e268	-0.016831592
202	0xbc2ee812	-0.010675447
203	0xbbf824ea	-0.00757276
204	0x3d5b191e	0.05349075
205	0xbd4c4517	-0.049870577
206	0x3e06198c	0.13095683
207	0x3e4fa82b	0.20278995
208	0x3d5fe5f3	0.054662656
209	0xbd5f3a7c	-0.054499134
210	0x3c120e7b	0.008914585
211	0xbbc4e48f	-0.0060086916
212	0x3d2f9742	0.04286886
213	0xbc958762	-0.018253032
214	0x3db4bd42	0.088251606
215	0xbd78995d	-0.060693134
216	0x3c886581	0.016649963
217	0xbdc6ec37	-0.09713023
218	0xbd5946df	-0.053046104
219	0xbd20c574	-0.039250806
220	0x3ca7c5c3	0.020480042
221	0x3d52fdb1	0.05151147
222	0x3da71898	0.08158988
223	0x3d60632d	0.05478208
224	0x3d284113	0.041077685
225	0x3bd7c00a	0.006584172
226	0x3e0dd9da	0.13852635
227	0xbd86be95	-0.065793194
228	0x3c23159c	0.009953883
229	0xbcf6a16b	-0.030106267
230	0xbc81e5a5	-0.015856573
231	0x3dbf9c1e	0.09355949
232	0x3a850b8c	0.0010150536
233	0x3d80facc	0.06297836
234	0x3c85e57b	0.016344776
235	0xbd1a2e39	-0.037641738
236	0x3c4cd72f	0.012502476
237	0x3d6a2ad7	0.05716976
238	0x3d9df113	0.07711997
239	0x3de58f89	0.11209018
240	0x3cbea1ce	0.023270514
241	0xbd524a8e	-0.051340632
242	0x3df4c6e1	0.11951996
243	0xbc647253	-0.013943273
244	0x394735c4	0.00018998148
245	0xbc14ab5c	-0.009074058
246	0x3d987dfe	0.07445906
247	0xbd3c114e	-0.04591494
248	0x3df6f9a9	0.12059338
249	0xbe1ce5eb	-0.15322082
250	0x3d1a49f1	0.037668172
251	0xbb81333b	-0.0039428747
252	0xbded0cdd	-0.11574719
253	0xbdaa2c91	-0.083092816
254	0xbbc1ccaf	-0.0059142928
255	0x3d1b117f	0.037858482

ablang_branch.0.bias f4 [256]
0	0x3a051bf5	0.0005077713
1	0x3c128d1c	0.008944776
2	0x3b481ba2	0.0030534049
3	0x3ba90320	0.005157843
4	0x3a7542ae	0.00093559443
5	0x3b09a520	0.0021002963
6	0x3c0a0a89	0.008425363
7	0x3b93f2c4	0.004515024
8	0x3b996937	0.004681732
9	0x3bd858bf	0.0066023762
10	0x3c1541ca	0.009109924
11	0xbad04227	-0.0015888856
12	0x3c3289cb	0.01089711
13	0x3b5ae51f	0.0033400727
14	0x3b5ff2b1	0.0034171755
15	0x3bf58392	0.007492491
16	0xba28aa0a	-0.0006434029
17	0x3c1e5223	0.009663138
18	0x3c452072	0.012031661
19	0xba617fc0	-0.0008602105
20	0x3bd0d702	0.006373287
21	0xbbe9b464	-0.0071321
22	0x3b568ade	0.003273658
23	0x3be0b785	0.0068578147
24	0x3b8fc8a7	0.0043879333
25	0x3b5da909	0.0033822677
26	0x3bbde489	0.005795066
27	0x3ae197c6	0.001721137
28	0x3c31d9b9	0.010855132
29	0x3bc60f1d	0.006044282
30	0x3bf74348	0.0075458623
31	0x3bdacf4b	0.0066775433
32	0x3b508357	0.0031816566
33	0xbb0b2e16	-0.0021237186
34	0x3bae9ac0	0.005328506
35	0x3bcfb55b	0.006338758
36	0x3bed2e77	0.007238205
37	0x3b924afc	0.0044645052
38	0x3a7c6c78	0.00096292
39	0x3bac57b7	0.00525948
40	0x3bd86e80	0.0066049695
41	0x39b95c5b	0.0003535476
42	0x3c3baa07	0.011454112
43	0x3bdc87e3	0.006730066
44	0xb99ebfeb	-0.00030279098
45	0x3c686381	0.01418388
46	0x3bc317db	0.0059537715
47	0x3b850afc	0.0040601473
48	0x3bd5ea57	0.0065281796
49	0x3b0b9695	0.002129947
50	0xbb89c921	-0.0042048846
51	0x3c01b850	0.007917479
52	0xb90c70cf	-0.00013393465
53	0x3bbadd1b	0.0057026274
54	0x3b56f99d	0.003280259
55	0xbaffd400	-0.0019518137
56	0x3ad7db81	0.0016468616
57	0x3b95cb00	0.0045713186
58	0x3b93fdbc	0.0045163315
59	0xb8f5664d	-0.000117015654
60	0x3b55a494	0.0032599317
61	0x3c2cb721	0.010541708
62	0x39d41bee	0.000404566
63	0x3afe88b7	0.0019419406
64	0xba58edee	-0.00082752004
65	0x3bf55531	0.0074869622
66	0x3a9dafaa	0.0012030501
67	0x3c2903fc	0.010315891
68	0x3ab69045	0.0013928494
69	0x3be5c6ee	0.0070122397
70	0xbb05c135	-0.002040935
71	0x3b9d4b23	0.0048002168
72	0xb9e29a76	-0.00043221161
73	0xbae35e5e	-0.0017346849
74	0x3bb056a7	0.0053814235
75	0x3b8bfbc5	0.0042719566
76	0x3be92b6e	0.007115773
77	0x3bb504e4	0.0055242646
78	0xbb14ed80	-0.002272457
79	0xba310f96	-0.00067543366
80	0x3b8ac345	0.0042347037
81	0xbba2d808	-0.0049696006
82	0x3b41ec3a	0.0029590265
83	0x3c1738d6	0.009229859
84	0x3ab79f35	0.0014009239
85	0x3afe11f9	0.0019384018
86	0x3bb7d52d	0.0056101293
87	0xbb2bfc2a	-0.002624283
88	0x3c45fcbb	0.012084181
89	0x3baf17aa	0.005343397
90	0x3b0e8f68	0.0021752957
91	0x3b109229	0.0022059774
92	0xba25b8e2	-0.00063218
93	0x3c2a6e9b	0.010402347
94	0x3c22ca33	0.009935903
95	0x3c195b91	0.00936021
96	0x3ba8e6b0	0.005154453
97	0x3bdcb078	0.006734904
98	0x3b917028	0.004438419
99	0x3b4ceb9a	0.003126836
100	0x3b84d9c0	0.004054278
101	0x3c2c9c82	0.010535361
102	0x3bc24936	0.0059291376
103	0x3b865182	0.004099072
104	0x3beb832d	0.007187268
105	0x3c1c4aec	0.009539347
106	0x3b1072c5	0.0022041064
107	0x3bb511de	0.0055258116
108	0x3b363678	0.0027803462
109	0x3c331836	0.010931065
110	0x3c4b3927	0.012403763
111	0x3b255174	0.0025225552
112	0xba80081d	-0.0009768043
113	0x3c0e18a2	0.008672865
114	0x3bed59b3	0.007243359
115	0x3b69cb2d	0.003567408
116	0xbae19b84	-0.0017212485
117	0x3bb68266	0.005569744
118	0xbb79bfb0	-0.003810864
119	0x3b8a82af	0.0042270045
120	0x3bde161a	0.006777537
121	0x3c824681	0.01590276
122	0xb9785d80	-0.00023685955
123	0x3aa8ea51	0.0012887215
124	0xbb77d6d3	-0.0037817254
125	0xb982a21f	-0.00024916322
126	0x3beeae21	0.0072839414
127	0xba17870f	-0.0005780318
128	0x389b296b	7.398691e-05
129	0x3b67f804	0.0035395632
130	0x3a979b1e	0.0011566614
131	0x3bc56823	0.006024377
132	0x3c745886	0.014913684
133	0xbb3ff010	-0.0029287376
134	0xbbae2c0e	-0.0053153103
135	0x3aba93fe	0.0014234779
136	0x396b7afa	0.00022457159
137	0xba7d46fe	-0.0009661763
138	0x3c2f617e	0.010704396
139	0x3b1c7e71	0.0023879076
140	0x3bdf4e62	0.006814764
141	0x3c231296	0.009953162
142	0x3b25bc6c	0.002528931
143	0x3b60c6fa	0.0034298287
144	0x396b933e	0.00022466198
145	0x3c0131b3	0.007885384
146	0x3acde7d4	0.0015709349
147	0x3bf267e3	0.007397638
148	0x3bed4c98	0.0072417967
149	0x3bfc6fa7	0.0077037397
150	0x3ac59a31	0.001507586
151	0x3b395ab6	0.0028282828
152	0x3bd2f71a	0.006438148
153	0x3b9b6001	0.004741669
154	0x3beeff86	0.0072936444
155	0x3bec2e80	0.0072076917
156	0x3aaab05c	0.001302253
157	0x3b99f84c	0.0046987887
158	0x3bf625e7	0.0075118425
159	0xba00a06d	-0.0004906718
160	0x3a3aeccb	0.0007130622
161	0xba83486d	-0.0010016091
162	0x3bd47ea1	0.006484822
163	0x3c067beb	0.008208255
164	0x3bbe98b8	0.0058165453
165	0xbc062416	-0.0081873145
166	0x3b91e674	0.004452521
167	0x3ae3ee65	0.0017389773
168	0x3a4eff5d	0.00078963285
169	0x3ab6b345	0.0013938925
170	0xb9e3e200	-0.00043465197
171	0x3c0798fc	0.00827622
172	0xba861645	-0.0010230026
173	0xbaadbcdd	-0.0013255138
174	0x3c131c9c	0.008978989
175	0x3bc0ebba	0.005887476
176	0xba80e57e	-0.0009834019
177	0x3b664c7e	0.0035140808
178	0x3bdc488b	0.006722515
179	0x3abe6c3e	0.0014528108
180	0x3b2d2c57	0.0026424134
181	0x3c064129	0.008194246
182	0x3b7506b6	0.0037388033
183	0x3b56ffb0	0.003280621
184	0x3adaf267	0.0016704322
185	0xb979d305	-0.00023825101
186	0x3b8aafb2	0.0042323703
187	0x3c19eb47	0.009394473
188	0x3b8b7c89	0.004256789
189	0x3b4f72e7	0.003165418
190	0x3b5dc2a6	0.0033837943
191	0xbab73177	-0.0013976534
192	0x3c00ba76	0.007856956
193	0x3c307859	0.010770881
194	0x3bd09b67	0.0063661817
195	0x3ba38630	0.0049903616
196	0x3beb4860	0.0071802586
197	0x3c0652c0	0.00819844
198	0x3c0c4514	0.008561391
199	0x3bc5c9f0	0.0060360357
200	0x3bf11fa2	0.0073585073
201	0x3b382976	0.0028100885
202	0x3c1ec315	0.009690066
203	0x3b2e8300	0.0026628375
204	0x3bb5697b	0.005536256
205	0x3c0d0c27	0.008608854
206	0x3bab2667	0.005223084
207	0x3ba550f6	0.0050450517
208	0x3c4beba6	0.01244632
209	0x3c4d2e8e	0.0125233065
210	0x3bff2b8b	0.007787173
211	0x39c575ec	0.00037662627
212	0x3b8d0b8e	0.004304356
213	0x3bbeada7	0.005819041
214	0x3b521d1d	0.003206081
215	0xb9526ef0	-0.00020068488
216	0x3be045cf	0.0068442593
217	0x3a7b08ac	0.00095761823
218	0x3b962eb2	0.0045832032
219	0x3a75f4a0	0.000938246
220	0x3baf97c0	0.005358666
221	0xbb7afc40	-0.0038297325
222	0xbb621562	-0.0034497608
223	0x3bad039d	0.0052799718
224	0x3bdca185	0.006733122
225	0x3b87395e	0.0041267117
226	0x3bf88f80	0.007585466
227	0xb937d64e	-0.00017532075
228	0x3aea7510	0.001788767
229	0x3b6bbbc7	0.0035970078
230	0x3c2dde3e	0.010612069
231	0xbb89ccac	-0.004205307
232	0x3b29ca97	0.0025908106
233	0xbb8d4487	-0.0043111476
234	0x3bdc3c40	0.0067210495
235	0x3b02049a	0.0019839169
236	0x3b7f8e20	0.0038994625
237	0x3c3088a4	0.010774765
238	0x3b8075b2	0.0039202804
239	0x3bca3e42	0.0061719725
240	0x3b55916c	0.00325879
241	0x3c1099c4	0.008825723
242	0xbb871620	-0.0041225106
243	0xbadc33a0	-0.0016800053
244	0x3c025815	0.007955571
245	0xba9867f8	-0.0011627665
246	0x3bd49245	0.0064871632
247	0x3c094819	0.008379006
248	0x3bb05198	0.0053808205
249	0x3abe08ba	0.001449845
250	0x3a561a21	0.00081673457
251	0x3b0c6fa7	0.0021428855
252	0x3aad8d95	0.0013241047
253	0xba0ecf15	-0.0005447728
254	0x3b806f7c	0.00391954
255	0x3bc901fc	0.0061342698

ablang_branch.1.weight f4 [256]
0	0x3f80d127	1.0063828
1	0x3f7fcd6a	0.9992281
2	0x3f7af3c2	0.98028195
3	0x3f824ecc	1.0180297
4	0x3f7d6781	0.9898606
5	0x3f808b56	1.0042522
6	0x3f7d838b	0.99028844
7	0x3f80f207	1.0073861
8	0x3f7fe1cf	0.9995393
9	0x3f81e2c1	1.0147325
10	0x3f80cbf2	1.0062239
11	0x3f809b5a	1.004741
12	0x3f8492f6	1.0357349
13	0x3f7ea7c5	0.99474746
14	0x3f7ca93c	0.9869573
15	0x3f7f5cd4	0.9975102
16	0x3f7f4427	0.9971337
17	0x3f805caf	1.0028285
18	0x3f8255b3	1.0182403
19	0x3f852ff9	1.0405265
20	0x3f7c7d85	0.9862903
21	0x3f7a2974	0.977195
22	0x3f7e2865	0.9928039
23	0x3f83f714	1.0309777
24	0x3f823b06	1.0174263
25	0x3f8194b8	1.012351
26	0x3f866f5a	1.0502732
27	0x3f8039dd	1.0017658
28	0x3f7faf40	0.99876785
29	0x3f811ffc	1.0087886
30	0x3f8769cf	1.0579165
31	0x3f7c69d9	0.9859901
32	0x3f817d22	1.0116313
33	0x3f818094	1.0117364
34	0x3f82183d	1.0163647
35	0x3f830856	1.0236919
36	0x3f7e465c	0.9932611
37	0x3f7fe117	0.99952835
38	0x3f8148c6	1.0100334
39	0x3f7d33cf	0.9890718
40	0x3f7b5100	0.9817047
41	0x3f7bcbbd	0.98357755
42	0x3f7eb873	0.995002
43	0x3f7f2813	0.99670523
44	0x3f7da8f3	0.9908592
45	0x3f83ecd8	1.0306654
46	0x3f825027	1.018071
47	0x3f7e3de5	0.99313194
48	0x3f80cc64	1.0062375
49	0x3f7b9064	0.982672
50	0x3f7b920b	0.9826972
51	0x3f7bafad	0.98314935
52	0x3f8095a8	1.0045671
53	0x3f8559f6	1.0418079
54	0x3f815811	1.0105001
55	0x3f7de617	0.99179214
56	0x3f818561	1.0118829
57	0x3f7d57b3	0.98961943
58	0x3f837011	1.0268575
59	0x3f7e8c8c	0.9943321
60	0x3f81e8fb	1.0149225
61	0x3f850859	1.0393173
62	0x3f7ae155	0.9800008
63	0x3f842ee4	1.032681
64	0x3f795088	0.97388506
65	0x3f809f49	1.004861
66	0x3f80a8d7	1.0051526
67	0x3f800d42	1.0004046
68	0x3f82139f	1.0162238
69	0x3f80263f	1.0011672
70	0x3f7a832f	0.9785642
71	0x3f7e0942	0.99232876
72	0x3f807dcd	1.0038391
73	0x3f8020ae	1.0009973
74	0x3f7f1261	0.9963742
75	0x3f826132	1.0185912
76	0x3f804de8	1.0023775
77	0x3f816229	1.0108081
78	0x3f7d8d8e	0.9904412
79	0x3f7c3695	0.98520786
80	0x3f7aac9f	0.9791965
81	0x3f816903	1.0110172
82	0x3f7a5950	0.9779253
83	0x3f7dad04	0.99092126
84	0x3f8227da	1.0168412
85	0x3f7ce32e	0.9878415
86	0x3f7e0076	0.99219453
87	0x3f837e59	1.0272933
88	0x3f81200e	1.0087907
89	0x3f808049	1.003915
90	0x3f7d639e	0.9898013
91	0x3f7de108	0.99171495
92	0x3f803d4c	1.0018706
93	0x3f7edbe2	0.99554265
94	0x3f7f2acf	0.99674696
95	0x3f816b06	1.0110786
96	0x3f859345	1.0435568
97	0x3f7fa4aa	0.9986063
98	0x3f7ffc8b	0.99994725
99	0x3f813f85	1.009751
100	0x3f8023de	1.0010946
101	0x3f86abd1	1.0521184
102	0x3f82beed	1.0214516
103	0x3f825c85	1.0184485
104	0x3f847758	1.0348921
105	0x3f85fc31	1.0467588
106	0x3f88bc57	1.0682477
107	0x3f80273e	1.0011976
108	0x3f80810e	1.0039384
109	0x3f8129ba	1.0090859
110	0x3f8160d5	1.0107676
111	0x3f7c2d8d	0.98507005
112	0x3f819096	1.0122249
113	0x3f819839	1.012458
114	0x3f80d280	1.006424
115	0x3f7df864	0.9920714
116	0x3f7d9cc9	0.9906736
117	0x3f81cc53	1.014048
118	0x3f7c370e	0.98521507
119	0x3f81b9f5	1.0134875
120	0x3f7f01f3	0.9961235
121	0x3f851e1b	1.0399812
122	0x3f7cb342	0.98711026
123	0x3f80bc4c	1.0057464
124	0x3f7e4f3f	0.9933967
125	0x3f80eb2e	1.0071771
126	0x3f7c55cf	0.98568434
127	0x3f7d1420	0.98858833
128	0x3f7c5ca1	0.9857884
129	0x3f80159c	1.0006595
130	0x3f814628	1.0099535
131	0x3f80917f	1.0044402
132	0x3f81590f	1.0105304
133	0x3f7b1192	0.98073685
134	0x3f7d32ad	0.9890545
135	0x3f7e255b	0.9927575
136	0x3f7b9d67	0.9828705
137	0x3f7cdb51	0.9877215
138	0x3f801bf6	1.0008533
139	0x3f80bd56	1.0057781
140	0x3f87160e	1.0553606
141	0x3f84216b	1.0322698
142	0x3f7e9073	0.9943916
143	0x3f815083	1.0102695
144	0x3f7c2569	0.98494583
145	0x3f7e7c10	0.99408054
146	0x3f7fac68	0.99872446
147	0x3f818f75	1.0121905
148	0x3f839438	1.0279608
149	0x3f7dad1a	0.9909226
150	0x3f804a30	1.002264
151	0x3f81d943	1.0144428
152	0x3f7bb9e6	0.98330534
153	0x3f7e1305	0.9924777
154	0x3f80b89c	1.0056338
155	0x3f80526e	1.0025156
156	0x3f83e175	1.0303179
157	0x3f853bdb	1.0408891
158	0x3f7e5d23	0.99360865
159	0x3f78d9d4	0.9720738
160	0x3f7c3cf4	0.9853051
161	0x3f790474	0.9727242
162	0x3f7d6ec1	0.9899712
163	0x3f7fa614	0.9986279
164	0x3f7d9084	0.9904864
165	0x3f7f4b57	0.99724334
166	0x3f8270d1	1.0190679
167	0x3f7d2688	0.9888692
168	0x3f7d1dc1	0.98873526
169	0x3f7a32c1	0.97733694
170	0x3f863807	1.0485848
171	0x3f850009	1.0390636
172	0x3f7f4f97	0.9973082
173	0x3f8642e2	1.0489161
174	0x3f818abb	1.0120462
175	0x3f7cc515	0.98738223
176	0x3f7d0e5c	0.98850036
177	0x3f820e51	1.0160619
178	0x3f7f4bf0	0.99725246
179	0x3f7f5e62	0.9975339
180	0x3f835ea3	1.0263256
181	0x3f83b122	1.0288432
182	0x3f80f7ad	1.0075585
183	0x3f7d3c01	0.98919684
184	0x3f820f3f	1.0160903
185	0x3f806d98	1.0033445
186	0x3f7df26a	0.9919802
187	0x3f82633c	1.0186534
188	0x3f7f052c	0.99617267
189	0x3f7cd5f5	0.9876397
190	0x3f80bca6	1.0057571
191	0x3f7f8222	0.9980794
192	0x3f7f2c88	0.99677324
193	0x3f805405	1.0025641
194	0x3f7eb58a	0.99495757
195	0x3f803568	1.0016298
196	0x3f7ecdc8	0.9953275
197	0x3f7e62ce	0.99369514
198	0x3f811d51	1.0087072
199	0x3f7b79ba	0.98232615
200	0x3f827b9a	1.019397
201	0x3f8d4068	1.103528
202	0x3f8333f2	1.0250227
203	0x3f7d8400	0.9902954
204	0x3f7bf9ae	0.98427856
205	0x3f7e92d7	0.9944281
206	0x3f7dc936	0.9913515
207	0x3f86c5f3	1.0529159
208	0x3f82984b	1.0202726
209	0x3f7f4bf1	0.9972525
210	0x3f7e9eba	0.9946095
211	0x3f7c83a6	0.9863838
212	0x3f7d3236	0.9890474
213	0x3f82cc2e	1.0218561
214	0x3f83568b	1.0260786
215	0x3f80c4cf	1.0060061
216	0x3f836657	1.0265607
217	0x3f81120d	1.0083634
218	0x3f8278ac	1.0193076
219	0x3f7f7193	0.99782676
220	0x3f7fcdc8	0.9992337
221	0x3f7f2b45	0.996754
222	0x3f7a8d69	0.97872025
223	0x3f81a1aa	1.0127461
224	0x3f7e7d0a	0.99409544
225	0x3f7e43a1	0.99321944
226	0x3f7fe83f	0.99963754
227	0x3f7c2616	0.98495615
228	0x3f8419f2	1.0320418
229	0x3f8097a8	1.0046282
230	0x3f8243b9	1.0176917
231	0x3f7a3295	0.9773343
232	0x3f828a32	1.0198424
233	0x3f7f8a12	0.99820054
234	0x3f7fe3bf	0.9995689
235	0x3f795b61	0.9740506
236	0x3f7e7f33	0.9941284
237	0x3f824bc9	1.0179378
238	0x3f7d72d4	0.9900334
239	0x3f81af9c	1.0131717
240	0x3f7c700c	0.9860847
241	0x3f7f90f3	0.9983055
242	0x3f7f3bb3	0.9970047
243	0x3f838522	1.0275004
244	0x3f7f7e55	0.9980214
245	0x3f7e4026	0.9931663
246	0x3f7c64c6	0.9859127
247	0x3f7f8433	0.99811095
248	0x3f83aff5	1.0288073
249	0x3f7be7c1	0.98400503
250	0x3f7cfaeb	0.9882037
251	0x3f81c0d5	1.0136973
252	0x3f7b65e0	0.98202324
253	0x3f7e5636	0.993503
254	0x3f7cbdb1	0.98726946
255	0x3f8248fa	1.0178521

ablang_branch.1.bias f4 [256]
0	0xbbfa28e2	-0.007634268
1	0xbc89916c	-0.016792975
2	0xbb8cb455	-0.004293958
3	0xba5e78fc	-0.0008486656
4	0xbc3f4374	-0.011673797
5	0xb9279feb	-0.00015985935
6	0xbc01d74d	-0.007924867
7	0xbbc0d74d	-0.005885041
8	0xbcf1c74d	-0.02951398
9	0x39c837fe	0.0003818869
10	0xbc1685a1	-0.009187133
11	0xbc15138a	-0.009098897
12	0xbc71e386	-0.0147637185
13	0xbb4d6b46	-0.0031344458
14	0xbc39d9b3	-0.011343407
15	0x3a4d9607	0.0007842485
16	0xbc4ec42f	-0.012620016
17	0xbc627b97	-0.013823411
18	0xbbd1e726	-0.006405729
19	0xbcc40bf5	-0.023931483
20	0xbbdbf094	-0.0067120288
21	0xbc813b5e	-0.015775379
22	0xbca3473f	-0.019931434
23	0xbb8d8f19	-0.004320037
24	0xbcb04849	-0.021518843
25	0xb9d831e6	-0.00041235908
26	0xbbea7601	-0.0071551804
27	0xbc478ef0	-0.012180075
28	0xbbb79bfe	-0.0056033125
29	0xbce53aa3	-0.027982062
30	0x3b2f8b5d	0.0026785948
31	0xbbfe0330	-0.007751845
32	0xba449813	-0.00074994675
33	0xbccfea5c	-0.025380306
34	0xbce18e12	-0.027533565
35	0xbb5e390d	-0.0033908517
36	0xbb081eda	-0.0020770342
37	0xbb920b39	-0.0044569043
38	0xba7387d1	-0.00092899526
39	0xbc19cbd9	-0.00938698
40	0xbba41499	-0.0050073382
41	0xbc7834c8	-0.015149303
42	0x3a8bf448	0.001067766
43	0xbb983565	-0.004645037
44	0xbc5b292c	-0.013376515
45	0xbb8ca706	-0.0042923717
46	0xbae0f3ff	-0.001716256
47	0xbc20b17e	-0.009807942
48	0xbc627109	-0.013820895
49	0xbb9c53d9	-0.0047707376
50	0xbc4c7780	-0.012479663
51	0xbcaa9992	-0.020825181
52	0xbbb74e5e	-0.005594059
53	0x3b95edfd	0.0045754896
54	0xbc231525	-0.009953772
55	0xbc50965d	-0.012731162
56	0xbba0bb7c	-0.0049051624
57	0xbb7fe7d9	-0.0039048104
58	0xb8a08f98	-7.656141e-05
59	0xbcc9589e	-0.024578389
60	0xbc1f605b	-0.009727563
61	0x3c20e576	0.009820333
62	0xbc20c7a3	-0.009813222
63	0xbaf82d47	-0.0018934392
64	0xbbfb15f2	-0.007662528
65	0xbc7f1baf	-0.015570565
66	0xbb394507	-0.0028269903
67	0xbb9d4615	-0.004799614
68	0xbaf99869	-0.0019042614
69	0xbc8bba3f	-0.017056582
70	0xbc86b3e5	-0.016443202
71	0xbc8e9d3f	-0.017408965
72	0xbcabe0cd	-0.020981217
73	0xbc093288	-0.008373864
74	0xbc861853	-0.01636902
75	0xbb17971a	-0.0023130835
76	0xbc894d71	-0.01676056
77	0xba0e511a	-0.0005428955
78	0xbc38b230	-0.011272952
79	0xbbad8a00	-0.005295992
80	0xbc25b970	-0.0101150125
81	0xbc6b93af	-0.014378472
82	0xbbb92178	-0.0056497417
83	0xbc28f390	-0.010311976
84	0xba1f35c7	-0.0006073382
85	0xbc129be5	-0.008948301
86	0xbbd41c00	-0.0064730644
87	0xbcbf5dba	-0.023360122
88	0x3b15a493	0.002283369
89	0xbca48d88	-0.020087019
90	0xbb8dcf70	-0.004327707
91	0xbbbb3a56	-0.0057137413
92	0xbbaad7d5	-0.0052137175
93	0xbc5cd9ae	-0.013479633
94	0x3ba1b43b	0.004934815
95	0xbae011d2	-0.0017095155
96	0x3a0bd5a7	0.0005334266
97	0xbc9ba925	-0.019001553
98	0xbae84f66	-0.0017723858
99	0xbb80ba88	-0.0039284863
100	0xbb89cd54	-0.004205385
101	0xbbeae523	-0.0071684285
102	0xbc6410e3	-0.013920042
103	0xbb4a1235	-0.0030833606
104	0xbb8c795b	-0.0042869276
105	0xbc30756d	-0.010770184
106	0xbb85d560	-0.004084274
107	0xbc183b44	-0.009291474
108	0xbc75f4fc	-0.015012022
109	0xbb9ea5a1	-0.004841522
110	0xbc1d5e16	-0.009604951
111	0xbb04ae29	-0.002024541
112	0xbbe32be6	-0.0069327233
113	0xbc1f9895	-0.009740968
114	0xbc8ed887	-0.017437233
115	0xbc8da51d	-0.017290646
116	0xbc461935	-0.012090971
117	0xbcad428d	-0.021149898
118	0xbc426e54	-0.011867125
119	0x3b393ac2	0.0028263782
120	0xbb94c4c4	-0.004540058
121	0x3a172187	0.0005765189
122	0xbc847e0e	-0.016173389
123	0xbb1dbc5d	-0.0024068572
124	0xbc47b54b	-0.01218922
125	0xbcc7ef03	-0.024405962
126	0xbcec1024	-0.02881629
127	0xbc88fee4	-0.016723104
128	0xbc8991ff	-0.01679325
129	0xbc0ad335	-0.008473207
130	0xbbda7c20	-0.006667629
131	0xbcb72220	-0.02235514
132	0xbc70730b	-0.014675866
133	0xbc458c6a	-0.012057403
134	0xbc8aec5b	-0.016958406
135	0xbc08d3b6	-0.008351257
136	0xbb944356	-0.0045246286
137	0xbbca40b8	-0.006172266
138	0xbc84d805	-0.016216287
139	0xbb1271ba	-0.0022345618
140	0xbc8b50ac	-0.01700624
141	0x3b4e138e	0.003144476
142	0x39bc27fa	0.0003588794
143	0xbbe89230	-0.007097505
144	0xbcc33c14	-0.023832358
145	0xbc5416c3	-0.01294488
146	0xbb444326	-0.002994725
147	0xbbbbabf6	-0.0057272865
148	0xbcc1c717	-0.023654504
149	0xbb44c3d7	-0.0030023956
150	0xbbde51c2	-0.0067846486
151	0xbaaeafcf	-0.0013327542
152	0xbc4aa493	-0.012368339
153	0xbb06e4b6	-0.00205831
154	0x39c2784a	0.00037092186
155	0x363b0f7e	2.787419e-06
156	0xbbae4e87	-0.00531942
157	0x3bb65c77	0.005565222
158	0xb9b1927d	-0.00033869213
159	0xbcc9d573	-0.024637913
160	0xbca7ae38	-0.020468816
161	0xbcbbd0c8	-0.022926703
162	0xbbce262a	-0.0062911706
163	0xbb48017b	-0.003051846
164	0xbc89351e	-0.016748961
165	0xbc8ebf6f	-0.017425267
166	0xbc89e002	-0.016830448
167	0xbb444290	-0.00299469
168	0xbbd2853a	-0.0064245733
169	0xbba8e892	-0.0051546777
170	0xbc8392b4	-0.016061164
171	0x3bb93b41	0.0056528156
172	0xbbd409bc	-0.006470887
173	0xbc1922aa	-0.009346643
174	0xbb265a62	-0.0025383462
175	0xbb87b691	-0.0041416367
176	0xbc1f9aa7	-0.009741462
177	0xbb19978d	-0.0023436279
178	0x3b4589dd	0.0030141987
179	0xbb606ad1	-0.0034243355
180	0xbc452196	-0.012031933
181	0xbcab35b0	-0.020899624
182	0xbb752e2f	-0.003741156
183	0xbc88b8a4	-0.016689606
184	0xbaf5f598	-0.0018765209
185	0xbb93d292	-0.004511186
186	0xbbaec12a	-0.0053330855
187	0xbc7d931b	-0.015476967
188	0xbb16be2a	-0.002300153
189	0xbbd27341	-0.0064224307
190	0xbc2d93a5	-0.010594283
191	0xbc10cc12	-0.008837717
192	0xbbe7acc8	-0.0070701577
193	0x3b896044	0.004192384
194	0xbcd2b686	-0.0257218
195	0xbb232c24	-0.0024898136
196	0xbd0612b7	-0.03273269
197	0xbc156308	-0.009117849
198	0x3ac8267c	0.0015270258
199	0xbc0d8091	-0.00863661
200	0xbc8cc205	-0.01718236
201	0xbc3e6ce6	-0.011622643
202	0xbc82c40f	-0.015962629
203	0xbacc5066	-0.0015587925
204	0xbbdb05a9	-0.0066840244
205	0x3ab130b4	0.0013518543
206	0xbbc41958	-0.0059844665
207	0x3bee09fa	0.007264373
208	0xbcfd319c	-0.030907445
209	0x3c1d4dc6	0.009601062
210	0xbcec5e83	-0.02885366
211	0xbb8218fa	-0.0039702626
212	0xbbff6725	-0.007794278
213	0xbab9d9a9	-0.0014179248
214	0xb914e95f	-0.00014201317
215	0xbc668559	-0.0140698785
216	0xba315f84	-0.0006766247
217	0xbb924814	-0.004464159
218	0xbbbd75f2	-0.0057818824
219	0xbb65513f	-0.0034991053
220	0xbb97558a	-0.0046183513
221	0xbc30be9a	-0.01078763
222	0xbc89311f	-0.016747056
223	0xbbc1b8c2	-0.0059119174
224	0xbbf8b3d4	-0.0075897966
225	0xba87f097	-0.0010371384
226	0xbbeb84d8	-0.007187467
227	0xbc0a3847	-0.008436269
228	0xbbc41da9	-0.005984981
229	0xbad684e4	-0.0016366509
230	0xbcdaccf7	-0.026709063
231	0xbc99d7f6	-0.018779736
232	0xbba79c5d	-0.0051150755
233	0xbc265220	-0.010151416
234	0xbcd75e50	-0.026290089
235	0xbc9921e5	-0.01869292
236	0xbb9dcd36	-0.004815723
237	0xbc5dad7a	-0.01353013
238	0xbc0c8948	-0.008577652
239	0xbcddb5e5	-0.027064273
240	0xbc8d8b71	-0.017278405
241	0x3b3a5799	0.002843356
242	0xbc29d1cc	-0.010364961
243	0xbcfb9635	-0.030711273
244	0x3abaf889	0.0014264743
245	0xbc3de1a2	-0.01158944
246	0xbc90adf2	-0.017661069
247	0x3adb39cc	0.0016725599
248	0xbc801f34	-0.015639879
249	0xbc5f77d7	-0.013639412
250	0xbbb478bc	-0.0055075567
251	0xbb95842f	-0.0045628767
252	0xbc946839	-0.018116103
253	0xbbec997b	-0.0072204447
254	0xb9dff91a	-0.0004271947
255	0x3b355344	0.0027668038

ablang_branch.4.weight f4 [128, 256]
0	0x3e47403c	0.19458097
1	0x3d3e95fc	0.046529755
2	0x3d988096	0.07446401
3	0xbdb18a09	-0.08668906
4	0xbd9772d1	-0.07394946
5	0x3d087ef6	0.033324204
6	0xbd90a98c	-0.070635885
7	0x3e1c80f3	0.15283565
8	0x3e099c09	0.13438429
9	0x3e3c2d5f	0.18376683
10	0xbce1c80f	-0.027561216
11	0x3e2e4b03	0.17020802
12	0x3cc9309b	0.02455931
13	0x3e03dd22	0.12877324
14	0xbc81fa8f	-0.015866546
15	0x3b60662a	0.0034240582
16	0xbda9abcc	-0.08284721
17	0x3dd97118	0.10617274
18	0x3d2369d3	0.039895844
19	0xbdaa3d66	-0.08312492
20	0xbdf09dd7	-0.117488556
21	0xbd99185a	-0.07475348
22	0x3d8aab20	0.06770921
23	0xbe24acf8	-0.16081607
24	0xbd3d68ca	-0.046242513
25	0xbe3da72a	-0.185208
26	0x3e03af06	0.12859735
27	0xbc204c15	-0.009783764
28	0xbd8dc27c	-0.069218606
29	0x3c354254	0.011063177
30	0xbd023bfc	-0.031795487
31	0xbc9c412d	-0.019074047
32	0xbdc4e3f0	-0.09613788
33	0x3d436b0c	0.04770951
34	0x3da335f4	0.07969275
35	0xbb2cc912	-0.0026364964
36	0xbdbbd4e3	-0.09171464
37	0x3da901bd	0.08252285
38	0xbd4121a6	-0.04715123
39	0x3ce3e83c	0.027820699
40	0xbd1d9562	-0.03847254
41	0xbcf5882f	-0.029972164
42	0x3d67b066	0.05656471
43	0x3cd3afaa	0.0258406
44	0xbd33452b	-0.043767136
45	0x3c2a0814	0.010377903
46	0x3e0e03b4	0.138686
47	0xbe1465c3	-0.14491944
48	0xbe2c1969	-0.16806568
49	0x3e316b30	0.17326045
50	0xbdab560e	-0.08366023
51	0x3b0e0b4e	0.0021674219
52	0xbd718041	-0.058960203
53	0xbd361407	-0.044452693
54	0xbcdf8815	-0.027286569
55	0xbe29399c	-0.16525882
56	0xbd01cdf3	-0.03169055
57	0x3dd54086	0.104126975
58	0x3d171bab	0.03689162
59	0xbd0859c8	-0.033288747
60	0xbe1a5973	-0.15073185
61	0xbd714ff3	-0.058914136
62	0xbcfc3340	-0.030786157
63	0xbdcc7a81	-0.09984303
64	0xbcf5954a	-0.029978413
65	0x3d4a45c4	0.04938294
66	0xbde43477	-0.111428194
67	0x3d3b9974	0.04580064
68	0x3d1b9bea	0.037990488
69	0x3d332fc1	0.043746714
70	0xbd1ea740	-0.03873372
71	0x3b8fbc44	0.0043864567
72	0xbcbeac84	-0.023275621
73	0xbd0babeb	-0.0340995
74	0xbda9e20e	-0.0829507
75	0x3d70d055	0.05879243
76	0x3d67b4f4	0.056569055
77	0xbd4f2023	-0.050567757
78	0xbe3195c2	-0.17342284
79	0xbc50c5b4	-0.012742449
80	0xbd772eb1	-0.060347263
81	0x3dc1fa25	0.094715394
82	0x3b7c1528	0.0038464759
83	0xbc0bc2ac	-0.0085303
84	0x3d78b623	0.060720574
85	0xbda7eaf9	-0.08199114
86	0x3e5bdb8f	0.21470474
87	0xbd6b0932	-0.057381816
88	0x3ce369ca	0.027760405
89	0x3db753a4	0.089515
90	0x3d9c2dfd	0.07625959
91	0xbdcc4a90	-0.09975159
92	0xbdb2c6ab	-0.08729299
93	0x3e2430ff	0.16034316
94	0xbe034659	-0.12819804
95	0x3c194918	0.009355806
96	0xbbbc9b10	-0.0057557896
97	0x3db02f42	0.08602764
98	0x3d2cf9e4	0.0422305
99	0x3de66e6d	0.11251531
100	0xbd8ba6b9	-0.06818909
101	0xbce7d245	-0.028298507
102	0x3d9d2cae	0.076745376
103	0x3cb9c2ab	0.022675833
104	0xbddc1bec	-0.10747513
105	0x3cef37fe	0.029201504
106	0x3ca4d355	0.020120302
107	0xbd6ee1af	-0.058320697
108	0x3d83c623	0.06434276
109	0x3dc8f7e7	0.098129086
110	0xbe090891	-0.13382174
111	0xbd8d8900	-0.06910896
112	0x3df906e1	0.12159515
113	0xbdd4d3ea	-0.10391982
114	0xbc30b19d	-0.010784534
115	0x3bedbd40	0.0072552264
116	0x3deea94f	0.11653387
117	0x3e06ea50	0.1317532
118	0xbd6e49d0	-0.05817586
119	0x3c62681b	0.013818766
120	0xbd6268b5	-0.055275638
121	0xbc2643b7	-0.01014798
122	0xbc75cf89	-0.0150030935
123	0xbd295a0b	-0.041345637
124	0xbd0d7f40	-0.034545183
125	0x3cd9f22c	0.026604734
126	0xbd15ad5f	-0.036542293
127	0xbde1a554	-0.11017862
128	0x3d6139c3	0.054986726
129	0x3df45435	0.11930124
130	0xb9dc940c	-0.00042071973
131	0x3d78733c	0.06065677
132	0xbdc1d1b0	-0.09463823
133	0xbd9dc22b	-0.0770305
134	0x3d62f01b	0.055404764
135	0x3d0e46ba	0.03473542
136	0xbe0ae8a8	-0.13565314
137	0x3e19f769	0.15035786
138	0xbc8290c1	-0.015938165
139	0x39b8ae68	0.00035225158
140	0x3caaf134	0.020866968
141	0x3d9e01df	0.07715201
142	0xbdf7bf4a	-0.12097032
143	0xbdb06c38	-0.08614391
144	0xbb6e2089	-0.003633531
145	0x3d98f413	0.074684285
146	0xbda6cce3	-0.08144548
147	0xbe73a61b	-0.23793833
148	0xbd2a35d4	-0.04155524
149	0xbde73a85	-0.112904586
150	0xbc8c89bb	-0.017155519
151	0xbdfb8864	-0.12281874
152	0xbcc854b7	-0.024454458
153	0xbd7d0c62	-0.061779387
154	0xbe073373	-0.1320322
155	0xbdd3579f	-0.10319447
156	0x3d367708	0.04454711
157	0xbdcf8250	-0.10132277
158	0x3bbcf641	0.0057666604
159	0x3c887c33	0.016660785
160	0x3da6b751	0.081404336
161	0xbe4a4c0b	-0.1975557
162	0x3e03bb34	0.12864381
163	0xbd7d14bb	-0.06178735
164	0xbda22e33	-0.07918968
165	0xbbfe0e9e	-0.0077532073
166	0xbd3ca5e0	-0.04605663
167	0xbc9b81da	-0.018982816
168	0x3e1ba6cd	0.15200348
169	0xbcdd11e7	-0.026986076
170	0xbd727866	-0.059196852
171	0x3dc35bea	0.095390156
172	0x3d713978	0.058892697
173	0x3c822191	0.015885146
174	0xbe218840	-0.15774632
175	0xbdfb2777	-0.12263387
176	0xbdf897b6	-0.121383116
177	0xbd2d54ee	-0.042317323
178	0xbca07034	-0.019584753
179	0x3d1b0a2b	0.037851494
180	0x3d8bbc84	0.06823066
181	0xbd375c23	-0.044765603
182	0x3bace921	0.0052768146
183	0xbdcae619	-0.09907169
184	0x3cdfbe3f	0.027312396
185	0xbdce5ece	-0.10076676
186	0xba2cec7c	-0.0006596518
187	0xbd9e7575	-0.07737247
188	0xbd747379	-0.059680436
189	0x3da9ce5b	0.08291312
190	0xbd249823	-0.04018415
191	0xbcaae7c7	-0.020862473
192	0x3b9a85aa	0.004715641
193	0x3d7e277d	0.062049378
194	0xbc208c23	-0.009799036
195	0x3c90d58d	0.017679954
196	0x3d8daf3c	0.06918189
197	0xbbe07c8a	-0.0068507837
198	0xbd03791c	-0.03209792
199	0x3d75db88	0.060023814
200	0xbdcf7e03	-0.10131457
201	0x3c8108c8	0.015751258
202	0x3c7942bf	0.015213667
203	0xbda29378	-0.07938284
204	0xbda62dd0	-0.08114207
205	0xbce27ec4	-0.027648337
206	0xbb8ab26f	-0.0042326967
207	0xbd7da79b	-0.06192742
208	0x3e245abc	0.16050237
209	0x3da7cacf	0.081929795
210	0xbc2b6c44	-0.010462824
211	0xbc90ef39	-0.017692195
212	0xbd633c07	-0.05547717
213	0xbc576011	-0.013145463
214	0xbdc22b7f	-0.094809525
215	0x3d4a2141	0.04934812
216	0xbd6612f7	-0.05617043
217	0x3c8fbe7d	0.017546887
218	0xbe212277	-0.15735804
219	0x3c68b116	0.014202377
220	0x3cb37e1a	0.021910716
221	0xbd9d4546	-0.076792285
222	0xbb7e3768	-0.003879035
223	0x3d9f1c08	0.077690184
224	0x3e08216a	0.13293996
225	0xbccafae3	-0.024777835
226	0x3da74d56	0.081690475
227	0xbdb048a3	-0.08607604
228	0x3d253a78	0.040338963
229	0xbd6d8ef2	-0.05799765
230	0xbd851baa	-0.06499417
231	0x3dcdd660	0.100506544
232	0xbcca406e	-0.024688926
233	0xbe3b373b	-0.18282788
234	0x3d775155	0.0603803
235	0xbd0f8dba	-0.03504727
236	0xbe20885b	-0.15677015
237	0xbd988cf9	-0.074487634
238	0x3e45bd64	0.19310528
239	0x3d2b5f17	0.04183873
240	0x3e1c25b9	0.15248765
241	0xbd1a3e28	-0.037656933
242	0xbe0408d3	-0.12893991
243	0xbc4310e7	-0.011905885
244	0x3c4515ac	0.012029093
245	0xbdabe3de	-0.083930716
246	0x3deef9a5	0.1166871
247	0xbd00afe3	-0.03141774
248	0x3dc61a0b	0.09672936
249	0x3d178092	0.03698785
250	0xbe1f26af	-0.155421
251	0xbd521541	-0.0512898
252	0x3d9250e2	0.071443334
253	0x3da28bda	0.07936831
254	0x3cd4eb7d	0.025991196
255	0xbd05db10	-0.032679617

ablang_branch.4.bias f4 [128]
0	0xbd04f57d	-0.03246068
1	0x3c9b20ad	0.01893648
2	0xbc523d5d	-0.012832013
3	0x3c99d413	0.018777883
4	0x3c01072b	0.007875244
5	0xbc07d8f0	-0.008291468
6	0x3c5676b5	0.013089825
7	0xbc314c04	-0.010821346
8	0xbc895bf8	-0.016767487
9	0x3be30c92	0.0069289887
10	0xbcbf8790	-0.02338007
11	0xbca2d4c6	-0.019876849
12	0x39d53d61	0.00040672257
13	0x3d0764be	0.03305506
14	0x3b2a85aa	0.0026019611
15	0xbcf80f52	-0.030280743
16	0xbb432612	-0.002977733
17	0x3b87a170	0.004139118
18	0xbcbd59e7	-0.023114158
19	0xbc561998	-0.013067625
20	0xba776b9d	-0.0009438338
21	0x3c027c33	0.007964182
22	0xbc8db74d	-0.017299319
23	0xbca5c3b8	-0.020234928
24	0xbc9115a5	-0.017710516
25	0xbc7fe4f1	-0.015618549
26	0xbc3d04e6	-0.011536812
27	0xbc80ce39	-0.015723335
28	0xbbf3576b	-0.0074261925
29	0x3a66d85a	0.00088060426
30	0xbc5f4a0d	-0.013628495
31	0xbcbde44c	-0.02318015
32	0x3c83d900	0.016094685
33	0x3c771c92	0.015082495
34	0x3a158dc9	0.00057050266
35	0xbcb23864	-0.021755405
36	0x3c1137a5	0.008863364
37	0x38a0864b	7.6544085e-05
38	0x3857c98f	5.144771e-05
39	0x3c69308d	0.014232767
40	0xbc9ab062	-0.018882934
41	0xbc4a7704	-0.012357477
42	0xbc0de767	-0.008661128
43	0xbbbd1283	-0.005770029
44	0x3a9118b0	0.001106998
45	0xbc240390	-0.010010615
46	0x3c2f859a	0.010713005
47	0xb9849584	-0.000252884
48	0x3b15da98	0.0022865888
49	0xbc38b512	-0.011273639
50	0x3acc7197	0.0015597817
51	0xbbc6bec9	-0.006065224
52	0x3ca7d1e3	0.020485824
53	0x3d336445	0.043796796
54	0x3ac25937	0.0014827613
55	0x3cbb0937	0.022831542
56	0xbcb1116c	-0.021614753
57	0xbc3eec56	-0.011653027
58	0xbcb50d66	-0.022101115
59	0xbc01e0fb	-0.007927175
60	0x3a592fb1	0.00082849996
61	0x3b3579b1	0.0027690942
62	0xbd16dd35	-0.036832053
63	0xbc3ac267	-0.011398888
64	0xbc0340c8	-0.0080110505
65	0x3ca749d0	0.020420939
66	0x3c6be254	0.014397223
67	0x3cbe2d88	0.02321507
68	0x3be544a9	0.0069967103
69	0x3c4a2071	0.012336836
70	0xbcf9adff	-0.030478476
71	0xbbf6bc76	-0.0075297905
72	0xbc4ff716	-0.012693187
73	0x3c0f9a2a	0.008764783
74	0x3adcee32	0.0016855656
75	0x3a08ed5b	0.0005223357
76	0xbb9945a9	-0.0046774936
77	0x3b86d946	0.0041152565
78	0xbcfc4108	-0.030792728
79	0xbc98c993	-0.018650806
80	0x3c055144	0.008137051
81	0xbc98f2bf	-0.018670438
82	0xbc61bdf4	-0.0137781985
83	0x3b93dfa9	0.0045127464
84	0x3c927113	0.017876184
85	0xbc338321	-0.010956557
86	0xbbe257ba	-0.0069074305
87	0xbb4715f7	-0.0030378082
88	0x3c5c2c3e	0.013438283
89	0xbc4c5b8f	-0.012473001
90	0xbcaed2b9	-0.021340715
91	0x3c040a6e	0.008059127
92	0xbbafaffd	-0.0053615556
93	0xbcb0e92a	-0.021595556
94	0xbbdd38bb	-0.0067511476
95	0x3c1eb6d6	0.009687146
96	0x39f295b8	0.00046269386
97	0xbc29df31	-0.010368154
98	0xbd20b0be	-0.039231054
99	0xbcf755fe	-0.030192371
100	0xbcaacf47	-0.02085079
101	0x3c9d7d16	0.019224685
102	0x3bf7b701	0.0075596576
103	0xbbbc5b78	-0.0057482086
104	0xbc903f73	-0.01760838
105	0xbd427900	-0.047478676
106	0xbcf7883a	-0.030216325
107	0xbc5ffaac	-0.013670605
108	0xbcd3f7b3	-0.025874948
109	0xbc9ffad4	-0.019528784
110	0x3c202b18	0.009775899
111	0x3c894133	0.016754722
112	0xbc4c1274	-0.012455571
113	0xbb21d54e	-0.002469379
114	0x3cdfaff7	0.027305586
115	0xbc8950ed	-0.016762221
116	0x3d178f49	0.03700188
117	0xbb8c3c16	-0.0042796237
118	0x3c337f81	0.010955692
119	0x3c0ab210	0.008465305
120	0x3b407375	0.0029365693
121	0xbc8e2f3f	-0.017356513
122	0x3cf8ecf5	0.030386427
123	0x3b0607c8	0.0020451415
124	0xbc6e93d9	-0.014561617
125	0x3a467dc5	0.00075718417
126	0x3bed4858	0.00724129
127	0x3a1a60a5	0.0005889035

ablang_branch.5.weight f4 [128]
0	0x3f76f96b	0.9647433
1	0x3f8317f2	1.0241683
2	0x3f7c9648	0.9866681
3	0x3f822baf	1.0169581
4	0x3f7e38d4	0.9930546
5	0x3f7b47f9	0.98156697
6	0x3f7f751d	0.99788076
7	0x3f7a2df5	0.97726375
8	0x3f7bfc48	0.98431826
9	0x3f7ddd21	0.9916554
10	0x3f7b1582	0.98079693
11	0x3f7bda88	0.9838033
12	0x3f810a16	1.0081203
13	0x3f842dc4	1.0326467
14	0x3f7a3567	0.97737736
15	0x3f7a0535	0.97664195
16	0x3f7cb0a8	0.98707056
17	0x3f7baafc	0.98307776
18	0x3f78dd24	0.97212434
19	0x3f79fffe	0.9765624
20	0x3f80bc15	1.0057398
21	0x3f80c24a	1.0059292
22	0x3f760354	0.9609883
23	0x3f7ed0f1	0.9953757
24	0x3f82f44b	1.0230802
25	0x3f7a8730	0.9786253
26	0x3f7e9722	0.9944936
27	0x3f7cc954	0.987447
28	0x3f7d2078	0.9887767
29	0x3f7b7886	0.9823078
30	0x3f7cf135	0.9880555
31	0x3f805950	1.0027256
32	0x3f810a98	1.0081358
33	0x3f8260d8	1.0185804
34	0x3f80ba80	1.0056915
35	0x3f7a9c0e	0.9789437
36	0x3f7f5dc5	0.99752456
37	0x3f8199fb	1.0125116
38	0x3f7e9170	0.9944067
39	0x3f7e0990	0.9923334
40	0x3f7aaca6	0.9791969
41	0x3f7af1f3	0.98025435
42	0x3f7d3b42	0.98918545
43	0x3f8110ca	1.0083249
44	0x3f80d0a4	1.0063672
45	0x3f7cee15	0.98800784
46	0x3f7ea4a1	0.99469954
47	0x3f80aa85	1.0052038
48	0x3f7da35f	0.9907741
49	0x3f7cff44	0.98827004
50	0x3f7e5d42	0.9936105
51	0x3f7b5d74	0.98189473
52	0x3f82ad00	1.0209045
53	0x3f839248	1.0279016
54	0x3f80e366	1.0069396
55	0x3f8042bf	1.0020369
56	0x3f79c602	0.9756776
57	0x3f7be0fe	0.98390186
58	0x3f82968c	1.0202193
59	0x3f7baee7	0.98313755
60	0x3f7c8c97	0.98652023
61	0x3f7ee6b5	0.9957078
62	0x3f7f9b60	0.9984646
63	0x3f7b8a6e	0.982581
64	0x3f7a9962	0.97890294
65	0x3f83ce79	1.0297385
66	0x3f80b6db	1.0055803
67	0x3f829ed7	1.0204724
68	0x3f7d3fc1	0.98925406
69	0x3f817695	1.0114313
70	0x3f75f762	0.960806
71	0x3f7bc051	0.98340327
72	0x3f7ae60f	0.9800729
73	0x3f7fccd0	0.99921894
74	0x3f7d6fe2	0.98998845
75	0x3f81652d	1.0109001
76	0x3f7bf2be	0.9841727
77	0x3f804793	1.0021843
78	0x3f7a8f78	0.97875166
79	0x3f7a6fd4	0.97826886
80	0x3f7f64c5	0.9976314
81	0x3f7915de	0.9729899
82	0x3f7d8764	0.99034715
83	0x3f7f6b3c	0.99773
84	0x3f7dd84c	0.9915817
85	0x3f7d96eb	0.9905841
86	0x3f7b90b3	0.9826767
87	0x3f7f99db	0.9984414
88	0x3f823020	1.0170937
89	0x3f799620	0.974947
90	0x3f7694db	0.96320885
91	0x3f8043d1	1.0020696
92	0x3f7ac576	0.9795755
93	0x3f7ea0ac	0.99463916
94	0x3f7b5734	0.98179936
95	0x3f7d6bfb	0.9899289
96	0x3f7f8ca6	0.9982399
97	0x3f8010b8	1.0005102
98	0x3f81ca7a	1.0139916
99	0x3f7999c1	0.97500235
100	0x3f7ed169	0.99538285
101	0x3f8330ae	1.0249231
102	0x3f7d8d61	0.9904385
103	0x3f782d19	0.96943814
104	0x3f806005	1.0029303
105	0x3f823b84	1.0174413
106	0x3f7944ea	0.9737078
107	0x3f7be49e	0.9839572
108	0x3f7d1cdc	0.9887216
109	0x3f7cf7a2	0.9881536
110	0x3f7dd945	0.9915965
111	0x3f7e285a	0.9928032
112	0x3f793cf0	0.9735861
113	0x3f7d0668	0.988379
114	0x3f812fff	1.0092772
115	0x3f801509	1.000642
116	0x3f84514f	1.0337313
117	0x3f7f751e	0.9978808
118	0x3f80cae4	1.0061917
119	0x3f81dfbc	1.0146403
120	0x3f806e4c	1.003366
121	0x3f7b5ff0	0.98193264
122	0x3f828bc3	1.0198902
123	0x3f7c951b	0.98665017
124	0x3f7dd996	0.99160135
125	0x3f7c73d4	0.9861424
126	0x3f817c29	1.0116016
127	0x3f7ef4b9	0.9959217

ablang_branch.5.bias f4 [128]
0	0xbce74231	-0.028229805
1	0x3ca74394	0.020417966
2	0xbc24218f	-0.010017767
3	0x3ca00060	0.019531429
4	0x3c098bac	0.008395117
5	0xbc10dc32	-0.008841561
6	0x3c7bdae5	0.015372013
7	0xbba03e7f	-0.0048902626
8	0xbc43a051	-0.011940078
9	0x3c065355	0.008198579
10	0xbcb3cb0b	-0.021947404
11	0xbc9a4dab	-0.018835863
12	0x3b37074f	0.002792794
13	0x3ce5b6e8	0.028041318
14	0x3ba35237	0.004984166
15	0xbca3e036	-0.020004373
16	0x3a09f97b	0.0005263311
17	0xb904e295	-0.0001267291
18	0xbcb495fd	-0.022044176
19	0xbc344742	-0.011003317
20	0xb889391e	-6.543308e-05
21	0x3c3c6f7a	0.011501187
22	0xbc675f5d	-0.0141218575
23	0xbb776472	-0.003774908
24	0xbc30663b	-0.010766561
25	0xbc41aeea	-0.011821488
26	0xbbdafccf	-0.006682969
27	0xbc6f0dd3	-0.014590698
28	0xbbd922f7	-0.0066264826
29	0xbac54c09	-0.0015052567
30	0xbbd7c012	-0.006584176
31	0xbc95fbb6	-0.018308502
32	0x3c9c94e0	0.019113958
33	0x3c7a3e67	0.015273667
34	0x3b318709	0.0027088544
35	0xbc74534a	-0.014912436
36	0x3c12ac9f	0.008952289
37	0x3b61f097	0.0034475678
38	0x3b72a80a	0.0037026429
39	0x3c60a2c5	0.013710682
40	0xbc5a721c	-0.01333287
41	0xbc149987	-0.009069807
42	0xbbf7d272	-0.007562929
43	0xbb9a0bf2	-0.004701131
44	0x3b23aba4	0.0024974132
45	0xbbf3704b	-0.007429158
46	0x3c0d47f0	0.008623108
47	0x3aaf42b2	0.0013371317
48	0x3b44d6a0	0.0030035153
49	0xbbcef51e	-0.0063158413
50	0xbb7e1b4f	-0.0038773601
51	0xbc0252e3	-0.007954332
52	0x3ca0a57f	0.019610165
53	0x3d35ba06	0.04436686
54	0x3b103f4e	0.0022010389
55	0x3ca557a5	0.020183394
56	0xbc89a79c	-0.016803555
57	0xbbf55c9b	-0.007487846
58	0xbc524afb	-0.01283526
59	0xbbc38fe8	-0.0059680827
60	0x3b99bf62	0.004692004
61	0x3aeb4db1	0.0017952231
62	0xbcd9f99f	-0.026608286
63	0xbbdedab8	-0.0068009757
64	0xbbaf2123	-0.0053445264
65	0x3c87e848	0.016590253
66	0x3c706c28	0.014674224
67	0x3cbce4ed	0.02305838
68	0x3c091711	0.008367316
69	0x3c48bf1a	0.012252593
70	0xbcbf82a5	-0.023377726
71	0xbbe033e5	-0.006842124
72	0xbc0469fa	-0.008081907
73	0x3bc3f794	0.0059804413
74	0x3bd37d31	0.006454133
75	0x3ad4a974	0.0016224817
76	0xbb3e0ab3	-0.0028998076
77	0x3aeb2f4c	0.0017943173
78	0xbce43baa	-0.027860481
79	0xbc335444	-0.010945383
80	0x3c676290	0.01412262
81	0xbc816990	-0.015797406
82	0xbb90e909	-0.004422311
83	0x3bdb2b03	0.006688477
84	0x3c8ca047	0.01716627
85	0xbc0aa899	-0.008463048
86	0xbb2529fb	-0.0025202024
87	0x3ab33fb6	0.0013675604
88	0x3c67e6f3	0.014154184
89	0xbc5d31b7	-0.0135006225
90	0xbca662b7	-0.020310743
91	0x3ba397f4	0.0049924795
92	0xbbb38b43	-0.005479248
93	0xbc74dada	-0.014944756
94	0xbbb5d2a5	-0.0055487924
95	0x3bda527d	0.0066626654
96	0x3ba4f893	0.005034515
97	0xbbb56ae9	-0.0055364263
98	0xbcbee96f	-0.02330467
99	0xbce25217	-0.027627034
100	0xbc3eabf2	-0.011637675
101	0x3cb3357f	0.021876095
102	0x3c0a3807	0.0084362095
103	0xbb9bb3dc	-0.0047516655
104	0xbc551e44	-0.013007704
105	0xbd2d5aa0	-0.042322755
106	0xbcb8416a	-0.02249213
107	0xbc1105a6	-0.008851444
108	0xbcbb3904	-0.022854336
109	0xbc361258	-0.011112772
110	0x3bc18a6f	0.005906395
111	0x3c7a1854	0.015264589
112	0xbc3816e9	-0.011235931
113	0xba4f48c8	-0.00079072686
114	0x3cc14e7f	0.023597
115	0xbc42b40c	-0.011883747
116	0x3cfb3fb5	0.030670026
117	0xbaa4e717	-0.0012581077
118	0x3c24d128	0.010059632
119	0x3c1a9a99	0.009436273
120	0x3b8d6288	0.0043147244
121	0xbc66d522	-0.014088901
122	0x3cfadac0	0.030621886
123	0xbb36f4ff	-0.0027917025
124	0xbc43bb14	-0.011946458
125	0xbab05901	-0.001345426
126	0x3bee5f27	0.0072745266
127	0x3b41525b	0.002949855
