data/model_weights/cv_fold_1_model3_2.pt (torch, 707477 bytes, 29 tensors)

ablang_branch.0.weight f4 [256, 480]
0	0x3dcefd24	0.101068765
1	0x3e1396ca	0.1441299
2	0x3dcba028	0.09942657
3	0xbd2ee7cc	-0.042701527
4	0xbde51e42	-0.11187412
5	0xbc60ddcd	-0.013724756
6	0x3d4fdcb8	0.050747603
7	0x3d4774c2	0.048695333
8	0xbd4a8b4a	-0.049449243
9	0x3d8b6516	0.0680639
10	0x3cf15d3c	0.029463403
11	0x3c9309da	0.017949034
12	0x3d9121b2	0.07086505
13	0xbddd5069	-0.10806353
14	0xbd2797d7	-0.04091629
15	0xbd82e3b1	-0.06391085
16	0x3c957d98	0.018248364
17	0xbdbff3bb	-0.0937266
18	0x3c705664	0.014669035
19	0xbd5c5d41	-0.05379987
20	0x3cbeb5f8	0.023280129
21	0xbba69a2e	-0.0050842976
22	0x3d04ad1b	0.03239165
23	0x3c36d6c5	0.0111596035
24	0x3d65ac33	0.056072425
25	0xbdf158fd	-0.11784551
26	0x3c8cc175	0.017182091
27	0x3d99b6c9	0.075055666
28	0xbe322717	-0.17397724
29	0xbcb36fb2	-0.021903846
30	0xbd6f6bf8	-0.058452576
31	0x3d3cda65	0.046106715
32	0x3d99dd0e	0.07512866
33	0x3d65f884	0.056145206
34	0x3d8021ca	0.06256445
35	0x3dbe5aae	0.092946395
36	0xbca9a9d9	-0.020710872
37	0x3c19814b	0.009369205
38	0xbd746eaf	-0.05967587
39	0x3b1cb3a3	0.0023910783
40	0xbcc7cf7c	-0.024390928
41	0x3d2ceb23	0.04221643
42	0x3d4019a0	0.046899438
43	0xbd58e24b	-0.052950185
44	0xbe01dbac	-0.12681454
45	0x3d7c8c3c	0.061657175
46	0xbd2a332c	-0.041552708
47	0xbc9234c0	-0.017847419
48	0xbd0e0481	-0.034672264
49	0xbced0e9f	-0.028937636
50	0xbd4ccc1f	-0.049999353
51	0x3c14c960	0.009081215
52	0x3d8d9c6e	0.06914602
53	0x3cd9964b	0.026560923
54	0x3d003fb7	0.031310763
55	0xbd9f0cb0	-0.07766092
56	0xbd1d7ae1	-0.038447265
57	0xbd32051a	-0.043461896
58	0x3d6b3204	0.057420745
59	0x3c87d8a8	0.016582802
60	0xbc881c6e	-0.016615119
61	0xbbb431d1	-0.0054991026
62	0x3d75d65a	0.060018875
63	0x3d378945	0.044808645
64	0xbc1d88b8	-0.009615116
65	0x3d8683b4	0.06568089
66	0x3dcb45f8	0.09925455
67	0xbca747a4	-0.020419903
68	0x3cc4c679	0.02402042
69	0xbbc44f9d	-0.005990936
70	0x3c4c6f04	0.01247764
71	0x3dcb7d07	0.099359564
72	0x3d3f186e	0.046654157
73	0xbd04f2d9	-0.03245816
74	0xbcdd6f70	-0.027030677
75	0xbd5c3054	-0.053757027
76	0xbd3896f0	-0.04506582
77	0xbbe73ecd	-0.007057047
78	0x3c1551d4	0.009113748
79	0xbcfe2300	-0.031022549
80	0xbba27703	-0.004958035
81	0x3cb550cc	0.022133254
82	0xbd09da97	-0.03365573
83	0x3df27d80	0.118403435
84	0x3d7af300	0.0612669
85	0xbdeea5a1	-0.11652685
86	0xbe08c7b0	-0.13357425
87	0x3d955cec	0.07293114
88	0x3c4b2f4b	0.012401412
89	0x3e0980ee	0.13428089
90	0x3d36b6be	0.04460787
91	0x3c70fa85	0.014708166
92	0x3d83db10	0.06438267
93	0xbd19abf6	-0.03751751
94	0xbd22d970	-0.039758146
95	0x3c3aa2a2	0.011391314
96	0xbd7f68bb	-0.062355738
97	0xbe1bc1bc	-0.15210623
98	0xbd88919e	-0.06668399
99	0x3c6d05ef	0.014466747
100	0xbdb7d99b	-0.08977052
101	0xbdc6feaf	-0.09716546
102	0x3dc31559	0.09525556
103	0x3d4753d2	0.04866392
104	0xbcd04b56	-0.025426548
105	0x3c89b559	0.016810106
106	0xbc943361	-0.018090906
107	0xbd6fead2	-0.05857355
108	0xbc299625	-0.010350739
109	0xbd9e9d88	-0.077448905
110	0x3d6e4893	0.05817468
111	0x3d94d62d	0.07267413
112	0xbcf85080	-0.030311823
113	0xbbc08ecb	-0.0058763972
114	0xbd65cf81	-0.056106094
115	0x3e12b7bc	0.14327902
116	0x3c0fd049	0.008777686
117	0xbbf617a0	-0.0075101405
118	0xbd7dda0a	-0.061975516
119	0x3d9b1de4	0.075740606
120	0xbc55721a	-0.013027692
121	0xbe2ca20f	-0.16858695
122	0xbd807c08	-0.06273657
123	0x3d18caf7	0.037302937
124	0xbd16e625	-0.036840577
125	0x3d8853c4	0.06656602
126	0x3d3d2165	0.046174426
127	0x3e0c24d3	0.13685922
128	0x3d84376e	0.06455885
129	0xbcf0eda8	-0.029410198
130	0x3c9826ec	0.018573247
131	0xbb1c714b	-0.0023871239
132	0xbc97b102	-0.018517021
133	0x3e2c06d9	0.16799487
134	0xbaa36dae	-0.00124686
135	0x3cae851d	0.021303708
136	0xbd909093	-0.07058825
137	0xbe06af86	-0.13152894
138	0x3d89f3f0	0.067359805
139	0xbb6a3daa	-0.003574232
140	0x3d8c3634	0.06846276
141	0x3e14b17f	0.14520834
142	0x3d8ae7c1	0.06782485
143	0x3d9519ff	0.07280349
144	0xbd472373	-0.04861779
145	0xbc96f371	-0.018426629
146	0x3d0ead9b	0.03483353
147	0x3ccb724e	0.024834778
148	0xbcd7b56a	-0.026331622
149	0x3cc97c11	0.024595292
150	0x3d4504db	0.048100334
151	0xbdc7e262	-0.09759976
152	0x3d2d735f	0.042346355
153	0xbc2c4aca	-0.010515878
154	0x3da0e2bb	0.078557454
155	0xbd8ea4fc	-0.06965062
156	0xbdf5a64a	-0.11994608
157	0xbd8cc926	-0.068743035
158	0x3dc04780	0.093886375
159	0xbdd28d57	-0.10280865
160	0x3d904054	0.070435196
161	0xbca5c0bf	-0.02023351
162	0x3c9e16af	0.019297926
163	0xbd314b94	-0.043284968
164	0x3d3b40e7	0.045716193
165	0xbc196ef8	-0.009364836
166	0xbda9dd73	-0.08294191
167	0xbc0a4a2f	-0.008440538
168	0xbdd6d640	-0.10490084
169	0x3b62ac6c	0.0034587635
170	0x3d6b71df	0.057481643
171	0xbd894654	-0.06702867
172	0x3d84b43e	0.06479691
173	0xbde30ce9	-0.11086447
174	0x3e18e6bc	0.14931768
175	0x3cb8662f	0.022509662
176	0xbc04fd3c	-0.008117016
177	0x3d924050	0.07141173
178	0xbc9a74a6	-0.01885445
179	0x3d4ced1f	0.050030824
180	0xbce56539	-0.028002368
181	0xbdf73cf7	-0.12072175
182	0x3d11bd71	0.035581056
183	0x3dc79bc7	0.09746509
184	0x3d8a0069	0.067383595
185	0xbd27d90f	-0.040978488
186	0x3dd5cfe1	0.104400404
187	0xbc9aeee5	-0.018912742
188	0xbd21acff	-0.039471623
189	0x3d288fea	0.041152872
190	0xbc8230b7	-0.01589237
191	0x3d913efc	0.070920914
192	0x3a754351	0.0009356039
193	0x3c545bd1	0.012961344
194	0xbd1ed730	-0.038779438
195	0x3e53faa8	0.20701087
196	0xbdadca69	-0.08485872
197	0x3b6e807d	0.0036392503
198	0x3dba89c5	0.09108309
199	0x3d77dfc2	0.060516126
200	0x3b56f3c6	0.003279911
201	0x3c9340b3	0.017975187
202	0x3dbeb5d3	0.09312024
203	0xbca43d83	-0.020048862
204	0xbc79df24	-0.015250955
205	0xbad2d263	-0.0016084429
206	0x3d1b11d5	0.037858803
207	0x3c16ef00	0.0092122555
208	0xbcd2c994	-0.025730886
209	0x3d861cdb	0.065484725
210	0xbd877d84	-0.06615737
211	0xbddaead2	-0.1068932
212	0xbce8d5d2	-0.02842227
213	0x3ab81d19	0.0014046758
214	0xbe24a85b	-0.16079848
215	0xbc2473f8	-0.010037415
216	0x3d3e0c81	0.046398643
217	0xbbb43b49	-0.0055002314
218	0xbb9b52a8	-0.004740078
219	0xbcd0f2af	-0.025506346
220	0xbd93d758	-0.07218808
221	0x3d34d079	0.044144128
222	0x3bee4659	0.0072715697
223	0x3d506e9c	0.050886735
224	0xbd45079c	-0.04810296
225	0xbc8b3e84	-0.016997583
226	0x3d9f5b03	0.07781031
227	0x3d4e0f02	0.05030728
228	0x3d8a87b2	0.06764163
229	0xbc82c57e	-0.015963312
230	0xbd444457	-0.047916736
231	0x3d000487	0.031254318
232	0x3bf974ff	0.007612824
233	0x3c0a9f62	0.008460851
234	0x3d5b87d9	0.05359635
235	0x3cc8aa82	0.024495367
236	0xbd8a7b3f	-0.067617886
237	0xbc871fee	-0.016494717
238	0x3cd815cb	0.02637758
239	0xbbb58192	-0.0055391276
240	0x3df66315	0.12030617
241	0x3dd0085e	0.10157846
242	0xbd8ab87f	-0.06773471
243	0x3d940741	0.07227946
244	0x3d4d2a41	0.050089125
245	0xbc8a82d5	-0.016908089
246	0x3a2f59c3	0.0006689096
247	0x3d1a6cc4	0.037701383
248	0x3d745518	0.059651464
249	0xbdb43eee	-0.088010654
250	0xbd2d2715	-0.0422736
251	0xbd886fa2	-0.06661917
252	0x3d910a22	0.07082011
253	0x3d7feab0	0.062479675
254	0x3b453645	0.0030092162
255	0xbc9a6d33	-0.018850898

ablang_branch.0.bias f4 [256]
0	0xbb8262e4	-0.003979074
1	0x3b6310c9	0.0034647456
2	0xb8030d48	-3.1245203e-05
3	0xbb2cb7ca	-0.0026354664
4	0xbb434650	-0.0029796548
5	0x3a73a380	0.0009294078
6	0xb8678568	-5.5198936e-05
7	0xba9b8837	-0.0011866157
8	0x3a96fec3	0.0011520017
9	0x3a8c667f	0.0010711699
10	0xba8c391b	-0.0010698171
11	0x3b9979d5	0.004683713
12	0x3b507b3c	0.0031811735
13	0x3b2ba70e	0.0026192102
14	0xba9ca727	-0.0011951671
15	0xbbda20d9	-0.006656748
16	0x3a812a35	0.0009854498
17	0x3b6ec519	0.0036433397
18	0xbb83816c	-0.004013231
19	0x3a1c0ceb	0.00059528527
20	0xba8611f1	-0.0010228736
21	0xbae0f425	-0.0017162604
22	0x3adef04c	0.001700887
23	0xbb8b10bf	-0.0042439396
24	0xbb9547de	-0.0045556864
25	0x3b859848	0.004076991
26	0x3b6265cf	0.0034545546
27	0x374dc0a5	1.2263806e-05
28	0x39fd8e3f	0.00048361902
29	0xbb7023c8	-0.003664242
30	0x3b5d095c	0.0033727502
31	0xbacc857d	-0.0015603747
32	0xbab5c486	-0.0013867773
33	0xbad1c8b3	-0.0016005248
34	0x3b975caf	0.004619203
35	0xbb974185	-0.004615965
36	0x3b2ce71a	0.0026382864
37	0x3aff68e1	0.0019486212
38	0xbb247d8a	-0.0025099241
39	0x3b6e6778	0.003637759
40	0x391f973e	0.00015219764
41	0x3a813912	0.0009858927
42	0xba07cbd5	-0.00051802146
43	0x38ef1b47	0.00011401489
44	0xbac3a651	-0.0014926885
45	0xbab20122	-0.001358066
46	0xbb934d74	-0.004495317
47	0xbb95a2ec	-0.004566541
48	0x3a558aa7	0.0008145966
49	0x3ac1f368	0.0014797272
50	0x3af07f9f	0.0018348581
51	0x3b22feb5	0.0024871056
52	0xbab007b2	-0.0013430028
53	0x38bb3530	8.926762e-05
54	0x3b33f1c5	0.0027457338
55	0x3b0cfddf	0.0021513624
56	0xbb7d67bc	-0.0038666567
57	0xbab8e166	-0.001410526
58	0x3b4e8446	0.0031511947
59	0x3b4ed82e	0.0031561959
60	0x3b32f225	0.0027304974
61	0xba488719	-0.00076495257
62	0x3b822959	0.003972214
63	0x3b046f6c	0.0020208014
64	0xbaeb878b	-0.0017969472
65	0xbacd9dba	-0.0015687265
66	0x3b0de4e6	0.0021651327
67	0xbb75c0de	-0.003749899
68	0xbbc46d53	-0.005994478
69	0xbb8dc8ce	-0.0043269163
70	0x3a2ae254	0.0006518711
71	0x3b849957	0.0040466
72	0x3a94e4b2	0.001135966
73	0x3a49a7cf	0.0007692547
74	0xb9479a05	-0.00019035496
75	0xbacd4a3f	-0.0015662386
76	0x3be5c5df	0.0070121135
77	0xbae7847a	-0.0017663382
78	0xbb0c8f5b	-0.0021447751
79	0xb951ae07	-0.00019996623
80	0x39d262d7	0.00040127963
81	0x3accc650	0.0015623067
82	0x3acb2e29	0.0015501428
83	0x3b029257	0.001992365
84	0xbb81e438	-0.0039639734
85	0xbb40b6e8	-0.0029405896
86	0x38c09daf	9.184644e-05
87	0xb9f21ec7	-0.00046180768
88	0x3b065f24	0.0020503486
89	0xbb537b29	-0.0032269454
90	0x3bb0b6e8	0.005392898
91	0x3b5e5853	0.0033927157
92	0x39ef2fcb	0.0004562124
93	0xbb3c3282	-0.0028716628
94	0x3b5ba9d7	0.003351798
95	0x3a8e2465	0.0010844587
96	0xbbbb2696	-0.005711387
97	0xbb73bdd0	-0.0037191994
98	0xba06a720	-0.0005136598
99	0x3b5c19be	0.003358468
100	0xbb7f85b6	-0.003898961
101	0x39314381	0.00016905183
102	0xbb621af5	-0.003450093
103	0xbb9b2867	-0.004735041
104	0xbb8515f3	-0.0040614544
105	0xbb5832b4	-0.0032989206
106	0x3b8043cb	0.0039143316
107	0x39b1c53f	0.0003390703
108	0x3a7ceebf	0.0009648613
109	0xbb1edf4b	-0.002424198
110	0x3af18788	0.0018427232
111	0x3b97dee8	0.004634727
112	0x3bc00411	0.0058598598
113	0xbb431225	-0.0029765454
114	0x3ad3dced	0.0016163863
115	0xbaf3422e	-0.0018559152
116	0xbb23b9bf	-0.002498254
117	0xba9e2e54	-0.001206825
118	0xbbca7dbb	-0.006179539
119	0xbafdcdd9	-0.0019363716
120	0x3af12e5d	0.0018400658
121	0x3b1ec13c	0.0024224063
122	0x3a3d390e	0.00072182796
123	0x3aa6e0ba	0.0012731769
124	0x3b020339	0.0019838347
125	0xbad3ce48	-0.0016159499
126	0xbac922df	-0.0015345475
127	0xbad3926d	-0.0016141661
128	0x3af16a0b	0.0018418444
129	0xb94e00f6	-0.00019646049
130	0xbb33b057	-0.002741834
131	0xbb95c899	-0.0045710322
132	0xbaa70c86	-0.0012744821
133	0x3ac77b22	0.0015219192
134	0x3b1ff76c	0.002440895
135	0x3b93f7e8	0.0045156367
136	0xbb3c6df1	-0.0028752054
137	0x3aa23dfb	0.0012378091
138	0xbb8db559	-0.004324597
139	0xbb960d36	-0.0045792116
140	0x3b5aabcd	0.0033366561
141	0x3b846d64	0.0040413607
142	0xb9b9f614	-0.00035469292
143	0xbb6620ac	-0.0035114689
144	0xbb035ecc	-0.0020045517
145	0xb9bd3b54	-0.00036093092
146	0x3b90f7c5	0.0044240677
147	0x39fe246f	0.000484738
148	0xbb5b09b3	-0.003342253
149	0x3b1db8f3	0.0024066537
150	0x3b254c2d	0.0025222406
151	0x39815b0d	0.00024672635
152	0xb97a64ea	-0.00023879451
153	0xbb739f67	-0.0037173869
154	0xbb4c9aac	-0.0031220121
155	0x3a21455c	0.0006151998
156	0xba54721c	-0.0008104162
157	0x39245b81	0.00015674347
158	0xbaa5b4b2	-0.0012642352
159	0xbaa7f1b2	-0.001281312
160	0xb999837f	-0.00029280406
161	0x3b353ec0	0.002765581
162	0xbb159630	-0.0022825114
163	0x3b38ae14	0.002817993
164	0xbab96e67	-0.0014147282
165	0xbb82a96c	-0.003987482
166	0xbae54d78	-0.0017494401
167	0xbb0dde6c	-0.0021647466
168	0x3b1fd08c	0.0024385778
169	0xb9151e7f	-0.00014221108
170	0xbba64b03	-0.00507486
171	0x3b6430c1	0.0034819099
172	0x3b9cba1e	0.004782929
173	0x3a9901c4	0.00116735
174	0x3a724619	0.0009242013
175	0xbb2c33f5	-0.0026276086
176	0xba6ec5bd	-0.0009108445
177	0xbb5a2d9a	-0.003329134
178	0xbabdbd4f	-0.0014475974
179	0xbaefd6f8	-0.0018298319
180	0x3bd5ff39	0.006530669
181	0xbb5ff3d2	-0.0034172428
182	0xbae138e0	-0.0017183088
183	0xbb5b153f	-0.0033429412
184	0x3adf5a2b	0.0017040422
185	0x3b3e81bd	0.002906903
186	0xbb1fd716	-0.0024389676
187	0x3a84bef7	0.0010127713
188	0x3b688fb2	0.003548604
189	0x3b4e87ab	0.003151397
190	0xbb80768c	-0.003920382
191	0x3a3a0216	0.0007095648
192	0xbac7d4a5	-0.0015245868
193	0x3b46100e	0.0030221972
194	0xb9a49869	-0.00031394072
195	0x39cae54f	0.0003869929
196	0xbb8c1fc2	-0.0042762468
197	0x3ba313c1	0.00497672
198	0x3a15723a	0.000570092
199	0xbb57c83d	-0.0032925748
200	0xbb298551	-0.0025866816
201	0x3ab7243d	0.0013972592
202	0x3b2f5639	0.0026754274
203	0x3b50df9b	0.003187156
204	0xb9264357	-0.0001585608
205	0x39fd9b0d	0.00048371442
206	0xbab081fe	-0.0013466475
207	0x3b55c08b	0.0032615985
208	0x3b142fa3	0.0022611402
209	0x3abcb758	0.0014397902
210	0x3b354d7f	0.00276646
211	0xbb347930	-0.0027538054
212	0xbb694485	-0.003559382
213	0xbb42a961	-0.0029703008
214	0xba388e70	-0.0007040268
215	0x3b9fd2d2	0.0048774267
216	0x3a2cbbb9	0.0006589252
217	0xbb554b6a	-0.003254617
218	0x3b3bde3a	0.0028666393
219	0xba038bad	-0.0005018067
220	0x3a26161d	0.00063356926
221	0x3b99d6f6	0.004694815
222	0x3b286e49	0.00257005
223	0xbb909a92	-0.0044129575
224	0xbb2ff132	-0.0026846644
225	0xbba265aa	-0.004955967
226	0x3a823e35	0.0009936752
227	0xbb119dc5	-0.0022219282
228	0xba883069	-0.0010390404
229	0x39b64845	0.0003476759
230	0x3a4c4cf8	0.00077934517
231	0xbb3ebaa5	-0.0029102948
232	0x3b373e2b	0.002796064
233	0xbb176d14	-0.0023105787
234	0x3b4ecdf1	0.0031555856
235	0x3b94736b	0.0045303605
236	0xbb192476	-0.002336768
237	0x3b31bc44	0.0027120272
238	0xba3bc942	-0.00071634736
239	0x3b229878	0.0024810117
240	0x3b49b341	0.003077701
241	0xbb553bfa	-0.003253697
242	0xb9a4ca94	-0.0003143145
243	0x3bd1a5fc	0.0063979607
244	0xbb605cde	-0.003423504
245	0x3bb1da2e	0.0054276204
246	0x3b98f544	0.00466791
247	0x3b6ac02b	0.0035820107
248	0x3b3b165a	0.0028547258
249	0x3afb007f	0.0019149928
250	0xbb88eba4	-0.004178481
251	0x39c12476	0.00036838994
252	0x3a6aedf9	0.0008961852
253	0xba5c4844	-0.00084031024
254	0x3b8cf1ba	0.004301277
255	0xbb88668f	-0.0041626166

ablang_branch.1.weight f4 [256]
0	0x3f8052b8	1.0025244
1	0x3f801c7c	1.0008693
2	0x3f7fe0f7	0.99952644
3	0x3f7fe308	0.999558
4	0x3f8064b1	1.0030729
5	0x3f7fbf22	0.9990102
6	0x3f7f8cce	0.99824226
7	0x3f7f9bf9	0.9984737
8	0x3f801880	1.0007477
9	0x3f7fd8ae	0.9994
10	0x3f7fb50d	0.99885637
11	0x3f7ef9dd	0.9960001
12	0x3f7fea67	0.99967045
13	0x3f7f6f92	0.9977962
14	0x3f80027c	1.0000758
15	0x3f804d0b	1.0023512
16	0x3f800e96	1.0004451
17	0x3f8079ea	1.0037205
18	0x3f7f710d	0.99781877
19	0x3f8000da	1.000026
20	0x3f7fc788	0.99913836
21	0x3f7f5fb1	0.9975539
22	0x3f802360	1.0010796
23	0x3f7eea07	0.9957585
24	0x3f7f2372	0.9966346
25	0x3f807ae7	1.0037507
26	0x3f806895	1.0031916
27	0x3f7fe8ae	0.99964416
28	0x3f800904	1.0002751
29	0x3f7fee94	0.99973416
30	0x3f7fe257	0.9995474
31	0x3f802a4d	1.0012909
32	0x3f802ec6	1.0014274
33	0x3f803ee4	1.0019193
34	0x3f80a7b9	1.0051185
35	0x3f7eedbf	0.9958152
36	0x3f806395	1.003039
37	0x3f7fc3a4	0.999079
38	0x3f7f42d1	0.9971133
39	0x3f8074b8	1.003562
40	0x3f7fe1a4	0.99953675
41	0x3f7f9a2b	0.99844617
42	0x3f7f9b58	0.9984641
43	0x3f801c7a	1.000869
44	0x3f8021c9	1.001031
45	0x3f7f8b7e	0.99822223
46	0x3f808789	1.0041362
47	0x3f809054	1.0044045
48	0x3f7fbd4b	0.99898213
49	0x3f7fd2ef	0.99931234
50	0x3f7f948a	0.9983603
51	0x3f7fc627	0.9991173
52	0x3f805087	1.0024575
53	0x3f7fd84f	0.99939436
54	0x3f7f5a14	0.99746823
55	0x3f7f640e	0.99762046
56	0x3f8083fb	1.0040277
57	0x3f7fd383	0.99932116
58	0x3f7f4c91	0.99726206
59	0x3f805845	1.0026938
60	0x3f806748	1.0031519
61	0x3f8041cd	1.0020081
62	0x3f808864	1.0041623
63	0x3f7fcfbf	0.9992637
64	0x3f805cea	1.0028355
65	0x3f7f8992	0.9981929
66	0x3f8049f6	1.0022571
67	0x3f7f4ae5	0.99723655
68	0x3f80c572	1.0060256
69	0x3f7f8eb6	0.99827135
70	0x3f8002dc	1.0000873
71	0x3f8080f0	1.0039349
72	0x3f80166c	1.0006843
73	0x3f7ffa98	0.9999175
74	0x3f7ff375	0.9998086
75	0x3f803790	1.0016956
76	0x3f80ac79	1.0052634
77	0x3f804031	1.001959
78	0x3f7f55ee	0.99740493
79	0x3f800883	1.0002598
80	0x3f8004aa	1.0001423
81	0x3f7fac65	0.9987243
82	0x3f80099a	1.000293
83	0x3f7fee4b	0.9997298
84	0x3f807b4a	1.0037625
85	0x3f8069c1	1.0032274
86	0x3f802903	1.0012516
87	0x3f7fcaa3	0.99918574
88	0x3f7fb18d	0.99880296
89	0x3f7f932f	0.9983396
90	0x3f80c107	1.0058907
91	0x3f7f5611	0.997407
92	0x3f7ffa34	0.99991155
93	0x3f7f3d6e	0.9970311
94	0x3f806338	1.0030279
95	0x3f800fd0	1.0004826
96	0x3f7ec9ff	0.9952697
97	0x3f8064de	1.0030782
98	0x3f7fa9fa	0.9986874
99	0x3f8004e2	1.000149
100	0x3f7f177b	0.99645203
101	0x3f7f7cf9	0.9980007
102	0x3f805ae4	1.0027738
103	0x3f7eecf2	0.995803
104	0x3f808848	1.004159
105	0x3f7f2f7f	0.9968185
106	0x3f807708	1.0036325
107	0x3f8024e3	1.0011257
108	0x3f7f97ca	0.99840987
109	0x3f8091ea	1.004453
110	0x3f7f89d3	0.9981968
111	0x3f80a2cc	1.0049682
112	0x3f801be8	1.0008516
113	0x3f808f7b	1.0043787
114	0x3f801a9f	1.0008124
115	0x3f7f65dd	0.99764806
116	0x3f7f67ea	0.99767935
117	0x3f7f821f	0.99807924
118	0x3f80ef80	1.007309
119	0x3f804f49	1.0024196
120	0x3f7fa579	0.99861866
121	0x3f803e63	1.0019039
122	0x3f800ef1	1.000456
123	0x3f7fa1b2	0.998561
124	0x3f7f9e86	0.9985126
125	0x3f7fe92a	0.99965155
126	0x3f8053b4	1.0025544
127	0x3f7f7543	0.997883
128	0x3f7fb5ca	0.99886763
129	0x3f7ff239	0.9997898
130	0x3f7f4707	0.99717754
131	0x3f807277	1.0034932
132	0x3f7fd186	0.9992908
133	0x3f8006da	1.0002091
134	0x3f802186	1.001023
135	0x3f8082f8	1.0039968
136	0x3f7f1ff8	0.99658155
137	0x3f7f884a	0.99817336
138	0x3f7f4a2f	0.9972257
139	0x3f7f5140	0.9973335
140	0x3f805176	1.002486
141	0x3f808bc6	1.0042655
142	0x3f7fef1a	0.99974215
143	0x3f7f2861	0.9967099
144	0x3f7f88ef	0.9981832
145	0x3f80144f	1.0006198
146	0x3f809dbe	1.0048139
147	0x3f800235	1.0000674
148	0x3f7fedee	0.99972427
149	0x3f80412b	1.0019888
150	0x3f7f8642	0.99814236
151	0x3f7fdaac	0.9994304
152	0x3f803414	1.0015893
153	0x3f7f1861	0.99646574
154	0x3f8073b4	1.003531
155	0x3f8022fb	1.0010675
156	0x3f801529	1.0006458
157	0x3f7fe9cd	0.99966127
158	0x3f7f919d	0.99831563
159	0x3f801357	1.0005902
160	0x3f7fc1a8	0.9990487
161	0x3f8032f9	1.0015556
162	0x3f7f9b39	0.99846226
163	0x3f801056	1.0004985
164	0x3f801fba	1.0009682
165	0x3f7ef841	0.99597555
166	0x3f804ef3	1.0024093
167	0x3f7f5a1f	0.9974689
168	0x3f8029be	1.0012739
169	0x3f801411	1.0006124
170	0x3f7ec6a8	0.99521875
171	0x3f7f36d3	0.9969303
172	0x3f80a23e	1.0049512
173	0x3f7ffae5	0.9999221
174	0x3f7fd682	0.9993669
175	0x3f80650f	1.0030841
176	0x3f7f211d	0.996599
177	0x3f7fc5bd	0.999111
178	0x3f7f8223	0.9980795
179	0x3f7f829f	0.99808687
180	0x3f808ed6	1.004359
181	0x3f801773	1.0007156
182	0x3f804eeb	1.0024084
183	0x3f809012	1.0043967
184	0x3f800dfb	1.0004267
185	0x3f7f81c7	0.998074
186	0x3f801846	1.0007408
187	0x3f8010b1	1.0005094
188	0x3f8071fa	1.0034783
189	0x3f8008d1	1.000269
190	0x3f801049	1.000497
191	0x3f7fe677	0.99961036
192	0x3f7fd748	0.9993787
193	0x3f806960	1.0032158
194	0x3f7fd2a5	0.99930793
195	0x3f7f4bdf	0.99725145
196	0x3f7ef638	0.9959445
197	0x3f80b1d4	1.0054269
198	0x3f7fd1e3	0.99929637
199	0x3f807e08	1.0038462
200	0x3f7f48ba	0.99720347
201	0x3f7fbc65	0.9989684
202	0x3f804faf	1.0024318
203	0x3f806851	1.0031835
204	0x3f7fc2ee	0.99906814
205	0x3f800193	1.000048
206	0x3f80424d	1.0020233
207	0x3f7f5b46	0.9974865
208	0x3f80402f	1.0019587
209	0x3f7fd218	0.9992995
210	0x3f7f82e3	0.9980909
211	0x3f7f2e3c	0.99679923
212	0x3f803d6a	1.0018742
213	0x3f7f4a75	0.9972299
214	0x3f8045e6	1.0021331
215	0x3f806143	1.0029682
216	0x3f800f17	1.0004605
217	0x3f7f4982	0.9972154
218	0x3f7f61a6	0.99758375
219	0x3f7fd050	0.99927235
220	0x3f7fed1a	0.99971163
221	0x3f7f91c6	0.9983181
222	0x3f8044ce	1.0020998
223	0x3f80516c	1.0024848
224	0x3f7f53c8	0.99737215
225	0x3f80aae2	1.0052149
226	0x3f80120f	1.0005511
227	0x3f7f5e9d	0.99753743
228	0x3f80454a	1.0021145
229	0x3f7f6ec2	0.9977838
230	0x3f8017a6	1.0007217
231	0x3f808b9c	1.0042605
232	0x3f7f8391	0.9981013
233	0x3f805cec	1.0028358
234	0x3f804f82	1.0024264
235	0x3f7fe76b	0.9996249
236	0x3f802882	1.0012362
237	0x3f802fe5	1.0014616
238	0x3f7fae7b	0.9987561
239	0x3f805060	1.0024529
240	0x3f7f289d	0.99671346
241	0x3f8032d5	1.0015513
242	0x3f801e38	1.0009222
243	0x3f80769e	1.0036199
244	0x3f7f25d3	0.9966709
245	0x3f80b440	1.0055008
246	0x3f807846	1.0036705
247	0x3f7f22c9	0.9966245
248	0x3f80563b	1.0026315
249	0x3f8028c6	1.0012443
250	0x3f808c04	1.0042729
251	0x3f7fefbb	0.99975175
252	0x3f7fcc15	0.9992078
253	0x3f7feb7e	0.9996871
254	0x3f8091bb	1.0044473
255	0x3f7fc7f6	0.9991449

ablang_branch.1.bias f4 [256]
0	0xbb1ab72a	-0.002360771
1	0x3b41ecb1	0.0029590542
2	0xb9f2f063	-0.0004633694
3	0xbb4cb2db	-0.0031234536
4	0xbb5a4695	-0.003330623
5	0xb9d0fce4	-0.0003986127
6	0xba461c23	-0.0007557293
7	0xbad7f310	-0.0016475637
8	0x3a383aee	0.0007027824
9	0x3a329414	0.00068122265
10	0xbabbc3f0	-0.0014325362
11	0x3b93f10f	0.0045148204
12	0x3b2e8804	0.0026631365
13	0x3b215cdf	0.0024622006
14	0xbad7500d	-0.0016427055
15	0xbb076750	-0.0020660944
16	0x3a0c16f2	0.0005343995
17	0x3b60d5f7	0.003430722
18	0xbb914d6b	-0.004434278
19	0x393f7d17	0.00018261779
20	0xbaac7c61	-0.0013159626
21	0xbb10435e	-0.002201281
22	0x3a989fc4	0.0011644294
23	0xbb9a0d0d	-0.004701263
24	0xbba23e44	-0.0049512703
25	0x3b7e2a2a	0.0038782456
26	0x3b497158	0.0030737724
27	0xb9c534e5	-0.00037614178
28	0xb922270c	-0.0001546407
29	0xbb847f12	-0.0040434683
30	0x3b08f768	0.0020899419
31	0xbb156c49	-0.0022800139
32	0xbb129baa	-0.0022370615
33	0xbb372d05	-0.0027950418
34	0x3b916da8	0.004438121
35	0xbba21ba5	-0.004947143
36	0x3b11f373	0.0022270351
37	0x3a3b01e0	0.0007133763
38	0xbb40b224	-0.0029403055
39	0x3b56d51c	0.0032780832
40	0xba21f990	-0.00061788503
41	0x398336dc	0.0002502714
42	0xbb0d76c8	-0.0021585692
43	0xbad8d201	-0.0016542078
44	0xbb123376	-0.0022308505
45	0xbafd7353	-0.0019336737
46	0xbb7cd38d	-0.0038578243
47	0xbb84cc1b	-0.0040526516
48	0x3a9e6444	0.0012084325
49	0x3a60fa5a	0.0008582227
50	0x3a06923c	0.0005133485
51	0x3a0f8dda	0.00054761546
52	0xbb284b17	-0.0025679523
53	0xb9c7ccf4	-0.0003810894
54	0x3aff3f28	0.0019473778
55	0x3b2a5cf0	0.0025995336
56	0xbb6ec4b8	-0.0036433171
57	0xbaf524d4	-0.0018702992
58	0x3b494a01	0.0030714276
59	0x3b3aae2d	0.0028485165
60	0x3b24eab4	0.0025164308
61	0xbaa7075b	-0.0012743281
62	0x3b76ec1b	0.003767735
63	0x3aa9be84	0.0012950455
64	0xbb130d06	-0.0022438182
65	0xbb1013b3	-0.0021984398
66	0x3aea920a	0.0017896306
67	0xbb84891d	-0.0040446655
68	0xbbb2f101	-0.005460859
69	0xbb96577c	-0.0045880657
70	0x394e6c64	0.0001968607
71	0x3b72cf11	0.003704969
72	0x3a284a61	0.0006419775
73	0x39d2580f	0.0004011993
74	0xba2699e6	-0.000635533
75	0xbace5d19	-0.0015744298
76	0x3be07f59	0.0068511185
77	0xbaf4c089	-0.0018673103
78	0xbb2bb0d7	-0.0026197934
79	0xba8eb11c	-0.0010886523
80	0x387ae476	5.9817416e-05
81	0x3a280bf9	0.00064104755
82	0x3a80dbaf	0.0009831096
83	0x3a13ee7b	0.00056431413
84	0xbb5ca116	-0.003366535
85	0xbb653dfd	-0.0034979575
86	0xbaa8c270	-0.001287533
87	0xba4e06e2	-0.0007859302
88	0x3a00cd74	0.00049134274
89	0xbb6b383a	-0.0035891668
90	0x3ba99c5b	0.0051761097
91	0x3b1fd9d6	0.0024391315
92	0xb7e62363	-2.7434615e-05
93	0xbb57f512	-0.003295247
94	0x3b465691	0.0030264
95	0x3a1d9d2c	0.0006012495
96	0xbbc11367	-0.0058922055
97	0xbb3e646b	-0.0029051553
98	0xba8d628e	-0.0010786818
99	0x3b3f4dca	0.0029190653
100	0xbb8bb688	-0.004263703
101	0xba8c2d02	-0.0010694566
102	0xbb25a869	-0.0025277382
103	0xbba53c9d	-0.005042626
104	0xbb7be50d	-0.0038436085
105	0xbb6d0bc5	-0.0036170345
106	0x3b727384	0.0036995122
107	0xbaa41d01	-0.0012520851
108	0xba05edf8	-0.00051090075
109	0xbb3fd398	-0.0029270407
110	0x3a51e547	0.0008006882
111	0x3b911d05	0.004428508
112	0x3ba99a1c	0.005175842
113	0xbb587108	-0.0033026356
114	0x3aa26f01	0.0012392701
115	0xbb1bf5bb	-0.002379759
116	0xbb427973	-0.002967444
117	0xbad88a7f	-0.0016520767
118	0xbbc7bf3d	-0.0060957954
119	0xbb199e03	-0.002344013
120	0x3aa2c4ff	0.0012418329
121	0x3b033689	0.002002152
122	0x39d88206	0.00041295605
123	0x3adff208	0.0017085681
124	0x3ab8a666	0.0014087677
125	0xbb2c473a	-0.0026287572
126	0xbb0546ca	-0.0020336383
127	0xbb053702	-0.0020326977
128	0x3a8a90c5	0.0010571709
129	0xbb09e22c	-0.002103935
130	0xbb4e2169	-0.003145302
131	0xbb5339cb	-0.0032230492
132	0xbafd2067	-0.0019312025
133	0xb92375a8	-0.00015588722
134	0x3af97cc0	0.0019034371
135	0x3b88e4f1	0.0041776826
136	0xbb6e54dc	-0.0036366498
137	0x396299b5	0.000216103
138	0xbb96a6b7	-0.0045975107
139	0xbb9cb504	-0.004782321
140	0x3b43fab1	0.0029904062
141	0x3b81c878	0.0039606653
142	0xbb123a98	-0.0022312757
143	0xbb74899e	-0.0037313472
144	0xbb1acb47	-0.0023619698
145	0xbb008eaa	-0.0019616284
146	0x3b8a9e8e	0.004230327
147	0x38d87af0	0.000103225815
148	0xbb742ac5	-0.0037256938
149	0x3b04ce4e	0.0020264569
150	0x3aac0a12	0.001312556
151	0xbad47433	-0.0016208946
152	0xba5d7928	-0.00084485346
153	0xbb84d8e6	-0.0040541766
154	0xbb686abd	-0.0035464012
155	0xbacafb1f	-0.0015486217
156	0xbaaaf2c2	-0.0013042318
157	0xb96ecac6	-0.00022772988
158	0xbae5c274	-0.0017529265
159	0xba077d4b	-0.00051685114
160	0xba3b23ec	-0.00071388367
161	0x3b18d12d	0.0023318038
162	0xbb316340	-0.0027067214
163	0x3b16d91a	0.0023017586
164	0xbb19e581	-0.0023482742
165	0xbb9779ab	-0.0046226582
166	0xbb207664	-0.0024484629
167	0xbb2d5c90	-0.0026452877
168	0x3afe9911	0.001942428
169	0xba624bf2	-0.00086325326
170	0xbbb101a8	-0.005401809
171	0x3b630090	0.0034637786
172	0x3b969378	0.0045952164
173	0x3a2b121f	0.00065258326
174	0x3a439be6	0.00074618903
175	0xbb3bf7e7	-0.0028681697
176	0xbace263e	-0.001572795
177	0xbb73d427	-0.003720531
178	0xbb0105d8	-0.001968732
179	0xbb170685	-0.0023044657
180	0x3bd55712	0.0065106237
181	0xbb75c76d	-0.00375029
182	0xbb2d462a	-0.0026439526
183	0xbb777980	-0.0037761629
184	0x3aaf3802	0.0013368132
185	0x3ade3680	0.0016953498
186	0xbb4338d1	-0.0029788504
187	0x3a28dd18	0.0006441637
188	0x3b5241ae	0.0032082605
189	0x3b2f9f88	0.002679797
190	0xbb8bf2b3	-0.0042708754
191	0x398e9bda	0.0002720047
192	0xbb0305ec	-0.0019992543
193	0x3b3503cf	0.0027620678
194	0xba39568f	-0.0007070088
195	0xb9989600	-0.00029103458
196	0xbb9660c8	-0.004589174
197	0x3b9f1bae	0.0048555946
198	0xba5e9f82	-0.00084923964
199	0xbb750a36	-0.003739012
200	0xbb4082a6	-0.0029374748
201	0xb8e751bf	-0.00011030165
202	0x3b1b23a8	0.0023672376
203	0x3b3f246f	0.0029166003
204	0xba197354	-0.0005853672
205	0x393d490c	0.00018051657
206	0xbb10e959	-0.0022111742
207	0x3b3ae591	0.002851818
208	0x3af136ce	0.0018403174
209	0x3a6c0ab6	0.00090042816
210	0x3ae910ca	0.0017781493
211	0xbb5c1af1	-0.0033585394
212	0xbb7ee9f0	-0.0038896762
213	0xbb5b47cc	-0.0033459542
214	0xbaec9f04	-0.0018052761
215	0x3b9ba006	0.004749301
216	0xbabcc72f	-0.0014402623
217	0xbb6da0af	-0.0036259105
218	0x3ae259ab	0.0017269155
219	0xba685e55	-0.0008864154
220	0x3919eaeb	0.00014678731
221	0x3b835259	0.0040076193
222	0x3b105af0	0.002202686
223	0xbb1fc913	-0.0024381324
224	0xbb4ca2be	-0.0031224932
225	0xbb9b987e	-0.004748403
226	0xb8cc013d	-9.727709e-05
227	0xbb2a3516	-0.0025971583
228	0xbb0178b9	-0.0019755794
229	0xba9f6050	-0.0012159441
230	0x39eb168b	0.0004483949
231	0xbb631bea	-0.003465409
232	0x3b23e623	0.0025008998
233	0xbb2fe91b	-0.0026841823
234	0x3b36a5bf	0.0027869788
235	0x3b6a3006	0.003573419
236	0xbb40cf91	-0.0029420594
237	0x3b1ce433	0.0023939728
238	0xbaa3d039	-0.0012497968
239	0x3b0aa692	0.0021156413
240	0x3b206f57	0.0024480426
241	0xbab2cf84	-0.0013642167
242	0xba8ffd12	-0.0010985455
243	0x3bcbde6f	0.0062215845
244	0xbb7b4566	-0.0038340925
245	0x3ba79b43	0.005114944
246	0x3b91756d	0.004439047
247	0x3b4f8bfd	0.0031669133
248	0x3b25c765	0.002529585
249	0x3ac40bc6	0.0014957122
250	0xbb8242a4	-0.0039752293
251	0xb89446bf	-7.0703674e-05
252	0x39a0e71c	0.00030689768
253	0x399a7034	0.00029456767
254	0x3b85748f	0.0040727328
255	0xbb911e94	-0.004428694

ablang_branch.4.weight f4 [128, 256]
0	0xbd64e74c	-0.055884644
1	0x3dc5edab	0.09664472
2	0xbb27f274	-0.002562669
3	0xbc2f2335	-0.010689546
4	0x3dec7478	0.11545652
5	0x3cdb4933	0.026768303
6	0xbdb56195	-0.08856503
7	0xbc5d50bf	-0.013508021
8	0xbd8acda9	-0.06777508
9	0x3da7dd14	0.08196464
10	0x3c92d17e	0.01792216
11	0xbe09729f	-0.1342263
12	0xbcb167a6	-0.021655869
13	0xbdd58af6	-0.10426895
14	0xbd0dbef4	-0.034605935
15	0x3bb2dba8	0.005458314
16	0xbd88ea01	-0.06685258
17	0x3d892cd6	0.06698005
18	0xbd66f714	-0.056387976
19	0xbd9262fd	-0.07147787
20	0x3bbe2359	0.0058025536
21	0xbd8b7482	-0.068093315
22	0xbc07c3cd	-0.008286429
23	0xbd392e17	-0.04520997
24	0xbe209742	-0.156827
25	0xbd325657	-0.04353937
26	0xbdc7847b	-0.097420655
27	0xbd52ac4a	-0.05143384
28	0xbad2245e	-0.0016032567
29	0x3c72ca8e	0.014818801
30	0x3cdc1898	0.026867196
31	0xbda1fa7a	-0.07909103
32	0xbdcc8cc8	-0.099877894
33	0x3dcc3a56	0.09972064
34	0x3de9f14c	0.11422977
35	0xbcd7c990	-0.02634123
36	0xbc9c3a2d	-0.01907071
37	0x3da3e734	0.08003083
38	0x3ddcbcef	0.10778224
39	0x3d87f9a2	0.066394106
40	0xbce877c3	-0.02837742
41	0xbd076959	-0.03305945
42	0x3d988d67	0.07448845
43	0x3c60dfef	0.013725265
44	0xbe21bde7	-0.15795098
45	0x3bca7a98	0.006179165
46	0xbcf3bbdf	-0.02975267
47	0xbd74dae8	-0.059779078
48	0xbd850c62	-0.064965025
49	0x3d18c9e1	0.0373019
50	0x3c9dc06a	0.01925679
51	0xbdf50534	-0.11963883
52	0x3e3d3e4c	0.18480796
53	0x3ca06cdf	0.019583164
54	0xbe1c2aa9	-0.15250649
55	0x3ccef99e	0.025265511
56	0xbe01054b	-0.12599675
57	0x3cc975f9	0.024592387
58	0x3b6a5c7a	0.0035760687
59	0xbbd58c24	-0.00651695
60	0x3d2693b4	0.040668204
61	0x3e01af9e	0.12664649
62	0x3c7f240b	0.015572558
63	0xbde20b5e	-0.11037324
64	0xbd5d8667	-0.054083254
65	0xbe35ea27	-0.17765103
66	0xbd80abf7	-0.062828
67	0xbcc5e123	-0.024155205
68	0xbb95f8d6	-0.0045767827
69	0xbd930c69	-0.071801014
70	0xbd388b96	-0.045054995
71	0x3df67c05	0.120353736
72	0xbcbe4c3d	-0.023229713
73	0x3e224338	0.15845954
74	0xbc083aee	-0.008314831
75	0x3d5964d9	0.05307469
76	0x3be1f918	0.0068961494
77	0xbcc45686	-0.023967039
78	0xbc0fbaa7	-0.008772529
79	0x3d53fee2	0.051756747
80	0xbc12d0ad	-0.008960885
81	0xbd813302	-0.06308557
82	0x3c973a6a	0.018460471
83	0x3e25a23d	0.1617517
84	0x3d561afe	0.052271836
85	0xbda47fa5	-0.08032159
86	0xbd9804c5	-0.07422785
87	0xbda9b318	-0.082861125
88	0x3d5355a5	0.05159535
89	0x3d8b6ac0	0.0680747
90	0x3cd2df49	0.025741236
91	0x3d9ae214	0.07562652
92	0x3d78ebca	0.06077174
93	0x3d5733af	0.052539524
94	0x3b01f8f8	0.0019832235
95	0x3c0ff3c1	0.008786143
96	0xbde342b1	-0.11096705
97	0xbd9ec412	-0.07752241
98	0xbe01a7d8	-0.12661684
99	0xbd3026b2	-0.043005653
100	0xbcba9032	-0.022773836
101	0xbc9ab79f	-0.018886385
102	0xbe091884	-0.13388258
103	0xbd22aa87	-0.03971341
104	0xbc6334c1	-0.013867558
105	0xbce0dd4e	-0.027449276
106	0xbd04299d	-0.032266248
107	0xbd069bf0	-0.032863557
108	0xbe25b9b3	-0.1618412
109	0xbc3fb334	-0.01170044
110	0x3e5b7970	0.21433043
111	0x3dd0678d	0.10176001
112	0xbcb1c1af	-0.0216988
113	0x3d38dee2	0.045134433
114	0xbdf5aad6	-0.11995475
115	0xbdbbc74b	-0.091688715
116	0xb98e8cc8	-0.0002718924
117	0x3d7ae6a2	0.061255105
118	0x3d42e26a	0.047579207
119	0x3bb0e107	0.005397919
120	0x3c8dbe99	0.017302798
121	0xbe11a988	-0.14224827
122	0x3d07ebd7	0.0331839
123	0xbd9a2fbb	-0.07528635
124	0x3c6b5eac	0.014365833
125	0xbd4641c4	-0.048402563
126	0xbe1c7120	-0.15277529
127	0xbda47e20	-0.08031869
128	0xbe17d9e4	-0.14829212
129	0xbd33955b	-0.04384361
130	0x3c3d1a19	0.011541867
131	0xbcc2713b	-0.023735633
132	0xbc2961b5	-0.010338237
133	0xbdcd1099	-0.100129314
134	0xbc9c4ace	-0.019078638
135	0xbd90379a	-0.07041855
136	0xbd84240b	-0.06452187
137	0xbd229278	-0.039690465
138	0x3da433c9	0.0801769
139	0xbdf5fd00	-0.120111465
140	0x3c8dcdfe	0.017310139
141	0xbc38ba9f	-0.011274963
142	0x3c3f9e12	0.011695402
143	0x3c11074e	0.008851839
144	0x3e129867	0.1431595
145	0xbc62107b	-0.013797875
146	0xbc4c8c8b	-0.01248468
147	0x3d9a7a6b	0.075428806
148	0x3d88a261	0.06671596
149	0x3c3e3d81	0.011611343
150	0x3df2677c	0.11836144
151	0x3dc0ff3e	0.094236836
152	0x3a859f01	0.0010194482
153	0xbe1d8ed2	-0.15386513
154	0xbdc68279	-0.096928544
155	0x3dd9836c	0.1062077
156	0x3d5f570a	0.054526366
157	0xbd1aeb18	-0.03782186
158	0x3e11cab4	0.14237481
159	0xbd3357e2	-0.043784983
160	0xbd184e9f	-0.037184354
161	0xbd2bd2d4	-0.04194911
162	0xbe0c43cd	-0.13697739
163	0x3df5570c	0.119794935
164	0x3dcdf7b7	0.100570135
165	0x3b9bffb7	0.004760708
166	0xbe01c25d	-0.126718
167	0x3d34fa1d	0.04418384
168	0x3e7f75ba	0.24947253
169	0x3cbc7b8e	0.023008134
170	0x3d1538c3	0.036431085
171	0xbd6b3679	-0.057424996
172	0x3e5bb055	0.21453984
173	0xbbedf709	-0.007262115
174	0x3ce424b8	0.02784954
175	0x3e285bb8	0.16441238
176	0xbe4b40b8	-0.19848907
177	0xbe924b8e	-0.2857327
178	0xbd33e45c	-0.043918952
179	0xbe79e5e2	-0.244041
180	0x3be27fe3	0.006912218
181	0xbd2a9cab	-0.041653316
182	0xbd79d6dc	-0.06099592
183	0x3dc80b7f	0.09767818
184	0xbc37f81b	-0.011228587
185	0xbe29bd47	-0.1657611
186	0x3cbd1b57	0.023084326
187	0xbce8cbca	-0.028417487
188	0x3dde6f9c	0.108611315
189	0xbc885c04	-0.016645439
190	0xbddc6247	-0.107609324
191	0x3d44af67	0.04801884
192	0xbd9fc308	-0.07800871
193	0x3d968705	0.07349972
194	0x3dbb910e	0.09158526
195	0xbb0b8604	-0.0021289596
196	0x3d1db96b	0.038506906
197	0x3e0e6fe5	0.13909872
198	0xbb820fce	-0.003969169
199	0xbc710eb0	-0.014712974
200	0x3daf43d9	0.08557863
201	0x3cf1c9b9	0.029515134
202	0x3e3402db	0.17579214
203	0xbe2ef5b4	-0.17085916
204	0xbd368287	-0.044558074
205	0x3c267dbf	0.010161816
206	0x3dff2936	0.12459032
207	0x3d0af790	0.0339275
208	0xbc7ca4e2	-0.0154201705
209	0xbe038745	-0.1284457
210	0xbd5bcae6	-0.053660296
211	0x3c7f000d	0.015563977
212	0xbde3a676	-0.11115734
213	0xbd6a017d	-0.057130326
214	0xbdf40943	-0.11915829
215	0xbab3c2cb	-0.0013714669
216	0xbdc087b2	-0.09400882
217	0xbbad7e40	-0.005294591
218	0xbdc51686	-0.09623437
219	0xbccb7428	-0.024835661
220	0x3d62986f	0.055321153
221	0x3d0b103f	0.03395104
222	0x3d76b086	0.06022694
223	0xbde20c2b	-0.11037477
224	0xbc5f37b3	-0.01362412
225	0x3e034c97	0.12822185
226	0x3a974198	0.0011539934
227	0x3e97799a	0.29584962
228	0xbd90e4d9	-0.07074899
229	0xbdb503a0	-0.08838582
230	0x3d60c485	0.054874916
231	0xbda90101	-0.082521446
232	0x3e080080	0.1328144
233	0x3d8f244a	0.069893435
234	0x3e70bb86	0.23509035
235	0xbdd29f51	-0.102842934
236	0xbdc66269	-0.09686739
237	0xbdff4867	-0.124649815
238	0x3cad46db	0.02115195
239	0x3d6e52d5	0.058184464
240	0x3d8eb116	0.0696737
241	0x3e0812ba	0.13288394
242	0xbd15d498	-0.0365797
243	0xbdf36210	-0.11883938
244	0xbc86559d	-0.016398245
245	0xbded50d9	-0.11587686
246	0xbe376ecb	-0.17913358
247	0x3db34471	0.087532885
248	0x3dc4e5a8	0.09614116
249	0xbe37d56e	-0.1795251
250	0x3c80c07e	0.015716787
251	0x3d024769	0.031806383
252	0xbe31c007	-0.17358409
253	0x3dec15b1	0.11527575
254	0x3e291f24	0.16515785
255	0xbe34be69	-0.1765076

ablang_branch.4.bias f4 [128]
0	0x3bb17248	0.0054152347
1	0x3b5b68ee	0.003347929
2	0xbabfd55d	-0.0014635731
3	0xbb781b4f	-0.0037858074
4	0xbbb44d20	-0.005502358
5	0xbad194a6	-0.0015989735
6	0x3ba0ef06	0.0049113063
7	0xbb7791b2	-0.003777605
8	0xbbdf61c5	-0.006817075
9	0xbbcd015f	-0.006256267
10	0xbaedb5bd	-0.0018135827
11	0xbb3f1c09	-0.0029160997
12	0x3b024bb0	0.001988154
13	0x3aeef01d	0.0018229518
14	0x3b9c900c	0.004777914
15	0x3af1c517	0.0018445578
16	0x3b8c40a0	0.004280165
17	0x3bc430f4	0.005987281
18	0xbbae2e93	-0.0053156107
19	0x3af6ce9b	0.0018829884
20	0xbba1c399	-0.004936647
21	0xbb4db868	-0.0031390432
22	0xbb8ca530	-0.004292153
23	0xbb84c9eb	-0.004052391
24	0x3bdeb880	0.0067968965
25	0xbb974d34	-0.0046173576
26	0x3b49fcf5	0.003082094
27	0x3b85c3a3	0.0040821596
28	0x3ac21472	0.0014807119
29	0x3b070f95	0.0020608653
30	0x3bcacf84	0.0061892886
31	0xbb45481f	-0.0030102802
32	0x3b620ea7	0.0034493597
33	0x3a9610b9	0.0011449076
34	0x3beb34f2	0.0071779424
35	0xbb22bee6	-0.0024833023
36	0x3bacd3d0	0.0052742735
37	0x3b8c06c4	0.0042732675
38	0x3bcf6dae	0.0063302135
39	0xbaf865a4	-0.001895119
40	0xbbade2d8	-0.005306583
41	0xbbb42a6a	-0.00549822
42	0xbb9ba36a	-0.004749705
43	0xbaa2d0be	-0.0012421829
44	0xbac62cb4	-0.0015119524
45	0x3afd2ccd	0.001931572
46	0xbb1da944	-0.002405719
47	0xbb0c5891	-0.0021415094
48	0x3b4f7866	0.0031657456
49	0xbb82171e	-0.003970041
50	0xbb3c1b17	-0.002870267
51	0xbb8f145d	-0.004366441
52	0x3aedef65	0.001815301
53	0xbb9cc393	-0.0047840565
54	0xbb94f2bb	-0.0045455373
55	0xbb265d05	-0.0025385034
56	0xbbbe6ef0	-0.0058115646
57	0x39e16641	0.0004299153
58	0x3bc71c97	0.006076406
59	0xbbb6386f	-0.0055609266
60	0xbb310d93	-0.0027016148
61	0xba56a061	-0.00081873505
62	0x3ae66455	0.0017577509
63	0xbb83a462	-0.0040173987
64	0xbba4651e	-0.005016937
65	0xba6a93cf	-0.0008948417
66	0xbba38e65	-0.00499134
67	0x3b056ad6	0.0020357869
68	0x3a43f25b	0.00074747734
69	0xbb039f37	-0.0020083913
70	0xbbea10a5	-0.0071430975
71	0xbb6a968d	-0.0035795302
72	0xbbce0529	-0.006287236
73	0xbb9afbbb	-0.0047297156
74	0xbacb1fd1	-0.0015497153
75	0xbadd6183	-0.0016890023
76	0x3a644193	0.0008707281
77	0xba24371d	-0.0006264316
78	0xbb162b01	-0.0022913816
79	0x3b993e1e	0.0046765944
80	0xbba9c63c	-0.005181102
81	0xbbcfff03	-0.0063475384
82	0xba7c0461	-0.00096136896
83	0xba929fc2	-0.0011186528
84	0xbb354815	-0.0027661372
85	0xbb85e571	-0.0040861894
86	0xbb9f9eb3	-0.0048712133
87	0xbace068f	-0.0015718507
88	0xbb0f377a	-0.0021853135
89	0xbba9f070	-0.005186133
90	0xbb71f5ee	-0.0036920267
91	0x3b515faf	0.00319479
92	0x3bf9cea6	0.0076235114
93	0x3b956379	0.004558977
94	0xbb8033d4	-0.0039124284
95	0xbbac2683	-0.0052536144
96	0x3a028191	0.00049784133
97	0xbb5af42f	-0.0033409705
98	0x3bb4fee5	0.00552355
99	0x3b0c7eee	0.002143796
100	0xba28a74e	-0.0006433622
101	0x3ae51bfe	0.0017479656
102	0xbb8d9c6f	-0.004321627
103	0xbb68d240	-0.003552571
104	0xbb30b787	-0.002696486
105	0xba891c54	-0.0010460713
106	0x3a9b0b28	0.0011828886
107	0xba65e02f	-0.00087690627
108	0xbbb0e74a	-0.0053986656
109	0xbba59ce7	-0.0050541046
110	0xbb9acd8d	-0.0047242106
111	0x3bb84bdc	0.0056242775
112	0xbae01b0e	-0.0017097907
113	0x3bad9707	0.005297545
114	0x3bae756a	0.0053240554
115	0x3aa0d0b2	0.0012269227
116	0xba8c2306	-0.001069159
117	0xbbdcf228	-0.0067427345
118	0xbba29fe1	-0.0049629067
119	0x3b55ce54	0.0032624202
120	0xba455acb	-0.0007528483
121	0xbbc0e568	-0.0058867224
122	0x3a865202	0.0010247829
123	0x3bdc5d17	0.0067249644
124	0xbb90bbf9	-0.0044169393
125	0xbbb1f434	-0.0054307226
126	0x3bac3219	0.0052549955
127	0x396f4415	0.00022818179

ablang_branch.5.weight f4 [128]
0	0x3f803679	1.0016624
1	0x3f7fa0f8	0.99854994
2	0x3f7f8bf7	0.99822944
3	0x3f7ea2ab	0.9946696
4	0x3f7efa66	0.9960083
5	0x3f7eeb95	0.9957822
6	0x3f806e7f	1.0033721
7	0x3f7f1f1a	0.9965683
8	0x3f7e8b2c	0.9943111
9	0x3f7f3c8b	0.99701756
10	0x3f7f4dbb	0.9972798
11	0x3f7f60a8	0.9975686
12	0x3f7fd847	0.9993939
13	0x3f800378	1.0001059
14	0x3f80a134	1.0049195
15	0x3f7f654a	0.9976393
16	0x3f7fd85c	0.99939513
17	0x3f8032bf	1.0015486
18	0x3f7f118f	0.9963617
19	0x3f7f7a7b	0.99796265
20	0x3f7f35d0	0.99691486
21	0x3f7f3d53	0.9970295
22	0x3f8011b1	1.0005399
23	0x3f7ec482	0.995186
24	0x3f80d07a	1.0063622
25	0x3f7f13f6	0.9963983
26	0x3f801a46	1.0008018
27	0x3f801c7d	1.0008694
28	0x3f7fa866	0.9986633
29	0x3f7f7bac	0.99798083
30	0x3f80bbe1	1.0057336
31	0x3f80f42c	1.0074515
32	0x3f7f9034	0.9982941
33	0x3f7f8eab	0.9982707
34	0x3f8115d3	1.0084785
35	0x3f7f6e1c	0.9977739
36	0x3f80a4b7	1.0050267
37	0x3f80507b	1.0024561
38	0x3f80ca37	1.0061711
39	0x3f7f269b	0.9966828
40	0x3f7ef660	0.9959469
41	0x3f7ea2d5	0.9946721
42	0x3f7ed19c	0.9953859
43	0x3f80a64f	1.0050753
44	0x3f7ecb34	0.99528813
45	0x3f7f24dc	0.9966562
46	0x3f7f9308	0.99833727
47	0x3f7f781c	0.9979265
48	0x3f7fb16e	0.9988011
49	0x3f7f576d	0.99742776
50	0x3f7f5595	0.9973996
51	0x3f7ef596	0.99593484
52	0x3f7fafb1	0.9987746
53	0x3f7f8d92	0.99825394
54	0x3f7f0f6d	0.9963291
55	0x3f7f505d	0.99732
56	0x3f7e7712	0.99400437
57	0x3f7f92dd	0.9983347
58	0x3f809734	1.0046144
59	0x3f7ed6c5	0.9954646
60	0x3f7f555f	0.9973964
61	0x3f7f63b3	0.99761504
62	0x3f7f8437	0.9981112
63	0x3f7f201b	0.99658364
64	0x3f7f3bf8	0.9970088
65	0x3f7fe04d	0.9995163
66	0x3f7eef4d	0.99583894
67	0x3f7f82f1	0.99809176
68	0x3f7f9eed	0.99851876
69	0x3f7fcd45	0.9992259
70	0x3f80d894	1.0066094
71	0x3f7f4aee	0.9972371
72	0x3f7f18a6	0.99646986
73	0x3f7f2c92	0.99677384
74	0x3f7fc53d	0.99910337
75	0x3f800f60	1.0004692
76	0x3f7f57a1	0.99743086
77	0x3f7f552a	0.99739325
78	0x3f7ede92	0.99558365
79	0x3f802cc3	1.001366
80	0x3f7ef30a	0.995896
81	0x3f7ea8a8	0.994761
82	0x3f7f8f77	0.99828285
83	0x3f7ee943	0.9957468
84	0x3f7f29a7	0.9967293
85	0x3f7f4dc0	0.9972801
86	0x3f809001	1.0043947
87	0x3f7fa066	0.99854124
88	0x3f7f55f8	0.9974055
89	0x3f7f0a2f	0.99624914
90	0x3f7f128d	0.9963768
91	0x3f7fe8e6	0.9996475
92	0x3f8128a0	1.0090523
93	0x3f7fe022	0.99951375
94	0x3f7f2daa	0.9967905
95	0x3f7e8f4f	0.9943742
96	0x3f7f3434	0.9968903
97	0x3f7f769d	0.99790365
98	0x3f809a11	1.0047017
99	0x3f7fa4d6	0.99860895
100	0x3f7f82ea	0.99809134
101	0x3f7fb739	0.9988895
102	0x3f7f09f8	0.99624586
103	0x3f7f3ba6	0.9970039
104	0x3f8036f7	1.0016774
105	0x3f7f4172	0.99709237
106	0x3f7f8af8	0.99821424
107	0x3f7fac13	0.9987194
108	0x3f7f5043	0.99731845
109	0x3f7f0321	0.9961415
110	0x3f80779f	1.0036505
111	0x3f8032a3	1.0015453
112	0x3f7f3a5e	0.99698436
113	0x3f80abea	1.0052464
114	0x3f807cef	1.0038127
115	0x3f7f80c4	0.99805856
116	0x3f7e99a8	0.9945321
117	0x3f80e434	1.0069642
118	0x3f7f33e5	0.9968856
119	0x3f7f8386	0.99810064
120	0x3f7e6425	0.9937156
121	0x3f80be0d	1.0057999
122	0x3f7faf31	0.99876696
123	0x3f80e91f	1.0071143
124	0x3f7ecc67	0.99530643
125	0x3f7ec21b	0.9951493
126	0x3f7e0bb7	0.99236625
127	0x3f7f07dc	0.9962137

ablang_branch.5.bias f4 [128]
0	0x3bb45888	0.005503718
1	0x3b5a0b45	0.0033270877
2	0xbababe27	-0.0014247344
3	0xbb7cf0e3	-0.0038595728
4	0xbbb7037d	-0.0055851326
5	0xbae9edc0	-0.0017847344
6	0x3ba1278d	0.004918045
7	0xbb6fc339	-0.0036584868
8	0xbbe3fd22	-0.006957666
9	0xbbc7bc2b	-0.0060954294
10	0xbae63a7e	-0.001756504
11	0xbb446b85	-0.0029971313
12	0x3b01e084	0.001981766
13	0x3ac6e773	0.0015175178
14	0x3b98477e	0.0046471944
15	0x3ae4a92f	0.001744544
16	0x3b905155	0.004404227
17	0x3bc996bf	0.0061520035
18	0xbbb23da5	-0.0054394775
19	0x3b030b50	0.0019995756
20	0xbba28d10	-0.0049606636
21	0xbb415d8a	-0.0029505217
22	0xbb847582	-0.0040423283
23	0xbb87d7fa	-0.0041456195
24	0x3be5a6e6	0.0070084212
25	0xbb984f02	-0.0046480903
26	0x3b4a9592	0.0030911905
27	0x3b84ce30	0.0040529
28	0x3aa82433	0.0012828171
29	0x3b1472ad	0.002265136
30	0x3bc90213	0.0061342805
31	0xbb203d8f	-0.0024450754
32	0x3b7d067a	0.0038608597
33	0x3aa02c46	0.0012220226
34	0x3bec789c	0.007216526
35	0xbafdbb95	-0.0019358272
36	0x3ba7999d	0.0051147477
37	0x3b8c6df5	0.004285569
38	0x3bcfe890	0.0063448623
39	0xbab2075b	-0.0013582514
40	0xbbb19bb9	-0.005420175
41	0xbbbb14ea	-0.0057092803
42	0xbb9da1d6	-0.004810552
43	0xba263bee	-0.00063413277
44	0xb9942e97	-0.00028263472
45	0x3afd60bb	0.0019331196
46	0xbb0f6420	-0.0021879748
47	0xbacd0b9b	-0.0015643717
48	0x3b516c05	0.0031955254
49	0xbb823952	-0.0039741183
50	0xbb05dd7f	-0.0020426211
51	0xbb92f42e	-0.004484675
52	0x3af02d76	0.0018324095
53	0xbb998e0f	-0.004686124
54	0xbb9a8a0f	-0.004716165
55	0xbb262109	-0.002534928
56	0xbbc20c6b	-0.0059218905
57	0x39a111f1	0.0003072168
58	0x3bc3f236	0.0059798015
59	0xbbba535a	-0.005686206
60	0xbb3fc028	-0.002925882
61	0x3927822a	0.00015974851
62	0x3acc200e	0.0015573518
63	0xbb864afc	-0.0040982943
64	0xbba457cb	-0.0050153485
65	0x39c0506f	0.0003668102
66	0xbba65113	-0.005075583
67	0x3afc861c	0.0019266042
68	0x3a534179	0.00080587674
69	0xbafc503b	-0.0019249985
70	0xbbe19767	-0.0068845036
71	0xbb686f20	-0.0035466626
72	0xbbd30e9e	-0.0064409515
73	0xbb9d1b94	-0.0047945473
74	0xbadc1a36	-0.001679248
75	0xb9a74d94	-0.00031910522
76	0x3a1bf336	0.0005949022
77	0xba18a3a3	-0.00058227236
78	0xbafe86d6	-0.0019418846
79	0x3b9a8175	0.0047151395
80	0xbbacce2f	-0.0052736024
81	0xbbd522f1	-0.0065044095
82	0xb8a6c5e7	-7.952359e-05
83	0xbaa828d1	-0.0012829547
84	0xbb37bc45	-0.0028035801
85	0xbb81151d	-0.0039392845
86	0xbb7cfb77	-0.0038602033
87	0xbab9afc0	-0.0014166757
88	0xbb0c7c57	-0.0021436417
89	0xbbaebaf4	-0.005332345
90	0xbb742702	-0.0037254696
91	0x3b522ff2	0.0032072035
92	0x3bfbabd3	0.007680395
93	0x3b99f55d	0.004698439
94	0xbb81b467	-0.003958273
95	0xbbb1ea5c	-0.005429549
96	0x39ce933f	0.0003940109
97	0xbb5bc2a0	-0.0033532754
98	0x3bb6ce55	0.005578796
99	0x3b069028	0.0020532701
100	0x3ad9bc6d	0.0016611941
101	0x3afa493a	0.001909531
102	0xbb84734f	-0.004042066
103	0xbb6a6694	-0.0035766708
104	0xbae34fdc	-0.0017342526
105	0xba9a9a1e	-0.0011795198
106	0x3aaddb7f	0.0013264267
107	0xba565717	-0.00081764295
108	0xbbb27c92	-0.005446979
109	0xbba9ceec	-0.0051821377
110	0xbb74fe6a	-0.0037383088
111	0x3bc1e3ef	0.0059170644
112	0xba9b24f2	-0.0011836572
113	0x3baea25f	0.0053294147
114	0x3baf7aa9	0.0053551984
115	0x3ab2bf84	0.0013637398
116	0x3895a13e	7.134907e-05
117	0xbbcbeb57	-0.006223123
118	0xbba20a22	-0.0049450556
119	0x3b5eb81f	0.0033984256
120	0xb7cb61db	-2.4245053e-05
121	0xbbb952f9	-0.005655643
122	0x3a2d0921	0.00066007866
123	0x3bdc172b	0.006716629
124	0xbb91006f	-0.0044251005
125	0xbbb33ea3	-0.0054701134
126	0x3bd140ed	0.0063859136
127	0x38574b40	5.1330077e-05
