data/model_weights/cv_fold_3_model4_3.pt (torch, 707477 bytes, 29 tensors)

ablang_branch.0.weight f4 [256, 480]
000000 b1 a9 8d bc f0 49 e2 bc ce 4e e0 3d 13 5e 16 bd
       -0.01729283 -0.027623147 0.10952531 -0.03671081
000010 1c a3 f9 bc 58 38 0d 3e 72 12 b1 bc 9e 2f e6 3d
       -0.030473284 0.13791025 -0.02161524 0.11239551
000020 90 48 5c 3c 4f fa 1f bd b9 91 c1 3c f2 54 88 3d
       0.013445035 -0.039057072 0.023629056 0.06656827
000030 2b 32 4f 3d 9a 8a 49 bd 0d dd 21 bc 12 39 ba 3c
       0.050584953 -0.049204446 -0.009879363 0.022732291
000040 ae 97 c5 3d 36 14 12 bc bb 57 90 3a 5e bd 04 bd
       0.09648071 -0.0089159515 0.0011012474 -0.032407157
000050 a1 e8 5d 3d 03 0d f2 3c cb 82 13 3c b5 66 53 bd
       0.05417693 0.02954722 0.009003351 -0.05161162
000060 30 1a 6a 3d 28 ef e4 3c 07 cb 27 bd fe 7a 02 be
       0.05715388 0.02794607 -0.040965106 -0.1274223
000070 14 bb 15 3e f7 31 c2 bd ea a9 02 3e 86 e8 70 bd
       0.14622146 -0.09482186 0.1276013 -0.0588155
000080 6a cb 94 bd 1f 9e 27 bd 18 2e 0c 3e 87 0b 11 3e
       -0.07265361 -0.04092228 0.13689458 0.14164554
000090 3f 15 04 bc 35 94 3e be 15 9a 88 3d c6 1c 4e bd
       -0.008061706 -0.18611224 0.06670014 -0.05032041
0000a0 44 90 41 bd be ed b3 bd ba cf 83 bd 9e 82 47 3d
       -0.047256723 -0.0878558 -0.06436105 0.04870855
0000b0 6d 94 f2 3d 20 49 37 3d 39 32 27 3c cb 87 66 3d
       0.11844716 0.04474747 0.010204845 0.056281846
0000c0 6b c4 2d bd 9b 1c e3 3d 03 3c 0e 3c ee d5 ea bc
       -0.042423647 0.110894404 0.0086813 -0.028666463
0000d0 f5 cd 95 3d b2 bc 4a bd 15 5f e1 3c 38 08 45 bd
       0.07314674 -0.04949636 0.027511159 -0.04810354
0000e0 ca e5 59 3d 0f 03 2b 3c 88 91 9a 3c 5a 2f b9 bd
       0.05319766 0.010437741 0.018868223 -0.09042235
0000f0 09 5a 5a 3d fb e9 9c bd 7f b3 93 3d 2e d0 aa 3b
       0.05330852 -0.07661816 0.072119705 0.0052128052
000100 1d 22 7d bc 7c f0 61 3d ca 84 c5 bb 83 82 1a bd
       -0.015450028 0.055160984 -0.0060277926 -0.037722122
000110 2b 53 60 bd 03 ec 94 bd db 4f 0a 3c 6b 68 15 be
       -0.054766815 -0.07271578 0.008441891 -0.14590614
000120 07 3b a5 bd 1d a3 9a bd 9b 0f 40 3d ab fb d3 bd
       -0.08067899 -0.07550643 0.046889883 -0.10350736
000130 36 c3 0d 3e 39 d6 e2 bd b5 2a 88 3d b4 60 97 3d
       0.13843998 -0.11076016 0.06648771 0.073914915
000140 55 37 e1 3b 3b e7 69 3c 44 39 b4 bd 25 7b dd bc
       0.006873051 0.014276321 -0.08799985 -0.027036259
000150 b6 7a 8c bc fe 5b 3f bb 2a 42 c2 3d 36 76 86 3d
       -0.017148357 -0.0029199119 0.09485276 0.06565516
000160 5b 36 06 be 50 c6 be bc 20 8b d5 3d ed ce 13 3e
       -0.13106672 -0.023287922 0.104269266 0.14434405
000170 cd e0 85 3c 18 b5 1d be 84 e6 e2 bd 64 8e 14 bd
       0.016342545 -0.15401113 -0.110791236 -0.036268607
000180 f5 98 21 bd 41 a9 97 bc f2 75 79 bd 85 78 a5 bc
       -0.03945251 -0.018513324 -0.060903497 -0.02019907
000190 0a 3e 9c bc 03 19 cc 3d cc 33 79 bc 27 4c 3b bc
       -0.019072551 0.09965708 -0.015210103 -0.01143173
0001a0 63 b9 e5 3c 50 87 d9 3d da b1 70 bd 04 cc d4 bd
       0.0280425 0.10621512 -0.058763362 -0.103904754
0001b0 05 b6 4c bd dc 19 b6 3b f0 12 5d bd d7 ef 17 3b
       -0.049978275 0.005557282 -0.05397314 0.0023183727
0001c0 8d d3 8c 3d a6 d1 07 3d 66 0a 9f 3c 60 24 a5 bd
       0.068762876 0.03315892 0.019414138 -0.080635786
0001d0 a8 4a 67 3d cc f9 09 3d eb 1d 9e bd ba 9d 2d 3a
       0.056467682 0.03368549 -0.0772055 0.00066229294
0001e0 ae a3 28 3d 04 d5 18 bd 8b c1 3e 3d c5 7a 87 bd
       0.041171722 -0.037312523 0.046571296 -0.06615213
0001f0 0e 1f 1b 3e c6 08 b6 3d 6d 62 5f bb bf 27 11 be
       0.15148565 0.08888392 -0.0034085766 -0.14175318
000200 54 04 09 3e 48 4f b2 3d c4 d2 d6 3b fb 7b 47 bc
       0.13380557 0.08706528 0.006555887 -0.012175555
000210 3d 7d 6b bd 07 0b 70 bd dd c8 8c 3c 60 31 67 bd
       -0.057492483 -0.058604266 0.017185623 -0.056443572
000220 7a 08 1c bd db e7 30 3d b3 5a 5b 3d 7c d7 a4 3c
       -0.03809402 0.043189865 0.053553294 0.020122282
000230 38 69 2a bb 1b 22 8a bd f3 98 a6 bd 41 f7 7f bc
       -0.0026002657 -0.06744786 -0.081346415 -0.015622915
000240 2a 68 36 3d 41 d1 e1 3c ad c1 97 bc 69 de 19 be
       0.044532932 0.0275656 -0.018524969 -0.15026249
000250 71 e3 e3 bc 3a 29 10 bc 82 92 95 3d d3 3f 1b be
       -0.027818413 -0.008798892 0.07303335 -0.15161066
000260 ca a2 7b bd bf df d3 bd ca e3 69 bd c0 f3 c5 bc
       -0.061434545 -0.103454106 -0.057102002 -0.02416408
000270 e7 74 8e bc 5f 48 8f bd 4c e6 af bc 00 9f 9e 3c
       -0.017389728 -0.069962256 -0.021472119 0.019362926
000280 28 fd e2 3c 99 e8 e0 bc db a8 13 bc 6c f6 35 3c
       0.027708605 -0.027454661 -0.009012426 0.011106115
000290 05 3d 78 ba b9 9e bb 3d ee 60 40 3d 70 7e ac 3c
       -0.0009469542 0.09161133 0.04696744 0.021056384
0002a0 0e 5c 18 3c 4c 67 f4 3d 10 b7 f3 bb 69 d4 15 3d
       0.009299291 0.11933765 -0.0074375942 0.036579523
0002b0 55 de 65 3d 06 4d cc bc 7a db 53 3d ab 0b be 3c
       0.056120235 -0.024939071 0.05172298 0.023198923
0002c0 9f 96 9f 3d 78 0a 78 3c 93 58 b1 3d 08 44 05 3d
       0.077924006 0.015139215 0.08659472 0.032535583
0002d0 88 3a 04 bd 83 3f 8c bc 1a 3b 80 3d bf 0d c3 b9
       -0.032282382 -0.017120128 0.06261273 -0.0003720354
0002e0 dc e2 93 3c cc a1 8c bd 54 04 9a bc 78 4c b9 3a
       0.01805251 -0.06866798 -0.018800892 0.0014137169
0002f0 5f 20 8e bd 37 96 98 bd ea 58 8f bb 8c 17 93 3c
       -0.06939768 -0.07450526 -0.004374613 0.017955564
000300 ee db 5d 3d 94 75 8d 3d ad 0e 95 3c 5e b2 a7 bd
       0.05416482 0.06907192 0.018195475 -0.08188318
000310 b0 e6 95 bc 6a 41 87 bc f9 38 58 3d 38 b1 9a 3d
       -0.018298477 -0.016510684 0.05278871 0.07553333
000320 a6 b5 c6 3d 3a 11 fd 3c 98 74 6a bd e5 d8 43 bc
       0.097026154 0.030892003 -0.0572401 -0.011953567
000330 d5 14 44 bd cf 6e 3d 3d 8b 55 93 3d ea c3 27 bd
       -0.04787143 0.046248253 0.071940504 -0.040958323
000340 de 1b f8 bb a2 b7 5f bd f8 98 03 be 0c 2e cd bc
       -0.0075716814 -0.054618485 -0.12851322 -0.02504637
000350 2a 7a 62 bd 89 e6 a9 3d de 33 80 bd 72 02 60 bc
       -0.055292286 0.08295924 -0.06259893 -0.013672458
000360 63 37 0e be 96 ab c3 bc e0 0b d1 bc 54 a7 aa 3d
       -0.13888316 -0.02388553 -0.025518358 0.083326966
000370 5d 5d 6d bc 39 d1 0e be 6c f3 54 3d 3a 26 2c bd
       -0.014487592 -0.13947 0.051989958 -0.042028643
000380 e4 f2 93 3c 20 25 0d bc 7b b3 6d bd 11 49 d7 3c
       0.018060155 -0.008614808 -0.058032494 0.026279958
000390 3f 95 8e bd 54 4a 3a 3d a7 0f a4 3d 18 0d 3a bd
       -0.0696206 0.04548104 0.08010798 -0.045422643
0003a0 46 ce 49 bd bd cb 71 bc 7a a4 1c bd af a3 b5 3c
       -0.049268983 -0.014758048 -0.038242795 0.022172777
0003b0 38 88 99 bc d4 0e 43 bd 10 0d 8e 3b ee b3 a3 bd
       -0.018741712 -0.047621563 0.0043350533 -0.07993303
0003c0 14 bd 9f 3d 37 23 68 3d cf 51 cf bd 61 bf aa bc
       0.07799736 0.05667421 -0.101230256 -0.02084321
0003d0 47 ce 43 3d 00 16 bf 3d 37 92 fb 3d 8a af 60 bd
       0.047804143 0.09330368 0.12283748 -0.054854907
0003e0 88 d3 8f bc 6b 6f b7 bc b4 3f c2 3d 13 ff 7f 3d
       -0.01755692 -0.022391995 0.09484807 0.062499117
0003f0 1a 64 5a bd 03 a4 28 bd cc 4f 82 bd ab b5 17 bb
       -0.05331812 -0.04117204 -0.06362876 -0.0023149054

ablang_branch.0.bias f4 [256]
000000 60 bc 15 bb be 65 bb bb c3 b7 cd ba d7 88 18 3c
       -0.0022847876 -0.0057189157 -0.0015695024 0.009309969
000010 bc f6 89 bb 25 1a a0 3b 76 13 9b 3b ba f4 19 3b
       -0.004210321 0.004885929 0.0047325445 0.0023491816
000020 97 8c 61 3b aa 62 f5 3b 73 4a 22 3b 47 1b e4 3b
       0.0034416073 0.0074885683 0.0024763613 0.0069612595
000030 76 c3 46 3b 46 b5 a0 3a 35 09 eb 3b 7a 5d 50 3b
       0.0030328906 0.0012261055 0.0071727284 0.0031793998
000040 a6 66 dd 3b 24 4f 17 3b df fa f7 3b a5 05 51 ba
       0.0067566214 0.0023087943 0.007567748 -0.00079735584
000050 63 99 b3 3b 14 2d 28 b9 5c 40 72 3b a7 56 0b bb
       0.0054809316 -0.00016038521 0.003696463 -0.0021261366
000060 8f 75 ef 3b 80 23 58 bb ee 8e 0c 3a 0a ae e8 3b
       0.0073077152 -0.0032980144 0.00053618744 0.007100825
000070 06 c0 89 39 b6 36 bb 3b f8 69 03 3b 59 6f f3 3b
       0.00026273745 0.005713309 0.0020052176 0.007429045
000080 14 bb 43 3a 06 74 cb 39 ea e1 c6 3a 2e 9f 2f 3b
       0.00074665365 0.0003880562 0.0015173529 0.002679776
000090 d9 0d 4c 3b 11 a2 5b bb 93 b7 15 ba be 81 34 3c
       0.0031136184 -0.0033513347 -0.00057112536 0.011017261
0000a0 f5 3d 6b 3b 29 ca 3c bb f6 66 f5 3b 0d 35 dd 3b
       0.0035895084 -0.002880702 0.0074890805 0.006750709
0000b0 49 9d 98 3b 1c df 00 3c 08 4f b9 3b 05 6c cb 3b
       0.0046574217 0.007865693 0.005655173 0.0062079453
0000c0 60 eb ef b7 45 ea df 3b 57 be 1a 3c 9e aa 40 3a
       -2.8600625e-05 0.006833347 0.009444795 0.00073496427
0000d0 78 f8 34 3b d2 45 6f 3b 18 fe 43 3a f4 f6 02 3b
       0.002761392 0.0036510122 0.00074765226 0.0019983621
0000e0 cb b6 d2 ba cf 65 bb 3a 52 1a 9b 3b 38 73 84 3b
       -0.0016076205 0.0014297309 0.0047333622 0.0040420555
0000f0 9d 4a 15 bb ab c5 10 3b 7c 76 0a 3c 9e 55 3f bb
       -0.0022780069 0.0022090476 0.0084511 -0.002919532
000100 c8 72 86 3b 47 a3 26 3c ab 84 08 3c 68 d3 ec 3b
       0.0041030385 0.010170764 0.008332412 0.00722735
000110 72 3b 59 bb 37 e2 ab 3b 51 d4 74 3b 5a 46 69 3a
       -0.0033147004 0.005245473 0.0037357996 0.0008898728
000120 88 96 83 3b 16 8f 07 3b b6 1c 01 3c d9 24 c2 3b
       0.0040157475 0.002068465 0.00788038 0.0059248027
000130 dd aa 1a 39 1e 5f 63 3b a1 cb 4e 39 90 c7 32 3a
       0.00014750236 0.0034694145 0.00019721549 0.0006819898
000140 b3 ed fc 3b 36 bd fe 3b 31 37 a1 3b b0 22 e0 3b
       0.0077187656 0.0077740205 0.0049199094 0.0068400726
000150 06 fc 11 bb 55 1e 72 3b fb 93 91 bb ac 8b 3a 3a
       -0.0022275462 0.0036944349 -0.0044426895 0.00071161496
000160 a5 af e8 3b 17 f3 0b 3c c6 39 7b 3b 02 81 07 bb
       0.0071010166 0.008541844 0.0038333996 -0.002067626
000170 8f ab 9d bb 75 e8 5b 3b 8a 2c 3e bb 9e a0 9c 3c
       -0.004811711 0.0033555303 -0.0029018247 0.019119557
000180 9d ac 04 bb 52 b8 b6 ba 4e 3f 07 3c 35 49 8e 3b
       -0.0020244487 -0.001394043 0.008254839 0.004342223
000190 d3 e3 30 3c df 74 1e 3b b0 9b 36 3b 4e df f5 3b
       0.010796505 0.0024178547 0.0027863793 0.0075034266
0001a0 ae e3 00 3b f7 61 06 bb 2e 4a ef 3b 35 c9 0a bb
       0.0019666958 -0.002050517 0.007302544 -0.0021177058
0001b0 57 cb 49 3c 91 c2 a5 3b b6 66 25 ba 3b 37 b4 3b
       0.012316546 0.0050585945 -0.00063095556 0.005499748
0001c0 d2 d4 43 3b 79 3a 68 3b 5d 3b e8 ba 83 09 64 3c
       0.002988149 0.0035435243 -0.0017717887 0.013918283
0001d0 aa 79 86 3b 5a 04 3b 3b 74 11 9e 3a dc 71 8e 38
       0.004103859 0.002853653 0.0012059645 6.7922956e-05
0001e0 85 4a 30 3a 6a fd 1d 3c 9f 53 a8 3b 0f db 63 3c
       0.00067249715 0.009642938 0.0051369215 0.013907208
0001f0 c2 6e 67 3b 8e cc f5 3b 96 63 e1 ba 7d 60 7a bb
       0.003531382 0.0075011915 -0.0017195817 -0.0038204484
000200 10 fa 7c 3b ce bf 38 3b 24 2c 06 3c b4 4f d3 3a
       0.0038601197 0.0028190496 0.008189235 0.0016121776
000210 c8 57 eb 3b c8 77 ee 3b 83 c7 f6 bb 30 c7 35 b9
       0.007182095 0.0072774626 -0.007531108 -0.00017335708
000220 66 25 5c bb 51 39 b9 3b 1e c3 09 bb b3 b4 b5 b9
       -0.0033591627 0.0056525846 -0.002102084 -0.00034657642
000230 bc 08 c5 3b 34 8a 99 b7 32 3d d9 3a 8e 36 89 39
       0.006013004 -1.8303377e-05 0.0016574024 0.00026171323
000240 87 78 ef 3b 9b 53 95 3b 1d dc aa bb fb 6f 25 ba
       0.007308069 0.0045570857 -0.005214228 -0.0006310937
000250 4f f5 33 3b 75 5f 29 3c 9f 95 0d 3c 72 56 6e 3b
       0.0027459448 0.0103377 0.0086416295 0.0036367443
000260 18 89 ee ba 33 f5 b9 bb f8 3b dd bb 6e ff 8a ba
       -0.0018198816 -0.005674982 -0.0067515336 -0.0010604688
000270 b7 51 fa 3a cd 16 c4 3b ce e2 0a 3b 4f 1f 4c 3b
       0.0019097839 0.0059841634 0.0021192315 0.003114659
000280 94 4a e6 39 21 b4 ad b9 8b 53 85 3b b2 6c d8 3b
       0.00043924584 -0.00033131338 0.004068797 0.0066047544
000290 fe e7 45 3b 25 e5 61 3c ab 90 92 3b 1b ac cf 3b
       0.0030198093 0.0137875425 0.004472812 0.0063376552
0002a0 ca 7e e6 bb 0f 97 7d 3b 8d 1c 11 3b ed 1a 9a 3b
       -0.0070341574 0.0038694774 0.0022142262 0.004702917
0002b0 6b 4d 42 3b 1e 51 28 bb 8e 90 5c 3b e1 fc 08 3b
       0.0029648195 -0.0025683115 0.0033655497 0.002090268
0002c0 d2 a6 23 3b 1f 98 2b 3c 6b d0 31 3b 00 ca 80 3b
       0.0024971259 0.01047328 0.0027132283 0.0039303303
0002d0 93 1d 53 b9 f1 32 61 3b 3c fd c1 3b fd 34 fb 39
       -0.00020133545 0.0034362639 0.0059200805 0.0004791393
0002e0 f3 79 04 3c 63 e3 05 3b 3a 36 cf 3b 58 13 30 3a
       0.008085716 0.0020429722 0.006323603 0.00067167496
0002f0 2f f0 dd bb fa cf 8b 3b 11 43 0d 3c 6c 39 28 3b
       -0.006773017 0.004266736 0.008621947 0.0025668992
000300 12 93 9f 3b 47 22 f4 3b ea 46 3a 3a ac d1 03 3c
       0.004869827 0.0074503752 0.0007105904 0.008045595
000310 8e c7 7b 3a cf 3e 96 ba 69 73 99 3b a3 30 94 3b
       0.0009604626 -0.001146281 0.0046829474 0.0045223995
000320 c3 56 59 3a 8b 3d c7 3b 71 9b 5d 3b 35 09 45 bb
       0.00082908216 0.0060803345 0.0033814574 -0.0030065302
000330 bf 58 20 3c e9 ad 39 3a 3b 91 27 3b b5 77 f2 bb
       0.009786784 0.00070831046 0.0025568742 -0.007399524
000340 81 e2 19 ba c4 ee 93 3b 5d 4f a2 3b a6 e2 52 3c
       -0.00058702385 0.004514547 0.0049533085 0.01287142
000350 97 25 05 3c 99 c8 9e 3b 21 2d af 3b ef b5 b8 3b
       0.008126638 0.0048456904 0.005345956 0.0056369225
000360 00 7c 46 3c 4e 1f 83 3c 2b 54 fa 3b 2b 94 e5 bb
       0.012114525 0.016006138 0.007639428 -0.0070061884
000370 13 75 d3 3b bb 3f 98 bb 15 66 84 3b 90 61 7a 3b
       0.0064531653 -0.004646269 0.0040404894 0.0038205124
000380 f5 38 62 3a 37 19 f4 ba 44 3a e4 3b 89 07 f5 bb
       0.0008629703 -0.0018623237 0.0069649536 -0.007477705
000390 3a 0b 98 3b a8 7e 36 3c 8c bf f8 3b f5 44 3f 3b
       0.00464001 0.011138596 0.0075911935 0.0029185389
0003a0 86 ca f8 ba 74 3d 8a 3b a7 31 de bb c3 c6 30 bb
       -0.0018981255 0.0042187516 -0.0067808214 -0.002697394
0003b0 c7 00 c2 39 c5 f7 72 ba b1 ce 0a 3c f5 ab 8e 3b
       0.00037003143 -0.0009268488 0.008472131 0.004353995
0003c0 9e e8 29 3b c7 34 08 bb a3 75 0e 3a b2 4b 71 bb
       0.0025926004 -0.002078341 0.00054343994 -0.00368188
0003d0 58 82 65 bb 97 20 ff 3b 08 d9 03 bb 31 ce a5 3a
       -0.0035020318 0.0077858674 -0.0020118374 0.0012649951
0003e0 70 16 72 3c 5d cb c2 3b ee c4 fe 3a 15 a5 a6 3b
       0.014775857 0.005944653 0.0019437352 0.0050855973
0003f0 66 62 43 3a 10 4f e2 3b 9b e0 a7 3b 75 c1 6d 3b
       0.0007453322 0.0069063976 0.0051232106 0.003627864

ablang_branch.1.weight f4 [256]
000000 70 1e 7d 3f c6 b6 7c 3f a1 c6 7e 3f 51 28 82 3f
       0.9887457 0.9871639 0.99521834 1.0168554
000010 25 1e 7d 3f 54 9c 82 3f aa 2c 81 3f d0 2c 81 3f
       0.9887412 1.0203958 1.0091755 1.0091801
000020 af f2 7c 3f 2d ab 7c 3f fb 3c 81 3f fb 6a 80 3f
       0.98807806 0.98698694 1.0096735 1.0032648
000030 6f a8 80 3f 04 1f 7e 3f 6d ad 7e 3f 30 8a 85 3f
       1.0051402 0.99266076 0.99483377 1.0432796
000040 4b 96 81 3f a4 72 7e 3f 02 2b 87 3f db 5b 7d 3f
       1.0123991 0.9939368 1.056 0.98968285
000050 b2 92 80 3f a3 48 7d 3f 2d 76 7f 3f 7c c9 80 3f
       1.0044768 0.9893896 0.99789697 1.0061488
000060 b6 ff 7f 3f ea c8 7d 3f 07 82 80 3f 6e c3 7e 3f
       0.9999956 0.99134696 1.0039681 0.9951695
000070 f8 3c 81 3f 06 b2 82 3f a0 72 7e 3f e8 1d 80 3f
       1.0096731 1.0210578 0.99393654 1.0009127
000080 26 52 7e 3f 2a d1 81 3f 76 6d 81 3f b0 fe 81 3f
       0.993441 1.0141957 1.011153 1.015585
000090 14 3f 80 3f bb 93 81 3f 26 0f 7e 3f bd a1 82 3f
       1.001925 1.0123209 0.99241865 1.0205609
0000a0 4c 36 81 3f 43 42 7d 3f a9 58 7f 3f 0a ae 7f 3f
       1.0094695 0.9892923 0.9974466 0.9987494
0000b0 2d 81 81 3f ad d8 84 3f 53 ad 7f 3f b0 3c 7e 3f
       1.0117546 1.0378624 0.99873847 0.9931135
0000c0 56 23 7e 3f 3d b2 81 3f 85 b7 7e 3f af bc 7e 3f
       0.9927267 1.0132519 0.9949878 0.9950666
0000d0 9c 79 7e 3f 5a 21 82 3f cb 4c 82 3f cd 92 7b 3f
       0.9940431 1.0166428 1.0179685 0.98270875
0000e0 ff 95 81 3f 30 ab 7f 3f 47 e5 7e 3f d0 5a 7f 3f
       1.01239 0.99870586 0.995686 0.99747944
0000f0 9e 00 80 3f 4d a4 7c 3f 13 36 80 3f c3 10 7f 3f
       1.0000188 0.98688203 1.0016502 0.9963495
000100 06 35 7e 3f 9c 65 82 3f b1 1f 82 3f 78 c3 7f 3f
       0.9929966 1.0187259 1.0165921 0.99907637
000110 ec 24 80 3f 02 00 80 3f 55 d4 7f 3f 6e a7 80 3f
       1.0011268 1.0000002 0.9993337 1.0051095
000120 0d 3a 7e 3f 30 df 7f 3f b8 f0 85 3f 7d 8c 80 3f
       0.9930733 0.9994993 1.0464087 1.0042874
000130 4d 75 7a 3f 2a a4 83 3f b3 14 83 3f a1 6f 81 3f
       0.97835237 1.0284474 1.0240692 1.0112191
000140 c1 15 84 3f 8b 04 7f 3f 08 a2 82 3f 5f ac 7e 3f
       1.0319139 0.9961631 1.0205698 0.9948177
000150 78 ef 7d 3f 3f dd 80 3f 8a 4d 81 3f 0a 01 84 3f
       0.99193525 1.0067519 1.0101788 1.0312817
000160 07 2d 7e 3f 8e 86 83 3f fe e6 7c 3f 3f c2 7d 3f
       0.99287456 1.0275438 0.98789966 0.9912452
000170 b1 cf 80 3f b1 79 7e 3f 38 88 80 3f 11 be 82 3f
       1.0063382 0.99404436 1.0041571 1.0214254
000180 38 b4 78 3f f5 27 7d 3f d2 7f 7d 3f 8e c8 7c 3f
       0.9714999 0.98889095 0.99023163 0.9874352
000190 e0 bd 84 3f e9 8a 7e 3f 29 c6 81 3f a1 54 80 3f
       1.0370445 0.9943071 1.0138599 1.0025827
0001a0 23 8f 80 3f 47 29 7e 3f e2 46 81 3f ce 79 83 3f
       1.0043682 0.99281734 1.0099757 1.0271547
0001b0 eb 9e 83 3f f4 59 7e 3f d7 34 82 3f e2 88 81 3f
       1.0282873 0.9935601 1.0172375 1.0119898
0001c0 a7 96 82 3f 26 31 7c 3f 0b 19 7d 3f bb 6a 80 3f
       1.0202225 0.98512495 0.9886634 1.0032572
0001d0 90 6a 7f 3f a7 bd 80 3f 5e 50 80 3f 8d 8d 7d 3f
       0.99771976 1.0057877 1.0024526 0.99044114
0001e0 ad 3a 7d 3f a7 fa 80 3f 7d 34 82 3f e4 df 80 3f
       0.9891766 1.0076493 1.0172268 1.0068326
0001f0 c5 48 7e 3f c9 24 83 3f 6d 4c 7c 3f 0d a2 7a 3f
       0.9932979 1.0245601 0.98554116 0.9790352
000200 16 2c 81 3f d1 c6 82 3f c2 44 81 3f 9e 66 7f 3f
       1.0091579 1.0216924 1.0099108 0.99765956
000210 37 92 80 3f 88 3e 81 3f 1c dd 7c 3f e5 52 7e 3f
       1.0044621 1.0097208 0.98774886 0.99345237
000220 24 16 7e 3f 5d 01 81 3f 7f 7b 7f 3f 8f 04 7c 3f
       0.99252534 1.0078541 0.99797815 0.98444456
000230 31 86 81 3f 5c d0 81 3f c2 01 7f 3f 46 3c 7f 3f
       1.0119077 1.0141711 0.9961206 0.99701345
000240 45 9a 7c 3f a4 b3 7f 3f 89 85 7d 3f 6c fc 80 3f
       0.98672897 0.99883485 0.99031883 1.0077033
000250 a1 6c 82 3f 59 c8 82 3f 66 24 80 3f 0f 4b 81 3f
       1.0189401 1.0217391 1.0011108 1.0101031
000260 cc 9c 7d 3f d9 a0 7d 3f e3 c8 80 3f 5d 6c 83 3f
       0.9906738 0.9907356 1.0061306 1.0267445
000270 34 ec 80 3f 50 f8 81 3f 05 a4 7d 3f b2 0a 7d 3f
       1.0072083 1.0153904 0.990784 0.98844445
000280 ea 31 80 3f 07 ed 7f 3f 17 24 7b 3f 97 e5 81 3f
       1.0015233 0.9997105 0.98101944 1.014819
000290 61 af 7f 3f b5 15 7b 3f 83 d0 80 3f 2a c4 80 3f
       0.9987698 0.9808 1.0063633 1.0059865
0002a0 be 6d 80 3f ad 80 7e 3f 22 3a 80 3f de c4 7f 3f
       1.0033491 0.99415094 1.0017741 0.9990977
0002b0 3c a5 7d 3f 4c b8 7d 3f 16 6c 81 3f 44 3e 7c 3f
       0.9908025 0.9910934 1.011111 0.9853251
0002c0 84 10 80 3f 69 5d 80 3f 26 a3 82 3f 4f d9 80 3f
       1.000504 1.0028507 1.0206039 1.0066317
0002d0 ea cb 7c 3f a9 de 7e 3f 9f c6 7d 3f 08 9d 7d 3f
       0.9874865 0.995585 0.99131197 0.99067736
0002e0 5c ad 80 3f 40 48 7f 3f 83 0e 81 3f 7f cd 7e 3f
       1.0052905 0.9971962 1.0082554 0.9953231
0002f0 02 70 7e 3f a3 50 80 3f 36 b5 82 3f 3f c3 80 3f
       0.9938966 1.0024608 1.0211551 1.0059584
000300 98 13 7c 3f 82 6e 81 3f 7c 9e 7e 3f 47 aa 81 3f
       0.984674 1.0111849 0.9946058 1.013009
000310 d7 87 7d 3f e6 86 7f 3f 39 d9 80 3f 69 7f 7b 3f
       0.990354 0.99815214 1.0066291 0.9824129
000320 bb f6 81 3f 1c 46 83 3f 2e cd 7e 3f 8b d3 7c 3f
       1.0153421 1.0255771 0.9953183 0.9876029
000330 bb 23 80 3f 4e a2 7c 3f 3e 2c 7e 3f 73 dc 7d 3f
       1.0010904 0.9868516 0.9928626 0.99164504
000340 da 67 7e 3f 11 76 80 3f 8a 2b 80 3f 4a 8a 7f 3f
       0.99377215 1.0036031 1.0013287 0.9982039
000350 63 6e 83 3f 92 9c 84 3f 60 09 80 3f 6d cc 81 3f
       1.0268062 1.0360281 1.0002861 1.0140511
000360 6e d9 82 3f 78 92 81 3f c2 f5 7e 3f 91 51 7e 3f
       1.0222604 1.0122824 0.99593747 0.9934321
000370 f9 c4 7e 3f 85 27 80 3f 78 da 81 3f b0 bb 81 3f
       0.99519306 1.001206 1.0144796 1.0135403
000380 12 3f 7f 3f 61 30 7f 3f 8f 1b 80 3f c6 60 7d 3f
       0.9970561 0.99683195 1.000841 0.9897579
000390 31 05 81 3f 3b 83 7e 3f c6 e8 81 3f 8d 47 81 3f
       1.0079709 0.9941899 1.0149162 1.009996
0003a0 25 51 7c 3f 90 19 7c 3f 65 b8 7d 3f 76 f3 7f 3f
       0.98561317 0.98476505 0.9910949 0.99980867
0003b0 5e 2a 7e 3f d6 ce 7e 3f 90 93 7e 3f 7e 1a 7d 3f
       0.992834 0.99534357 0.9944391 0.9886855
0003c0 f4 bf 82 3f d5 30 7f 3f 76 9a 7d 3f ec 1b 7c 3f
       1.021483 0.99683887 0.99063814 0.98480105
0003d0 0f c3 7d 3f 24 a3 7d 3f 05 67 7f 3f 52 a5 7d 3f
       0.9912576 0.9907706 0.9976657 0.99080384
0003e0 5a c4 7f 3f f2 fe 7c 3f 7a df 80 3f 22 ae 7d 3f
       0.99908984 0.98826516 1.00682 0.9909383
0003f0 a7 36 7e 3f 63 01 7f 3f cd bd 7f 3f b6 64 82 3f
       0.9930214 0.9961149 0.9989899 1.0186985

ablang_branch.1.bias f4 [256]
000000 06 5a b1 bb 5f c3 b6 bb 37 5b ad bc 44 d7 87 bb
       -0.005412343 -0.0055774893 -0.021161659 -0.0041455347
000010 f5 54 2e bc 70 4f 0f 3b 0f a0 2d ba 2d cb 87 ba
       -0.0106403725 0.0021867417 -0.0006623277 -0.0010360234
000020 4d 57 e8 bb 38 df 3e bb 67 7c 62 bb 56 33 4a b9
       -0.007090485 -0.0029124748 -0.0034559013 -0.00019283345
000030 6b 18 4e bc e9 23 6e bc 90 b0 4a 3b 1e 8b 3d 3a
       -0.012579064 -0.014534929 0.0030927993 0.0007230508
000040 76 a7 8a bb 10 23 94 bb df 0a 0e 3c a4 fd 4d bb
       -0.0042313887 -0.0045207813 0.008669584 -0.00314317
000050 fa 87 8c 3a c7 b5 55 bb 98 01 c0 bb 27 33 4d bc
       0.0010721677 -0.0032609568 -0.005859565 -0.012524403
000060 84 57 ff bb c2 e8 a0 bc 0c b8 1f bc db 80 54 3b
       -0.007792415 -0.019642238 -0.00974847 0.0032425437
000070 5a 0d bb bb 6f 72 be bb d6 20 47 ba c8 a4 aa bb
       -0.0057083787 -0.0058119814 -0.00075961405 -0.0052076317
000080 0c c3 94 bb 60 db 33 ba 7a 6d 91 ba b2 2a 1d b9
       -0.004539853 -0.00068609975 -0.0011095249 -0.00014988592
000090 1a cd 7c ba 6e 83 58 bb 97 d0 b8 bb 16 00 51 bc
       -0.00096435996 -0.0033037323 -0.0056401 -0.012756368
0000a0 a2 05 ab bb 86 9d 68 bc 4c 90 79 3b 87 7c 80 bb
       -0.0052191773 -0.014197713 0.0038080392 -0.003921095
0000b0 ff d0 46 bc 76 00 db 3b e3 33 04 bc 70 63 71 ba
       -0.0121347895 0.0066834046 -0.008069011 -0.0009208238
0000c0 69 2f 2d bb 11 52 39 bc f8 d0 b2 3b f5 00 20 bb
       -0.0026425964 -0.01131107 0.00545704 -0.0024414633
0000d0 a5 34 88 bc e3 f2 ad 38 3e 0d 88 ba dd ab 19 bc
       -0.016626665 8.294524e-05 -0.0010379923 -0.009379354
0000e0 35 6d 8d bc 0f 31 75 bc 52 6d 0a bb dd ac 53 bc
       -0.017263988 -0.01496531 -0.002112229 -0.012919632
0000f0 df 78 60 bc 9a 2b 01 bc 81 71 ea 3a 1f 9f 3b bc
       -0.013700693 -0.007883931 0.001788661 -0.011451512
000100 19 8b c6 bb d7 41 dd 3b f5 29 46 3b c6 35 21 3b
       -0.006059062 0.0067522335 0.003023741 0.0024598702
000110 92 26 fd bb ab 43 a6 3b 81 6e 60 bb 1b cc 36 bb
       -0.007725545 0.0050739846 -0.0034245553 -0.0027892652
000120 fb 34 56 bb 8d ae eb bb 3f ab cc 3b 4f 02 19 bb
       -0.0032685387 -0.007192439 0.006246 -0.0023347323
000130 98 c5 b7 bb d8 80 61 3b 13 d1 43 bc 80 38 e2 ba
       -0.005608272 0.0034409072 -0.011951703 -0.001725927
000140 a4 87 a6 ba cd 8b 0c bb 17 38 39 3a ec fc d5 3b
       -0.0012705219 -0.0021445632 0.0007065548 0.006530395
000150 20 2d 09 bc ef 9a e8 38 7b bf 2e bc 16 57 16 bc
       -0.008372575 0.00011091481 -0.01066577 -0.009176036
000160 2c f0 29 3b 2f 8a 3d bb 1c eb 86 bb 51 51 15 bc
       0.0025930507 -0.0028921475 -0.0041173827 -0.009113626
000170 57 b6 cf bb 60 aa 77 bb 9b 05 cf bb d2 79 4b 3a
       -0.0063388753 -0.003779076 -0.006317807 0.0007761988
000180 e8 66 58 bc d2 ed 3c bc 8f 1f e6 bb 53 63 01 bc
       -0.0132081285 -0.01153131 -0.007022805 -0.007897216
000190 5b 9c 36 3c c8 cf c8 bb 4c 54 bf b9 87 79 b4 3a
       0.0111456765 -0.006128285 -0.00036493165 0.0013769128
0001a0 d0 c3 17 bb 06 d8 c6 bb a1 e1 59 3b 50 c9 fc ba
       -0.0023157485 -0.0060682325 0.0033246058 -0.001928607
0001b0 42 e4 b7 3b 49 97 f6 bb b4 c3 26 39 5b 32 bf 3b
       0.0056119272 -0.007525359 0.00015903899 0.0058348603
0001c0 d9 8c 85 bc 7a 9b 8c bb 66 09 03 bc ff cf 8d 3a
       -0.016302513 -0.004290995 -0.007997846 0.0010819434
0001d0 79 3c 1b bc cc 8a 9b 39 5c 25 4a bc bc 0b f7 bb
       -0.009474867 0.00029667316 -0.012338009 -0.0075392406
0001e0 21 4b 21 bc dc cf 65 bc 8c 34 ae 3b b8 18 4d ba
       -0.009844572 -0.014026608 0.0053163227 -0.0007823813
0001f0 87 e6 1a bb 47 55 44 3a 58 0c 05 bc 36 30 8e bb
       -0.002363594 0.0007489514 -0.008120619 -0.0043392433
000200 cc 38 11 ba e8 7f e5 bb 86 44 0c bc f8 35 1f bb
       -0.00055397744 -0.007003773 -0.008561259 -0.0024293642
000210 d3 c5 88 3b e5 f9 a0 3b 3c b3 7e bc c4 87 06 bc
       0.004173973 0.0049126022 -0.0155456625 -0.00821108
000220 88 47 da bb cd a5 3d bc 72 35 06 bb a4 75 e4 bb
       -0.006661359 -0.0115751745 -0.0020478633 -0.0069720317
000230 3b d6 49 3b b8 bd a1 ba 4b a1 ce b9 67 2e 0e bc
       0.0030797857 -0.0012339866 -0.00039411554 -0.008678055
000240 b3 0a 07 3a 97 55 fa 3a 42 24 69 bc eb 5d c0 bb
       0.00051514356 0.0019098994 -0.014229836 -0.005870571
000250 3b ec 05 3b 36 81 b6 3b f6 da b0 3b 47 70 29 3b
       0.0020434994 0.0055696024 0.005397196 0.0025854276
000260 16 a8 73 bc 98 43 29 bc 0f 48 6d bc d0 c4 bb bc
       -0.014871618 -0.010331057 -0.014482512 -0.022920996
000270 76 13 bc bb e6 0e 0c bc 4e 18 96 bb fe 8c 79 bb
       -0.0057396246 -0.008548474 -0.004580534 -0.0038078423
000280 b0 70 ea bb a5 4d 2b bb 00 8a 2a bc bd 96 bf ba
       -0.0071545467 -0.002613881 -0.010408878 -0.0014617067
000290 1e 03 32 bc 67 47 a6 ba e9 c8 21 3a 67 72 56 bb
       -0.010865001 -0.0012686074 0.00061716005 -0.0032721998
0002a0 68 a1 53 bc 1b 3f 13 bc b6 59 a3 39 84 b4 f5 bb
       -0.0129169 -0.0089872135 0.00031156623 -0.007498326
0002b0 ec c8 4c ba ec 4c d8 bb f7 71 00 3b e0 6f 8c bb
       -0.0007811922 -0.0066009667 0.0019599178 -0.0042857975
0002c0 e2 06 88 bc aa b2 af 38 07 fa 84 bb 81 63 03 bc
       -0.016604844 8.377929e-05 -0.004058126 -0.008019329
0002d0 7b fb 00 bc 84 5a 1b bc 45 db bd ba f7 96 3e bc
       -0.007872458 -0.00948203 -0.0014484903 -0.0116326725
0002e0 99 22 77 bc 81 c6 ba bb 0f 8c 2a bc fd 4c 3f bb
       -0.015083932 -0.005699933 -0.010409369 -0.0029190176
0002f0 cd 7c 37 bc c6 8e c7 39 32 0c d7 3a 3e c0 66 b9
       -0.011199188 0.00038062612 0.0016406833 -0.00022006125
000300 d9 5d dc bb 56 bf c5 bb 22 1e 12 bb 47 b0 67 bb
       -0.0067250547 -0.006034772 -0.0022295793 -0.0035352872
000310 2a 6a 99 bb 00 46 5c bb 0e 7f 38 bc ec 89 22 bc
       -0.004681845 -0.003361106 -0.011260761 -0.009920578
000320 0c f8 39 bc d2 39 b0 3b 99 be 6f 39 da 43 1a bc
       -0.011350643 0.0053779865 0.0002286382 -0.009415591
000330 ad e9 d0 bb 05 2f b5 ba 5e 1e cc bb 42 8e 53 bc
       -0.0063755126 -0.0013823217 -0.006229206 -0.012912335
000340 aa 74 2d bb 9c 50 b6 38 b8 e3 87 bb bf 4f 18 3a
       -0.0026467242 8.693451e-05 -0.0041470192 0.0005810223
000350 46 93 08 3c 23 29 25 bb 3c 8a b6 bb 66 04 22 bc
       0.008335894 -0.0025201521 -0.005570678 -0.009888744
000360 32 b9 55 39 dd db 02 3a dc a5 37 3b f0 bf 28 bc
       0.00020382254 0.00049918686 0.0028022444 -0.010299668
000370 26 4e 33 bb d2 07 a3 bc 60 0b 8e b9 77 56 8e bc
       -0.0027359813 -0.01990119 -0.00027092826 -0.017375214
000380 f2 4a 61 b9 d1 bc 93 bb 74 bf f6 bb 84 5f 2f bc
       -0.00021485591 -0.0045085927 -0.007530147 -0.010703925
000390 ae f0 63 bc c4 75 b6 ba 54 e1 5e 3b b9 3e 1f bb
       -0.013912363 -0.0013920595 0.0034008818 -0.002429886
0003a0 0f 6d 03 bc 5a 07 e7 39 83 5c 30 bc ec 18 04 bc
       -0.008021607 0.0004406523 -0.010764244 -0.008062582
0003b0 7e d5 83 bb a4 85 90 bb 85 42 82 3b 5a 24 34 b9
       -0.004023253 -0.0044104625 0.003975215 -0.0001717968
0003c0 b0 8f a5 ba c9 d9 be bc fb d7 30 bc 5f d8 65 bc
       -0.0012631323 -0.023297207 -0.010793681 -0.014028638
0003d0 19 b2 5b bc 53 ad 4a 3a be 33 2b bc a4 2a ad bb
       -0.013409161 0.0007731516 -0.010449348 -0.005284624
0003e0 49 68 03 bb 4a 67 4f 39 f5 e7 79 3a 9a 72 22 bc
       -0.0020051172 0.00019779537 0.00095331605 -0.009915018
0003f0 bc ac 2b bb 24 ab 24 bb 68 2e 26 bb eb 5a 9d 3a
       -0.0026195487 -0.0025126422 -0.002535725 0.0012005245

ablang_branch.4.weight f4 [128, 256]
000000 b5 30 48 3d d9 0e e0 bc d1 40 38 bd 37 e1 58 be
       0.048874576 -0.02735083 -0.04498369 -0.21179663
000010 09 21 da bd c1 e3 e3 bd 11 77 99 bd 44 27 62 bc
       -0.10650832 -0.11127425 -0.07493413 -0.013803307
000020 7d 6d ab bd 99 59 5c be 8a fc e2 3d 77 6b 75 bc
       -0.083704926 -0.21518554 0.11083324 -0.014979235
000030 c6 b4 38 3c b3 d7 88 3d c5 f3 aa 3d 3e db 32 3d
       0.0112735685 0.06681766 0.083472766 0.043666117
000040 84 b3 b8 3c 75 37 de bd 6d 9a b6 bd 2f 7c 85 bd
       0.022546537 -0.10850421 -0.08916173 -0.06517827
000050 75 9d 6a bd f2 57 fd bd d9 85 80 3d 35 d1 27 3d
       -0.05727907 -0.1237029 0.062755294 0.040971
000060 5b fa e7 bd 89 58 a5 3d 60 dc ab bd e2 c1 b9 bd
       -0.113270484 0.08073527 -0.083916426 -0.09070183
000070 ff 1e 88 3c d1 91 c0 3c 93 42 65 3d 2f 2b 09 3d
       0.016616343 0.02350703 0.055971693 0.03348845
000080 b9 4c 08 3e 8c c3 33 be 15 13 11 bd f4 62 08 3d
       0.13310517 -0.17555064 -0.03541859 0.033297494
000090 2e fc 34 bd ab 03 d5 3c 1b b6 8c bb b9 ab b0 bc
       -0.04418581 0.026002726 -0.0042941696 -0.021566259
0000a0 fe a0 9b bd 6b 6f a1 3d fd 40 b2 3c 64 c2 97 bd
       -0.07599066 0.078825794 0.021759504 -0.07410124
0000b0 a0 e3 0f 3e 22 b1 3c 3d 1d 1e e7 bb 68 57 5a 3e
       0.14051676 0.046067365 -0.0070531503 0.21322405
0000c0 5e 55 0f 3b 27 0b 7f 3c 5d 21 25 3d 66 bb 37 be
       0.0021870951 0.015566624 0.04031502 -0.1794258
0000d0 54 0e 85 3b 1d 94 07 3d 5c e4 c7 bd 66 ee 11 3e
       0.004060546 0.033100236 -0.09760353 0.14251098
0000e0 a4 d7 a0 3d fc 6b f6 3d df 7f 34 3d 3b 2e 24 be
       0.0785363 0.12032315 0.04406726 -0.1603326
0000f0 44 83 de bb 99 cd d9 bd 8f fc 72 3d a1 77 6c 3d
       -0.0067905504 -0.10634918 0.05932289 0.057731275
000100 d1 f3 d8 bd 5e e2 21 be 54 68 98 3d 44 8c 1a 3e
       -0.10593379 -0.15809008 0.07441774 0.1509257
000110 d5 dc 14 3d 23 9c f7 3c e3 93 ed bc e4 6c 55 bd
       0.036343414 0.030225819 -0.029001182 -0.0521058
000120 01 33 b1 bd 03 95 f7 3c 3e fe b6 3d d5 92 7f bd
       -0.08652306 0.030222422 0.089352116 -0.06239589
000130 13 fb 94 bd 02 63 d2 bd ad 66 29 be 9c 26 88 bc
       -0.07274451 -0.102727905 -0.16543074 -0.016619973
000140 53 88 22 be a5 38 79 3d 54 0e 40 be 56 b2 9c bd
       -0.15872316 0.060845036 -0.18755466 -0.076512024
000150 4b 2e f1 bd 0f 45 2e 3d cf f8 15 be 5e 1d c3 3d
       -0.11776408 0.04254633 -0.14645694 0.09527086
000160 46 fd 0a bd 3f 19 9e 3d fb a2 7f bd 6a 19 49 3d
       -0.033932947 0.07719659 -0.06241129 0.049096502
000170 f0 81 84 bd 3a a0 7f bb f0 9a 0b 3d de 74 4e 3b
       -0.06470096 -0.0039005415 0.034083307 0.0031502764
000180 f7 e8 b3 bd e1 a4 85 bd 8c c1 2b bd 75 1d 5d 3d
       -0.08784669 -0.06525589 -0.041932628 0.05398317
000190 2d 86 4a be ab 07 ce bd c7 2c a8 3d 53 a7 7a 3c
       -0.19777746 -0.10060056 0.082116656 0.015298682
0001a0 12 1b a3 bd 8e ba 80 bd 3c e8 e5 bc 89 49 5b 3e
       -0.079641476 -0.062855825 -0.02806484 0.2141477
0001b0 d7 6c 89 3d 4c 87 81 3a 3c 74 26 be 54 a6 0a 3d
       0.06710213 0.000988224 -0.16255277 0.03385003
0001c0 f8 70 12 3c 45 79 84 bd 80 6a 0c 3c 27 df 8c bc
       0.008938067 -0.06468443 0.008570313 -0.017196251
0001d0 85 06 58 bd 63 71 9d bc f0 3c 82 bc 31 dc 95 bc
       -0.052740593 -0.019219106 -0.015898198 -0.018293472
0001e0 27 66 bc 3d e0 21 d2 bd 99 e0 a4 3c d3 b1 31 3d
       0.091991715 -0.102603674 0.020126628 0.043382477
0001f0 a4 60 03 bd 61 11 ba 3c 8b 18 88 3d 12 c3 3e 3a
       -0.032074586 0.022713365 0.06645306 0.00072769925
000200 c4 07 00 bd ad 85 0f be bc 20 87 bb 0d 77 8f 3d
       -0.031257406 -0.14015837 -0.0041237753 0.07005129
000210 7a af ee bb 11 ed 46 3d a9 b4 23 be 31 2d 86 3c
       -0.007284102 0.048565928 -0.15986885 0.01637897
000220 52 e9 09 3d be 30 d3 3d bf 6d 97 39 cd 5b b6 3d
       0.033669777 0.10312031 0.00028882732 0.08904228
000230 a3 a7 05 be 57 22 81 3b 1d 0e cd 3c 25 32 8a 3d
       -0.1305223 0.003940861 0.025031144 0.067478456
000240 8a fa 01 3e 05 76 e1 3b db d0 71 3d 2c cf b8 3d
       0.1269323 0.006880524 0.05903707 0.0902389
000250 90 db 9c 3d 06 e6 27 bd c8 46 72 3e 81 76 33 bd
       0.07659066 -0.04099085 0.23659813 -0.043814186
000260 8f 3e 95 3d 04 f1 d1 3a 4a 38 bc 3d a3 32 1c bc
       0.07287323 0.0016017263 0.09190424 -0.009533557
000270 04 a0 84 bd 45 5a 7a 3e 8a 3d b2 3d e5 c9 83 bd
       -0.06475833 0.24448498 0.08703144 -0.06434993
000280 7b bd fe bc e2 3c 8c bc 21 fb 28 3c 3d fc 2a 3d
       -0.03109621 -0.017118875 0.01031378 0.04174446
000290 fa 58 fb bd 21 c4 a0 bd 42 5a ac bd 85 d4 dc 3b
       -0.1227283 -0.078499086 -0.08415653 0.0067392015
0002a0 72 b1 3a 3d 24 1d 87 bd d7 e6 ef bd 75 9f 6f 3d
       0.04557938 -0.06597355 -0.11713951 0.05850168
0002b0 73 83 93 bd e9 40 e4 bd a8 ab 06 3b 8d c9 8c 3c
       -0.07202806 -0.11145193 0.0020549092 0.01718595
0002c0 42 ac 22 be f4 1a bc 3d 95 1f ca bd 2f 69 bb 3d
       -0.15886024 0.091848284 -0.09869305 0.091509216
0002d0 3a 38 fd bc 7f 95 13 3d bc 61 67 3c 6e c0 09 3e
       -0.0309106 0.036031242 0.014122423 0.13452312
0002e0 1b 14 f4 3d 64 4e f6 3d 74 aa 78 3e 08 fb d0 bb
       0.11917897 0.120266706 0.24283773 -0.0063775815
0002f0 93 cf ba bd 4a b5 28 be 81 e1 85 3d cc 2a 3c 3b
       -0.09121623 -0.16475406 0.06537152 0.0028712032
000300 9b e6 cf bd 0b 79 98 3d 30 e5 a1 bc 87 01 34 be
       -0.101514064 0.07444962 -0.019762605 -0.17578708
000310 cc a0 ba bd 6d 60 46 3e 48 8c 49 bd df ba be bd
       -0.09112701 0.19372721 -0.04920605 -0.093129866
000320 bc e4 fa bd 91 42 96 bd 53 2f 5e 3d d1 01 30 3d
       -0.12250659 -0.07336915 0.05424435 0.042970482
000330 6b 45 24 bd c6 33 2a 3d f7 f5 a5 bd e2 f7 10 3e
       -0.040105265 0.04155328 -0.08103555 0.1415706
000340 8c 89 38 bd 47 7c 17 3c a7 38 ac 3b d2 11 69 bd
       -0.04505305 0.009245939 0.005255777 -0.05690176
000350 f6 9a ac 3d e0 79 37 3c 55 d2 42 3d 87 07 bc bd
       0.08427994 0.011198491 0.04756387 -0.09181123
000360 9e b5 c9 3d 7f 04 07 bd eb bc ab 3d 4b 3a 8a bc
       0.09849094 -0.032963272 0.083856426 -0.0168735
000370 0e ec 18 3d 81 1d 02 be c6 c5 36 bd a9 6d 46 3e
       0.037334494 -0.12706567 -0.044622205 0.1937777
000380 36 92 84 3d 14 58 10 be db 82 2f 3d 6f 20 8d bd
       0.064732 -0.14096099 0.042849403 -0.06890952
000390 8b 68 f6 bd 96 39 73 bd 33 a2 98 3d f3 20 9a bd
       -0.12031659 -0.05938109 0.07452812 -0.07525816
0003a0 79 cb 6f bd 86 af a2 3c ae 99 a3 3d d6 65 28 bc
       -0.058543656 0.019859087 0.079882964 -0.010278186
0003b0 2e b0 ba bd fc 83 31 3e 1c 35 27 be 6f ff d0 3d
       -0.09115635 0.17335504 -0.16328853 0.1020497
0003c0 2d a7 46 bc 50 b3 f5 bd 16 ac 37 be c8 cc 38 b9
       -0.012124819 -0.11997092 -0.1793674 -0.00017623894
0003d0 b7 54 4b bd da d1 71 bd a1 aa a4 3d 52 0d 78 3d
       -0.049641337 -0.05903802 0.080403574 0.06055958
0003e0 5c 71 77 be 56 ee ba 3d 23 c6 98 3c 9f 76 19 3e
       -0.24164337 0.0912749 0.018649166 0.14986657
0003f0 db de 09 3e fd cf b9 3d b5 ca 42 bd b1 9a 8e 3c
       0.13463919 0.09072874 -0.047556598 0.017407747

ablang_branch.4.bias f4 [128]
000000 5a b4 8e bb 8d b4 c3 3c f6 19 99 bc 9b bc 05 3c
       -0.0043549957 0.023889804 -0.018689137 0.008162643
000010 b7 c8 5a 3d 68 57 3e bc a9 b2 d2 3b 10 0f fd 3a
       0.053414073 -0.011617519 0.0064299894 0.0019306857
000020 ee 65 a8 3c 1b 21 48 3c 3c 4f 24 bc 12 33 c7 3b
       0.020556416 0.012214924 -0.010028657 0.006079086
000030 b9 80 3a bc b8 07 06 bc d5 74 90 bc 30 93 36 3c
       -0.011383229 -0.008180551 -0.017633835 0.011143491
000040 7f e7 82 bb 62 61 93 bc 2f 94 0f 3b 22 fd d3 bc
       -0.0039948816 -0.017990772 0.0021908393 -0.025877539
000050 7f ca 13 bc 5a 0b fc 3b 65 f4 8b bc 45 2f 94 bc
       -0.009020447 0.007691783 -0.01708431 -0.018088946
000060 83 1c 00 bc cc c0 35 3c 98 f9 ee 3b 78 53 3a bc
       -0.007819298 0.01109333 0.0072929375 -0.01137244
000070 7a a9 6d 3c 55 5f 18 bc 0f 3a 15 3c de d3 87 bc
       0.014505738 -0.009300073 0.0091080805 -0.016580518
000080 8f dc 5b 3b e1 e6 a2 ba 28 51 b5 bc d6 b2 5e bc
       0.0033548211 -0.0012428426 -0.022133425 -0.0135924425
000090 7c c2 03 3a e4 a1 13 bc 7c 74 39 bc 7f c7 e9 3b
       0.0005026234 -0.009010766 -0.011319276 0.0071343775
0000a0 26 dc 35 bc 22 c7 e7 3a 83 01 06 3c 9f 0c 16 bc
       -0.011099851 0.0017683248 0.008179071 -0.009158283
0000b0 50 cd 4d 3b 4d 29 9a bc 1c 86 63 3c b1 ed 58 3a
       0.0031402893 -0.018818522 0.013886955 0.0008275165
0000c0 41 99 a2 bc f8 1a 79 bb 10 e1 60 bc de ec 37 ba
       -0.019848468 -0.003801046 -0.013725534 -0.0007016192
0000d0 79 32 f4 3b 45 48 4f 3a 9b 0c d2 bb 03 d9 11 bc
       0.007452306 0.00079071923 -0.006410194 -0.008901837
0000e0 fa c3 8f bc 10 8f 83 bc 9b 18 b7 bc 36 ed 0b bc
       -0.017549504 -0.016059428 -0.0223506 -0.008540442
0000f0 96 de 6d 3b 30 90 62 3c 9f 73 00 bc 5d a9 e9 3b
       0.0036296002 0.013828322 -0.007840066 0.0071307854
000100 74 6d 19 3c 96 24 86 bb ed 7f 7e 3c d4 09 28 3a
       0.009364475 -0.004093717 0.01553343 0.0006410156
000110 70 c4 f2 bc dd 59 99 bb 97 3f ec bb 67 c5 38 bc
       -0.029634684 -0.004679902 -0.007209729 -0.011277533
000120 4d 4d 4e bc 5a 60 21 3d 7d 9e 89 3c 96 ce 60 bc
       -0.012591672 0.03939853 0.016799206 -0.013721129
000130 f7 27 f5 bc ce d6 48 bc 91 e0 1b ba 95 d2 c1 bb
       -0.029926283 -0.012258245 -0.0005946244 -0.005914996
000140 92 5d 2f 3c fb 9d 3f bc a3 71 88 3c d9 a7 e9 3b
       0.010703461 -0.01169538 0.016655749 0.0071306047
000150 1c 51 c1 3c 68 bc 3d bc df b9 36 3c ef cd b4 bc
       0.023598246 -0.011580564 0.011152714 -0.022070853
000160 ab 13 bc bb 73 44 c5 bc d6 8e ba bc 25 ab fc 3b
       -0.0057396493 -0.02408049 -0.022773188 0.0077108317
000170 1c af 4b 3b 08 29 c9 3c 19 40 44 3c 32 76 13 bc
       0.0031079715 0.024555698 0.011978173 -0.009000348
000180 7c 98 55 bb af e4 aa bc d7 b7 87 bc c7 41 c0 3b
       -0.0032592108 -0.020860998 -0.016567154 0.0058672163
000190 8d 59 d2 3c be 0e ec bc 9f cd ce 3b 19 08 96 bb
       0.025677467 -0.028815623 0.006311133 -0.004578602
0001a0 39 da 11 3b f3 24 f8 3b 78 a4 b5 bc 21 87 2d bc
       0.0022255315 0.007572764 -0.022173151 -0.010591299
0001b0 4f d2 a4 bb 1f 06 1c bc 15 3e 38 bc ec 8f a1 bb
       -0.0050299536 -0.009522944 -0.01124527 -0.004930487
0001c0 3d b7 93 bb b8 11 74 3a c2 8b 88 bc c2 db 6f ba
       -0.0045079277 0.00093105016 -0.016668204 -0.0009149873
0001d0 0c 91 87 3a de 11 7e bc f2 e7 f2 ba 41 c0 8b 3c
       0.001034291 -0.01550719 -0.001853226 0.017059447
0001e0 14 a6 96 bc 08 40 e9 bc c4 b8 ba bb 82 04 22 3b
       -0.01838974 -0.028472915 -0.0056982953 0.0024721925
0001f0 30 64 c8 3c 0f 98 4b 3c ae ed 0d bd 36 9a 08 bc
       0.024461836 0.01242639 -0.034650497 -0.008337548

ablang_branch.5.weight f4 [128]
000000 da fe 7a 3f 0d d2 80 3f ad 2f 7b 3f 23 e1 7f 3f
       0.9804512 1.0064102 0.9811962 0.99952906
000010 76 e9 86 3f 33 0a 7d 3f c0 8d 7d 3f bc 1f 80 3f
       1.0539997 0.9884369 0.9904442 1.0009685
000020 a9 58 81 3f 2b 60 7e 3f 5f af 79 3f 08 64 80 3f
       1.0105182 0.9936549 0.9753322 1.0030527
000030 c7 47 80 3f 73 00 7a 3f 05 7a 78 3f c9 a7 80 3f
       1.0021905 0.97656935 0.9706119 1.0051204
000040 52 6f 7b 3f d8 87 7b 3f 29 83 80 3f 33 78 7c 3f
       0.98216736 0.98254156 1.0040027 0.9862091
000050 2c 04 7d 3f 3c 07 80 3f 91 6b 7a 3f 22 1c 79 3f
       0.9883449 1.0002208 0.97820383 0.9730855
000060 1f 12 7a 3f 40 88 7d 3f 32 5a 7f 3f c2 7f 7c 3f
       0.976839 0.99036026 0.99747 0.9863244
000070 2e 41 81 3f 41 1b 81 3f 78 0e 80 3f 37 4f 7d 3f
       1.0098016 1.0086442 1.0004416 0.98949
000080 d9 23 7d 3f 22 49 7d 3f a6 99 7b 3f 26 95 7b 3f
       0.98882824 0.98939717 0.98281324 0.9827446
000090 a5 f3 7c 3f f4 c8 7c 3f a5 37 7a 3f 5f 4c 82 3f
       0.9880927 0.9874413 0.97741157 1.0179557
0000a0 a8 73 78 3f 49 97 7e 3f 40 70 80 3f 04 65 7d 3f
       0.9705148 0.9944959 1.0034256 0.9898226
0000b0 81 34 7d 3f ae 85 78 3f 8a 37 82 3f bf a4 7a 3f
       0.9890824 0.9707898 1.0173199 0.9790763
0000c0 24 ee 7c 3f 64 87 7d 3f f6 13 7d 3f f0 7b 7a 3f
       0.98800874 0.99034715 0.9885858 0.97845364
0000d0 06 32 81 3f a4 ba 7e 3f 12 59 7d 3f b9 f2 7f 3f
       1.0093391 0.9950354 0.98964036 0.9997974
0000e0 e0 ef 7e 3f eb 74 7c 3f 9b 4b 7a 3f 5d c0 7b 3f
       0.9958477 0.986159 0.97771615 0.983404
0000f0 de 32 7e 3f a3 29 80 3f 49 7f 7d 3f 2f c9 7c 3f
       0.9929637 1.0012707 0.99022347 0.9874448
000100 9e f8 7f 3f b0 66 7b 3f e4 4e 80 3f da f8 7d 3f
       0.99988735 0.98203564 1.0024076 0.9920784
000110 a0 98 76 3f 83 0d 7d 3f 8b d5 80 3f 0d 89 7b 3f
       0.9632664 0.9884874 1.0065168 0.98256
000120 ab 30 7c 3f 4e 14 83 3f a8 fe 7e 3f 75 49 7b 3f
       0.9851176 1.0240571 0.99607325 0.9815896
000130 cc 0f 82 3f e6 86 79 3f 73 da 7c 3f b4 79 79 3f
       1.0161071 0.97471464 0.9877083 0.9745133
000140 a9 47 7d 3f 9e 8b 7c 3f 94 f6 7f 3f e1 86 80 3f
       0.9893747 0.9865054 0.99985623 1.0041162
000150 cf ab 81 3f 87 a6 7e 3f 3f 7b 7f 3f 13 c1 7d 3f
       1.0130557 0.9947285 0.99797434 0.9912273
000160 88 cd 80 3f 30 24 7a 3f 70 b4 7a 3f 9d 0a 80 3f
       1.0062723 0.9771147 0.97931576 1.0003239
000170 5f 34 7f 3f f7 0e 80 3f 4b 1e 82 3f 29 d2 7a 3f
       0.99689287 1.0004567 1.0165495 0.9797693
000180 63 5c 80 3f 72 78 7d 3f 74 17 7f 3f a6 6f 80 3f
       1.0028194 0.9901191 0.9964516 1.0034072
000190 7e 96 82 3f cc 3f 7d 3f 7d 16 7e 3f cc a6 82 3f
       1.0202177 0.9892547 0.99253064 1.0207152
0001a0 ec db 7b 3f 4d 8f 7e 3f 70 cf 7c 3f bc 7f 7d 3f
       0.9838245 0.9943741 0.98754025 0.9902303
0001b0 1a a9 7c 3f c8 53 7c 3f 1f a4 7d 3f 31 65 7b 3f
       0.9869553 0.9856534 0.99078554 0.9820128
0001c0 c0 e5 7a 3f e7 3e 7c 3f 47 07 80 3f f7 a2 7f 3f
       0.9800682 0.9853348 1.0002221 0.9985804
0001d0 3e 0c 7b 3f 59 4a 7d 3f 8a d8 7a 3f 7a 0b 80 3f
       0.98065555 0.9894157 0.9798666 1.0003502
0001e0 3a 38 7b 3f 77 62 77 3f b0 4f 7c 3f cd 08 7e 3f
       0.9813267 0.9663462 0.98559093 0.9923218
0001f0 3a c4 81 3f ee 5d 80 3f c4 8e 83 3f 5b 6b 78 3f
       1.0138009 1.0028665 1.0277944 0.9703881

ablang_branch.5.bias f4 [128]
000000 1d 51 fe bb 5a 99 af 3c a8 3a 8c bc 2f 78 11 3c
       -0.0077611343 0.021435428 -0.017117813 0.008878752
000010 e2 75 43 3d 86 01 21 bc e8 62 4c 3b d8 e2 08 3b
       0.047719844 -0.009827023 0.0031186882 0.0020887163
000020 b4 fc 89 3c b5 ef 54 3c ae 10 3b bc 29 a4 7c 3b
       0.016844131 0.012996604 -0.011417551 0.0038549996
000030 62 b8 0f bc d5 54 23 bc 54 2d 8a bc 5e f8 fa 3b
       -0.008771988 -0.009968956 -0.016867317 0.007659002
000040 48 d4 c2 bb 86 d2 8c bc 73 31 f4 3a c2 83 da bc
       -0.005945716 -0.01719023 0.001863046 -0.026674155
000050 b6 95 eb bb 55 18 07 3c cf d4 80 bc 00 20 93 bc
       -0.007189478 0.008245547 -0.015726475 -0.017959595
000060 8a 54 0d bc ec 26 f3 3b 6f b9 a7 3b bd db 40 bc
       -0.008626113 0.0074204113 0.005118541 -0.01177114
000070 0c 98 1a 3c a9 be 28 bc 48 da 05 3c 2d 7d 87 bc
       0.009435665 -0.010299363 0.008169718 -0.01653918
000080 4b 6a ff ba 85 18 08 b9 e2 78 b5 bc 90 17 6e bc
       -0.0019486634 -0.00012979105 -0.022152368 -0.014531985
000090 8f 34 35 ba 59 25 cf bb 70 d8 4d bc 47 67 df 3b
       -0.0006912434 -0.006321591 -0.01256381 0.0068177315
0000a0 99 39 2a bc 0e d8 26 3b 0a c8 53 3b db 10 20 bc
       -0.010389709 0.0025458368 0.0032315277 -0.009769644
0000b0 93 12 75 3b ee 28 67 bc 89 5b 3a 3c 27 53 2f 3b
       0.0037395104 -0.0141088795 0.011374363 0.0026752444
0000c0 01 51 a7 bc fb c3 bd bb 78 de 85 bc 18 47 98 bb
       -0.020424368 -0.005791185 -0.016341433 -0.004647147
0000d0 9c 41 0f 3c 6f 11 45 ba 83 73 c5 bb 0f f8 11 bc
       0.00874367 -0.00075175514 -0.006025733 -0.008909239
0000e0 ec e8 51 bc 5f f6 7c bc cf 91 aa bc 41 9f 0d bc
       -0.012811881 -0.015439599 -0.02082148 -0.008643926
0000f0 59 5a 91 3b b8 dd 19 3c 2e c8 c6 bb e0 16 b9 3b
       0.004435819 0.009391241 -0.0060663437 0.005648479
000100 28 14 fa 3b 3b 8e a1 bb 6d 38 89 3c 25 15 bd ba
       0.0076317973 -0.0049302853 0.016750539 -0.0014425857
000110 f4 b3 d5 bc b9 56 8b bb 78 80 21 bc 1c 73 33 bc
       -0.026086785 -0.0042522815 -0.0098572895 -0.010952737
000120 1d f9 4a bc 22 7e 0c 3d 7d fa 51 3c 44 eb 62 bc
       -0.012388495 0.034299977 0.012816069 -0.013850037
000130 a8 86 f5 bc 62 8f 1f bc b0 aa 34 bb 39 73 dc bb
       -0.029971436 -0.009738775 -0.0027567558 -0.006727603
000140 60 6f 29 3c b5 e0 40 bc 03 bd 5a 3c a1 b1 8b 3b
       0.010341495 -0.011772324 0.013350728 0.0042631184
000150 2b 0d 9c 3c ee 51 42 bc 66 21 09 3c 46 f7 91 bc
       0.019049248 -0.011860354 0.008369779 -0.017818104
000160 e1 bc 17 bb a8 1a b6 bc 57 25 b8 bc 52 59 a9 3b
       -0.0023153352 -0.022229508 -0.022478743 0.0051681185
000170 43 57 d6 3b 97 04 a8 3c 6f 7c 0f 3c f0 e9 2f bc
       0.006541164 0.020510001 0.008757695 -0.010736927
000180 a9 35 43 bb 9a 1e ad bc 71 10 8d bc 8d 21 d0 3b
       -0.0029786623 -0.021132756 -0.017219754 0.006351656
000190 97 c0 ac 3c fa cd f6 bc 15 fa f6 3b 80 1f 95 bb
       0.021087928 -0.030127514 0.0075371363 -0.0045508742
0001a0 4a a2 7a 3b 8e 43 af 3b 35 b7 b7 bc b4 a8 42 bc
       0.0038243704 0.0053486293 -0.022426227 -0.011881042
0001b0 cf 96 8e bb b5 54 1a bc b3 08 47 bc fc 73 06 bb
       -0.004351474 -0.00941961 -0.01214807 -0.002051591
0001c0 72 c8 be bb c0 98 b2 39 6e 3a 1d bc d0 86 fe b9
       -0.005822235 0.00034064613 -0.00959645 -0.00048547098
0001d0 58 6a 53 b8 8c d5 7d bc 65 86 06 bb 1d c3 65 3c
       -5.040536e-05 -0.015492808 -0.0020526883 0.014023569
0001e0 83 a1 96 bc 0d 2b ef bc 4c 06 be bb fb bc 21 3b
       -0.018387562 -0.029195333 -0.0057990905 0.0024679292
0001f0 f5 3c a6 3c ac 11 15 3c af 5f f7 bc 43 8e 02 bc
       0.020292738 0.009098452 -0.030196993 -0.007968488
